Assets/TFModels/RobotArm.onnx (onnx, 74443 bytes, 7 tensors)

network_body._body_endoder.seq_layers.0.weight f4 [128, 8]
000000 66 3f 9a 3e 3a 2e 88 be c9 7d 65 3e 39 b3 ee be
       0.30126494 -0.26597768 0.22411264 -0.4662111
000010 11 54 68 be 9f a9 7d bc ec c2 ba 3e 52 a7 bc be
       -0.22688319 -0.015482335 0.3647684 -0.36846405
000020 fe 4a 5f 3f 8d dd f0 3c 05 a1 a7 3e 41 43 9c be
       0.87223804 0.029402519 0.32740036 -0.3052006
000030 f4 8a 94 be 42 34 26 3e 95 0c 0c bf f7 6a 07 3f
       -0.29012263 0.16230872 -0.547067 0.5289759
000040 36 a8 1c 3e 43 7f 54 3c 8e bb 4f bd 22 2a 9a 3e
       0.15298542 0.012969795 -0.050715975 0.3011027
000050 a3 78 8e 3e e5 18 67 be e3 cf b2 3e c9 0d b6 be
       0.27826414 -0.2256809 0.3492423 -0.35557392
000060 07 fe 99 be 0c 6a 72 bf 15 42 02 3e 21 39 f9 3e
       -0.3007662 -0.94693065 0.12720521 0.48676398
000070 65 15 b0 ba f5 85 c1 3e 16 df 0d 3f 1a 5e fe bd
       -0.001343411 0.37797514 0.5541853 -0.12420292
000080 a1 b2 5d bb 87 98 b0 be 05 a7 aa be 96 2e cc be
       -0.0033828395 -0.3449137 -0.3333055 -0.39879292
000090 8b fc 28 3e 9f 61 3d bd 69 cd 88 be 32 69 7a 3d
       0.16502587 -0.046235677 -0.26719216 0.06113548
0000a0 bc 3e b9 3e 52 d2 90 3e b1 11 93 be af a1 ed 3d
       0.36180675 0.28285462 -0.28724435 0.11603104
0000b0 c9 b1 d1 3e 74 ce 4e be cd 52 69 3f 3b 21 23 bf
       0.40955952 -0.20195943 0.9114197 -0.6372258
0000c0 55 e3 eb 3e 4b fb d5 3e 9a 4d 23 be d2 6f 53 3e
       0.46071878 0.41793284 -0.15947571 0.20648125
0000d0 1b b4 24 bf 62 15 48 bf 77 3e 34 3f 8c 39 7d be
       -0.6433732 -0.7815763 0.70407814 -0.24728984
0000e0 b5 ab 29 3e aa 5a 07 bd 2d a4 4d be 37 90 9b 3e
       0.16569407 -0.03304545 -0.2008216 0.30383465
0000f0 7b 32 c1 3d 07 03 f3 bc 76 c9 00 3f d3 0c 09 be
       0.094334565 -0.02966453 0.50307405 -0.13383798
000100 82 04 20 3e b0 48 72 3c 94 5a 45 be ac cb 42 be
       0.1562672 0.014787838 -0.19272834 -0.19023007
000110 5f 48 1f bf 6f 52 96 3e 78 39 c5 3e bf 78 85 be
       -0.62219805 0.29359767 0.38520408 -0.26068684
000120 b2 55 bd 3e b7 33 cc be 78 e3 37 be ba c3 83 3e
       0.36979443 -0.39883205 -0.17957866 0.25735265
000130 0e 54 77 3e d9 81 c7 3e 69 fe 09 3f 84 c5 54 bf
       0.24153158 0.38966253 0.53903824 -0.83113885
000140 0f f6 72 bc 8f 49 38 3d dd a2 05 3f e5 7e d1 3e
       -0.014829173 0.044992026 0.52201635 0.40917125
000150 74 92 0c 3e f2 0b ec 3e 90 56 86 3e 96 8a 1c 3f
       0.13727742 0.46102864 0.26237917 0.61148965
000160 c1 32 2c be 28 79 3d 3d c5 f7 e7 be d6 aa 7a 3e
       -0.16816236 0.04625812 -0.4530622 0.24479231
000170 4f a8 32 3f fd 6c c4 bd 73 58 2c 3e 36 d0 18 3f
       0.6978807 -0.095911 0.16830616 0.59692705
000180 2b 90 41 3e b3 76 06 3f 8e 82 b6 3e f0 47 2a bd
       0.18902652 0.5252487 0.3564648 -0.04157251
000190 bf af fc 3d 06 b1 00 3e 5c 37 c8 3e 8e 8e 07 3e
       0.123382084 0.12567529 0.39104736 0.13237974
0001a0 82 54 61 3e 97 41 a9 be 1c 7c b2 be 63 cf 0f 3f
       0.22004893 -0.33057854 -0.34860313 0.5617582
0001b0 3a 7b 9b 3e fd 64 b3 3e 45 8b 96 be 87 12 b2 bd
       0.30367452 0.35037985 -0.2940313 -0.0869494
0001c0 04 7d 03 be 64 b7 91 be d2 c2 09 3e 83 05 89 3d
       -0.12840658 -0.28460228 0.13453224 0.066905044
0001d0 b6 a8 e4 bd bc 11 86 be 26 5e d5 be 55 03 9e be
       -0.111649916 -0.26185405 -0.41673392 -0.30861917
0001e0 68 b6 5f be 01 f2 bb 3d c0 cf 61 3d 35 f5 e0 bd
       -0.21846926 0.09177018 0.055129766 -0.109842695
0001f0 1f 52 80 3d 8a d0 8b 3e 7e 16 37 be 4d 7e db bc
       0.06265663 0.2730754 -0.17879674 -0.026793623
000200 20 00 c0 3d 46 0f 5a be 1e 28 f4 bd 9d 54 99 3e
       0.09375024 -0.21294889 -0.11921714 0.29947367
000210 b7 f7 9e 3d 47 1b d8 bd 2b 61 c9 3e 2e d8 ca be
       0.077620916 -0.10552078 0.39331946 -0.39618057
000220 0e 4c 44 bd c6 03 67 3b bf be d5 3e 41 c1 b5 3e
       -0.047924094 0.0035250052 0.4174709 0.35499004
000230 5e e1 40 be e7 09 27 be 8a 30 d4 3d b3 1d 66 3f
       -0.18835971 -0.16312371 0.103608206 0.8988907
000240 86 74 39 3e d8 73 a0 3d 81 bf ae be 9d a5 d0 be
       0.18110856 0.078345954 -0.3413048 -0.40751353
000250 1b 2b a0 bb 2d 7a a1 3e 24 71 71 be 9f 9d d6 3d
       -0.004887951 0.31538525 -0.23578316 0.104792826
000260 61 e5 9c 3e 83 88 22 bf ca 0a f8 be 80 49 0b 3f
       0.30643752 -0.6348955 -0.4844573 0.5440903
000270 69 e6 ec 3e 0e a6 0a be a7 e7 e6 bd 97 9f 3b 3e
       0.4626954 -0.13539907 -0.11274653 0.18322597
000280 f3 fd eb be 96 e8 f1 3e 58 02 2f 3e c0 0e a7 bd
       -0.46092185 0.4724776 0.17090738 -0.0815711
000290 28 82 3a bf d9 e9 b3 3d 32 64 df 3c 28 51 8c 3e
       -0.7285485 0.08784837 0.027269457 0.27405667
0002a0 95 82 10 bf a1 01 64 be 5b 86 ba 3e cd 50 8f be
       -0.5644925 -0.22266246 0.3643063 -0.27991334
0002b0 a5 b1 07 3e 27 55 4c 3d 1c f5 e0 be 51 42 74 be
       0.1325136 0.049885895 -0.43937004 -0.23853423
0002c0 8b 4d 10 3e 0b e8 7a be 1b be 0a 3f 36 e1 57 bd
       0.1409208 -0.2450258 0.5419633 -0.052705012
0002d0 19 a4 5e 3c 11 9a 4e 3d 02 8c 91 3e 5b 30 29 3d
       0.013588929 0.050439898 0.2842713 0.04130588
0002e0 ad b4 6d bd ad 18 41 3e 38 5b eb be f8 58 17 3f
       -0.058033634 0.1885707 -0.45968032 0.5912013
0002f0 9e 9a 06 3f d9 1c c8 be 32 50 eb 3b f6 75 bd 3d
       0.5257968 -0.3908451 0.007181191 0.09251015
000300 21 90 7c be 09 ea 0a 3e 9e fb 86 bc b6 bc 3c bf
       -0.24664356 0.1356584 -0.016477402 -0.7372545
000310 7c 5f ef 3e a3 d7 04 3f 60 ad 91 3d 5d 56 fb be
       0.46752536 0.51891536 0.07113147 -0.49089327
000320 1f 10 91 3e 29 b7 ca 3e 91 f3 b4 be 18 d1 0b bf
       0.28332612 0.39592865 -0.35342076 -0.54615927
000330 ee aa 00 3e 88 2c cc 3e c1 7b ca 3d dc 22 d7 bd
       0.12565205 0.39877725 0.098868854 -0.10504696
000340 4d 4c a5 be 99 56 b8 3d 6a 29 22 3e d7 c4 25 3f
       -0.32284775 0.09000892 0.1583611 0.6475348
000350 81 60 b8 be 66 fa a6 3d 48 1e 82 bd 24 fa 2f b9
       -0.36011127 0.081532285 -0.06353432 -0.00016782485
000360 95 36 7d be b4 e6 33 be d4 e5 e4 3e f1 71 e5 3d
       -0.24727853 -0.17568475 0.44706595 0.11203373
000370 93 19 b5 be 7e aa e6 be 32 b7 03 3f 00 62 42 bf
       -0.35371074 -0.4505195 0.5145141 -0.75930786
000380 5a fd 1c 3d 3d 43 85 3e 7b 87 a3 be 3f c0 bb be
       0.038327552 0.2602786 -0.319393 -0.3667011
000390 87 eb fc 3e 08 db cc 3d 9c d9 95 be 03 f2 39 bd
       0.49398443 0.100027144 -0.29267585 -0.045396816
0003a0 50 fc 25 3c 5a 85 4b 3e 77 c6 ca 3e 28 d9 9d be
       0.010130957 0.19875088 0.39604542 -0.3082974
0003b0 7a 75 4c bd e7 ef 4a bf 4b ae f6 3e c1 77 c7 be
       -0.049916722 -0.7927231 0.4817985 -0.38958552
0003c0 26 d4 57 bd e3 70 90 be bd b0 0f 3e c4 be b6 3c
       -0.052692555 -0.28211126 0.14032264 0.022307761
0003d0 80 75 1f bf cb c3 0b 3d ce c5 59 3e 51 0d 08 3f
       -0.62288666 0.03412227 0.21266863 0.5314532
0003e0 80 37 4a 3d 9b a2 2d bc b8 98 3f 3e 5c 14 be 3e
       0.049369335 -0.01059785 0.18710601 0.37124908
0003f0 f7 fc c1 3d a6 75 02 3f db 57 9a 3d 32 ff 33 bf
       0.09472077 0.5096077 0.07536288 -0.7031127

network_body._body_endoder.seq_layers.0.bias f4 [128]
000000 90 18 99 bd a0 05 d7 3c 0f e4 be bd 4a 7e c1 bd
       -0.07475388 0.0262478 -0.093208425 -0.09447916
000010 c4 60 04 3e a1 e9 b9 bd 64 0f a4 bd 64 dd c3 bd
       0.12927538 -0.09077764 -0.08010748 -0.09563711
000020 ad 0c b1 bd 5d 41 8d bd 17 12 46 3c 88 e2 d3 bd
       -0.08644996 -0.06897233 0.012089274 -0.10345942
000030 40 77 e0 bd bd 27 0c 3e 94 17 98 3d a7 06 af 3c
       -0.10960245 0.13687034 0.07426372 0.021365477
000040 7e 4b ed bd 7e 0c 62 3d 4b 5b 07 3e 01 42 a3 3d
       -0.115866646 0.055187695 0.13218419 0.079715736
000050 92 f7 1a bb 5a a3 15 3e 16 23 c7 bd b7 73 36 3e
       -0.0023646099 0.14613095 -0.09723489 0.17817579
000060 40 2e 6f 3c d6 45 12 be 50 96 64 bc 62 18 18 bd
       0.014598429 -0.14284453 -0.013951853 -0.03713263
000070 28 27 05 3e 29 bf 2f bd c4 ee 1f bd b7 77 e9 3c
       0.13003218 -0.042906914 -0.039046064 0.028499467
000080 35 30 ee 3d 36 bc 16 3e 32 1d 18 3c 34 24 9f 3d
       0.116302885 0.14720234 0.009284304 0.07770577
000090 28 b3 76 3b 1f 09 8a bd 2c c6 09 3c d9 21 65 bd
       0.0037643407 -0.06740021 0.008409064 -0.055940483
0000a0 b0 fc cd bd f8 18 91 bd b2 96 2b 3e 8a 72 d8 3d
       -0.10057962 -0.070848405 0.16756704 0.105687216
0000b0 4d 28 3c 3e c5 23 98 3d fc fc 9a bd 99 2c f5 3d
       0.18374749 0.074286975 -0.07567784 0.11971397
0000c0 2f 1d d9 3b a2 3e b9 3d e6 2e 83 bd 3a f8 7d 3d
       0.0066257934 0.090451494 -0.064054295 0.062004305
0000d0 1f ee 0b be b7 cf 2d 3e 92 be d8 3d b4 4f da bd
       -0.13665055 0.16973768 0.105832234 -0.106597334
0000e0 fe 2d bf bd ba f5 4e bc e3 8b b5 bc 3d 4a 8b bc
       -0.09334944 -0.012631828 -0.02216143 -0.017003173
0000f0 16 4f a7 3d 3b 3d 0d be 3c 35 ff bd 00 e7 e4 bd
       0.08169381 -0.13792889 -0.124613255 -0.11176872
000100 a5 4a 49 bd 17 4c 3a 3e a5 6f cd 3c f7 a8 00 3d
       -0.049143452 0.18193088 0.02507765 0.031411137
000110 72 7a 0f bd 8e 62 09 3c bf 6c 7f 3c ef af b7 bd
       -0.035028882 0.008385314 0.015589892 -0.089691035
000120 5c be 9c bd 2f 2e 8c bd 8e 76 00 be 84 00 1a 3e
       -0.07653496 -0.06844746 -0.12545225 0.15039259
000130 43 31 8f 3d 9d ea f6 bd 4e 58 99 bd a8 64 b4 bc
       0.06991818 -0.12056468 -0.07487546 -0.022020653
000140 a0 8a eb bc 4d 82 25 3e 93 f4 e4 3d cf 99 07 be
       -0.028752625 0.16162987 0.11179461 -0.13242267
000150 cf 3f e7 bc f3 3d d9 3d fa 91 a9 bd b7 a9 a1 3d
       -0.028228668 0.10607519 -0.08279796 0.07893699
000160 9a b7 45 3e 35 be f5 3c aa a4 9d b9 c1 9c 9c bd
       0.1930832 0.029997924 -0.00030068058 -0.07647086
000170 f3 d7 e8 3d 6e 0d 3f 3d 4f d6 0b bd 9e f0 f6 3d
       0.11369314 0.046643667 -0.034139927 0.12057613
000180 28 29 1b 3e fb d3 85 bd 6e 96 a2 bd 74 4c 03 3e
       0.15152419 -0.06534573 -0.079388484 0.12822133
000190 3d c5 8f 3d fb b4 bf 3c 2b 7d 88 bc 11 0c fb 3d
       0.07020042 0.023401728 -0.016661247 0.12258161
0001a0 d9 87 62 3d 27 58 a3 3c d9 e4 3e bd c9 f4 56 bd
       0.055305336 0.019939495 -0.046604965 -0.05247954
0001b0 4d a4 4a be a5 85 5a 3d 02 5e 0d 3e 35 cf 1a 3e
       -0.19789238 0.05335011 0.13805392 0.15118106
0001c0 53 26 3b 3d d5 11 4b bc c6 d2 c4 39 e9 0d ee bd
       0.045690846 -0.012394388 0.00037541072 -0.11623747
0001d0 de 70 30 be 53 ee a0 3d da c2 17 3e 8e cb 8c 3b
       -0.17230555 0.07857957 0.14820424 0.0042967265
0001e0 59 94 68 3d ef d5 d2 bc 41 f7 17 3e bf d1 db 3d
       0.0567821 -0.025736777 0.14840414 0.10733365
0001f0 0c 09 c5 3c e3 02 ea 3d 46 60 8e bc 12 b7 dd 3c
       0.024052165 0.11426332 -0.017379891 0.027064834

network_body._body_endoder.seq_layers.2.weight f4 [128, 128]
000000 b3 1d 57 bd 22 df 70 3c d4 07 6c 3d a7 fc 22 3e
       -0.052518558 0.0147016365 0.057624653 0.15916692
000010 a6 4e bf bc f4 07 2e 3e e1 dc d5 3d c4 f1 44 3d
       -0.023352932 0.16995221 0.1044252 0.04808213
000020 ac 2e 47 3e b9 2c 23 be f5 c9 70 bd 59 70 3c be
       0.19451398 -0.15935029 -0.05878635 -0.18402232
000030 0f 76 e2 bd 2d d7 96 3d d4 70 ed 3c 01 56 0b be
       -0.11057674 0.0736526 0.028984465 -0.13607027
000040 54 a6 21 bd 77 32 cd bd f4 4d 7f bd 36 5e 60 bd
       -0.039465263 -0.10019391 -0.0623302 -0.054777347
000050 9e 17 19 bc 43 f7 0f bd 02 f7 09 bd 60 fa 44 bd
       -0.00934401 -0.035147917 -0.03368283 -0.04809034
000060 0a 06 66 bd 79 b4 5f 3d 42 a4 f5 3b 29 8e 30 be
       -0.056158103 0.05461547 0.0074963877 -0.1724173
000070 f9 23 35 bd a5 00 dc bd 03 a4 88 bd 86 46 ff bd
       -0.04422376 -0.107423104 -0.06671908 -0.12464623
000080 d0 d2 90 3d 18 52 83 bc b0 a3 e8 3c 46 9d 01 be
       0.07071459 -0.016030356 0.028398365 -0.12657651
000090 4b b5 d5 bd 26 7c 9b 3d b1 37 42 3c 55 ab de 3d
       -0.104349695 0.07592039 0.011854098 0.10872523
0000a0 9f 51 6d 3b f1 29 c4 bd 76 a1 55 bd 60 36 fe bd
       0.003621198 -0.09578312 -0.052155934 -0.12412715
0000b0 2f 21 81 3d b8 8e 3f 3c 8f f3 74 bd 09 e8 6b bd
       0.063051574 0.011691742 -0.059802588 -0.057594333
0000c0 37 26 48 3d 83 80 18 3d 49 21 84 3d 7e 40 14 3c
       0.04886457 0.037231933 0.06451661 0.009048579
0000d0 5f 07 a5 bd ae 8e 6c bd 22 10 82 bd 4d 69 8c bd
       -0.080580465 -0.057753257 -0.06350733 -0.06856022
0000e0 33 cf e2 3b 1d 9c 6c bd 3f 87 25 3c ee 35 ae 3c
       0.0069216727 -0.05776607 0.010103046 0.02126595
0000f0 76 cd b2 bd f8 da 7c 3c 4c eb 0a 3e ad 92 f5 bc
       -0.08730595 0.015433066 0.13566321 -0.029977167
000100 66 fc 85 bd 46 6d b0 bd 6b 9d 9a bd 2c 36 ca 3d
       -0.06542282 -0.08614592 -0.07549556 0.09873614
000110 14 23 bc bd db c1 08 bd f4 10 b5 3d 8f f9 14 be
       -0.09186378 -0.033388 0.08841124 -0.14548324
000120 57 46 f6 3b cc f5 24 3d f7 34 62 3d 63 9a a1 3d
       0.0075157094 0.040273473 0.055226292 0.07890775
000130 d8 fb 56 3d 3b 16 a6 3c cd 1f 24 be 44 25 4e bd
       0.05248627 0.020274272 -0.16027756 -0.050328508
000140 f1 c3 99 bd 4f e3 be bc 47 67 e3 bd 5e 4d d4 3d
       -0.07508076 -0.023301749 -0.11103683 0.10366319
000150 5d ea 71 bd 5f 12 f5 bd 03 9f 00 3d 71 6a a6 bc
       -0.059061397 -0.11966395 0.031401645 -0.020314427
000160 96 83 85 3d 93 d2 01 be ce 9c 78 bd 80 ed 71 bc
       0.06519239 -0.12677984 -0.060696416 -0.014766097
000170 d8 ae 3b bd 7d 85 b8 bd b9 00 b2 bd 25 e4 56 bd
       -0.04582104 -0.09009836 -0.08691544 -0.05246367
000180 b2 3b 32 be 1d e6 ab 3c 26 74 a7 bd db 10 80 3d
       -0.17405584 0.02098375 -0.081764504 0.06253215
000190 98 89 63 3d 58 78 e7 3c 1b 62 81 3d 0c 79 0b be
       0.05555114 0.028255627 0.0631754 -0.13620394
0001a0 12 26 98 3d a5 98 ca bd d0 a1 0d be 7a 04 78 bd
       0.07429136 -0.09892396 -0.13831258 -0.060551144
0001b0 2f f5 e4 bc 22 b6 80 bd 3b 6e f7 bd b4 c4 11 bd
       -0.027948944 -0.06284739 -0.12081572 -0.03558798
0001c0 3b 03 80 3b eb ed fe 3b f1 2a dc bc 76 3f 5b be
       0.003906635 0.007779827 -0.026875945 -0.21410927
0001d0 cd 0b 0d 3d 55 5e 65 3d b7 c0 5b 3d 0a b9 3b be
       0.034435082 0.055998165 0.053650584 -0.18332306
0001e0 ea 25 45 3e 23 84 95 3c 6a 9a 56 3e e1 3d 7a 3e
       0.19252744 0.018251484 0.20957342 0.24437667
0001f0 49 15 40 bd fd 49 8b 3a f0 a7 58 bd 7f bf 12 3e
       -0.0468953 0.0010626909 -0.052894533 0.14330862
000200 5c a2 34 3e 55 fd bb 3d fc 88 b7 bd 6b b5 b0 bd
       0.1764006 0.091791786 -0.089616746 -0.08628353
000210 31 b9 23 3a 2f 5e e4 bb 3b 06 09 bd 98 df 32 be
       0.0006245552 -0.0069692354 -0.033453207 -0.17468107
000220 6a cb bf 3c bb 1c 0f 3e ee 00 2e bc 97 2c 9c bb
       0.023412425 0.13975804 -0.010620339 -0.0047660577
000230 66 25 3c 3d 80 56 cb ba 90 0d 05 3d 9f c0 b3 3c
       0.045934103 -0.001551345 0.032483637 0.021942435
000240 58 e8 a4 3d 4b 40 29 bd 45 94 c0 bc dd 0e 43 3d
       0.080521286 -0.04132108 -0.0235082 0.047621597
000250 ed 74 45 bc 32 40 ec 3d 0f 4b 73 bc e5 c8 32 be
       -0.012051803 0.11535682 -0.014849438 -0.17459448
000260 64 62 85 bc 06 a8 92 3d d0 be 5e bd a0 f2 11 3d
       -0.016282268 0.07160954 -0.05438119 0.035631776
000270 01 88 88 bd 8f 84 62 3d 01 d4 6c 3d 2c 1a e0 3d
       -0.06666566 0.0553022 0.05781937 0.10942492
000280 a0 cd a0 3d d0 5c c6 bd 20 5e 41 3e 92 91 3e 3d
       0.0785172 -0.09685671 0.18883562 0.046525545
000290 ce 59 b9 bc a0 43 2d 3d 9b 13 10 bd 02 01 ae 3c
       -0.02262583 0.04230082 -0.035174947 0.021240715
0002a0 f0 4e 19 3d 32 70 21 3c 74 fc 1a 3e a4 00 22 3e
       0.037428796 0.00985341 0.15135366 0.15820557
0002b0 54 37 ac 3d e1 29 31 bd bc 6c f7 3c d0 5b a2 3c
       0.084089905 -0.04325283 0.030203216 0.01981917
0002c0 84 04 c9 bc b2 1e ce bd ac 97 cc bc fc cc 04 3e
       -0.024538286 -0.100644484 -0.024974667 0.1296882
0002d0 3b 76 8f bd d6 10 39 3d 7c 55 aa bd 60 c2 19 3c
       -0.070049725 0.04518207 -0.08317086 0.0093847215
0002e0 ee 8e 4b 3d 5a de 6a bc 99 9e 10 3e ef ee 1e be
       0.049696855 -0.014335239 0.14123 -0.15520833
0002f0 29 97 6c 3d 57 38 b9 3c 40 12 7d 3d e0 8d 26 3e
       0.057761345 0.022609873 0.061784983 0.16265059
000300 95 0c b8 3d 23 94 86 bd 53 65 37 be 7e e3 2a 3c
       0.08986775 -0.065712236 -0.17909746 0.010430215
000310 8a f7 bd 3d 4d 92 2c bd 4e 98 ac bc 2b 8b 48 3e
       0.0927573 -0.04213171 -0.021068718 0.19584338
000320 c6 33 e9 bc e3 53 9b 3a 74 b1 46 3d b1 ef ee 3d
       -0.02846707 0.0011850562 0.048509076 0.11666811
000330 ea 79 e7 bc e2 93 dc bc 04 0e e3 bd 3b 30 1b 3d
       -0.028256375 -0.026925985 -0.11086658 0.037887793
000340 47 1e 37 3e 94 af 0d 3d b3 58 8d 3e 4c 09 db 3c
       0.17882644 0.034591272 0.27606735 0.026737832
000350 f8 ca 88 bd 10 fe 45 3e b9 6f c1 3d 82 a4 38 3e
       -0.06679338 0.19335198 0.094451375 0.18031505
000360 4a 5d aa bd c7 ce 46 3e a0 a4 2e bd 77 b1 1f 3e
       -0.08318575 0.19414817 -0.042637467 0.15595041
000370 b1 3e 39 bd b7 2e 2b 3b e4 9e 46 bd 52 8f 28 bd
       -0.045225803 0.0026120374 -0.048491374 -0.041152306
000380 94 b9 30 3e 87 60 b4 bd 6c 1d 53 bd 1c dd 67 bd
       0.17258292 -0.08807474 -0.05154173 -0.05660735
000390 02 25 46 be 85 6a 24 bd 96 ab 56 be c9 b0 c7 bd
       -0.19350055 -0.040140647 -0.20963892 -0.09750516
0003a0 e1 9f 01 3e ea cd 2d be 82 7d d3 bc b0 e8 bc 3d
       0.12658645 -0.16973081 -0.025816683 0.09224069
0003b0 88 21 55 bd 0a c4 99 bd 88 63 75 3c 34 fa 92 3b
       -0.05203393 -0.075080946 0.014977343 0.004485393
0003c0 4f 01 4e 3d 92 51 ed bd 9f 66 a2 bd 99 7d 27 3e
       0.050294217 -0.11587824 -0.0792973 0.16356505
0003d0 22 3e 95 bc 41 aa 58 3d 16 75 42 be 89 a1 16 3e
       -0.018218104 0.05289674 -0.18989977 0.14710058
0003e0 96 5e 78 bd 52 ad ec bc e6 52 fa bc 8b ea bc bd
       -0.06063708 -0.02889124 -0.030557107 -0.09224423
0003f0 dd f0 50 3d 89 61 00 be 6b 0e 2c 3e 82 c1 be 3c
       0.051010955 -0.12537207 0.16802375 0.023285631

network_body._body_endoder.seq_layers.2.bias f4 [128]
000000 0e 57 0f bd 33 cc 86 bc 04 25 08 3d 2e 64 d7 3b
       -0.03499513 -0.016454792 0.033238426 0.0065732216
000010 d4 de a7 3b 9c 0d bf 3b ef 03 59 bd 16 fa 05 bd
       0.0051229987 0.00583048 -0.052982267 -0.032709204
000020 1b aa a5 bb 8b c0 bf bc e4 b3 dc 3c f3 34 61 3c
       -0.0050556785 -0.023407241 0.026941247 0.013745534
000030 7f 2c e9 bc 0d 9a c0 3d 35 b8 ca 3d d5 b7 4c bd
       -0.0284636 0.09404383 0.09898416 -0.049980003
000040 45 4b 92 3d 1d 54 45 bd cb 0e 34 bd 27 e6 c9 bc
       0.07143263 -0.04817592 -0.04395942 -0.024645878
000050 f7 94 35 3d c9 f4 b5 bd 6a 1d d7 3b ee 21 52 bd
       0.044331517 -0.0888458 0.0065647857 -0.05130189
000060 e3 19 22 bd 40 87 33 3d e3 7a 0c bd c9 85 8e bc
       -0.03957547 0.043830156 -0.03429688 -0.017397778
000070 a8 a5 02 3c 11 3c b2 3c 2b 8a 90 bd 86 8b 45 bd
       0.007974066 0.021757158 -0.070576034 -0.048228763
000080 50 7c 85 3d 46 56 a4 3d f9 c1 a6 bc 5b 1d 4f 3c
       0.06517851 0.08024268 -0.020356165 0.012641276
000090 f5 23 bf bd 8b e1 1b 3d f4 63 9a 3d ee 08 f1 bc
       -0.0933303 0.03805689 0.07538596 -0.029423203
0000a0 e8 02 be bd 22 3c cb 3d 37 9a 94 3c f8 7f 12 bc
       -0.09277898 0.09923579 0.018139942 -0.008941643
0000b0 00 85 8c 3c b3 ab 29 bd f1 d3 86 bd b4 ca ac 3d
       0.017153263 -0.04142351 -0.06583393 0.084371
0000c0 e8 84 a0 3c a2 4f 89 bc 4b db 6a bc be 91 51 bd
       0.019594625 -0.016761605 -0.01433451 -0.05116438
0000d0 a7 61 80 bd 7b d8 28 3c 94 c8 0b 3e ff 65 aa bc
       -0.06268626 0.010305519 0.13650733 -0.020800589
0000e0 67 c1 fe 3b 04 41 09 bd 98 05 7f bd c1 b4 c2 bc
       0.00777452 -0.03350927 -0.062261194 -0.02376783
0000f0 b9 36 af 3d 75 db 14 3d 86 04 67 3d f0 05 1b bd
       0.085553594 0.036342103 0.0564008 -0.03784746
000100 1d 81 0e bd 5c 67 0a bd fb 77 a4 3d 0a 01 dd bc
       -0.0347911 -0.033789977 0.08030697 -0.026978035
000110 2d 78 2a bd e6 c2 22 3b 4a 5e a5 bc f8 fe 4e bd
       -0.041618515 0.0024835407 -0.020186562 -0.050536126
000120 fb a9 22 bd ed e7 8f bd 62 4c 94 bc 9f 07 0a bd
       -0.039712887 -0.07026658 -0.018102828 -0.033698674
000130 fc 31 e0 bd 83 fd 37 3d d8 6a ab bc fa 95 b1 3c
       -0.10947034 0.044919502 -0.02092497 0.02167796
000140 7f de 62 3d 2c 02 98 bd bb 1a 2f bd 2a 3e 23 bd
       0.05538797 -0.07422289 -0.0427501 -0.039854206
000150 8f 9e 5e 3d 6a 08 21 bd 05 cc 29 bd 47 73 19 bd
       0.054350432 -0.039314665 -0.041454334 -0.037463453
000160 92 ad 03 be ce eb 4e 3d f3 e0 d0 bc 48 c4 29 bd
       -0.1285918 0.05051785 -0.02549789 -0.041446954
000170 bc 2c e0 bc ed bf 4f bd 77 b9 a0 bd e5 d3 af 3c
       -0.027365081 -0.050720144 -0.078478746 0.021463344
000180 0b 45 b3 bd c5 d5 02 bd d2 6a 55 3d bc 97 24 bd
       -0.08753403 -0.031942148 0.052103825 -0.040183768
000190 9b be e0 3c f4 92 ad bd 94 ba e3 bc 16 77 e5 3c
       0.027434638 -0.08475295 -0.027798928 0.028010886
0001a0 77 b0 a9 bd bd 37 8f bd 01 a9 e1 bc 19 01 01 be
       -0.08285611 -0.06993053 -0.027546408 -0.12598075
0001b0 3f e7 a7 bc 1b 42 33 bc 52 c5 80 bd 7f 10 87 3b
       -0.020496009 -0.010941054 -0.06287636 0.0041218395
0001c0 41 c4 d6 ba ba e4 70 3d 6a 1e 10 bd 80 10 ab 3d
       -0.0016385393 0.05881188 -0.035185255 0.083527565
0001d0 b0 9c a3 3d f3 39 71 bd 10 d7 cd bc 07 69 cf 3d
       0.0798887 -0.058893155 -0.025126964 0.10127454
0001e0 e7 8a f3 3b 55 e3 7d bd 00 79 c7 ba 4b 7f d6 ba
       0.00743233 -0.06198438 -0.0015218556 -0.001636484
0001f0 c3 b2 44 3d 90 ef f5 bc 43 64 16 bd 44 db 48 3d
       0.048022043 -0.030021459 -0.03671671 0.049037233

action_model._continuous_distribution.log_sigma f4 [1, 2]
000000 5f de bd 3f f5 44 91 3f
       1.4833487 1.1349169

action_model._continuous_distribution.mu.weight f4 [2, 128]
000000 7d b2 53 bd f7 8f b9 bc 4d 5f 8e bd 2f c1 63 bc
       -0.05168389 -0.022651656 -0.06951771 -0.013901039
000010 4a 90 86 3d 56 8b 35 bd 12 83 0f bd 37 2a 0a bd
       0.0657049 -0.044322334 -0.035037108 -0.033731665
000020 a7 37 a9 bc 7a 9f d3 bc 36 b3 f6 bc 41 81 a4 bd
       -0.02065642 -0.02583288 -0.030114751 -0.08032466
000030 ab 97 84 bd 5b d8 dd bd 07 6c eb bd fa 93 ac bc
       -0.06474241 -0.10832282 -0.11495214 -0.021066654
000040 d6 f4 8b bc 2c a4 cf bc 7a 1c 51 bd 18 90 bd bc
       -0.01708452 -0.025346838 -0.051052548 -0.023139998
000050 2b 75 dc bc f3 13 b3 bc ae 3c 59 bd d1 a7 c0 bc
       -0.026911339 -0.021860098 -0.053036384 -0.023517521
000060 30 94 c3 bc e3 42 90 bd a3 31 1d bd b7 d1 99 bc
       -0.023874372 -0.07044008 -0.038377415 -0.018776758
000070 64 be db bd d3 94 84 bd b2 44 12 bd 64 bc 48 bd
       -0.107296735 -0.064736985 -0.035710044 -0.04900779
000080 d7 4c ae bd b2 3e f6 3c 26 6c 95 bd a3 82 6e bd
       -0.0851075 0.030059192 -0.07296018 -0.058230054
000090 1a e3 a7 bc 3f 28 4c bb a9 ae a2 3d 19 6c e2 bc
       -0.020494033 -0.0031151918 0.0794347 -0.027639436
0000a0 7b a2 6d 3c d1 f9 b7 bd 85 ab 8d bd ed a8 8a bc
       0.01450407 -0.089831956 -0.069174804 -0.016926253
0000b0 e9 01 14 bd f6 62 01 bd ac f2 9a bc 28 a1 29 bd
       -0.036134634 -0.031588517 -0.018914543 -0.041413456
0000c0 ea e0 96 bd 3f 13 d7 bd 70 29 1a bd 78 c5 90 b9
       -0.07367118 -0.10501718 -0.037637174 -0.00027612946
0000d0 03 d7 bd bc 50 d8 bd bd 4c ed 1b be 1d fc 40 bd
       -0.023173815 -0.09269774 -0.1522724 -0.047115434
0000e0 ee aa f9 bd b6 0d 08 be 43 34 0c bd 94 12 4f bd
       -0.121908054 -0.1328648 -0.03422953 -0.050554827
0000f0 78 62 ac bd a9 68 cf bd 21 63 1a 3d 7b b7 59 3b
       -0.08417219 -0.10127384 0.037692193 0.0033220935
000100 06 8d 2f bd 3b 0b a1 bd c5 10 ce bd 6d 8e 35 bd
       -0.0428591 -0.0786347 -0.10061792 -0.04432528
000110 9b e0 a3 bc 48 3d ec bc 76 32 8e bc 5c bb d2 bd
       -0.020004561 -0.028837815 -0.017358046 -0.10289642
000120 ef 83 51 bb 17 10 03 bd e6 c6 bc bc f4 62 08 bd
       -0.0031969508 -0.031997766 -0.02304406 -0.033297494
000130 0e bf 93 bc bd 64 cd 3d eb a3 93 bd 8a 0b 23 bd
       -0.018035438 0.1002898 -0.07208999 -0.039805926
000140 b2 a3 68 3d 61 6a 91 bd 5a ec 8c bd 19 37 13 bd
       0.056796737 -0.07100368 -0.06881018 -0.035941217
000150 7b 78 9a bd 2f 74 b7 bd d5 3e c5 bc 1e c0 89 bd
       -0.07542511 -0.08957707 -0.024077812 -0.067260966
000160 d3 2d a0 bb 5f 0b 83 bc 98 b0 83 bc ab 49 93 bc
       -0.004888275 -0.015996633 -0.016075417 -0.017979464
000170 da 92 82 bd fd 7f cc bc 19 8a ca bc 31 51 02 be
       -0.06375666 -0.024963373 -0.024724053 -0.12726285
000180 77 24 ea bc ab 54 45 bd 70 f6 12 bd 0a e8 0a bd
       -0.02858184 -0.04817645 -0.035879552 -0.033912696
000190 3c 94 97 3b 2e 45 d0 3a 07 fa fe bc 91 c3 00 bd
       0.004625825 0.0015889758 -0.031125082 -0.031436507
0001a0 5e 19 d0 bb 96 79 b4 3c a2 e4 f6 bd 57 bf ee 39
       -0.0063506803 0.022030633 -0.12055327 0.00045537457
0001b0 11 f9 d3 bc 5b 9e 7e bc 44 cb 3e bc fd 62 b6 bd
       -0.0258756 -0.015540685 -0.011645142 -0.08905599
0001c0 62 c4 0f bd 12 0a b5 bd 00 c3 54 bd 63 f7 b9 bd
       -0.035099395 -0.088398114 -0.05194378 -0.090803884
0001d0 f2 4d ce bc 06 37 f0 bc 18 20 fb bc ea 12 84 3b
       -0.025183652 -0.029323112 -0.030654952 0.004030575
0001e0 ac 63 19 bd a6 e4 16 bd 41 83 10 be 3b 3d 6a bc
       -0.03744857 -0.03683915 -0.1411257 -0.014296825
0001f0 39 75 1f bd 7e 47 82 bd 96 70 31 bd 6c 61 9d 3b
       -0.03893015 -0.06361292 -0.04332026 0.0048028734
000200 fb c5 7b bd fe 99 58 bd 78 70 b6 3d ef 01 f9 3c
       -0.061468106 -0.052881233 0.089081705 0.03039643
000210 cc 94 84 bd 1d bb c0 bd 62 3a 4c bd 78 52 8a bd
       -0.06473693 -0.09410689 -0.049860366 -0.06754011
000220 cd 91 26 3d 10 7d 51 bd fe 17 c0 3d 1c 3a 91 3c
       0.04066639 -0.05114466 0.09379576 0.017727904
000230 34 2e 25 3d d6 6b ac 3d 1a f5 03 3e 81 2c 55 bc
       0.040327266 0.084190056 0.12886468 -0.013011099
000240 f2 c5 6c bd 68 80 3a bd f3 9c 80 bd 85 bf 96 3c
       -0.057805963 -0.045532614 -0.06279936 0.01840187
000250 57 38 ac 3c 40 04 5c bd 74 2b 52 3d a1 c0 39 3c
       0.021022959 -0.05371499 0.05131097 0.01133743
000260 39 13 6e 3d f2 2a 17 3e 9e b4 74 bc d4 d6 f0 3b
       0.0581238 0.14762476 -0.014935641 0.0073498283
000270 b4 32 41 bd 3c 8b 72 3d 35 02 27 bd b4 66 59 bd
       -0.047167495 0.059214815 -0.04077359 -0.05307646
000280 06 34 0b 3e 27 cf 1c bd 1b 19 4e bd 18 89 9f 3d
       0.13594064 -0.038283493 -0.05031691 0.077898204
000290 b0 82 dd 39 0c d4 95 39 75 24 b0 bd 99 3b 7b bd
       0.00042249775 0.00028577482 -0.086007036 -0.061336134
0002a0 6f 8f 2d 3c 58 d5 a2 3d 46 25 f0 3d fc 02 66 3c
       0.010593279 0.07950848 0.11725859 0.0140387975
0002b0 42 2a 82 3d e9 63 81 bd 48 ea a6 bd 38 ba a3 3d
       0.06355716 -0.063178845 -0.08150154 0.07994503
0002c0 08 f7 58 3d eb 53 52 ba 37 87 62 bd 5d 06 1d bd
       0.052969962 -0.0008023369 -0.055304732 -0.038336147
0002d0 ee 8e a7 3c 1f d6 11 bd bf 1d f5 3d e6 39 57 bc
       0.020453896 -0.035604592 0.11968564 -0.013136363
0002e0 db 7d 61 bb 9f d4 c2 3d de ff 39 bd 08 91 a6 3d
       -0.003440729 0.095132105 -0.04541003 0.08133131
0002f0 a2 f4 7e 3c be ee 50 bd 98 d4 05 be d7 0d 72 3c
       0.015561255 -0.051008932 -0.1306938 0.0147738075
000300 0f 4f 81 bd ea 8f 9c bd 4b 15 a3 3d c0 ac 8a 3d
       -0.06313907 -0.07644637 0.07963046 0.06771231
000310 dd 76 ae bc a2 a1 90 bd fe c2 a5 3c 54 88 6d 3d
       -0.021296913 -0.07062079 0.020234581 0.05799134
000320 9f b1 5f 3a 55 bb 4f bd 6c d3 ae bd 98 3f 03 bd
       0.00085332425 -0.050715763 -0.08536419 -0.03204307
000330 56 29 07 bd 78 79 5f 3c b2 f6 d8 bd 8d 7c 64 3d
       -0.032998405 0.0136398 -0.105939284 0.055782843
000340 9d 5e c4 bc c2 23 02 3c 26 88 06 3d 26 67 85 bd
       -0.023970896 0.007943096 0.032844685 -0.06513815
000350 d5 0f a0 3d 26 ee 07 3d 5d 5b 6a bd eb 41 8e bd
       0.0781552 0.0331861 -0.057216037 -0.069461666
000360 c3 a8 41 bd b8 76 37 3d 17 7a 88 bd b4 bb 62 bd
       -0.047280084 0.044790953 -0.06663912 -0.05535479
000370 8d 98 9d 3d 7d b8 7f bd f2 20 e5 bc e2 2f a2 3d
       0.076951124 -0.0624318 -0.027969811 0.07919289
000380 50 93 09 bd 61 86 2d bd a4 d3 2b bd 45 dd 8b bd
       -0.033587754 -0.04236448 -0.041949883 -0.06829313
000390 5b bc 09 bd 80 93 7b 3a 5a 65 79 3b e6 c4 c8 3b
       -0.033626895 0.00095968693 0.0038054795 0.0061269877
0003a0 c4 36 77 bc 31 6d 82 bc e6 d0 da 3d b0 47 5e 3c
       -0.015088741 -0.015921207 0.106843755 0.013566896
0003b0 ee b3 fe bc 10 40 b4 ba 67 e6 9a 3c eb e8 22 3e
       -0.031091657 -0.0013752002 0.018908693 0.15909164
0003c0 00 a6 29 bd ca e8 a7 bd d9 7d 29 bd d9 ed 9a 3d
       -0.041418076 -0.08198698 -0.041379783 0.07564897
0003d0 3a 18 15 3e 60 c4 d3 bc e2 89 c0 bd 72 61 5f 3d
       0.14560023 -0.025850475 -0.09401299 0.05453629
0003e0 4b 63 81 bd 47 84 f2 bc 09 f5 a4 ba ef 03 44 3d
       -0.06317767 -0.02960409 -0.0012585233 0.047855314
0003f0 7e f7 67 bd 88 dd 62 bd dd 15 82 bd e5 1a 7f 3d
       -0.05663251 -0.05538705 -0.06351826 0.062281508

action_model._continuous_distribution.mu.bias f4 [2]
000000 a4 e8 27 3d 24 79 3e bc
       0.040993348 -0.011625562
