results/NearSingularity01/NearSingularity.onnx (onnx, 588044 bytes, 7 tensors)

network_body._body_endoder.seq_layers.0.weight f4 [256, 53]
000000 cb ec c0 be 3e 87 b6 3d fb c8 86 bc be 6e 35 bd
       -0.3768066 0.08912514 -0.016453257 -0.044295065
000010 65 bb 6e 3e 1c 00 1f 3e 63 15 c4 bd e8 55 5e 3d
       0.23313673 0.15527385 -0.09574392 0.054281145
000020 60 8b 78 3d e1 26 aa bb 29 da c1 3c 42 e2 5f 3d
       0.060679793 -0.005192623 0.023663597 0.054659136
000030 2f 96 91 bd a5 b6 07 3e 0f c8 da bd 60 12 ce 3d
       -0.07108723 0.13253267 -0.106826894 0.100620985
000040 bf e8 5f 3d bf eb aa 3c 63 4f cf 3c 1c c4 36 3e
       0.054665323 0.020864366 0.02530641 0.17848247
000050 ac e5 8f 3b 43 05 cb bd 6f 30 8e bc 49 3d b0 bc
       0.0043913927 -0.09913113 -0.01735708 -0.021513598
000060 30 16 75 3d 07 aa 17 be 61 a2 3f ba 22 44 3c 3e
       0.059835613 -0.14810954 -0.0007310268 0.18385366
000070 84 20 ba 3c c4 ba 5b be d6 96 01 3e f5 68 e8 bc
       0.022720583 -0.21457964 0.12655196 -0.02837036
000080 53 38 27 be 3c 20 02 be 60 09 4e bd 81 ec c0 bd
       -0.1633008 -0.12707609 -0.05030191 -0.094201095
000090 70 85 0f 3d 2d d5 c6 3d 4b bc b5 3d c1 e2 7a 3d
       0.035039365 0.09708629 0.08873805 0.061251406
0000a0 fe b5 96 3d bc dd 9a 3d 4c 3b a2 bd 68 d4 3b bc
       0.07358931 0.07561824 -0.07921466 -0.011464216
0000b0 36 3e 37 bc ad 9b e6 bd 7d c8 d6 bc 01 cf 17 3e
       -0.011184266 -0.112601615 -0.026218647 0.1482506
0000c0 45 f5 f9 bd 43 0b 79 3e 6d c5 fe bd df c4 3d 3e
       -0.122049846 0.24320702 -0.1244 0.18532132
0000d0 db 09 52 bc 2a 3d ca 3d 6e fe 45 be bb 3e fe 3b
       -0.012819733 0.09874947 -0.19335338 0.007758943
0000e0 35 73 26 3e 11 f5 92 3d 2d 7c 52 3d b0 de 0a be
       0.16254885 0.07175649 0.051387955 -0.13561511
0000f0 5a 0e c4 bc 9a 96 fe bc 89 04 43 be 3a dc d3 bc
       -0.023932625 -0.031077672 -0.19044699 -0.025861848
000100 ff ae 41 bd 1c 87 25 be 46 bd 10 be 1f 0d 09 be
       -0.04728603 -0.16164821 -0.14134702 -0.13383912
000110 9f a7 15 3e 65 9c 28 3d 6f 6b b5 bd 8c 49 05 3a
       0.14614724 0.041164774 -0.08858382 0.00050845067
000120 c6 81 64 3e 72 32 40 bd c4 a2 90 bc 3a e6 12 3c
       0.2231513 -0.04692311 -0.017655738 0.008966023
000130 c7 f6 92 bd 64 d8 0f 3e 23 b6 fc 3d 4e 9c 75 bd
       -0.07175975 0.1404739 0.12339427 -0.059963517
000140 99 a1 0d 3e 00 4b 00 3d fb ae 3c 3d 8a f0 d8 3d
       0.13831176 0.031321526 0.046065312 0.10592754
000150 4e c0 bf 3d 1f c2 41 be 30 68 16 3e 97 e2 14 bd
       0.09362851 -0.18921708 0.14688182 -0.036348905
000160 63 eb 4f b8 6e 14 49 be 12 78 0b be 81 32 d2 3d
       -4.9571867e-05 -0.196367 -0.13620022 0.10263539
000170 6a 1d b0 bd ac 0e c7 3c 47 fe 7a 3d e0 3c 1f 3e
       -0.0859936 0.024298988 0.061277654 0.15550566
000180 af ac 8e bd 6b 19 f4 3c 12 51 b6 3d c8 6a ef 3c
       -0.069665305 0.029797276 0.08902182 0.029225722
000190 7d 22 18 3e 33 d6 34 ba 6d 02 a3 bb ab 59 38 be
       0.14856906 -0.0006898373 -0.0049746544 -0.18002956
0001a0 b5 19 42 3c c1 13 8a 3d 11 96 94 bd fd 43 bc 3d
       0.011846949 0.06742049 -0.072551854 0.09192655
0001b0 a8 bc 8b bc ed 39 bd bb 1f 9e 96 bd 0d e0 2d bd
       -0.017057732 -0.0057747276 -0.07354378 -0.04245
0001c0 fb ee 3c bd 89 40 68 3e cd 6f e4 bc 52 b4 b9 bd
       -0.046126347 0.22680868 -0.027885342 -0.090675965
0001d0 b5 8e 16 3c 16 3c d3 bd a6 5e 45 3e 4b 25 1d 3c
       0.009189297 -0.10314195 0.19274387 0.009591411
0001e0 e2 a5 72 bc 16 00 78 3e a1 f1 45 3e fe 34 1f be
       -0.014810057 0.24218783 0.19330455 -0.15547559
0001f0 60 33 c1 3c f6 a3 3e bd bd 18 29 be 86 5d 74 be
       0.023584068 -0.046543084 -0.16513343 -0.23863801
000200 b3 80 e8 3d d0 8a 86 3d 44 98 0f bd d3 e9 4b be
       0.113526724 0.06569445 -0.03505732 -0.19913416
000210 21 e9 bc bc 75 b9 1f 3e 35 68 1e be 43 56 0e 3d
       -0.023060383 0.1559809 -0.1546944 0.034750234
000220 43 6f ad bd d7 1a 3e bb 84 a7 b3 ba d0 0f 83 3d
       -0.08468487 -0.0029007697 -0.001370654 0.063995
000230 53 90 b8 3d 84 d0 de 3c f5 28 81 be 76 44 8d bd
       0.09011903 0.027199037 -0.2522656 -0.068978235
000240 28 77 9a 3c 71 5a 78 bd 64 e3 ed 3d 6b 9c 94 bb
       0.018855646 -0.060633127 0.11615637 -0.004535248
000250 55 c5 6b bd 36 0a 65 bc 64 2d 9f bd b7 60 3c 3c
       -0.057561237 -0.013979485 -0.077723294 0.011497668
000260 d0 3c 53 bd 94 33 0d bd f0 14 dd bd 63 be 79 be
       -0.051571667 -0.034473017 -0.10795009 -0.24389033
000270 f5 0e 34 3c 6d aa 97 bc 89 2d 8f 3e 2c c6 f8 bc
       0.010989894 -0.018513883 0.27964428 -0.030367933
000280 47 6f 4b bd 28 f9 9d 3c 17 4f db 3d 6b c9 1b 3a
       -0.04966667 0.019283846 0.107084446 0.00059427944
000290 d5 c2 43 bd 6b 78 b9 3d ea a8 a2 3d 8d d1 23 3d
       -0.04779323 0.09056171 0.07942374 0.039994765
0002a0 eb 19 83 bd 32 9d ba bd cf df a3 3d 29 87 9c 3c
       -0.06401428 -0.09112014 0.080016725 0.019107418
0002b0 7b 09 02 3e 8c a0 4f 3e 3e 5f 5a bd 5e 39 e7 bd
       0.12698929 0.20276088 -0.053313486 -0.11290239
0002c0 d9 5c b4 bc 7a 18 84 3e 01 03 cc 3d 69 16 28 be
       -0.02201693 0.25799924 0.099615104 -0.16414799
0002d0 25 35 45 3a 57 69 36 bd 70 64 97 bd e0 68 0e be
       0.0007522873 -0.044534054 -0.07392204 -0.13907194
0002e0 27 3b 9a 3d d3 d8 86 bd f2 fc 2c be 8a c6 43 3e
       0.07530814 -0.06584325 -0.16893366 0.19118705
0002f0 68 17 7e be 0d 07 24 3c df 65 da bc a2 bc 81 3e
       -0.24813616 0.010011447 -0.026659904 0.25339228
000300 3e c7 16 bd e7 c9 12 be 37 c0 29 3e 38 35 24 bd
       -0.036811106 -0.14334832 0.1657723 -0.040089816
000310 c4 d0 23 be c9 5f 58 3e 54 58 52 3e 9e 39 cb 3d
       -0.15997607 0.21130289 0.20541507 0.09923099
000320 6c 1e c1 3d 98 ec 2d 3d 80 cc 64 bd 7e 8a 3f 3d
       0.09429631 0.04246196 -0.05585909 0.046762936
000330 04 19 00 be e8 7b be 3d fb bb c6 3d ee d2 05 3e
       -0.12509543 0.09300977 0.09703823 0.13068745
000340 2d 9b a8 bd e2 c6 8e bb 3c 54 10 3d 1a 5c 2b bd
       -0.082327224 -0.004357205 0.035236582 -0.04183588
000350 1e 2e 52 bd c4 b6 57 bd 1d 8c 93 3d 4d 27 97 bb
       -0.051313512 -0.052664533 0.07204459 -0.0046128393
000360 53 db 61 be 95 54 2d 3e b1 81 dd 3d 4e f3 35 be
       -0.22056322 0.16926797 0.10815752 -0.17768595
000370 bd 50 0e be 07 37 29 3d a1 0a 33 3e a1 9d 28 3e
       -0.13897987 0.041312244 0.17484523 0.1646638
000380 c5 51 8d bd af 7f 5d bd 47 71 ed 3c 9f c7 bc bd
       -0.06900362 -0.054076847 0.028984679 -0.09217762
000390 2b fd 4d 3d a9 63 1f 3c 0d ef 8f bc ce 31 1b bd
       0.050290268 0.009728351 -0.017570043 -0.037889294
0003a0 cf 9f 96 bd 34 3b 91 be 8a 4f 43 3d 9c 03 25 be
       -0.073547 -0.2836548 0.047683276 -0.16114658
0003b0 ed 4f 12 bc 2e 5b 17 bd 89 26 11 bd e4 3d 2c bd
       -0.008930189 -0.03695219 -0.03543714 -0.04205121
0003c0 ac 48 c3 bd ab 6b 3a 3d 0e 56 de 3d 89 d3 ab 3c
       -0.095353454 0.045512836 0.108562574 0.020974891
0003d0 b6 78 87 bd b8 19 2d bd aa 47 83 3e 89 26 31 3e
       -0.06614821 -0.042260855 0.25640613 0.17299856
0003e0 03 3a 38 bc 43 31 d6 bd 87 62 7e bc 45 d6 fe bd
       -0.0112443 -0.10458615 -0.01552642 -0.124432124
0003f0 70 18 41 be 53 e5 dc 3d 60 51 5a be 7b 30 06 be
       -0.18856978 0.107859276 -0.21320105 -0.13104431

network_body._body_endoder.seq_layers.0.bias f4 [256]
000000 00 00 00 00 00 00 00 00 00 00 00 00 00 00 00 00
       0.0 0.0 0.0 0.0
000010 00 00 00 00 00 00 00 00 00 00 00 00 00 00 00 00
       0.0 0.0 0.0 0.0
000020 00 00 00 00 00 00 00 00 00 00 00 00 00 00 00 00
       0.0 0.0 0.0 0.0
000030 00 00 00 00 00 00 00 00 00 00 00 00 00 00 00 00
       0.0 0.0 0.0 0.0
000040 00 00 00 00 00 00 00 00 00 00 00 00 00 00 00 00
       0.0 0.0 0.0 0.0
000050 00 00 00 00 00 00 00 00 00 00 00 00 00 00 00 00
       0.0 0.0 0.0 0.0
000060 00 00 00 00 00 00 00 00 00 00 00 00 00 00 00 00
       0.0 0.0 0.0 0.0
000070 00 00 00 00 00 00 00 00 00 00 00 00 00 00 00 00
       0.0 0.0 0.0 0.0
000080 00 00 00 00 00 00 00 00 00 00 00 00 00 00 00 00
       0.0 0.0 0.0 0.0
000090 00 00 00 00 00 00 00 00 00 00 00 00 00 00 00 00
       0.0 0.0 0.0 0.0
0000a0 00 00 00 00 00 00 00 00 00 00 00 00 00 00 00 00
       0.0 0.0 0.0 0.0
0000b0 00 00 00 00 00 00 00 00 00 00 00 00 00 00 00 00
       0.0 0.0 0.0 0.0
0000c0 00 00 00 00 00 00 00 00 00 00 00 00 00 00 00 00
       0.0 0.0 0.0 0.0
0000d0 00 00 00 00 00 00 00 00 00 00 00 00 00 00 00 00
       0.0 0.0 0.0 0.0
0000e0 00 00 00 00 00 00 00 00 00 00 00 00 00 00 00 00
       0.0 0.0 0.0 0.0
0000f0 00 00 00 00 00 00 00 00 00 00 00 00 00 00 00 00
       0.0 0.0 0.0 0.0
000100 00 00 00 00 00 00 00 00 00 00 00 00 00 00 00 00
       0.0 0.0 0.0 0.0
000110 00 00 00 00 00 00 00 00 00 00 00 00 00 00 00 00
       0.0 0.0 0.0 0.0
000120 00 00 00 00 00 00 00 00 00 00 00 00 00 00 00 00
       0.0 0.0 0.0 0.0
000130 00 00 00 00 00 00 00 00 00 00 00 00 00 00 00 00
       0.0 0.0 0.0 0.0
000140 00 00 00 00 00 00 00 00 00 00 00 00 00 00 00 00
       0.0 0.0 0.0 0.0
000150 00 00 00 00 00 00 00 00 00 00 00 00 00 00 00 00
       0.0 0.0 0.0 0.0
000160 00 00 00 00 00 00 00 00 00 00 00 00 00 00 00 00
       0.0 0.0 0.0 0.0
000170 00 00 00 00 00 00 00 00 00 00 00 00 00 00 00 00
       0.0 0.0 0.0 0.0
000180 00 00 00 00 00 00 00 00 00 00 00 00 00 00 00 00
       0.0 0.0 0.0 0.0
000190 00 00 00 00 00 00 00 00 00 00 00 00 00 00 00 00
       0.0 0.0 0.0 0.0
0001a0 00 00 00 00 00 00 00 00 00 00 00 00 00 00 00 00
       0.0 0.0 0.0 0.0
0001b0 00 00 00 00 00 00 00 00 00 00 00 00 00 00 00 00
       0.0 0.0 0.0 0.0
0001c0 00 00 00 00 00 00 00 00 00 00 00 00 00 00 00 00
       0.0 0.0 0.0 0.0
0001d0 00 00 00 00 00 00 00 00 00 00 00 00 00 00 00 00
       0.0 0.0 0.0 0.0
0001e0 00 00 00 00 00 00 00 00 00 00 00 00 00 00 00 00
       0.0 0.0 0.0 0.0
0001f0 00 00 00 00 00 00 00 00 00 00 00 00 00 00 00 00
       0.0 0.0 0.0 0.0
000200 00 00 00 00 00 00 00 00 00 00 00 00 00 00 00 00
       0.0 0.0 0.0 0.0
000210 00 00 00 00 00 00 00 00 00 00 00 00 00 00 00 00
       0.0 0.0 0.0 0.0
000220 00 00 00 00 00 00 00 00 00 00 00 00 00 00 00 00
       0.0 0.0 0.0 0.0
000230 00 00 00 00 00 00 00 00 00 00 00 00 00 00 00 00
       0.0 0.0 0.0 0.0
000240 00 00 00 00 00 00 00 00 00 00 00 00 00 00 00 00
       0.0 0.0 0.0 0.0
000250 00 00 00 00 00 00 00 00 00 00 00 00 00 00 00 00
       0.0 0.0 0.0 0.0
000260 00 00 00 00 00 00 00 00 00 00 00 00 00 00 00 00
       0.0 0.0 0.0 0.0
000270 00 00 00 00 00 00 00 00 00 00 00 00 00 00 00 00
       0.0 0.0 0.0 0.0
000280 00 00 00 00 00 00 00 00 00 00 00 00 00 00 00 00
       0.0 0.0 0.0 0.0
000290 00 00 00 00 00 00 00 00 00 00 00 00 00 00 00 00
       0.0 0.0 0.0 0.0
0002a0 00 00 00 00 00 00 00 00 00 00 00 00 00 00 00 00
       0.0 0.0 0.0 0.0
0002b0 00 00 00 00 00 00 00 00 00 00 00 00 00 00 00 00
       0.0 0.0 0.0 0.0
0002c0 00 00 00 00 00 00 00 00 00 00 00 00 00 00 00 00
       0.0 0.0 0.0 0.0
0002d0 00 00 00 00 00 00 00 00 00 00 00 00 00 00 00 00
       0.0 0.0 0.0 0.0
0002e0 00 00 00 00 00 00 00 00 00 00 00 00 00 00 00 00
       0.0 0.0 0.0 0.0
0002f0 00 00 00 00 00 00 00 00 00 00 00 00 00 00 00 00
       0.0 0.0 0.0 0.0
000300 00 00 00 00 00 00 00 00 00 00 00 00 00 00 00 00
       0.0 0.0 0.0 0.0
000310 00 00 00 00 00 00 00 00 00 00 00 00 00 00 00 00
       0.0 0.0 0.0 0.0
000320 00 00 00 00 00 00 00 00 00 00 00 00 00 00 00 00
       0.0 0.0 0.0 0.0
000330 00 00 00 00 00 00 00 00 00 00 00 00 00 00 00 00
       0.0 0.0 0.0 0.0
000340 00 00 00 00 00 00 00 00 00 00 00 00 00 00 00 00
       0.0 0.0 0.0 0.0
000350 00 00 00 00 00 00 00 00 00 00 00 00 00 00 00 00
       0.0 0.0 0.0 0.0
000360 00 00 00 00 00 00 00 00 00 00 00 00 00 00 00 00
       0.0 0.0 0.0 0.0
000370 00 00 00 00 00 00 00 00 00 00 00 00 00 00 00 00
       0.0 0.0 0.0 0.0
000380 00 00 00 00 00 00 00 00 00 00 00 00 00 00 00 00
       0.0 0.0 0.0 0.0
000390 00 00 00 00 00 00 00 00 00 00 00 00 00 00 00 00
       0.0 0.0 0.0 0.0
0003a0 00 00 00 00 00 00 00 00 00 00 00 00 00 00 00 00
       0.0 0.0 0.0 0.0
0003b0 00 00 00 00 00 00 00 00 00 00 00 00 00 00 00 00
       0.0 0.0 0.0 0.0
0003c0 00 00 00 00 00 00 00 00 00 00 00 00 00 00 00 00
       0.0 0.0 0.0 0.0
0003d0 00 00 00 00 00 00 00 00 00 00 00 00 00 00 00 00
       0.0 0.0 0.0 0.0
0003e0 00 00 00 00 00 00 00 00 00 00 00 00 00 00 00 00
       0.0 0.0 0.0 0.0
0003f0 00 00 00 00 00 00 00 00 00 00 00 00 00 00 00 00
       0.0 0.0 0.0 0.0

network_body._body_endoder.seq_layers.2.weight f4 [256, 256]
000000 3b 1b a9 3d 0d 37 42 3d 18 e2 4d 3c 20 1e 41 3d
       0.08257147 0.04741578 0.012566112 0.04714787
000010 4d 78 b8 bd 6e a4 5b bc c4 95 04 3d e9 14 69 bd
       -0.090073206 -0.013405902 0.03236939 -0.056904707
000020 69 b8 91 3d bc 4b cc 3d 5f 46 16 bd 58 b3 a4 bd
       0.071152516 0.09975383 -0.036688205 -0.080420196
000030 ed 38 70 3d b6 e8 0c bd 61 d0 8a 3c 7e a1 d0 3a
       0.05864804 -0.034401618 0.016945066 0.0015917269
000040 65 82 04 be eb 0b a5 3d 3e aa 8e bd 66 3e 89 3d
       -0.12940367 0.08058914 -0.06966065 0.06701355
000050 5f b7 2d bc df 47 04 3e 64 87 44 bd aa b4 52 3d
       -0.010602801 0.12918042 -0.04798068 0.051441826
000060 f4 1f 35 bc 18 71 fd bb 1a e1 c8 3c 74 db 01 bd
       -0.0110549815 -0.007734429 0.0245214 -0.031703427
000070 60 c2 2b bd 28 99 02 bd f2 20 86 3d f6 02 a4 3d
       -0.041933417 -0.031884342 0.065492526 0.08008377
000080 7b 44 bb bd ee b5 51 bd 30 dc 54 bb 03 7b 0a 3c
       -0.09143921 -0.051198892 -0.0032479875 0.00845218
000090 6a 65 76 bd cc 76 4e bd 2c c1 f4 3a d5 a1 ff bd
       -0.06015531 -0.050406262 0.0018673292 -0.12482039
0000a0 42 0d dc 3b aa 8e a6 bd cb 87 09 bd 58 6a b7 3d
       0.0067154476 -0.0813268 -0.033576768 0.0895583
0000b0 f9 fa 11 bc 38 9c 7a 3c ce ca a8 3b 7b a3 89 3d
       -0.008909934 0.0152960345 0.0051511293 0.067206345
0000c0 5a 4e d4 3d fe 65 a7 3d e4 7d 93 bd 28 c4 05 3e
       0.10366507 0.0817375 -0.07201746 0.13063109
0000d0 2c 2c 11 bc d5 2f f9 bc ce b1 47 bd 43 f7 cc 3c
       -0.008860629 -0.030418316 -0.048753552 0.025020247
0000e0 66 52 8c bc 71 0b c1 3d ab 67 61 bd f4 cd 6e bd
       -0.017129134 0.094260104 -0.055030506 -0.05830188
0000f0 80 c6 8c 3d ee 62 c1 3d e7 71 17 3d 73 18 7f 3d
       0.06873798 0.094426975 0.03697386 0.062279176
000100 b3 8c a0 3c d1 d5 35 bd 9c 3b ef bc a7 aa a9 bc
       0.01959834 -0.044393364 -0.029203229 -0.020711256
000110 46 94 7c 3b 45 93 38 bd f3 7d 47 bd 66 e8 47 3c
       0.0038540526 -0.045062322 -0.0487041 0.012201404
000120 ff e2 68 bd 95 e5 c2 bd a3 d1 d8 3b 54 6c db bb
       -0.056857105 -0.095164455 0.0066167875 -0.0066962633
000130 15 7a 4a bc ef 10 d9 3c 5b 49 38 3b 2f 79 8c ba
       -0.012358208 0.026497332 0.0028119895 -0.0010717268
000140 91 30 b1 3d de d9 ec 3c 51 4a b5 3c 21 58 4f 3c
       0.086518414 0.02891248 0.022130163 0.012655289
000150 52 4f f1 3c e1 f9 a9 bd 61 11 0a 3d 33 76 ef ba
       0.029456768 -0.08299614 0.03370798 -0.0018269479
000160 aa 55 a8 3c b7 52 86 3d 38 50 24 bd ed 97 8b bd
       0.02054866 0.06558745 -0.040115565 -0.06816087
000170 65 f2 ce 3c 20 a2 36 bd f9 be 88 bc 32 4d 9e 3a
       0.025262067 -0.04458821 -0.016692625 0.0012077449
000180 2a 4b b5 bd da 65 60 3c 8b cf 00 be fb 41 54 3d
       -0.08852227 0.013696158 -0.12579171 0.051820736
000190 5c 06 a8 3d 36 14 bd 3d e5 94 6e 3d 92 60 33 3d
       0.08204338 0.092323706 0.058247466 0.04379327
0001a0 ba f8 a6 bc 3d ae 24 3d e8 d2 79 3d de eb 8a bd
       -0.020382274 0.04020523 0.06099215 -0.06783269
0001b0 d6 e0 27 bd cc 84 a6 bd ec b7 bf 3d de 18 e5 b9
       -0.040985905 -0.08130798 0.09361252 -0.0004369681
0001c0 b5 97 33 bd ee 53 e9 bd cd 19 27 3d a5 1d 1c 3c
       -0.04384585 -0.113929614 0.04079609 0.009528552
0001d0 98 27 0a 3b 66 d1 12 b8 c9 01 fa 3c d6 e1 5d bd
       0.0021080729 -3.500413e-05 0.03051843 -0.054170452
0001e0 0a ab af bc 7c 15 97 3d 1c 6d 6c 3d 5f 8b ec 3b
       -0.021443862 0.07377145 0.057721242 0.0072187628
0001f0 af 81 f6 3d 71 57 08 3e c9 03 74 3c 2a 55 77 3d
       0.12036454 0.13314606 0.014893481 0.060383953
000200 e0 bd 18 3c 6f 40 0a be e1 fb 98 3c 06 7b 1c 3d
       0.0093226135 -0.13501142 0.018674793 0.03820326
000210 ac d3 88 bd bb 53 02 bd 09 60 1c 3d a2 b2 df bb
       -0.06680998 -0.031818133 0.038177524 -0.0068267146
000220 1e 1c 0d bc ae 11 eb bc b5 f4 fc 3b 4b fb 1a bd
       -0.008612661 -0.028694954 0.007719601 -0.037837308
000230 f9 0e e2 3d 98 5c 45 be d2 54 44 bd 04 e1 9e 3d
       0.11038012 -0.19273603 -0.047932453 0.07757762
000240 31 1a b9 bc 23 96 72 bd 1d 0a f3 3c c3 63 3b 3a
       -0.022595497 -0.059225213 0.029667908 0.00071483495
000250 0e cf 76 bd d4 af fd bc ec c7 ef bc 4f 96 be 3a
       -0.060256056 -0.03096763 -0.029270135 0.0014540645
000260 a5 aa 7c bb c2 65 3e 3d 89 44 50 bb b7 31 28 bd
       -0.003855386 0.046483763 -0.0031779131 -0.041063037
000270 b3 e0 ec bd a1 0f 8f 3c 72 b9 1e bd b4 df ee 3c
       -0.115662955 0.017463507 -0.038751073 0.029159404
000280 49 11 52 bd 43 ff fd bc 01 68 58 bb 32 3b 9b 3d
       -0.051286016 -0.031005507 -0.0033020976 0.0757965
000290 c6 4a 3e bd 2b 83 60 bd 9b 71 60 bd 1f dc d6 bd
       -0.04645803 -0.05481259 -0.054795843 -0.104912035
0002a0 73 43 26 3d b2 d2 9e bd 7c b2 11 3d ad 97 70 3d
       0.04059167 -0.07755031 0.035570607 0.0587384
0002b0 7a df 5f bc b9 6d 4e bd ca 48 67 bd 5f be 1f 3e
       -0.013664121 -0.05039761 -0.0564659 0.15599965
0002c0 9a 17 19 bc c8 d2 21 3e 28 93 ea bc 81 d4 ab 3a
       -0.009344006 0.15803063 -0.028634623 0.0013109596
0002d0 82 55 48 3b 92 7b aa 3d 10 bc a5 3c 01 03 22 bd
       0.0030568545 0.083243504 0.020231277 -0.039553646
0002e0 7a f6 76 bd eb aa b6 3c 21 26 f2 3c 19 42 a2 bc
       -0.060293652 0.022298297 0.029559197 -0.019806908
0002f0 fb f9 f4 bc 32 c7 6e bd 22 01 cb bd 57 90 c6 3c
       -0.029904356 -0.058295436 -0.099123254 0.024238748
000300 89 ee 5c 3d 0c 2d 0a 3c c5 8a a2 3d 3e fb c3 3c
       0.053938422 0.008433592 0.079366244 0.023923513
000310 ce c5 c4 3b 0a 84 9e 3a b1 89 f1 3d 80 15 d6 3d
       0.0060050255 0.0012093794 0.11793841 0.104533195
000320 86 dc ea bd 65 43 93 bd 5a 30 19 bd cc 37 26 be
       -0.11467843 -0.07190589 -0.037399627 -0.16232222
000330 89 74 44 3d 2a 40 26 3c 59 ee 24 bb 31 81 6d bd
       0.0479627 0.010147134 -0.002516648 -0.057984535
000340 c0 f7 21 3d a6 3b 46 bd a8 a1 27 bd d4 8f 60 3b
       0.039542913 -0.04839673 -0.04092565 0.0034265416
000350 1a c3 d6 3d e8 b7 41 3d 82 a2 17 bd 0c 01 23 bd
       0.104864314 0.047294527 -0.037020214 -0.03979592
000360 27 8f 80 bb c3 e9 49 bd 11 9a 72 3d 7f 44 38 bd
       -0.003923315 -0.0492952 0.05922896 -0.044987198
000370 28 58 68 3d e1 ea ac bd 61 69 d8 3c b8 c4 a0 3c
       0.056724697 -0.08443237 0.026417436 0.019625053
000380 16 b7 5c bd 07 e6 f0 3d 4d bd 66 3d 4b eb 4d 3d
       -0.05388554 0.11762624 0.056332875 0.05027322
000390 2e 7f e7 3c b5 b2 bc 3d 80 6a ed 3d 76 14 4e bc
       0.028258886 0.09213773 0.11592579 -0.01257812
0003a0 66 31 aa bc 30 ee f6 bc 00 83 b2 bc 88 a7 58 3b
       -0.020775508 -0.030142874 -0.021790981 0.003305884
0003b0 21 32 56 3d df d9 d8 3b 41 1f 7b bc 9b 1e 96 bd
       0.0522939 0.006617769 -0.015327276 -0.07330056
0003c0 c4 63 95 3d 76 e6 52 bd 6e f5 aa 3d f3 49 c3 3d
       0.072944194 -0.051489316 0.08347593 0.09535589
0003d0 4a c0 c9 3d d6 80 0b 3c 19 6e 57 39 cb 70 3d 3d
       0.09851129 0.008514604 0.00020545012 0.046250146
0003e0 c4 bf 1c 3c 88 55 54 be fa 57 37 bc 22 e9 d9 3d
       0.009567205 -0.20735753 -0.011190409 0.1064017
0003f0 0f 89 db bb 20 fa 70 bd 35 7b 64 bd 82 ed ee bd
       -0.0066996883 -0.058832288 -0.055781562 -0.11666395

network_body._body_endoder.seq_layers.4.weight f4 [256, 256]
000000 77 0a 40 bd 84 56 e1 bd 63 18 a7 3c 81 52 61 3b
       -0.04688498 -0.1100283 0.02039737 0.0034381452
000010 92 75 15 3d 3f d0 b5 3d fc 60 ae bd 81 fe 65 bd
       0.036489077 0.088776104 -0.08514592 -0.056150917
000020 0c 17 cf 3c 06 93 ac 3d 1f 2b 02 3d d8 d3 f5 bd
       0.025279544 0.0842648 0.031779405 -0.120032966
000030 56 f9 23 bd 40 1b 1f 3d 4a 33 9b bc ab bd e2 3d
       -0.040032707 0.038844347 -0.018945355 0.110713325
000040 28 6d df 3c e6 c6 d2 3d 65 9c f2 3b 49 85 51 bc
       0.02727373 0.10291843 0.0074038976 -0.012788125
000050 d7 d8 0f bd 59 e8 38 bc 3c 59 67 bc 06 ad ce bd
       -0.035118904 -0.011285865 -0.014120396 -0.10091595
000060 6b c4 a5 3d 47 ed bd 3d cc 69 97 bd 2d af 1a bd
       0.080941044 0.09273773 -0.07393226 -0.037764717
000070 88 3c 02 3d d7 79 29 3d 61 72 cf bd cf 00 62 3c
       0.03179601 0.04137596 -0.10129238 0.013794138
000080 7c 7b ad 3d 13 da 78 3d 18 6a b9 bc bf fd 12 3d
       0.084708184 0.060754847 -0.022633597 0.035886522
000090 82 88 0a be 81 9d 06 3d 97 83 38 be 50 b2 3d bc
       -0.13528636 0.03286505 -0.18018948 -0.011578158
0000a0 0c 6a 3e bd db df 08 3d 9e 29 8d bc bf d1 91 3d
       -0.046487853 0.03341661 -0.017231759 0.07120084
0000b0 14 e8 43 3d 1f 8f 84 bd 4c 2a e8 bc 7b fa 25 3d
       0.04782875 -0.06472611 -0.028340481 0.04052208
0000c0 9d 03 0f bb f8 9b 0c bd 93 6d 88 3d 02 e3 02 bd
       -0.0021822222 -0.03432843 0.066615246 -0.031954773
0000d0 54 a3 ae 3c 2a 03 d1 bd 87 7e 34 bd fc d6 21 bd
       0.021318115 -0.102056816 -0.04406598 -0.039511666
0000e0 43 d3 53 bd f7 51 fd bb 13 16 72 3d 4e 79 c3 3c
       -0.051715147 -0.0077307182 0.059103083 0.023861554
0000f0 45 b2 e9 bc f7 2b a5 3d 35 c7 de bc 14 7c a1 3d
       -0.028527388 0.08065026 -0.027194599 0.07884994
000100 22 82 60 3c b2 81 fb 3d 08 1a 04 3d d4 f4 05 be
       0.013702901 0.12280597 0.032251388 -0.13081676
000110 7b 3b 87 bd 86 f2 2e 3d 50 27 ed 3c 87 fb 09 bd
       -0.06603142 0.042711757 0.02894941 -0.03368714
000120 2e b2 b9 3d 9f 5f de 3b 82 78 6d 3d f6 fd 09 bc
       0.09067188 0.0067863013 0.057976253 -0.008422365
000130 a8 5c 1f 3c 60 87 88 3b 6d 20 6a 3d 28 3d a6 3d
       0.009726681 0.0041665286 0.05715983 0.081171334
000140 bd fa 33 bb 5b e9 8a bd 11 c0 c0 3d 70 2d fe 3c
       -0.0027462684 -0.0678279 0.09411634 0.031027526
000150 9d 7a 02 be 7f 35 57 3d 9d b3 62 3d ab fd 8e 3d
       -0.12742086 0.052541252 0.055347074 0.06981977
000160 04 44 fb bb 8c 8f d9 bb b5 cd 4c bd 59 8b c3 bd
       -0.00766802 -0.0066394266 -0.050000865 -0.09548063
000170 ad 81 5b 3d 58 10 37 bd 8a df 28 bd d2 fa f6 bd
       0.053590465 -0.04469332 -0.04122881 -0.12059559
000180 52 78 82 bd 38 5f 9f bd 8b f2 96 bd b2 3d fc bc
       -0.063706055 -0.077818334 -0.0737048 -0.030791137
000190 93 1f d1 bd d3 b2 75 bd 9d b2 fd bc 6b 3d 96 3c
       -0.102111004 -0.059984993 -0.030968959 0.018339833
0001a0 1f c0 10 39 b8 e6 06 be 78 ed 23 bd e1 f1 2d bb
       0.00013804481 -0.1317395 -0.04002139 -0.0026541876
0001b0 a2 2f 1b bb 84 c0 b7 3c d7 bb e2 3d 4f d5 4b 3d
       -0.0023679514 0.022430666 0.11070984 0.049763974
0001c0 e2 8b 00 3d e2 2d 61 bd 63 4d 47 39 23 e1 55 bc
       0.031383403 -0.054975398 0.00019006948 -0.013054165
0001d0 15 94 e5 3c 54 4f 45 3c 0e 09 1e bc 99 1f be bd
       0.028024713 0.012042839 -0.0096457135 -0.092833705
0001e0 49 51 68 bd 3f cb 09 3b b4 e0 e0 3c bc 11 e6 bd
       -0.056718145 0.0021025685 0.027450897 -0.11233851
0001f0 88 c5 64 bd 91 f1 d9 bc 72 a3 89 3d d2 c2 09 3e
       -0.055852443 -0.026604446 0.06720628 0.13453224
000200 68 9a c5 bb 43 b1 0c 3c 02 58 d6 3d 17 94 c0 3d
       -0.0060303695 0.008587184 0.10466005 0.09403246
000210 db d9 08 3d 47 f5 2f bd 6f 68 18 bc 44 4f 1c bd
       0.03341089 -0.042958524 -0.009302243 -0.03816153
000220 b0 bb 31 bd 55 24 b5 bc ef 3c 92 bd 4f 3d cb 3b
       -0.043391883 -0.022112051 -0.071405284 0.006202377
000230 2a 87 9c 3d 2f ee a8 3c 7e 22 0b 3e 02 4e a3 3d
       0.07642968 0.020621387 0.13587376 0.07973863
000240 ef 98 4d 3d 9b a0 cc 3b 13 cf 30 bd b1 61 27 bc
       0.050194677 0.0062447316 -0.04316623 -0.010216163
000250 16 84 a1 3b ad e8 89 3b 3b 5b bb bb 07 66 1b bd
       0.004929076 0.0042086453 -0.0057176626 -0.037939098
000260 ba c9 96 bc 1c 2d 25 bd 6c d7 fd bb dc 31 1d bd
       -0.018406738 -0.040326223 -0.0077466276 -0.038377628
000270 04 17 5c bd c6 10 3e bd b6 0d f5 bb 77 20 96 bd
       -0.053732887 -0.046402715 -0.007478441 -0.07330411
000280 aa 96 58 bc 42 66 30 3d 63 aa 91 bd f5 a7 3a 3c
       -0.013219515 0.04306627 -0.07112577 0.011392583
000290 a5 5f 80 3c df 17 11 be 5c fd 07 be 8d 2f aa 3d
       0.015670607 -0.14169262 -0.13280243 0.08309851
0002a0 73 f8 49 3c 81 72 58 bd 89 32 9c bd 5f 14 35 be
       0.012327301 -0.052843574 -0.07626826 -0.17683552
0002b0 02 69 69 3b 6e 61 03 bd 22 f6 27 bc 14 b2 f5 3c
       0.0035615568 -0.032075338 -0.010251554 0.02999214
0002c0 9a dd 2e bc 00 ca 66 bd b8 b4 91 3c ea c9 2f bd
       -0.010672951 -0.056344986 0.017786369 -0.04291717
0002d0 f2 e1 61 bd 12 7e 30 3d a8 05 7b 3c c7 2f 6d bc
       -0.05514712 0.04308898 0.015321173 -0.014476723
0002e0 8d 08 ab bc b8 85 c7 3b 9d f9 0e 3e 19 4a 42 bd
       -0.0208781 0.0060889386 0.13962407 -0.047433946
0002f0 cd 1c b4 bd e4 3e 8c bb 7d 75 9d bd ec 23 f4 bc
       -0.08794556 -0.004279958 -0.07688425 -0.029802285
000300 02 f3 03 3e 12 b8 c4 bc 70 bc af bc 11 d1 1b bd
       0.12885669 -0.024013553 -0.021452159 -0.038041178
000310 ac 32 49 3d 45 ac 9d bb 3a 4d e9 bd da d2 af 3d
       0.04912059 -0.004811796 -0.11391683 0.085851386
000320 3b 69 eb bd 72 69 32 bd 04 11 b5 bd 6d 43 11 bd
       -0.114946805 -0.04355759 -0.08841136 -0.035464693
000330 79 d6 9c bc ec 7b cb bd 7b 98 48 bd a6 a3 aa 3d
       -0.019145237 -0.099357456 -0.04897354 0.08331995
000340 63 a7 4b 3d 12 cb e7 bd 8e 25 5d bd 26 c1 47 3c
       0.04972018 -0.113180295 -0.053990893 0.012192046
000350 87 e3 be 3b ff f4 54 3d 91 f9 07 bd cd 07 9f 3d
       0.005825463 0.05199146 -0.03319699 0.0776516
000360 07 85 bb 3c 4f b3 34 bd 28 e7 af bb 24 5b d8 bd
       0.02289058 -0.044116315 -0.005368132 -0.10564259
000370 2a 84 38 3c 64 36 81 bd 07 53 71 3d 18 6d 55 bc
       0.011261979 -0.06309202 0.05891707 -0.013026498
000380 0e f0 a7 3c a9 d8 d0 3d 79 08 68 bd 0e e1 87 3d
       0.02050021 0.10197575 -0.056648705 0.06634723
000390 58 c4 8d 3d 41 1e 3b bc 2c e8 e5 bc 46 57 69 bd
       0.06922215 -0.011420787 -0.02806481 -0.056967996
0003a0 f5 5a 94 3d c9 12 ac 3c d7 17 89 3d 90 dd 1b bd
       0.07243911 0.021005051 0.06694 -0.038053095
0003b0 29 53 64 bd cf a6 93 3d ab 14 e9 bd f7 d8 51 3c
       -0.05574337 0.072095506 -0.11380895 0.012808076
0003c0 f7 de 9c bd 30 5f c2 3d fc 0d 03 3d 3f 0b 07 3d
       -0.07659715 0.09490812 0.03199576 0.03296971
0003d0 96 8d a6 bd e3 d7 bf 3d 7a c5 0f 3d ae b1 06 be
       -0.08132474 0.09367349 0.035100438 -0.13153717
0003e0 e1 5e 85 3d b1 0b a7 bc 9b 73 9e bb 08 b4 b5 3c
       0.06512237 -0.020391317 -0.0048355586 0.022180572
0003f0 ae 98 a7 3d bd 51 82 3d df cd 5e 3c 5a 3b 7e bd
       0.08183418 0.063632466 0.013598888 -0.06206832

action_model._continuous_distribution.log_sigma f4 [1, 5]
000000 00 00 00 00 00 00 00 00 00 00 00 00 00 00 00 00
       0.0 0.0 0.0 0.0
000010 00 00 00 00
       0.0

action_model._continuous_distribution.mu.weight f4 [5, 256]
000000 3b a2 0a 39 0b f9 31 bb fd 88 03 3c aa 13 85 3c
       0.00013221141 -0.0027156498 0.008028266 0.016244728
000010 e8 01 1e bb fb 02 1a 3c 43 f9 26 bb 5d 2d 09 bc
       -0.0024110023 0.009400125 -0.0025478161 -0.008372632
000020 e5 5a 28 3c 9e c4 01 3d b3 2b 21 bc 2f c2 f7 39
       0.010275577 0.03168165 -0.009837079 0.0004725619
000030 0a 09 9c bc 46 30 c7 ba 58 17 6c 3c 63 ff 9c bc
       -0.019047279 -0.0015196882 0.014409862 -0.019164747
000040 4d 7c 6a bc 50 65 65 bc f3 10 8c 3b 90 15 4d 3c
       -0.014311862 -0.014001206 0.0042744814 0.012517348
000050 52 94 26 3c cb 27 40 3b 50 31 c9 3b f4 fa c2 3c
       0.010167198 0.0029320593 0.0061399117 0.023801304
000060 9f 79 c5 3c 1d d5 7f 3c d6 02 24 3a 88 2f d5 3c
       0.024105845 0.015614775 0.0006256526 0.026023641
000070 3e 36 39 bc 4b a1 6f bc fd 97 51 bc d0 7e 52 bc
       -0.011304436 -0.014625858 -0.0127925845 -0.012847617
000080 65 70 d8 3b 68 25 56 bc 3c c5 93 bc 63 03 35 3c
       0.0066051953 -0.013070442 -0.018038385 0.011048171
000090 10 05 26 bc 46 a6 bd ba 1d 71 3a 3b ab 61 38 3c
       -0.010133043 -0.0014469109 0.0028448768 0.011253755
0000a0 d5 99 ce 3b 9d a6 5d bc 07 0b 4a 3c 2b df eb ba
       0.0063049593 -0.013528493 0.012331731 -0.0017995586
0000b0 b0 a3 f9 bb 48 64 df bc b2 c7 df 3a 23 72 27 3b
       -0.00761839 -0.027269498 0.0017073064 0.0025550209
0000c0 8a a0 a0 b9 c2 fe f3 bc ab 7a e4 3a c7 6c be 3c
       -0.0003063719 -0.029784564 0.0017431577 0.023245228
0000d0 9f 39 f5 bc aa b3 ed 3b b0 9d 44 bc 8f a4 bd 3b
       -0.029934702 0.0072540836 -0.012000486 0.005787439
0000e0 81 92 47 bc 5a f2 3f bb 17 74 a6 bc 0b 32 22 bc
       -0.012180925 -0.002928874 -0.020319028 -0.0098996265
0000f0 e7 cb 87 3c 10 b5 6b 3b 7f 53 23 bc 3d a4 1e 3c
       0.01657672 0.0035966076 -0.0099686375 0.009682712
000100 30 50 3b 3c 93 58 63 ba 9b 5c 19 3c ba 0a 5e 3c
       0.011432692 -0.00086725614 0.009360458 0.013552362
000110 08 ff ed 3b 6e 4a 9a 3b 2d 58 6d bc c9 17 28 bc
       0.007263068 0.0047085797 -0.014486355 -0.010259577
000120 0b ab 14 bd e4 24 17 3b 60 05 00 bb 16 9d ba b9
       -0.03629593 0.002306276 -0.0019534454 -0.00035593723
000130 0d 4c 32 bb d7 e5 6d bc 1d 68 0a bb db a6 41 bc
       -0.0027205974 -0.01452013 -0.0021119185 -0.011819567
000140 97 71 9e bb 4d 58 87 bc 0b db 65 3b 32 5b 58 bc
       -0.0048353183 -0.016521597 0.0035073187 -0.013205336
000150 f5 88 0c bb 65 6e 92 bc 43 93 43 3c 98 16 a7 bb
       -0.0021443937 -0.017874906 0.011936965 -0.005099129
000160 7d 48 a6 3c 15 bd a3 3b dd 9d 4e bc 12 3a 1f bc
       0.020298237 0.0049969056 -0.01261088 -0.009718435
000170 f4 53 a3 3b 83 70 4b 3c c3 c1 6b b9 bf 92 c0 3c
       0.004984373 0.012416962 -0.00022483528 0.023507474
000180 a0 67 a8 3c 83 a4 96 3c fa 83 0c bb 3c 86 9b 39
       0.020557225 0.018388992 -0.002144097 0.00029663916
000190 69 ad 9f bc e7 15 d8 bb 45 77 e6 3c fa 8d cb bb
       -0.019491868 -0.006594408 0.028133044 -0.0062119933
0001a0 c2 d0 90 bc 3d 4a 6b 3c 2b 2b 3e 3c e7 12 2f bc
       -0.017677668 0.0143609615 0.011606972 -0.010685659
0001b0 bf 26 b8 bb db 7d 71 bc 97 46 f1 3b d1 7d af bc
       -0.0056198533 -0.014739479 0.0073631513 -0.021422299
0001c0 a2 f9 5f bc f2 83 7d 3b 3f bb 37 ba 7a d0 21 3a
       -0.013670357 0.0038683382 -0.0007008798 0.0006172728
0001d0 9c 90 bc 39 4f 64 07 bb ab 4e c8 3a eb 76 3f 3c
       0.00035965897 -0.0020659154 0.0015282234 0.011686067
0001e0 7f 96 c0 3c 5c 10 88 3c 1b d4 73 bb bd 6d 95 3b
       0.023509262 0.016609363 -0.0037205282 0.004560201
0001f0 53 70 71 bb 31 d2 26 3c 81 94 a0 3c 3f 89 74 bc
       -0.0036840632 0.0101819495 0.019602062 -0.0149253
000200 30 65 96 bc 29 7d 13 3b e8 32 e4 bb 25 cd f3 3b
       -0.018358797 0.0022505021 -0.0069640763 0.0074402266
000210 10 33 73 bb d3 39 0e 3b 34 ce 2a bc d7 fd 0d 3c
       -0.0037109293 0.0021701946 -0.010425139 0.008666477
000220 1e e5 2a 3c 7d 03 80 bb 2b b5 9a 3c f1 dd c5 3b
       0.010430602 -0.003906666 0.018885216 0.0060384204
000230 57 8e 1c 3c 35 8f e6 ba 58 62 0f bc 67 be 1c 3c
       0.009555421 -0.0017590286 -0.008751474 0.00956688
000240 a5 59 aa bb de f1 91 bb 38 b9 50 bc ea 64 10 3c
       -0.0051986747 -0.0044538816 -0.012739472 0.008813122
000250 6f 9a 69 3c d3 99 12 3b 73 dd 39 bc c1 7f 05 bc
       0.014258011 0.0022369518 -0.0113443015 -0.008148135
000260 5d e7 f0 3b eb 19 d7 ba 39 26 41 bb 1a f5 7a bc
       0.0073517994 -0.0016410922 -0.0029472245 -0.015317226
000270 bf 3e 4f bb d5 77 a7 3c 4b f0 1d bc b5 4d bb 3c
       -0.0031623093 0.020442883 -0.00963981 0.022864202
000280 f6 8f 01 3c 15 e1 9f 3b eb 52 85 3c 6d 09 b1 3b
       0.007907858 0.004879127 0.01627489 0.005402735
000290 ef 79 7b 3b 2a 06 0d 3c 6f 2f 76 bc fb 47 b9 3c
       0.0038372239 0.008607427 -0.0150259575 0.02261733
0002a0 74 69 38 3c e6 96 28 3c da 30 63 3c 7d 45 07 3c
       0.011255611 0.010289883 0.013866628 0.008256313
0002b0 37 f8 1b bc 11 8e 8a 3c 1b f0 6b bb 35 6d 53 3c
       -0.009519628 0.016913446 -0.0036001268 0.012904455
0002c0 ca d7 57 3c 11 45 41 3c 57 27 b7 3b 8a 93 3f bc
       0.013174007 0.011796252 0.0055894065 -0.011692891
0002d0 93 c0 f4 bb 07 b8 5f 3c 64 29 3d 3c 50 4d 4e 3c
       -0.0074692457 0.013654715 0.011545513 0.012591675
0002e0 0f bf 72 3b ca 42 2a bb 6d ad 74 3a 7b c9 f6 ba
       0.003704015 -0.002597975 0.0009333704 -0.0018828356
0002f0 59 b4 85 bc 7c 7e 04 bc a3 ca 65 3c 43 31 a0 3a
       -0.016321348 -0.008086797 0.014025363 0.0012221712
000300 73 59 98 3c a7 ef de 39 46 1c 9d bb 78 43 84 bc
       0.01859734 0.00042521695 -0.00479463 -0.016145453
000310 67 e7 98 3c 2f 37 38 bc eb 00 e3 bb 62 da 59 39
       0.018665029 -0.011243626 -0.0069275997 0.00020776087
000320 2f d0 27 bc 2d 22 d6 bc ae 1f 98 b9 f6 48 2b bc
       -0.010242506 -0.026139343 -0.00029015302 -0.010454407
000330 d8 94 95 3b 6a cd 21 bc df 98 9e bc d6 a3 90 bc
       0.0045648627 -0.009875635 -0.019360004 -0.017656248
000340 b1 35 93 3c 4d 36 cc 3b f3 93 a9 b9 ed 10 b1 b9
       0.017969938 0.006232059 -0.00032344423 -0.00033772681
000350 a7 00 9f 3b 37 9b 09 bc 59 12 4a 3c 9f 46 97 bb
       0.0048523727 -0.0083988225 0.012333476 -0.004616573
000360 05 6f 64 3c a5 da a9 bb 6a 50 5c bc 53 07 e0 3b
       0.013942485 -0.005183535 -0.013446907 0.0068368106
000370 51 d1 ad bc 65 5b 5b bb 49 31 8c 3c b7 03 70 3c
       -0.021217974 -0.0033471223 0.017113345 0.014649323
000380 30 ab 7b bc 40 ab 3d 3c 3f 89 37 3b 60 af d2 bb
       -0.0153606385 0.011576474 0.002800539 -0.0064295977
000390 ae 72 81 bc 05 cc a8 bb 4a e6 e5 39 2f 64 ab ba
       -0.015801754 -0.005151274 0.00043849862 -0.0013076122
0003a0 e5 ee c3 bc 4c 8f b8 ba 53 a8 74 3b e5 05 91 ba
       -0.023917625 -0.0014080792 0.0037331774 -0.0011064379
0003b0 fd f5 68 ba 20 0d a0 ba fa d4 ae bc 26 fe be 3c
       -0.0008886753 -0.0012210943 -0.02134179 0.023314547
0003c0 80 43 a8 bb df ca be bc db c2 40 bc d3 93 27 3c
       -0.0051349998 -0.023290096 -0.011765207 0.010228115
0003d0 45 76 2d bc 3f 34 3d bb d0 49 ac bc 4d c0 fa bb
       -0.01058728 -0.0028870252 -0.02103129 -0.0076523186
0003e0 10 f8 47 bb a7 60 5a bb 25 20 f8 bb ec 32 b3 3c
       -0.0030512847 -0.003332177 -0.0075721913 0.021874867
0003f0 63 38 51 3c e8 48 b6 3c 96 c8 4a ba f6 1e c9 3a
       0.012769791 0.022251561 -0.0007735578 0.001534431

action_model._continuous_distribution.mu.bias f4 [5]
000000 00 00 00 00 00 00 00 00 00 00 00 00 00 00 00 00
       0.0 0.0 0.0 0.0
000010 00 00 00 00
       0.0
