results/NearSingularity03/NearSingularity/NearSingularity-28152.onnx (onnx, 623772 bytes, 9 tensors)

network_body._body_endoder.seq_layers.0.weight f4 [256, 85]
0.028526397 0.08593538 -0.1251146 0.1507052 0.08946314 -0.0018734821 -0.031407204 0.00404304
-0.045033082 -0.07022425 -0.08992629 0.067005366 0.04656305 0.16843186 0.015185358 -0.04625563
-0.08357244 -0.05465649 0.05318156 0.14772944 0.11713689 0.025720473 -0.06356757 0.024798572
0.22062632 0.024496611 -0.0885128 -0.11880527 0.028098494 -0.052343983 -0.06985267 0.036451187
-0.10862313 0.0076169646 -0.22696656 -0.13430293 0.028018132 -0.028051974 -0.11387841 -0.051412947
-0.09042605 -0.02341904 -0.11167109 0.15788221 -0.0027949817 -0.09874413 -0.05964894 0.18210775
0.014490387 -0.23219 -0.107014336 -0.17102693 -0.05126333 -0.27740556 -0.117757134 -0.021034386
-0.016780958 0.081829235 -0.05185392 -0.061459977 0.16698904 0.031304304 0.029913144 -0.08942954
-0.10663507 -0.043899752 -0.05555473 0.1321957 0.11033916 0.08670756 -0.070493236 0.19168392
-0.042687625 -0.08668486 -0.17066224 -0.28730527 0.1609361 -0.08786778 0.24341919 -0.15920673
-0.031467102 0.026087178 -0.023012258 -0.05760922 -0.0032369185 0.049445014 -0.053609647 -0.10691964
0.032555524 -0.026887929 0.02140793 0.10226842 0.21852584 0.12542546 -0.05903681 0.00917086
0.08539655 0.015092503 -0.004873947 0.15765966 -0.035446752 0.037137996 -0.08023193 0.020142218
-0.026407255 -0.112263866 0.02202358 0.046843287 0.0052044606 0.092786714 -0.009696825 -0.10722951
0.19347218 0.0945605 0.28545803 0.08144363 0.05037789 0.09340454 -0.0034002566 -0.17822409
-0.02263014 0.0006042251 -0.1627618 0.0030948105 0.06333161 -0.028969912 -0.10213945 0.10011967
0.17612621 0.04730601 0.06265413 -0.06680835 -0.050642245 0.13108711 0.020785335 -0.029471805
0.07122076 -0.11716679 0.14702876 -0.11136286 -0.085697375 0.08332026 0.09453326 0.14474776
-0.0754185 0.008475443 0.027873138 -0.035533853 0.06680994 -0.060606662 -0.11299386 0.09044441
-0.07015268 -0.0016964739 -0.2259465 -0.02045076 0.09048383 0.016502107 0.06653623 -0.042208996
-0.11044032 -0.017750312 0.12640844 -0.104344845 -0.07647424 -0.073557205 0.059430346 -0.042599197
0.077528745 0.022024097 -0.04243066 -0.12343335 -0.068368584 0.044565775 0.084770516 -0.0469329
0.24362901 0.03186627 0.16067676 0.09829452 -0.06706299 -0.15432245 0.010245955 -0.17073913
0.11304435 -0.009855438 0.14567783 0.051675964 0.083265275 -0.14012782 0.12779085 -0.0499881
0.014245748 -0.050329436 0.1397761 -0.11878798 0.06630569 -0.03535468 -0.026481666 -0.02471941
0.05559423 -0.006726301 0.19103007 -0.009660997 0.004968433 -0.0289085 -0.074263856 0.23096552
-0.07798609 -0.11849223 0.0340915 -0.02635942 0.0648653 0.008133374 -0.13936193 0.095451556
-0.026683131 -0.09246121 0.017238852 -0.17514387 0.013935188 0.182668 0.012620734 0.02954386
-0.11130047 -0.022574103 -0.10777067 -0.5122897 0.09228622 0.0021270008 -0.15131971 0.2390206
-0.08090527 0.11670768 0.02432136 -0.07894179 0.18519269 -0.04453249 -0.06945031 0.0043884553
0.17077887 -0.06960683 -0.08842404 -0.10986557 0.010577124 0.038532104 -0.10042309 -0.0016442405
0.06069075 -0.1131358 0.027914083 0.05227446 -0.06270834 0.14093004 -0.22162184 0.07372748
00000000: 31b0 e93c e3fe af3d 0b1e 00be 7752 1a3e
00000010: 7338 b73d a18f f5ba d7a4 00bd 7a7b 843b
00000020: 9c74 38bd bbd1 8fbd 462b b8bd 1c3a 893d
00000030: e6b8 3e3d 6779 2c3e 02cc 783c 8b76 3dbd
00000040: 0728 abbd 7cdf 5fbd e8d4 593d 6346 173e
00000050: 77e5 ef3d beb3 d23c b72f 82bd 6026 cb3c
00000060: deeb 613e 1ead c83c 3346 b5bd 2d50 f3bd
00000070: d02e e63c a566 56bd eb0e 8fbd d74d 153d
00000080: ce75 debd bb97 f93b ec69 68be b586 09be
00000090: 4886 e53c 41cd e5bc 1539 e9bd 6296 52bd
000000a0: 4b31 b9bd 49d9 bfbc d0b3 e4bd e0ab 213e
000000b0: 032c 37bb 5d3a cabd 7252 74bd 747a 3a3e
000000c0: 1769 6d3c 37c3 6dbe 552a dbbd af21 2fbe
000000d0: 7ff9 51bd 1a08 8ebe a72a f1bd 4e50 acbc
000000e0: 3878 89bc 1696 a73d c764 54bd 75bd 7bbd
000000f0: 2dff 2a3e f138 003d 690c f53c d626 b7bd
00000100: 7d63 dabd 3ad0 33bd 5b8d 63bd 4f5e 073e
00000110: 7ff9 e13d bc93 b13d c25e 90bd ca48 443e
00000120: 38d9 2ebd d587 b1bd 15c2 2ebe ad19 93be
00000130: 6fcc 243e 06f4 b3bd e142 793e 1707 23be
00000140: a6e3 00bd c7b4 d53c 3484 bcbc a5f7 6bbd
00000150: 7b22 54bb db86 4a3d ca95 5bbd aff8 dabd
00000160: f158 053d 1344 dcbc af5f af3c 1b72 d13d
00000170: 3dc5 5f3e 886f 003e 95d0 71bd 6041 163c
00000180: 63e4 ae3d 8c46 773c a1b5 9fbb 8971 213e
00000190: 9d30 11bd 031e 183d a350 a4bd 4b01 a53c
000001a0: 0754 d8bc 99ea e5bd cb6a b43c bfde 3f3d
000001b0: 2e8a aa3b f606 be3d 6fdf 1ebc 259b dbbd
000001c0: 921d 463e efa8 c13d 8e27 923e ebcb a63d
000001d0: 0c59 4e3d e14a bf3d d7d6 5ebb 6080 36be
000001e0: d862 b9bc dc64 1e3a 08ab 26be 4ed2 4a3b
000001f0: 01b4 813d 4f52 edbc 7d2e d1bd 8b0b cd3d
00000200: 6e5a 343e f2c3 413d cf50 803d d1d2 88bd
00000210: 3e6e 4fbd b33b 063e 0246 aa3c db6e f1bc
00000220: 31dc 913d 24f5 efbd b58e 163e 3612 e4bd
00000230: 1b82 afbd d0a3 aa3d a79a c13d c238 143e
00000240: 0475 9abd 96dc 0a3c 3556 e43c f28b 11bd
00000250: a6d3 883d b13e 78bd 5369 e7bd eb3a b93d
00000260: 35ac 8fbd 385c deba 855e 67be 5a88 a7bc
00000270: 964f b93d 6d2f 873c 2644 883d 57e3 2cbd
00000280: 892e e2bd 1a69 91bc 3771 013e c0b2 d5bd
00000290: 879e 9cbd 29a5 96bd 3c6d 733d 7f7c 2ebd
000002a0: 64c7 9e3d e16b b43c c6cb 2dbd a0ca fcbd
000002b0: d404 8cbd 9a8a 363d 2a9c ad3d b63c 40bd
000002c0: e279 793e 3586 023d 7388 243e a34e c93d
000002d0: 5258 89bd b406 1ebe a6de 273c 3dd6 2ebe
000002e0: cc83 e73d b478 21bc 922c 153e 2daa 533d
000002f0: fc86 aa3d ab7d 0fbe 9bdb 023e 52c0 4cbd
00000300: ff66 693c 3d26 4ebd 7721 0f3e 1d47 f3bd
00000310: 47cb 873d 12d0 10bd 14f0 d8bc 5c80 cabc
00000320: c6b6 633d 4d68 dcbb 639d 433e 2949 1ebc
00000330: 3dce a23b 85d1 ecbc a617 98bd 3a82 6c3e
00000340: 2cb7 9fbd 0eac f2bd 87a3 0b3d b6ef d7bc
00000350: 19d8 843d d841 053c e5b4 0ebe 1b7c c33d
00000360: 9596 dabc 4e5c bdbd 7e38 8d3c ea58 33be
00000370: 6a50 643c 520d 3b3e 32c7 4e3c f705 f23c
00000380: 80f1 e3bd 53ed b8bc deb6 dcbd 6b25 03bf
00000390: 8f00 bd3d 2765 0b3b 8ef3 1abe d1c1 743e
000003a0: aab1 a5bd 7004 ef3d 973d c73c 3cac a1bd
000003b0: 27a3 3d3e b367 36bd f73b 8ebd 08cd 8f3b
000003c0: a8e0 2e3e 078e 8ebd aa17 b5bd 3301 e1bd
000003d0: ac4b 2d3c d7d3 1d3d 9faa cdbd 8e83 d7ba
000003e0: dd96 783d beb3 e7bd 13ac e43c bf1d 563d
000003f0: 3b6d 80bd f74f 103e d6f0 62be 6ffe 963d

network_body._body_endoder.seq_layers.0.bias f4 [256]
-0.012243783 0.006036772 0.006562989 -0.0009284272 -0.016347518 -0.0049863234 0.003184954 -0.0049428637
-0.010899215 -0.013027351 0.004108071 0.007140275 0.0057352087 -0.004354004 -0.006252592 -0.008257218
-0.016719181 -0.0066745947 -0.0026196123 -0.010478833 -0.008923378 0.015257644 0.00097199297 0.0033149822
0.0019002684 -0.0086194845 -0.014363163 -0.0065894546 0.012098293 -0.0008274064 0.016017942 -0.011111313
-0.009257996 -0.003445861 0.0033520681 -0.015254039 -0.015446573 -0.015726648 -0.012483379 0.0039406796
-0.0022301392 -0.015634617 -0.016861724 -0.010354741 0.0068822317 -0.0074122557 -0.0024934576 -0.008914315
0.0134422025 0.014141021 -0.010001276 -0.0012843246 -0.009773083 -0.0032266756 -0.002133801 -0.003999384
0.014278683 -0.015222 0.013296402 -0.0067204083 0.01319475 -0.002931853 -0.017929073 -0.010306188
-0.011617012 -0.020195868 -0.011635472 -0.01274097 -0.00024216741 0.008791259 -0.0010649937 -0.004745534
-0.022475779 -0.006195775 -0.005299333 -0.01654923 -0.012245731 -0.006510835 -0.00990809 -0.012315274
0.0005323873 -0.011092565 -0.0067792814 0.010243545 -0.00897484 0.0036372654 -0.0043040533 0.009291881
0.0021470424 -0.0066746827 -0.009047516 -0.0057927785 0.0019366354 0.009934027 -0.010170156 0.00630316
-0.013914176 -0.017696453 -0.016909676 -0.0034150244 -0.0012180137 0.0008634757 0.01050067 0.0053392425
0.0046701296 -0.008926009 0.0012429119 -0.016285446 -0.006365349 0.0017944555 -0.005751224 -0.0009563769
-0.014049951 -0.004218763 -0.018359138 -0.0030402818 -0.0017448684 -0.00028225043 -0.0007110547 0.0073598726
-0.017085046 0.0077437717 0.006461497 -0.0093707265 -0.0055111353 -0.015940467 0.01117608 0.006330447
-0.01859468 0.016087687 0.002796858 0.006426724 -0.0052905898 0.014742793 -0.011470512 0.012131068
-0.009490011 0.009039637 -0.016540945 -0.011052554 0.00091531314 -0.0052864663 0.0092599755 -0.016087325
0.005186203 0.0024456717 0.0031901274 -0.0021340696 -0.006120562 0.008504098 0.0057203886 0.0056654927
0.004876647 -0.006414533 -0.0013166699 -0.002543169 -0.00024488562 -0.015425074 -0.0010526095 -0.0086914515
0.00012437235 0.0003189466 0.0008625396 0.0079684025 -0.0065657618 0.0033703395 -0.0087044025 -0.009755611
-0.0125035215 0.010077689 0.0026636925 -0.0130106155 0.01053793 -0.009958263 0.004044061 -0.0076335734
0.007293266 -0.008741825 0.01633561 0.011226041 -0.0035812964 -0.020381194 -0.008668924 -0.0007071992
-0.0013606186 -0.0050162356 -0.00618221 0.012993324 0.0001688802 -0.0013606617 0.00066027243 -0.0023058506
0.015466503 -0.0140559375 -0.007013945 0.011594243 -0.01860939 -0.010648862 -0.013094852 -0.016781185
0.00035833166 0.006393835 0.015178174 -0.00064672006 0.00084305496 -0.011388732 -0.0009949107 -0.0029261538
-0.0022369488 -0.0021363953 0.011413544 0.014317201 -0.0030081645 -0.0029866497 -0.014847335 -0.012415405
-0.010016804 -0.015090234 -0.022459202 -0.008382003 -0.011890908 -0.004108697 -0.0023825446 -0.0136685
0.004625068 -0.010576695 -9.6372845e-05 -0.007004781 -0.013797757 -0.005978437 -0.00087460346 -0.0010528383
0.0042875544 0.012926894 -0.0019226603 0.0012007307 -0.0033325066 -0.0029870851 0.013599824 -0.019360397
0.0075318664 -0.0069684824 -0.0054065725 -0.0048179226 -0.010017733 -0.009971129 -0.008635324 -0.002036003
-0.0146031715 -0.01170086 0.013829558 -0.020134602 -0.00056127703 0.005740586 -0.017458083 0.025162915
00000000: 269a 48bc 1dd0 c53b 580e d73b b261 73ba
00000010: 3beb 85bc 5064 a3bb a9ba 503b bff7 a1bb
00000020: 9f92 32bc ac70 55bc ff9c 863b f8f8 e93b
00000030: 6bee bb3b 08ac 8ebb 8be2 ccbb 4849 07bc
00000040: aaf6 88bc 8fb6 dabb cdad 2bbb 69af 2bbc
00000050: 5c33 12bc 32fb 793c 58cd 7e3a 2c40 593b
00000060: 6d12 f93a bd38 0dbc 7953 6bbc 5aec d7bb
00000070: eb37 463c 4ee6 58ba 0f38 833c 390c 36bc
00000080: daae 17bc f4d3 61bb 5fae 5b3b 14ec 79bc
00000090: 9f13 7dbc 2cd5 80bc 1687 4cbc d120 813b
000000a0: 8727 12bb 2b14 80bc 9921 8abc eea6 29bc
000000b0: 5884 e13b 82e2 f2bb 4769 23bb 590d 12bc
000000c0: af3c 5c3c beaf 673c 64dc 23bc c856 a8ba
000000d0: 481f 20bc a276 53bb 3ed7 0bbb 440d 83bb
000000e0: 23f1 693c b265 79bc 27d9 593c df36 dcbb
000000f0: cb2e 583c 5524 40bb fedf 92bc 49db 28bc
00000100: 4855 3ebc ce71 a5bc b5a2 3ebc 80bf 50bc
00000110: 52ee 7db9 3609 103c 4297 8bba 6d80 9bbb
00000120: 201f b8bc ed05 cbbb 07a6 adbb 4092 87bc
00000130: 52a2 48bc d858 d5bb 8b55 22bc 01c6 49bc
00000140: e88f 0b3a 97bd 35bc bc24 debb 8bd4 273c
00000150: 350b 13bc 305f 6e3b 0409 8dbb f93c 183c
00000160: 65b5 0c3b 4cb7 dabb 083c 14bc 59d1 bdbb
00000170: b3d6 fd3a 54c2 223c baa0 26bc bd8a ce3b
00000180: 49f8 63bc 27f8 90bc 2986 8abc 9ace 5fbb
00000190: c2a5 9fba e05a 623a 010b 2c3c d0f4 ae3b
000001a0: e307 993b 653e 12bc 34e9 a23a 0e69 85bc
000001b0: 6b94 d0bb ef33 eb3a c374 bcbb 5eb5 7aba
000001c0: c431 66bc 8d3d 8abb e765 96bc 773f 47bb
000001d0: 11b4 e4ba 03fb 93b9 1366 3aba 162b f13b
000001e0: f0f5 8bbc 77bf fd3b f7ba d33b ad87 19bc
000001f0: c196 b4bb 9595 82bc e11b 373c a36f cf3b
00000200: df53 98bc 53ca 833c 7e4b 373b 4597 d23b
00000210: af5c adbb c18b 713c d0ee 3bbc 63c1 463c
00000220: fe7b 1bbc fc1a 143c e080 87bc c515 35bc
00000230: a0f1 6f3a 183a adbb 27b7 173c 91c9 83bc
00000240: 06f1 a93b 9047 203b 7511 513b bfdb 0bbb
00000250: ff8e c8bb c654 0b3c 1972 bb3b 99a5 b93b
00000260: 48cc 9f3b 0131 d2bb 1c94 acba 4cab 26bb
00000270: fe63 80b9 73b9 7cbc b7f7 89ba 9766 0ebc
00000280: f369 0239 4a38 a739 0d1c 623a e78d 023c
00000290: 9a25 d7bb eae0 5c3b e99c 0ebc 00d6 1fbc
000002a0: 92db 4cbc e41c 253c 5891 2e3b 7a2a 55bc
000002b0: 48a7 2c3c fb27 23bc 0b84 843b 0e23 fabb
000002c0: 59fc ee3b df39 0fbc 42d2 853c 6eed 373c
000002d0: 2fb4 6abb 76f6 a6bc 1a08 0ebc 5663 39ba
000002e0: c956 b2ba 3c5f a4bb 2394 cabb f3e1 543c
000002f0: 6f15 3139 3b58 b2ba 2216 2d3a c11d 17bb
00000300: 3767 7d3c e04a 66bc 3cd5 e5bb c8f5 3d3c
00000310: b872 98bc 9178 2ebc ca8b 56bc b278 89bc
00000320: 76de bb39 6083 d13b e0ad 783c a688 29ba
00000330: 7600 5d3a ce97 3abc aa67 82ba b7c4 3fbb
00000340: c699 12bb c402 0cbb e0ff 3a3c b292 6a3c
00000350: a024 45bb abbb 43bb 3d42 73bc fc69 4bbc
00000360: 851d 24bc 073d 77bc 5cfc b7bc ab54 09bc
00000370: 15d2 42bc 40a2 86bb 7724 1cbb d8f1 5fbc
00000380: e28d 973b e049 2dbc c71b cab8 5d88 e5bb
00000390: fd0f 62bc c4e6 c3bb a545 65ba 64ff 89ba
000003a0: 9d7e 8c3b 53cb 533c c601 fcba d661 9d3a
000003b0: 2f66 5abb f9c2 43bb ccd1 5e3c b299 9ebc
000003c0: e0cd f63b de57 e4bb 9e29 b1bb aadf 9dbb
000003d0: 6b21 24bc f25d 23bc 2d7b 0dbc 766e 05bb
000003e0: 2442 6fbc f7b4 3fbc 5f95 623c 52f1 a4bc
000003f0: aa22 13ba 871b bc3b 4104 8fbc 7522 ce3c

network_body._body_endoder.seq_layers.2.weight f4 [256, 256]
0.10059182 0.22300537 -0.02959339 0.10536475 -0.062964246 -0.035704188 -0.086483575 -0.010218319
0.013952115 0.012946554 0.025718085 0.032965597 0.0033779133 -0.043425903 0.006601839 -0.034990113
0.002681377 -0.04031101 -0.060909007 0.027920254 0.12222039 0.075780556 -0.022693101 0.050505534
0.025767773 -0.049389325 0.09207212 -0.030627921 -0.0074625835 0.049869597 -0.004304191 -0.10083154
0.13226059 0.029248377 0.033167675 0.02620245 0.040473167 -0.026349256 -0.029274885 0.10355581
-0.033516698 -0.0055208136 0.02205848 -0.05474279 0.0024346253 0.08901609 -0.07480287 -0.082199946
0.0024084472 0.04862908 -0.06658726 -0.054058332 0.047479007 0.044606935 -0.039091665 -0.0064189048
-0.0015159 -0.09560262 -0.14432152 -0.0746873 -0.122935645 -0.055760663 -0.044883505 -0.02718657
-0.04598591 -0.046303988 -0.101310976 -0.12702487 -0.065285124 0.027129438 0.023414455 0.0665061
0.017939698 -0.014496796 -0.1066035 0.024824807 -0.011759428 -0.039449167 0.015943993 0.1228084
-0.043464124 -0.08612581 0.025424913 -0.0037422574 0.07404911 -0.010348771 0.02344588 0.050154205
-0.10734764 0.10386664 -0.03303227 0.03277409 -0.032730844 -0.045848437 -0.052779138 0.023737578
-0.012557486 -0.013894045 -0.0545724 0.064065054 0.010148772 0.04391131 0.056401204 0.14012611
0.056279633 -0.075545914 -0.033717692 -0.12056903 0.008988242 0.014342037 0.01665445 0.092235215
0.061359286 0.048476174 0.062075727 -0.057374734 0.0039396915 -0.11438253 0.005856715 -0.027379282
0.06482466 -0.14198299 -0.046249606 -0.004612548 -0.010890946 -0.016022207 0.12265048 -0.033157177
0.073822066 -0.06571256 0.07422935 -0.08910965 -0.08817815 0.022562766 -0.07956134 0.119979896
-0.053163297 -0.097876556 0.016311562 -0.06878664 0.030610716 0.054891523 -0.044790495 -0.070399575
-0.054924082 -0.008902906 -0.0016309686 0.010472545 0.036167692 0.049617276 0.03075808 -0.013409541
-0.109087944 0.053466357 -0.05024005 -0.08019231 0.08510209 -0.008018739 -0.016936025 0.064168416
-0.07310451 0.041591186 0.1257184 0.08264069 -0.05815385 -0.1298802 -0.022551978 -0.032112893
-0.07103527 0.06724093 0.005858302 0.005742562 0.022821324 -0.080607 -0.046288263 -0.07186912
-0.14591601 0.096236646 0.04678949 0.05445145 -0.04686392 -0.0030331523 0.07657001 -0.075026974
0.08163024 0.1017527 0.0035560194 0.1262715 0.040011525 0.092540465 -0.03985802 0.03556689
0.016957335 -0.09787591 0.031199172 -0.026955362 -0.012543005 -0.008700389 -0.03880944 0.0767347
0.036427256 0.032548875 0.05881246 0.021696417 0.07679852 0.065712646 -0.058956392 -0.07239196
0.00730005 -0.09190722 0.08993101 0.038704585 -0.0667914 0.059775576 0.06599319 0.084905334
-0.033046488 0.039416958 -0.0030811208 0.14964053 -0.020416182 0.02944654 -0.050374214 -0.1095242
-0.07350792 0.03972998 0.11451442 0.052684758 -0.044561 0.0005349912 0.015516433 -0.011609415
-0.011281843 0.04218593 -0.07873839 0.15197046 0.030225277 -0.023764664 0.09148132 0.07580586
-0.0015863363 -0.021759123 -0.10292274 0.06934791 -0.027854297 -0.031264648 0.066780664 -0.021105295
-0.0058655287 -0.035702545 -0.042966504 0.050817605 0.01326017 -0.0016455805 0.003812458 -0.048397128
00000000: 1603 ce3d 855b 643e d66d f2bc 79c9 d73d
00000010: 66f3 80bd 8e3e 12bd 4d1e b1bd bc6a 27bc
00000020: 6997 643c c91d 543c bcae d23c ef06 073d
00000030: fb5f 5d3b 5cdf 31bd 3d54 d83b cb51 0fbd
00000040: 0bba 2f3b 281d 25bd b97b 79bd 04b9 e43c
00000050: af4e fa3d d632 9b3d e2e6 b9bc e4de 4e3d
00000060: f016 d33c 764c 4abd 4f90 bc3d 68e7 fabc
00000070: b088 f4bb 1044 4c3d 2c0a 8dbb c480 cebd
00000080: 526f 073e 4b9a ef3c d4da 073d 85a6 d63c
00000090: 31c7 253d 65da d7bc e2d1 efbc 1215 d43d
000000a0: ce48 09bd f1e7 b4bb fcb3 b43c fa39 60bd
000000b0: 3c8e 1f3b 114e b63d 3f32 99bd 7258 a8bd
000000c0: 0ad7 1d3b 492f 473d e75e 88bd 456c 5dbd
000000d0: 5979 423d c3b5 363d 951e 20bd ad55 d2bb
000000e0: 2ab1 c6ba 4ecb c3bd 05c9 13be a8f5 98bd
000000f0: afc5 fbbd 4b65 64bd c4d7 37bd 5fb6 debc
00000100: b95b 3cbd 40a9 3dbd 217c cfbd cf12 02be
00000110: 35b4 85bd 8e3e de3c accf bf3c 5a34 883d
00000120: 46f6 923c f883 6dbc f052 dabd 655d cb3c
00000130: 9eaa 40bc 7395 21bd fa9c 823c f882 fb3d
00000140: 7007 32bd bb62 b0bd e847 d03c a940 75bb
00000150: 0fa7 973d e48d 29bc 9311 c03c 7f6e 4d3d
00000160: 14d9 dbbd 08b8 d43d d84c 07bd 203e 063d
00000170: c710 06bd 92cb 3bbd f02e 58bd 4f75 c23c
00000180: eabd 4dbc d9a3 63bc 4f87 5fbd 8a34 833d
00000190: 0947 263c 59dc 333d f304 673d 387d 0f3e
000001a0: 7985 663d d1b7 9abd 901b 0abd e5ec f6bd
000001b0: 6b43 133c ddfa 6a3c ea6e 883c d1e5 bc3d
000001c0: e053 7b3d f48e 463d 1e43 7e3d c501 6bbd
000001d0: 8718 813b 6341 eabd b0e9 bf3b 844a e0bc
000001e0: cbc2 843d fd63 11be 3a70 3dbd db24 97bb
000001f0: f06f 32bc 0141 83bc 2d30 fb3d d2cf 07bd
00000200: 0630 973d 4f94 86bd 8f05 983d 1f7f b6bd
00000210: bf96 b4bd 8dd5 b83c 0ef1 a2bd 05b8 f53d
00000220: c2c1 59bd 8173 c8bd d39f 853c 03e0 8cbd
00000230: 53c3 fa3c efd5 603d 3d76 37bd a72d 90bd
00000240: 13f8 60bd 7fdd 11bc 3ac6 d5ba 0a95 2b3c
00000250: 9324 143d 7c3b 4b3d 5ef8 fb3c b1b3 5bbc
00000260: 8069 dfbd 8aff 5a3d 83c8 4dbd de3b a4bd
00000270: 014a ae3d 0761 03bc 6bbd 8abc bb6a 833d
00000280: d1b7 95bd 855b 2a3d 53bc 003e 863f a93d
00000290: bb32 6ebd 51ff 04be edbe b8bc cf88 03bd
000002a0: f17a 91bd 9db5 893d 00f7 bf3b 1a2c bc3b
000002b0: c9f3 ba3c 4815 a5bd c398 3dbd 1e30 93bd
000002c0: 026b 15be b817 c53d 56a6 3f3d 7c08 5f3d
000002d0: 62f4 3fbd dac7 46bb bdd0 9c3d bea7 99bd
000002e0: c12d a73d b863 d03d 1b0c 693b 514d 013e
000002f0: 20e3 233d db85 bd3d 2a42 23bd 96ae 113d
00000300: 1cea 8a3c 2a73 c8bd 6895 ff3c 7ed1 dcbc
00000310: 2d81 4dbc 148c 0ebc a6f6 1ebd 1527 9d3d
00000320: bf34 153d f851 053d 56e5 703d afbc b13c
00000330: 8b48 9d3d 5a94 863d 427c 71bd 3c42 94bd
00000340: 4235 ef3b da39 bcbd c02d b83d b388 1e3d
00000350: eec9 88bd 3cd7 743d 7027 873d d9e2 ad3d
00000360: c15b 07bd ad73 213d a1ec 49bb 5e3b 193e
00000370: d63f a7bc df39 f13c 3155 4ebd 394e e0bd
00000380: 528b 96bd e7bb 223d 8986 ea3d f9cb 573d
00000390: 9885 36bd a73e 0c3a a338 7e3c 6a35 3ebc
000003a0: 7bd7 38bc 27cb 2c3d 9841 a1bd 259e 1b3e
000003b0: 009b f73c 1dae c2bc 8f5a bb3d 1a40 9b3d
000003c0: 9dec cfba 3040 b2bc 28c9 d2bd 4706 8e3d
000003d0: b22e e4bc 5c0f 00bd 4dc4 883d 03e5 acbc
000003e0: 9f33 c0bb d53c 12bd a5fd 2fbd 1f26 503d
000003f0: 2f41 593c 85b0 d7ba 6eda 793b 113c 46bd

network_body._body_endoder.seq_layers.2.bias f4 [256]
0.012068151 -0.0063156183 -0.0046539945 0.0026807976 -0.0057340735 0.012878401 -0.0049509 0.0082842065
0.010583044 -0.009740437 -0.013487759 -0.010546983 -0.015449216 0.003515947 -0.015204629 -0.0031692907
-0.012182588 -0.0016355723 -0.019462569 0.0071238102 0.020147512 -0.009444928 -0.013915978 0.016397476
-0.0021446869 0.0075559737 -0.01079773 -0.015860278 0.0052193296 -0.009842193 -0.010158922 -0.007192271
0.001526306 0.008168388 -0.0003863639 -0.004454255 -0.010720339 0.01357352 0.008693789 -0.013091684
-0.011543164 -0.0024654306 0.0043406943 -0.010340942 0.00730602 0.015392282 -0.011497065 0.011746473
-0.010910994 -0.0005358099 -0.009553625 -0.00044021307 0.0047433632 -0.009057552 0.0041337353 0.013541245
0.0052743414 -0.014693013 -0.013234042 -0.013970962 0.001748387 -0.008691649 -0.015205085 -0.0070542647
-0.013526341 -0.008514688 0.007436988 -0.0058218804 -0.0077182045 -0.0040160557 0.0036986582 -0.014146328
-0.012815505 -0.0031923635 0.014005735 -0.0040196395 -0.0058690193 -0.0048186956 0.005779387 -0.003250852
-0.010653472 -0.0055033593 0.01303615 0.0041900505 -0.01833594 0.0219121 0.00342892 0.005693946
-0.007446952 -0.015268894 0.003344791 -0.0131328385 -0.012879247 -0.012165592 -0.00039548558 -0.009202145
-0.009749602 0.0005674333 -0.00013800233 0.0048770495 -0.013229696 0.010055972 -0.0037091754 -0.007709888
-0.0027447753 -0.011200574 0.00032754146 -0.005801619 -0.0054402333 -0.0037288629 -0.013709087 -0.011200312
-0.010734508 -0.003701999 -0.00886448 -0.005485397 -0.0042134374 0.0024237994 -0.010599366 0.00011265264
-0.0031470961 -0.0010483627 0.0025890002 -0.0021267752 -0.012764222 -0.010192045 0.0037520768 -0.011503199
-0.0059474795 0.0012097263 -0.0076432335 -0.0004830024 0.0019470633 -0.012163201 0.0019085531 0.015537518
-0.0036397302 0.004928272 -0.005764 -0.009498687 -0.0016574264 0.005870313 -0.0048145815 0.001419462
-0.007629617 -0.006268622 -0.016746813 -0.014792993 -0.0076289703 -0.00273337 0.011596306 0.00052368717
-0.0019143602 -0.013562757 -0.012638097 0.00050971314 0.0092880465 -0.0032170955 -0.0068089576 -0.0111504
0.012562438 -0.013604367 -0.009114921 -0.003969414 -0.01352803 -0.011336914 -0.005364855 0.0017932963
-0.0005464688 0.007914985 0.016425367 -0.010160131 -0.0050026034 -0.01498459 -0.005039495 -0.006348256
-0.0044156536 0.00091382174 0.0023246119 0.0013891553 0.008908413 -0.007214888 -0.016102947 0.0044700853
0.011055386 0.006958301 0.0013681247 -0.014729236 -0.015495479 -0.0009112983 -7.0515096e-05 -0.009965279
-0.013048898 -0.01520961 0.007328793 0.0009073047 0.004072021 -0.005334335 0.0025672007 0.0012349393
0.0014184905 0.013701735 -0.0020527956 0.0005862977 -0.011866121 0.007085005 0.001966978 0.0005894599
-0.010117989 -0.01419932 -0.010741724 -0.010673469 0.008447471 0.011691378 -0.0074459636 -0.0022645637
0.0021225868 0.0031259463 -0.014168606 -0.002811481 0.003978893 0.0021401388 0.006349241 0.025865719
0.0015490387 -0.002077039 -0.008752594 -0.0029458306 0.0020421688 0.0035632285 -0.006382389 0.0019529227
-0.013635146 -0.0047917897 0.0011075579 0.01936529 -0.010029153 0.009368109 0.011470366 0.006350094
-0.0042456044 -0.012878173 0.007221943 -0.008143806 0.008024384 0.016251342 0.009646007 0.014248208
-0.009033584 -0.001675956 0.0017896957 0.0069568953 -0.019026536 0.008004291 0.008310555 -0.011460624
00000000: 7eb9 453c 3ff3 cebb 8980 98bb 52b0 2f3b
00000010: e5e4 bbbb eeff 523c 293b a2bb 7bba 073c
00000020: 8164 2d3c 5b96 1fbc c3fb 5cbc 41cd 2cbc
00000030: b51e 7dbc cd6b 663b d61c 79bc e0b3 4fbb
00000040: 7a99 47bc b360 d6ba f76f 9fbc da6e e93b
00000050: 650c a53c e6be 1abc d8ff 63bc 0054 863c
00000060: e08d 0cbb 1a98 f73b f6e8 30bc 6aed 81bc
00000070: e906 ab3b 2641 21bc 9b71 26bc 24ad ebbb
00000080: 550e c83a b4d4 053c e390 cab9 00f5 91bb
00000090: 5ca4 2fbc 7863 5e3c 6570 0e3c 817e 56bc
000000a0: 8a1f 3dbc 1093 21bb 623c 8e3b 0e6d 29bc
000000b0: 5667 ef3b e92f 7c3c 305e 3cbc 4774 403c
000000c0: 07c4 32bc 9875 0cba cf86 1cbc 66cc e6b9
000000d0: 376e 9b3b 2066 14bc 4974 873b 19dc 5d3c
000000e0: 62d4 ac3b f7ba 70bc 98d3 58bc 76e6 64bc
000000f0: 222a e53a 6b67 0ebc c01e 79bc 7627 e7bb
00000100: 969d 5dbc 3181 0bbc fab1 f33b 79c5 bebb
00000110: fee8 fcbb 1e99 83bb 3065 723b 00c6 67bc
00000120: 20f8 51bc f936 51bb 4f78 653c 2eb7 83bb
00000130: e750 c0bb 26e6 9dbb 0361 bd3b 3f0c 55bb
00000140: e68b 2ebc 8655 b4bb 9395 553c b14c 893b
00000150: 4135 96bc 0181 b33c bbb7 603b 4894 ba3b
00000160: 9005 f4bb 622a 7abc 4834 5b3b 1e2b 57bc
00000170: 7a03 53bc 3152 47bc 2d59 cfb9 98c4 16bc
00000180: cbbc 1fbc cebf 143a b8b4 10b9 a8cf 9f3b
00000190: 5ec1 58bc cec1 243c a315 73bb 3aa3 fcbb
000001a0: b0e1 33bb 9d82 37bc dfb9 ab39 821b bebb
000001b0: fc43 b2bb f05f 74bb 149c 60bc 8381 37bc
000001c0: cadf 2fbc 3d9d 72bb 533c 11bc d8be b3bb
000001d0: e010 8abb 9bd8 1e3b f7a8 2dbc ed3f ec38
000001e0: 833f 4ebb 3769 89ba 37ac 293b 5e61 0bbb
000001f0: 0721 51bc 89fc 26bc 67e5 753b ea77 3cbc
00000200: 13e3 c2bb ae8f 9e3a 1774 fabb 7c3b fdb9
00000210: 9a34 ff3a 2a48 47bc 6a28 fa3a 1391 7e3c
00000220: 8a88 6ebb 587d a13b f0df bcbb 62a0 1bbc
00000230: 003e d9ba c15b c03b a3c3 9dbb 3e0d ba3a
00000240: de01 fabb 0369 cdbb 9d30 89bc 4f5e 72bc
00000250: 71fc f9bb 5722 33bb 6ffe 3d3c 0d48 093a
00000260: 45eb faba 5336 5ebc 0510 4fbc 459e 053a
00000270: e42c 183c e8d5 52bb ad1d dfbb 2bb0 36bc
00000280: afd2 4d3c dae4 5ebc c056 15bc dc11 82bb
00000290: aca4 5dbc 77be 39bc aacb afbb 0a0d eb3a
000002a0: e640 0fba daad 013c 7e8e 863c ae76 26bc
000002b0: e1ec a3bb ed81 75bc 5922 a5bb 0805 d0bb
000002c0: 30b1 90bb 8a8d 6f3a 8458 183b 5114 b63a
000002d0: 98f4 113c de6a ecbb 54ea 83bc cb79 923b
000002e0: a621 353c 7602 e43b a652 b33a e552 71bc
000002f0: c0e0 7dbc 32e4 6eba 81e1 93b8 6945 23bc
00000300: 0ccb 55bc ba31 79bc 5f26 f03b 30d8 6d3a
00000310: 976e 853b a5cb aebb 7b3e 283b b0dd a13a
00000320: a5ec b93a 3e7d 603c 3288 06bb c6b1 193a
00000330: 1e6a 42bc 5429 e83b 6ae8 003b fc85 1a3a
00000340: ecc5 25bc 44a4 68bc 0efe 2fbc c6df 2ebc
00000350: 4367 0a3c 328d 3f3c 45fd f3bb 1369 14bb
00000360: 191b 0b3b addc 4c3b 7123 68bc d340 38bb
00000370: 6061 823b 9241 0c3b 4b0d d03b 58e4 d33c
00000380: 1d09 cb3a ef1e 08bb 0a67 0fbc d60e 41bb
00000390: e8d5 053b 0e85 693b 5c23 d1bb 36f9 ff3a
000003a0: f365 5fbc 7204 9dbb 7a2b 913a f5a3 9e3c
000003b0: 5151 24bc b27c 193c 34ee 3b3c 7314 d03b
000003c0: b61e 8bbb f9fe 52bc 0ca6 ec3b 996d 05bc
000003d0: b578 033c 8921 853c 490a 1e3c 5171 693c
000003e0: 9901 14bc c0ab dbba 3994 ea3a abf6 e33b
000003f0: 8add 9bbc 6e24 033c fe28 083c 57c5 3bbc

network_body._body_endoder.seq_layers.4.weight f4 [256, 256]
-0.08088525 0.0078081815 0.06118731 0.07457888 0.025368834 0.033687994 -0.03015304 -0.013380474
-0.03404099 0.1960849 0.05296126 -0.13163827 -0.069227666 -0.060496174 -0.02528441 -0.049315892
-0.048428897 0.0036203694 0.017269723 0.009004027 -0.10013128 0.062201507 -0.019196011 0.0067825355
0.06543265 -0.048293687 0.14133486 0.045515936 -0.012545786 0.024231778 0.03675405 0.046605445
-0.0032406806 -0.06649344 0.14563873 0.054185726 -0.045532707 0.038274195 -0.036530808 -0.023918143
0.00036238017 -0.030136097 0.013977012 -0.028508728 0.054014426 0.029363325 0.022475148 0.053218152
-0.008195272 0.032228757 -0.027859222 -0.05590994 -0.060190167 -0.09561805 0.03684222 -0.014562386
-0.08514939 0.05258265 -0.006876545 -0.02946675 0.0382935 -0.12614617 0.052252594 -0.032207698
0.00071479287 0.057240207 -0.07683241 0.0063518584 -0.02989707 -0.024466777 -0.004554837 -0.0386963
-0.13839519 -0.062260896 -0.05387853 -0.057095747 0.020729069 0.008007693 -0.05554308 -0.09889376
-0.024261875 -0.015247852 0.008994458 -0.012856748 0.07210852 0.058472898 0.0475851 -0.05229848
-0.033472564 -0.06734122 -0.028467953 0.02731465 -0.025622224 0.015777403 -0.046895064 0.0042059505
0.060046505 0.05945034 -0.085122086 0.031436227 -0.079777606 0.0005974988 0.048540227 -0.08593616
-0.036648244 -0.010495621 0.005361553 0.041803177 -0.01933154 -0.09212385 -0.09487914 0.023462465
-0.09359233 -0.08390884 0.016810684 -0.06469483 -0.011113921 -0.05040218 0.029895095 0.065422595
0.029219344 0.027362946 -0.032682825 0.049540885 -0.04809256 0.019754367 -0.038501043 -0.0007744103
0.05189753 0.034058467 -0.060154974 -0.004439765 -0.004237266 -0.066902846 -0.10120993 -0.035664313
0.022859795 0.1103793 -0.05887109 0.07309516 0.004323813 0.03587633 -0.08767789 -0.058606938
0.005017664 0.024037752 0.01406848 -0.041050397 -0.012979587 -0.15337375 0.025823954 -0.032702576
-0.009271803 -0.009687327 0.13371475 0.037628032 0.076601885 -0.08184661 -0.057517212 0.073634125
-0.029569153 -0.013776054 0.047085 -0.009051305 -0.004454426 0.06442464 -0.15170057 0.0375904
0.09229349 -0.017035944 -0.07890124 -0.06086345 0.0034817513 -0.034426477 0.037730012 -0.039243273
0.081479244 -0.03837365 0.07608887 0.04534533 0.013200239 0.018816335 0.011677656 0.060648467
0.041738342 0.16798988 0.032345135 0.03394017 -0.105091654 -0.09985062 -0.13331097 0.05520492
-0.053713933 -0.12450397 0.053542234 0.06793631 -0.0027706095 -0.038644545 -0.1301226 0.01821531
-0.09087519 -0.042942032 -0.19252588 -0.011853025 0.019959668 -0.004827472 0.003907224 0.046587896
0.10965638 0.061511207 -0.029280752 -0.055284653 0.022786489 0.034581363 0.09405077 0.023730934
-0.0001426844 0.15597866 0.0797906 -0.011669656 0.01363078 0.040575318 0.021827223 -0.07672958
0.034298822 -0.08320651 -0.0755697 -0.010037862 0.015949883 0.05330602 0.022969108 -0.034831416
0.06584357 0.02548429 -0.049539886 -0.023396516 0.08196265 0.051193345 0.061678194 0.11129117
-0.022119317 0.046999898 -0.017887646 0.06193955 0.05598076 -0.08266771 -0.064575665 -0.041313138
-0.02542804 -0.0057317703 -0.02432508 0.0125783095 -0.0068879025 0.16058744 -0.056879252 -0.0004684715
00000000: 2aa7 a5bd c6db ff3b 8b9f 7a3d d0bc 983d
00000010: 4dd2 cf3c 6cfc 093d 8203 f7bc c739 5bbc
00000020: 916e 0bbd 7bca 483e e8ed 583d 2fcc 06be
00000030: 3cc7 8dbd d6ca 77bd 4021 cfbc 76ff 49bd
00000040: 615d 46bd b843 6d3b 3c79 8d3c a085 133c
00000050: a111 cdbd 02c7 7e3d f440 9dbc 0840 de3b
00000060: 8e01 863d 9acf 45bd 16ba 103e eb6e 3a3d
00000070: d78c 4dbc b981 c63c 6a8b 163d 5ae5 3e3d
00000080: 9961 54bb b62d 88bd 5222 153e daf1 5d3d
00000090: 8180 3abd 67c5 1c3d 54a1 15bd fbef c3bc
000000a0: d8fd bd39 fadf f6bc d6ff 643c 238b e9bc
000000b0: 3b3e 5d3d 5b8b f03c cd1d b83c 47fb 593d
000000c0: 7645 06bc 4d02 043d 0639 e4bc d201 65bd
000000d0: f789 76bd 65d3 c3bd dee7 163d 1397 6ebc
000000e0: ce62 aebd e860 573d a454 e1bb 4164 f1bc
000000f0: a5d9 1c3d 762c 01be d106 563d 38ec 03bd
00000100: f060 3b3a b574 6a3d 505a 9dbd 4023 d03b
00000110: b3ea f4bc 8d6e c8bc be40 95bb 0380 1ebd
00000120: 78b7 0dbe 4805 7fbd bcaf 5cbd 3bdd 69bd
00000130: 02d0 a93c b332 033c 2481 63bd d088 cabd
00000140: d7c0 c6bc 20d2 79bc 7e5d 133c 1ca5 52bc
00000150: a2ad 933d 4781 6f3d 98e8 423d ee36 56bd
00000160: 871a 09bd 32ea 89bd a035 e9bc f9c2 df3c
00000170: b3e5 d1bc 9d3f 813c 0a15 40bd 12d2 893b
00000180: 53f3 753d 3382 733d 7d54 aebd 46c3 003d
00000190: 7162 a3bd 77a1 1c3a 1ed2 463d 4cff afbd
000001a0: 781c 16bd d3f5 2bbc f7af af3b cf39 2b3d
000001b0: 2e5d 9ebc 6eab bcbd ff4f c2bd 5b34 c03c
000001c0: 56ad bfbd 66d8 abbd 8fb6 893c b97e 84bd
000001d0: 2a17 36bc 8472 4ebd 8fe6 f43c 48fc 853d
000001e0: 685d ef3c 4228 e03c 6dde 05bd 62eb 4a3d
000001f0: b4fc 44bd e9d3 a13c 45b3 1dbd cc01 4bba
00000200: 8192 543d e480 0b3d 1065 76bd 737b 91bb
00000210: c3d8 8abb 5c04 89bd 2747 cfbd be14 12bd
00000220: 7744 bb3c 8b0e e23d d022 71bd eab2 953d
00000230: c6ae 8d3b 0ff3 123d 7790 b3bd d40d 70bd
00000240: 376b a43b d2ea c43c 7b7f 663c 7624 28bd
00000250: 55a8 54bc 020e 1dbe c28c d33c 23f3 05bd
00000260: c3e8 17bc 98b7 1ebc 85ec 083e da1f 1a3d
00000270: 73e1 9c3d 329f a7bd 2b97 6bbd 7dcd 963d
00000280: 023b f2bc f5b4 61bc 33dc 403d ed4b 14bc
00000290: 6ff6 91bb 11f1 833d 6557 1bbe 64f8 193d
000002a0: 5f04 bd3d f78e 8bbc f996 a1bd f44b 79bd
000002b0: 182e 643b c702 0dbd c98a 1a3d 8ebd 20bd
000002c0: 97de a63d b02d 1dbd 7bd4 9b3d 06bc 393d
000002d0: d145 583c b724 9a3c a453 3f3c 876a 783d
000002e0: d3f5 2a3d 8a05 2c3e 557c 043d d904 0b3d
000002f0: 4b3a d7bd 7b7e ccbd ac82 08be 8e1e 623d
00000300: 2403 5cbd f0fb febd 1a4f 5b3d 3122 8b3d
00000310: 1d93 35bb be49 1ebd dc3e 05be 4638 953c
00000320: c61c babd fce3 2fbd 8125 45be 3133 42bc
00000330: 7582 a33c c52f 9ebb 2c08 803b f3d2 3e3d
00000340: 8693 e03d 2df3 7b3d 30de efbc 2972 62bd
00000350: bbaa ba3c 30a5 0d3d b19d c03d 6067 c23c
00000360: 8d9d 15b9 dfb8 1f3e 4169 a33d 1632 3fbc
00000370: a353 5f3c 4e32 263d 01cf b23c 6624 9dbd
00000380: ec7c 0c3d 2d68 aabd 49c4 9abd d875 24bc
00000390: 54a9 823c 6a57 5a3d b629 bc3c 63ab 0ebd
000003a0: fed8 863d 6ec4 d03c 56ea 4abd 0daa bfbc
000003b0: 09dc a73d 1db0 513d 46a2 7c3d a0ec e33d
000003c0: 9233 b5bc f782 403d 1d89 92bc 53b4 7d3d
000003d0: 154c 653d b04d a9bd 3f40 84bd f737 29bd
000003e0: 774e d0bc 93d1 bbbb 6445 c7bc 4115 4e3c
000003f0: eab3 e1bb 0971 243e 38fa 68bd 2e9d f5b9

network_body._body_endoder.seq_layers.4.bias f4 [256]
-0.013874272 -0.008441468 0.008116652 0.013979109 0.013519075 -0.0017849028 -0.016022783 -0.009265777
0.008690783 -0.012006246 0.0013183674 -0.013739546 0.002001949 -0.003658264 -0.00047420265 -0.008129705
-0.007987611 -0.008171718 -0.005485632 0.01150297 -0.011281267 0.00057129236 -0.0063031027 -0.008554227
-0.010549489 -0.0034713512 -0.005207081 -0.007730957 -0.0078615965 -0.010010051 0.00057976606 0.010444827
-0.008463512 0.0030025654 -0.016038619 -0.0018428728 -0.01158845 -0.006087071 -0.0053872135 -0.008406802
-0.00036411366 0.0019837567 -0.009119432 0.018355602 -0.003072264 0.0021799617 0.0032656495 0.00087347743
0.0033035402 -0.00292935 0.0059193266 0.01248133 -0.01192755 0.0072718295 0.0014041972 -0.0025273636
0.0038308925 -0.008289597 0.008244581 -0.0035737953 -0.007488441 -0.008793041 -0.000885715 0.0105928155
-0.0044036587 -0.011722471 -0.0084319515 0.0061216303 -0.014849022 0.011083338 -0.010725604 0.007298198
-0.01151938 -0.015821509 -0.011873341 0.008051484 0.0033272868 0.010385539 0.011038636 0.012248084
0.0028660744 -0.0070845084 -0.0011669913 -0.00082969933 0.0031121986 -0.012362405 -0.010918453 -0.0007749864
0.0089556435 -0.00433249 -0.0026280913 0.0015512527 0.008476768 -0.0043639955 -0.014529164 -0.015434754
0.00090188225 -0.012536092 0.0031862857 -0.015534031 -0.00073378877 -0.013041832 -0.010427603 -0.011905647
-0.0015669118 -0.00735282 0.009486867 -0.009412518 -0.016592482 -0.015251144 0.001370556 0.007317322
-0.012431045 -0.010599108 -0.0073067523 0.0041906494 0.015321843 -0.006693721 -0.0052400827 -0.004436601
-0.008973659 -0.011106491 0.008907188 0.013200746 -0.00025882266 0.006169849 -0.017501088 -0.012472949
-0.011023507 -0.007252708 0.0009803093 -0.0071950927 0.004423964 -0.0020847209 -0.005736722 -0.013918795
0.0017988924 -0.019727081 0.00018771473 0.012675561 0.0015835477 -0.0064018965 -0.008251805 -0.009811372
0.0025669595 0.00047975272 -0.003294669 -0.005414805 0.006758708 0.0035204855 -0.007160225 -0.003480308
-0.003811524 -0.007647742 0.011790675 0.009203629 0.003197502 -0.010045045 0.003184014 -0.013825544
-0.009633584 0.012626649 0.005306266 0.0019140918 0.0022245566 -0.008225824 0.0012851645 -0.0032178254
0.0013159725 0.014262441 -0.012111107 -0.015871642 -0.0031636881 -0.00047000783 0.0026432588 0.0045620683
-0.015591881 -0.004127757 -0.008331552 -0.0071467888 -0.012788606 0.0061092707 -0.011248724 0.008995271
-0.0114571145 0.004425665 0.004332595 -0.009239942 -0.009494748 -0.0009997562 -0.008702781 -0.010939948
-0.009569599 0.0031140477 0.008523838 -0.008674217 -0.0048569352 -0.0006937536 0.014929423 -0.010113439
0.013099958 -0.0066603846 -0.0028348053 -0.0011992 -0.0006319151 0.013605105 0.009617368 -0.00323942
-3.274912e-05 -0.007633649 -0.0035860941 -0.0041727903 -0.012581619 0.014054717 0.004090212 0.0050712386
-0.002606149 -0.00995762 0.008817329 0.017585054 0.0022741116 -0.013042449 -0.010181053 0.0034274356
0.00021569314 0.004500351 0.0063183154 0.006374768 0.011651309 -0.0020645307 -0.005314941 -0.014291458
-0.0026644228 -0.010274003 0.004550918 0.0033441768 -0.0052548395 -0.007812203 -5.93952e-05 -0.00135417
-0.007860174 0.002666399 0.005857864 -0.010383009 -0.012448183 0.0007037347 0.015543661 0.008181446
0.0055312747 0.0043015 -0.0036810266 -0.001855442 0.0002939325 -0.012913641 0.009311924 -0.008199873
00000000: ea50 63bc 154e 0abc b5fb 043c a208 653c
00000010: 1c7f 5d3c 66f3 e9ba 3642 83bc 7ccf 17bc
00000020: c963 0e3c d8b5 44bc 12cd ac3a d51b 61bc
00000030: 2133 033b 7cbf 6fbb 679e f8b9 7432 05bc
00000040: 78de 02bc abe2 05bc d1c0 b3bb f476 3c3c
00000050: 10d5 38bc c8c2 153a 428a cebb 0727 0cbc
00000060: c4d7 2cbc 9c7f 63bb 29a0 aabb f853 fdbb
00000070: edcd 00bc 3201 24bc 71fb 173a c820 2b3c
00000080: 8baa 0abc b0c6 443b 6c63 83bc 8d8c f1ba
00000090: 7bdd 3dbc 0d76 c7bb 3987 b0bb afbc 09bc
000000a0: 82e6 beb9 ea01 023b ac69 15bc 7d5e 963c
000000b0: 0958 49bb b0dd 0e3b 8204 563b 14fa 643a
000000c0: 3580 583b 56fa 3fbb e9f6 c13b 7e7e 4c3c
000000d0: c56b 43bc 8748 ee3b 0a0d b83a 20a2 25bb
000000e0: b60f 7b3b 17d1 07bc 4714 073c 5636 6abb
000000f0: 9961 f5bb b010 10bc 542f 68ba 7d8d 2d3c
00000100: 914c 90bb 9b0f 40bc 2b26 0abc f597 c83b
00000110: 5049 73bc e496 353c 72ba 2fbc b925 ef3b
00000120: c8bb 3cbc 1c9c 81bc 6788 42bc 5fea 033c
00000130: 9c0e 5a3b 1c28 2a3c 65db 343c 30ac 483c
00000140: c0d4 3b3b 2a25 e8bb bbf5 98ba 2e80 59ba
00000150: 07f6 4b3b af8b 4abc 50e3 32bc 7528 4bba
00000160: b1ba 123c 8ff7 8dbb 0e3c 2cbb 6753 cb3a
00000170: 24e2 0a3c d9ff 8ebb bb0b 6ebc 0de2 7cbc
00000180: 4b6c 6c3a 2e64 4dbc 01d1 503b 7382 7ebc
00000190: bb5b 40ba 68ad 55bc 89d8 2abc e70f 43bc
000001a0: d660 cdba edef f0bb ce6e 1b3c f636 1abc
000001b0: f5ec 87bc efdf 79bc 3aa4 b33a 25c6 ef3b
000001c0: 95ab 4bbc e2a7 2dbc 7b6d efbb b751 893b
000001d0: 7808 7b3c 0057 dbbb 00b5 abbb e860 91bb
000001e0: 4106 13bc 00f8 35bc 74ef 113c f147 583c
000001f0: 97b2 87b9 722c ca3b 715e 8fbc 575b 4cbc
00000200: f19b 34bc 20a8 edbb b97d 803a d0c4 ebbb
00000210: e6f6 903b d09f 08bb 1dfb bbbb a80b 64bc
00000220: d0c8 eb3a b09a a1bc 4ad5 4439 28ad 4f3c
00000230: 0b8f cf3a 00c7 d1bb 9432 07bc e0bf 20bc
00000240: 6f3a 283b 5287 fb39 60eb 57bb ad6e b1bb
00000250: 2778 dd3b f2b7 663b 52a0 eabb e115 64bb
00000260: c3ca 79bb e999 fabb ad2d 413c d1ca 163c
00000270: 2f8d 513b f993 24bc e4aa 503b 8984 62bc
00000280: 2ed6 1dbc 01e0 4e3c 2fe0 ad3b 43e2 fa3a
00000290: dec9 113b 9bc5 06bc f772 a83a 27e2 52bb
000002a0: b67c ac3a 03ad 693c aa6d 46bc 3f05 82bc
000002b0: e155 4fbb 626b f6b9 863a 2d3b 677d 953b
000002c0: 1775 7fbc 2342 87bb 1081 08bc 9c2f eabb
000002d0: 4d87 51bc 4730 c83b 914c 38bc e760 133c
000002e0: 9fb6 3bbc 2b05 913b 71f8 8d3b 2063 17bc
000002f0: dc8f 1bbc 400a 83ba 1c96 0ebc 783d 33bc
00000300: cfc9 1cbc 0d15 4c3b 91a7 0b3c 4e1e 0ebc
00000310: ed26 9fbb 04dd 35ba 8a9a 743c d6b2 25bc
00000320: 35a1 563c 5b3f dabb 24c8 39bb 7a2e 9dba
00000330: 1ba7 25ba f2e7 5e3c 2a92 1d3c 734c 54bb
00000340: 1a5c 09b8 b023 fabb ad04 6bbb e7bb 88bb
00000350: 2323 4ebc c145 663c 2f07 863b a22c a63b
00000360: edcb 2abb 4925 23bc 8f76 103c 880e 903c
00000370: 4309 153b ffaf 55bc 6ece 26bc d49e 603b
00000380: b02b 6239 ae77 933b df09 cf3b 6ee3 d03b
00000390: 22e5 3e3c 144d 07bb f528 aebb b826 6abc
000003a0: 999d 2ebb 4b54 28bc de1f 953b fa29 5b3b
000003b0: ca30 acbb 82fd ffbb 1c1f 79b8 687e b1ba
000003c0: f6c7 00bc c1be 2e3b 53f3 bf3b 7f1d 2abc
000003d0: 77f3 4bbc d67a 383a d7aa 7e3c 790b 063c
000003e0: b23f b53b 99f3 8c3b 613d 71bb 4d32 f3ba
000003f0: f41a 9a39 bc93 53bc 0a91 183c c358 06bc

action_model._continuous_distribution.log_sigma f4 [1, 6]
0.0058940714 0.008142824 0.017855508 0.019254355 0.013488998 0.017712928
00000000: 0e23 c13b 7b69 053c b745 923c 4fbb 9d3c
00000010: f500 5d3c b41a 913c

action_model._continuous_distribution.mu.weight f4 [6, 256]
0.0067242007 -0.007535115 0.029927142 -0.008216495 -0.027758978 0.016205326 -0.024596611 -0.008922354
0.0079443855 0.007564091 0.03208693 -0.018392345 -0.009599851 -0.0028067073 0.014061259 0.00013207222
-0.0052985996 0.0061052497 -0.010808829 0.0039146696 0.011157926 -0.0046197185 -7.662964e-05 -0.027504548
0.013308422 -0.018159956 0.013584063 -0.010950165 0.002913765 0.011200679 0.011325748 0.01681641
-0.01466639 0.000611872 -0.016750684 0.02876196 0.007045882 0.0008046008 -0.033068515 0.00075251446
0.016609116 0.005256708 -0.020347895 0.0007095469 -0.02565878 0.0035702821 -0.033576377 0.008096826
0.005273207 0.0020624038 0.01699154 0.0038465126 0.003971162 0.021565355 -0.0029474753 -0.0032000733
0.010192438 0.0007328943 -0.014363315 0.0046699564 0.005612559 -0.0018329365 -0.023213662 -0.009120777
0.020195825 -0.005987265 0.008790197 0.025906608 -0.02555057 -0.0016383881 -0.0011549885 0.002058732
0.016949132 -0.015986232 -0.0035435655 -0.011846862 0.015519398 0.017283605 -0.009438084 0.023209605
-0.00069836783 -0.0039039918 0.006999894 -0.0027696935 -0.008795924 -0.010911326 -0.020106846 0.011693878
-0.008793651 -0.014341304 -0.019016637 -0.011504093 0.014630517 -0.011496025 -0.0057643675 0.008214589
-0.0061300625 -0.014634036 -0.018593999 -0.011732059 0.0069781067 0.003307288 -0.0034059468 -0.0028969876
0.0007981027 0.0019276713 -0.015295445 -0.016043937 -0.0014769299 -0.010525915 0.0021566353 0.0039034626
-0.0041241846 0.015026583 -0.009153621 -0.017619742 0.007306201 -0.0035810943 -0.023207776 0.012643754
-0.02066041 0.008350687 -0.0067014317 0.009256807 0.0009577243 0.03179523 -0.012586794 -0.02819045
-0.012426961 0.008935423 0.0022566428 0.0028604562 -0.007414156 0.01185508 -0.0024088398 -0.0048712897
-0.005643988 0.003166071 -0.014084557 0.020452691 0.0034156945 -0.016384425 0.0010786267 -0.0148806805
0.008537432 -0.0056540165 -0.0074774097 -0.0034514007 0.008929556 0.010575807 0.013268206 0.0035196461
-0.0013814169 0.007014746 0.011931728 0.012100854 -0.00055467745 0.0037729267 -0.006118856 -0.0024948537
-0.009235362 -0.013129792 -0.013408074 0.005006612 -0.018868528 -0.009309334 0.018847825 1.9418456e-05
-0.0059946226 0.011804061 -0.038576856 -0.02234896 0.022871267 0.005931898 -0.0011110541 -0.011854969
-0.015783578 0.005582708 -0.013637839 -0.011081262 -0.0086366385 0.010697293 -0.0029873436 -0.026719926
0.0022531087 -0.008101427 -0.00028152036 0.006311601 0.023518045 0.019433605 0.01631635 -0.010139319
-0.0135312155 -0.006119742 -0.009725638 -0.00768461 -0.016847346 0.0038505099 0.002651768 -0.013259558
0.0077070477 0.009340606 0.0007637972 0.0025887259 0.0031904737 0.005123624 0.017474161 -0.0050599896
-0.0045717047 0.0127201425 -0.0032788923 0.016442198 0.00537086 0.0012801462 -0.021968033 0.0037767964
0.0067456565 0.0008079975 -0.020394461 0.03483371 -0.011427164 0.003989352 -0.0006614032 0.0013993621
-0.010465978 -0.017780386 0.022546835 0.0052795648 -0.0022920554 0.021614546 -0.013602577 -0.007938953
0.00022749444 0.003593344 -0.012667273 0.0117847985 -0.021056421 -0.004789181 -0.0135215 0.020651745
-0.00042979163 -0.011347808 -0.0135729015 0.006474486 0.01640271 -0.003553549 0.008782887 0.006426848
0.004313216 0.0045583406 -0.008997916 0.01118161 0.02471375 -0.006649848 -0.026678957 -0.008409627
00000000: af56 dc3b 20e9 f6bb c429 f53c 7a9e 06bc
00000010: cc66 e3bc 08c1 843c d57e c9bc 112f 12bc
00000020: 2b29 023c 32dc f73b 966d 033d 8bab 96bc
00000030: b248 1dbc bcf0 37bb 3261 663c de7c 0a39
00000040: e09f adbb 8c0e c83b 8417 31bc a146 803b
00000050: bccf 363c 0261 97bb 3ab4 a0b8 3851 e1bc
00000060: 910b 5a3c 30c4 94bc b18f 5e3c 5268 33bc
00000070: ddf4 3e3b 0d83 373c a18f 393c 91c2 893c
00000080: 4c4b 70bc 0966 203a bb38 89bc 349e eb3c
00000090: 24e1 e63b d8eb 523a da72 07bd 6444 453a
000000a0: d70f 883c 7640 ac3b a1b0 a6bc e300 3a3a
000000b0: 5d32 d2bc 65fb 693b 6287 09bd 8da8 043c
000000c0: deca ac3b 6529 073b d831 8b3c c615 7c3b
000000d0: 8520 823b d4a9 b03c 6e2a 41bb 52b8 51bb
000000e0: 2ffe 263c b41f 403a 1c54 6bbc 6f06 993b
000000f0: 8fe9 b73b 253f f0ba 942a bebc 506f 15bc
00000100: b771 a53c d230 c4bb c204 103c 183a d43c
00000110: 6e4f d1bc 2fbf d6ba fc62 97ba cbeb 063b
00000120: e8d8 8a3c 8ff5 82bc 2a3b 68bb 5719 42bc
00000130: 1345 7e3c 5996 8d3c 32a2 1abc 1222 be3c
00000140: ac12 37ba 1dda 7fbb 5e5f e53b bf83 35bb
00000150: c71c 10bc 6bc5 32bc 1db7 a4bc ae97 3f3c
00000160: 3f13 10bc caf7 6abc c7c8 9bbc aa7b 3cbc
00000170: d6b4 6f3c d359 3cbc 05e3 bcbb 7c96 063c
00000180: b1de c8bb 99c3 6fbc 7152 98bc d237 40bc
00000190: 9aa8 e43b 16bf 583b 4e36 5fbb 63db 3dbb
000001a0: c437 513a eaa9 fc3a bf99 7abc 936e 83bc
000001b0: 8b95 c1ba e374 2cbc 5656 0d3b 3cd1 7f3b
000001c0: 2b24 87bb 0f32 763c 12f9 15bc 4757 90bc
000001d0: db68 ef3b cbb0 6abb 3c1e bebc bf27 4f3c
000001e0: 0540 a9bc 52d1 083c af97 dbbb dda9 173c
000001f0: ca0f 7b3a b73b 023d d738 4ebc a9ef e6bc
00000200: 749a 4bbc e165 123c 2fe4 133b 7e76 3b3b
00000210: 73f2 f2bb cf3b 423c a0dd 1dbb 579f 9fbb
00000220: 34f1 b8bb db7d 4f3b eac2 66bc 678c a73c
00000230: d8d9 5f3b a138 86bc b560 8d3a 19ce 73bc
00000240: 96e0 0b3c 5445 b9bb 0f05 f5bb e530 62bb
00000250: 464d 123c 2646 2d3c e462 593c dda9 663b
00000260: a910 b5ba f4db e53b 4b7d 433c a942 463c
00000270: c667 11ba 3543 773b af80 c8bb b380 23bb
00000280: ea4f 17bc 571e 57bc 8aad 5bbc 810e a43b
00000290: 2c92 9abc 2d86 18bc c166 9a3c d1e4 a237
000002a0: 8a6e c4bb d265 413c c402 1ebd 2b15 b7bc
000002b0: 865c bb3c 5e60 c23b caa0 91ba 583b 42bc
000002c0: 904c 81bc 26ef b63b 3e71 5fbc 2e8e 35bc
000002d0: b080 0dbc b343 2f3c 4fc7 43bb bfe3 dabc
000002e0: e4a8 133b d9bb 04bc 0699 93b9 8cd1 ce3b
000002f0: eaa8 c03c 3933 9f3c dea9 853c 631f 26bc
00000300: 08b2 5dbc 1e88 c8bb 4858 1fbc 2ecf fbbb
00000310: 7203 8abc d658 7c3b 49c9 2d3b 9e3e 59bc
00000320: 678b fc3b 5709 193c 9039 483a 9da7 293b
00000330: 4417 513b 13e4 a73b f925 8f3c 45ce a5bb
00000340: 3dce 95bb 2568 503c afe2 56bb cab1 863c
00000350: 0afe af3b 94ca a73a 4ef6 b3bc 2184 773b
00000360: ab0a dd3b cbcf 533a 4912 a7bc cbad 0e3d
00000370: 0039 3bbc 1cb9 823b 0462 2dba cd6a b73a
00000380: 7e79 2bbc 2ca8 91bc 24b4 b83c 3300 ad3b
00000390: 4f36 16bb fd10 b13c 58dd 5ebc 6212 02bc
000003a0: 938b 6e39 4f7e 6b3b 658a 4fbc 0715 413c
000003b0: 847e acbc 90ee 9cbb 4889 5dbc d92d a93c
000003c0: a855 e1b9 28ec 39bc e060 5ebc ed27 d43b
000003d0: fa5e 863c a9e2 68bb 19e6 0f3c 4f98 d23b
000003e0: e155 8d3b 225e 953b ff6b 13bc 1233 373c
000003f0: 7e74 ca3c f8e6 d9bb d48d dabc 88c8 09bc

action_model._continuous_distribution.mu.bias f4 [6]
0.003077802 0.006624747 -0.008743079 -0.0071959244 0.01888631 -0.00031476308
00000000: f3b4 493b 6814 d93b 223f 0fbc cacb ebbb
00000010: 76b7 9a3c c906 a5b9
