results/NearSingularity03/NearSingularity/NearSingularity-1152.onnx (onnx, 621844 bytes, 7 tensors)

network_body._body_endoder.seq_layers.0.weight f4 [256, 85]
000000 84 39 1a 3e 45 b3 74 3d 56 78 a9 3c 13 74 df bb
       0.15061003 0.059741277 0.020687263 -0.006819257
000010 b0 c3 cc bc b8 6f 72 3d 5a 7f e5 3d fb 3a a6 bc
       -0.024995655 0.059188575 0.11205931 -0.020291796
000020 43 b3 2b be 90 0a 31 3d 67 64 63 bd ae 39 46 bb
       -0.16767602 0.043222964 -0.055515673 -0.0030246782
000030 16 6d 9e 3d d4 fb 5c 3d 4e c0 85 be 31 29 2c 3d
       0.0773565 0.0539511 -0.2612328 0.04203147
000040 a0 31 9e 3c 99 bd 11 3e 1c 71 04 be 30 d7 57 be
       0.019310772 0.14232482 -0.12933773 -0.21078181
000050 01 2f 0d bd bc f2 0a 3c 9c 82 bb bd 8a ba 55 bd
       -0.034468655 0.008480724 -0.09155771 -0.05217985
000060 9d 60 b8 bc b6 20 81 bd 30 98 59 3c ea 9d 0c 3e
       -0.022507006 -0.06305067 0.013280913 0.13732114
000070 8b a2 90 be f0 12 ee 3c 7a 29 09 3e 02 87 16 3e
       -0.2824901 0.029061764 0.13394728 0.14699939
000080 c4 c3 b2 3d e3 ee 0f 3e 85 51 71 bd 71 a6 29 3c
       0.087287456 0.14055972 -0.058915634 0.010354624
000090 e6 b0 77 3e ef d8 a6 bc 54 af 25 3b 02 86 08 3d
       0.24188575 -0.020367114 0.0025281506 0.033330925
0000a0 df 24 34 bc 73 7d 5f bd 4d 04 a5 3d 77 69 68 bd
       -0.010995119 -0.054562997 0.08057461 -0.056741204
0000b0 7d 45 c6 bd 34 80 90 be bb 1e 42 3e e6 71 f8 bd
       -0.096812226 -0.2822281 0.18957035 -0.121310994
0000c0 5f e7 24 bd 40 c0 90 3d be fd 07 3e 4f 08 62 bc
       -0.040259715 0.07067919 0.13280389 -0.013795926
0000d0 0c 1e 9e bb 27 45 82 bd 1f e3 18 3e 3f 6a 52 3e
       -0.004825359 -0.06360846 0.1493039 0.20548342
0000e0 85 1c dd 3d 3d 03 0a 3e fb 9c 1d 3c 3b 45 81 3d
       0.10796455 0.13477798 0.009619947 0.06312033
0000f0 4f 44 04 3e cf e2 69 bd b9 7c 1c 3e 9f 1c ab 3c
       0.12916683 -0.057101067 0.15281953 0.020887671
000100 69 66 0b 3e 94 f6 49 bd 19 fa 5e bd 9e 2b 22 3b
       0.13613285 -0.04930742 -0.05443773 0.0024745236
000110 ce 36 3a 3e 5e 28 fb bd bc 27 94 3c af 6f d0 3c
       0.18184969 -0.12263559 0.018085353 0.02544388
000120 9f e3 a1 bd 68 78 ab 3c 55 a1 76 3c d6 4d 07 3e
       -0.079047434 0.020931438 0.015053113 0.13213286
000130 ae 6c 50 be b7 76 ad 3d 72 37 89 bd f9 f5 b7 3d
       -0.20353958 0.08469909 -0.067000285 0.089824624
000140 ce cb a2 3d 55 d5 9b 3d 11 3a 44 be d9 18 63 3d
       0.07949029 0.07609049 -0.19162776 0.05544362
000150 12 74 5e bb 78 f0 d5 bc 91 de 96 3d fa c6 4e be
       -0.0033943695 -0.026115641 0.0736667 -0.20193091
000160 38 e6 30 3c 83 09 56 be a9 1f a0 bc ef 9f c0 bc
       0.010797076 -0.20902066 -0.019546347 -0.023513762
000170 18 4e 3b 3d 58 0c 14 be f1 a2 91 bc 0e 5a 30 be
       0.045728773 -0.14457834 -0.017777892 -0.17221853
000180 d7 5d 0b bd f4 bc 1e 3e 3a 1f 80 bd 62 5c cd bc
       -0.03402504 0.15501767 -0.06255956 -0.025068466
000190 61 98 8f 3e 9a 23 99 bc 29 96 ee 3d 39 e7 c7 bd
       0.28045943 -0.018693734 0.116497345 -0.09760899
0001a0 75 17 a4 bc 24 79 62 bd 6e 3c c6 3b 96 ab 87 3e
       -0.020030716 -0.05529131 0.0060496842 0.26498097
0001b0 e2 79 e8 3d 4d 03 72 3e b4 0f 3c bd 5f 0f ae bc
       0.11351372 0.23634072 -0.045913413 -0.021247564
0001c0 ce 87 a7 3d 24 20 5a 3c 98 a8 72 3c 8a 15 c1 bd
       0.081801996 0.013313327 0.014810704 -0.094279364
0001d0 09 e6 7c 3c 34 50 06 3e 98 0f 15 3d a0 5e 8d 3d
       0.015435704 0.13116533 0.036391824 0.06902814
0001e0 85 7e 0b b8 2d 0d 8b 3d 80 4d 79 3d a0 5a bc 3c
       -3.3258013e-05 0.067896225 0.060864925 0.022992432
0001f0 b8 61 5a 3d 5b 29 3d 3d c7 eb e8 bc 80 c5 13 3d
       0.053315848 0.046182018 -0.02843274 0.036077023
000200 7c 5e 98 3c 4b 4e a8 3c b3 6f 91 3d 1c 7a 11 be
       0.018599741 0.020545145 0.07101383 -0.14206737
000210 ca 12 0a bc 7d 82 a9 3d e2 52 c2 3d 08 a3 68 3d
       -0.008427331 0.08276842 0.09488465 0.056796104
000220 c0 19 02 be fa 87 69 bd 40 e0 df 3c f1 b9 e7 bc
       -0.12705135 -0.057014443 0.02732861 -0.028286906
000230 c1 30 d7 3d d4 8f 9b bd 9f 0a 15 3e 96 8c 01 bd
       0.10507346 -0.075957924 0.14554833 -0.031628214
000240 2e 17 99 bc ad c2 65 3d 3b bb 0b be a2 93 93 3d
       -0.01868781 0.05609386 -0.13645642 0.07205893
000250 2c fa 2b be e5 a0 0a bd 77 64 af bd a3 f6 45 bd
       -0.16794652 -0.033844847 -0.08564084 -0.048330914
000260 16 e3 98 ba 38 ed 83 3d af 86 f4 bd f5 25 a6 bc
       -0.0011664357 0.0644173 -0.11939751 -0.020281771
000270 7a e2 c7 bc 5f 3e a7 bc b0 30 cc bc d8 57 86 bd
       -0.024399985 -0.020415483 -0.02492556 -0.065597236
000280 23 d9 b5 3d 68 89 64 3d 96 b7 e4 bd 09 78 a0 bd
       0.08879306 0.055795103 -0.11167829 -0.07835395
000290 50 b1 86 3d d4 6c a2 3d d9 d2 bc 3c 5e e2 c5 3d
       0.065767884 0.079309136 0.023049759 0.09662317
0002a0 fe e5 14 3e 33 63 d6 3d 2a 96 87 3d 4b 18 9e 3d
       0.1454086 0.104681395 0.066204384 0.07719477
0002b0 9a 05 11 3d 21 3e 3e bd 87 75 62 3e 3e a0 a2 bc
       0.035405733 -0.04644597 0.22115146 -0.0198518
0002c0 33 b9 9a 3a b8 a2 52 be c4 7b fe bd 9f 37 0a be
       0.0011804461 -0.20569885 -0.1242595 -0.1349778
0002d0 10 c1 82 3e 0d f5 c5 3d ec ef 72 3d 4b 59 00 3d
       0.2553792 0.0966588 0.05931084 0.031335156
0002e0 aa 83 f9 3b 3d 60 07 be 5f 8c 29 3d d7 e2 d9 bd
       0.0076145725 -0.13220306 0.041393634 -0.106389694
0002f0 cc 0d db 3c 59 0a 39 bd 29 9c c3 ba 2b fa 57 bc
       0.026739977 -0.045175884 -0.0014923859 -0.013182203
000300 4c 70 c1 3d d9 a2 00 3e df 5d 01 be d5 b7 0a bd
       0.09445247 0.12562121 -0.12633465 -0.033866722
000310 60 05 1a 3a 27 29 b4 3d 7b 02 b5 bb 49 8e b2 3c
       0.0005875435 0.08796912 -0.0055239773 0.021796362
000320 44 1e 8d bd 59 d5 f7 bd 0c 10 3f be c2 b3 1f be
       -0.06890538 -0.1210124 -0.18658465 -0.15595916
000330 03 47 84 3d c2 a2 ba 3b 14 31 17 bd 2b 55 fc 3d
       0.06458857 0.005695672 -0.03691204 0.12320932
000340 16 4b 33 bd be 5a 48 3d a2 6d 51 bd 84 e5 5f 3d
       -0.04377278 0.048914663 -0.051129945 0.054662243
000350 d9 61 f7 3d 2f 1d 0f be ae f6 c9 3d 37 cf fe bd
       0.1207921 -0.13975976 0.098615035 -0.12441867
000360 94 a8 81 be 88 89 90 be 6e c2 e5 3d 0c 0b dd 3d
       -0.25323927 -0.28229928 0.11218725 0.10793123
000370 2b 4b a8 bd 3d 83 0e bb 29 67 9e 3d 53 e0 90 3a
       -0.08217462 -0.0021745705 0.0773452 0.0011053182
000380 64 56 b0 bc e4 9b 03 3d 08 ef 05 be 40 22 37 bd
       -0.02152557 0.03213109 -0.13079464 -0.044710398
000390 f7 11 96 bd 1a b1 13 be f2 09 44 3e c9 12 47 ba
       -0.07327645 -0.14423028 0.19144419 -0.0007594047
0003a0 35 be 3a be 80 85 c8 bd a0 d7 a4 3d 8a 76 fd bd
       -0.1823662 -0.09791088 0.0804894 -0.12376125
0003b0 49 1d 34 3d 6e fc a5 bc a3 a7 c2 3d 98 56 20 be
       0.04397324 -0.02026197 0.095046304 -0.15658033
0003c0 bb 3b 4e 3d ea a9 64 3d 8a 25 ac bc 32 70 c6 3d
       0.050349932 0.055826105 -0.021013994 0.09689368
0003d0 1e e1 b6 3d 7e 13 a1 3d 1f 5e 5e 3e d3 41 45 3e
       0.089296564 0.07865046 0.21715592 0.19263391
0003e0 06 7b 64 3d ec 1a 10 3d a7 c4 e3 3c 4d ac 54 3e
       0.055781387 0.035181925 0.027803732 0.20768853
0003f0 84 c2 6c 3d 7c 1d 14 3e f5 7b 80 bb 58 d8 2d be
       0.057802692 0.14464372 -0.003921027 -0.1697706

network_body._body_endoder.seq_layers.0.bias f4 [256]
000000 00 00 00 00 00 00 00 00 00 00 00 00 00 00 00 00
       0.0 0.0 0.0 0.0
000010 00 00 00 00 00 00 00 00 00 00 00 00 00 00 00 00
       0.0 0.0 0.0 0.0
000020 00 00 00 00 00 00 00 00 00 00 00 00 00 00 00 00
       0.0 0.0 0.0 0.0
000030 00 00 00 00 00 00 00 00 00 00 00 00 00 00 00 00
       0.0 0.0 0.0 0.0
000040 00 00 00 00 00 00 00 00 00 00 00 00 00 00 00 00
       0.0 0.0 0.0 0.0
000050 00 00 00 00 00 00 00 00 00 00 00 00 00 00 00 00
       0.0 0.0 0.0 0.0
000060 00 00 00 00 00 00 00 00 00 00 00 00 00 00 00 00
       0.0 0.0 0.0 0.0
000070 00 00 00 00 00 00 00 00 00 00 00 00 00 00 00 00
       0.0 0.0 0.0 0.0
000080 00 00 00 00 00 00 00 00 00 00 00 00 00 00 00 00
       0.0 0.0 0.0 0.0
000090 00 00 00 00 00 00 00 00 00 00 00 00 00 00 00 00
       0.0 0.0 0.0 0.0
0000a0 00 00 00 00 00 00 00 00 00 00 00 00 00 00 00 00
       0.0 0.0 0.0 0.0
0000b0 00 00 00 00 00 00 00 00 00 00 00 00 00 00 00 00
       0.0 0.0 0.0 0.0
0000c0 00 00 00 00 00 00 00 00 00 00 00 00 00 00 00 00
       0.0 0.0 0.0 0.0
0000d0 00 00 00 00 00 00 00 00 00 00 00 00 00 00 00 00
       0.0 0.0 0.0 0.0
0000e0 00 00 00 00 00 00 00 00 00 00 00 00 00 00 00 00
       0.0 0.0 0.0 0.0
0000f0 00 00 00 00 00 00 00 00 00 00 00 00 00 00 00 00
       0.0 0.0 0.0 0.0
000100 00 00 00 00 00 00 00 00 00 00 00 00 00 00 00 00
       0.0 0.0 0.0 0.0
000110 00 00 00 00 00 00 00 00 00 00 00 00 00 00 00 00
       0.0 0.0 0.0 0.0
000120 00 00 00 00 00 00 00 00 00 00 00 00 00 00 00 00
       0.0 0.0 0.0 0.0
000130 00 00 00 00 00 00 00 00 00 00 00 00 00 00 00 00
       0.0 0.0 0.0 0.0
000140 00 00 00 00 00 00 00 00 00 00 00 00 00 00 00 00
       0.0 0.0 0.0 0.0
000150 00 00 00 00 00 00 00 00 00 00 00 00 00 00 00 00
       0.0 0.0 0.0 0.0
000160 00 00 00 00 00 00 00 00 00 00 00 00 00 00 00 00
       0.0 0.0 0.0 0.0
000170 00 00 00 00 00 00 00 00 00 00 00 00 00 00 00 00
       0.0 0.0 0.0 0.0
000180 00 00 00 00 00 00 00 00 00 00 00 00 00 00 00 00
       0.0 0.0 0.0 0.0
000190 00 00 00 00 00 00 00 00 00 00 00 00 00 00 00 00
       0.0 0.0 0.0 0.0
0001a0 00 00 00 00 00 00 00 00 00 00 00 00 00 00 00 00
       0.0 0.0 0.0 0.0
0001b0 00 00 00 00 00 00 00 00 00 00 00 00 00 00 00 00
       0.0 0.0 0.0 0.0
0001c0 00 00 00 00 00 00 00 00 00 00 00 00 00 00 00 00
       0.0 0.0 0.0 0.0
0001d0 00 00 00 00 00 00 00 00 00 00 00 00 00 00 00 00
       0.0 0.0 0.0 0.0
0001e0 00 00 00 00 00 00 00 00 00 00 00 00 00 00 00 00
       0.0 0.0 0.0 0.0
0001f0 00 00 00 00 00 00 00 00 00 00 00 00 00 00 00 00
       0.0 0.0 0.0 0.0
000200 00 00 00 00 00 00 00 00 00 00 00 00 00 00 00 00
       0.0 0.0 0.0 0.0
000210 00 00 00 00 00 00 00 00 00 00 00 00 00 00 00 00
       0.0 0.0 0.0 0.0
000220 00 00 00 00 00 00 00 00 00 00 00 00 00 00 00 00
       0.0 0.0 0.0 0.0
000230 00 00 00 00 00 00 00 00 00 00 00 00 00 00 00 00
       0.0 0.0 0.0 0.0
000240 00 00 00 00 00 00 00 00 00 00 00 00 00 00 00 00
       0.0 0.0 0.0 0.0
000250 00 00 00 00 00 00 00 00 00 00 00 00 00 00 00 00
       0.0 0.0 0.0 0.0
000260 00 00 00 00 00 00 00 00 00 00 00 00 00 00 00 00
       0.0 0.0 0.0 0.0
000270 00 00 00 00 00 00 00 00 00 00 00 00 00 00 00 00
       0.0 0.0 0.0 0.0
000280 00 00 00 00 00 00 00 00 00 00 00 00 00 00 00 00
       0.0 0.0 0.0 0.0
000290 00 00 00 00 00 00 00 00 00 00 00 00 00 00 00 00
       0.0 0.0 0.0 0.0
0002a0 00 00 00 00 00 00 00 00 00 00 00 00 00 00 00 00
       0.0 0.0 0.0 0.0
0002b0 00 00 00 00 00 00 00 00 00 00 00 00 00 00 00 00
       0.0 0.0 0.0 0.0
0002c0 00 00 00 00 00 00 00 00 00 00 00 00 00 00 00 00
       0.0 0.0 0.0 0.0
0002d0 00 00 00 00 00 00 00 00 00 00 00 00 00 00 00 00
       0.0 0.0 0.0 0.0
0002e0 00 00 00 00 00 00 00 00 00 00 00 00 00 00 00 00
       0.0 0.0 0.0 0.0
0002f0 00 00 00 00 00 00 00 00 00 00 00 00 00 00 00 00
       0.0 0.0 0.0 0.0
000300 00 00 00 00 00 00 00 00 00 00 00 00 00 00 00 00
       0.0 0.0 0.0 0.0
000310 00 00 00 00 00 00 00 00 00 00 00 00 00 00 00 00
       0.0 0.0 0.0 0.0
000320 00 00 00 00 00 00 00 00 00 00 00 00 00 00 00 00
       0.0 0.0 0.0 0.0
000330 00 00 00 00 00 00 00 00 00 00 00 00 00 00 00 00
       0.0 0.0 0.0 0.0
000340 00 00 00 00 00 00 00 00 00 00 00 00 00 00 00 00
       0.0 0.0 0.0 0.0
000350 00 00 00 00 00 00 00 00 00 00 00 00 00 00 00 00
       0.0 0.0 0.0 0.0
000360 00 00 00 00 00 00 00 00 00 00 00 00 00 00 00 00
       0.0 0.0 0.0 0.0
000370 00 00 00 00 00 00 00 00 00 00 00 00 00 00 00 00
       0.0 0.0 0.0 0.0
000380 00 00 00 00 00 00 00 00 00 00 00 00 00 00 00 00
       0.0 0.0 0.0 0.0
000390 00 00 00 00 00 00 00 00 00 00 00 00 00 00 00 00
       0.0 0.0 0.0 0.0
0003a0 00 00 00 00 00 00 00 00 00 00 00 00 00 00 00 00
       0.0 0.0 0.0 0.0
0003b0 00 00 00 00 00 00 00 00 00 00 00 00 00 00 00 00
       0.0 0.0 0.0 0.0
0003c0 00 00 00 00 00 00 00 00 00 00 00 00 00 00 00 00
       0.0 0.0 0.0 0.0
0003d0 00 00 00 00 00 00 00 00 00 00 00 00 00 00 00 00
       0.0 0.0 0.0 0.0
0003e0 00 00 00 00 00 00 00 00 00 00 00 00 00 00 00 00
       0.0 0.0 0.0 0.0
0003f0 00 00 00 00 00 00 00 00 00 00 00 00 00 00 00 00
       0.0 0.0 0.0 0.0

network_body._body_endoder.seq_layers.2.weight f4 [256, 256]
000000 df 03 83 bb c6 79 38 bd 43 bd 79 3c a9 c7 9a 3d
       -0.003998264 -0.045038007 0.015242877 0.075576134
000010 b2 1e f7 bc c0 d0 83 bd f2 85 cf 3c c9 0b 9a 3b
       -0.030166004 -0.064363 0.025332425 0.004701112
000020 b5 70 77 3d 32 aa 0c bd 73 58 15 be 58 f5 8e bd
       0.06041022 -0.034342 -0.14584522 -0.06980389
000030 11 15 80 3c eb 19 40 bd ed 8c fa bd 4a 59 42 3d
       0.015635045 -0.046899717 -0.12233911 0.047448434
000040 af e3 8d 3d 4c 37 a9 bd b1 1a fa bd 6e ab 5d 3d
       0.06928193 -0.082625 -0.12212122 0.054118566
000050 b8 93 60 3c ed b5 4a bc c0 61 a5 3c 99 b1 ef bc
       0.013707094 -0.012372476 0.020188212 -0.02925949
000060 35 36 33 3d 66 d9 dc bc 24 56 26 3d 5b cc 9e bd
       0.043752868 -0.026959132 0.040609494 -0.077538215
000070 98 e6 bd bd dc e0 7d bd ec 7a 8b ba 0c 5e 90 bd
       -0.09272498 -0.06198202 -0.0010641492 -0.07049188
000080 28 0a 0b 3e cc 36 93 bc ee 89 1b bd 6d 30 84 bd
       0.13578093 -0.017970465 -0.037973337 -0.06454549
000090 8f c9 73 3c 1a 94 97 3d 33 97 a5 bd 33 76 7a 3d
       0.014879598 0.07401295 -0.080854796 0.06114788
0000a0 a3 57 e3 3c 2f a9 b2 3d 1a 9d 14 bc b9 01 6f bd
       0.02775175 0.087236755 -0.009070659 -0.058351252
0000b0 6e 83 66 3d a4 12 83 3c 40 e3 17 bc 18 10 95 bc
       0.056277685 0.0160001 -0.009270489 -0.01819615
0000c0 99 77 7a 3b e6 99 1a bd 6e 21 14 3d 68 66 29 be
       0.0038218258 -0.037744425 0.036164694 -0.16542971
0000d0 e5 86 26 3d 45 25 a1 bc 8f 27 94 3b 37 7c 72 bd
       0.04065599 -0.019671092 0.0045213173 -0.05920049
0000e0 c1 e6 30 3d bf 13 3a 3c 3a 9c 2b 3d ab d3 13 bc
       0.043188814 0.011357247 0.041897036 -0.009022634
0000f0 34 86 2f 3d 64 0b 9c bd 14 e2 10 3b 7e 16 8f bd
       0.042852595 -0.0761936 0.002210741 -0.06986712
000100 6a 50 af 3d 8f ab 8d 3d 80 60 18 bc 5e 93 1c bd
       0.0856026 0.06917488 -0.009300351 -0.038226478
000110 a8 ed 9b bd 57 8e bf 3d 98 7f 3b 3e 66 18 43 bd
       -0.07613689 0.09353321 0.18310392 -0.04763069
000120 1e 03 39 3d 54 e4 20 3d 47 bb 66 bb a6 e2 d3 bd
       0.04516899 0.03928025 -0.003520684 -0.10345964
000130 6c d1 b7 3c 2e 9b 0e 3d 3f 18 12 3d 67 56 3a bd
       0.022438727 0.03481596 0.035667654 -0.045492556
000140 e2 d0 cd bc a9 e2 f5 bc 32 d6 e4 3d 10 ff c5 3d
       -0.025124017 -0.030015307 0.11173667 0.0966779
000150 b8 1e b7 3d 8f 6f b4 3c 9d 67 cb 3c 4a ab aa bb
       0.08941406 0.022025852 0.02482968 -0.0052084075
000160 79 9d 33 3c 42 5c 24 3d c8 ec 2a bd 7b a3 59 bd
       0.010962837 0.040127046 -0.04172972 -0.053134423
000170 08 03 9c bc 56 56 7c bc e8 f4 41 bd 58 62 83 bd
       -0.019044414 -0.0154014435 -0.0473527 -0.06415242
000180 77 01 cb 3b 09 1a 99 bc 17 de 3f 3d ef da 76 ba
       0.006195243 -0.018689172 0.04684266 -0.0009416779
000190 a9 2e 51 bd 0e 54 3c bd cf ed 8b 3c b0 8b 3a bd
       -0.05106989 -0.0459786 0.01708117 -0.045543373
0001a0 d9 a7 b2 bc c7 bc 87 bd 4d 82 b1 3a 78 66 5c bb
       -0.021808552 -0.06627803 0.0013542861 -0.0033630412
0001b0 f9 c0 44 3d ed ff 04 bc 0c 63 8d bd 10 05 82 bd
       0.048035596 -0.008117658 -0.06903657 -0.06348622
0001c0 98 10 a6 bc 7b 69 ac bd 01 a5 96 3d 0c 33 e1 bc
       -0.020271584 -0.08418556 0.07355691 -0.027490161
0001d0 a4 f0 a0 3c 6d ab b6 bb 49 31 c9 3d c2 fd 93 bb
       0.019645996 -0.0055746348 0.098238535 -0.0045163343
0001e0 8a 32 18 bd 94 f1 9b bd 20 04 c9 bc b8 8b 65 3d
       -0.037157573 -0.07614437 -0.0245381 0.05604145
0001f0 b5 46 2f bd 81 ab fb bc d7 fc 96 bd 7f ef af 3d
       -0.04279204 -0.030721428 -0.07372444 0.08590602
000200 9d 77 a3 bc c5 3e f0 bc c9 1f 07 3d c4 59 c2 3c
       -0.019954497 -0.029326806 0.032989297 0.023724444
000210 88 25 dc 3b 81 4b a0 bc e0 6c 42 bc 22 5e 48 3d
       0.0067183413 -0.019567253 -0.011866778 0.048917897
000220 00 47 04 bd 18 3c 8c bd e0 8a ac bd 06 c5 36 bd
       -0.032294273 -0.068473995 -0.08424926 -0.04462149
000230 ee b3 bf 3c 97 6f 5e 3d 71 bb 3f 3c 8b 68 ff bc
       0.023401227 0.05430564 0.011702404 -0.03117778
000240 f9 67 e5 3d 7a 11 b0 3d 60 b3 c7 3d 1e 20 bf bd
       0.11201472 0.085970834 0.0975101 -0.09332298
000250 3a 01 c6 bc c9 5a 59 3d 85 13 b8 3c 16 78 39 bd
       -0.024170507 0.053065095 0.022470245 -0.04528054
000260 c8 5a ec bc 43 47 dd 3c 6e 07 6b bd d3 06 e4 3c
       -0.028851882 0.02701152 -0.057380132 0.027835285
000270 6a ba eb bb 23 a3 ee bc f4 7b c1 3c 14 ff 05 3d
       -0.007193853 -0.029130524 0.023618676 0.032713965
000280 13 0a 23 3c 45 d3 35 3c 55 bf 9a 3c 1c 74 de 3d
       0.009951132 0.011097734 0.018890062 0.1086199
000290 d3 ea e4 3c 41 ec 6b bd c3 d8 23 3d 4e 79 92 3d
       0.027944004 -0.057598356 0.040001642 0.07152043
0002a0 77 84 96 bd 91 a7 69 bd 8f 6e 9f 3c 02 f0 39 bc
       -0.073494844 -0.05704457 0.019461898 -0.011348726
0002b0 c8 c5 7b bd 4c 8a 27 3c 1c 8b c6 bd a3 5b 80 3d
       -0.061467916 0.010225844 -0.09694502 0.06267478
0002c0 19 91 d9 3c ed 36 05 bd b9 4c 07 3c 77 97 3b be
       0.026558446 -0.032523084 0.008258038 -0.18319498
0002d0 92 ad 8e bd 69 17 6a bb 11 b7 64 3d 97 b8 3d bd
       -0.069667 -0.003571952 0.05583865 -0.046318617
0002e0 53 69 13 bc 58 16 50 bc ed b2 af bd d6 60 4f bc
       -0.008997279 -0.01270064 -0.08579049 -0.012657365
0002f0 00 49 eb bd 18 07 8a bb 14 a9 6a 3c a2 c4 0c 3d
       -0.11488533 -0.0042122714 0.014322538 0.03436721
000300 59 70 54 3b f0 94 a0 3d 3c 94 52 3b f5 df df 3c
       0.0032415597 0.078409076 0.0032131812 0.02732847
000310 9c 12 53 bc d7 4c 62 bd ab 99 97 bc fa 37 09 bd
       -0.012882855 -0.05524906 -0.018505892 -0.03350065
000320 69 19 9a 3c 3f e1 56 bd 3d cb d6 3d 4a 7f 3f 3d
       0.018810945 -0.052460905 0.104879834 0.04675225
000330 6d 03 dc bd 89 1c a5 bd af 3c d9 bc e8 24 27 3e
       -0.10742841 -0.08062083 -0.026518194 0.16322672
000340 76 6b 09 bc 7e 36 b8 3c 11 3a 5b 3d 03 ec 11 bd
       -0.008387437 0.022486921 0.053522173 -0.03562547
000350 ad 9b cc bb b9 41 e8 3c f8 90 ec bd cd f6 0b 3c
       -0.006244144 0.028351652 -0.11551088 0.008542729
000360 3c d0 2a 3c ec db f6 3c 93 f1 9d bd c6 4f 6d 3c
       0.0104256235 0.030134164 -0.07712092 0.0144843515
000370 5a 30 c6 3c de 09 99 bd 63 a3 86 3c f9 e7 f2 3d
       0.024192978 -0.07472585 0.01643533 0.118606515
000380 28 5c 8b 3d 4b 0a d3 bc 67 ef ab bd 51 45 fa 3c
       0.06804687 -0.025761744 -0.08395272 0.03055063
000390 06 2c 80 bd d0 8d 82 bd 3e 32 93 3d ba 29 c6 bd
       -0.06258397 -0.06374705 0.07187317 -0.096759275
0003a0 64 1d a2 3c 0c 05 16 3d 85 03 b1 3c bc 55 ec bd
       0.019789405 0.036625907 0.021608124 -0.1153979
0003b0 7c d9 1a 3d d7 f5 50 3c aa 9f 35 bd dc a1 b8 bd
       0.037805066 0.012753925 -0.04434172 -0.09015247
0003c0 5b f9 1f 3c 4d 43 bd bd 5e 70 06 be 7d 0b 79 bc
       0.009764041 -0.09241352 -0.13128802 -0.015200493
0003d0 e9 9c fa 3c c2 22 6f bd 86 a2 92 bc ac 2a 4d 3d
       0.030592399 -0.058382757 -0.017899763 0.050089523
0003e0 71 b6 62 3d 00 1f 4c 3a b5 d8 6e 3d 42 fe a6 3c
       0.05534977 0.0007786602 0.058312137 0.020384911
0003f0 fa 1a b0 bc 95 14 99 3d 41 27 5b 3d 3c 88 11 3d
       -0.021497238 0.07474629 0.053504232 0.035530314

network_body._body_endoder.seq_layers.4.weight f4 [256, 256]
000000 ba f9 8a bc 25 1a d2 3c 14 04 50 3d 3a 74 d5 3d
       -0.016964782 0.025647232 0.05078514 0.10422559
000010 79 88 2e 3c b5 a3 3c 3d c9 45 4a bd be cf ab ba
       0.010652655 0.04605456 -0.04938296 -0.0013108177
000020 59 05 ca 3b 30 2d 3c 3b 31 20 a4 bd 23 41 9d bd
       0.0061651883 0.0028713457 -0.080139525 -0.076784395
000030 79 f5 02 bc b8 b7 2d bd 44 70 f1 bc 9f f6 00 bd
       -0.007993096 -0.042411536 -0.029472478 -0.031485196
000040 81 bb 23 3d ca 51 06 3e cc 5b a5 3d 32 82 be bd
       0.03997374 0.13117138 0.080741495 -0.093021765
000050 3b d1 93 3c 27 23 b3 3c 6f 35 92 bd 41 03 12 3d
       0.018044105 0.021867348 -0.07139098 0.035647634
000060 48 7b 4e bd 62 b5 ef bc 5c 4f 7d bd 14 50 89 3d
       -0.05041054 -0.029261295 -0.06184326 0.06704727
000070 c8 ab 97 3c 89 8e 35 3d 77 c1 02 3d ee 0a 9f bc
       0.018514529 0.044325385 0.031922784 -0.019414391
000080 80 35 2b bc fc c5 0b 3d ce 13 de 3d 56 19 55 bd
       -0.010449767 0.03412436 0.10843621 -0.052026115
000090 45 72 92 bd 51 7d 8d bd 40 31 56 bd 2b 74 1d 3d
       -0.071507014 -0.06908668 -0.052293062 0.038440865
0000a0 cd 28 8a bd 8b 09 4d 3d bf 9a bc bd 7f c2 81 3d
       -0.067460634 0.05005793 -0.09209203 0.06335925
0000b0 47 e8 e3 3b f7 4b 06 3a cf 2e d2 3d 02 67 23 bd
       0.00695518 0.0005123014 0.10262834 -0.039893158
0000c0 7e b4 86 bd 92 95 39 3d 2e 1c 2a 3d af 66 58 3d
       -0.06577395 0.045308657 0.04153078 0.0528323
0000d0 d2 74 90 3d 59 b6 4a bd 39 12 21 3d 94 2d af 3c
       0.07053532 -0.049490307 0.03932402 0.021384038
0000e0 51 a2 32 3d d2 46 17 bd 44 9f 2c 3b 3e dc e7 3c
       0.04361183 -0.036932774 0.0026340047 0.028303262
0000f0 6e b6 67 3c e1 df de bc 94 9a f0 bc ac 58 f4 bc
       0.014142616 -0.027206363 -0.029370584 -0.029827438
000100 9d 88 d8 3c 28 c0 93 3d e0 b6 0f 3d 8b e4 a4 3c
       0.02643233 0.07214385 0.035086513 0.020128509
000110 c5 ee c6 3c 5f 03 8f 3d bc 99 9a 3c d1 47 c9 3c
       0.024283776 0.06983065 0.018872134 0.024570378
000120 4a 26 4d 3d 13 4a 7d bd 53 92 16 bd 8e 41 be 3d
       0.050085343 -0.06183822 -0.03676064 0.09289847
000130 30 3e 94 bd 0a e8 c0 3d 78 c2 85 bd 0f 3d ae bc
       -0.07238424 0.09419258 -0.065312326 -0.02126935
000140 b6 77 15 bd a5 6c 2a 3d 6e 73 e9 bc 1f 33 c6 3c
       -0.03649112 0.041607518 -0.028497424 0.024194298
000150 6e cc 96 3d f9 60 0d 3e b1 53 11 bd 08 ea bb 3d
       0.073632106 0.13806523 -0.035480205 0.09175497
000160 77 bf 6f 3d 57 0f 77 bd 7f 40 69 bd bd 3e 2c bd
       0.058532204 -0.060317364 -0.056946274 -0.04205202
000170 58 4c 2c 3c 15 76 14 be 71 13 7a 3c bd e3 7d bd
       0.010516249 -0.1449817 0.015263424 -0.061984766
000180 d6 cc a3 bd d7 19 8f bd 4b 65 e4 39 b1 12 53 3d
       -0.07998054 -0.069873504 0.00043563018 0.051531497
000190 e2 8d 8b 3d ad d0 14 bd 74 35 9c ba bb 1f 97 bd
       0.068141714 -0.03633182 -0.0011917786 -0.07379099
0001a0 1a 8f 12 bd 8d a4 c1 bd 41 f1 f1 bc 70 4c bc ba
       -0.035781004 -0.09455214 -0.029533984 -0.0014366042
0001b0 a4 8c b1 bb 16 76 85 bd 26 aa cc bc fe 2e 2a 3d
       -0.005418377 -0.06516664 -0.024983477 0.04154872
0001c0 a2 a6 2a bd a8 16 ab 3d 5e 4f 8f 3c b4 0c 99 bd
       -0.04166282 0.08353931 0.0174939 -0.07473126
0001d0 a6 b0 44 bd 6f 42 67 3d 09 f4 33 3d b2 be b9 3d
       -0.048020028 0.05645984 0.043933902 0.09069575
0001e0 2f ec 50 3c 8a 94 03 3c cb 55 8e 3d f8 ff 13 3d
       0.012751623 0.00803102 0.069499575 0.036132783
0001f0 7e d2 dc 3d 23 56 e2 bd db 43 a1 3d df 82 b1 bc
       0.10782336 -0.110515855 0.078742705 -0.02166885
000200 e3 e3 09 3c ab d5 b5 3c 18 10 8d bd 18 8d 6e 3d
       0.008416149 0.022196611 -0.06887835 0.058240026
000210 14 a6 6e bb e4 86 8e 3c 35 b3 38 3d ec 9d c0 bc
       -0.0036414908 0.017398305 0.04509278 -0.023512803
000220 05 2a 7d 3d e7 df b0 bd 82 4e 15 bb 45 15 c4 bd
       0.06180765 -0.08636456 -0.002278239 -0.09574369
000230 86 ad d9 3c 06 39 92 bd 19 c0 44 3c 38 6d e0 3d
       0.026572 -0.071397826 0.01200869 0.10958332
000240 ea fe ed bc 14 52 c5 bd f5 24 a8 3c cc a4 dc 3c
       -0.029052217 -0.09634796 0.020525435 0.02693405
000250 a8 3e 20 3d 7f 17 c6 bc 54 74 b8 3d 3d 75 09 bb
       0.039122254 -0.024181126 0.09006563 -0.002097442
000260 03 fe 82 3c 6f 3e f4 bb 4f cb 11 3d 19 19 00 bd
       0.015990263 -0.0074537317 0.03559428 -0.031273935
000270 95 2d c0 bd 19 e2 2f bd a6 24 02 3e 71 eb 79 3b
       -0.09383694 -0.042940233 0.12709293 0.0038134719
000280 3b 9e db 3c ff 60 fe 3d ec 0d 31 3e 4e f3 c1 3d
       0.026808849 0.12420844 0.17290467 0.09470235
000290 1b 65 7b bc eb d8 2f 3d 6e 90 30 3c 3c 86 e2 bd
       -0.01534393 0.04293148 0.010776622 -0.110607594
0002a0 34 46 4c bd f2 35 13 3d b2 2e 0e bd f2 c9 c9 3c
       -0.04987164 0.035940118 -0.0347125 0.024632428
0002b0 f5 e9 80 bd 02 e8 12 3d 77 6d a8 bd 36 50 c6 bc
       -0.06294624 0.03586579 -0.08224004 -0.02420817
0002c0 b8 9c c8 3c ce 4d 27 3d e8 66 b5 bd b5 ce ec bd
       0.024488792 0.040845685 -0.088575184 -0.11562864
0002d0 3c 8d 3d bd 89 6e 0b be b8 fc bc bd e5 a6 c5 3b
       -0.04627727 -0.13616385 -0.0922789 0.0060318583
0002e0 2c c5 2b be b3 51 b0 3c 76 8b ea 3a 7f 62 c6 bc
       -0.16774434 0.021523332 0.0017894346 -0.024216888
0002f0 6e 16 f1 bc 8d 40 cc bd 66 fa a3 bb b9 67 4d 3c
       -0.02942964 -0.099732496 -0.005004215 0.012536936
000300 08 f0 ec bc e2 4a 83 3c 6d 00 84 3c 1e aa 0d 3a
       -0.02892305 0.016026918 0.016113484 0.00054040726
000310 40 ad 59 bd d3 f2 23 bd 0c 14 81 3d 03 25 89 3d
       -0.05314374 -0.040026497 0.06302652 0.066965126
000320 de ff f0 3a 50 e1 16 3d 0d 54 18 bc b7 6a 8f bb
       0.0018386801 0.03683597 -0.009297383 -0.004376735
000330 76 86 c2 3c 0c 64 8a 3d b8 61 39 bd 16 e7 e6 3d
       0.023745757 0.06757364 -0.045259207 0.11274545
000340 7e 49 59 bb 08 46 fe bc 79 07 2e be b7 22 69 3d
       -0.0033155377 -0.031039253 -0.16995038 0.056917872
000350 f3 4e cc 3d 52 6d a8 3c c7 69 d8 bd 88 a3 1c bd
       0.09975996 0.02055994 -0.105670504 -0.038241893
000360 0d 86 b2 3a 07 de a7 3d 42 1a 2a 3e c4 8f 21 3d
       0.0013620273 0.08196645 0.16611579 0.039443746
000370 4f f8 fc bc 99 f3 46 3d e8 91 a4 bd d2 ed 5c bd
       -0.030880122 0.048572157 -0.08035642 -0.05393774
000380 5e 8e 90 bd ac 1e ec bc db 15 ad bc f8 ef 8d bc
       -0.070584044 -0.02882322 -0.021128586 -0.01732634
000390 88 46 4d 3d af 82 49 3b ed e8 d0 bc 4b 71 54 3d
       0.050116092 0.003074806 -0.025501693 0.051865857
0003a0 95 22 7e bd b8 26 b7 3d 19 a9 e6 bc a0 08 99 3d
       -0.0620447 0.08942932 -0.028156804 0.07472348
0003b0 ab 7c 91 bc 68 49 8f 3d 9e a2 c9 3c fe 7e 7a 3d
       -0.017759642 0.06996423 0.024613675 0.061156265
0003c0 ad c4 9b 3d 62 b6 e2 3c 29 18 e7 3c 9e 4f 50 3d
       0.07605872 0.027674858 0.028209763 0.05085718
0003d0 0e 85 33 bd 3d 7d 1e 3d 28 ae 1a bd a2 c4 94 3d
       -0.043828063 0.038693655 -0.037763745 0.07264067
0003e0 ce 1b 9a 3b 51 fb 34 3d f3 a3 b8 3d 9f 70 51 bd
       0.0047030216 0.044184987 0.09015646 -0.051132794
0003f0 fe eb f9 3d a1 9e 89 bd fd 4f ca 3c 9f 50 8e 3d
       0.12203215 -0.06719709 0.024696345 0.06948971

action_model._continuous_distribution.log_sigma f4 [1, 6]
000000 00 00 00 00 00 00 00 00 00 00 00 00 00 00 00 00
       0.0 0.0 0.0 0.0
000010 00 00 00 00 00 00 00 00
       0.0 0.0

action_model._continuous_distribution.mu.weight f4 [6, 256]
000000 6a f1 2b bc 83 14 86 bc 55 7d 01 3c d3 40 63 bc
       -0.010494569 -0.016367203 0.007903417 -0.013870436
000010 88 53 7d 3b 57 3a 0a bc 3f 1e 7e 3c 3b 49 0a bc
       0.0038654525 -0.008436761 0.015510141 -0.008440311
000020 87 f6 80 3c 52 13 db bb eb 39 45 bc 34 85 8f 3b
       0.015742553 -0.006685653 -0.0120377345 0.0043798927
000030 d3 62 82 3b 6a b1 b7 ba 18 68 63 bc e7 47 f5 bb
       0.003979066 -0.0014014666 -0.013879798 -0.007485378
000040 3d 81 67 3c 53 18 8c 3c d3 ff 7a 3c 82 0f 55 bc
       0.014129934 0.017101442 0.015319782 -0.013004186
000050 c7 97 3c 3c 1f 97 af 3b 7b da 24 3b 9b 8d 10 bc
       0.011510796 0.005358591 0.0025154639 -0.008822824
000060 b8 08 63 bc 4a 82 eb bc b6 ad 22 bc 28 fb 25 bb
       -0.013857059 -0.02874865 -0.009929111 -0.0025326703
000070 11 7d 38 3c 6e 74 11 bc 03 70 a1 bb 26 04 8d bc
       0.011260287 -0.008877857 -0.004926683 -0.017213892
000080 01 a0 8f 3c 0f 53 39 bb dc e1 1d bb 43 21 81 ba
       0.01753235 -0.0028278267 -0.0024090922 -0.0009851832
000090 6f 35 f7 3b f5 d9 6f bc 02 28 ae 3c 2f b4 41 3c
       0.0075442116 -0.014639367 0.021259312 0.011822744
0000a0 18 b1 49 bb 00 e8 5d bb 4b de 9f 3a ef 5e c3 ba
       -0.0030775722 -0.0033860207 0.0012196986 -0.0014905612
0000b0 bf 7d 0d bd 83 e3 92 bc a2 1e 31 bc 07 07 2f b9
       -0.03454375 -0.017930752 -0.010810526 -0.00016691918
0000c0 e0 80 95 3a ef b8 1c 3c 6d 19 3e bc 07 f7 86 bc
       0.0011406206 0.009565576 -0.011602742 -0.016475214
0000d0 f5 cc 6b bc f3 de c1 3b d7 7a a3 bc c0 96 65 3b
       -0.014392127 0.00591647 -0.019956036 0.003503248
0000e0 f5 6f 5f bc 14 06 34 3b 02 86 73 3b fd 87 b9 3b
       -0.0136375325 0.0027469443 0.0037158732 0.005661963
0000f0 97 a8 78 3c 7b b9 70 bc 42 29 2f bb 8a f8 43 bb
       0.015176914 -0.0146926595 -0.0026727472 -0.002990278
000100 b7 d5 59 3c 38 4d 86 bc 17 f3 d7 3a d5 4e 52 bc
       0.0132955825 -0.016394243 0.0016475645 -0.012836178
000110 ec 30 b3 bb 95 34 ad 3c c3 30 ba bb c6 2a 96 3b
       -0.0054684784 0.021143237 -0.0056820824 0.0045827357
000120 c8 11 f9 3b 8a ed 28 bb f9 89 bd ba 53 f8 b2 3c
       0.0076009966 -0.002577635 -0.0014460675 0.021846926
000130 70 ab ac 3c af b4 9c bb 98 d0 d7 bb 30 e8 c2 3b
       0.021077842 -0.0047822814 -0.0065861456 0.005948089
000140 89 5a 97 3b ea ac 16 3c 7c f2 32 bc 47 9e db b9
       0.004618947 0.009196499 -0.010922071 -0.0004188886
000150 af f8 af 3c 85 ac 2e 3c dd f9 eb 3b 0b 3d 78 3c
       0.021480886 0.010661249 0.007201417 0.0151512725
000160 4f a0 1c 3a d8 e6 dd bb c7 16 c4 3a 94 5a 23 bc
       0.00059748156 -0.0067719035 0.0014960401 -0.009970326
000170 02 45 14 bc 97 b4 c0 b9 7b c7 94 3b 90 a6 ce bc
       -0.009049656 -0.00036755644 0.0045403815 -0.025225908
000180 6d 09 5a 3c 27 07 69 bb 98 f6 29 bb 43 64 ac bb
       0.013307911 -0.0035557242 -0.0025934335 -0.0052609756
000190 ba 2c 73 3c 33 f6 fc bb d4 5e 0a 3a f4 72 20 bb
       0.014842207 -0.007719779 0.0005278413 -0.002448258
0001a0 97 8d a4 3b bb 9b 1c bb c2 9a 52 3c 97 3f cc 3b
       0.0050217616 -0.0023896534 0.01285428 0.0062331664
0001b0 43 5e 87 3c 90 1d 50 bc ca 52 52 bb 7b 49 16 3c
       0.01652444 -0.012702361 -0.0032092803 0.009172793
0001c0 cf 88 04 3c df 6e 69 bc df 6c 26 3c 0f a5 37 3c
       0.008089258 -0.014247625 0.010157793 0.011208787
0001d0 68 65 00 3d cf 05 13 3b d2 60 51 3c 80 6a 32 bc
       0.03134671 0.0022433882 0.012779431 -0.010889649
0001e0 49 82 a6 bc 07 96 30 3c e7 e6 80 3b 14 62 9a 3b
       -0.020325797 0.010777957 0.0039337757 0.004711399
0001f0 fb d0 03 3b e7 9e c3 bc 48 95 74 3c c2 f3 05 bc
       0.0020113576 -0.023879481 0.01492817 -0.008175792
000200 1b 07 a6 bb d0 77 e0 bc b3 4f 73 3c ea 5e 93 bc
       -0.005066765 -0.027400881 0.014850545 -0.017989594
000210 f3 79 40 3c 1f 94 53 bc 65 be 30 bb 00 bb 3b bc
       0.011747825 -0.012913733 -0.0026968953 -0.0114581585
000220 a6 b7 87 bc f7 5d 62 3c 27 67 b4 bb 31 f7 ba bb
       -0.016567063 0.013816348 -0.005505461 -0.005705737
000230 f7 c0 04 3c 32 96 c3 3b 31 f8 97 bc dd ec 00 3c
       0.008102647 0.0059688324 -0.018550964 0.007868973
000240 d3 eb 99 3b 5f 7a a9 3c 4f d4 8d ba e8 57 df 3a
       0.004697302 0.020688234 -0.0010820719 0.0017039748
000250 c5 7e ce bb 2d 59 ea bc 30 6b 3a 3c 60 47 29 3c
       -0.006301733 -0.028606975 0.011378095 0.0103319585
000260 1f 05 2f bc 37 cf b3 3c 9a b7 8c 3c 89 d5 81 bc
       -0.010682373 0.021949394 0.017177392 -0.015848892
000270 6a ce 84 3c 08 10 a6 bb ed 1b fe 3b bb 25 0d bd
       0.016211707 -0.005067829 0.007754794 -0.03445981
000280 30 a5 2e ba 82 aa 5c bb 1f 86 8d 3b 6a 5e 03 bb
       -0.0006662188 -0.0033670967 0.004318967 -0.002004529
000290 47 44 34 bb f0 29 d8 bb a7 30 20 3c 0f 4a df 3b
       -0.0027506517 -0.006596796 0.009777225 0.0068142484
0002a0 48 e2 6f bc 6f 41 5f 3c b2 29 08 3b 12 9e 52 bb
       -0.014641352 0.01362644 0.0020776805 -0.0032137674
0002b0 a3 82 37 3a cf 37 cb 3b 17 d0 3d bb 1d dd 25 3b
       0.00070003624 0.0062017213 -0.0028963143 0.0025308796
0002c0 1f 87 1c bd 07 6f 6f 3b 01 2b 98 3c 3d 57 7d bc
       -0.0382148 0.0036534683 0.018575193 -0.015462694
0002d0 da 87 ad bb 40 39 da bb 23 c8 e3 bb c8 5e e6 bb
       -0.005295736 -0.0066596568 -0.0069513484 -0.007030342
0002e0 d0 dd 17 bc ac 60 92 3c b0 40 d4 3b 3d e9 02 bd
       -0.009269193 0.017868362 0.006477438 -0.031960715
0002f0 4b ab 8c bb 83 06 4c 3c 0f 5e 12 bb 45 5a 85 bb
       -0.0042928807 0.012452724 -0.0022333895 -0.004069599
000300 b0 c4 b2 bb 85 16 51 bc 8f 2f 91 bc 27 96 40 3b
       -0.005455576 -0.012761717 -0.017722873 0.0029386373
000310 d7 5c 71 bb f7 6a b0 3c 98 a6 fb bc 72 11 d3 3c
       -0.0036829018 0.02153538 -0.030719087 0.025765155
000320 cf 62 2a bc 88 bf 35 bd 4c 3b a7 bc e7 22 7b bb
       -0.010399534 -0.04437211 -0.020414017 -0.0038320364
000330 34 3c 42 bc 37 55 b8 3b 67 0f ac 3c c4 4e 9e 39
       -0.011855174 0.005625393 0.021003438 0.00030194793
000340 88 c1 03 3b 52 13 5d bb 7f 24 1a bc 80 a7 31 bc
       0.0020104367 -0.003373344 -0.009408115 -0.010843158
000350 83 0f 08 3c 40 27 b6 3b b7 b7 93 3c 9b e3 e1 3c
       0.0083044795 0.005558878 0.018031938 0.027574351
000360 f3 d3 06 3b 0f f0 b6 bc 2f 59 83 3b 4f 61 84 3c
       0.002057311 -0.022331266 0.0040084342 0.016159682
000370 af 15 1b bc d7 9a c9 bb 8a 87 1b 3c 28 b0 c2 3a
       -0.009465619 -0.0061524916 0.009492764 0.0014853524
000380 2f c6 39 3b 12 65 39 3c 59 d6 0c 3c 38 3c c7 3b
       0.0028346886 0.011315601 0.008596026 0.0060801767
000390 6f d0 a3 3b 70 24 7f bc d0 7b 10 3c fb b7 02 3a
       0.0049992125 -0.015572652 0.008818582 0.00049865217
0003a0 28 c2 ec 3b a2 a1 db 3b f8 c2 57 3c c5 b5 61 3b
       0.0072252937 0.0067026177 0.013169043 0.0034440618
0003b0 14 1b 4c 3a bf 5c 40 bc aa ff 75 bc 53 54 0e 3c
       0.00077860174 -0.011740862 -0.015014568 0.008687097
0003c0 32 a8 93 bb 32 16 7e 3b a9 39 bf ba 84 86 83 bc
       -0.0045061344 0.0038770554 -0.0014589328 -0.016055353
0003d0 1b 96 4e bc 60 97 0a bc 9b 7f 40 bb 94 b9 90 3c
       -0.01260903 -0.008458942 -0.0029372934 0.017666616
0003e0 27 27 2b bc 11 0e ad 3c 8f c3 1c 3b 48 f6 a7 bb
       -0.010446346 0.021124871 0.0023920273 -0.0051257946
0003f0 68 b1 d8 bb 4b 5a 1d bc 1b 51 8f 3c 2b e5 2a ba
       -0.0066129453 -0.009604047 0.017494729 -0.0006519134

action_model._continuous_distribution.mu.bias f4 [6]
000000 00 00 00 00 00 00 00 00 00 00 00 00 00 00 00 00
       0.0 0.0 0.0 0.0
000010 00 00 00 00 00 00 00 00
       0.0 0.0
