results/NearSingularity03/NearSingularity/NearSingularity-26112.onnx (onnx, 623772 bytes, 9 tensors)

network_body._body_endoder.seq_layers.0.weight f4 [256, 85]
000000 cc 74 3d 3c ed c3 ee 3d 2e 3d 7c 3d 2b 84 53 3c
       0.011563491 0.116584636 0.061581783 0.012909929
000010 2f b2 a4 3d 27 c6 80 be 54 f0 db 3d 13 e3 aa bb
       0.08041798 -0.25151178 0.10739198 -0.0052150576
000020 5d 49 97 bc 33 dd dc bd 92 5c 19 3d a2 7e 1a be
       -0.0184676 -0.10784378 0.037441798 -0.15087369
000030 80 f2 69 3d ab 55 8f 3c 20 25 0b 3d 48 a2 12 bc
       0.05711603 0.017496904 0.033970952 -0.008949824
000040 b0 d9 48 3d 80 8a 92 3c 92 a4 9d bd 8c 55 70 3d
       0.049035728 0.017888308 -0.07697405 0.058675334
000050 51 8e 2a be 29 f2 ee 3d e1 3e 2a bd 92 02 f3 3c
       -0.16655852 0.11667282 -0.041563872 0.029664312
000060 5c 17 6f bd 8f 17 d1 3d 83 62 01 be ef 43 42 be
       -0.058371887 0.102095716 -0.12635235 -0.18971227
000070 17 4e 1c 3d ba 8a d3 3d 86 3c 1e bd d3 a8 60 be
       0.03816041 0.10329194 -0.03863194 -0.21939401
000080 33 5a 09 be af 6d 5a 3d 94 76 d2 3c 08 50 be bc
       -0.13413315 0.05332726 0.025691308 -0.023231521
000090 0a b1 d7 3d 56 d7 7b bd c0 a2 1a 3e 64 3f 20 bd
       0.105318144 -0.061484657 0.15101147 -0.039122954
0000a0 42 ac 07 3e 63 bb 39 be e4 24 a4 3c 49 cc ad bd
       0.13249305 -0.18137889 0.020037122 -0.0848623
0000b0 c8 91 e4 bd 41 69 0e bd 92 48 37 3e 35 6a 33 be
       -0.11160618 -0.034768347 0.17898777 -0.17520984
0000c0 f8 77 06 be 64 0b 8d 3d e1 af 02 3e 1b 5b 2f 3e
       -0.13131702 0.06886938 0.12762405 0.17124598
0000d0 20 dc 59 3e 65 4f 14 3d 02 fc d5 3d 43 a3 97 bd
       0.21275377 0.03620853 0.10448457 -0.074041866
0000e0 f4 7f 43 be 85 60 8f 3d 82 d8 b1 3d 75 90 0b 3e
       -0.19091779 0.070008315 0.08683874 0.13629325
0000f0 f0 67 27 3e 8b 79 3a be 35 55 23 3e 0e c5 c1 bc
       0.16348243 -0.18210427 0.15950473 -0.023653533
000100 4e 72 32 3e 42 80 8d bd cb 44 03 be f1 05 10 bd
       0.17426416 -0.06909229 -0.12819211 -0.035161916
000110 c9 a0 1b 3e c8 54 4d 3e ac 4d 03 3e dd f4 14 3d
       0.15198053 0.20051873 0.12822598 0.036366332
000120 0b fc e3 bd bd 1e 75 be c9 ea 0c 3d 7d 74 7f 3d
       -0.11132058 -0.23937507 0.034403596 0.06236695
000130 25 01 54 3d ad a7 28 bc f9 ac 2c 3c 54 8f d9 3d
       0.051758904 -0.010293883 0.010539287 0.10623041
000140 c7 ac 12 3e bb 62 01 be c1 15 1a 3e 72 a9 69 3d
       0.14323722 -0.12635319 0.15047361 0.05704636
000150 f3 46 27 3c a0 44 75 3d 5c 26 54 3d a4 96 bd 3c
       0.010209787 0.0598799 0.051794395 0.02314312
000160 12 5e 97 3d df 37 64 bc ed 1e 8d 3d a5 d2 0e 3e
       0.07390989 -0.013929336 0.06890664 0.13947542
000170 f5 59 92 bc e0 28 e6 3c c6 84 39 be 53 aa b5 bd
       -0.01786516 0.028095663 -0.18117055 -0.088703774
000180 68 49 8c 3d b7 a5 f0 3a 30 7a 94 3e 33 43 bf bc
       0.06849939 0.0018359934 0.28999472 -0.023347473
000190 17 af 8d bc 1a 0d 32 3e e9 ee 5d 3d ef e8 22 be
       -0.017295403 0.1738781 0.05418292 -0.1590917
0001a0 34 b8 d4 3d d5 8d 91 3c ec f2 dc bd 9c 3b 3d bd
       0.103866965 0.017767826 -0.10788521 -0.046199426
0001b0 c5 ce d0 3d 54 82 f4 3d 76 b2 3d 3d ac 6e e4 3d
       0.10195688 0.119389206 0.04631277 0.111539215
0001c0 25 0b 11 3e cb 36 3b 3d f2 87 8d bb e6 d8 d2 3d
       0.14164408 0.04570655 -0.0043191845 0.10295276
0001d0 c6 a0 b3 3d 9e f9 3a 3c ba 34 90 bd c5 8f 56 3e
       0.087708995 0.011412052 -0.07041307 0.20953281
0001e0 f3 67 38 3b e8 22 92 3d 30 12 e5 bd 09 b8 3e be
       0.002813813 0.07135564 -0.111851096 -0.18624891
0001f0 0f 3b 2c bd d8 b8 78 be 9e de 8e bd 36 63 6c be
       -0.04204851 -0.24289262 -0.069760546 -0.23084721
000200 d8 31 23 3c 21 de 05 3e c6 28 0b bc c7 1f 9a 3d
       0.009960614 0.13073017 -0.008493608 0.07525592
000210 28 ff a3 3d 85 53 48 be ba 41 79 3c 0c 53 0b be
       0.080076516 -0.1956311 0.015213424 -0.13605899
000220 bf 7c ae 3d d2 e0 5a be 13 33 4e be 54 ef 5f 3d
       0.08519887 -0.21374825 -0.20136671 0.0546716
000230 09 65 eb bc 37 86 cf 3d 20 cd 4d be 33 33 86 3d
       -0.0287347 0.10133021 -0.2009778 0.06552734
000240 37 5a a8 bc 24 af 02 3d c9 af 98 3d 9e 5e 5a 3d
       -0.02055083 0.03190531 0.07455403 0.05331289
000250 69 33 c3 bc 88 bf 97 3d 0c 60 da bd 1f c5 55 bd
       -0.023828225 0.074095786 -0.10662851 -0.052189942
000260 7b f6 fc 3d 19 5d c8 3d d9 9b cb bc d3 9b 01 be
       0.123517 0.09783382 -0.024854587 -0.12657098
000270 8e 8f 0a be c4 9a a8 3c 03 dd 76 bd 05 fb e5 bb
       -0.13531324 0.02058161 -0.060269367 -0.0070184493
000280 49 85 25 3e 18 44 3e bd a0 72 4d be e7 72 07 be
       0.16164126 -0.046451658 -0.20063257 -0.13227426
000290 6a 57 ac 3d a2 03 a9 bd ad 25 ad bd 13 6e 17 3e
       0.084151104 -0.08252646 -0.08454452 0.14788084
0002a0 20 2a e1 3b 92 3f 91 3d d6 e7 ba bd 86 1f 8b bc
       0.006871477 0.07092203 -0.091262504 -0.016982805
0002b0 8e b3 11 3e 5a c4 59 3d cb 9b 45 be 07 80 a9 bc
       0.14228651 0.05316577 -0.19297712 -0.020690931
0002c0 16 91 84 3d 3e 91 98 bd fc 05 8b 3d 69 ed ef 3d
       0.064729854 -0.07449578 0.06788251 0.11715204
0002d0 aa a4 1a bd d9 d4 3b 3d e4 93 94 bd b0 1c 8e 3d
       -0.037754692 0.045857284 -0.072547704 0.069390655
0002e0 66 c8 b1 bd 24 4b 1d 3e 9a e1 6d bc 50 77 b0 bd
       -0.08680801 0.15360695 -0.01451912 -0.08616507
0002f0 f2 a7 5e be f8 d5 11 be c4 21 b1 bc 90 11 b9 3c
       -0.21743754 -0.14241779 -0.021622546 0.022591382
000300 94 76 d9 bd 4b 57 ca 3d 45 c5 a1 bd 94 23 e2 bd
       -0.1061832 0.09879931 -0.07898954 -0.11041942
000310 14 04 05 be 88 3f 28 bd 69 e1 dd bd 55 53 ee 3b
       -0.12989837 -0.041076213 -0.10834009 0.0072731175
000320 d2 1d d4 3d e8 b3 2c bd 95 b4 16 be 63 1e 15 3a
       0.1035725 -0.04216376 -0.14717324 0.0005688427
000330 4a da 83 bd fb 90 0a 3e be a6 00 3e ae 93 8c bd
       -0.0643812 0.13531868 0.12563607 -0.06864105
000340 a0 ab 3f 3e 18 1d 13 be 99 00 89 3b 27 44 b0 bb
       0.18717813 -0.14366567 0.0041809794 -0.005379218
000350 7e 68 08 bd 02 25 80 bd 9c a6 24 3e b4 2b 14 be
       -0.033302777 -0.06257059 0.16079181 -0.14469796
000360 7a 1d 3e be 4b 35 30 be 7a c1 19 be 63 7f e5 3c
       -0.18565932 -0.1720783 -0.15015212 0.028014844
000370 36 01 27 be 9e 6c 1a 3d af 57 81 bc 7c 8a 8c 3d
       -0.16309056 0.03770124 -0.015788881 0.06862351
000380 cd 88 ac bd ab 20 db 3c d3 b5 6f ba 0e ba 9c bd
       -0.0842453 0.026748976 -0.00091442204 -0.076526746
000390 25 e4 04 bd 94 30 2e 3e e6 fb 20 39 ea 4f 28 3e
       -0.032444138 0.17010719 0.00015352629 0.16436735
0003a0 dd 82 b3 bd 47 5d cb 3d 43 19 cf 3d 07 59 27 bd
       -0.087651946 0.099299006 0.1011224 -0.040856387
0003b0 53 3f 96 3e 1a d9 fd bd 5d 68 f6 bd 04 ba d1 3d
       0.29345188 -0.123949245 -0.120316245 0.10240558
0003c0 be 4f 14 3e 6e fa 06 be ee fb 79 bd bc 91 e4 bd
       0.14483544 -0.13181469 -0.061031274 -0.11160609
0003d0 13 76 60 3e 37 98 9b 3e d3 b3 e4 bd 39 44 92 3c
       0.21920042 0.30389568 -0.11167111 0.017854797
0003e0 c4 e1 85 3c 00 7f 22 3e e4 59 cb 3d 55 a1 07 3d
       0.016343005 0.15868759 0.09929255 0.033112843
0003f0 66 4c 0d bd c3 28 ad bc 81 50 0c be 9e e5 ae ba
       -0.034496687 -0.0211376 -0.13702585 -0.0013343578

network_body._body_endoder.seq_layers.0.bias f4 [256]
000000 fe a5 b4 ba d9 2c 39 bb 5a 23 29 3c c4 9a bd 3b
       -0.001378238 -0.002825549 0.01032337 0.0057862718
000010 6c 91 62 3b c1 f8 0e 3c 40 bd 26 bc b9 7b e3 3a
       0.0034571541 0.0087263 -0.010176957 0.0017355598
000020 ef cc fe 3b 3b 92 7f bb c6 11 29 bb f5 c5 58 3c
       0.007775895 -0.0038997072 -0.0025797947 0.01323079
000030 92 22 c3 bb 00 11 e0 b8 52 29 d6 bb 68 82 07 3c
       -0.005955049 -0.00010684319 -0.0065356875 0.008270837
000040 27 e4 2e bc 18 f2 ab bb 8a 17 af bb 4a b1 c3 3b
       -0.010674513 -0.0052473657 -0.0053433822 0.0059720622
000050 6f 41 c4 3b ca 7b 0f 3b 3d 39 96 b7 d7 94 22 3a
       0.0059892456 0.0021893852 -1.7908047e-05 0.00062019884
000060 da 41 18 3c 5b 90 6a 3b e8 53 d7 bb 02 4b e7 bb
       0.009293044 0.003579161 -0.0065712817 -0.007058502
000070 8a aa 9d 3b 96 09 11 bc 58 a9 1b bb 5d 49 43 39
       0.0048115896 -0.008852383 -0.002375206 0.00018623979
000080 9c 42 91 b7 7f b9 6c bb df 16 a6 3a e4 e5 bb ba
       -1.7316364e-05 -0.0036121306 0.0012671611 -0.001433548
000090 8b b6 55 ba 79 bc 1a 3c 01 1b 45 ba be b4 cb ba
       -0.0008152506 0.009444349 -0.00075189775 -0.0015541536
0000a0 d6 09 ad 3b d3 a4 11 3b 04 52 e6 3b 7e 56 c3 b9
       0.0052807136 0.0022223487 0.00702882 -0.0003725774
0000b0 25 cf ca bb 43 c5 81 3b 14 e8 e7 ba 73 a5 6e 3b
       -0.0061892443 0.003960283 -0.0017693066 0.0036414533
0000c0 78 43 43 b8 e5 7d 35 bb 94 94 ac 3b 13 d0 c6 39
       -4.6554458e-05 -0.0027693447 0.0052667353 0.0003792053
0000d0 4d ec 72 ba 2a 91 0a bb c9 45 25 3c 02 59 b5 bb
       -0.0009266779 -0.0021143653 0.010087439 -0.005534292
0000e0 34 5e ec 3b 16 58 af 39 d2 ba 89 bb 15 dd 4a bb
       0.0072133783 0.0003344423 -0.004203179 -0.003095453
0000f0 c9 a0 31 3c f8 33 0c bb 44 65 58 bc 77 fe 06 3c
       0.010841557 -0.002139328 -0.013207737 0.00823938
000100 e2 22 f8 ba c2 95 ae bb 4d 3c a5 3b bf d8 a2 39
       -0.0018931294 -0.005327911 0.005042589 0.00031060536
000110 96 07 2b bb 65 6d cd bb 67 cb 9c b9 50 5d c7 39
       -0.002609705 -0.0062691444 -0.00029906185 0.0003802576
000120 fe c4 30 3b 5a fc 45 3a 5b 59 ac bb 2d 63 26 3b
       0.0026972885 0.0007552557 -0.0052596754 0.0025388703
000130 97 c0 cb 3b 20 43 3f bc 44 bc e3 bb 4d be 57 bb
       0.006218027 -0.011673719 -0.0069499332 -0.0032919825
000140 b6 68 a4 bb 12 c5 b4 bb 8c 96 c9 3a df c0 3d 3b
       -0.0050173653 -0.0055166567 0.001537995 0.0028954071
000150 37 98 9b bb 5f 7c 86 3b 39 a4 8c 39 d6 76 32 bc
       -0.00474837 0.0041041817 0.00026825236 -0.0108925905
000160 8d bc 70 bb f7 02 90 39 63 3d 6d 3c ee fe 85 bb
       -0.0036733479 0.0002746803 0.014479968 -0.004089228
000170 30 8d cc bb 7a a5 88 3b b4 00 c0 bb 4f c0 7a 3b
       -0.006242417 0.004170117 -0.005859459 0.0038261598
000180 74 f4 bf bb e5 84 2c bc 6c df 8d ba c6 4f 5a 3a
       -0.0058579985 -0.010529731 -0.0010824031 0.0008327927
000190 d5 0f cc ba c8 ba c3 bb 92 71 55 3b 6c b2 c1 bb
       -0.0015568683 -0.005973194 0.0032568914 -0.005911162
0001a0 19 d4 c3 3b 0c ff 5f bc e5 c3 40 3b 6a d9 5c bb
       0.0059762117 -0.013671648 0.0029413637 -0.0033698925
0001b0 7c b7 02 3c 6e c7 80 b9 60 81 bb 39 7e b6 da 3b
       0.007978316 -0.0002456265 0.0003576381 0.006674587
0001c0 72 18 28 bc 62 f9 0a 3b 31 df e6 bb bc 1c 9a bb
       -0.0102597345 0.0021205773 -0.0070456495 -0.0047031324
0001d0 0a 25 e6 3b e2 ac ff b9 9f d9 d1 ba 13 a6 9f 3b
       0.0070234584 -0.00048766198 -0.0016010291 0.0048720925
0001e0 f7 9b a5 bb e8 a6 47 ba ae 74 d0 bb 47 4f be 3a
       -0.005053993 -0.00076161185 -0.0063615656 0.0014519476
0001f0 65 f4 8b bb ff 6c a8 3b 97 28 0b b9 ce b0 6d bb
       -0.0042710775 0.0051399465 -0.00013271194 -0.0036268714
000200 d5 85 7b 3b 00 4d 49 3a 7c 65 51 3b e5 bd 0c bc
       0.003837933 0.00076790154 0.0031951359 -0.008590196
000210 3a 22 2d 3b 17 91 dc bb 75 94 25 3b 22 32 b7 ba
       0.0026418106 -0.0067311632 0.002526549 -0.0013976733
000220 69 6e eb 3a cf 41 84 3c 85 8a 86 bb 74 1c 87 3b
       0.0017961982 0.016144661 -0.0041058683 0.004123265
000230 7d b7 9e ba fd 0c 22 ba 1f 60 58 bb 33 6f 28 3a
       -0.0012109127 -0.0006181745 -0.0033016277 0.00064252614
000240 fb 38 af bb b2 5f e8 3a ba d0 54 bc 94 30 67 3b
       -0.005347369 0.0017728715 -0.012989217 0.0035276758
000250 38 84 4a 3a 48 29 07 bc 58 11 2d bb b1 14 a8 ba
       0.00077253906 -0.008249588 -0.0026408043 -0.0012823549
000260 2d ef 42 ba f0 74 6a 3b 27 ac d3 3b 39 7d 92 3b
       -0.00074361527 0.0035775267 0.006459731 0.004470494
000270 be cf 55 39 ec 5c a6 ba 76 3e 88 ba 4a 19 6a bb
       0.00020390653 -0.0012692488 -0.0010394591 -0.003572064
000280 9e fb 40 3b a5 c0 e3 3b 04 6e 20 3c b6 4e e7 3a
       0.002944685 0.0069504553 0.009791855 0.0017647359
000290 7a 0c 6c 3b 75 f3 27 bb 74 4b 4b bc 8a 36 c1 39
       0.0036018179 -0.002562729 -0.012408126 0.00036852463
0002a0 5b 89 0d 3b 8c 99 85 bb 5d aa 95 3b 6c 53 64 bb
       0.0021596763 -0.004077142 0.004567428 -0.0034839762
0002b0 c7 4b 03 3c 0b 4d b3 ba 29 43 9f 3b 44 c5 ab 3a
       0.008013672 -0.0013679577 0.004860301 0.0013105054
0002c0 e6 b6 e4 bb 0f a3 93 3b d4 5e e1 3a 35 39 51 3b
       -0.006979811 0.004505522 0.0017194399 0.0031924967
0002d0 9a 6f 77 bb 0b 30 7c bb e5 11 d8 ba bf 51 21 bc
       -0.0037755729 -0.0038480784 -0.0016484825 -0.00984615
0002e0 e8 c6 c6 3b 7c 94 cc 3a 56 4d 88 bb bb 5c a2 3b
       0.006066192 0.0015608217 -0.00415961 0.004954902
0002f0 5d f0 ed b9 10 49 ac bb 5a 8c fb 3a 4e 74 8f bb
       -0.00045383247 -0.005257733 0.0019191608 -0.0043778783
000300 4d 5b 49 3a f4 80 09 3b 4d 27 85 3b 0f 71 34 3b
       0.00076811464 0.0020981403 0.004063523 0.0027533208
000310 da e3 87 3b 42 dc fb 3b 00 b2 15 3c f6 19 a2 3b
       0.004147035 0.007686169 0.009136677 0.0049469424
000320 52 e8 5a 3b a0 39 be bb 74 45 2d bb d8 29 e5 3b
       0.0033402634 -0.0058052093 -0.0026439102 0.0069935136
000330 a3 0d 63 bb 0d bf 62 3a 97 60 09 3c 40 76 22 bb
       -0.003464558 0.00086496846 0.008384845 -0.002478972
000340 da 91 37 bb d4 2c 6a 3b 94 d5 20 3b 85 cf 73 bb
       -0.0028010518 0.0035732286 0.0024541365 -0.0037202549
000350 3b 88 bb 3a f6 a0 98 3a 4d c7 8c bb 43 f8 45 3b
       0.0014307568 0.001164465 -0.0042962194 0.003020779
000360 4f 3a 26 bc 03 df 2c 3b 0c 7e d8 3b ec 21 3a bb
       -0.010145738 0.0026378043 0.006606823 -0.0028401567
000370 cc 02 28 3c 6d 99 48 3c 45 75 c7 bb f3 b1 8f 3b
       0.010254573 0.012243611 -0.0060869777 0.004385227
000380 65 2b 28 bb dd d1 86 ba 36 47 ce 39 07 b1 4d bb
       -0.002566063 -0.0010285933 0.00039344438 -0.0031386034
000390 4a b8 9f 3a 6d 60 b0 3b 16 b6 82 3a cf 0d c0 3b
       0.001218566 0.0053825886 0.0009972479 0.005861021
0003a0 a0 e1 94 3b 8e 3a d5 3b 73 c1 ba 3a c9 72 98 3b
       0.004543498 0.0065072244 0.0014248326 0.0046523553
0003b0 86 da 3d 3b f6 bd 41 bb 14 ee 47 ba 00 b3 b2 3b
       0.0028969361 -0.0029562688 -0.0007626724 0.0054534674
0003c0 73 1e 4f 3c 3c 03 09 3b b0 92 04 bc 22 df b3 bb
       0.012641537 0.002090647 -0.008091614 -0.005489246
0003d0 24 d9 3c bb 4d 8f 16 3b 91 e7 fb 3a 9e 03 86 bb
       -0.002881595 0.0022973598 0.0019218792 -0.0040897867
0003e0 35 f5 8c 3a 5a 30 5a 3b d5 0f c5 3b 0a d4 43 3b
       0.001075423 0.003329298 0.00601385 0.0029881024
0003f0 f6 5f ac 3b d6 20 af bb b7 57 b2 bb 89 b5 06 3c
       0.005260463 -0.0053444905 -0.0054425853 0.008221992

network_body._body_endoder.seq_layers.2.weight f4 [256, 256]
000000 cc c8 09 bd 00 ca 86 3d 51 75 a4 bc fc d2 f1 bb
       -0.03363876 0.06581497 -0.020075472 -0.0073798876
000010 31 7a 19 bc 52 64 2e 3d 9e 5c 15 3d d6 02 8c bc
       -0.009367512 0.04257614 0.03646528 -0.017091196
000020 16 97 ca 3c a2 bc 1b bc 93 a7 0d 3a b5 a4 fe bc
       0.024730247 -0.009505423 0.00054036936 -0.031084398
000030 47 d4 59 bd 0d 4d a3 3d 07 01 72 bd 96 35 2b 3b
       -0.05318096 0.07973681 -0.05908301 0.002612447
000040 d5 bb a7 3d ee 97 01 3d 60 d9 fc bc 1a 00 dd 3d
       0.08190123 0.031639032 -0.030865371 0.10791035
000050 a6 87 41 bc cb a6 96 bc fb d9 92 3d f3 81 42 3d
       -0.011812126 -0.01839008 0.07170483 0.04748721
000060 6f b7 99 bd c8 7b 1d bd ac 58 8a 3b 64 d2 b8 3a
       -0.0750569 -0.038448125 0.0042219963 0.0014100787
000070 24 9b 68 bd e1 a9 7b 3c 96 9b d7 3c 17 6c 34 3d
       -0.05678858 0.0153603265 0.026319306 0.044048395
000080 87 a2 f7 3c 01 f6 f7 3a 2a c8 76 bd 64 3f 09 3d
       0.030228866 0.0018917919 -0.060249485 0.03350772
000090 d6 6b aa 3c 88 f4 38 3d 87 8b 29 bd 44 1d a2 3b
       0.020803373 0.04515508 -0.04139283 0.0049473364
0000a0 01 c3 2b bd ce 0a 74 bd 83 dd bc 3d f1 67 8d bd
       -0.041934017 -0.059580617 0.092219375 -0.06904591
0000b0 d0 23 77 bd 85 4e d3 bc 37 e0 06 be 3f 82 7d 3d
       -0.060336888 -0.025794277 -0.13171469 0.06189179
0000c0 ea a5 13 bd 34 5c 21 bd f3 d0 90 3d d2 34 44 bc
       -0.0360469 -0.039394572 0.07071104 -0.011975484
0000d0 d4 ba 55 bd ef dc 89 3d a2 f9 0b 3d 40 a1 60 3d
       -0.052180126 0.06731593 0.034173615 0.05484128
0000e0 4a 5e d1 3c 6a 85 b6 bd 6b 99 1f 3d 7c 4f 89 3d
       0.025557656 -0.089121655 0.03896467 0.067046136
0000f0 45 64 24 bd 65 0b 84 3c 49 4e aa 3b 3a ff b9 bc
       -0.040134687 0.016118715 0.0051973206 -0.02270471
000100 70 a3 c9 bd 7f 38 b1 bd 2e 12 0f bd cc e5 b7 bd
       -0.09845626 -0.08653354 -0.034929447 -0.08979377
000110 80 7d 1e 3c 6a c6 dc bc be 75 41 bd 46 b8 cc bb
       0.009673476 -0.02695008 -0.04723143 -0.006247553
000120 b0 91 db bd 4e f3 8e bd f6 08 16 bc 72 73 61 bd
       -0.10721147 -0.069800004 -0.00915741 -0.055041738
000130 b7 24 06 3d f4 ac 3a bd 1a 7d 6c 3d 3b 03 52 bd
       0.032749858 -0.045575097 0.057736494 -0.051272612
000140 0c 44 30 3d e3 7e 94 bd 52 88 38 3e fc f4 2f bd
       0.043033645 -0.07250764 0.18020752 -0.042958245
000150 ca 57 a8 3d b5 b1 48 3c cc 77 02 3e 4e 24 80 3d
       0.082198694 0.0122494 0.12741011 0.062569246
000160 80 d5 42 3d 02 15 ba bc b2 45 8a 3d 10 58 39 3d
       0.04756689 -0.022715095 0.067515746 0.04525
000170 84 df 61 3d e5 5a 83 3d 02 d9 de bc ba b8 cd 3d
       0.0551448 0.06413821 -0.027203087 0.100449994
000180 8e 8d d7 bb 18 f8 82 3c 3b 95 c8 bc 78 a0 e1 3c
       -0.006578154 0.015987441 -0.024485221 0.027542338
000190 ac e9 35 bd 79 25 68 3d 88 5a e7 bc 70 db 14 3d
       -0.0444123 0.05667636 -0.02824141 0.036342084
0001a0 82 c1 1a 3c 6f bd 08 bd 46 51 d5 3c 33 6c 2f bd
       0.00944555 -0.033383783 0.02603973 -0.042827796
0001b0 3a 1f 37 bd 12 9a 96 3d 2b 6a d2 bd 6b 30 7c bd
       -0.044707514 0.07353605 -0.10274156 -0.061569612
0001c0 50 96 88 bd 87 26 1c 3c 3a 25 cf bc 82 f7 3e bd
       -0.06669295 0.00953067 -0.025286306 -0.04662276
0001d0 5b ba 13 3d 50 d4 a9 bd a4 b5 14 bd 5d 45 1f 3d
       0.036066394 -0.082924485 -0.03630604 0.03888451
0001e0 c8 f6 5a bd 05 e2 25 3d 92 12 e8 bd ea d8 7a 3d
       -0.053458005 0.040498752 -0.11331667 0.06124202
0001f0 0b 7c 35 3d 90 94 25 3d 88 7d c1 3c cd 23 38 bd
       0.04430775 0.040424883 0.023619428 -0.044956017
000200 79 df bd bc d8 fe 8d bc 65 0c 2c bd ff 72 77 bc
       -0.02317785 -0.017333433 -0.042004008 -0.015103101
000210 96 b1 f7 3c 53 1b a2 3d f2 0d f7 bd ad b2 75 3d
       0.030236047 0.07915368 -0.12063207 0.05998485
000220 d7 2e 7f 3d 15 68 c0 bd d7 a6 17 3e 26 b4 ad 3c
       0.06230053 -0.09394852 0.14809738 0.021204066
000230 26 0b 0c 3d 4d f0 1f bd ff 81 92 bc 18 4d dd bd
       0.03419032 -0.039047528 -0.017884253 -0.1080572
000240 93 4a 48 bd 84 90 08 3d 42 f2 83 3d 46 c0 b9 bc
       -0.048899245 0.033340946 0.064426914 -0.022674691
000250 d6 dd 0b 3b a0 54 21 bd d2 73 a6 bc ea 86 d8 bd
       0.0021341941 -0.039387345 -0.0203189 -0.10572608
000260 80 b1 00 3b 1d 86 b6 bd ae 03 32 3c de 7e 67 3d
       0.0019637048 -0.08912299 0.010865135 0.056517474
000270 8e af 04 3d 44 75 e6 bd 6d 6c 1e bd 36 16 14 bd
       0.032393984 -0.112528354 -0.03867762 -0.036153995
000280 3b dd c2 bd b4 e0 6d 3d 94 cb 1e bd d7 60 28 3d
       -0.095148526 0.05807562 -0.038768366 0.04110798
000290 70 02 f5 bd 49 72 49 bc 67 80 c7 3b b1 5f f4 bd
       -0.119633555 -0.012295314 0.006088305 -0.11932314
0002a0 a6 41 44 bd d1 74 63 bb 0b 8c 3d bd 73 ad 8f bd
       -0.04791417 -0.003470708 -0.046276134 -0.07015505
0002b0 ba e9 22 bc c7 6f ee 3c 95 88 e9 3d 24 66 f3 bc
       -0.00994342 0.029106034 0.11403004 -0.02971179
0002c0 9a b9 bb bc 8d a3 81 3d 68 85 e2 3d 6e db 0a 3d
       -0.02291565 0.06330023 0.110606015 0.03390067
0002d0 e4 b2 16 3e 6d 8d cf 3c ca 7f 1b 3d 40 af 27 3d
       0.14716679 0.025335992 0.037963666 0.040938616
0002e0 1b e5 47 bd 5a 10 a6 3d 44 e0 e9 bc 21 ab 81 3d
       -0.048802476 0.081085876 -0.028549321 0.063314684
0002f0 71 b8 91 3c 85 3b d5 bc b5 78 1b be ae aa 37 bc
       0.017788144 -0.026029358 -0.15182765 -0.011210127
000300 a1 a5 89 bc ab b7 9b bb 0d 8a c9 ba 22 20 12 bb
       -0.01680261 -0.0047521195 -0.0015376225 -0.0022296985
000310 8a f5 cc 3d 00 d3 09 3c a9 6e d9 bd 14 47 ea 3c
       0.1000777 0.008412123 -0.1061681 0.028598346
000320 9e a4 16 3e 4a 34 f2 bd 28 af 18 39 5b a2 e9 bd
       0.14711234 -0.118263796 0.000145611 -0.1140792
000330 f1 a4 62 bd e2 97 2c 3e ec d0 d2 bd de 3e 3d 3b
       -0.05533308 0.16854814 -0.10293755 0.0028876583
000340 b3 b1 85 3d b5 a8 9e bd d8 cf 50 bd 39 db 81 3d
       0.06528034 -0.07747022 -0.050979465 0.063406415
000350 43 84 9a bd c6 83 2a 3e 0e 36 37 bd f2 7f 9d b9
       -0.07544758 0.1665183 -0.044729285 -0.000300407
000360 bc e9 a1 bb c8 7b ff bc ae df 9b 3c ba 3c 1f 3d
       -0.0049411934 -0.031186953 0.019027557 0.038876273
000370 4a 47 d4 3c b3 57 9c bd 88 1c 1d 3c 59 61 b6 bd
       0.0259129 -0.07633915 0.009589322 -0.08905286
000380 d7 e9 af 3d 74 f0 b2 3d 87 e9 b3 bb 77 17 ce bc
       0.08589523 0.08737269 -0.005490485 -0.025157673
000390 71 05 0d bc e1 24 3d 3b 56 e1 a8 bc fb ab 17 bd
       -0.008607254 0.0028861093 -0.020615261 -0.037029248
0003a0 95 d2 13 bc 08 8d 45 bd 75 29 90 bd 2a 07 04 3e
       -0.009022375 -0.0482302 -0.07039157 0.12893358
0003b0 c9 8d b4 bd 18 c7 85 3b f7 5d a5 3d 18 4a 05 3d
       -0.08816106 0.0040825717 0.08074563 0.032541364
0003c0 45 44 4d be e7 8b 6f bb 33 95 79 bb 08 57 80 3d
       -0.20045574 -0.0036551894 -0.0038083314 0.062666
0003d0 16 a3 cc 3d 1b e3 f6 bd ce 57 43 be 31 1e b7 3d
       0.09992044 -0.12055036 -0.19076464 0.089413054
0003e0 3e 29 94 bb a0 77 74 3c fe 54 87 3d 1d 13 af 3d
       -0.004521518 0.014921099 0.06608008 0.085485674
0003f0 da 4f f5 bc 46 c6 39 3c 79 59 94 3b d8 6a 21 bc
       -0.029945303 0.011338776 0.0045272675 -0.009852134

network_body._body_endoder.seq_layers.2.bias f4 [256]
000000 79 a5 ee bb f1 e0 b9 ba 19 57 28 bb 91 a8 bd bb
       -0.0072829095 -0.0014181418 -0.002568668 -0.005787917
000010 8d e8 52 bb e3 85 b0 3b 2c 3b 83 ba 8e 42 5a bb
       -0.0032182068 0.0053870543 -0.0010012141 -0.003330383
000020 0f 4f 3e 3c e3 d8 92 3b 60 05 c3 37 6d de 23 bc
       0.011615529 0.0044814213 2.3248314e-05 -0.010001761
000030 0e b7 ca ba e4 09 a5 39 2d 5a 69 3a 34 b5 bd 3b
       -0.0015465932 0.00031478622 0.0008901682 0.0057894234
000040 b3 df a1 3b 9b 05 0c 3c ee 07 d1 ba 77 81 a5 bb
       0.004939997 0.008546258 -0.0015947798 -0.005050834
000050 16 b8 2e bb e4 95 a3 3b e7 57 d5 3a 8d f6 82 3a
       -0.0026660017 0.0049922336 0.0016276807 0.0009991691
000060 30 67 40 3b 9b 8a 0d bb ca 0e 0e 3c f8 81 0d bc
       0.002935838 -0.0021597508 0.008670518 -0.008636944
000070 f9 3a 96 3b af a0 08 3b 0d 25 ff 39 ad 0c 12 3b
       0.004584667 0.0020847728 0.00048664995 0.0022285387
000080 29 1b 59 bb 7c 8e f6 3a c0 5e f7 3a 9e b4 05 bc
       -0.003312776 0.0018810774 0.0018872842 -0.008160738
000090 d4 28 6c ba c2 33 d6 bb 70 ca 43 3c 78 21 bc bb
       -0.00090087694 -0.0065369317 0.01195012 -0.0057412945
0000a0 76 00 5f ba 2e 5a c6 39 ab 1d 72 3b db a8 39 bc
       -0.00085068436 0.00037832692 0.0036943953 -0.011331762
0000b0 d5 64 7d 3b af 44 7e bb 7f b7 92 3a 9a 25 d7 3b
       0.0038664837 -0.0038798263 0.0011193602 0.0065657618
0000c0 03 5b 13 3c 33 59 ad bb 62 2d 88 3b d1 91 14 bc
       0.008993867 -0.0052901744 0.0041558007 -0.009067968
0000d0 48 62 0b 3c 88 5a ab ba c3 32 60 3b 3c 68 05 bc
       0.008507319 -0.0013073245 0.0034209944 -0.008142527
0000e0 11 54 06 3c 06 6e 1e 3c 1f ed 22 3b eb b4 a9 ba
       0.008198754 0.009669786 0.0024860573 -0.0012947595
0000f0 4e e6 ee ba 34 38 05 bb 95 be 98 ba a5 77 9a bb
       -0.0018226595 -0.002032769 -0.0011653478 -0.00471397
000100 77 64 ae bb 54 a6 19 bb 84 2e 80 3b f2 67 ac 3b
       -0.005322035 -0.0023445087 0.003911795 0.0052614147
000110 13 ec 0f bb de ee 1a 3b 98 0b f7 b9 d7 74 5b 3b
       -0.002196078 0.002364091 -0.0004712015 0.003348639
000120 ea 7f 0a bc 6f 21 ac 39 d4 85 db 3b 90 28 d3 bb
       -0.008453349 0.00032831306 0.006699303 -0.0064440444
000130 33 77 36 3a bf d4 fe bb bd 0c bf 3b b8 fc 5d 3b
       0.0006960511 -0.007776826 0.005830376 0.0033872556
000140 d4 19 77 bb 49 0b de ba 75 7c a7 bb 1d b3 14 3b
       -0.0037704604 -0.0016940619 -0.005111272 0.0022689768
000150 60 81 8b bb 10 fe 50 3a 61 45 c6 3b b4 4c 52 3c
       -0.004257366 0.00079724286 0.006050751 0.01283567
000160 c2 ae 68 3b 28 2d 06 ba 3c 1b e3 b9 c7 3e d4 3b
       0.0035504554 -0.0005118423 -0.00043317105 0.00647721
000170 f4 da 00 3b 12 72 2a 39 13 a8 cc 3b a1 32 a3 b9
       0.0019661756 0.00016254958 0.006245622 -0.00031127504
000180 30 99 8e ba 64 a2 7f 3a 57 fa 29 bb 30 2e 16 ba
       -0.0010879394 0.0009751676 -0.0025936568 -0.00057289284
000190 32 59 8d bb a7 76 c0 3b 69 0e 00 3c 88 89 b1 3b
       -0.0043136114 0.0058735195 0.007815936 0.0054180063
0001a0 c7 03 f3 3b 05 48 83 bb 63 30 44 3c 7b 56 c7 ba
       0.007416222 -0.004006388 0.011974427 -0.0015208268
0001b0 c0 05 8c 3b 32 6f d6 3b f5 c5 61 3b 07 7d 8b bb
       0.0042731464 0.0065440172 0.0034450267 -0.004256848
0001c0 62 37 83 3c ab f1 e2 39 77 85 12 3b 02 c4 bf ba
       0.01601762 0.00043286136 0.0022357383 -0.0014630558
0001d0 78 3e 29 ba 06 f7 2c 3a 6a 64 79 bb e8 93 b8 3a
       -0.0006456147 0.00065980887 -0.0038054236 0.0014082165
0001e0 e7 4c ef 39 8f 27 b4 3b e8 53 99 3b cc fc e1 ba
       0.0004564293 0.00549788 0.004679192 -0.0017241477
0001f0 7d 80 d2 3b 59 51 0c bc 71 8a 09 3a 1d cd 87 3a
       0.0064240084 -0.008564317 0.00052467646 0.0010360811
000200 c1 6a d5 3b 14 87 58 3c 1e ae 22 ba 3a a1 ee b9
       0.00651297 0.013215799 -0.0006205755 -0.0004551502
000210 80 98 c9 bb 6e ba 8f b9 53 0a ee ba 8d 93 13 bc
       -0.0061522126 -0.00027413986 -0.0018161036 -0.009007347
000220 df d7 cd 3b 31 55 5b 3b 47 47 ae 3b 30 fc 94 bb
       0.0062818374 0.0033467526 0.0053185555 -0.0045466647
000230 21 14 a9 bb 0a 4e c9 b9 37 2d 1e 3a 5e 49 b4 bb
       -0.0051598703 -0.0003839585 0.0006033959 -0.00550191
000240 ea f7 1b 3a 90 0a 57 3b e3 9e 50 bb 4e 1e 05 bc
       0.0005949723 0.0032812692 -0.0031832985 -0.008124901
000250 b2 79 7e 3b e3 f0 33 bb de 56 9b bb 70 08 2e 3b
       0.003882986 -0.0027456812 -0.00474058 0.0026555322
000260 cc 1f 23 bc 72 d1 6e 3b 65 f1 2e 3b b3 e0 b8 ba
       -0.009956311 0.0036440757 0.0026694175 -0.0014105052
000270 47 3a 48 bb f9 33 e2 b9 7b 90 20 bb aa 52 00 bb
       -0.0030552314 -0.00043144802 -0.002450018 -0.0019580522
000280 07 e3 dc bb d1 79 07 3b 79 8f a2 bb a7 f6 99 3a
       -0.006740931 0.0020671973 -0.004960951 0.0011746482
000290 03 d4 ca bb b3 6f ad bb 80 2b d9 38 6b 82 73 bb
       -0.0061898245 -0.0052928566 0.00010355469 -0.0037156593
0002a0 03 76 dd ba bc c0 60 3a dc aa 84 3c 8a c0 0a bb
       -0.0016896132 0.00085736415 0.016194753 -0.002117189
0002b0 36 25 bb 3b 5f 29 f5 3b 62 68 d1 3b c6 98 14 3b
       0.005711223 0.0074817385 0.006390617 0.0022674068
0002c0 76 3b ff b9 43 da 4b 3b 49 d3 4f bb 2c 27 d5 3a
       -0.00048681692 0.0031105436 -0.003171163 0.0016262284
0002d0 18 b4 2b bb ac c2 8c 3b ca b0 78 bb a0 2d 8d 3b
       -0.0026199874 0.0042956676 -0.0037947171 0.0043084174
0002e0 a2 9d a3 3b 4d ab 8d 3b 4c 87 aa bb 16 ed ce bb
       0.0049931565 0.004323399 -0.005204117 -0.006314884
0002f0 79 9c ec bb 3c 31 b2 ba 92 5d 5e bb 91 d4 ae 3a
       -0.0072208014 -0.0013594995 -0.0033930284 0.0013338496
000300 99 d9 08 3c db 2b 26 3c 9a 38 7d 3b ec 88 d0 ba
       0.008352661 0.010142292 0.0038638473 -0.0015909947
000310 01 48 53 bb 02 a3 de ba 64 44 a7 bb de b2 03 bc
       -0.0032238963 -0.0016985836 -0.0051045883 -0.008038251
000320 41 84 b9 bb 81 38 db 3b cd 28 22 3c 94 10 2b bb
       -0.005661518 0.0066900854 0.009897423 -0.002610241
000330 88 71 b4 bb 27 96 ee b8 fb 7f 0c 3c 01 1e 84 bb
       -0.005506698 -0.000113766924 0.008575435 -0.004031897
000340 37 03 0d bc cd 9d 3f bb 57 f2 b1 ba 76 f6 8c ba
       -0.0086067235 -0.0029238344 -0.0013576251 -0.0010754603
000350 1c 4f 04 39 41 7c c2 bb 49 b8 e0 3b 27 3f 3c bc
       0.00012617972 -0.0059352224 0.006857906 -0.011489666
000360 17 28 b9 39 2d 6f 2e 3c 8a fc ce 38 0b 9f ba 3b
       0.0003531582 0.010646624 9.8698845e-05 0.005695229
000370 43 99 d4 ba f1 61 2b 3c e0 11 a6 3a 05 cd 84 3a
       -0.0016219992 0.010460363 0.0012670122 0.0010131901
000380 cb c4 12 3b be 48 18 3c e9 65 95 3b fe 17 8f ba
       0.002239513 0.009294687 0.004559268 -0.0010917184
000390 3a c3 32 3a 03 29 91 bb a0 0d 09 bb 8c 3c ec 3a
       0.0006819252 -0.004429938 -0.0020912662 0.0018023415
0003a0 fa a6 2d 3c 99 c0 28 3b 94 49 8b 3b 5b ad be bb
       0.010598892 0.0025749563 0.0042507146 -0.0058190054
0003b0 8e 4a 34 3b 01 7e 9d 3b a5 7f be 3b 55 f7 fc 3b
       0.0027510258 0.0048062806 0.0058135563 0.007719914
0003c0 6e 47 8e 3a 9d b2 07 3c 00 8d a4 3b 11 1a 65 ba
       0.0010855028 0.008282331 0.0050216913 -0.0008739541
0003d0 d2 0b 73 bb 93 f4 c9 3b 31 9e 01 bc f1 5d f3 ba
       -0.0037085903 0.0061631887 -0.007911251 -0.0018567425
0003e0 eb d8 9d 3b 75 8a bd 3b 1d 3f a9 ba 51 64 2c bc
       0.0048171184 0.0057843276 -0.0012912486 -0.010521964
0003f0 34 f7 3a bb a1 76 02 bc fe e0 59 3b b1 07 09 3c
       -0.0028528692 -0.007962854 0.0033245678 0.00836365

network_body._body_endoder.seq_layers.4.weight f4 [256, 256]
000000 7b 84 a8 3d 9f 1d d2 3d c2 ec 9b 3d 99 d9 ae bb
       0.08228394 0.10259556 0.07613517 -0.0053359983
000010 f6 2d 5d 3d 12 61 c5 bb 77 19 43 bc 53 0d f3 3d
       0.05399891 -0.0060235346 -0.011907927 0.11867776
000020 aa 54 78 3d 26 44 4a bd 88 64 13 3d d4 80 9d 3d
       0.060627617 -0.049381398 0.035984546 0.07690588
000030 8d ae ae 3c 68 23 26 3d 38 b1 1e bd 0d f5 ce bd
       0.021323467 0.04056111 -0.038743228 -0.101053335
000040 26 3d 7d bb 7a ae e1 3d d0 a8 d6 3d 7e 3b 5f bd
       -0.0038641184 0.11019607 0.10481417 -0.054500096
000050 52 23 1f 3c 07 90 0c be dd 81 1a bd f9 39 7e bc
       0.009713011 -0.13726817 -0.037721504 -0.015516751
000060 2d 43 86 bd f8 cf 1f 3e a0 42 84 3c 67 9e 01 3e
       -0.065557815 0.15606678 0.01614505 0.12658082
000070 f3 ab a4 3d e7 dc ef 3b 0e 75 47 3c 70 5e ce bd
       0.08040609 0.007320035 0.012173904 -0.10076606
000080 00 6e 09 bd 09 6f c9 bc ed 5e 5d bd 5b d6 3d 3d
       -0.03355217 -0.024589079 -0.054045606 0.046347003
000090 2a 9d aa 3d 59 b0 02 3e 14 4f d5 bb 01 f8 f5 3d
       0.08330758 0.12762584 -0.006509671 0.120101936
0000a0 26 f7 5c 3d c4 9b 84 bb 38 26 2b bd 47 81 e4 3d
       0.053946637 -0.004046889 -0.041784495 0.1115747
0000b0 f4 0c 9a 3c f0 8e 1d 3c d6 05 91 bd 84 31 f8 bd
       0.018805005 0.0096165985 -0.07081191 -0.12118819
0000c0 c9 7a 9b 3c b4 d6 8f 3d 05 0f 45 bd cb 6e 83 bd
       0.018979447 0.07023373 -0.048110027 -0.064176165
0000d0 02 d2 2c 3d 8c e2 c8 3d 6e 37 5f 3d 8a 40 a9 bb
       0.042192467 0.098088354 0.05449622 -0.0051651644
0000e0 c2 7d 57 3d ad e8 4a 3c e9 5b a1 bd 54 6d 7c bc
       0.052610166 0.012384576 -0.078788586 -0.015406925
0000f0 6e ad 2c 3d cc 0c f2 37 60 2a 09 bc 5f ae 85 bb
       0.042157583 2.8854607e-05 -0.008371919 -0.0040796245
000100 c6 b5 a8 3a 84 a2 cb bc 83 5a cd 3c 41 d7 8a bd
       0.0012871556 -0.024857767 0.025067573 -0.06779338
000110 ff 38 34 bd ae 33 d2 bc 96 4a c8 bc f8 7f da 3b
       -0.04399967 -0.025659408 -0.024449628 0.006668087
000120 49 e8 92 3c 93 0f 2a 3b 26 44 3b bc 08 28 ae bc
       0.017933028 0.0025949224 -0.011429822 -0.021259323
000130 40 de 39 be f0 14 02 bd 4f b2 21 bd a5 db cd bd
       -0.18151188 -0.03175825 -0.03947669 -0.100516595
000140 c8 08 1a bc 44 23 df 3c db 2d 2d 3e 6a 4d 67 bd
       -0.009401508 0.027238496 0.16912024 -0.056470312
000150 8d 1e 1f bd 82 44 eb bc 53 c1 1a 3d 68 e2 e7 3c
       -0.038847495 -0.02871919 0.037782025 0.028306201
000160 2e 86 77 3c 0f bc b2 bd 71 24 e2 3d 1d 02 b1 3d
       0.0151076745 -0.087272756 0.11042107 0.08642981
000170 8f 59 49 bd df f7 cb 3d b8 6a a1 3c 36 51 bd 3d
       -0.049157675 0.09959387 0.019704208 0.092440054
000180 3a 1a c9 bc 32 90 a4 bc 08 13 aa bb 45 0f 11 3c
       -0.024548639 -0.020088289 -0.005190257 0.008853738
000190 1b b7 82 bd 9a f3 b5 bd 06 ea c1 3d 8c 60 f7 bd
       -0.06382581 -0.08884354 0.094684646 -0.12078962
0001a0 b7 84 a6 3c b7 5c 2f bc fe 77 21 3d 94 8f 3b bd
       0.020326955 -0.010703257 0.039421074 -0.045791224
0001b0 f3 2c 93 bd c6 ef 1a 3d a6 b3 85 3d 0e 3b 0a bd
       -0.07186308 0.037826322 0.06528406 -0.033747725
0001c0 b0 f4 b7 bd e5 28 85 3d 36 8e 40 bd 9c 1b b2 3c
       -0.08982217 0.06501941 -0.047010623 0.02174168
0001d0 14 20 e7 3c 10 c6 30 3c a6 fa 62 3d 35 57 74 3c
       0.028213538 0.010789409 0.05541482 0.01491337
0001e0 56 a7 85 3c 89 fc 23 3d a8 5c 3b 3d 0b a6 53 3d
       0.016315144 0.04003576 0.04574266 0.051672023
0001f0 e7 16 24 be fb 69 02 bd aa 27 d9 bb 26 c9 af 3b
       -0.16024362 -0.031839352 -0.006627043 0.005364555
000200 7e d6 91 bc a3 ac 8a 3d b9 53 ab bd 87 08 8e bd
       -0.017802473 0.06771209 -0.08365578 -0.0693522
000210 5d 86 a0 bd 25 bf 1e bd 54 cf 37 be 0f 58 4d bd
       -0.07838128 -0.03875651 -0.17950183 -0.050132807
000220 a1 aa b3 bc a1 3c 99 3d 67 41 9d 3c 9f 97 b7 3d
       -0.021931948 0.07482267 0.019196225 0.08964466
000230 80 4a a9 3d 69 a4 ce bc 2e c6 a2 bd bd ed 24 bd
       0.08266163 -0.025224881 -0.07947956 -0.040265787
000240 c7 f5 85 bc 62 3f c3 bd a7 cc 02 bd 55 6b 2d bd
       -0.016352547 -0.09533574 -0.031933453 -0.042338688
000250 a4 28 96 bc 85 6a c6 3c a2 5b d1 bc 3a 2d 3e bd
       -0.018329926 0.024220714 -0.02555639 -0.04642985
000260 9d d1 28 3d 57 d6 02 3b 52 38 25 3d eb 9a d5 bc
       0.041215528 0.0019964182 0.040336914 -0.026074847
000270 d1 63 2d bd 4e 46 89 3b 00 1b 57 3d e5 16 9e bd
       -0.04233152 0.004189289 0.052515984 -0.077192105
000280 1d 76 55 3c ab 40 6d 3c 32 bc 64 3b b3 20 87 bd
       0.013028649 0.01448075 0.0034902212 -0.06598034
000290 a5 bc 16 bd b7 c1 5a bd 34 26 33 bd 2b 5c 80 3d
       -0.036801 -0.053407397 -0.043737605 0.0626758
0002a0 a2 32 14 bd 38 5a b0 bc 4c 9a bb 3d e7 c8 ae 3d
       -0.0361811 -0.021527395 0.09160289 0.08534413
0002b0 3e 97 62 3c 9b a8 69 bd 0a 26 ea 3c 61 2d 6c bc
       0.013830004 -0.05704556 0.028582592 -0.014415116
0002c0 4d ec b9 3c 60 6f d4 bd d1 f8 5f 3d 45 54 d3 3d
       0.022695685 -0.103728056 0.05468065 0.103188075
0002d0 a4 cf 59 3b 34 41 32 bd 12 41 b4 bc c6 a9 62 3d
       0.0033235336 -0.043519214 -0.022003684 0.05533769
0002e0 bd 8d e8 3d 66 47 18 3d 2d e0 8a 3b fb b1 33 3d
       0.113551594 0.037177466 0.0042381496 0.043870907
0002f0 9b 87 1d bd 88 d1 7d bd 74 35 f2 3c c1 1e a0 bd
       -0.0384594 -0.061967403 0.029566504 -0.07818366
000300 77 63 f7 3c 24 7e 92 3d e7 88 6c 3d a0 16 5b 3d
       0.030198796 0.07152966 0.057747748 0.053488374
000310 e1 74 e2 bb 8b 3a 5e 3d 86 1e d6 3c 8e bd e7 3d
       -0.0069109057 0.05425505 0.026137602 0.113154516
000320 40 32 96 3d c6 71 ce bb 68 9d 9f bd 10 b3 99 3d
       0.07333803 -0.006300184 -0.07793695 0.075048566
000330 91 a5 32 bd 31 d2 10 bd 33 63 cb bb 55 2c 9e 3c
       -0.043614928 -0.035356704 -0.006206894 0.019308249
000340 2f e7 83 bc a3 9a f2 3c 96 fe a9 bd 5b 16 60 3d
       -0.016101448 0.029614752 -0.083005115 0.05470882
000350 ac bb 8f 3d 7f 93 31 bc 07 e0 9d bd 2f 1e 84 bd
       0.070182174 -0.010838388 -0.077087454 -0.064510696
000360 ea fb aa bd a7 30 a7 bc 3f 10 1e bd 4a 9f a3 bc
       -0.0834883 -0.020408941 -0.038589712 -0.019973416
000370 f1 ea 4b bd 96 8d c0 bd 8a 02 39 3d 3f c4 7b 3d
       -0.049784604 -0.094020054 0.045168437 0.06146645
000380 37 df 22 bd a7 fc 97 bc 8f 10 ea 3d 3e ab 8e bc
       -0.039763656 -0.018553091 0.114289396 -0.017415639
000390 1a 3c 9e bd 9b 90 b7 bd e9 7a 8a 3d d8 cb 8d 3c
       -0.07726307 -0.08963128 0.067617245 0.017309114
0003a0 57 9d 93 bc 86 0d 3c 3d a1 25 51 bd f1 41 39 bd
       -0.018019361 0.045911334 -0.051061276 -0.045228902
0003b0 41 d6 e3 bd 81 d5 94 bd 48 7c cf bd fd 87 37 bc
       -0.1112485 -0.07267285 -0.10131127 -0.011201856
0003c0 1b 4b 3b bd 41 9f 53 3d 4b fd 75 bd 6e 9f 06 bb
       -0.045725923 0.05166555 -0.060056012 -0.0020541805
0003d0 b0 b3 8f bd e4 59 d0 3d 6e 0b 8d 3d 80 87 87 3d
       -0.070166945 0.10173395 0.06886946 0.066176414
0003e0 2e 7e 01 bd fa de 10 bd e3 88 1d bc 52 3a 87 bd
       -0.031614475 -0.035368897 -0.009615156 -0.066029206
0003f0 8f bf f5 ba 85 83 89 bd 77 af 4c 3d 31 d3 0c 3b
       -0.0018749106 -0.067145385 0.049972024 0.0021488185

network_body._body_endoder.seq_layers.4.bias f4 [256]
000000 02 9b 36 bc 37 a5 17 3b fa e7 10 bb 1a ff d3 bb
       -0.011145355 0.0023139247 -0.0022110925 -0.0064696195
000010 b5 7a 42 bb 8a 0b 14 bb 9e 05 df 3b c4 68 03 bc
       -0.002967519 -0.0022589886 0.0068060895 -0.008020584
000020 e4 77 0f bc dc 58 0e 3c fd ba ad bb fb c1 11 3b
       -0.0087566115 0.008688178 -0.0053018318 0.0022240866
000030 6e ed cc ba 7b d0 58 bb 7a a8 11 bb 09 4c f5 bb
       -0.0015634724 -0.0033083248 -0.0022225664 -0.0074858707
000040 81 a7 cb 39 12 d9 de 39 a2 ea b4 bb 88 c6 51 bb
       0.00038843977 0.0004250487 -0.0055211345 -0.0032009203
000050 90 72 5d 3b ce 76 0d bc 50 5a 89 ba 6f 56 f5 bb
       0.0033790208 -0.008634282 -0.0010479186 -0.0074871103
000060 02 5e b2 3b 90 73 f8 bb e3 7e 17 bb b4 1a 78 bb
       0.0054433355 -0.0075821355 -0.0023116402 -0.0037857713
000070 f5 5c a6 bb 6b e7 35 bb dc 59 aa 3a ca 04 c1 b8
       -0.0050769993 -0.0027756344 0.0012996751 -9.203849e-05
000080 b0 b2 b9 bb 65 b1 d4 3b cf 80 ed bb 7f 24 fd 3b
       -0.005667053 0.0064908736 -0.007248021 0.007725298
000090 53 68 d3 bb 70 23 ed 3a c8 c9 f0 3b ae 97 9c ba
       -0.0064516454 0.0018092226 0.007348273 -0.001194706
0000a0 ce 1e de 3b aa 4b aa b9 00 07 1c bb 8e 4b 1c bb
       0.0067785745 -0.000324813 -0.0023807883 -0.0023848745
0000b0 b9 ea 1c ba 2c 85 27 3c db 39 28 3b 02 83 8b bb
       -0.0005985904 0.010224622 0.002566925 -0.0042575607
0000c0 23 0e 6a bb 8a 51 86 bb 9e d8 d5 ba 87 dd 0f 3b
       -0.0035713993 -0.0040990757 -0.0016315167 0.002195211
0000d0 44 7b 10 3c 30 69 d3 bb 53 60 18 ba e6 0f e8 3a
       0.008818451 -0.0064517483 -0.0005812693 0.0017704933
0000e0 11 e2 fb bb 90 01 df ba 3c f2 21 bb 5e 4c 88 ba
       -0.0076868613 -0.0017014015 -0.0024711033 -0.0010398736
0000f0 f8 c8 22 bb 56 f3 c2 3b c7 40 8c bb fe 4c ea 3b
       -0.0024839025 0.005949418 -0.004280183 0.0071502915
000100 60 54 f5 3b 10 27 95 3a c0 a1 a8 ba d8 d3 96 3b
       0.007486865 0.0011379439 -0.0012865588 0.0046028905
000110 fd 9d 02 bc 9a b8 9d b9 83 e0 3c 3b c9 91 1e 3b
       -0.007972238 -0.00030082912 0.0028820343 0.0024195781
000120 c8 05 89 bb 3d 1f 70 bb 2b 68 65 3b cf 3c 26 ba
       -0.0041815974 -0.0036639713 0.0035004716 -0.00063414586
000130 10 0c 12 bc b2 86 15 ba b0 a0 65 bb 99 4e 0b bc
       -0.008914009 -0.000570397 -0.0035038404 -0.008502626
000140 5b 1e 07 bc 7c c2 8a bb 2f 67 8c 3a 7e 82 b1 bb
       -0.008246983 -0.00423461 0.0010711903 -0.005417167
000150 a0 a4 7a bb dc e4 85 3a bc c2 f1 3b 75 54 14 bb
       -0.0038245097 0.00102153 0.0073779505 -0.0022633348
000160 7f 7a 80 bb 3c cb 71 39 98 25 f0 39 fd cc 6e ba
       -0.0039208527 0.00023059262 0.00045804377 -0.0009109525
000170 4a ca c4 bb 23 5c de 3b 33 aa 3c bb 3c f3 08 3c
       -0.00600556 0.006785886 -0.002878797 0.008358773
000180 7a 36 81 3a a4 1e c8 39 1c 0c d7 3a 83 d9 35 3b
       0.0009858154 0.00038169802 0.0016406807 0.0027748055
000190 7b 26 9c bb c2 62 99 3b c5 a2 af 3a fe 71 9f bb
       -0.0047653294 0.0046809623 0.001339995 -0.004865884
0001a0 40 c3 69 3b 18 20 f6 ba 95 d9 2f 3b d4 9b 10 bc
       0.0035669357 -0.0018777875 0.002683257 -0.008826215
0001b0 cc f1 0d 3b d1 c4 7e bb 10 54 03 3b 5b 5f 11 bb
       0.0021659015 -0.0038874636 0.0020039119 -0.002218208
0001c0 15 d7 da bb 49 9e 5a ba 3e b8 5d 3b f4 e9 8f ba
       -0.006678472 -0.00083396264 0.003383174 -0.0010979758
0001d0 a6 3c 87 3b ca 27 59 3b b9 9d 03 bb 9b fb aa bb
       0.004127103 0.0033135288 -0.0020083024 -0.005217982
0001e0 45 92 32 bb e7 f7 09 bc b9 3b 06 3b f4 db 9d bb
       -0.0027247828 -0.008420921 0.0020482375 -0.00481748
0001f0 ee 25 69 ba f5 f9 e4 bb cf 45 ff 3b fa 80 f4 bb
       -0.00088938966 -0.006987805 0.0077903043 -0.0074616643
000200 1c 8f ab 3b 7d 06 80 bb 0f b6 75 3a f0 14 2e bc
       0.005235566 -0.0039070235 0.0009373137 -0.010625109
000210 4e a6 a0 3b 99 9a 08 bc 46 81 26 38 95 94 5b 3b
       0.0049026376 -0.00833764 3.969788e-05 0.003350531
000220 80 fd e3 bb 5a 7e 88 ba 8e 7c 02 3c 8c cd 70 3c
       -0.00695771 -0.0010413632 0.007964266 0.014697444
000230 b2 42 dd 37 d9 36 db 3a 5b fb 1f 3b 9d f4 45 3a
       2.637631e-05 0.001672472 0.0024411294 0.0007551404
000240 fd 55 84 3b 7d 47 ad 3b f2 5b 09 3a 43 67 15 3b
       0.004038571 0.005288063 0.0005239836 0.0022797144
000250 fd 5e c8 3a d4 4e b6 ba 30 5d 66 3b a9 95 2c 3b
       0.0015287098 -0.0013908991 0.003515076 0.0026334322
000260 4c a7 ac 3a fe 30 a1 3b e0 96 04 3b 68 41 51 bb
       0.0013172417 0.0049191704 0.002023153 -0.0031929854
000270 0b 47 78 3b 0a 18 89 ba a3 ba 49 3b d9 8d 08 bb
       0.0037884142 -0.0010459435 0.003078141 -0.00208365
000280 86 a3 ee 3b 8f 24 d9 3a 46 8c ca ba 54 56 30 3b
       0.007282677 0.0016566681 -0.0015453182 0.0026906924
000290 a7 d8 0e bb b8 ec 81 b9 63 96 5d bb 0f 40 df bb
       -0.0021796615 -0.00024781167 -0.0033811561 -0.0068130563
0002a0 17 d8 ac 3b 87 8f f0 3b 11 1d f1 bb b7 5b d7 3b
       0.0052747834 0.0073413285 -0.0073582013 0.0065722126
0002b0 be bc 11 3b 0f 5d 53 3b b2 d0 a9 3b 5c f5 b1 bb
       0.0022237743 0.0032251512 0.005182349 -0.0054308604
0002c0 e2 80 a5 bb fa e6 8b bb 61 9e 29 3c 07 ff c0 bb
       -0.0050507644 -0.004269478 0.010352702 -0.0058897766
0002d0 10 13 b0 3b f2 e6 05 bc fe c8 80 3b 28 74 9f 3a
       0.005373366 -0.008172737 0.00393021 0.0012165355
0002e0 d8 7d 7b bb ba 09 dd 3b 4b 30 b3 3b 50 d0 19 bc
       -0.003837457 0.0067455443 0.0054684035 -0.0093880445
0002f0 26 03 39 3a b8 a1 5c 37 d8 7b 2e 3c 9d 19 05 3b
       0.0007057659 1.3150675e-05 0.010649644 0.0020309456
000300 3f fc d9 3a 2b 80 b4 3b cc c2 e3 b7 51 12 8a 3b
       0.0016630961 0.005508443 -2.7151218e-05 0.0042136093
000310 8c ee b5 bb e1 17 a0 3a 51 86 02 3c 99 56 4e 3b
       -0.0055521186 0.0012214148 0.007966594 0.0031484722
000320 83 e6 a5 ba ee ef 92 bb 9a ce e5 3b c0 a6 d4 bb
       -0.0012657199 -0.0044841683 0.007013154 -0.0064896047
000330 20 c1 80 39 bc b2 e8 3b 91 dc 1a ba 68 65 74 ba
       0.00024557952 0.007101385 -0.0005907501 -0.0009322972
000340 f0 ee f3 b9 8c 79 10 bb 43 49 9f 3a 7f 29 1f 3b
       -0.00046526594 -0.0022045104 0.0012152571 0.0024286208
000350 0e 48 29 bb 20 69 e7 3b 20 6a 34 3b 7d e5 3e 3b
       -0.0025830301 0.0070620924 0.0027529076 0.0029128485
000360 57 81 a7 3a 46 17 9b 3a 40 bf 34 bb 9b 95 01 3b
       0.0012779635 0.0011832498 -0.0027579814 0.001977301
000370 22 87 6f bb 92 be 99 3b a7 29 2e 38 df 7e fc ba
       -0.0036549051 0.004691907 4.1523625e-05 -0.0019263885
000380 94 c7 47 bc ff 4e 05 3b 26 a7 b6 bb f3 b5 d3 3b
       -0.012193579 0.0020341275 -0.005574125 0.006460899
000390 7d 13 50 3b 7f 53 3e 3b 73 e6 dc 3b bb 87 83 ba
       0.0031749897 0.0029041467 0.006741339 -0.0010034958
0003a0 f4 35 c8 3b db 5d ff 3a 3b 0c b2 ba 8b e8 8d 3b
       0.0061099473 0.0019482927 -0.0013583967 0.0043307
0003b0 1c 75 56 39 67 3c d8 3a 6a fe ff ba 75 ac cc ba
       0.00020452257 0.0016497493 -0.0019530777 -0.0015615361
0003c0 83 e4 fc bb 98 96 af 3a b7 39 0c 3b 25 e5 36 3b
       -0.0077176704 0.0013396321 0.0021396705 0.0027907577
0003d0 c2 15 bf 3a 1a 78 cd 3a 0f d4 b5 bb b8 cd 20 ba
       0.0014578628 0.0015676052 -0.005548961 -0.000613417
0003e0 f3 72 e7 39 41 bf ae bb 73 01 45 b9 a8 8b 45 3b
       0.00044145397 -0.005332858 -0.00018787924 0.0030143056
0003f0 64 ea b0 3a d6 fa 8d bb 16 87 01 bc 6e a3 51 bb
       0.0013497588 -0.0043328805 -0.007905742 -0.003198828

action_model._continuous_distribution.log_sigma f4 [1, 6]
000000 0e 48 f9 bb f7 54 5d bc 66 bc e6 ba 19 de 2a bc
       -0.0076074665 -0.013509027 -0.0017603755 -0.010428929
000010 dc 9f 5b bc 02 99 45 bc
       -0.013404813 -0.012060406
