results/NearSingularity03/NearSingularity/NearSingularity-0.onnx (onnx, 621844 bytes, 7 tensors)

network_body._body_endoder.seq_layers.0.weight f4 [256, 85]
0	0xbda2632c	-0.07929072
1	0xbd0b3fe1	-0.033996467
2	0x3e82b582	0.25529104
3	0xbd44bc56	-0.048031174
4	0xbd89da01	-0.06731034
5	0x3d260b60	0.04053819
6	0xbcf055ad	-0.029337728
7	0x3d7ac7b1	0.061225597
8	0x3db3a05d	0.08770821
9	0x3e566599	0.20937194
10	0xbdd9feae	-0.106442794
11	0xbde0a0d2	-0.10968174
12	0xbc7ff260	-0.015621752
13	0x3d492444	0.04910685
14	0x3ccd95a8	0.025095776
15	0x3ddb4c5e	0.10707925
16	0x3c3eff62	0.011657568
17	0x3e995dc4	0.2995435
18	0xbdb3519d	-0.08755801
19	0x3d0c66e2	0.034277804
20	0xbe6d3922	-0.23166326
21	0xbd8eb6bb	-0.06968447
22	0x3cb5c5f5	0.02218912
23	0xbe792b18	-0.24332845
24	0xbe40a777	-0.18813883
25	0xbe4025bf	-0.18764399
26	0xbbbb2aa3	-0.00571187
27	0xbc85b874	-0.016323306
28	0xbd8d34cc	-0.06894836
29	0x3daef9ba	0.08543725
30	0xbe3d331d	-0.1847653
31	0x3cb18412	0.021669421
32	0x3e1a8d89	0.15093054
33	0xbdb89cbe	-0.09014271
34	0x3da224d3	0.0791718
35	0xbdafea9b	-0.08589669
36	0x3deda37c	0.11603448
37	0x3c77a443	0.015114847
38	0xbd916675	-0.0709962
39	0x3e29ac69	0.16569676
40	0x3d85dec4	0.0653663
41	0xbd91d902	-0.07121469
42	0x3d59e357	0.053195324
43	0x3ddbb223	0.10727336
44	0x3db905a5	0.0903428
45	0x3d66b433	0.056324195
46	0xbd1fcd93	-0.03901441
47	0x3e2db6e6	0.16964301
48	0x3de20839	0.110367246
49	0xbd9ba751	-0.076002724
50	0xbe21fa34	-0.15818101
51	0xbd98aaa4	-0.07454422
52	0x3d7f2758	0.06229338
53	0xbd89d9c0	-0.06730986
54	0xbe1a884a	-0.15091053
55	0x3d1013de	0.035175197
56	0xbd626f0c	-0.055281684
57	0xbdb50006	-0.08837895
58	0x3cde6d9e	0.027151879
59	0xbd39d3f7	-0.04536816
60	0x3d884164	0.06653097
61	0x3d33db8b	0.043910544
62	0xbdabdc1a	-0.083915904
63	0x3e51e5c4	0.20497805
64	0x3d69d28d	0.057085562
65	0x3ddc6866	0.107621
66	0xbe1fc6b1	-0.15603139
67	0x3dfdade2	0.12386681
68	0xbdd767af	-0.10517823
69	0x3d138788	0.036017925
70	0xbdb130c0	-0.086518764
71	0xbd334c5d	-0.043773998
72	0xbd80435b	-0.06262847
73	0x3e31edf6	0.17375931
74	0x3e4c3dfd	0.19945522
75	0x3e065cc3	0.13121323
76	0x3e121f90	0.14269853
77	0x3e830636	0.25590676
78	0x3c0a496e	0.008440359
79	0x3d3a412d	0.045472313
80	0x3dc094fd	0.09403417
81	0x3d94bfac	0.07263121
82	0xbdbfebbf	-0.09371137
83	0xbdc87b91	-0.097891934
84	0xbd73ab45	-0.059489507
85	0xbdace0bb	-0.084413014
86	0xbe01125d	-0.12604661
87	0x3da20189	0.07910449
88	0xbcce9ed2	-0.025222216
89	0xbe007ac5	-0.12546833
90	0xbda76c6b	-0.08174976
91	0xbde793bf	-0.11307477
92	0xbc5a66c8	-0.013330169
93	0xbe49f17f	-0.1972103
94	0xbc6beee1	-0.014400215
95	0x3da03b9b	0.07823869
96	0x3e0e13fa	0.13874808
97	0x3de0aacb	0.10970076
98	0xbb30143b	-0.0026867527
99	0x3d2efd74	0.04272218
100	0xbcf8554c	-0.03031411
101	0x3e0f37e2	0.13986161
102	0x3dad714f	0.084688775
103	0x3d24d5a0	0.04024279
104	0x3dcdb84f	0.1004492
105	0xbe6238b1	-0.22091939
106	0x3e655e28	0.22399199
107	0xbd5c8b39	-0.05384371
108	0xb95c1fe8	-0.00020992721
109	0xbd9402ed	-0.072271205
110	0x3c1d2cf1	0.009593234
111	0x3c2add7f	0.010428785
112	0xbdddbec0	-0.10827398
113	0x3d41ba2e	0.047296695
114	0x3da0b613	0.07847228
115	0xbdc82eea	-0.09774573
116	0xbc374236	-0.0111852195
117	0xbe043779	-0.12911786
118	0xbdc47875	-0.09593288
119	0xbd9c25a6	-0.07624368
120	0x3d0734b0	0.03300923
121	0x3e2cb40c	0.16865557
122	0x3e123fe7	0.1428219
123	0xbe153f51	-0.14574935
124	0xbd2a5149	-0.041581426
125	0xbd8c9c56	-0.06865756
126	0xbe137036	-0.14398274
127	0x3cb6a5ed	0.022295916
128	0xbb739e03	-0.003717304
129	0xbe1ca1b6	-0.15296063
130	0xbd966be0	-0.07344794
131	0x3d42e31c	0.04757987
132	0xbb816f79	-0.003950056
133	0x3ced66ad	0.028979624
134	0x3d956d40	0.072962284
135	0x3c3325de	0.010934321
136	0xbe9564e3	-0.29178533
137	0x3cd29516	0.025705855
138	0xbd8a514e	-0.06753789
139	0xbbe71220	-0.007051721
140	0x3ac00612	0.0014650247
141	0xbe55d7af	-0.20883058
142	0xbd3ece80	-0.046583652
143	0xbdec57ff	-0.115402214
144	0xbe181f5b	-0.14855711
145	0xbdc6ba03	-0.09703448
146	0xbbc7e160	-0.006099865
147	0x3da31dda	0.07964678
148	0xbd9c917b	-0.07644936
149	0xbe4741a2	-0.1945863
150	0x3d7a1194	0.06105192
151	0xbda8ed5d	-0.082483985
152	0x3d584df4	0.052808717
153	0xbdebab8c	-0.11507329
154	0x3e4e2f33	0.20135193
155	0x3dc831df	0.09775137
156	0xbdbf3c9a	-0.09337731
157	0xbdcd7b47	-0.10033279
158	0x3d20555e	0.039143912
159	0x3b8f2007	0.0043678316
160	0xbd377f57	-0.044799175
161	0xbd746a92	-0.059671946
162	0xbdcbde0e	-0.09954463
163	0x3c584e90	0.0132023245
164	0xbbddc927	-0.006768364
165	0xbd413375	-0.047168214
166	0x3e078814	0.13235503
167	0x3db118bf	0.08647298
168	0xbd2d968d	-0.042379905
169	0x3e06829e	0.13135764
170	0x3e14aa31	0.14518048
171	0xbd0fed5e	-0.03513848
172	0xbd924600	-0.07142258
173	0xbe0b14af	-0.13582109
174	0x3df06b94	0.11739269
175	0xbd0419bf	-0.032251116
176	0x3ce4b06a	0.027916152
177	0x3e056ebf	0.13030528
178	0x3e0dd538	0.13850868
179	0xbda4d649	-0.08048684
180	0xbbe96e39	-0.0071237353
181	0xbdbae86b	-0.091263615
182	0xbd88a09d	-0.066712596
183	0x3d855e20	0.065120935
184	0xbbc8a250	-0.006122865
185	0x3d3adca6	0.045620583
186	0xbdc951b8	-0.0983004
187	0x3d95aadd	0.0730798
188	0xbe0d334e	-0.13789102
189	0x3e026842	0.12735084
190	0x3d640176	0.055665456
191	0xbdaeb5ff	-0.08530807
192	0xbdb54c6c	-0.08852467
193	0xbd54b005	-0.051925678
194	0x3b08dc86	0.0020883395
195	0x3e557299	0.20844497
196	0xbd9db2dc	-0.0770013
197	0x3d488ff0	0.048965394
198	0xbd6b80e1	-0.057495955
199	0x3ba35c0f	0.0049853395
200	0x3e39e7b6	0.18154797
201	0x3db714b4	0.08939496
202	0xbcda3211	-0.026635202
203	0xbe688ee6	-0.22710761
204	0x3d9a33c3	0.07529404
205	0xbd9067fc	-0.070510834
206	0x3d671e34	0.05642529
207	0xbdcc72c9	-0.09982831
208	0x3dfde040	0.12396288
209	0xb9a881d3	-0.00032140184
210	0x3d7a0253	0.061037373
211	0x3e04e6cf	0.12978671
212	0xbe4652b2	-0.19367483
213	0x3d713540	0.058888674
214	0x3e120f01	0.14263536
215	0x3dcf4dcb	0.1012226
216	0xbdcf91c1	-0.10135222
217	0x3bb5a200	0.0055429935
218	0xbdea1e29	-0.11431534
219	0xbddcdee4	-0.107847005
220	0x3d51953a	0.051167704
221	0x3ceb4c53	0.028722918
222	0xbe17c808	-0.148224
223	0x3cf1df61	0.02952546
224	0x3d41a7ee	0.04727929
225	0xbe4e5cde	-0.20152614
226	0xbdda416c	-0.106570095
227	0x3d7e7d14	0.062131003
228	0x3c2a57bb	0.010396893
229	0xbc5055d5	-0.012715776
230	0x3c514ed0	0.012775138
231	0xbde42879	-0.11140532
232	0x3d3d7f4a	0.04626397
233	0xbd42286c	-0.04740183
234	0xbc139b22	-0.0090091545
235	0x3cc1e319	0.023667859
236	0x3ca6260d	0.020281816
237	0x3e55b614	0.20870239
238	0x3d9c30e1	0.076265104
239	0xbd886374	-0.06659594
240	0x3d935d2a	0.07195504
241	0xbe535153	-0.20636491
242	0xbcf92f68	-0.030418113
243	0x3d7c3317	0.06157216
244	0xbad2e0b0	-0.0016088691
245	0x3e0d2146	0.13782224
246	0x3cd99a5b	0.02656286
247	0xbdd642f3	-0.10461988
248	0xbd37b4d1	-0.044850174
249	0x3d363d0b	0.04449181
250	0x3e621c52	0.22081116
251	0xbe252b27	-0.16129743
252	0xbe06ad22	-0.13151982
253	0x3d871916	0.06596582
254	0xbda0cd7d	-0.07851694
255	0xbcd5fcd6	-0.026121538

network_body._body_endoder.seq_layers.0.bias f4 [256]
0	0x00000000	0.0
1	0x00000000	0.0
2	0x00000000	0.0
3	0x00000000	0.0
4	0x00000000	0.0
5	0x00000000	0.0
6	0x00000000	0.0
7	0x00000000	0.0
8	0x00000000	0.0
9	0x00000000	0.0
10	0x00000000	0.0
11	0x00000000	0.0
12	0x00000000	0.0
13	0x00000000	0.0
14	0x00000000	0.0
15	0x00000000	0.0
16	0x00000000	0.0
17	0x00000000	0.0
18	0x00000000	0.0
19	0x00000000	0.0
20	0x00000000	0.0
21	0x00000000	0.0
22	0x00000000	0.0
23	0x00000000	0.0
24	0x00000000	0.0
25	0x00000000	0.0
26	0x00000000	0.0
27	0x00000000	0.0
28	0x00000000	0.0
29	0x00000000	0.0
30	0x00000000	0.0
31	0x00000000	0.0
32	0x00000000	0.0
33	0x00000000	0.0
34	0x00000000	0.0
35	0x00000000	0.0
36	0x00000000	0.0
37	0x00000000	0.0
38	0x00000000	0.0
39	0x00000000	0.0
40	0x00000000	0.0
41	0x00000000	0.0
42	0x00000000	0.0
43	0x00000000	0.0
44	0x00000000	0.0
45	0x00000000	0.0
46	0x00000000	0.0
47	0x00000000	0.0
48	0x00000000	0.0
49	0x00000000	0.0
50	0x00000000	0.0
51	0x00000000	0.0
52	0x00000000	0.0
53	0x00000000	0.0
54	0x00000000	0.0
55	0x00000000	0.0
56	0x00000000	0.0
57	0x00000000	0.0
58	0x00000000	0.0
59	0x00000000	0.0
60	0x00000000	0.0
61	0x00000000	0.0
62	0x00000000	0.0
63	0x00000000	0.0
64	0x00000000	0.0
65	0x00000000	0.0
66	0x00000000	0.0
67	0x00000000	0.0
68	0x00000000	0.0
69	0x00000000	0.0
70	0x00000000	0.0
71	0x00000000	0.0
72	0x00000000	0.0
73	0x00000000	0.0
74	0x00000000	0.0
75	0x00000000	0.0
76	0x00000000	0.0
77	0x00000000	0.0
78	0x00000000	0.0
79	0x00000000	0.0
80	0x00000000	0.0
81	0x00000000	0.0
82	0x00000000	0.0
83	0x00000000	0.0
84	0x00000000	0.0
85	0x00000000	0.0
86	0x00000000	0.0
87	0x00000000	0.0
88	0x00000000	0.0
89	0x00000000	0.0
90	0x00000000	0.0
91	0x00000000	0.0
92	0x00000000	0.0
93	0x00000000	0.0
94	0x00000000	0.0
95	0x00000000	0.0
96	0x00000000	0.0
97	0x00000000	0.0
98	0x00000000	0.0
99	0x00000000	0.0
100	0x00000000	0.0
101	0x00000000	0.0
102	0x00000000	0.0
103	0x00000000	0.0
104	0x00000000	0.0
105	0x00000000	0.0
106	0x00000000	0.0
107	0x00000000	0.0
108	0x00000000	0.0
109	0x00000000	0.0
110	0x00000000	0.0
111	0x00000000	0.0
112	0x00000000	0.0
113	0x00000000	0.0
114	0x00000000	0.0
115	0x00000000	0.0
116	0x00000000	0.0
117	0x00000000	0.0
118	0x00000000	0.0
119	0x00000000	0.0
120	0x00000000	0.0
121	0x00000000	0.0
122	0x00000000	0.0
123	0x00000000	0.0
124	0x00000000	0.0
125	0x00000000	0.0
126	0x00000000	0.0
127	0x00000000	0.0
128	0x00000000	0.0
129	0x00000000	0.0
130	0x00000000	0.0
131	0x00000000	0.0
132	0x00000000	0.0
133	0x00000000	0.0
134	0x00000000	0.0
135	0x00000000	0.0
136	0x00000000	0.0
137	0x00000000	0.0
138	0x00000000	0.0
139	0x00000000	0.0
140	0x00000000	0.0
141	0x00000000	0.0
142	0x00000000	0.0
143	0x00000000	0.0
144	0x00000000	0.0
145	0x00000000	0.0
146	0x00000000	0.0
147	0x00000000	0.0
148	0x00000000	0.0
149	0x00000000	0.0
150	0x00000000	0.0
151	0x00000000	0.0
152	0x00000000	0.0
153	0x00000000	0.0
154	0x00000000	0.0
155	0x00000000	0.0
156	0x00000000	0.0
157	0x00000000	0.0
158	0x00000000	0.0
159	0x00000000	0.0
160	0x00000000	0.0
161	0x00000000	0.0
162	0x00000000	0.0
163	0x00000000	0.0
164	0x00000000	0.0
165	0x00000000	0.0
166	0x00000000	0.0
167	0x00000000	0.0
168	0x00000000	0.0
169	0x00000000	0.0
170	0x00000000	0.0
171	0x00000000	0.0
172	0x00000000	0.0
173	0x00000000	0.0
174	0x00000000	0.0
175	0x00000000	0.0
176	0x00000000	0.0
177	0x00000000	0.0
178	0x00000000	0.0
179	0x00000000	0.0
180	0x00000000	0.0
181	0x00000000	0.0
182	0x00000000	0.0
183	0x00000000	0.0
184	0x00000000	0.0
185	0x00000000	0.0
186	0x00000000	0.0
187	0x00000000	0.0
188	0x00000000	0.0
189	0x00000000	0.0
190	0x00000000	0.0
191	0x00000000	0.0
192	0x00000000	0.0
193	0x00000000	0.0
194	0x00000000	0.0
195	0x00000000	0.0
196	0x00000000	0.0
197	0x00000000	0.0
198	0x00000000	0.0
199	0x00000000	0.0
200	0x00000000	0.0
201	0x00000000	0.0
202	0x00000000	0.0
203	0x00000000	0.0
204	0x00000000	0.0
205	0x00000000	0.0
206	0x00000000	0.0
207	0x00000000	0.0
208	0x00000000	0.0
209	0x00000000	0.0
210	0x00000000	0.0
211	0x00000000	0.0
212	0x00000000	0.0
213	0x00000000	0.0
214	0x00000000	0.0
215	0x00000000	0.0
216	0x00000000	0.0
217	0x00000000	0.0
218	0x00000000	0.0
219	0x00000000	0.0
220	0x00000000	0.0
221	0x00000000	0.0
222	0x00000000	0.0
223	0x00000000	0.0
224	0x00000000	0.0
225	0x00000000	0.0
226	0x00000000	0.0
227	0x00000000	0.0
228	0x00000000	0.0
229	0x00000000	0.0
230	0x00000000	0.0
231	0x00000000	0.0
232	0x00000000	0.0
233	0x00000000	0.0
234	0x00000000	0.0
235	0x00000000	0.0
236	0x00000000	0.0
237	0x00000000	0.0
238	0x00000000	0.0
239	0x00000000	0.0
240	0x00000000	0.0
241	0x00000000	0.0
242	0x00000000	0.0
243	0x00000000	0.0
244	0x00000000	0.0
245	0x00000000	0.0
246	0x00000000	0.0
247	0x00000000	0.0
248	0x00000000	0.0
249	0x00000000	0.0
250	0x00000000	0.0
251	0x00000000	0.0
252	0x00000000	0.0
253	0x00000000	0.0
254	0x00000000	0.0
255	0x00000000	0.0

network_body._body_endoder.seq_layers.2.weight f4 [256, 256]
0	0xbc34cf59	-0.011035764
1	0xbd996548	-0.07490021
2	0x3c189b07	0.009314305
3	0x3d4c0c09	0.049816165
4	0x3d10e39a	0.035373308
5	0x3bd96211	0.006634005
6	0xbd393450	-0.045215905
7	0x3e1d8cbd	0.15385719
8	0x3d161fef	0.036651548
9	0xbdc31eba	-0.09527345
10	0xbd25144f	-0.04030257
11	0x3df6e6dd	0.120557524
12	0xbd1e8d17	-0.038708773
13	0xbd963004	-0.07333377
14	0xbd0a3960	-0.033746123
15	0x3be3b256	0.0069487495
16	0x3da296d1	0.07938922
17	0xbd6cb0f0	-0.05778593
18	0xbc7cee83	-0.015437725
19	0xbd7874f1	-0.0606584
20	0x3d8213f0	0.06351459
21	0xba18c3a2	-0.00058274914
22	0x3d8076e9	0.0627268
23	0xbd1679bf	-0.0367372
24	0xbd86f4b8	-0.06589645
25	0x3c3cbe09	0.011519917
26	0x3d9d03cc	0.0766674
27	0xbd63d1d6	-0.055620037
28	0xbce71ac0	-0.028210998
29	0xbcce117e	-0.025154825
30	0x3d212b48	0.039347917
31	0x3bf2cc3a	0.0074095996
32	0x3d128de8	0.035779864
33	0x3c1bd2f3	0.009510743
34	0xbce158e7	-0.027508212
35	0xbc39fe87	-0.011352188
36	0xbc8c0986	-0.017094385
37	0xbd670653	-0.056402516
38	0x3cebab85	0.02876831
39	0xbd0272ea	-0.03184787
40	0x3c4b8609	0.012422093
41	0xbc71441a	-0.014725709
42	0xbb5bd5bf	-0.003354415
43	0xbd87f4b6	-0.06638472
44	0x3d9d3e84	0.076779395
45	0xbc230654	-0.009950239
46	0xbb995f7e	-0.004680573
47	0x3ceffbfd	0.029294962
48	0xbbc48456	-0.005997221
49	0xbcb864eb	-0.022509059
50	0xbc25935e	-0.010105936
51	0xbd9a0374	-0.0752019
52	0xbd33dec3	-0.043913614
53	0x3c972f52	0.018455181
54	0x3cda9ea7	0.02668698
55	0x3c0a9f48	0.008460827
56	0x3cc95159	0.024574922
57	0xbccd2415	-0.02504162
58	0xbb455a3b	-0.0030113596
59	0x3b4fde7f	0.0031718311
60	0x3daf2eae	0.08553825
61	0xbde8a036	-0.11358683
62	0xbd08f0ca	-0.03343276
63	0x3df93ab3	0.12169399
64	0xbd239c5d	-0.03994404
65	0xbb650b46	-0.0034949346
66	0x3c213b73	0.009840834
67	0xbd6ce7e4	-0.057838336
68	0xbd20770b	-0.03917603
69	0x3c47216d	0.012153965
70	0xbcd23345	-0.025659213
71	0x3cb3ebf7	0.021963103
72	0xbd232853	-0.039833378
73	0x3d1caa28	0.03824821
74	0xbd0caed0	-0.0343464
75	0xbd8c27e5	-0.06843547
76	0xbd0a0bda	-0.03370271
77	0xbd53cf26	-0.051711224
78	0xbc813a54	-0.015774883
79	0x3dafc432	0.08582343
80	0x3dbb46dc	0.09144375
81	0xbd910dcf	-0.07082712
82	0xbd13e4b2	-0.036106773
83	0xbd0769ba	-0.033059813
84	0x3b2af036	0.0026083118
85	0x3b53f21a	0.0032340349
86	0xbd9174a2	-0.07102324
87	0x3c38edcd	0.011287165
88	0x3da53023	0.08065822
89	0x34a8ed63	3.146516e-07
90	0x3d33c976	0.0438933
91	0x3d3eba7b	0.04656456
92	0xbd541578	-0.051778287
93	0x3d722eab	0.059126537
94	0x3d791046	0.060806535
95	0x3e074d31	0.1321304
96	0xbd0ab27b	-0.03386162
97	0x3d1defc1	0.038558725
98	0x3db05c1c	0.086113185
99	0xbc1f6601	-0.0097289095
100	0x3c336d5a	0.010951364
101	0xbd50b47d	-0.050953377
102	0x3c80b0fb	0.01570939
103	0x3c6eb464	0.014569376
104	0x3cf87bbd	0.03033244
105	0x3d0652e7	0.032793906
106	0x3de65c11	0.11248029
107	0x3d0d60a9	0.03451601
108	0x3d06c330	0.03290099
109	0x3c90774c	0.01763501
110	0x3c94505a	0.01810472
111	0xbc6c35f2	-0.014417158
112	0x3d86589e	0.06559871
113	0xbd9b331d	-0.075781085
114	0xbd4fff61	-0.050780658
115	0xbd94fb3e	-0.07274483
116	0x3c9c2eb2	0.019065235
117	0x3cf93ddd	0.030425007
118	0x3d09d21b	0.033647638
119	0xbd4c2bf4	-0.049846604
120	0x3d74ae53	0.05973656
121	0x3dd4004c	0.10351619
122	0xbcd7c449	-0.026338713
123	0xbc9560ad	-0.018234575
124	0x3ced9f2c	0.029006563
125	0x3c96dd97	0.01841621
126	0xbd0428d6	-0.032265507
127	0xbdbd3b4d	-0.09239826
128	0xbe0f7f81	-0.14013483
129	0xbccc64f2	-0.024950478
130	0x3c4d9a7d	0.01254904
131	0x3c9a3db5	0.018828252
132	0xbbc1397e	-0.005896746
133	0x3d7035c1	0.058645014
134	0xbccc640c	-0.02495005
135	0x3c9705b1	0.018435331
136	0xbce4ae28	-0.027915075
137	0x3ce4df5c	0.027938537
138	0x3d930588	0.071787894
139	0xbd9a1e51	-0.07525314
140	0x3c96f11c	0.018425517
141	0x3d7dcb8a	0.061961688
142	0x3d926995	0.071490444
143	0xbd2ff75e	-0.042960517
144	0xbd7de71c	-0.06198798
145	0xbcb0d136	-0.021584135
146	0x3d472f7e	0.048629276
147	0xbcd9452d	-0.026522243
148	0x3d9ec68a	0.07752712
149	0x3d0dd7ea	0.03462974
150	0xbd9fdc09	-0.0780564
151	0x3d32b4da	0.043629505
152	0x3c641702	0.013921501
153	0xb8f655d7	-0.00011746183
154	0xbd1ef587	-0.038808372
155	0x3cabf302	0.020989899
156	0x3c61771a	0.013761306
157	0x3d903cfb	0.07042881
158	0x3d3e0f25	0.04640116
159	0xbd0fbcbe	-0.035092108
160	0xbccdeac2	-0.025136355
161	0xbcdbcb72	-0.026830409
162	0xbdf7dc16	-0.12102525
163	0xbbeff25b	-0.007322592
164	0xbd7fc670	-0.062445104
165	0x3d15919c	0.036515817
166	0x3d87ee6d	0.06637273
167	0x3d92f5fa	0.071758226
168	0x3da16d88	0.078822196
169	0xbccc81d3	-0.024964249
170	0x3cc17a5e	0.02361792
171	0x3c81cbf5	0.015844325
172	0xbd1ddea8	-0.03854242
173	0x3d75b990	0.05999142
174	0x3b437c26	0.0029828637
175	0xba0f0ef7	-0.0005457247
176	0x3d5c387f	0.053764816
177	0x3c2e252c	0.01062898
178	0xbc0d60d0	-0.008629039
179	0xbd6d5c7c	-0.057949528
180	0x3baf4015	0.0053482153
181	0xbd388d61	-0.045056704
182	0x3d81cb55	0.06337611
183	0x3cb1e012	0.02171329
184	0x3df789d8	0.120868385
185	0x3d0a1d98	0.03371963
186	0xbdff44ab	-0.12464269
187	0x3d38f788	0.04515794
188	0x3d8e93e6	0.06961803
189	0x3bdfa9ec	0.006825676
190	0x3d959da3	0.073054574
191	0x3c538a42	0.012911381
192	0xbc95382d	-0.018215263
193	0xbcba61df	-0.022751747
194	0xbc057257	-0.0081449365
195	0xbd3fab3a	-0.046794154
196	0xbc677491	-0.014126913
197	0x3c860ee9	0.016364532
198	0xbd2f56f7	-0.042807546
199	0xbd0e9eaf	-0.0348193
200	0xbd150d40	-0.03638959
201	0x3e1d0447	0.15333663
202	0xbd984073	-0.07434168
203	0x3bd651fa	0.006540534
204	0xbb65904e	-0.003502864
205	0x3db053ef	0.08609759
206	0x3da0c372	0.07849778
207	0xbbb1e80b	-0.005429273
208	0x3ce6546f	0.028116433
209	0xbcc277e2	-0.023738805
210	0x3d241abd	0.040064562
211	0x3d1a0a3e	0.037607424
212	0x3c59dee6	0.013297772
213	0x3e27d26a	0.1638886
214	0xbcb8594b	-0.022503516
215	0x3bd71ac4	0.00656447
216	0x3d66fc0a	0.056392707
217	0xbcdd6da4	-0.02702982
218	0x3d0c41d2	0.03424246
219	0x3c8258d1	0.015911492
220	0xbd34e865	-0.04416694
221	0x3d40483c	0.046943888
222	0xbd83fa94	-0.06444278
223	0x3ddd7c7c	0.10814759
224	0x3ddcbe8a	0.1077853
225	0xbdbc9701	-0.09208489
226	0xbdcde9e4	-0.10054377
227	0xbe26c149	-0.1628467
228	0x3d17e364	0.03708209
229	0xbd4e49ff	-0.050363537
230	0xbd502068	-0.050812155
231	0x3df98cfa	0.12185092
232	0x3dd33600	0.10313034
233	0x3cec9204	0.02887822
234	0x3cce31c6	0.025170218
235	0xbd599f69	-0.05313054
236	0x3b88d04a	0.0041752206
237	0xbd96944d	-0.07352505
238	0x3b8d7a28	0.0043175407
239	0xbd2a9a1b	-0.041650873
240	0xbc9498de	-0.018139299
241	0x3d9772fa	0.07394977
242	0xbdcc12c3	-0.09964516
243	0xbdd0a331	-0.10187376
244	0xbcaa9ff5	-0.020828227
245	0xbe3808aa	-0.17972055
246	0x3ce00e3f	0.027350543
247	0x3c676e52	0.0141254235
248	0xbcd99078	-0.026558146
249	0x3d13f201	0.036119465
250	0xbcb43970	-0.022000045
251	0x3d492208	0.04910472
252	0xbd044bda	-0.0322989
253	0xbd13f8b2	-0.036125846
254	0x3e12d53e	0.14339158
255	0x3d85ed5a	0.06539412

network_body._body_endoder.seq_layers.4.weight f4 [256, 256]
0	0x3d15fa0b	0.036615413
1	0x3bdc12e6	0.00671612
2	0x3c3b3093	0.011425155
3	0x3e1c5639	0.15267266
4	0x3c46fc60	0.012145132
5	0x3d34fae3	0.044184577
6	0xbba2efc6	-0.004972431
7	0xbd4fa883	-0.050697815
8	0xbcf67e35	-0.030089477
9	0x3d82e644	0.06391576
10	0xbd8c26cd	-0.06843338
11	0xbcad3629	-0.02114399
12	0x3c0cfaf7	0.008604757
13	0x3c121537	0.008916191
14	0xbbcfb5b6	-0.0063388003
15	0xbc179da1	-0.00925389
16	0xbdb6c340	-0.0892396
17	0x3d900ae9	0.07033331
18	0x3ca6ebb0	0.020376056
19	0xbd281b01	-0.041041378
20	0xbd32bcc2	-0.043637045
21	0xbcf392d2	-0.029733095
22	0x3d74b06e	0.05973857
23	0xbc99f4ea	-0.018793542
24	0xbbf2039b	-0.0073856837
25	0xbcde4a54	-0.027135052
26	0x3dc7df45	0.09759382
27	0xbb59c438	-0.0033228528
28	0x3db2dcc7	0.08733516
29	0x3d3cada3	0.04606403
30	0x3ce5c6c5	0.028048882
31	0x3cd69461	0.0261938
32	0x3d4be536	0.04977914
33	0x3bc806b3	0.0061043142
34	0x3a866a5d	0.0010255087
35	0xbd947035	-0.07247964
36	0x3d866195	0.06561581
37	0x3c409551	0.01175435
38	0x3cc68dca	0.024237532
39	0xbe29bbf9	-0.16575612
40	0x3c6828a7	0.0141698485
41	0xbd0f826d	-0.035036493
42	0xbd8be421	-0.068306215
43	0x3e10ef6d	0.14153834
44	0xbd5421c8	-0.05179003
45	0x3c9a3a33	0.01882658
46	0xbdcdccc4	-0.100488216
47	0x3d9a3edf	0.07531523
48	0xbd4d85fd	-0.05017661
49	0xbce4046f	-0.027834145
50	0x3e01096d	0.12601252
51	0x3dcb2068	0.099182904
52	0x3c590bb0	0.013247415
53	0xbbf9d3af	-0.0076241116
54	0x3d4a8200	0.049440384
55	0x3da00a4f	0.07814466
56	0xbd55811e	-0.05212509
57	0x3dd5b313	0.10434546
58	0xbc1bf1bc	-0.009518083
59	0xbe39e64c	-0.18154258
60	0x3d7ea74c	0.062171265
61	0xbb9f69de	-0.0048649153
62	0x3c79a1b4	0.015236307
63	0xbb6cb118	-0.0036116298
64	0x3d945f4d	0.0724474
65	0xbd06e6bf	-0.0329349
66	0x3d550439	0.05200598
67	0xbd125e53	-0.035734486
68	0x3d1d06ac	0.03833644
69	0x3d8d57b2	0.06901492
70	0x3da983b6	0.08277075
71	0x3dd74b0d	0.10512362
72	0x3d9c29c6	0.07625155
73	0x3d585511	0.0528155
74	0xbd4ed63f	-0.05049729
75	0xbc7cf0e4	-0.015438292
76	0x3c2d9c35	0.010596325
77	0xbd75b406	-0.059986137
78	0xbcb9d0e9	-0.022682624
79	0x3d11d815	0.035606463
80	0x3c3ddbf2	0.011588084
81	0xbd733203	-0.059373867
82	0x3cc19a7b	0.023633232
83	0x3cc4d269	0.024026113
84	0x3aa07864	0.001224291
85	0xbc5d0b86	-0.013491517
86	0xbcf30c69	-0.029669004
87	0x3ca5f69b	0.020259192
88	0x3ddba150	0.10724127
89	0x3da68e8b	0.08132657
90	0xbc9a167f	-0.018809555
91	0x3e21680b	0.15762345
92	0x3cdac0aa	0.026703198
93	0xbe2448be	-0.16043374
94	0xbd525203	-0.051347744
95	0x3d5fb60a	0.054616965
96	0xbcab0516	-0.020876449
97	0x3b4a18dc	0.0030837571
98	0x3d895a9e	0.06706737
99	0x3c0c306b	0.008556466
100	0xba4b481c	-0.00077545806
101	0x3d58bb12	0.05291278
102	0xbd29ec33	-0.041485023
103	0x3d146ce3	0.036236655
104	0xbdf52615	-0.11970154
105	0x3d163089	0.03666738
106	0x3d455318	0.048174948
107	0x3d0500b6	0.03247138
108	0xbd12b463	-0.03581656
109	0x3ccf53ad	0.025308454
110	0xbd5cc7c5	-0.053901453
111	0x3c0d3567	0.008618689
112	0xbd9cf28c	-0.0766345
113	0xbccb1bd9	-0.024793552
114	0xbc850a99	-0.016240405
115	0xbd39de90	-0.045378268
116	0x3b08c6fc	0.0020870557
117	0xbd8b8655	-0.06812731
118	0x3d34a177	0.044099297
119	0xbd3d199b	-0.046166997
120	0x3de857f8	0.11344904
121	0x3d7f0fb0	0.06227082
122	0x3ccd428a	0.025056142
123	0xbcd98ac5	-0.026555428
124	0xbd9bf9ce	-0.07616006
125	0x3e1b2300	0.1515007
126	0x3daeaf84	0.08529571
127	0x3ccc4191	0.024933608
128	0xbd805a30	-0.06267202
129	0x3d523b16	0.05132588
130	0xbd22c0c0	-0.039734602
131	0xbcd4668e	-0.025927808
132	0xbd8dd498	-0.06925315
133	0x3ce286ad	0.027652109
134	0x3d40f980	0.04711294
135	0xbbf075a2	-0.0073382417
136	0x3cd303b4	0.025758602
137	0xbd2ed1a7	-0.04268041
138	0xbb53be1c	-0.003230936
139	0x3c2a057d	0.010377285
140	0xbd41d8db	-0.04732595
141	0xbe080b74	-0.13285619
142	0x3d807a87	0.0627337
143	0x3d6cb888	0.05779317
144	0xbba2b688	-0.004965607
145	0x3d4d994a	0.050195016
146	0xbdc69a09	-0.096973486
147	0xbba4010b	-0.005005007
148	0x3c11a4b4	0.008889366
149	0xbe1f89d7	-0.15579925
150	0xbd9ca726	-0.076490685
151	0xbc41a76b	-0.011819701
152	0xbcb513fd	-0.022104258
153	0x3deab583	0.11460402
154	0x3d853dd3	0.06505933
155	0xbe04b170	-0.12958312
156	0x3ddec232	0.108768836
157	0x3da4c1a2	0.08044745
158	0xbc6ba2e6	-0.0143821
159	0x3c93cb83	0.018041378
160	0x3cc5a4c5	0.02412642
161	0xbda4bcc8	-0.0804382
162	0x3c16a406	0.00919438
163	0x3e13da77	0.14438806
164	0xbd51b231	-0.051195327
165	0x3d19ab11	0.037516657
166	0x3d880e4f	0.06643354
167	0xbe18f5cb	-0.14937513
168	0x3d4c0ae4	0.049815074
169	0xbc7a8f85	-0.015293007
170	0x3d73b725	0.059500832
171	0xbd95d5d2	-0.073161736
172	0xbda0b6b8	-0.07847351
173	0x3e415467	0.18879853
174	0x3dbab4fb	0.091165505
175	0xbda852b9	-0.08218903
176	0x3ca1b067	0.019737436
177	0xbce88f8c	-0.028388761
178	0x3d13cf93	0.03608663
179	0x3d31d4b9	0.04341576
180	0xbba339d9	-0.004981261
181	0x3b1b1b4e	0.0023667398
182	0x3d91a83e	0.07112168
183	0xbc68c775	-0.0142077105
184	0xbbe8b9f5	-0.007102246
185	0x3b6f00e4	0.0036469037
186	0x3d844bca	0.06459768
187	0xbe0ccab6	-0.13749203
188	0xbad2530b	-0.0016046477
189	0xbd873a37	-0.066029005
190	0xbca1f468	-0.019769862
191	0x3d41f40c	0.04735188
192	0x3c166be1	0.009180994
193	0x3d3e9c7d	0.046535958
194	0x3d30a6bd	0.043127764
195	0x3d8c526d	0.06851659
196	0xbd9c8faa	-0.07644589
197	0xbe0a015f	-0.13477086
198	0xbe00dafe	-0.12583539
199	0xbdafe7ff	-0.085891716
200	0x3ccfa83f	0.02534878
201	0xbdaa58e6	-0.08317737
202	0x3ca81bf4	0.020521142
203	0xbda5b484	-0.08091071
204	0xbd7642b1	-0.060122196
205	0xbc9a2b20	-0.018819392
206	0x3c2442ab	0.0100256605
207	0x3cda0d09	0.026617544
208	0x3d21d921	0.03951371
209	0xbdcddfaf	-0.1005243
210	0xbcf722f9	-0.030168043
211	0xbdbf41c5	-0.093387164
212	0xbd0dd364	-0.034625426
213	0xbd61cb98	-0.055125803
214	0x3dbe7e6d	0.093014576
215	0x3d912fd9	0.07089204
216	0xbcdcce6b	-0.026953897
217	0xbd773589	-0.06035379
218	0x3dbf91e1	0.09353996
219	0xbdd69234	-0.10477105
220	0xbda266fa	-0.079297975
221	0x3cdeca85	0.027196178
222	0x3db35185	0.08755783
223	0xbd2c0be9	-0.042003546
224	0xbd35f58b	-0.04442362
225	0xbda5f95f	-0.081042044
226	0xbe02a0f4	-0.12756711
227	0xbdcfce43	-0.10146763
228	0x3d5f5824	0.054527417
229	0xbdf4b2c0	-0.11948156
230	0xbd2e6146	-0.042573236
231	0x3d002656	0.03128656
232	0xbe058859	-0.13040294
233	0x3c892022	0.016738955
234	0x3dbf32ea	0.09335883
235	0x3d4efb14	0.050532416
236	0x3d7733b9	0.06035206
237	0x3c8d26c0	0.017230392
238	0x3d3fb44f	0.046802815
239	0xbdd8fc85	-0.10595039
240	0xbca033e2	-0.01955599
241	0xbc07d8ba	-0.008291418
242	0xbcb7aaf3	-0.022420382
243	0x3d20f0de	0.03929221
244	0x3da8a7e6	0.08235149
245	0x3c8dc5ff	0.017306326
246	0xbc9bbe91	-0.019011768
247	0x3dab32d0	0.08359301
248	0xbdfda543	-0.12385037
249	0x3d88f045	0.06686453
250	0xbd480ac8	-0.048838407
251	0xbd331f2f	-0.04373091
252	0xbcf801eb	-0.030274352
253	0xbd0e207e	-0.034698956
254	0xbd722e53	-0.05912621
255	0x3c1c51b7	0.009540967

action_model._continuous_distribution.log_sigma f4 [1, 6]
0	0x00000000	0.0
1	0x00000000	0.0
2	0x00000000	0.0
3	0x00000000	0.0
4	0x00000000	0.0
5	0x00000000	0.0

action_model._continuous_distribution.mu.weight f4 [6, 256]
0	0x3c775f63	0.015098426
1	0xbc1f78c3	-0.009733382
2	0xbc200ea5	-0.0097691165
3	0xbc430bc7	-0.011904663
4	0x3c49a25a	0.012306774
5	0xbc3ce257	-0.011528573
6	0x3cb2fd3b	0.021849265
7	0x3cd80083	0.026367432
8	0x3a38f33a	0.00070552866
9	0xbcbee1e4	-0.023301072
10	0xbbc5a989	-0.006032173
11	0xbb67ff6d	-0.0035400048
12	0x3ba4e087	0.0050316486
13	0x3c5eb4c7	0.013592905
14	0xbc1b5ae8	-0.009482123
15	0x3a0a649b	0.00052792736
16	0x3b541df3	0.0032366484
17	0x3cca64da	0.024706293
18	0x3884f4c6	6.339843e-05
19	0xbb6044ba	-0.0034220652
20	0x3c38c85b	0.011278237
21	0xbb4be388	-0.003111096
22	0xbb71a12d	-0.003686975
23	0x3baccb11	0.005273231
24	0x3b7845b7	0.003788335
25	0xbaac9a70	-0.0013168585
26	0x3c936bdd	0.01799577
27	0x3c0c2940	0.008554757
28	0x3b8f0475	0.004364545
29	0x3c6fca60	0.014635652
30	0xbb979edc	-0.004627092
31	0x3c938295	0.018006602
32	0xb5c46e9c	-1.463533e-06
33	0x3c1c22d8	0.009529792
34	0x3befd6e5	0.0073193186
35	0xbb5b81db	-0.0033494148
36	0x3b103f0f	0.0022010242
37	0x3cfe0b9f	0.0310114
38	0xbbba7875	-0.005690629
39	0xbbb4e9e3	-0.0055210455
40	0x3c6c4353	0.014420348
41	0xbb3d8407	-0.0028917806
42	0x3ced18fb	0.028942576
43	0xbb9ceddd	-0.0047890977
44	0x3940ce73	0.00018387455
45	0xbc48e02d	-0.012260479
46	0x3a641c78	0.0008701752
47	0x3a9325bb	0.0011226455
48	0xbc41885b	-0.011812295
49	0x3a969fd9	0.001149173
50	0xbcf7de7f	-0.030257462
51	0xbc72263a	-0.014779622
52	0xbb5de6d7	-0.0033859515
53	0xbc2e7446	-0.010647839
54	0xbb060bed	-0.0020453886
55	0xbc71ad73	-0.014750826
56	0x3d1ccab3	0.038279247
57	0x3a820e69	0.0009922507
58	0xbcbf3697	-0.02334146
59	0xbc79a54f	-0.015237167
60	0xbc182b4c	-0.0092876665
61	0x3c70c840	0.014696181
62	0x3bce2950	0.006291546
63	0xbbe4855a	-0.0069739046
64	0xbc1dd6b4	-0.009633709
65	0x3bf96695	0.0076111057
66	0x3cc52994	0.024067678
67	0xbc1032e0	-0.008801192
68	0xbbfb7b13	-0.0076745837
69	0xbb3e7e06	-0.0029066815
70	0x3c107400	0.008816719
71	0x3b43385d	0.0029788234
72	0x3b43193f	0.0029769687
73	0xbb34c69a	-0.0027584196
74	0x3b02e722	0.0019974192
75	0x3c1855f3	0.009297836
76	0xbb0e2604	-0.002169014
77	0xbbd4e52d	-0.0064970464
78	0x3d34cf4c	0.044143006
79	0x3c411a9d	0.01178613
80	0x3cc1f6a4	0.023677178
81	0x3a8bdd7d	0.0010670867
82	0xbbb042b5	-0.005379046
83	0x3b6b1c12	0.0035874886
84	0x3964db3d	0.00021825447
85	0x3cbefc63	0.023313707
86	0xbb9e85a1	-0.004837707
87	0x3c31c1c9	0.010849425
88	0xbc5c8873	-0.013460266
89	0xbc7b9ad0	-0.015356734
90	0xbc1ad83d	-0.009450969
91	0xbc47ed13	-0.012202519
92	0x3b84809f	0.004043653
93	0x3c5c1dcb	0.013434838
94	0xb98d4dc5	-0.00026951559
95	0xba92307f	-0.0011153369
96	0x3bc181bd	0.0059053586
97	0x3c06e8ee	0.008234246
98	0xba7fa33d	-0.00097518024
99	0x3c2ab250	0.01041849
100	0x3b9e49ec	0.0048305895
101	0x3c3f8594	0.011689562
102	0x3b98b6b6	0.0046604527
103	0xbbd3a757	-0.0064591574
104	0xbbe3b90d	-0.00694955
105	0x3c86840d	0.016420389
106	0x3b6d64d5	0.003622343
107	0x3a1cce36	0.00059816556
108	0xbb66f5d7	-0.0035241747
109	0xbacc3e35	-0.0015582504
110	0x3c1a5d7b	0.009421702
111	0x3cd334cf	0.025782017
112	0x3a9bd807	0.0011889943
113	0xbc8f3864	-0.017482944
114	0x39d813b0	0.000412134
115	0xbb32e454	-0.0027296739
116	0x3bdc6383	0.00672573
117	0xbc9b5441	-0.018961074
118	0x3bc8a784	0.006123485
119	0xbc71ba6a	-0.014753917
120	0x3c8233bb	0.015893808
121	0x3bd2844b	0.006424462
122	0x3c8b7878	0.017025217
123	0xb8f52d3a	-0.000116909345
124	0xbb9b7540	-0.004744202
125	0x3b37fbf7	0.0028073767
126	0x3b57c51b	0.003292388
127	0xbb908323	-0.004410164
128	0x3c644ced	0.013934356
129	0xbcb92ab9	-0.02260338
130	0xbb64cbfa	-0.0034911619
131	0x3c2b5ea3	0.010459575
132	0xbb41d35c	-0.0029575443
133	0x3be0731d	0.00684966
134	0x3c985230	0.018593878
135	0x3c3bda58	0.011465631
136	0x3ba8a94a	0.005147134
137	0xbc07c3cb	-0.008286427
138	0xbca647cf	-0.020297913
139	0x3c96a5f3	0.018389678
140	0x3c0464bc	0.008080658
141	0xba8fc339	-0.0010968215
142	0xbbc52d21	-0.0060173427
143	0x3cacee4b	0.02110972
144	0xbbc45687	-0.00599176
145	0x3c3a5d08	0.011374719
146	0xbb2c2755	-0.002626856
147	0x3c8d9fc7	0.017288102
148	0x3c121d9e	0.008918194
149	0x3c79b530	0.015240952
150	0xbc51eef7	-0.012813321
151	0xba8e68f2	-0.0010865016
152	0x3c034e99	0.008014345
153	0xbb1e294e	-0.0024133506
154	0xb8eaf927	-0.00011204398
155	0x3c8c27e2	0.017108861
156	0x3c31a1dc	0.010841813
157	0x3c208b4b	0.009798835
158	0x3c331de3	0.0109324185
159	0xbc49a44f	-0.012307241
160	0x3bec2087	0.007206026
161	0x3b95b6f8	0.0045689307
162	0xbc8b763e	-0.017024156
163	0x3c5187fb	0.012788768
164	0xbbccc71e	-0.0062493226
165	0x3c5d7b1f	0.013518124
166	0x3bdb34e7	0.006689656
167	0x3b9ca3c3	0.004780264
168	0x3a080329	0.0005188459
169	0x3bd55192	0.006509968
170	0x3c58295a	0.013193453
171	0x3c91bf99	0.017791556
172	0x3991a839	0.0002778189
173	0x3c366ea0	0.0111347735
174	0x3cf4560a	0.029826183
175	0xba8aac28	-0.0010579871
176	0x3c5754d2	0.013142781
177	0x3c15fc71	0.009154425
178	0x3b47909c	0.0030451184
179	0xbc47df63	-0.012199256
180	0x3c36bbc8	0.011153169
181	0x3bf9fd3b	0.0076290644
182	0x3ca8f903	0.02062655
183	0xbb881c4b	-0.0041537634
184	0x3c1642f0	0.009171233
185	0x3c5abce5	0.0133507
186	0xbb7c5f3f	-0.003850892
187	0xbc5f4d30	-0.013629243
188	0xbcbefc5e	-0.023313697
189	0xbc376966	-0.011194563
190	0x3bddce4b	0.006768977
191	0x3d08a1a1	0.033357266
192	0x3bfea482	0.0077710757
193	0x3c14c4b2	0.009080099
194	0xbc6e6cd8	-0.014552318
195	0xb94ee630	-0.00019731442
196	0x3b846233	0.0040400266
197	0xbaeb57b7	-0.0017955218
198	0x3c20aaf0	0.00980638
199	0x3c355203	0.011066916
200	0x3c68ac50	0.014201239
201	0xbbcf6ecb	-0.006330346
202	0x3cba0f97	0.022712512
203	0xbb4c952f	-0.003121685
204	0xbc50bbea	-0.012740115
205	0x3bbf6cfe	0.0058418503
206	0xbc6d2f38	-0.01447659
207	0x3b1579d7	0.0022808218
208	0x3c2cdf66	0.010551309
209	0xbbb8c56b	-0.0056387684
210	0x3b1047cf	0.0022015458
211	0x3c420302	0.011841537
212	0xbbd684e5	-0.006546604
213	0xbc38a2c7	-0.011269278
214	0x3c355fe7	0.011070228
215	0xba97b053	-0.0011572934
216	0xbba01757	-0.004885595
217	0x3c2f58eb	0.010702352
218	0xbc900fd7	-0.017585678
219	0xbcc93c1e	-0.024564799
220	0x379ab478	1.8442268e-05
221	0xbc25f0b2	-0.010128187
222	0xbc5487b3	-0.012971806
223	0xbbf96035	-0.0076103457
224	0xbbb76495	-0.005596707
225	0xbc26f1c4	-0.010189477
226	0xbbf194da	-0.007372481
227	0xbc0726c9	-0.008248993
228	0x3a1b1948	0.0005916548
229	0xbb27652e	-0.0025542486
230	0xbc2f0e8e	-0.010684622
231	0x3c3f29a1	0.01166764
232	0x3c6bd397	0.014393709
233	0x3c614f47	0.013751811
234	0xbc8c0cd4	-0.01709596
235	0xbbce8587	-0.006302539
236	0x3c062a81	0.008188845
237	0x3cb916b7	0.02259384
238	0xbc4aa0f1	-0.012367473
239	0x3c0e0ebe	0.008670507
240	0x3b8698c4	0.0041075666
241	0xbc3f1d91	-0.011664764
242	0x3c995642	0.018717889
243	0x3ad2515a	0.0016045973
244	0xbb7e2095	-0.0038776745
245	0x3c976683	0.018481499
246	0xbc8f1037	-0.017463787
247	0xbbf89648	-0.0075862743
248	0xbc13c3d9	-0.009018862
249	0x3ac8b24e	0.0015311928
250	0x3bd09773	0.0063657104
251	0x3b03799b	0.0020061496
252	0x3af4944b	0.0018659917
253	0x3c043939	0.008070284
254	0x3bd6e9aa	0.0065586166
255	0x3bd08167	0.006363082

action_model._continuous_distribution.mu.bias f4 [6]
0	0x00000000	0.0
1	0x00000000	0.0
2	0x00000000	0.0
3	0x00000000	0.0
4	0x00000000	0.0
5	0x00000000	0.0
