results/NearSingularity03/NearSingularity/NearSingularity-704.onnx (onnx, 621844 bytes, 7 tensors)

network_body._body_endoder.seq_layers.0.weight f4 [256, 85]
0	0x3e341331	0.17585446
1	0x3e20729b	0.15668719
2	0x3e180fc1	0.1484976
3	0xbdac31f2	-0.08407964
4	0xbc61fc95	-0.01379313
5	0x3dfd51bc	0.12369105
6	0x3e0bb49c	0.13643116
7	0x3de61880	0.11235142
8	0x3d12fe51	0.035887066
9	0x3e04f280	0.12983131
10	0xbe4c3cac	-0.1994502
11	0xbcd5cbca	-0.02609815
12	0xbd9452b2	-0.072423354
13	0x3de0551f	0.109537356
14	0x3dc9657a	0.09833808
15	0xbe582837	-0.21109091
16	0x3d4aee18	0.04954347
17	0xbdfca219	-0.12335605
18	0x3cb34504	0.021883495
19	0xbd5ec40d	-0.054386187
20	0x3e86c83e	0.26324648
21	0xbd8732d9	-0.06601495
22	0xbe0fae54	-0.14031345
23	0x3d2e7565	0.042592425
24	0xbced4114	-0.028961696
25	0x3e009a55	0.12558873
26	0xbd8953c2	-0.06705429
27	0xbe89ece4	-0.26938546
28	0x3ce01381	0.02735305
29	0xbd71ee1c	-0.05906497
30	0xbc29bc07	-0.010359771
31	0xbd69b49f	-0.05705702
32	0x3e1f9f7d	0.15588184
33	0xbe39a068	-0.18127596
34	0xbc45ec83	-0.012080315
35	0xbc7c8c0b	-0.015414248
36	0xbdea79be	-0.11449002
37	0xbbe203fe	-0.0068974486
38	0xbd629b5b	-0.05532394
39	0xbda527a8	-0.080642045
40	0x3e159e48	0.14611161
41	0xbd1cc31f	-0.03827202
42	0x3e37430b	0.17896669
43	0x3d6a2654	0.05716546
44	0x3e0fb380	0.14033318
45	0xbe437920	-0.19089174
46	0xbd627dd0	-0.055295765
47	0xbdc8db7c	-0.09807488
48	0x3e30578d	0.17220898
49	0xbdc74b15	-0.09731118
50	0xbd7b75e1	-0.061391715
51	0x3c7a3438	0.015271239
52	0xbd2d0f9e	-0.04225122
53	0xbcf4bbd8	-0.029874727
54	0x3bdf9565	0.006823229
55	0xbe0e3344	-0.13886744
56	0xbd96eb53	-0.07369103
57	0xbd2e7ce1	-0.042599563
58	0xbd4e2bbc	-0.050334677
59	0x3adaf029	0.0016703653
60	0x3d5ca783	0.05387069
61	0xbd7f52b0	-0.062334716
62	0x3c339864	0.010961626
63	0xbe08958d	-0.13338299
64	0x3b1e9be5	0.0024201807
65	0xbdf79079	-0.12088103
66	0x3d1999a9	0.037500057
67	0x3e24a1f2	0.16077402
68	0xbdf46141	-0.11932612
69	0xbe5650af	-0.20929216
70	0x3e27f79c	0.16403049
71	0xbd90c50a	-0.07068832
72	0xbe4aea01	-0.19815828
73	0xbbbb2fd5	-0.005712489
74	0xbcc3be1f	-0.023894368
75	0x3e0a73bd	0.13520713
76	0xbdd5da0a	-0.10441978
77	0x3c46e1d9	0.012138807
78	0xbe2ebfc6	-0.17065343
79	0x3e26cc5b	0.16288893
80	0xbb2d8cad	-0.0026481554
81	0xbd864fc7	-0.06558185
82	0xbd5850d6	-0.052811466
83	0xbdfd93df	-0.1238172
84	0x3e007f35	0.12548526
85	0xbe70713f	-0.234807
86	0x3d93d434	0.07218209
87	0xbdd77ecc	-0.105222315
88	0x3c9231fc	0.0178461
89	0x3b422852	0.0029626084
90	0xbe358b4e	-0.17728922
91	0xbd647b63	-0.055781733
92	0x3d3ae1a6	0.04562535
93	0x3c810d13	0.015753305
94	0xbe4f87fd	-0.20266719
95	0xbdc68f4d	-0.09695301
96	0xbdf60934	-0.12013474
97	0x3d2cd73d	0.042197455
98	0x3cb9ac1c	0.022665076
99	0x3d80d7c0	0.06291151
100	0xbd26fc0b	-0.04076771
101	0xbda46aa9	-0.08028156
102	0xbd21110a	-0.03932289
103	0xbe12a06f	-0.14319013
104	0x3cdde197	0.027085109
105	0xbc43947e	-0.011937259
106	0xbd3a274b	-0.04544763
107	0xbdd775da	-0.10520525
108	0x3d2c27a0	0.042029977
109	0x3c742f96	0.0149039235
110	0xbe151ad9	-0.14561023
111	0xbd3bf802	-0.045890816
112	0x3d2a3681	0.041555885
113	0x3e7b011a	0.24512139
114	0xbd608bc4	-0.05482079
115	0xbbb82d84	-0.0056206603
116	0xba13ec8f	-0.0005642855
117	0xbd2a06ad	-0.041510273
118	0xbe10d405	-0.14143379
119	0x3e32ea41	0.17472173
120	0x3b850e30	0.004060529
121	0xbe048ed6	-0.12945113
122	0x3e59d87d	0.2127399
123	0xbc8e4e9a	-0.017371465
124	0xbd502668	-0.050817877
125	0xbd28f6f6	-0.041251145
126	0xbc929ba7	-0.017896486
127	0xbdd1ded2	-0.10247578
128	0x3cda786a	0.026668746
129	0x3e09a52a	0.13441911
130	0xbcb551eb	-0.022133788
131	0x3e0328f9	0.12808599
132	0xbd1b3641	-0.037893537
133	0xbde5a486	-0.11213021
134	0x3c92626d	0.017869199
135	0xbdeac2cf	-0.11462938
136	0xbd209597	-0.03920516
137	0x3cba6b14	0.022756137
138	0xbca2657d	-0.019823784
139	0x3d4bd19e	0.049760453
140	0x3d6079d9	0.054803703
141	0xbcdd1c0d	-0.026990915
142	0x3e37dd76	0.17955574
143	0x3b20d709	0.0024542233
144	0x3d8690ce	0.06570588
145	0xbdba3e76	-0.09093945
146	0xbdfd6205	-0.12372211
147	0x3dd46587	0.10370927
148	0x3c4ae584	0.012383822
149	0x3d6c9a3d	0.05776428
150	0xbd57377f	-0.05254316
151	0x3cee3a97	0.029080672
152	0x3e431afb	0.19053261
153	0xbd443d81	-0.047910217
154	0x3df7f3f8	0.1210708
155	0xbcc4045a	-0.023927856
156	0x3ca6468a	0.020297308
157	0x3a3fd65c	0.0007318014
158	0x3e420bf7	0.18949877
159	0x3e0b98be	0.13632485
160	0xbd035ef8	-0.03207299
161	0x3e39c1a3	0.18140273
162	0xbd0936d0	-0.03349954
163	0x3ddb7d0c	0.1071721
164	0xbde3b130	-0.1111778
165	0x3e4d45e2	0.2004619
166	0xbd6b8354	-0.05749829
167	0xbe11dad9	-0.1424364
168	0x3d55aca0	0.05216658
169	0x3cd73e4b	0.02627482
170	0xbd5da2ba	-0.054110266
171	0x3d93832b	0.07202753
172	0x3df92e9d	0.12167094
173	0xbd285288	-0.041094333
174	0xbdf3adc4	-0.118983775
175	0xbe09d4a8	-0.13460028
176	0xbd4356b1	-0.047690097
177	0xbd1feadf	-0.03904235
178	0x3e1ce278	0.15320766
179	0xbc59820b	-0.013275634
180	0xbe0e5bbd	-0.13902183
181	0x3d3c5208	0.04597667
182	0xbb165de1	-0.002294414
183	0x3e12e7e3	0.1434627
184	0x3e04376b	0.12911765
185	0xbe26ebcd	-0.16300888
186	0xbddcfe9a	-0.10790749
187	0xbcffba61	-0.031216802
188	0xbd7748ea	-0.06037227
189	0x3df7c1dc	0.120975226
190	0x3e2191c0	0.15778255
191	0xbda370a0	-0.07980466
192	0x3cd585ec	0.026064835
193	0x3dde51d9	0.10855455
194	0x3da292aa	0.0793813
195	0xbdf5ae4e	-0.119961366
196	0x3e2ae328	0.16688216
197	0xbe04aed7	-0.12957321
198	0x3e39a818	0.18130529
199	0xbe137551	-0.14400221
200	0x3d73be13	0.05950744
201	0xbc4caa2d	-0.012491745
202	0xbd49a5aa	-0.049230255
203	0xbc5cb99a	-0.013471985
204	0x3e087bd7	0.13328491
205	0x3e2ccb95	0.16874535
206	0xbd447d23	-0.047970902
207	0x3dbad183	0.091219924
208	0xbd587994	-0.05285032
209	0x3e3fb6f2	0.18722132
210	0x3e403204	0.1876908
211	0xbdf686a1	-0.12037397
212	0xbe79880e	-0.24368307
213	0xbe06cf3a	-0.13164988
214	0xbc90a5db	-0.017657211
215	0x3dbe2a16	0.09285371
216	0xbe0bd582	-0.13655666
217	0xbd247555	-0.04015096
218	0xbcf80c0c	-0.030279182
219	0xbd5b5bfc	-0.05355452
220	0xbc08e14d	-0.008354497
221	0xbd3a578b	-0.045493644
222	0xbdd6062c	-0.10450396
223	0xbd06f5fc	-0.032949433
224	0x3b25655d	0.002523742
225	0xbddab7c4	-0.10679582
226	0xbc839ea2	-0.016066853
227	0x3e021c05	0.12706001
228	0x3d92e61b	0.071727954
229	0x3d60fb2c	0.054927036
230	0x3e3fc3c8	0.18727028
231	0x3d7ba24d	0.06143408
232	0xbd13da45	-0.03609683
233	0x3ccd818f	0.025086192
234	0x3e114085	0.14184768
235	0x3d4428ce	0.047890477
236	0x3ce6fd49	0.028196948
237	0xbd45cc7c	-0.048290715
238	0x3d216c6d	0.039410044
239	0xbe0aec34	-0.13566667
240	0xbd44adca	-0.0480173
241	0xbdbd87fe	-0.09254454
242	0x3db5722a	0.08859666
243	0x3d991575	0.07474796
244	0xbe241c05	-0.16026314
245	0x3e0efa6c	0.13962716
246	0x3e007cca	0.12547603
247	0x3d7fa990	0.062417567
248	0x3c243a14	0.0100236125
249	0xbd0baaf9	-0.0340986
250	0x3b5dbd87	0.003383489
251	0x3df01e0a	0.117244795
252	0xbd93bfbe	-0.07214306
253	0x3e094c56	0.13408026
254	0x3d194631	0.037420455
255	0x3e15a39a	0.1461319

network_body._body_endoder.seq_layers.0.bias f4 [256]
0	0x00000000	0.0
1	0x00000000	0.0
2	0x00000000	0.0
3	0x00000000	0.0
4	0x00000000	0.0
5	0x00000000	0.0
6	0x00000000	0.0
7	0x00000000	0.0
8	0x00000000	0.0
9	0x00000000	0.0
10	0x00000000	0.0
11	0x00000000	0.0
12	0x00000000	0.0
13	0x00000000	0.0
14	0x00000000	0.0
15	0x00000000	0.0
16	0x00000000	0.0
17	0x00000000	0.0
18	0x00000000	0.0
19	0x00000000	0.0
20	0x00000000	0.0
21	0x00000000	0.0
22	0x00000000	0.0
23	0x00000000	0.0
24	0x00000000	0.0
25	0x00000000	0.0
26	0x00000000	0.0
27	0x00000000	0.0
28	0x00000000	0.0
29	0x00000000	0.0
30	0x00000000	0.0
31	0x00000000	0.0
32	0x00000000	0.0
33	0x00000000	0.0
34	0x00000000	0.0
35	0x00000000	0.0
36	0x00000000	0.0
37	0x00000000	0.0
38	0x00000000	0.0
39	0x00000000	0.0
40	0x00000000	0.0
41	0x00000000	0.0
42	0x00000000	0.0
43	0x00000000	0.0
44	0x00000000	0.0
45	0x00000000	0.0
46	0x00000000	0.0
47	0x00000000	0.0
48	0x00000000	0.0
49	0x00000000	0.0
50	0x00000000	0.0
51	0x00000000	0.0
52	0x00000000	0.0
53	0x00000000	0.0
54	0x00000000	0.0
55	0x00000000	0.0
56	0x00000000	0.0
57	0x00000000	0.0
58	0x00000000	0.0
59	0x00000000	0.0
60	0x00000000	0.0
61	0x00000000	0.0
62	0x00000000	0.0
63	0x00000000	0.0
64	0x00000000	0.0
65	0x00000000	0.0
66	0x00000000	0.0
67	0x00000000	0.0
68	0x00000000	0.0
69	0x00000000	0.0
70	0x00000000	0.0
71	0x00000000	0.0
72	0x00000000	0.0
73	0x00000000	0.0
74	0x00000000	0.0
75	0x00000000	0.0
76	0x00000000	0.0
77	0x00000000	0.0
78	0x00000000	0.0
79	0x00000000	0.0
80	0x00000000	0.0
81	0x00000000	0.0
82	0x00000000	0.0
83	0x00000000	0.0
84	0x00000000	0.0
85	0x00000000	0.0
86	0x00000000	0.0
87	0x00000000	0.0
88	0x00000000	0.0
89	0x00000000	0.0
90	0x00000000	0.0
91	0x00000000	0.0
92	0x00000000	0.0
93	0x00000000	0.0
94	0x00000000	0.0
95	0x00000000	0.0
96	0x00000000	0.0
97	0x00000000	0.0
98	0x00000000	0.0
99	0x00000000	0.0
100	0x00000000	0.0
101	0x00000000	0.0
102	0x00000000	0.0
103	0x00000000	0.0
104	0x00000000	0.0
105	0x00000000	0.0
106	0x00000000	0.0
107	0x00000000	0.0
108	0x00000000	0.0
109	0x00000000	0.0
110	0x00000000	0.0
111	0x00000000	0.0
112	0x00000000	0.0
113	0x00000000	0.0
114	0x00000000	0.0
115	0x00000000	0.0
116	0x00000000	0.0
117	0x00000000	0.0
118	0x00000000	0.0
119	0x00000000	0.0
120	0x00000000	0.0
121	0x00000000	0.0
122	0x00000000	0.0
123	0x00000000	0.0
124	0x00000000	0.0
125	0x00000000	0.0
126	0x00000000	0.0
127	0x00000000	0.0
128	0x00000000	0.0
129	0x00000000	0.0
130	0x00000000	0.0
131	0x00000000	0.0
132	0x00000000	0.0
133	0x00000000	0.0
134	0x00000000	0.0
135	0x00000000	0.0
136	0x00000000	0.0
137	0x00000000	0.0
138	0x00000000	0.0
139	0x00000000	0.0
140	0x00000000	0.0
141	0x00000000	0.0
142	0x00000000	0.0
143	0x00000000	0.0
144	0x00000000	0.0
145	0x00000000	0.0
146	0x00000000	0.0
147	0x00000000	0.0
148	0x00000000	0.0
149	0x00000000	0.0
150	0x00000000	0.0
151	0x00000000	0.0
152	0x00000000	0.0
153	0x00000000	0.0
154	0x00000000	0.0
155	0x00000000	0.0
156	0x00000000	0.0
157	0x00000000	0.0
158	0x00000000	0.0
159	0x00000000	0.0
160	0x00000000	0.0
161	0x00000000	0.0
162	0x00000000	0.0
163	0x00000000	0.0
164	0x00000000	0.0
165	0x00000000	0.0
166	0x00000000	0.0
167	0x00000000	0.0
168	0x00000000	0.0
169	0x00000000	0.0
170	0x00000000	0.0
171	0x00000000	0.0
172	0x00000000	0.0
173	0x00000000	0.0
174	0x00000000	0.0
175	0x00000000	0.0
176	0x00000000	0.0
177	0x00000000	0.0
178	0x00000000	0.0
179	0x00000000	0.0
180	0x00000000	0.0
181	0x00000000	0.0
182	0x00000000	0.0
183	0x00000000	0.0
184	0x00000000	0.0
185	0x00000000	0.0
186	0x00000000	0.0
187	0x00000000	0.0
188	0x00000000	0.0
189	0x00000000	0.0
190	0x00000000	0.0
191	0x00000000	0.0
192	0x00000000	0.0
193	0x00000000	0.0
194	0x00000000	0.0
195	0x00000000	0.0
196	0x00000000	0.0
197	0x00000000	0.0
198	0x00000000	0.0
199	0x00000000	0.0
200	0x00000000	0.0
201	0x00000000	0.0
202	0x00000000	0.0
203	0x00000000	0.0
204	0x00000000	0.0
205	0x00000000	0.0
206	0x00000000	0.0
207	0x00000000	0.0
208	0x00000000	0.0
209	0x00000000	0.0
210	0x00000000	0.0
211	0x00000000	0.0
212	0x00000000	0.0
213	0x00000000	0.0
214	0x00000000	0.0
215	0x00000000	0.0
216	0x00000000	0.0
217	0x00000000	0.0
218	0x00000000	0.0
219	0x00000000	0.0
220	0x00000000	0.0
221	0x00000000	0.0
222	0x00000000	0.0
223	0x00000000	0.0
224	0x00000000	0.0
225	0x00000000	0.0
226	0x00000000	0.0
227	0x00000000	0.0
228	0x00000000	0.0
229	0x00000000	0.0
230	0x00000000	0.0
231	0x00000000	0.0
232	0x00000000	0.0
233	0x00000000	0.0
234	0x00000000	0.0
235	0x00000000	0.0
236	0x00000000	0.0
237	0x00000000	0.0
238	0x00000000	0.0
239	0x00000000	0.0
240	0x00000000	0.0
241	0x00000000	0.0
242	0x00000000	0.0
243	0x00000000	0.0
244	0x00000000	0.0
245	0x00000000	0.0
246	0x00000000	0.0
247	0x00000000	0.0
248	0x00000000	0.0
249	0x00000000	0.0
250	0x00000000	0.0
251	0x00000000	0.0
252	0x00000000	0.0
253	0x00000000	0.0
254	0x00000000	0.0
255	0x00000000	0.0

network_body._body_endoder.seq_layers.2.weight f4 [256, 256]
0	0x3dc5d065	0.09658889
1	0x3d8640c5	0.065553226
2	0x3d9a1165	0.07522849
3	0x3c6ff1c3	0.014645043
4	0x3d9356bb	0.07194277
5	0x3d2f8ccd	0.042858887
6	0x3d44217e	0.047883503
7	0x3cec4f55	0.028846422
8	0xbde2b799	-0.11070175
9	0xbcae48d4	-0.021274962
10	0xbd492fb9	-0.049117777
11	0xbbd12aae	-0.0063832616
12	0xbc934e07	-0.017981542
13	0x3d9eb3c4	0.07749131
14	0xbdc5997e	-0.09648417
15	0xbda3b000	-0.07992554
16	0x3d057add	0.032587875
17	0xbd2b0ad7	-0.041758385
18	0x3d4b4215	0.049623568
19	0x3ca3bb4f	0.019986777
20	0xbdba9ca4	-0.09111908
21	0x3e295214	0.16535217
22	0x3d503e4d	0.050840665
23	0xbd2cb1fd	-0.04216193
24	0x3ca8543c	0.020547979
25	0xbd9d2d84	-0.07674697
26	0xbd263ed4	-0.04058726
27	0xbdc9855c	-0.098398894
28	0xbb9416c4	-0.0045193154
29	0x3d87cd3d	0.06630943
30	0xbddef484	-0.108864814
31	0x3d524680	0.051336765
32	0xbd75cab5	-0.06000777
33	0x3cae651c	0.021288447
34	0xbd7c4644	-0.061590448
35	0xbe1277ba	-0.14303485
36	0x3d480dc8	0.048841268
37	0x3d42ffc8	0.047607213
38	0xbd1886e6	-0.037238024
39	0xbd6c78a4	-0.05773224
40	0x3d58558f	0.05281597
41	0x3cc8938c	0.024484418
42	0xbcf47539	-0.029841052
43	0xbca075e4	-0.019587465
44	0xbcc91d07	-0.024549974
45	0x3c48efee	0.012264235
46	0x3d2bed53	0.041974377
47	0x3c4540c6	0.012039369
48	0xbceb9ad3	-0.02876035
49	0x3d52d802	0.051475532
50	0xbb34c203	-0.002758146
51	0xbc340d6e	-0.01098953
52	0x3ab95b6d	0.0014141627
53	0xbc0a21db	-0.008430923
54	0x3d304f73	0.04304452
55	0x3db3d42d	0.08780704
56	0xbde21c1d	-0.110405184
57	0xbcd2aaa9	-0.025716143
58	0xbd66eadc	-0.056376323
59	0xbdaf9e40	-0.08575106
60	0xbd3743e3	-0.044742476
61	0x3d05088d	0.032478858
62	0xbdfe9c5b	-0.12432166
63	0xbd659bb3	-0.05605669
64	0xbcc78c49	-0.024358885
65	0x3c95d44a	0.018289704
66	0xbe089b95	-0.133406
67	0x3c328c2f	0.01089768
68	0x3d0a9752	0.033835717
69	0xbd917e2e	-0.07104145
70	0xbcaf76c2	-0.021418933
71	0x3d1df4a4	0.038563386
72	0x3ceafb6c	0.02868434
73	0xbc4395dc	-0.011937585
74	0x3d709b0c	0.058741614
75	0xbc1e0a44	-0.009646002
76	0x3d5e18fb	0.054223042
77	0x3cbae03b	0.022812
78	0xbd964589	-0.073374815
79	0x3d46fbbf	0.048579928
80	0xbce91545	-0.028452525
81	0xbbafe850	-0.00536827
82	0xbb5e41cf	-0.0033913737
83	0xbd8b5527	-0.06803351
84	0x3ca07d86	0.019591104
85	0xbd8c73c0	-0.06858015
86	0x3d01f73d	0.031729925
87	0x3d8aa158	0.06769055
88	0x3d07efd3	0.0331877
89	0xbd0edc08	-0.034877807
90	0xbd1a3110	-0.037644446
91	0xbd2f7dc7	-0.04284456
92	0xbc8dd230	-0.01731214
93	0x3cdb1984	0.026745565
94	0x3ddd8d86	0.10818009
95	0x3c3fb73d	0.011701402
96	0xbd2b07fd	-0.041755665
97	0x3d0007b3	0.031257343
98	0xbd1e7e37	-0.038694587
99	0xbbee372c	-0.0072697606
100	0xbd8e359d	-0.0694382
101	0xbe0e47c4	-0.13894564
102	0x3d4094b3	0.04701681
103	0x3c9d64fd	0.019213194
104	0xbcea9d06	-0.028639328
105	0xbd5c6cd7	-0.053814735
106	0x3dc4f5e3	0.09617212
107	0xbdd315c2	-0.10306884
108	0xbb2a2d5e	-0.0025966982
109	0x3cb780e9	0.022400336
110	0x3c3ca1dc	0.0115132
111	0xbdbeaf6d	-0.093108036
112	0x3d7078e1	0.05870903
113	0xbd2f4bb8	-0.04279682
114	0xbc97a664	-0.018511958
115	0x3d34efe9	0.04417411
116	0xbc9f0028	-0.019409254
117	0xbc803609	-0.015650766
118	0xbbad57dd	-0.005290015
119	0xbc910c44	-0.017706044
120	0x3dcc2a02	0.0996895
121	0xbd0886ef	-0.033331808
122	0xbd4fe78c	-0.05075793
123	0x3d113221	0.035448197
124	0x3bcae688	0.0061920322
125	0xbcdd8e85	-0.027045498
126	0x3dbd8023	0.09252956
127	0x3d9fda27	0.07805281
128	0x3ce5f565	0.028071115
129	0x3d9ad7de	0.07560705
130	0xbc896475	-0.016771534
131	0xbb8bc39a	-0.004265261
132	0xbddaaaff	-0.10677146
133	0x3aa1f1d3	0.0012355394
134	0x3cd6a157	0.02619998
135	0xbc076ad1	-0.008265213
136	0x3c354107	0.011062867
137	0xbd834753	-0.064100884
138	0x3e1336d0	0.14376378
139	0x3d9d252d	0.07673106
140	0x3d790ba9	0.060802136
141	0x3e0dfbc0	0.13865566
142	0xbd2548a2	-0.04035247
143	0xbc88cdde	-0.016699728
144	0x3c2baa2b	0.010477583
145	0xbe02978f	-0.12753128
146	0x3bdaa74e	0.0066727763
147	0x3d8110ac	0.06302008
148	0x3df580b8	0.11987442
149	0x3d83658e	0.064158544
150	0xbe0487e7	-0.12942468
151	0xbcde9d16	-0.027174514
152	0xbd7fa122	-0.062409528
153	0xbd10e97b	-0.035378914
154	0xbc820f14	-0.01587633
155	0xbccf6e5e	-0.025321182
156	0x3dadfb3c	0.08495185
157	0xbd492eb0	-0.04911679
158	0x3e2dd1c6	0.16974553
159	0xbcf921c2	-0.030411605
160	0xbdaca966	-0.08430748
161	0x3c540b10	0.012942091
162	0x3d0dcfae	0.034621887
163	0x3bc2cce4	0.005944835
164	0x3c9ef8ef	0.01940581
165	0xbd1c9d68	-0.03823605
166	0x3a4d3211	0.000782759
167	0xbd02803f	-0.031860586
168	0x3d2e0a10	0.042490065
169	0x3bfb7496	0.0076738102
170	0xbdc1dccd	-0.094659425
171	0x3db870ad	0.09005866
172	0xbd24f352	-0.04027111
173	0x3d31bb7f	0.0433917
174	0xbd90ec57	-0.07076328
175	0x3da79503	0.081827186
176	0xbd3b271a	-0.045691587
177	0x3ce47a6f	0.027890412
178	0x3e0f0a2b	0.13968723
179	0x3d02f808	0.031974822
180	0x3ce0378b	0.027370235
181	0xbd8cf32f	-0.06882321
182	0x3c3f83d4	0.011689145
183	0xbd635cb9	-0.05550835
184	0x3e0b9685	0.13631637
185	0x3d65a142	0.05606199
186	0xbd8257a5	-0.06364373
187	0x3d13be29	0.036070023
188	0x3c2d479e	0.010576157
189	0xbd31c1fa	-0.04339788
190	0x3d4d0534	0.05005379
191	0x3df4f9b0	0.119616866
192	0xbd8bf703	-0.06834223
193	0x3d350f9a	0.044204332
194	0x3c9d1d1c	0.01917892
195	0x3cb59f02	0.022170547
196	0xbddc4bf2	-0.10756673
197	0xbd7ee368	-0.06222859
198	0xbbb3410b	-0.0054704
199	0x3d840bdf	0.06447577
200	0x3c7dbca2	0.015486868
201	0x3e0e7cdc	0.13914818
202	0xbd3ede5f	-0.04659879
203	0xbdcfb3dd	-0.10141728
204	0xbcd8c1fd	-0.026459688
205	0xbd85f4b6	-0.065408155
206	0xbc945fa1	-0.018112006
207	0x3dca8077	0.09887784
208	0x3d746a07	0.059671428
209	0xbd7e6f95	-0.06211813
210	0xbdce38cd	-0.10069428
211	0x3d9b2953	0.07576241
212	0x3dc52b1a	0.096273616
213	0x3cc460eb	0.023971995
214	0x3cb33d06	0.021879684
215	0x3ce4fbbf	0.027952073
216	0x3d5cef2b	0.053939026
217	0xbd8f7429	-0.07004578
218	0x3cbbeaaa	0.022939045
219	0x3de65777	0.11247151
220	0xbcc4bcdc	-0.024015836
221	0x3b7bbbf0	0.003841158
222	0x3c81ab35	0.015828708
223	0xbd19fd69	-0.037595186
224	0xbddd6a2b	-0.108112656
225	0xbbd7a188	-0.0065805353
226	0x3d69ccef	0.057080206
227	0xbc504597	-0.012711904
228	0x3d7739bb	0.06035779
229	0xbd0deb92	-0.034648485
230	0xbd2ecc9d	-0.042675603
231	0xba05e956	-0.0005108317
232	0xbc081316	-0.008305332
233	0xbb7f440f	-0.0038950478
234	0xbde2145a	-0.11039038
235	0xbe01a96a	-0.12662283
236	0x3d2d559d	0.042317975
237	0x3d6afafc	0.057368264
238	0xbd50e5a3	-0.05100025
239	0xbdd09d28	-0.10186225
240	0xbc0b3798	-0.008497141
241	0xbd9402a6	-0.07227068
242	0x3ce4b98a	0.027920503
243	0x3c423b6d	0.0118549885
244	0x3dcda8e3	0.10041978
245	0x3c134937	0.008989624
246	0x3e0e6d5e	0.13908908
247	0xbe0b7cca	-0.13621822
248	0x3e11cac9	0.14237513
249	0xbd17ed31	-0.037091438
250	0x3cc58c89	0.024114864
251	0xbd19637e	-0.0374484
252	0x3d2b473a	0.041815974
253	0x3d4f5e27	0.0506269
254	0xbd6099a3	-0.05483402
255	0x3ddb3387	0.107031874

network_body._body_endoder.seq_layers.4.weight f4 [256, 256]
0	0xba2c22a5	-0.0006566442
1	0x3c26c0b9	0.010177785
2	0xbd664652	-0.056219406
3	0x3cc74172	0.024323199
4	0x3c906e5c	0.017630748
5	0xbc845e62	-0.016158286
6	0x3c56d370	0.013111934
7	0xbceed0c2	-0.029152278
8	0xbd247d6e	-0.04015868
9	0x3d50ca4c	0.050974175
10	0x3de995ee	0.1140555
11	0xbdaa9556	-0.08329265
12	0xbd606aef	-0.05478948
13	0x3c1a616d	0.009422642
14	0xbd96ae1b	-0.07357427
15	0x39540c10	0.00020222389
16	0xbc060a3d	-0.008181152
17	0xbcb02ebc	-0.02150666
18	0x3cc035a9	0.023463087
19	0x3d51698f	0.05112606
20	0xbb070329	-0.0020601249
21	0x3c9db311	0.019250425
22	0xbc20f51d	-0.009824065
23	0x3d4f0335	0.050540168
24	0x3ca83ecd	0.020537758
25	0xbbb168e6	-0.005414116
26	0xbe033fb9	-0.12817277
27	0xbc8f3288	-0.01748015
28	0x3cd1c621	0.02560717
29	0x3c666d3a	0.014064128
30	0xbc000046	-0.007812565
31	0xbc75c092	-0.014999526
32	0xbdcfdbd5	-0.101493515
33	0xbd002f84	-0.031295314
34	0x3cfb1be8	0.030652955
35	0xbe191c17	-0.14952122
36	0xbc06aeaf	-0.008220359
37	0xbdcc56d9	-0.099775024
38	0x3c6c5b4a	0.014426062
39	0xbcf5924f	-0.029976992
40	0x3dd14a92	0.10219301
41	0x3ca753ea	0.020425756
42	0xbc896fa0	-0.01677686
43	0xbd2887d7	-0.041145172
44	0xbdc48145	-0.09594969
45	0xbd3bdcb9	-0.045864794
46	0x3d59b6a1	0.053152684
47	0xbdd42406	-0.103584334
48	0x3cecb003	0.028892523
49	0x3dcdc695	0.10047642
50	0xbd45c2ae	-0.048281364
51	0x3cd037af	0.025417177
52	0x3acafcd6	0.0015486728
53	0x3c4594b5	0.01205938
54	0x3d858acc	0.06520614
55	0xbd8c456a	-0.06849177
56	0x3d2339e0	0.039850116
57	0x3c41bedf	0.011825292
58	0xbc4dd712	-0.012563484
59	0xbde3c9a2	-0.11122443
60	0x3c1c604e	0.009544445
61	0x3cbc6bbb	0.023000589
62	0x3e22ebb2	0.15910223
63	0x3cbea100	0.02327013
64	0x3d94dbad	0.07268462
65	0x3d0c3499	0.03422985
66	0x3e12bdc9	0.1433021
67	0xbe215274	-0.1575411
68	0x3db3717f	0.08761882
69	0xbc74ca64	-0.014940832
70	0x3cf88202	0.03033543
71	0x3d3f310b	0.04667763
72	0xbe4d4f33	-0.20049743
73	0x3db02047	0.085999064
74	0xbd9b94d9	-0.0759675
75	0x3c8973b1	0.016778799
76	0x3d4aa5bc	0.049474463
77	0xbd76dc69	-0.060268793
78	0x3c92f3e8	0.01793857
79	0xbc9435c7	-0.01809205
80	0x3d4fa181	0.05069113
81	0x3b40ea7e	0.0029436643
82	0x3d25113f	0.04029965
83	0x3d148280	0.036257267
84	0x3d8effb8	0.06982368
85	0xbd68c482	-0.05682803
86	0xb9b5dd6e	-0.00034687988
87	0xbd6874af	-0.056751903
88	0x3bee0493	0.007263729
89	0xbd8008fd	-0.062517144
90	0x3cbef688	0.023310915
91	0x3a9aea30	0.0011819061
92	0xbd6b8e5d	-0.057508815
93	0x3d30eca7	0.04319444
94	0xbdcd7027	-0.10031157
95	0xbdb733b3	-0.08945408
96	0xbde0729f	-0.10959362
97	0xbcba281d	-0.022724206
98	0x3c4eecec	0.012629729
99	0x3be169c5	0.006879064
100	0xbe05f120	-0.13080263
101	0xbd0e3094	-0.034714296
102	0x3da3ed28	0.08004218
103	0x3951511a	0.00019962006
104	0x3d360f5f	0.044448253
105	0x3c51a83e	0.01279646
106	0xbd83af62	-0.06429936
107	0x3c7c30c0	0.015392482
108	0xbcbae7a1	-0.022815527
109	0x3d91de84	0.071225196
110	0xbc179368	-0.009251453
111	0xbd1107f0	-0.03540796
112	0x3d321585	0.043477554
113	0x3c9af1d5	0.018914143
114	0x3ca4c4aa	0.020113308
115	0x3bc5dd48	0.0060383417
116	0xbd806ee6	-0.06271152
117	0xbd7cf489	-0.061756644
118	0xbd13d45f	-0.036091205
119	0xbd27bfcd	-0.0409544
120	0xbc0658e4	-0.008199904
121	0x3d3daf27	0.046309616
122	0x3d85cac1	0.06532813
123	0x3cb4b20c	0.022057556
124	0xbb5d0738	-0.0033726227
125	0xbd9f1582	-0.07767774
126	0x3d74dc9e	0.05978071
127	0x3d5f2ee0	0.054488063
128	0x3bb64cee	0.00556337
129	0x3c5e71ae	0.013576908
130	0xbd332822	-0.043739446
131	0xbd13f2df	-0.03612029
132	0x3cd1d58f	0.025614528
133	0x3e34a2a0	0.17640162
134	0x3cde0b87	0.027105106
135	0x3d1e2228	0.038606793
136	0xbd6fed33	-0.05857582
137	0x3cb64cf2	0.022253487
138	0xbd1b53a4	-0.037921563
139	0x3cf34939	0.029698001
140	0x3bb14026	0.0054092584
141	0x3c9c7cc3	0.01910246
142	0x3bbf3cfe	0.0058361283
143	0x3d4730c6	0.0486305
144	0x3cd39117	0.02582602
145	0x3e16078d	0.14651318
146	0xbc8b3a5f	-0.016995607
147	0x3d3a1f1a	0.045439817
148	0xbdad1078	-0.08450407
149	0x3c94940a	0.018136997
150	0xbdbc9baf	-0.09209382
151	0xbc30fb29	-0.010802069
152	0xbda22c42	-0.07918598
153	0xbd3ba423	-0.04581083
154	0x3d1e29cd	0.038614083
155	0x3c884bd5	0.016637722
156	0xbd3fba6c	-0.046808645
157	0xbd618b6d	-0.055064607
158	0xbcb1911d	-0.02167564
159	0xbd33a8cc	-0.04386215
160	0x3cc6acc8	0.02425231
161	0xbd531f98	-0.051543802
162	0x3c73fd6e	0.014891965
163	0xbcd4decd	-0.025985146
164	0xbcd75d45	-0.026289592
165	0xbd3ed255	-0.046587307
166	0xbdd0b618	-0.101909816
167	0xbe082616	-0.13295779
168	0x3d468730	0.04846877
169	0x3db6938b	0.0891486
170	0x3dec0616	0.11524598
171	0xbd011b36	-0.03152009
172	0x3c58bd7f	0.013228773
173	0x3b8b2f17	0.004247557
174	0x3bf8e287	0.0075953635
175	0x3da2ce2a	0.07949479
176	0x3c586782	0.013208272
177	0x3b557e19	0.003257638
178	0xbd561e4d	-0.05227499
179	0xbd2c2fde	-0.042037837
180	0xbd91f286	-0.07126336
181	0xbc9c6b21	-0.019094052
182	0xbccb1d11	-0.024794133
183	0x3d41be11	0.047300402
184	0xbd09e178	-0.03366229
185	0xbbbcae11	-0.005758055
186	0xbd2f1eaa	-0.042753853
187	0x3d2cb9dd	0.04216944
188	0x3d513e1f	0.051084634
189	0xbb5649da	-0.0032697828
190	0xbd94d59d	-0.07267306
191	0x3d111af4	0.035426095
192	0x3c7df61f	0.015500574
193	0x3d14d2d3	0.03633387
194	0xbc338c2f	-0.010958715
195	0x3db23066	0.087006375
196	0xbdda11eb	-0.10647949
197	0x3c4e74f4	0.012601126
198	0x3d51604a	0.05111722
199	0x3d83252b	0.064035736
200	0xbd5fa38f	-0.05459934
201	0x3ce9355e	0.02846783
202	0xbdc96c52	-0.098351136
203	0x3e0cbc7e	0.13743779
204	0xbce201b3	-0.0275887
205	0xbd316215	-0.04330643
206	0x3d29b5d4	0.04143317
207	0x3d499bc5	0.04922082
208	0xbc729598	-0.014806174
209	0x3d0a9df3	0.03384204
210	0xbd8fe011	-0.07025159
211	0x3dc0c9f8	0.094135225
212	0xbca42215	-0.020035783
213	0x3d8ac623	0.06776073
214	0x3d6cffcb	0.05786113
215	0x3cd9115c	0.026497535
216	0x3c5e9b43	0.013586822
217	0x3dab7390	0.08371651
218	0xbd07a06d	-0.03311198
219	0xbd63ae4e	-0.05558615
220	0x3d4e0d21	0.05030549
221	0x3d1891fb	0.037248593
222	0xbbbc0166	-0.0057374714
223	0x3b0c0507	0.0021365301
224	0x3bea87ed	0.007157317
225	0xbb83c3b0	-0.0040211305
226	0xbd3f6600	-0.046728134
227	0x3dc0ded1	0.09417499
228	0xbd21c98b	-0.039498847
229	0x3ca5f41e	0.020258006
230	0x3dca82f3	0.09888258
231	0x3db86c4c	0.09005031
232	0x3ba89af5	0.0051454254
233	0x3d0a5add	0.03377806
234	0x3c4b5b2d	0.012411875
235	0x3aa37542	0.0012470859
236	0xbc2b9a5c	-0.010473814
237	0x3d411b6a	0.047145285
238	0xbd498f51	-0.049208943
239	0x3e05cd6e	0.13066646
240	0xbc03a0f7	-0.0080339825
241	0xbd2926b0	-0.04129666
242	0x3de02b73	0.10945787
243	0x3d12cd9d	0.03584062
244	0xbd5f28f3	-0.05448241
245	0x3c45b5c0	0.012067258
246	0xbd11503e	-0.035476916
247	0x3d4567f4	0.04819484
248	0xbd82b068	-0.06381303
249	0xbd8b4a39	-0.06801266
250	0x3d53e8d3	0.05173571
251	0x3c8e6757	0.01738326
252	0xbc04bb97	-0.0081013655
253	0xbba4d69d	-0.0050304667
254	0x3e1b7d73	0.15184574
255	0x3d9e6ffb	0.07736202

action_model._continuous_distribution.log_sigma f4 [1, 6]
0	0x00000000	0.0
1	0x00000000	0.0
2	0x00000000	0.0
3	0x00000000	0.0
4	0x00000000	0.0
5	0x00000000	0.0

action_model._continuous_distribution.mu.weight f4 [6, 256]
0	0x3b867605	0.0041034245
1	0xbb965db5	-0.0045888075
2	0xb9272733	-0.00015940964
3	0xb9976e57	-0.00028883174
4	0xbc143328	-0.0090454
5	0xbc1385b3	-0.009004044
6	0x3cf05be5	0.029340694
7	0xbc30ea00	-0.010797977
8	0xbca29d76	-0.019850474
9	0x391571bb	0.00014252115
10	0x3b13d3a9	0.002255658
11	0x3ca5e9f9	0.020253168
12	0xbb64b3e0	-0.0034897253
13	0x3ae6db30	0.001761293
14	0xbbaa30ec	-0.00519382
15	0xbcea7877	-0.028621895
16	0x3c2873b4	0.010281492
17	0xbc5eade8	-0.013591267
18	0xbbde2ca2	-0.006780223
19	0xbb98507f	-0.0046482678
20	0xbbd849dd	-0.006600602
21	0x3bb9aedf	0.005666598
22	0xbc59e3c3	-0.0132989315
23	0xbba07bcf	-0.0048975716
24	0xbbd746a3	-0.0065697
25	0x3c3e8fa5	0.011630927
26	0x3c000d4a	0.007815668
27	0xbad64928	-0.0016348707
28	0x3c0480fe	0.008087395
29	0x3caf1404	0.021371849
30	0x3c06d84c	0.00823028
31	0xbcaafad2	-0.020871554
32	0xbc669a3a	-0.014074856
33	0xbbca6037	-0.0061760205
34	0x3c8493dc	0.016183786
35	0x3c7f18bf	0.015569865
36	0x3ba824c0	0.005131334
37	0xbc1ea797	-0.009683511
38	0x3ca1049d	0.01965552
39	0xbb910fe6	-0.004426944
40	0xbc5b70e3	-0.0133936135
41	0xbc922619	-0.017840432
42	0xbc65a4ea	-0.014016369
43	0x3c63cd87	0.013903982
44	0x3bde377a	0.0067815157
45	0xbba746ca	-0.0051048743
46	0x3b946af9	0.0045293537
47	0xbba81845	-0.0051298463
48	0x3c13a048	0.009010382
49	0xbc5f2cb0	-0.013621494
50	0xbbe0cf18	-0.006860625
51	0xbc11af7b	-0.008891935
52	0xbc056dd0	-0.008143857
53	0x3a49c6db	0.0007697173
54	0x39d40853	0.00040441993
55	0xbc51e22d	-0.012810272
56	0xbb6adaaa	-0.00358359
57	0x3bb9b42c	0.00566723
58	0x3b1c39d3	0.0023838177
59	0xbc3cc55b	-0.011521663
60	0xbcd236db	-0.025660923
61	0xbc023d63	-0.007949206
62	0xbc189f22	-0.009315284
63	0x3c28f885	0.010313158
64	0xbc03c54e	-0.008042647
65	0x3c1d5b7e	0.009604333
66	0x3c778c8f	0.015109195
67	0x3c76b3da	0.015057528
68	0xb960d3b5	-0.00021441172
69	0x3c66ff63	0.014098975
70	0xbc67da52	-0.014151173
71	0x3b501320	0.003174968
72	0x3bf83827	0.0075750533
73	0xbc9b5a96	-0.018964093
74	0xbc46a5ea	-0.012124518
75	0x3b7f0dcb	0.0038918133
76	0x3b4d9060	0.0031366572
77	0x3ad502b3	0.0016251415
78	0x3a41d328	0.00073938305
79	0x3ca1ce42	0.019751672
80	0x3b2a6d17	0.0026004964
81	0xbc092876	-0.008371463
82	0xbc9fc21e	-0.019501742
83	0x3b385d47	0.002813177
84	0x3b2b753f	0.0026162413
85	0x3b62069d	0.0034488805
86	0xbc7f23e7	-0.015572525
87	0xbc444063	-0.011978242
88	0x3b4d0c78	0.003128795
89	0xbc07e70f	-0.008294835
90	0xba650792	-0.0008736785
91	0xb90c4d1d	-0.00013380167
92	0x3be3c76d	0.0069512636
93	0x3caf6cb3	0.021414137
94	0x3b91e86c	0.0044527557
95	0x3c1d4aff	0.0096004
96	0xbc698900	-0.014253855
97	0x3c4be34d	0.012444329
98	0xb9dae955	-0.00041754046
99	0x3bbd69b0	0.005780421
100	0x3b6bdc6b	0.0035989534
101	0x3c9d01d7	0.019165916
102	0x3be71808	0.0070524253
103	0x3c49d4df	0.012318819
104	0xbc6f38a5	-0.014600907
105	0xbc5a0785	-0.013307457
106	0xbb291f55	-0.002580603
107	0x3b93f8f4	0.0045157615
108	0xbc2f5535	-0.010701467
109	0x3c5a1d92	0.013312714
110	0xbb97b004	-0.004629137
111	0xbc860ecf	-0.016364483
112	0x3c66ca8b	0.014086376
113	0xbcee99f2	-0.029126141
114	0xbc1c42e3	-0.009537431
115	0x3cb4876f	0.022037236
116	0x3adcb9cd	0.0016840041
117	0xbc8c5acf	-0.017133145
118	0x3be8a1d7	0.007099371
119	0xbc0066d3	-0.007837015
120	0x3c5c688b	0.013452659
121	0xbc5827ba	-0.013193065
122	0xbc998dec	-0.018744431
123	0x3c1c1c97	0.009528301
124	0x38c9b358	9.617832e-05
125	0x3bfd175a	0.007723731
126	0xbce4def2	-0.02793834
127	0xbc73bbb7	-0.014876298
128	0xbc38b196	-0.011272809
129	0xbcbe906d	-0.023262227
130	0x3cf4a69f	0.029864607
131	0x3ca0a338	0.019609079
132	0x3c3da911	0.011575953
133	0x3d17796b	0.036981028
134	0x3bb4e79c	0.005520774
135	0xbb85c73c	-0.0040825885
136	0x3bb6c832	0.0055780644
137	0xbbe15323	-0.0068763657
138	0x3c586742	0.013208212
139	0x3c167567	0.009183264
140	0xbb82bc1c	-0.0039897095
141	0x3b4a6501	0.0030882957
142	0xbbae6297	-0.0053218114
143	0xbac10374	-0.001472576
144	0x3c83153f	0.016001342
145	0x3c230187	0.009949095
146	0x3bf5b3a3	0.007498221
147	0xbc34de37	-0.011039308
148	0xbbd9678f	-0.0066346596
149	0xbbcd01ca	-0.006256317
150	0xbcea2c85	-0.028585682
151	0x3c247a8b	0.010038982
152	0x3bf11f62	0.0073584775
153	0xbccad05b	-0.024757555
154	0xbca156ef	-0.019694773
155	0x3c766e02	0.015040876
156	0xbcb94575	-0.022616128
157	0x3c786dab	0.015162866
158	0x3a84474f	0.0010092052
159	0xb939e4ee	-0.00017728258
160	0xbbc2b45f	-0.005941912
161	0x3c85e8e3	0.0163464
162	0xbaa77db8	-0.0012778556
163	0x3be20f2d	0.0068987818
164	0xbb41c8b1	-0.0029569084
165	0xbc4ded83	-0.012568834
166	0xbc23cbf6	-0.009997359
167	0x3c639d5a	0.013892496
168	0x3c15fb41	0.009154142
169	0xbc230817	-0.009950659
170	0x3c05d382	0.008168103
171	0xba4bb2a1	-0.0007770453
172	0x3bc45dd7	0.005992632
173	0x3c01c015	0.007919331
174	0x3ae84437	0.0017720525
175	0x3c26b095	0.010173936
176	0x3951acb2	0.00019996127
177	0xbcf1e9c0	-0.029530406
178	0xbc74b20b	-0.014935027
179	0xbc416b9b	-0.01180544
180	0xbc5e2cf3	-0.013560521
181	0xbc6935d8	-0.014234029
182	0x3bcaa665	0.0061843866
183	0x3c820bd6	0.015874784
184	0xbb4eb897	-0.003154313
185	0x39a657ab	0.00031727305
186	0x3cb81d57	0.022474928
187	0x3b6f7b13	0.0036541864
188	0x3c673a9f	0.014113097
189	0xbbf196ad	-0.0073726983
190	0xbc6cbc90	-0.014449254
191	0xbc477a2c	-0.012175124
192	0xbcb80584	-0.022463568
193	0x3b72f488	0.0037072022
194	0x3aa5205a	0.0012598142
195	0xbc54b64d	-0.012982917
196	0xbbc90f55	-0.006135861
197	0xbc305622	-0.010762723
198	0x3bc1b848	0.0059118606
199	0xbba6a65f	-0.005085751
200	0x3c5b2e03	0.013377669
201	0xbb7cf810	-0.0038600005
202	0xbc1040e6	-0.0088045355
203	0x3b5c72d8	0.0033637788
204	0xbbf5e44a	-0.007504021
205	0xbb26a19f	-0.0025425924
206	0x3c8b647d	0.01701569
207	0xbbdc5d00	-0.0067249537
208	0x3b4d8507	0.0031359808
209	0xba8fec31	-0.0010980425
210	0xbcb96f5d	-0.02263611
211	0xba900233	-0.0010986984
212	0x3ba25aab	0.004954656
213	0xbccd3670	-0.025050372
214	0x3bfd2a83	0.007726015
215	0x3b756618	0.0037444886
216	0x3c89ad76	0.016806345
217	0x3b5066e5	0.0031799611
218	0xbc301f90	-0.010749713
219	0x3cba0418	0.02270703
220	0x3ba906a3	0.005158262
221	0xbcb33efe	-0.021880623
222	0xbca11cdf	-0.019667087
223	0x3cc04307	0.023469461
224	0xbb5109cf	-0.0031896716
225	0x3c55a3a3	0.013039502
226	0x3baa3b70	0.005195074
227	0x3d0263ff	0.031833645
228	0x3b90423f	0.0044024284
229	0xbc06c9ed	-0.008226854
230	0x3bb9180b	0.005648618
231	0xbae8eb9a	-0.001777041
232	0x3c75dcf2	0.015006291
233	0x3cff1683	0.031138664
234	0x3bc6b398	0.0060638897
235	0x393bbaeb	0.00017903342
236	0x3b7ba267	0.003839636
237	0xbc16cf83	-0.009204748
238	0xbc6831aa	-0.014171997
239	0xbc060cd6	-0.008181771
240	0xbc2c5bab	-0.010519902
241	0xbb11fc50	-0.0022275634
242	0xbc4228f6	-0.011850586
243	0xbc8d4fce	-0.017249968
244	0x3a1f9fb7	0.0006089168
245	0xba6babad	-0.000899012
246	0xbcb515a0	-0.022105038
247	0xbc59fc72	-0.013304817
248	0x3c27382a	0.010206262
249	0x3bf2aed0	0.007406093
250	0xbd11d29f	-0.035601255
251	0x3bb3b664	0.005484389
252	0xbbacf9c3	-0.0052787974
253	0x3b6cd0e0	0.0036135241
254	0xbb0370df	-0.002005629
255	0x3cb48723	0.022037094

action_model._continuous_distribution.mu.bias f4 [6]
0	0x00000000	0.0
1	0x00000000	0.0
2	0x00000000	0.0
3	0x00000000	0.0
4	0x00000000	0.0
5	0x00000000	0.0
