results/NearSingularity03/NearSingularity/NearSingularity-7488.onnx (onnx, 623772 bytes, 9 tensors)

network_body._body_endoder.seq_layers.0.weight f4 [256, 85]
0	0xbd269626	-0.040670536
1	0x3e67a9b1	0.22623326
2	0x3dcb1ef9	0.09918017
3	0x3e423c58	0.18968332
4	0xbccc8f36	-0.024970632
5	0xbe58d99d	-0.21176763
6	0xbd9e94db	-0.07743236
7	0x3d12614c	0.03573732
8	0xbe375b69	-0.17905964
9	0x3ca57290	0.02019623
10	0x3dbac3fc	0.09119412
11	0xbcce783f	-0.025203822
12	0xbcd7b41e	-0.026331004
13	0xbe01a9ce	-0.12662432
14	0xbdf70ea6	-0.12063341
15	0x3d917e04	0.07104114
16	0x3db9ae67	0.09066468
17	0x3e0e24bc	0.138812
18	0xbdd2fe2d	-0.103023864
19	0xbe028971	-0.12747742
20	0xbd38a258	-0.045076698
21	0x3d9a1449	0.075234
22	0xbb089d56	-0.0020845733
23	0x3dc717a5	0.09721307
24	0xbd0d28af	-0.034462627
25	0xbe0acc74	-0.13554555
26	0x3e0a2715	0.13491471
27	0x3e287c2a	0.16453615
28	0x3da6ef9c	0.081511706
29	0xbdb4777b	-0.088118516
30	0x3e82d515	0.25553194
31	0xbd84c908	-0.06483656
32	0x3e21c2e1	0.15796997
33	0x3d02fcac	0.031979248
34	0xbcc4294b	-0.023945471
35	0x3e0e72c6	0.1391097
36	0xbce4c37f	-0.027925251
37	0x3e653412	0.22383144
38	0x3e1421fe	0.14466092
39	0x3dd35494	0.10318866
40	0x3d423b63	0.047419917
41	0x3ddf1819	0.10893268
42	0x3d3e6526	0.04648318
43	0xbde90bf6	-0.113792345
44	0x3c99c5c5	0.018771062
45	0xbd86b6a3	-0.06577804
46	0xbd4af74d	-0.04955225
47	0xbdcf1400	-0.101112366
48	0x3d4e06ac	0.05029933
49	0x3d57ed6e	0.052716665
50	0x3ee38e89	0.44444683
51	0x3d2499e4	0.040185824
52	0x3e15014d	0.14551277
53	0xbd161eef	-0.036650594
54	0x3d49c071	0.049255792
55	0x3e4321a9	0.19055809
56	0x3e0b5638	0.13607109
57	0xbd1a453d	-0.037663687
58	0xbe5f627e	-0.21814916
59	0x3d77356f	0.060353693
60	0x3e84ef41	0.25963786
61	0x3e253b33	0.16135864
62	0xbda71164	-0.08157614
63	0x3df56fe2	0.119842306
64	0x3cee54bb	0.029093137
65	0x3dbbdd30	0.091730475
66	0xbe135657	-0.14388405
67	0xbc6dc516	-0.014512321
68	0xbc6acf95	-0.014331718
69	0xbdeb0621	-0.11475778
70	0x3cbcb970	0.023037642
71	0xbe631240	-0.2217493
72	0x3e24f56d	0.16109248
73	0xbbd24809	-0.0064172787
74	0x3d4624c2	0.0483749
75	0x3e1306e2	0.14358094
76	0x3de637ec	0.11241135
77	0xbdb3ced1	-0.087796815
78	0x3cb2b841	0.021816375
79	0xbd9f20cf	-0.077699296
80	0xbd0605ff	-0.032720562
81	0x3d5a1c68	0.053249747
82	0xbd8c4f13	-0.0685102
83	0x3e48c070	0.19604659
84	0x3e0186fc	0.12649149
85	0x3e464750	0.19363141
86	0x3d969d26	0.073541924
87	0x3d11f8e0	0.035637736
88	0xbd61403d	-0.054992903
89	0xbda74886	-0.081681296
90	0xbe52baf1	-0.20579125
91	0xbcf19837	-0.029491527
92	0x3e09ecde	0.13469264
93	0x3e57e3b0	0.2108295
94	0x3d15dc41	0.036587004
95	0x3d261008	0.040542632
96	0x3c9fa1ef	0.019486396
97	0x3dfb914b	0.12283572
98	0x3d1f9992	0.038964815
99	0x3c96f0ec	0.018425427
100	0x3dad840f	0.08472454
101	0x3ab89414	0.0014082217
102	0xbe2b5eef	-0.16735433
103	0x3d59fc05	0.05321886
104	0xbd7a4798	-0.061103433
105	0xbd483cd4	-0.048886135
106	0x3e6c8b19	0.23099937
107	0xbcba8154	-0.022766747
108	0x3d33910f	0.04383951
109	0x3e1c308f	0.15252899
110	0x3d4ede0e	0.050504737
111	0xbdc157e0	-0.09440589
112	0x3d0192b8	0.031634063
113	0xbdfe0042	-0.12402393
114	0xbca1d013	-0.019752538
115	0xbdb70d7a	-0.08938117
116	0x3d3b708e	0.045761637
117	0xbe5a52d5	-0.2132066
118	0x3cabaf1a	0.020957518
119	0xbdc9c952	-0.09852852
120	0x3d4b97e6	0.04970541
121	0xbdf64278	-0.12024397
122	0x3e2e689e	0.17032096
123	0x3ddc49ae	0.10756241
124	0x3ddef5a4	0.10886696
125	0x3dec1d1b	0.11528989
126	0xbdd2fbba	-0.10301919
127	0xbcc9d241	-0.02463639
128	0x3dff5973	0.12468233
129	0x3e1034e5	0.14082678
130	0x3dcf7449	0.101296015
131	0xbdb2e172	-0.087344065
132	0xbe6fd20c	-0.2341997
133	0x3d365a2a	0.04451958
134	0x3d46549f	0.048420545
135	0xbca83eb1	-0.020537706
136	0xbd252da8	-0.040326744
137	0xbe12df2b	-0.14342944
138	0x3d9ac88c	0.075577825
139	0x3e408aa9	0.18802895
140	0xbd320a2b	-0.04346673
141	0x3d4638a9	0.04839388
142	0xbdd2e101	-0.10296822
143	0x3d89fe2d	0.06737933
144	0xbbda86db	-0.006668908
145	0x3de8ab31	0.11360777
146	0xbd4cb897	-0.049980726
147	0x3d615c33	0.05501957
148	0xbd5a27d2	-0.05326063
149	0x3d169f94	0.03677328
150	0xbd1e6136	-0.038666926
151	0x3d96b416	0.073585674
152	0xbd17d4b5	-0.037068088
153	0xbcc2aef8	-0.023765072
154	0xbd7f2b09	-0.0622969
155	0x3dc1f924	0.09471348
156	0xbdc9dbea	-0.098563984
157	0xbe034d6a	-0.128225
158	0x3d1bc988	0.038033992
159	0xbd251bab	-0.04030959
160	0xbd743fad	-0.05963104
161	0xbd894788	-0.06703097
162	0xbcdf0738	-0.027225122
163	0x3d76eb1d	0.060282815
164	0x3d9edc97	0.07756918
165	0xbe1d20f0	-0.15344596
166	0xbdc0273a	-0.09382482
167	0x3ac3f1a9	0.001494934
168	0xbe9402ff	-0.28908536
169	0x3a61d5d5	0.00086149323
170	0xbd229286	-0.039690517
171	0x3e512aab	0.20426433
172	0x3da88df0	0.082301974
173	0xbc07218d	-0.008247745
174	0x3e1be14b	0.15222661
175	0xbe30d524	-0.17268807
176	0x3da7d001	0.081939705
177	0x3e2744cd	0.16334839
178	0xbcc62069	-0.024185376
179	0xbdedb839	-0.11607403
180	0xbc8b6193	-0.0170143
181	0xbd0fa6e6	-0.035071276
182	0xbe07ce9b	-0.13262407
183	0x3e5f2adb	0.21793692
184	0x3e179040	0.14801121
185	0xbccdde53	-0.025130427
186	0xbd98e118	-0.07464808
187	0xbe2557a8	-0.1614672
188	0x3e1399b1	0.14414097
189	0xbdfb8824	-0.12281826
190	0x3c815876	0.015789252
191	0xbdcc2825	-0.099685945
192	0xbe2d9b9d	-0.16953893
193	0xbe2f2b19	-0.17106284
194	0xbe3b7e05	-0.18309791
195	0xbbaaf465	-0.0052171224
196	0xbda3af6b	-0.07992443
197	0xbd7375f5	-0.059438664
198	0x3db4ea26	0.08833723
199	0xbd99dc06	-0.07512669
200	0x3dee4fab	0.11636289
201	0x3e1213b7	0.14265333
202	0x3cda6100	0.026657581
203	0x3e964d84	0.29356015
204	0xbd0b5007	-0.034011867
205	0x3deec9b1	0.11659563
206	0x3cb8a8a0	0.022541344
207	0x3d0a79c0	0.033807516
208	0x3d59e798	0.05319938
209	0xbda7804e	-0.08178769
210	0x3de01fa4	0.10943535
211	0xbcb54bbb	-0.022130838
212	0xbd9e6653	-0.077343605
213	0x3c6b2d66	0.014354086
214	0x3d99a611	0.07502378
215	0xbdb4eed2	-0.08834614
216	0x3de029db	0.10945483
217	0xbe1b66bb	-0.15175907
218	0xbd3f7106	-0.046738647
219	0x3d1514b2	0.03639669
220	0x3e5adab5	0.21372493
221	0x3da281fb	0.07934948
222	0x3d2e5aee	0.042567186
223	0xbe5c7968	-0.21530688
224	0x3d65657c	0.056004986
225	0xbc6b9c54	-0.014380533
226	0x3e054d65	0.13017805
227	0xbde60aeb	-0.11232551
228	0x3ce3b308	0.02779533
229	0xbd8e3a91	-0.069447644
230	0x3e2a1577	0.1660975
231	0xbd137be4	-0.036006823
232	0x3d4462fa	0.047945954
233	0xbe64f3ef	-0.22358678
234	0x3e63f35a	0.222608
235	0x3d59e9d6	0.05320152
236	0xbdef7937	-0.11693042
237	0x3e60c8ab	0.21951549
238	0x3d7cf827	0.061760094
239	0xbdc6241c	-0.09674856
240	0x3c83abaf	0.016073076
241	0x3dfc5938	0.123217046
242	0xbd913481	-0.070900925
243	0xbbf71381	-0.007540167
244	0x3dc6d44d	0.09708462
245	0xbd09d829	-0.033653412
246	0xbe4eb957	-0.20187889
247	0x3ca453a2	0.02005941
248	0x3c635207	0.013874537
249	0xbd52e294	-0.051485613
250	0x3ed7a451	0.4211755
251	0xbd252427	-0.04031768
252	0xbda68ce9	-0.08132345
253	0xbddcb1ae	-0.10776077
254	0xbdf9f7fd	-0.12205503
255	0xbe357438	-0.17720115

network_body._body_endoder.seq_layers.0.bias f4 [256]
0	0xbb90caf9	-0.0044187275
1	0x3b8d904e	0.004320181
2	0x3b24c85f	0.0025143845
3	0xbac71139	-0.0015187628
4	0xbb5b2094	-0.0033436166
5	0x384e5502	4.9193397e-05
6	0xba99c1c9	-0.0011730726
7	0xb9796b02	-0.00023786354
8	0x3b3661db	0.0027829322
9	0x3b260702	0.0025333767
10	0x3aeb47b4	0.0017950446
11	0x3b4bc673	0.0031093627
12	0x3b1aa036	0.0023594028
13	0xbaaf8bf1	-0.0013393146
14	0xbb40e033	-0.0029430508
15	0xbb215eee	-0.0024623233
16	0xba081aeb	-0.00051919994
17	0xbb65ee37	-0.0035084614
18	0x3a9c2c5e	0.0011915078
19	0x3b698f6a	0.003563846
20	0xbbc3ab7f	-0.0059713717
21	0x3a1bfc6e	0.0005950396
22	0xb89e79aa	-7.556689e-05
23	0x38e704e1	0.00011015847
24	0xb9c4a57d	-0.00037507332
25	0x3a939ccd	0.001126194
26	0x3b80cb89	0.0039305133
27	0xba0cf574	-0.00053771515
28	0xba5650e0	-0.00081755035
29	0xbb980e14	-0.00464035
30	0xb9e84afa	-0.0004430635
31	0xba9aecc3	-0.0011819828
32	0x3ab3702f	0.001369005
33	0xbb68160e	-0.0035413536
34	0x3b655f0c	0.003499928
35	0x3beeb30f	0.007284529
36	0xbb78911c	-0.0037928289
37	0xba5aba47	-0.00083437975
38	0xbb6ea7b9	-0.0036415888
39	0x3b8e4f53	0.0043429523
40	0xbadb4aa5	-0.001673062
41	0x39d01377	0.00039687354
42	0xb9cbc15f	-0.0003886325
43	0x3c12e854	0.008966524
44	0xb8bd5eb2	-9.029861e-05
45	0xbac1d830	-0.001478916
46	0x3b0f0211	0.00218213
47	0x3b53b455	0.0032303531
48	0xbbd3e385	-0.0064663314
49	0xbadef182	-0.0017009231
50	0xba9465ac	-0.0011321804
51	0x3b036c64	0.002005362
52	0xb8497b10	-4.8036745e-05
53	0xbb911a46	-0.004428181
54	0x3a8d72e8	0.0010791691
55	0x3ac1a1e6	0.0014772981
56	0xbb9ca379	-0.0047802296
57	0xbbe0d120	-0.006860867
58	0x3bc4edd6	0.0060097976
59	0xba646520	-0.00087125786
60	0x3b743f6e	0.0037269252
61	0xbad77550	-0.001643816
62	0xb92a9913	-0.00016269488
63	0xb4b39300	-3.3448305e-07
64	0x3b90916c	0.004411867
65	0x3b133772	0.0022463468
66	0x3b58fb21	0.003310867
67	0x3acd2141	0.0015650169
68	0x3acd35c1	0.0015656279
69	0x3a956ef0	0.001140086
70	0xbb64a30a	-0.0034887218
71	0xb9a87f9f	-0.00032138542
72	0x3b98a1e1	0.0046579693
73	0x3af3fe1e	0.0018615162
74	0x39d7c59e	0.00041155232
75	0x3b1d0b00	0.0023962855
76	0xbb9edd1a	-0.0048481347
77	0x3b964616	0.0045859916
78	0xbb7946d0	-0.0038036592
79	0x3aaed7d6	0.0013339471
80	0xba8c3989	-0.0010698299
81	0x3ad5dbdc	0.0016316134
82	0xbba61fef	-0.0050697247
83	0xbb161446	-0.0022900268
84	0xba9570de	-0.0011401435
85	0x3a415344	0.0007374773
86	0xbabe881b	-0.0014536412
87	0xba457bfa	-0.00075334276
88	0xbbb6f515	-0.0055834153
89	0xbace0466	-0.0015717864
90	0xbb004bf4	-0.0019576522
91	0x3b76e297	0.003767168
92	0xba6710ed	-0.0008814473
93	0x3b37d458	0.002805015
94	0x3b58283c	0.0032982966
95	0x3b365b7c	0.0027825525
96	0x39d9dcb1	0.00041553893
97	0xbb74fdb1	-0.0037382657
98	0xb9c348a9	-0.00037247434
99	0x3b3058e7	0.0026908459
100	0xbb88a548	-0.0041700937
101	0xbba8aedb	-0.0051477975
102	0xbad3c8f2	-0.0016157909
103	0xb9b632b2	-0.00034751516
104	0x3b84e9ec	0.004056206
105	0x3bebb9d7	0.0071937847
106	0x39b8aca2	0.00035223836
107	0x3ad3ea84	0.0016167914
108	0x3b3cb240	0.0028792769
109	0xba5bcbd9	-0.00083845627
110	0x3b93ca1a	0.0045101764
111	0x3b072263	0.0020619861
112	0x3aeabe88	0.0017909566
113	0xbaa7d930	-0.0012805816
114	0xbbb1cdf3	-0.0054261624
115	0x398ead7e	0.00027213612
116	0xba7193bf	-0.00092154363
117	0x3b51a892	0.0031991345
118	0x3b294732	0.002582979
119	0x3b2566b0	0.0025238208
120	0xba68ecbb	-0.0008885373
121	0xb9b94c0e	-0.00035342615
122	0x3aec0ab4	0.0018008561
123	0xba344a5d	-0.0006877536
124	0x3a90c7ea	0.0011045907
125	0x3a20bb44	0.00061314204
126	0xba7874e9	-0.000947787
127	0xbaa08a14	-0.0012248182
128	0x3b89b376	0.0042023016
129	0x3b3a1e0c	0.0028399257
130	0x3b3b0e3f	0.0028542427
131	0xbac8263f	-0.0015270187
132	0x3b4290ae	0.0029688287
133	0x3b0cf39c	0.0021507507
134	0xb9e40dde	-0.0004349788
135	0xb9faf820	-0.00047868583
136	0xba226bbb	-0.00061958627
137	0xb9d55acb	-0.00040694172
138	0xba83691c	-0.0010025832
139	0xb8333792	-4.272868e-05
140	0xb8f8c571	-0.00011862338
141	0xb9c2021f	-0.00037004144
142	0x3b69c93c	0.0035672924
143	0xbb91ebf0	-0.004453175
144	0xbb56a31d	-0.0032751032
145	0xba6639b6	-0.00087824033
146	0xb92f9334	-0.00016744138
147	0x3ab69f67	0.0013933004
148	0x3a64ec81	0.00087327516
149	0xb9e149b8	-0.0004297027
150	0x3a595e07	0.0008291904
151	0xbacefb5a	-0.0015791461
152	0x398f1c4a	0.00027296162
153	0x3ae683ac	0.0017586849
154	0xbaddc49b	-0.0016919555
155	0xbb40e290	-0.0029431917
156	0x39ec264e	0.00045041967
157	0x3b38b3ae	0.002818327
158	0xba36d58f	-0.0006974572
159	0xbb595f7e	-0.003316849
160	0xbb4bdded	-0.003110762
161	0xbb5fb6fc	-0.0034136167
162	0x3b5ff2c8	0.0034171809
163	0xb9328686	-0.00017025517
164	0xba9589f5	-0.0011408912
165	0x3b83160a	0.00400043
166	0x3b174a08	0.0023084898
167	0x3aadc7a6	0.0013258352
168	0xba53b10a	-0.0008075392
169	0x3ab03a49	0.0013445105
170	0xbb167466	-0.0022957562
171	0x379103da	1.728714e-05
172	0xbab1e30c	-0.0013571694
173	0x3b9b0184	0.0047304053
174	0xbba6a837	-0.0050859707
175	0x3b1ebf65	0.0024222967
176	0x3ac371f1	0.0014911277
177	0x3b2d2917	0.0026422197
178	0xbb174702	-0.0023083095
179	0xba13a327	-0.00056319166
180	0xbb0e256d	-0.0021689788
181	0x3bb5e869	0.005551387
182	0xbb116e9c	-0.0022191172
183	0x39bf9552	0.0003654161
184	0x3a8f2593	0.0010921232
185	0x3b311960	0.0027023181
186	0x3b430553	0.0029757812
187	0x3b925073	0.0044651567
188	0xbac22c21	-0.0014814177
189	0xbb76fbf0	-0.0037686788
190	0xbaebf4f8	-0.0018002084
191	0x3a30ff92	0.000675195
192	0x3af07111	0.0018344243
193	0x3a79c80a	0.00095284043
194	0xbb2b5763	-0.0026144616
195	0xbaa69604	-0.0012709503
196	0xb9bf9536	-0.0003654153
197	0x3a95813f	0.0011406316
198	0x3bb7129a	0.0055869343
199	0x3a905314	0.0011011087
200	0x391d3a9d	0.00014994522
201	0xbb748d18	-0.0037315544
202	0x39d0bb70	0.00039812503
203	0xba8a9993	-0.0010574333
204	0x3b77485c	0.0037732339
205	0x3af3f60a	0.0018612754
206	0xbb4b9e43	-0.0031069673
207	0x3b5d35f5	0.0033754085
208	0x3ad281d3	0.0016060419
209	0x3af9067d	0.0018999126
210	0xba6fad2d	-0.00091429317
211	0x3b3329c7	0.0027338134
212	0x3b3e5b58	0.0029046144
213	0x3a0344d4	0.00050075096
214	0xbad5f569	-0.0016323748
215	0x3b4df55f	0.003142677
216	0x37c873eb	2.3895836e-05
217	0xb9f832e1	-0.00047340154
218	0x3a896c23	0.0010484498
219	0x3ba2868a	0.004959886
220	0xbaad4d1c	-0.0013221833
221	0x3aca9666	0.0015456199
222	0xbacf3156	-0.001580755
223	0xbb1faada	-0.002436331
224	0x3a026c6e	0.0004975264
225	0xb97aebc2	-0.00023929685
226	0xbafca92a	-0.0019276489
227	0xbba6d858	-0.005091708
228	0x3af8913d	0.0018964183
229	0x3aa722a1	0.0012751409
230	0xbb48853f	-0.0030597
231	0xbad7e86d	-0.0016472467
232	0xbaae8f84	-0.0013317917
233	0xbafd42ed	-0.0019322314
234	0x38f35d52	0.00011604525
235	0xba5a24fa	-0.000832155
236	0xb97bafde	-0.00024002741
237	0xbb88eda7	-0.004178721
238	0xba2269a4	-0.0006195551
239	0x39bd016c	0.00036049949
240	0x3af5d002	0.0018754008
241	0xba9fd098	-0.0012192903
242	0xbb35964d	-0.0027707994
243	0xbadec75f	-0.0016996673
244	0x3ab3ddfa	0.001372277
245	0x393499d0	0.00017223437
246	0xb990162d	-0.00027482343
247	0xbb757e7b	-0.0037459421
248	0xba461a06	-0.00075569784
249	0x3a11dbf6	0.0005564088
250	0x3b3d0403	0.0028841502
251	0x3a9782aa	0.0011559327
252	0xbb00e0b7	-0.001966519
253	0x3a0f63d8	0.0005469895
254	0xbb7160c2	-0.0036831354
255	0xba9dbc25	-0.0012034221

network_body._body_endoder.seq_layers.2.weight f4 [256, 256]
0	0xbd6fbaff	-0.058527943
1	0xbbd333b2	-0.0064453715
2	0x3d226bef	0.039653715
3	0xbc4e6985	-0.0125984
4	0xbb296271	-0.002584603
5	0xbd707815	-0.05870827
6	0x3e15f934	0.14645845
7	0xbdda196c	-0.1064938
8	0xbcac6371	-0.021043511
9	0xbd88dcae	-0.06682716
10	0x3d515740	0.0511086
11	0xbb48505c	-0.0030565476
12	0xbcd349db	-0.025792053
13	0x3de5e7f8	0.11225885
14	0xbd7ef261	-0.06224287
15	0x3d6450c3	0.055741083
16	0x3b685668	0.0035451893
17	0x3d178132	0.036988445
18	0x3d241438	0.040058345
19	0x3ceae0f1	0.028671714
20	0x3d4e9689	0.05043653
21	0x3bea1ebc	0.007144777
22	0x3daff408	0.08591467
23	0x3cd08476	0.025453787
24	0xbc3af62b	-0.01141123
25	0xbb8ac565	-0.004234957
26	0x3b962d95	0.0045830705
27	0x3c0d4da6	0.00862447
28	0xbcf539a6	-0.029934715
29	0x3d042564	0.03226222
30	0x3d0dd78b	0.034629386
31	0x3d1f51e2	0.03889645
32	0xba9b1602	-0.001183212
33	0xbddcf0f2	-0.10788144
34	0x3bd5975f	0.006518289
35	0xbbdff3aa	-0.006834467
36	0xbd9efb7e	-0.07762812
37	0xbdc240d8	-0.09485024
38	0x3e0cd9f0	0.13755012
39	0xbcf0f257	-0.029412432
40	0xbc991a3d	-0.01868927
41	0xbd22283f	-0.039589163
42	0xbd1e989a	-0.03871975
43	0x3dbc0925	0.09181432
44	0xbe0e42ad	-0.13892622
45	0xbd1ed9ad	-0.03878181
46	0xbd799b78	-0.060939282
47	0x3c901b8f	0.017591266
48	0x3d916c39	0.0710072
49	0x3d8027ef	0.06257617
50	0xbe188f4e	-0.14898416
51	0x3d04120a	0.032243766
52	0x3d17a837	0.037025657
53	0xbd71cf7b	-0.05903576
54	0xbd0cc1b5	-0.03436442
55	0xbd70a95c	-0.058755264
56	0x3b2973af	0.0025856306
57	0xbce96e0e	-0.028494861
58	0xbd13606c	-0.035980627
59	0xbcd4e005	-0.025985727
60	0xbb735107	-0.0037127153
61	0x3d8094de	0.06278394
62	0xbc9df31c	-0.019280963
63	0xbcf4f200	-0.02990055
64	0x3d24bf63	0.040221583
65	0x3d230cc6	0.039807104
66	0x3db3e405	0.08783726
67	0xbd1adb39	-0.037806723
68	0x3bfff98b	0.0078117303
69	0xbe4668bd	-0.19375892
70	0xbcd8e496	-0.026476186
71	0xbc374c4c	-0.011187624
72	0xbc5589a9	-0.013033309
73	0xbc2f6081	-0.010704161
74	0x3d0d50e7	0.034500983
75	0x3da70ffb	0.08157345
76	0x3cbcb17d	0.023033852
77	0xbb4cc8a3	-0.0031247518
78	0x3bd0c48e	0.0063710874
79	0xbc1d10d8	-0.009586535
80	0xbd594b86	-0.05305054
81	0x3999601c	0.0002925404
82	0x3d42c34c	0.04754953
83	0xbc9566fa	-0.01823758
84	0x3d77de34	0.060514644
85	0xbc19b3a0	-0.009381205
86	0x3c0eef0c	0.008723985
87	0xbba73cc6	-0.0051036803
88	0x3d7bdbe8	0.061489016
89	0xbc08e558	-0.008355461
90	0x3d2431b5	0.040086467
91	0x3d441eb1	0.047880832
92	0x3dd2df87	0.10296541
93	0x3d915135	0.07095567
94	0xbd66acd7	-0.056317177
95	0x3cc6d51b	0.024271538
96	0x3c4b2574	0.012399066
97	0xbcedf611	-0.029047998
98	0xbcb4fe2c	-0.022093855
99	0x3cbac0f9	0.022797095
100	0xbd388792	-0.045051165
101	0xbcd42eab	-0.02590116
102	0xbc5e7f63	-0.013580176
103	0xbcb9fd57	-0.02270381
104	0xbc55f31c	-0.01305845
105	0xbd48f6da	-0.04906354
106	0xbc44deb0	-0.012015983
107	0xbdb3c521	-0.08777834
108	0x3ddbf73c	0.107405156
109	0x3d3f2217	0.04666337
110	0xbd612da4	-0.054975167
111	0x3d45367d	0.048147667
112	0xbe132d3a	-0.14372721
113	0xbd6dbcec	-0.058041498
114	0x3dd75c0c	0.105156034
115	0xbd333b9f	-0.04375803
116	0x3d7b9da7	0.061429646
117	0xbdd489c5	-0.1037784
118	0xbba472b7	-0.005018558
119	0x3bd51b28	0.0065034814
120	0xbd141e19	-0.036161516
121	0xbdd350e1	-0.10318161
122	0x3b395aac	0.0028282804
123	0xbd06c9b1	-0.03290719
124	0x3c11a7db	0.0088901175
125	0x3c497110	0.012295023
126	0xbd58fee2	-0.05297745
127	0x3d51205e	0.05105626
128	0xbcf6f463	-0.03014583
129	0x3d327f9e	0.043578736
130	0x3cd3763d	0.025813216
131	0xbd46da66	-0.048548125
132	0x3d05c6d1	0.03266031
133	0xbc73293a	-0.014841372
134	0x3db2186b	0.086960636
135	0xbce6c44d	-0.028169775
136	0x3d4175eb	0.047231596
137	0xbda996d7	-0.082807235
138	0x3c2479c7	0.0100388
139	0x3b9e7356	0.0048355265
140	0xbdada0d7	-0.084779434
141	0xbcbe09c7	-0.023198022
142	0x3db1146e	0.08646475
143	0xbc89a7ff	-0.01680374
144	0x3d67c0fc	0.05658053
145	0xbcdfd7ab	-0.027324518
146	0xbbc36966	-0.005963492
147	0x3d8ad5ca	0.06779058
148	0xbd5988a4	-0.053108826
149	0xbdb4de11	-0.08831418
150	0xbc74499a	-0.014910126
151	0x3c1773f3	0.009243953
152	0xbc743ab4	-0.014906574
153	0xbe0e4b1e	-0.13895842
154	0x3d1af122	0.03782762
155	0x3cbe0c88	0.023199335
156	0x3dc42c4c	0.095787615
157	0x3b9f2909	0.0048571867
158	0xbe13b1aa	-0.14423242
159	0xbc96de3e	-0.01841652
160	0x3dafaa6f	0.085774295
161	0x3c179d81	0.00925386
162	0x3d57b679	0.052664254
163	0xbd58e16b	-0.05294935
164	0x3d2cd502	0.042195328
165	0xbc5fe8cf	-0.013666346
166	0xbcfc2ed6	-0.030784052
167	0x3cc183a1	0.023622336
168	0x3db19578	0.08671087
169	0x3d1bd500	0.03804493
170	0xbda30843	-0.0796056
171	0x3d50ebb0	0.05100602
172	0x3d7d0418	0.061771482
173	0xbdac8fec	-0.084258884
174	0xbdb827bb	-0.08991953
175	0xbda0d106	-0.07852368
176	0x3c339a32	0.010962056
177	0x3ceea2cb	0.02913036
178	0xbd035b11	-0.03206927
179	0x3dc8e3f5	0.09809104
180	0xbd70170f	-0.05861574
181	0x3e3e2084	0.18567091
182	0x3da90050	0.08252013
183	0xbc6af574	-0.014340747
184	0xbcb5e312	-0.022203002
185	0xbd876be3	-0.06612375
186	0xbcc17663	-0.023616021
187	0x39ad35b6	0.0003303715
188	0x3c4c04fd	0.012452361
189	0xbdc9e2ee	-0.098577365
190	0xbc07b64a	-0.008283207
191	0x3d8f863a	0.070080236
192	0x3c9c00c8	0.019043341
193	0x3d86541f	0.065590136
194	0x3cc70d5f	0.024298368
195	0x3d7449ca	0.059640683
196	0xbd6cdae3	-0.057825934
197	0x3c1df3f3	0.009640682
198	0x3d932c90	0.07186234
199	0x3d04e479	0.03244445
200	0x3d076762	0.033057578
201	0x3c333339	0.010937505
202	0xbb6a2248	-0.0035726
203	0x3db548e6	0.08851795
204	0xbd84ea25	-0.06489972
205	0xbcee3831	-0.029079529
206	0xbd9b4483	-0.07581427
207	0x3cb23562	0.02175397
208	0xbce5626f	-0.028001038
209	0x3d64e2ab	0.05588023
210	0x3e2463ba	0.16053668
211	0x3d23de36	0.04000684
212	0xbd0b01df	-0.03393733
213	0xbd95abf6	-0.073081896
214	0xbc9792c0	-0.018502593
215	0x3d227a4c	0.039667413
216	0x3c81ff58	0.015868828
217	0x3a3f62f6	0.0007300818
218	0xbd5a9563	-0.053365123
219	0xbca42f1f	-0.020042
220	0xbbe09bbd	-0.006854503
221	0xbc5ae9af	-0.013361379
222	0x3c379c26	0.011206662
223	0x3de72f64	0.11288336
224	0xbd896abe	-0.067098126
225	0x3e1b54db	0.15169089
226	0x3db12f6a	0.08651622
227	0xbbefbe0b	-0.007316356
228	0x3bf80f68	0.007570196
229	0x3d889f88	0.06671053
230	0xbd37f4bd	-0.044911135
231	0x3b1e9b4a	0.0024201446
232	0xbc8595f0	-0.016306847
233	0xbd52bfe6	-0.05145254
234	0x3c98c3e7	0.018648101
235	0x3dea5fc3	0.11444046
236	0x3de82ff9	0.11337275
237	0x3c7615a8	0.015019812
238	0x3ccb7fe9	0.024841266
239	0xbd81c0b9	-0.06335587
240	0x3d2ab4ed	0.04167645
241	0xbdf5fb94	-0.12010875
242	0x3bd4dec4	0.0064962823
243	0x3d05414a	0.032532968
244	0xbdd667bb	-0.10469004
245	0x3d897820	0.06712365
246	0x3b8ca958	0.0042926483
247	0x3c01b91c	0.007917669
248	0x3e19b627	0.15010892
249	0xbd26eaba	-0.040751196
250	0xbca327ca	-0.019916434
251	0x3b262736	0.0025352961
252	0xbd6e13af	-0.05812424
253	0xbdeb0803	-0.114761375
254	0x3b366aea	0.0027834722
255	0x3d80aded	0.06283174

network_body._body_endoder.seq_layers.2.bias f4 [256]
0	0xb7dbe144	-2.6211732e-05
1	0xbae3b4ab	-0.0017372569
2	0x3b97d4ba	0.0046335133
3	0x3b962e11	0.0045831283
4	0x3ae71e39	0.0017632908
5	0x3b3a8762	0.0028462042
6	0xbab4e1f3	-0.0013800248
7	0x3b1026b2	0.002199572
8	0xbb32de73	-0.0027293235
9	0x3a8c33d7	0.0010696602
10	0xbb1ae6a8	-0.0023636017
11	0x39033dd3	0.00012516165
12	0x3b15a846	0.0022835894
13	0x3a4683ca	0.00075727387
14	0xbaf89115	-0.0018964136
15	0xb9907b0f	-0.00027557506
16	0xba30dadf	-0.00067464815
17	0xbafd62f4	-0.0019331858
18	0xbb5f2695	-0.0034050096
19	0xb9e23aca	-0.0004314988
20	0x3adfd626	0.0017077371
21	0xbace313c	-0.0015731226
22	0xbb1d24d7	-0.0023978257
23	0xbb6ef85b	-0.003646395
24	0xb9c8b0c7	-0.00038278682
25	0xba374b97	-0.000699216
26	0x3bbbfa72	0.0057366425
27	0x38b2069b	8.488932e-05
28	0x3a9336fb	0.0011231595
29	0xbb2dcf5b	-0.0026521299
30	0xbb5dbe62	-0.00338354
31	0xba5ba680	-0.00083789974
32	0xbba31173	-0.0049764453
33	0x3b1e76ca	0.002417969
34	0x3acc7af6	0.001560061
35	0xbaec674f	-0.001803616
36	0x3acb2dd6	0.0015501331
37	0xbad0e1c7	-0.0015936428
38	0xba90d986	-0.0011051155
39	0x3a42675f	0.0007415916
40	0x3b526994	0.0032106386
41	0x3b07e790	0.0020737387
42	0xbb33d99f	-0.0027442945
43	0x3b5b9add	0.0033509054
44	0xb9236d58	-0.00015585625
45	0xb9adf38b	-0.00033178585
46	0x3b566d3d	0.003271892
47	0x3a021b6d	0.0004963193
48	0x3b106280	0.0022031367
49	0xba95a45d	-0.0011416782
50	0xbacad81c	-0.0015475783
51	0x3b6e522b	0.0036364894
52	0x3b8711b3	0.004121983
53	0xba7dfd6f	-0.00096889486
54	0xb9793598	-0.00023766456
55	0xbb33c5f6	-0.0027431226
56	0xbb896432	-0.0041928524
57	0xbb46bf73	-0.0030326515
58	0x3985ce7e	0.00025521585
59	0x3b0d67f4	0.0021576853
60	0x3966d38a	0.00022013314
61	0x399786da	0.00028901437
62	0xbb2eaf56	-0.0026654801
63	0x3abafa42	0.0014265256
64	0x371608f7	8.942784e-06
65	0x3a1ffe4a	0.00061032607
66	0x38d2207c	0.00010019631
67	0xbb0fe0f0	-0.0021954142
68	0x3b06a276	0.0020543612
69	0x3b01d680	0.001981169
70	0x3a7663c5	0.0009399022
71	0xbb83bff3	-0.004020685
72	0xbb4bed4a	-0.0031116777
73	0xbb2a22a5	-0.002596059
74	0x3a36e1aa	0.00069763756
75	0xbb2002a2	-0.0024415632
76	0x3b30d502	0.0026982431
77	0xb9b4b811	-0.00034469416
78	0x3ab2e769	0.0013649288
79	0x3b15bb45	0.0022847217
80	0xbab97558	-0.0014149351
81	0xb93b6bef	-0.00017873918
82	0xbb434521	-0.0029795843
83	0xba3c1c13	-0.0007175814
84	0xbb0ae5a5	-0.0021194008
85	0xbb364d6a	-0.0027817138
86	0xbb07c383	-0.00207159
87	0x3b3397b6	0.002740366
88	0x3b39655a	0.002828917
89	0xba842d1c	-0.0010084244
90	0x3a5b4b40	0.00083654
91	0x39ead4bd	0.0004479046
92	0xbb96bf32	-0.004600429
93	0xbb7e1817	-0.0038771683
94	0xbaa28709	-0.0012399863
95	0xbb22e60f	-0.0024856364
96	0xbaa81170	-0.001282258
97	0xbab27915	-0.0013616408
98	0x3ac61251	0.001511166
99	0x3b16034a	0.0022890144
100	0x39618bc0	0.00021509733
101	0xbacfd903	-0.0015857521
102	0xbae84d55	-0.0017723242
103	0x3b0912d6	0.0020915768
104	0x3a4dae54	0.00078461063
105	0x3af7ee5d	0.0018915642
106	0x38f005f8	0.000114452036
107	0xb8656b84	-5.4697986e-05
108	0x3a942c43	0.0011304695
109	0x3a199b3d	0.0005859619
110	0xba51ec66	-0.00080079434
111	0x3ba78927	0.0051127854
112	0xb9570a50	-0.0002050784
113	0xb991a32e	-0.00027778134
114	0x3b583e6e	0.0032996195
115	0x3b565c27	0.0032708736
116	0x38fe9639	0.00012139645
117	0xb821c4c1	-3.8568633e-05
118	0xba2972ff	-0.0006463974
119	0xb9e8e2f7	-0.0004441959
120	0xbaaa79f1	-0.0013006312
121	0x3a97e6c1	0.0011589156
122	0x3aab57f7	0.001307248
123	0x3a5277f3	0.0008028738
124	0xbaa70e4d	-0.0012745351
125	0x39d2c25e	0.00040199136
126	0xbb8130b9	-0.003942576
127	0x39af85ef	0.0003347839
128	0xbb167456	-0.0022957525
129	0xbb0a3299	-0.0021087287
130	0x38ec0852	0.00011254907
131	0xb927f1d6	-0.00016016452
132	0x3ac14e6e	0.0014748105
133	0x38bbdd9c	8.958133e-05
134	0x3aeb0eef	0.0017933528
135	0xb9dcf7df	-0.00042146348
136	0xbad7d7c7	-0.0016467505
137	0x3aa164f7	0.0012313415
138	0xbafc9874	-0.0019271509
139	0xb9cd9b43	-0.00039216326
140	0x3b1ca634	0.0023902776
141	0xb991e873	-0.00027829743
142	0xba3cc001	-0.00072002417
143	0x3aa2fa94	0.0012434297
144	0xb8c7ebfa	-9.5330135e-05
145	0x3b0e7bc3	0.0021741248
146	0x3ab2815f	0.0013618878
147	0x3b2c7c35	0.002631915
148	0xbaf43b2c	-0.0018633357
149	0xb9b247af	-0.00034004214
150	0xbb6a020b	-0.0035706784
151	0xba89d609	-0.0010516058
152	0x3aead3d0	0.0017915908
153	0xba09b526	-0.00052531285
154	0x394c2880	0.00019470043
155	0xba186325	-0.00058131135
156	0xb98a5414	-0.00026384054
157	0x39a66e4d	0.00031744168
158	0xbb51e1bd	-0.003202542
159	0x39104144	0.00013757223
160	0x3a67ca74	0.00088421186
161	0x3b164675	0.002293018
162	0xbb080aac	-0.0020758314
163	0x3a36613f	0.000695724
164	0x3bb0055b	0.005371732
165	0xbb4f8037	-0.0031662115
166	0x3a964d73	0.0011467173
167	0xb8e7553c	-0.000110308145
168	0x3af68e02	0.0018810632
169	0xba2eaf1f	-0.00066636683
170	0xba5ffb48	-0.0008544219
171	0x3b38918f	0.0028162932
172	0x3b5f9b69	0.0034119731
173	0xb9df909f	-0.00042641626
174	0x3bbf53a6	0.005838829
175	0xb99a909e	-0.00029480917
176	0x38d4c5a4	0.00010145761
177	0xbafc9756	-0.0019271176
178	0xbabaf076	-0.0014262337
179	0x385cdc65	5.2657346e-05
180	0x3b9d0f0f	0.004793055
181	0xb9a694ce	-0.00031772855
182	0xbb5eeb57	-0.0034014785
183	0x3a768bb7	0.00094049744
184	0xbb1af85d	-0.0023646571
185	0x3aa13c01	0.0012301208
186	0xbb64533f	-0.0034839658
187	0xba62d7c7	-0.0008653369
188	0xbb3db2ee	-0.0028945762
189	0xb9a86e49	-0.00032125626
190	0x390f3529	0.00013657346
191	0x3b2082ec	0.0024492098
192	0xb98410b8	-0.00025189458
193	0x3857d1f4	5.145553e-05
194	0xb89bfb16	-7.437744e-05
195	0x390fa62f	0.00013699451
196	0xba3f5f34	-0.0007300258
197	0xb99f1aad	-0.00030346718
198	0x3b3ee9af	0.0029130985
199	0xbb5380c8	-0.0032272805
200	0x3b262552	0.0025351834
201	0x392885e8	0.00016071612
202	0x3a758e38	0.00093672005
203	0xba092fd7	-0.0005233264
204	0x3a414c3a	0.00073737244
205	0xba65c680	-0.00087652355
206	0xbb979aa7	-0.0046265903
207	0x3ad448cf	0.0016196015
208	0x39212656	0.00015368438
209	0x3a76a093	0.00094080827
210	0x3a888fdc	0.001041885
211	0x3b3cc540	0.0028804094
212	0xb94e104b	-0.0001965176
213	0xbb22a64e	-0.0024818364
214	0xb9877a10	-0.0002584015
215	0xbae44ec3	-0.0017418492
216	0xbb60ad23	-0.0034282885
217	0xb9c6689e	-0.0003784345
218	0x3af8606b	0.0018949633
219	0x37075c9d	8.06819e-06
220	0xbb1d4082	-0.0023994748
221	0x3b838950	0.0040141717
222	0xbb165285	-0.002293737
223	0x39cfa070	0.00039601652
224	0x3ade303e	0.0016951633
225	0xbadfb67e	-0.0017067937
226	0xb88afbe2	-6.6272696e-05
227	0xbaaae239	-0.001303739
228	0x3b0a777f	0.0021128354
229	0x390e1b2f	0.00013552302
230	0x39bba1d0	0.0003578798
231	0xbb1e88e2	-0.0024190475
232	0xba84b576	-0.001012488
233	0xba97bdc5	-0.0011576941
234	0x3946d333	0.0001896143
235	0x3b27a5a1	0.00255809
236	0xba60bf59	-0.0008573435
237	0xbb28b2bd	-0.0025741302
238	0xba406601	-0.00073394185
239	0xb9e1d50c	-0.00043074077
240	0x3b34a17c	0.0027562073
241	0xba8f1fe8	-0.0010919543
242	0x3ba4a34f	0.0050243507
243	0xbb0348ac	-0.002003233
244	0xbb48d89f	-0.0030646694
245	0x3a3e7425	0.00072652317
246	0x3af1f6b4	0.0018460364
247	0x3abf782d	0.0014607959
248	0xbb1d6705	-0.0024017703
249	0x3acfa8b3	0.0015843123
250	0x3a21cf8a	0.00061725883
251	0xba473d05	-0.000760034
252	0xb9b635bc	-0.0003475378
253	0x3a68f932	0.00088872307
254	0x3adc1437	0.0016790692
255	0xb9afb418	-0.0003351278

network_body._body_endoder.seq_layers.4.weight f4 [256, 256]
0	0x3bd45c2f	0.0064807157
1	0xbbab9e49	-0.005237375
2	0x3b4943a6	0.0030710488
3	0xbd77038f	-0.060306128
4	0x3d1e5f67	0.0386652
5	0x3cdada31	0.02671537
6	0x3df201c8	0.11816746
7	0xbac0fe57	-0.0014724237
8	0x3d3d9668	0.046286017
9	0x3d1498e9	0.03627864
10	0x3ce58a29	0.028019981
11	0x3c846658	0.016162083
12	0xbbf04cea	-0.0073333876
13	0x3c8b7f93	0.017028606
14	0xbc536f21	-0.012904913
15	0xbd7a94ab	-0.061176937
16	0x3cba491d	0.022739941
17	0xbd2f0aac	-0.042734787
18	0x3d76299e	0.060098283
19	0x3d26d0c1	0.040726427
20	0x3c5a5c72	0.013327705
21	0xbcce67ef	-0.025196044
22	0x3cce8910	0.02521184
23	0x3c5cb51a	0.013470912
24	0x3d1a4284	0.03766109
25	0x3cbbab68	0.022908881
26	0xbdbef02a	-0.093231514
27	0xbb9ee635	-0.00484922
28	0xbe1007c5	-0.14065464
29	0xbe2ae4cd	-0.16688843
30	0x3c2c1b1a	0.010504508
31	0x3c878bae	0.016546097
32	0x3c7db76a	0.015485624
33	0xbc35bd83	-0.011092546
34	0x3ca9c8e1	0.02072567
35	0x3d571905	0.052514095
36	0x3d69a0d7	0.057038154
37	0xbc5e1730	-0.013555333
38	0x3d52d904	0.051476493
39	0x3dcd9c96	0.10039632
40	0xbc0362d2	-0.008019166
41	0xbd43e48d	-0.047825385
42	0xbd6a08df	-0.057137366
43	0xbbb8c916	-0.0056392057
44	0xbc70754c	-0.014676403
45	0xbd03d45e	-0.03218495
46	0xbdb44b3b	-0.088034116
47	0xbdc926ca	-0.098218516
48	0x3e034b72	0.12821749
49	0xbc179c13	-0.00925352
50	0x3c914abb	0.01773583
51	0x3dcb82ba	0.099370435
52	0x3c8bb164	0.01705236
53	0xbdc34618	-0.09534854
54	0x3cd7e58e	0.026354577
55	0x3d8f8e04	0.07009509
56	0x3d8a8bb7	0.0676493
57	0x3d807792	0.06272806
58	0xbc3cb97c	-0.011518832
59	0x3d13004f	0.035888966
60	0x3d19b303	0.037524235
61	0x3dcbc113	0.09948935
62	0xbd068f00	-0.03285122
63	0xbcfe34fe	-0.031031128
64	0x3c244107	0.010025269
65	0xbd0394b9	-0.032124255
66	0xbd6ac4ef	-0.057316717
67	0xbc27c063	-0.01023874
68	0x3d92088c	0.071305364
69	0xbc2e7995	-0.010649105
70	0xbd968cdb	-0.07351085
71	0xbd91d6bb	-0.07121035
72	0xbdb34e4e	-0.0875517
73	0x3d8dfc7a	0.06932922
74	0x3d9e6d50	0.077356935
75	0x3d9134b6	0.07090132
76	0xbce5a35c	-0.028031997
77	0x3da04653	0.07825913
78	0xbc506df9	-0.012721532
79	0xbcd4c22e	-0.025971498
80	0xbc8e292e	-0.01735362
81	0x3cf97c5a	0.030454803
82	0xbbc50df8	-0.006013628
83	0x3cd217bd	0.025646085
84	0xbd569c42	-0.052395113
85	0x3b38ad70	0.0028179549
86	0x3d7189a3	0.05896915
87	0x3a155888	0.0005697091
88	0x3d8cbc30	0.068718314
89	0xbe168c42	-0.14701942
90	0x3d291490	0.041279376
91	0xbb7fe4b8	-0.003904624
92	0x3d9842cb	0.07434615
93	0x3bc0ab4d	0.0058797956
94	0x3d8e5b48	0.06951004
95	0x3de891c8	0.113559306
96	0x3cf2c7a5	0.029636214
97	0x3d4cbd55	0.04998525
98	0xbc5ecb06	-0.013598209
99	0xbd024f98	-0.031814188
100	0x3d947d5c	0.07250473
101	0xbbfe4af5	-0.0077604004
102	0xbd0fafbe	-0.03507971
103	0x3d95d653	0.0731627
104	0x3ccfc4bb	0.025362363
105	0xbd83516d	-0.06412015
106	0x3d54c9d6	0.0519503
107	0xbd57459e	-0.052556626
108	0xbd056f92	-0.032577105
109	0x3afa02c2	0.0019074308
110	0x3d89bb32	0.06725158
111	0x3cff967e	0.03119969
112	0x3dd08f27	0.10183554
113	0xbbaed999	-0.0053359983
114	0xbcd1a6d5	-0.025592247
115	0x3d522fac	0.051314995
116	0xbd94ed3e	-0.07271813
117	0xbe032a01	-0.12808992
118	0x3ceb9b8c	0.028760694
119	0x3de7e291	0.11322511
120	0xbd4c63ce	-0.04989987
121	0x3d68ec7e	0.05686616
122	0x3d3be366	0.04587116
123	0xbceb11ce	-0.028695013
124	0x3d187661	0.03722227
125	0x3c2d6195	0.010582347
126	0xbd0acc87	-0.03388646
127	0xbb3377fc	-0.0027384749
128	0x3dbcdb87	0.09221559
129	0xbd112bda	-0.03544221
130	0x3d05ed2e	0.032696895
131	0x3dbdcb4c	0.092672914
132	0x3d4344a1	0.04767287
133	0xbc9c6c8c	-0.019094728
134	0x3d44f36a	0.0480837
135	0x3bffb9f6	0.0078041507
136	0xbd6a1236	-0.057146274
137	0xbcb7553b	-0.022379508
138	0x3ce64503	0.02810908
139	0xbc57f161	-0.013180108
140	0x3dadf478	0.08493894
141	0x3bf623a9	0.0075115752
142	0xbc959ba6	-0.018262696
143	0xbb898fd8	-0.0041980557
144	0x3bf8a8c7	0.007588479
145	0x3e1f8c91	0.15580966
146	0xbd61e0d8	-0.05514607
147	0x3baa6aae	0.0052007055
148	0x3da5560a	0.08073051
149	0x3e07745d	0.13227983
150	0x3bdb3445	0.0066895806
151	0xbd8dcc6e	-0.069237575
152	0xbd0606d8	-0.03272137
153	0x3d0db143	0.034592878
154	0x3d11be84	0.03558208
155	0xbcbca1be	-0.023026343
156	0xbdb60a04	-0.08888629
157	0xbca686f2	-0.020328019
158	0x3c1163e6	0.008873915
159	0x3d0b7c9e	0.03405439
160	0x3bd8e9a8	0.006619651
161	0xbdd4d317	-0.10391825
162	0xbcd142e7	-0.025544597
163	0xbc713c6c	-0.014723878
164	0x3d303d3c	0.043027148
165	0x3da014a1	0.07816435
166	0x3d37a222	0.044832356
167	0xbd826de2	-0.06368615
168	0xbde8248a	-0.11335094
169	0xbdcecb9a	-0.10097428
170	0x3cf6eb3b	0.030141464
171	0x3d0e5da0	0.034757257
172	0x3d5c2fa6	0.05375638
173	0xbcf94607	-0.0304289
174	0xbc284764	-0.010270927
175	0x3d7289f9	0.059213612
176	0x36a3d990	4.883106e-06
177	0x3c879d26	0.016554426
178	0xbb1f7c12	-0.0024335426
179	0xbe2101c4	-0.1572333
180	0x3d706a11	0.058694903
181	0x3d862a38	0.06551021
182	0x3dc2f5ae	0.09519516
183	0xbdac85ac	-0.084239334
184	0xbc8f4895	-0.017490664
185	0xbbb1972a	-0.0054196315
186	0xbca3fb78	-0.02001737
187	0x381cea3b	3.7411442e-05
188	0x3bf5e9b3	0.0075046658
189	0x3c3cee4a	0.011531422
190	0x3dc20bb7	0.09474891
191	0xbd9836c3	-0.0743232
192	0x3d354677	0.044256654
193	0x3d1eb89f	0.038750287
194	0xbe158857	-0.14602791
195	0x3dc85261	0.097813375
196	0xbd2ce9ff	-0.042215344
197	0xbd4b9ed4	-0.049712017
198	0xbd9f0d13	-0.077661656
199	0x3b3d42e5	0.0028878984
200	0xbd26584d	-0.040611554
201	0x3d9a5136	0.07535021
202	0xbbcfb967	-0.0063392404
203	0x3cfc7f77	0.030822499
204	0xbd07c773	-0.033149194
205	0x3cd67036	0.026176553
206	0xbc8d650c	-0.017260097
207	0x3e0fb36b	0.14033286
208	0x3d879e8c	0.06622037
209	0x3c1d8fe4	0.009616826
210	0xbcb13908	-0.02163364
211	0xbd34b0fb	-0.044114094
212	0x3ca695f5	0.020335177
213	0xbcf59182	-0.02997661
214	0x3d51b24c	0.051195428
215	0xbda0917c	-0.07840249
216	0xbd87b950	-0.066271424
217	0xbc046a04	-0.008081917
218	0x3be99e81	0.007129491
219	0xbd028a28	-0.031870037
220	0xbd031b7e	-0.03200864
221	0x3ad3e883	0.0016167316
222	0xbd69096e	-0.05689376
223	0x3c6a3a9a	0.014296198
224	0x3cbd2ee7	0.023093654
225	0x3abb24de	0.0014277955
226	0x3b9dd3aa	0.004816492
227	0xbdb46ff2	-0.088104144
228	0xbd953e31	-0.07287253
229	0x3ca0e888	0.01964213
230	0xbd480a0a	-0.0488377
231	0xbd355ed2	-0.04427988
232	0x3d105ada	0.035242893
233	0x3d5a2757	0.053260174
234	0x3ccd2a25	0.02504451
235	0x3d4108cd	0.047127534
236	0xbd1d8cb4	-0.038464263
237	0xbd8a578b	-0.06754979
238	0x3d810a05	0.06300739
239	0x3c260f39	0.010135465
240	0xbd96955e	-0.07352708
241	0xbc2e3bba	-0.010634357
242	0xbbc84342	-0.0061115334
243	0x3d0b4250	0.033998787
244	0x3d6cfe99	0.05785999
245	0x3cb29167	0.021797849
246	0xbcd87cfc	-0.026426785
247	0xbd0cd562	-0.034383185
248	0x3cd30a4b	0.025761744
249	0xbdb4abe1	-0.08821846
250	0xbdb451ff	-0.08804702
251	0x3c0c4967	0.008562422
252	0xbcfb7aa6	-0.030698132
253	0xbd77af0d	-0.060469676
254	0xbc81499c	-0.01578217
255	0x3dc2cd80	0.09511852

network_body._body_endoder.seq_layers.4.bias f4 [256]
0	0x38c66bc4	9.461449e-05
1	0x3b9fd344	0.0048774797
2	0xbb0682bb	-0.0020524699
3	0xbb1edb7b	-0.0024239707
4	0xba7df8f6	-0.0009688282
5	0x3b86853c	0.0041052382
6	0xbac57cad	-0.0015067064
7	0xbacddfef	-0.0015706996
8	0x3a9ede83	0.0012120757
9	0xbb0fe1a9	-0.0021954572
10	0x3a10901e	0.0005514639
11	0xb9904a61	-0.00027521237
12	0x3a25e47f	0.0006328299
13	0xb9e5631b	-0.00043752123
14	0xbab1346b	-0.001351965
15	0xbb3510ae	-0.002762835
16	0x3ab0c77c	0.0013487185
17	0xb8ee8752	-0.0001137393
18	0x3a2f6e6c	0.00066921744
19	0x3b0f0720	0.0021824315
20	0xbb3f762f	-0.002921473
21	0xb9f00d03	-0.00045786062
22	0xb98e49c6	-0.00027139316
23	0x3a5e7ba4	0.0008487052
24	0x3a80c72e	0.0009824985
25	0x3b06683b	0.0020508904
26	0x3935abd0	0.0001732551
27	0xbae2db0b	-0.0017307712
28	0xbac0dfb5	-0.0014715107
29	0x3a4da4cb	0.00078446855
30	0x3abb51d8	0.0014291359
31	0x3a107ecd	0.0005512059
32	0xb8614124	-5.3704847e-05
33	0xba33494d	-0.0006839231
34	0xba1d0cda	-0.000599099
35	0x396e9e4c	0.00022756419
36	0xbacfe430	-0.0015860852
37	0xba8cb2da	-0.0010734454
38	0x39cd63e4	0.0003917507
39	0xba14cac1	-0.00056759646
40	0x3b1f868b	0.0024341668
41	0xb993e3fa	-0.0002820788
42	0x3b29edda	0.0025929124
43	0xbb16b408	-0.002299549
44	0xbaa759c9	-0.0012767847
45	0x3a210507	0.0006142412
46	0x3b5c2b14	0.0033595013
47	0xba4afcb0	-0.0007743342
48	0x3a17fc3d	0.00057977793
49	0x3b5dc61f	0.0033840013
50	0x3b525020	0.0032091215
51	0xba53975b	-0.0008071565
52	0xbb4a6cc1	-0.0030887576
53	0x3ae29d62	0.0017289335
54	0xb7ee9f32	-2.8445942e-05
55	0xba624dab	-0.0008632789
56	0x3b36f8d1	0.0027919302
57	0xbab3e347	-0.001372435
58	0x3a08132c	0.0005190845
59	0x3aa8ac3d	0.0012868714
60	0xb99b8b7a	-0.00029667822
61	0x3a805791	0.0009791722
62	0x39747bbc	0.00023315748
63	0xba86ed35	-0.0010294082
64	0x3a9e8ae5	0.0012095837
65	0xb94849d2	-0.00019100987
66	0xbaa0e9bc	-0.001227669
67	0x3b0950c7	0.0020952688
68	0x3ad17645	0.0015980682
69	0xbac2eabc	-0.0014870982
70	0xbaae66a8	-0.001330574
71	0x3b278b93	0.002556537
72	0xba85ccaf	-0.0010208095
73	0xb916e434	-0.00014390127
74	0xbacc1e91	-0.0015573074
75	0xb880cb67	-6.141402e-05
76	0xb9521a2a	-0.00020036908
77	0x3a9fd2c5	0.0012193552
78	0x3b33a97c	0.0027414253
79	0x3a9053b7	0.0011011277
80	0x3a9f6a78	0.0012162467
81	0xb9a183e4	-0.0003080658
82	0x3a49f966	0.0007704705
83	0xbab7da4e	-0.0014026852
84	0xba0e6d12	-0.0005433123
85	0xbabd8fe5	-0.001446244
86	0x3a89d0e5	0.0010514526
87	0xbb0f49c0	-0.0021864027
88	0xbad8170a	-0.0016486358
89	0xbb10ec0a	-0.0022113346
90	0x399e0ad3	0.00030144173
91	0x3a53c3bd	0.00080781785
92	0xb71e2028	-9.425021e-06
93	0xba3c01d2	-0.0007171902
94	0xbaa6c40a	-0.0012723219
95	0xbae6e40c	-0.0017615571
96	0x39d70b58	0.00041016447
97	0xbab643c6	-0.0013905696
98	0xbaa2ce7b	-0.0012421155
99	0xba1e362a	-0.0006035293
100	0xba02a328	-0.00049834186
101	0x3b0bcca4	0.0021331692
102	0x3b00f5ef	0.0019677838
103	0xba88c381	-0.0010434241
104	0x3a7326ec	0.0009275514
105	0x3abcc58a	0.0014402133
106	0x3b2fc2c0	0.002681896
107	0xbb39d498	-0.0028355476
108	0x399f7810	0.00030416297
109	0xba873070	-0.0010314118
110	0x3a30bdb6	0.00067421363
111	0x3a7fafb3	0.0009753659
112	0xbb3c0e21	-0.0028694945
113	0x3b8ad2f0	0.0042365715
114	0x3acb1cca	0.0015496251
115	0x3b03fb1e	0.0020138691
116	0xb9a92673	-0.0003226284
117	0x3b041eff	0.0020160077
118	0xbb41c00e	-0.0029563936
119	0xba80ca69	-0.0009825948
120	0xba83e860	-0.001006376
121	0x3b1e5153	0.002415736
122	0xbac250a5	-0.0014825059
123	0xba978e86	-0.0011562861
124	0xbafe84fe	-0.0019418297
125	0x3b1cee3d	0.0023945712
126	0xb9c42e3f	-0.0003741849
127	0x3abaaa11	0.0014241358
128	0x3b82eb66	0.003995347
129	0x398d1a46	0.0002691319
130	0xb7fa999c	-2.9873852e-05
131	0xbb07e25a	-0.0020734281
132	0x3a924444	0.0011159261
133	0xbaf63986	-0.0018785454
134	0xba2cb564	-0.00065883086
135	0x3b43e89b	0.0029893282
136	0xbacdddc5	-0.0015706351
137	0x3a18bbe5	0.00058263383
138	0x3a9b4a56	0.0011847715
139	0x39c2d0e9	0.00037158214
140	0x3b59e200	0.0033246279
141	0xb9e173b4	-0.0004300155
142	0x3adb1111	0.001671346
143	0x3b13a434	0.0022528293
144	0xbad4fb3a	-0.0016249188
145	0x3b1c8e96	0.0023888699
146	0xba296730	-0.00064622145
147	0xba3109cb	-0.00067534734
148	0x3ac5c5fc	0.0015088911
149	0x3b31362d	0.0027040348
150	0x3b747c7b	0.0037305641
151	0xba1cd211	-0.000598223
152	0x3b99ce41	0.004693777
153	0xb748ebd8	-1.1975841e-05
154	0x3b3106d1	0.002701212
155	0xbaf2f232	-0.0018535315
156	0x39f5e072	0.00046897266
157	0xbb355c20	-0.002767332
158	0xb9d36e1d	-0.00040327097
159	0x398d9d32	0.00027010735
160	0x39fee855	0.00048619756
161	0x3aa6e55d	0.001273315
162	0x3b1edb5e	0.002423964
163	0xba35eefc	-0.00069402135
164	0x3abb7292	0.0014301112
165	0x3a8d8ed8	0.0010800017
166	0xb92140bc	-0.00015378272
167	0xbb593b01	-0.0033146741
168	0x3a184acf	0.0005809487
169	0x3aacfeb2	0.0013198464
170	0xbb03521f	-0.0020037962
171	0x3a95be5d	0.001142453
172	0xba0eda2a	-0.0005449379
173	0xbb61fef1	-0.0034484232
174	0x3983869d	0.00025086562
175	0x3afd2055	0.0019312004
176	0x3ad14ee1	0.0015968942
177	0x3a604757	0.00085555523
178	0xb9ec9f27	-0.00045132005
179	0x3ac961d7	0.0015364242
180	0x3ae8a8eb	0.0017750537
181	0x3bef5d2b	0.0073048077
182	0x3a5862de	0.00082544785
183	0x3aecc11e	0.0018062925
184	0x3b14174c	0.0022596894
185	0x3b0e00ce	0.002166796
186	0x3a549083	0.0008108692
187	0xb9e68c6e	-0.00043973647
188	0x3a1a8775	0.00058948185
189	0x370155ba	7.708959e-06
190	0xbae37d3c	-0.0017356048
191	0x3b1c1026	0.0023813336
192	0x3b24cca5	0.0025146392
193	0x385756f2	5.134097e-05
194	0x3a83670c	0.0010025217
195	0xb9a10036	-0.0003070847
196	0xbaf45f41	-0.001864411
197	0x399df712	0.00030129455
198	0xba87cd25	-0.001036082
199	0xbb30cbc9	-0.0026976934
200	0xba668b92	-0.00087946013
201	0x38a1bb28	7.711939e-05
202	0x3af42441	0.0018626527
203	0x3a557644	0.0008142928
204	0x3b0cb0d7	0.002146771
205	0x3b27551a	0.0025532902
206	0x3b5fc524	0.0034144605
207	0xba19a2a7	-0.0005860724
208	0x3a59fe31	0.00083157705
209	0xbab7b3a6	-0.0014015331
210	0x37be196c	2.2661603e-05
211	0xba922932	-0.0011151193
212	0xba73baaa	-0.00092975295
213	0xb9e270da	-0.0004319016
214	0xb94c6381	-0.00019492024
215	0xba899ccd	-0.0010499001
216	0xba94b252	-0.0011344648
217	0x39b6c842	0.0003486295
218	0xba966ac2	-0.0011475908
219	0xbaa33330	-0.0012451168
220	0xb9939116	-0.00028146122
221	0xbae19fd2	-0.0017213768
222	0x3b4f1154	0.0031596022
223	0xba7b7b94	-0.0009593305
224	0x3b1b1790	0.0023665167
225	0xbb29af76	-0.0025891936
226	0xbb31cf2f	-0.0027131548
227	0xba44e714	-0.000751124
228	0xba850afb	-0.0010150367
229	0xba8116ee	-0.0009848753
230	0x3b3a0f99	0.0028390645
231	0xbb16e1df	-0.0023022813
232	0xb9ead4ee	-0.00044790603
233	0xba9140a2	-0.0011081884
234	0xb9085328	-0.00013000949
235	0x392721fa	0.00015939018
236	0xba93bece	-0.0011272074
237	0x39d272f0	0.00040139956
238	0x3a01473a	0.0004931573
239	0xb9ffcaeb	-0.00048788576
240	0xba4f4c1c	-0.00079077645
241	0x3b665a42	0.0035149013
242	0x3aa99be8	0.001294014
243	0x3ac72fda	0.0015196756
244	0x3aae6600	0.0013305545
245	0xba9105de	-0.0011064371
246	0x3b29e848	0.0025925804
247	0xbab33284	-0.0013671671
248	0x3a0e8fe9	0.00054383144
249	0x3b17121a	0.002305156
250	0xba0503f5	-0.0005074137
251	0x3a5ee251	0.00085023517
252	0x3acce963	0.001563352
253	0x3afdaa27	0.0019353078
254	0x3a9deabd	0.0012048107
255	0xbb1d5763	-0.0024008385

action_model._continuous_distribution.log_sigma f4 [1, 6]
0	0x3b472a0e	0.0030390057
1	0x3b041489	0.0020153841
2	0x3a2265fb	0.0006195006
3	0xba648254	-0.000871693
4	0xbab3a55d	-0.0013705898
5	0x3b280484	0.0025637457

action_model._continuous_distribution.mu.weight f4 [6, 256]
0	0x3c186eb7	0.00930374
1	0x3cc50dba	0.024054397
2	0x3ba4cc15	0.0050292113
3	0x3b8bd22f	0.004266999
4	0x3b7b9023	0.0038385473
5	0x3cb22bcc	0.0217494
6	0xbc36bb37	-0.011153034
7	0x3c2c4989	0.010515579
8	0xbc1d9080	-0.009616971
9	0xbb621ef4	-0.0034503313
10	0x3b4e4819	0.003147608
11	0xbc9b3ee0	-0.01895088
12	0x3c83da2c	0.016095243
13	0x3a681510	0.0008853236
14	0xbc571607	-0.01312781
15	0xbbfe7226	-0.0077650724
16	0x3b8a3288	0.0042174496
17	0xbcb8f3ba	-0.022577155
18	0x3c5c52e0	0.013447493
19	0xbb839444	-0.0040154774
20	0xbb04f9d2	-0.0020290506
21	0xbc9149a8	-0.017735317
22	0xbbf1e8c6	-0.007382485
23	0x3c89d0e9	0.016823249
24	0xbb4713fb	-0.00303769
25	0x3caee39d	0.021348769
26	0x3b29172d	0.0025801167
27	0xbc27b92d	-0.01023702
28	0xbac8cbfc	-0.0015319581
29	0x3cea5aac	0.028607689
30	0xbc81fc06	-0.015867244
31	0x3bb494c2	0.0055108974
32	0xbc38e291	-0.011284486
33	0x3b2b006b	0.0026092778
34	0xbbb0871b	-0.0053871996
35	0xbd011318	-0.03151235
36	0xbcd88f94	-0.02643565
37	0xbcdbea6d	-0.026845181
38	0xbcb81a7d	-0.022473568
39	0xba67f8ad	-0.0008849006
40	0xbc9e67e6	-0.019336652
41	0x3d3c89c3	0.046029817
42	0xbb85f6a6	-0.0040882407
43	0xbc8706cb	-0.016482731
44	0x3bda93a1	0.006670431
45	0xbbf471c4	-0.007459851
46	0x3bb775f4	0.005598778
47	0x3c6086d2	0.013704019
48	0x3b44da82	0.0030037467
49	0x3bd91d7a	0.0066258283
50	0x37065224	8.006147e-06
51	0xbca1f46e	-0.019769873
52	0xbbb2cd5b	-0.005456609
53	0x3c7ceb38	0.01543694
54	0xbb830207	-0.0039980444
55	0xbc2c364b	-0.010510991
56	0x3cb23f43	0.021758681
57	0x3a829390	0.000996219
58	0x3c52e70c	0.012872469
59	0x3bb0b2ed	0.0053924234
60	0x3b840ce3	0.0040298565
61	0xbc10d658	-0.008840166
62	0x3adc944f	0.0016828867
63	0xbc1b90be	-0.009494958
64	0x3b6c5544	0.0036061564
65	0x3c980b41	0.018560054
66	0xbbf6994a	-0.0075255977
67	0x3c6b6cc4	0.014369193
68	0xbb1f8b22	-0.0024344404
69	0x3aa22934	0.0012371899
70	0xbc268719	-0.010164046
71	0x3c9e728d	0.019341731
72	0xbce6d4c3	-0.028177625
73	0xba0f1daf	-0.000545944
74	0xbc894102	-0.016754631
75	0xba106c08	-0.0005509262
76	0x3c033a65	0.008009528
77	0x3cf9d749	0.030498164
78	0x3b1e7cfd	0.0024183386
79	0x3d0bb263	0.03410567
80	0xbb71c094	-0.0036888467
81	0xba07373e	-0.0005158073
82	0x3c8b61f5	0.017014483
83	0x3cc572ad	0.024102533
84	0x3b3a1690	0.0028394796
85	0x3c6f252c	0.014596265
86	0xbbe67499	-0.0070329425
87	0xbc285dc5	-0.010276263
88	0x3cba8c5b	0.022772005
89	0xbc091884	-0.008367661
90	0xbbcd9da5	-0.006274896
91	0xbc3ee80b	-0.011652003
92	0x3bd3a3e9	0.0064587486
93	0xbc7db2d2	-0.015484529
94	0x3ca9fb46	0.0207497
95	0x3c0d0f5a	0.008609617
96	0xbc9b9c4d	-0.018995428
97	0xbc1471ed	-0.009060365
98	0xbbf3f2f4	-0.0074447338
99	0x3c8b72f7	0.017022593
100	0x3c14c44e	0.009080006
101	0xbc513648	-0.012769289
102	0x3bbf706c	0.005842259
103	0xbc786c94	-0.015162606
104	0x3a1874d1	0.0005815747
105	0x3bc46eb0	0.0059946403
106	0xbc297442	-0.010342659
107	0x3be357d1	0.0069379588
108	0xbbeaca08	-0.0071651973
109	0xbc81e029	-0.015853958
110	0xbbbdb8e4	-0.005789863
111	0x3baab690	0.0052097514
112	0xbbc767f8	-0.006085392
113	0xbacd018d	-0.0015640721
114	0xbc320eaf	-0.010867759
115	0x3c5dea40	0.013544619
116	0x3a08af5e	0.000521412
117	0x3b59919d	0.0033198365
118	0xbc3d3d6d	-0.01155029
119	0x3c906089	0.017624157
120	0x3c85114e	0.016243603
121	0xbcc1bb1d	-0.023648793
122	0x3c49cb67	0.012316561
123	0xbc0410d0	-0.008060649
124	0xbc6efe60	-0.014587015
125	0x3c256516	0.010094902
126	0x3b2bb7f8	0.0026202183
127	0x3b3f4119	0.0029183088
128	0x3bbd3207	0.005773786
129	0xbcb9b7c6	-0.022670638
130	0xbca991a6	-0.020699333
131	0xb90a914c	-0.00013214833
132	0xbc01ad45	-0.007914846
133	0x3cbef6c5	0.023311028
134	0xba994d3e	-0.0011695994
135	0xbbb17cf2	-0.005416506
136	0x3c9661d9	0.018357204
137	0xbba08e00	-0.00489974
138	0xbaeabcc3	-0.0017909039
139	0xbc82cdac	-0.015967213
140	0xbc387b4b	-0.011259864
141	0xbb988a15	-0.0046551325
142	0x3ad429d2	0.001618678
143	0xbb7a4026	-0.0038185208
144	0xbb67b52a	-0.0035355785
145	0x3bf63f98	0.007514905
146	0xbb41a9a5	-0.002955058
147	0xba91cb88	-0.0011123279
148	0x3bcf8691	0.0063331802
149	0xbbf224d1	-0.0073896428
150	0x3be9d71d	0.007136239
151	0x3b38a3bb	0.0028173763
152	0x3c1234d9	0.008923733
153	0x3c55354e	0.013013197
154	0x3c1de418	0.009636901
155	0x39cafdad	0.00038717446
156	0x3bd0ffaa	0.006378134
157	0x3b808585	0.003922167
158	0xbb80b336	-0.0039276136
159	0x3c3e39af	0.0116104325
160	0x3c6a456c	0.014298778
161	0xbd3702cd	-0.044680405
162	0xb9bbd9a2	-0.00035829569
163	0x3a816e6c	0.0009874827
164	0x3baf2de7	0.005346048
165	0xbc2caf03	-0.010539773
166	0xbc0c9081	-0.008579374
167	0xbc63e9e3	-0.013910743
168	0x3c6d17b4	0.014470983
169	0x3cb1e2ae	0.021714535
170	0x3a4f67db	0.0007911899
171	0xbab5250d	-0.0013820246
172	0xbc686f24	-0.014186654
173	0xbcc9b0ed	-0.024620498
174	0xb9cb70da	-0.00038803258
175	0x3c2a0e96	0.010379454
176	0x3c7cdd17	0.015433571
177	0x3c80ecbb	0.015737882
178	0xbc88878b	-0.016666194
179	0xba12f934	-0.0005606592
180	0x3b0281ea	0.001991386
181	0x3c32679c	0.01088896
182	0x3c23e15d	0.010002461
183	0xbcc19cd7	-0.023634357
184	0xbbbc3b4b	-0.005744373
185	0xbbb90227	-0.0056460085
186	0x3cb2e684	0.021838434
187	0xbc591457	-0.013249478
188	0xbcb6139e	-0.022226151
189	0xbcfae88e	-0.030628469
190	0xba71e46e	-0.0009227459
191	0xbc3a5907	-0.011373765
192	0x3cbf0ee2	0.023322526
193	0xb99121a1	-0.0002768161
194	0xbc0b202f	-0.00849156
195	0xbc5b79a3	-0.0133957
196	0x3bd2341e	0.0064149043
197	0x3a1bad35	0.00059385906
198	0x3c8267c1	0.015918614
199	0x3b1f92a0	0.002434887
200	0xbc8387c7	-0.016055955
201	0x3b3a29fa	0.0028406368
202	0xbc2f5e7a	-0.010703677
203	0x3c1ec8be	0.009691415
204	0xbbe89b12	-0.007098564
205	0x3b91ae44	0.004445823
206	0x3b173b0a	0.0023075962
207	0x3c73c7ec	0.014879208
208	0x3c14d328	0.009083547
209	0x3c976f98	0.01848583
210	0x3b4c20ed	0.0031147555
211	0x3c8fae86	0.017539274
212	0xbc17649c	-0.009240296
213	0x3c788130	0.015167519
214	0x3ca9a8c0	0.02071035
215	0xbb92ed40	-0.004483849
216	0xbbd8a709	-0.006611709
217	0xbb999e49	-0.0046880585
218	0xbbe42292	-0.006962129
219	0xbbd6f9d7	-0.006560545
220	0xbc5f9c92	-0.013648169
221	0x3c22f208	0.0099454
222	0x3c881290	0.016610414
223	0x3ca47749	0.02007641
224	0x3c755450	0.014973715
225	0x3c2bc1d9	0.010483229
226	0xbc83505c	-0.01602953
227	0x3c45974c	0.012059998
228	0xbcbc5e6d	-0.022994244
229	0x3af239b3	0.001848033
230	0x3c6cb775	0.014448036
231	0xbbaadd1f	-0.005214348
232	0x3c2bd796	0.010488411
233	0xbc8a7ad2	-0.016904268
234	0xbc8584fe	-0.016298767
235	0x3c7b414a	0.01533539
236	0x3b8f0db7	0.0043656486
237	0x3b13a547	0.0022528933
238	0x3c1549a8	0.009111799
239	0xbc9a7a9a	-0.01885729
240	0x3c3e60ea	0.011619786
241	0x3c3cdf8a	0.011527905
242	0xbbf609e8	-0.007508505
243	0x3c581f3f	0.013191043
244	0x3c5b6925	0.013391768
245	0xbb770ca7	-0.003769675
246	0x3cbce5c4	0.02305878
247	0xbbbe0b61	-0.0057996963
248	0x3beca60c	0.007221943
249	0x3d01acaa	0.031658806
250	0x3bd4a113	0.006488928
251	0x3bbb62a9	0.0057185483
252	0xbabf1fe6	-0.001458165
253	0xbbd84467	-0.006599951
254	0x3cb2d2d4	0.021829046
255	0xbc9bdc1d	-0.019025857

action_model._continuous_distribution.mu.bias f4 [6]
0	0x3ae84103	0.001771957
1	0x3ace868a	0.0015756648
2	0x39ee0682	0.00045399746
3	0x3acfcab2	0.0015853255
4	0xbaa55acd	-0.0012615562
5	0xba7b9f73	-0.000959865
