results/NearSingularity03/NearSingularity/NearSingularity-499967.onnx (onnx, 623772 bytes, 9 tensors)

network_body._body_endoder.seq_layers.0.weight f4 [256, 85]
000000 06 8a 95 3d bb 94 e2 bd ed bb b6 bb 56 3e 94 3d
       0.073017165 -0.11063524 -0.0055766017 0.07238452
000010 69 6a 39 bc e1 7a 21 bd d0 76 a2 be 26 b4 5f 3e
       -0.011316874 -0.039423827 -0.31731272 0.21846065
000020 a4 0b 40 3e 74 47 e9 bd 19 5e c1 3d 9a 83 6f 3d
       0.1875444 -0.11390582 0.09441776 0.058475114
000030 3a 43 29 be c3 84 50 3e 50 56 82 bd b2 21 88 3d
       -0.16529551 0.20363145 -0.06364119 0.06647052
000040 cd ad f8 3c 57 69 ed bd f1 b8 64 be 6c b1 a2 bd
       0.030356312 -0.115923576 -0.22336175 -0.07943997
000050 a4 1d ab bc 00 cd e0 bc 0f a4 12 3e c0 05 61 3d
       -0.020888157 -0.027441502 0.14320396 0.054937124
000060 1d 7a c6 bb d0 ba 41 3e 16 ba e4 3d 34 b0 4f 3d
       -0.0060570375 0.1891892 0.111683056 0.05070515
000070 e0 f4 c2 3d 5a 09 d4 bc 21 94 b6 bd c4 7e 19 3e
       0.095193624 -0.025883365 -0.08914972 0.14989763
000080 73 d1 aa 3d b2 28 5a 3d c5 05 75 3d 13 fa eb 3d
       0.083407305 0.053261466 0.059819955 0.11522307
000090 29 f0 87 3d 4f 1b 7a bd 5a 94 a9 3c 1a 07 d1 bd
       0.06637604 -0.0610612 0.020700622 -0.10206433
0000a0 94 13 08 3d c5 93 b2 bd ec 8d 0a be 8b 44 bf bc
       0.033221796 -0.08719591 -0.13530701 -0.023348114
0000b0 d9 e0 2e bd 7d 09 a9 3d 94 25 7a bc e0 5a a8 bd
       -0.0426949 0.08253763 -0.015267748 -0.08220458
0000c0 25 84 5f 3e d0 fb c3 3d 34 5b 1f bd 3c d2 5c be
       0.21827753 0.09569514 -0.038905337 -0.21564573
0000d0 4e 0f 16 3d 10 18 d0 bd e1 57 32 3e 4b 8a 66 bc
       0.03663569 -0.101608396 0.17416336 -0.014071058
0000e0 86 1c 06 3e b9 0e 4f 3e 5b 9c 1b be f1 2b 9d 3d
       0.13096818 0.2022046 -0.15196364 0.07674397
0000f0 a7 57 3f 3c aa e5 19 be cb 2d 71 bd c3 18 d1 bc
       0.011678613 -0.15029016 -0.058881562 -0.025524503
000100 60 56 62 3c 26 63 2e 3d ba c2 3f 3e 4a cd 0e be
       0.013814539 0.042575024 0.18726626 -0.13945499
000110 48 16 ce bd 66 94 b1 3e 56 13 90 bd 7b 3c 36 3e
       -0.100628436 0.34683532 -0.07034938 0.17796509
000120 2f b3 88 3e 57 e2 4b 3e 2c e8 03 3e 52 55 4b 3c
       0.26699206 0.1991056 0.12881535 0.012410479
000130 63 24 28 bd ff b0 17 3e 92 6d 78 3c 52 6a cc 3c
       -0.041050326 0.14813612 0.015162842 0.024953041
000140 c0 6a f8 3d a5 93 5c bd 77 7e 67 be ee b6 8f bc
       0.12129736 -0.053851742 -0.22606836 -0.017543282
000150 03 1d 89 bd 8c 7e b6 bd 99 e5 cd 3d 1f 5b 94 bc
       -0.06694987 -0.08910856 0.10053558 -0.018109856
000160 b5 4c 38 bd 16 01 23 bd 0b b9 81 3e 02 6b 28 bc
       -0.04499503 -0.039795958 0.2533649 -0.010279419
000170 10 18 15 bb e3 9e 6e bd 77 7e d7 3b 0a 82 10 be
       -0.0022749938 -0.058256995 0.006576355 -0.14112106
000180 69 eb 3d 3e 5d 85 14 bd 09 7e c0 3c e9 e0 0b 3e
       0.18546833 -0.036259998 0.023497598 0.13660015
000190 44 51 05 be 9b 1d ae 3c 8d f9 4a bc 5a ae a9 bd
       -0.13019282 0.021254351 -0.012388599 -0.08285208
0001a0 d1 62 3d 3e 72 a8 09 3d 42 d1 bf bb 89 f1 bb bd
       0.18494727 0.033607908 -0.005853803 -0.091769286
0001b0 a3 9d 2c be a1 1a 2c 3e 1c f9 b6 bd b0 38 a9 3c
       -0.16857009 0.16807033 -0.089342326 0.020656914
0001c0 86 5b f0 3c 51 ef 3a bc 5c 57 e5 3d 12 d7 aa bd
       0.029340517 -0.011409597 0.11198303 -0.08341803
0001d0 7c 06 1b be 9e 5d 5c bd 6d e3 29 bb c2 22 82 be
       -0.15139192 -0.053800218 -0.002592291 -0.25417143
0001e0 b8 f4 a2 bd eb 95 98 bd d2 4e d7 3c ea 25 0a 3e
       -0.07956833 -0.074504696 0.026282702 0.13491026
0001f0 52 9e f1 3c c0 2d 4a be 6a 5b 2c bd c9 b8 74 bd
       0.029494438 -0.19744015 -0.042079367 -0.059746537
000200 4f 66 a2 3d c3 38 54 bc 7a 45 38 bd c9 cc 17 be
       0.0792967 -0.012952986 -0.044988133 -0.14824213
000210 bc 63 e7 3d 24 0b e5 bd 59 38 f3 bd 3e e2 0f bc
       0.1129832 -0.111837655 -0.11875982 -0.008781968
000220 34 6c 87 3d dc 5e 47 bd 98 03 7b 3e b0 c4 91 3d
       0.06612435 -0.04867445 0.2451309 0.07117593
000230 9a 7b 38 be 29 57 ac 3d 4d 8e b5 bc 08 a5 58 be
       -0.180159 0.08415062 -0.02216258 -0.21156704
000240 7a ab d6 bc d7 37 0b bd 7b e7 5a 3d 70 27 16 3d
       -0.026204813 -0.0339888 0.053443413 0.036658704
000250 d8 b7 07 bd 1e 27 ad bd 1a 9d 8c 3d a8 46 ef bb
       -0.03313431 -0.08454727 0.06865902 -0.007302124
000260 04 4f bb bd e9 ce bb bd 32 de 00 3e 20 c9 40 3d
       -0.091459304 -0.09170324 0.12584761 0.047066808
000270 04 df 3f bd 34 07 e2 3d f8 a4 39 3e 7a 8f 56 3d
       -0.046843544 0.1103653 0.18129337 0.052382924
000280 68 18 bc bd d9 95 f2 bc 59 11 5c be ad 22 65 bd
       -0.091843426 -0.029612469 -0.21490993 -0.055941273
000290 ca 73 67 bd 8f a7 1d be 9c 8c ef bd c2 29 f0 bd
       -0.05650691 -0.1539595 -0.11696741 -0.11726715
0002a0 a4 cd 12 3d dc 3a a7 bd 11 75 3f bc 6a be 10 be
       0.035840645 -0.081655234 -0.011685626 -0.14135137
0002b0 49 9f 3e bd 6c fa 81 bd 8a 7b b0 3d 53 3b 26 be
       -0.046538625 -0.06346592 0.08617313 -0.16233568
0002c0 9d 17 c9 bd 17 a4 22 bc 53 69 ea bd 31 a8 82 3c
       -0.09818957 -0.009926817 -0.1144587 0.01594934
0002d0 24 72 ac 3c 44 b2 bc bd 9f 5a 22 3e 91 51 93 3c
       0.02105052 -0.09213689 0.15854882 0.01798323
0002e0 6d ce ea bc ce 63 d7 3c 25 fd 6a 3d b8 48 a3 3d
       -0.028662885 0.026292708 0.057370324 0.079728544
0002f0 ba 87 95 bd 47 f5 62 bb c3 f0 a9 bd 57 73 b5 bd
       -0.073012784 -0.003463106 -0.08297875 -0.0885989
000300 5d c2 bd bd 0f d3 c4 bd fc 54 e3 bc 15 5b 2b 3d
       -0.092655875 -0.09610569 -0.027750485 0.04183491
000310 dc 90 c1 3d 11 1f 8f bd 23 89 58 3d bb 66 b2 3d
       0.09451458 -0.06988347 0.05286516 0.087110005
000320 97 43 41 3d 31 f5 e7 bd 25 d2 cc bb c1 de f6 3c
       0.0471836 -0.113260634 -0.006250637 0.030135514
000330 47 d5 1b 3e 46 1c ff bd 2b c4 39 3e 14 a9 a6 bd
       0.15218078 -0.124565646 0.18141238 -0.08137718
000340 12 65 8c 3d 25 b4 52 3d db 57 ba bd b4 60 fd bd
       0.06855215 0.05144133 -0.09098788 -0.1237196
000350 b5 a8 c5 3c 83 10 42 bc 94 1d 95 3d 1e 17 29 bc
       0.024128297 -0.011844757 0.07281032 -0.010320453
000360 3b d5 c4 3c 0d 83 ce 3d 9f 74 47 bb 06 ed 83 3d
       0.024027457 0.1008359 -0.0030434502 0.06441693
000370 ad 04 20 3d 12 d3 38 be c2 61 35 3d 2c 06 0d be
       0.03906696 -0.18049267 0.044282682 -0.13771886
000380 ca 35 3c 3d 29 b9 46 3c 3a 5a ca 3c 9a 9c 8d 3d
       0.045949735 0.012129107 0.024701227 0.06914635
000390 53 ea 81 3d 3f 8b 42 3d 63 2c 8d bd 0c 38 95 bd
       0.06343522 0.047496077 -0.06893232 -0.07286081
0003a0 1c 8e 9d 3e ca 4c a9 3c 84 7e 3d be 3f e6 77 bd
       0.30772483 0.020666499 -0.18505293 -0.060522314
0003b0 15 b4 45 3b 48 e2 48 3d 47 a2 b2 3d fc 75 81 3c
       0.0030167152 0.049043924 0.08722358 0.01580333
0003c0 04 11 37 3e 94 fc 33 3d 14 21 40 be 7c b8 18 bd
       0.17877585 0.04394205 -0.18762618 -0.037285313
0003d0 d5 43 b3 3d 81 24 3d bd 04 dc b1 3d 83 fa 92 3d
       0.08753172 -0.04617739 0.08684543 0.071766876
0003e0 af db 99 bd 2b e0 f6 3d cf 77 62 3e 62 f3 e4 bd
       -0.075126044 0.120544754 0.22116016 -0.11179234
0003f0 e1 81 89 bd e7 0f e4 bc b6 19 29 3e 2d cf 18 bd
       -0.067142256 -0.027839614 0.16513714 -0.037306953

network_body._body_endoder.seq_layers.0.bias f4 [256]
000000 d2 33 a9 3b 18 ef 89 bb 5c 1c 0a bd bc 42 71 bc
       0.005163648 -0.0042094104 -0.03371845 -0.014725383
000010 35 7c 36 3c 52 c7 c5 3c 5f 13 29 3c 68 50 1a 3c
       0.011138012 0.024142895 0.01031956 0.009418584
000020 2b dc 57 bc 5e d5 03 3c eb 69 77 3c f0 a7 0b 3d
       -0.013175051 0.008046476 0.015100936 0.034095705
000030 4d a6 48 3c ad 5b 3c 3c d9 14 fe 3b b0 a9 a2 3b
       0.01224668 0.011496467 0.00775395 0.004964076
000040 2b 9c 43 3c fd 8f 24 3c 5c 4f 8f 3c 41 cd cc bc
       0.011939089 0.010044095 0.017493896 -0.025000216
000050 b1 01 bb 39 24 33 11 bd 8a 24 48 bc e4 ee dc 3c
       0.0003566868 -0.035449162 -0.012215743 0.02696938
000060 08 29 69 bc 86 9e 0d 3b db bf 86 3c 2b e3 05 3c
       -0.014230974 0.002160938 0.016448906 0.008171837
000070 fd 3b b6 bb 9b 9c 78 bc 70 e4 21 3c d9 fe b9 bc
       -0.0055613504 -0.015174056 0.009881124 -0.022704529
000080 ad b3 9c bc b5 82 35 bc 7f 4d 4c bc cf ab cb bc
       -0.019128645 -0.011078526 -0.012469648 -0.024862198
000090 2a 41 4c bb 12 55 f7 bc 17 14 47 3a 06 a6 5e 3c
       -0.003116677 -0.030191932 0.0007594241 0.013589388
0000a0 d8 b6 f3 bc f3 08 0c bd c2 54 95 bc c4 4b b2 bc
       -0.029750273 -0.034188222 -0.018228892 -0.021764643
0000b0 54 6e a4 bc e3 70 42 bc 8f 38 1c 3c 0b 06 27 bd
       -0.02007214 -0.011867735 0.009534969 -0.040777247
0000c0 bd b7 52 bc 8e 78 ed bb 0d 6a 20 bc 35 19 d2 3b
       -0.012861189 -0.0072470373 -0.0097909095 0.0064116963
0000d0 2d e9 42 3b 4d 43 76 bc e1 80 d9 bc 14 bb ad bb
       0.0029741034 -0.015030694 -0.026550712 -0.0053018425
0000e0 bd 0e a6 3c de f7 88 bc f6 78 02 3a 97 cc 3e 3c
       0.0202707 -0.016719755 0.0004977131 0.011645458
0000f0 f9 62 c1 3c f2 17 cc 3c fb 39 73 bc 53 a4 cc bb
       0.023606764 0.024913762 -0.014845367 -0.006245175
000100 fe 82 d3 3c ac f2 ad 3c df 74 4b bc 40 e9 22 bc
       0.025819298 0.021233879 -0.012418001 -0.009943306
000110 e1 71 1b 3b 97 19 f6 bb 4a 38 15 bc 1e 20 9b bb
       0.0023719 -0.0075103748 -0.009107659 -0.0047340533
000120 99 f9 9b bc c9 39 2a bc b6 98 39 bb de 15 30 bc
       -0.019039916 -0.010389754 -0.0028319783 -0.010747401
000130 ce c9 0a 3a e1 e6 b8 bb e3 9c 94 bc 2c b7 9b 3c
       0.00052943535 -0.0056427573 -0.018141216 0.019008242
000140 6a 95 1f bb a8 1f 76 39 1c 06 a6 bc ab d2 93 3c
       -0.0024350532 0.00023472181 -0.020266585 0.01804479
000150 b7 3d ed 3b 07 58 59 bc 1d b0 46 bc 6e b2 19 3d
       0.007240023 -0.013265616 -0.01212695 0.03752368
000160 7e 48 81 bc 63 f7 57 bc 36 f1 7d ba 98 70 1a bb
       -0.015781637 -0.01318154 -0.00096871273 -0.0023565646
000170 73 78 6c 3c 88 64 87 3c 76 38 d4 3c 3d e4 bc bc
       0.014433014 0.01652743 0.025905829 -0.023058051
000180 b0 eb 1a 3b ab 10 95 3c 59 9e f9 3c d2 1b 7c ba
       0.0023639016 0.018196424 0.030471014 -0.00096171827
000190 bf a6 b5 3b ea c3 1c bd 51 22 99 bb 20 b6 02 bd
       0.0055435593 -0.038272776 -0.0046732803 -0.03191197
0001a0 5c 41 ca 3c 39 99 8e 3b c2 53 3b 3c 74 d6 1b bc
       0.024689369 0.0043517617 0.011433544 -0.009511579
0001b0 60 09 28 bc 3d 42 6b 3c 31 74 bc bc b9 6a 81 3c
       -0.010256141 0.014359054 -0.023004623 0.01579796
0001c0 08 39 c7 3c 85 e6 8d 3c 6f 1b 62 bc 0f df fb bb
       0.024319187 0.017321834 -0.013800486 -0.0076865028
0001d0 a7 76 0c bd 84 25 81 bc 5b a5 47 3a 59 7f 0a bc
       -0.034292843 -0.01576496 0.00076158874 -0.008453214
0001e0 ef 49 fa 3c b9 84 80 bc af cb 99 3c 30 d9 bc 3c
       0.030552832 -0.015688287 0.018773882 0.023052782
0001f0 c2 02 b9 ba 71 75 eb 3a 2b 24 87 bb f3 4a 79 bc
       -0.0014115202 0.0017964077 -0.0041241846 -0.015215623
000200 d0 a7 76 3c 77 57 ea bc fd a9 6a bb c3 03 8a 3c
       0.015054658 -0.02860616 -0.0035806887 0.016847497
000210 98 e7 93 3a f8 d4 3b bd 62 1a d1 3b 51 a0 82 3c
       0.001128423 -0.0458574 0.006381319 0.015945585
000220 79 31 91 b9 98 e1 fb 3b a3 46 c0 ba ca e4 23 bc
       -0.00027693415 0.007686805 -0.0014669489 -0.010003278
000230 b3 7c 49 3b d7 67 6c bc c6 97 3a 3c 08 c6 e3 ba
       0.0030744493 -0.014429054 0.011388725 -0.0017377743
000240 70 29 2a 3c b5 63 c8 3b 5b 03 94 bc 32 c6 20 bc
       0.010385856 0.0061154016 -0.018068006 -0.009812878
000250 c0 6b ea 3c 18 41 34 3a f8 f1 c1 3c 52 18 b2 bb
       0.028615832 0.0006876155 0.02367495 -0.005435028
000260 1f 4c 5d 3c 21 a9 95 bc a7 2b 7e 3c 44 8d 52 3a
       0.013506918 -0.018269124 0.015513337 0.00080319145
000270 37 39 31 3c 54 ca 97 b9 e6 0a d3 bb 48 77 50 bb
       0.010816864 -0.0002895171 -0.006440508 -0.0031809378
000280 d6 85 49 3c 30 c3 04 bb c0 3b 9c 3b 22 cf 44 3b
       0.012299975 -0.0020257942 0.004767865 0.0030030687
000290 c4 82 3e bc 5c db 6e 3b c5 a5 1f 3c d1 a3 14 bb
       -0.011627857 0.0036446666 0.009744112 -0.002268065
0002a0 c5 38 aa bc 0f 61 57 bc 07 01 52 bc 1e 45 96 bc
       -0.020779023 -0.013145699 -0.012817628 -0.018343505
0002b0 af 47 1e bc d0 58 4d bc cb 60 dc 38 d0 5c df 3b
       -0.009660645 -0.012533382 0.000105084466 0.006816484
0002c0 6f 54 ac 3b 07 82 8b ba b4 32 c1 bc d8 f8 35 bc
       0.0052590887 -0.001064361 -0.023583747 -0.011106692
0002d0 5b f2 93 bc cf 4d ad bc 71 af 20 bb 17 2b 2c bc
       -0.0180599 -0.021155266 -0.0024518634 -0.01050832
0002e0 dc 26 19 bb 3b 41 02 bd 71 78 62 bb ff 4c f4 bc
       -0.002336911 -0.03180049 -0.0034556652 -0.02982187
0002f0 ac be b9 bb 71 0b e3 bb d1 85 a5 3c 92 df eb ba
       -0.005668482 -0.006928854 0.02020541 -0.0017995706
000300 60 5d d4 3b e9 20 b3 3b e2 03 07 bd 60 72 91 3c
       0.0064808577 0.0054665697 -0.032962687 0.017754734
000310 36 13 9c 3c 15 94 b3 3c 45 39 d4 bc 4f cc 82 3c
       0.01905213 0.021921197 -0.025906214 0.015966563
000320 be 6d eb 3c b0 fe 9d bc 37 2c 41 bb 4c 4b 79 3c
       0.028738853 -0.019286484 -0.0029475817 0.015215706
000330 b1 34 8e bc a3 62 0e 3c 28 34 6a bc 44 cf 6d bc
       -0.01735911 0.008690509 -0.014294662 -0.014514748
000340 28 64 50 3c 21 b6 0e bc 8b f5 48 3c b7 c0 06 3c
       0.012719192 -0.008710415 0.012265573 0.008224658
000350 1d 42 3e bc 0c c2 8c 3c b5 43 0c 3c 3c 51 e1 3b
       -0.011612442 0.017182373 0.0085610645 0.006876139
000360 38 25 05 bd 67 e0 b1 b9 27 f3 8c bc 33 89 9f bc
       -0.032506198 -0.00033927264 -0.017205788 -0.019474601
000370 36 bc 0e bb 4f 0b c7 3b f8 44 af ba 2b bd 88 3c
       -0.0021779663 0.006074346 -0.0013371995 0.016691765
000380 20 3c f8 3c 76 c2 94 bb 44 48 b3 3c 8f a3 d5 ba
       0.030302107 -0.004539783 0.021885045 -0.0016299355
000390 17 76 c8 bb 5d c4 ad bc fa eb 23 3c ce bd e9 bb
       -0.006117593 -0.021211797 0.010004992 -0.007133222
0003a0 46 ec a6 3c 9b 34 e5 3b 7d 44 0d bc 8c 56 d0 bc
       0.020376336 0.0069947965 -0.008622286 -0.025431894
0003b0 fa 1e 97 ba 0a 01 31 bc 68 91 b3 3c 0f 07 a2 bc
       -0.0011529617 -0.01080347 0.021919921 -0.019778756
0003c0 40 a8 d8 bb 8c 2a 54 bc e5 54 e6 bb f4 96 7d bc
       -0.006611854 -0.012949597 -0.007029163 -0.015477885
0003d0 a6 bb 59 b6 ea 92 b9 ba 8d b6 6f bc f5 4f 17 bc
       -3.2444746e-06 -0.0014158164 -0.014630926 -0.009235372
0003e0 18 2e 6b 3c fd 22 44 bb 88 b3 97 bc a4 86 ac 3c
       0.014354251 -0.0029928081 -0.018518224 0.021060295
0003f0 ac cf 33 bc 66 69 92 bc 98 e6 4f 3b d2 98 ab bc
       -0.010974806 -0.017872524 0.0031723138 -0.020946894

network_body._body_endoder.seq_layers.2.weight f4 [256, 256]
000000 e1 1c 48 3c a9 3e f9 bc 2c 91 87 bd 2d 60 9e 3d
       0.0122139165 -0.030425387 -0.06619486 0.07733188
000010 05 35 07 3d 4b dc 10 3d 31 dd 0e bd 14 34 93 bd
       0.033009548 0.035366338 -0.034878913 -0.071876675
000020 71 b0 d8 3c 4f c7 46 3d 1b 2d 02 3d 72 9d 1c 3d
       0.026451321 0.04852992 0.031781297 0.03823609
000030 cd 7b d5 bd af d6 18 3d 8f 9f db bd 15 e6 71 ba
       -0.10424004 0.037314113 -0.10723793 -0.00092277053
000040 6a de 07 bd c9 52 db bb 11 85 4a bd ed 1a 05 be
       -0.033171095 -0.0066932184 -0.04944331 -0.12998553
000050 d8 27 53 3e 8c 81 d3 bd 3f a4 f3 bc f3 ae c3 bd
       0.20620668 -0.103274435 -0.029741405 -0.09554853
000060 dc 82 02 be 78 40 93 bd 97 d1 33 bc b1 51 16 3c
       -0.12745231 -0.07190031 -0.010975263 0.00917475
000070 b3 e2 8c 3c 0e 3a d4 bc bc 26 d4 3d 0b 7f ff bd
       0.017197942 -0.025906589 0.103589505 -0.124754034
000080 f7 99 9c 3c 0f 0d 42 3e 8a 5b d2 bd 1a 6b 4d bc
       0.019116385 0.18950294 -0.10271366 -0.012537742
000090 62 c8 45 bd 79 6e 80 bd 98 39 5a 3d b5 10 0c be
       -0.048286803 -0.06271071 0.053277582 -0.13678248
0000a0 e3 6e 4c bd 71 1e 45 bd 05 c6 81 bd 10 78 3a 3c
       -0.049910437 -0.048124734 -0.06336597 0.011381164
0000b0 13 b9 3e 3c f5 87 29 3b f6 53 08 be 7f 33 4d bd
       0.011640805 0.002586839 -0.13313279 -0.05009794
0000c0 40 0a 1a bd e7 bb df bd ae b1 45 bd 18 43 6c 3c
       -0.03760743 -0.109245114 -0.04826515 0.014420293
0000d0 e1 18 34 bd 97 c8 be bd 37 a8 cd 3c a7 81 78 3d
       -0.04396904 -0.09315603 0.025104625 0.06067052
0000e0 d6 6e a0 3d 0f 42 55 be 7e e4 a9 3d b1 c0 19 be
       0.0783364 -0.2082598 0.082955346 -0.15014912
0000f0 89 00 01 3e 89 ed 34 bd 97 1a c9 3c be ff d2 3c
       0.1259786 -0.044171844 0.024548812 0.025756713
000100 25 53 3b 3d 54 09 f4 bd 07 fc 8c bd 30 04 5d bb
       0.04573359 -0.11915842 -0.06884008 -0.003372442
000110 5b 14 b9 bd 7a 28 b1 3d 29 03 46 3d 47 73 e4 bd
       -0.090370856 0.086502984 0.048342858 -0.111548
000120 a0 7a 1f bd 87 25 02 3d 36 61 05 3d a1 4a d3 bc
       -0.038935304 0.03177407 0.03256341 -0.025792422
000130 f2 03 86 bd 3d 4f dc bb 63 b5 2a bd f8 33 e6 3d
       -0.06543721 -0.006723313 -0.04167689 0.11240381
000140 f0 6e 99 3d ab fd b8 3c b8 14 c0 bd 6b 9c 44 3d
       0.07491863 0.022581896 -0.09378952 0.048000734
000150 71 31 36 3d eb cf 91 bd 25 00 dd bc 16 9b 8c bd
       0.044480745 -0.07119735 -0.026977608 -0.06865518
000160 84 f3 2a 3d d9 34 c2 3d e3 a3 dd 3d cf a0 d5 bd
       0.04173614 0.09482736 0.108222745 -0.104310624
000170 0b ee e1 39 4d 00 0a 3c 73 c9 6d 3d 15 66 57 3d
       0.000430927 0.008422923 0.058053445 0.052587587
000180 12 20 91 bd 44 ad 85 3c 89 34 9f 3d 43 e1 17 bd
       -0.07086195 0.016317971 0.07773692 -0.03708006
000190 2f fa 05 3c e3 f6 59 bc 64 e7 a6 bc f5 57 53 bd
       0.008177324 -0.013303491 -0.020374008 -0.051597554
0001a0 5c ea 6c 3d 35 b5 f9 3c 62 2c 9c 3c 67 26 93 3d
       0.05784069 0.030481914 0.019064132 0.07185059
0001b0 24 4a db 3d 80 2f 7a bd e8 fa be bd d7 c4 1c bb
       0.107075006 -0.061080456 -0.093252 -0.0023921037
0001c0 ec f4 c7 bd 9a 32 97 3c 97 da 6a 3d 8f 2e 86 3d
       -0.09763512 0.018456746 0.05733737 0.06551849
0001d0 94 88 08 3d 15 e4 1a 3c c5 05 a8 bd ab 35 c5 bd
       0.033333376 0.009453793 -0.082042255 -0.09629377
0001e0 a0 8b 98 bd a4 b8 fd 3b 46 69 61 3b bf ed 02 be
       -0.07448506 0.007742958 0.0034395023 -0.12786005
0001f0 6f 30 3f 3c 7d 27 8e bc 94 dd 2b 3c 6e ba 1f bd
       0.011669262 -0.017352814 0.01048984 -0.038996153
000200 0f 56 d1 bd 14 db f3 3c 21 e1 8f 3d 01 d2 9f 3c
       -0.102214925 0.02976755 0.07025362 0.019509317
000210 d7 ff 79 bd 94 9f 98 bc 2f 55 f5 bc 67 6b 4c 3b
       -0.061035004 -0.01863078 -0.029947845 0.0031191946
000220 ca 2f e4 bd 1d 3c 3e 3d fe 34 cd bc 46 9b 02 be
       -0.111419275 0.046444047 -0.025049683 -0.12754545
000230 e1 9b 10 3c ab 57 97 3c cc 3c 64 bd 87 4a 52 bd
       0.008826227 0.01847442 -0.055722043 -0.051340606
000240 52 4f bb bc c8 7b f9 bc b1 21 b6 bd a3 b6 bd bd
       -0.022864971 -0.030454531 -0.08893145 -0.09263351
000250 8c 47 43 bd 4d 17 2c 3e 94 a8 96 bd e8 15 33 bd
       -0.047675654 0.16805764 -0.073563725 -0.043722063
000260 34 96 a4 bc e1 4e 52 bd 46 b6 98 bd b1 a2 ab bc
       -0.020091154 -0.051344756 -0.07456641 -0.0209516
000270 6a b6 42 bc 75 87 81 bd c6 ea 14 bd 8d 32 1a 38
       -0.011884311 -0.063246645 -0.03635671 3.676354e-05
000280 a4 6b 27 bd 60 a2 bf 3d 48 a0 a6 3d c2 e4 49 3d
       -0.04087414 0.093571424 0.0813604 0.049290426
000290 f4 36 f6 bd 1c 53 c5 bd 7c 2f ca bd 1a 48 2c bd
       -0.120222 -0.096349925 -0.09872338 -0.04206095
0002a0 5d bd eb bd e4 48 d9 bb 1c da ac bd 10 68 1e bd
       -0.115107276 -0.0066310037 -0.084400386 -0.03867346
0002b0 dd e8 e6 3c 52 6e 55 bd 6c 48 70 bd 14 f8 c7 bd
       0.02818721 -0.052107163 -0.058662817 -0.09764114
0002c0 5e fd d9 3d cd 5f a4 3c 22 59 73 3c 27 8c b3 3d
       0.10644029 0.020065213 0.014852794 0.08766966
0002d0 e9 d9 96 3c 36 7c 2d bd 32 1e e0 bd 7a 96 08 3d
       0.018414455 -0.042354785 -0.10943259 0.03334663
0002e0 87 12 a5 3c e0 d8 60 bc 92 26 aa 3c 83 3b 46 bd
       0.020150436 -0.013723582 0.020770345 -0.0483966
0002f0 92 13 db 3c a8 d7 67 3d ed 52 43 3c a2 28 8e bc
       0.02674273 0.05660215 0.0119216265 -0.01735336
000300 ae 59 a1 bd 5d 02 7c 3d bc 04 99 bd 57 3a ba bd
       -0.07878433 0.06152569 -0.07471606 -0.09093159
000310 15 0e 8b 3d d2 cf f2 bc 16 e5 93 bd 97 cb d2 bd
       0.06789795 -0.029640112 -0.07221429 -0.10292738
000320 cc dc b8 3b c4 43 4a bd d2 0b dc 3d 55 b5 79 3d
       0.0056415554 -0.049381033 0.10744442 0.060963947
000330 2c f4 6c bd 5f e6 a0 bd a8 b7 45 3d 14 c5 d0 3c
       -0.057850048 -0.0785644 0.04827085 0.0254846
000340 31 fb 24 3c bd a8 8d bc 63 e7 55 bd 12 c9 b7 3d
       0.010069654 -0.017292375 -0.05222262 0.08973898
000350 d0 06 d2 3d 7a da 37 bd 45 f2 ad bb 22 4c 9d bb
       0.10255206 -0.04488609 -0.005308422 -0.0048003355
000360 c1 f7 33 3d 17 80 93 bd 3e 43 9f ba 39 62 c1 bd
       0.04393745 -0.072021656 -0.0012150777 -0.094425626
000370 8e 10 04 bd 16 0a c3 3c 90 ac 06 be c1 8b 2f bc
       -0.03224235 0.02380852 -0.13151765 -0.010714472
000380 c3 ab ac bd 0e cf 74 3c 8f 80 49 be 84 ae 89 3d
       -0.084311984 0.014941944 -0.19677947 0.06722739
000390 d4 ec 55 bd c6 ce 02 be 9f 58 96 bd 75 51 36 3e
       -0.05222781 -0.1277419 -0.07341122 0.17804511
0003a0 e1 7d 92 3c a0 54 93 bd 2c 10 de 3d e1 51 5e be
       0.01788229 -0.07193875 0.10842928 -0.21710922
0003b0 ef f1 1f bd 58 3f 8f 3d 99 2d 25 bc be a1 d5 bb
       -0.039049085 0.06994504 -0.010081672 -0.0065195253
0003c0 35 57 36 bc c2 8e eb bc 05 87 c5 bb 2b 26 44 3d
       -0.01112919 -0.028754596 -0.0060280585 0.047887962
0003d0 a9 00 8a 3d 76 c7 4f bd e0 0d d3 3d 91 27 e6 bc
       0.06738407 -0.05072733 0.10305381 -0.028095039
0003e0 fd 65 b4 bc 88 37 8f bd ae 7c a8 bc 3c f2 8d 3d
       -0.022021288 -0.069930136 -0.020567264 0.06930968
0003f0 08 a9 e0 bd e5 37 8a 3b 0f 24 d0 bd 50 b6 3b bd
       -0.1096974 0.004218089 -0.10163128 -0.045828164

network_body._body_endoder.seq_layers.2.bias f4 [256]
000000 ad 33 c2 bb df a3 07 bc fe d5 02 bd 5d 05 cb bc
       -0.0059265704 -0.008278816 -0.03194236 -0.02478283
000010 d0 c6 ba bc c6 be 4b bb 91 1a 7e bc bf e6 4a bc
       -0.02279988 -0.0031089052 -0.015509264 -0.012384116
000020 a2 18 16 bc 80 55 47 ba 5b 2a 7f 3a c6 03 40 bc
       -0.009161146 -0.0007603988 0.00097337895 -0.01171965
000030 54 97 ad bc 23 ad 9c bc 56 20 41 3c 01 6b db 3c
       -0.021190323 -0.019125527 0.011787495 0.026784422
000040 24 e5 70 3b 82 f8 a7 39 8e 03 8e bc 68 8b d4 bb
       0.0036757672 0.00032037875 -0.01733568 -0.006486345
000050 00 33 f5 3a 04 62 31 bc a9 74 31 bc 04 ed 61 bc
       0.0018707216 -0.010826591 -0.010831037 -0.013789419
000060 16 8d 28 bc c9 1c 14 bb 79 0c 22 3c dd 72 a4 bc
       -0.010287544 -0.0022600165 0.009890669 -0.020074302
000070 b4 43 97 bc 41 f2 c5 bc d3 34 24 3d c1 b0 fa bb
       -0.0184649 -0.024163367 0.04008944 -0.0076504652
000080 87 19 f9 bc 32 81 00 bc 29 27 22 3d c5 22 d2 ba
       -0.03040768 -0.007843303 0.039588127 -0.0016032091
000090 e4 15 3a 3a cb 13 37 bc fa 0a e5 bc bb 2f a1 b9
       0.0007098599 -0.011174153 -0.027959336 -0.00030743875
0000a0 6e 5e 0b bd 67 6e 39 bb d0 84 95 ba 08 ad 12 3c
       -0.034025602 -0.0028294565 -0.0011407379 0.008952387
0000b0 2f 5d 1a bc 38 ec e5 3c 36 d3 8c bc 50 a1 ed bc
       -0.009421631 0.02806674 -0.017190557 -0.029007584
0000c0 e0 d7 dc bc 0a 5f 3a bb e6 db 78 bc af cc 87 3b
       -0.026958406 -0.0028437995 -0.015189147 0.004144273
0000d0 4f 70 3d bc e5 e4 56 bc fa d2 dc bc aa 49 56 bc
       -0.011562421 -0.013116096 -0.02695607 -0.013079086
0000e0 f2 04 d9 3b fb 7f d0 bc 5f e1 6a bc 27 95 c6 3a
       0.006622904 -0.02545165 -0.014335959 0.0015150652
0000f0 05 13 f2 ba dd 4e f1 3b b4 81 87 bc 99 2b b8 3a
       -0.0018468803 0.0073641376 -0.01654134 0.0014051079
000100 11 be c7 bb c9 73 bb bc 57 62 d7 bc 9e 58 4e ba
       -0.0060956557 -0.02288236 -0.02629201 -0.00078714814
000110 01 ef 75 bb 34 28 3f bc cd 09 af bb c8 51 96 bc
       -0.003752649 -0.0116673 -0.0053417445 -0.018349543
000120 f5 a6 11 bc 17 a4 34 bb 34 a8 b4 bc 41 bb cd bb
       -0.008889903 -0.0027563625 -0.022052862 -0.006278426
000130 60 b5 49 bb 0d c4 e8 bb 5d 97 a2 bc 40 66 e4 bc
       -0.0030778274 -0.007103449 -0.019847566 -0.027880788
000140 2a b9 7a bc 56 58 75 bc d6 d8 60 3a 17 1e 6e ba
       -0.015302936 -0.014974674 0.0008577233 -0.0009083463
000150 fa a6 2b bc 9d 13 a5 bb 45 96 b9 bb 54 71 8c bc
       -0.010476822 -0.0050377385 -0.0056636655 -0.017143883
000160 19 af 7a 3a 8b 3d d5 bc 47 ac b8 bc 6b e3 c4 bc
       0.0009562835 -0.026030323 -0.022543086 -0.024034223
000170 7b 75 9b bc 5d 96 0a bc f5 58 05 ba c4 24 8c bc
       -0.018976917 -0.008458701 -0.0005086803 -0.017107375
000180 4f 3e 72 bc 51 fb 95 bc c2 c9 63 bc 0f a6 a4 3b
       -0.014785363 -0.018308314 -0.013903083 0.0050246785
000190 7f f1 45 3c c4 37 65 bc 9a e7 3a bc af 81 9f bc
       0.012081503 -0.013990346 -0.011407757 -0.019471018
0001a0 ba 53 1c bc 06 5a ac 3b 55 f6 6b 3a f6 c5 27 bd
       -0.009541446 0.005259755 0.0009001245 -0.040960275
0001b0 a3 79 0a ba b5 5d 9e bb 4b c8 8a bb 00 70 8d bc
       -0.00052824075 -0.004832948 -0.0042353026 -0.01726532
0001c0 08 49 cf ba 69 3f 67 3b 83 e3 d4 bb 9b 59 22 bc
       -0.0015814612 0.0035285598 -0.006496848 -0.009909059
0001d0 f2 14 ca bc 87 fa e5 bb e9 c0 35 bc a3 43 72 bc
       -0.02466819 -0.0070183906 -0.011093357 -0.014786634
0001e0 41 f7 f5 3b 17 00 70 bc b6 1c b5 bc cb bb 88 3b
       0.0075062816 -0.014648459 -0.022108417 0.0041727773
0001f0 f2 0a aa bc e9 00 05 bc 84 55 85 bc 20 b7 0e bc
       -0.020757172 -0.008117893 -0.016276129 -0.008710653
000200 4a 11 a2 bc df b9 c2 bb dd e3 10 bb f8 da 68 bc
       -0.019783635 -0.0059425677 -0.0022108473 -0.0142123625
000210 d3 3c 88 bc 2b 0f 07 bc 34 60 c7 3b bf 89 5e bb
       -0.016630566 -0.008243362 0.0060844664 -0.0033956615
000220 4c f3 cf 3c 66 a0 96 ba 2a ed 80 bc 47 30 4a bb
       0.025384568 -0.0011491894 -0.015738089 -0.003085153
000230 11 23 80 bc fe 6d 17 bc 89 6f 8d bc 72 1b 6c bc
       -0.015641721 -0.009242533 -0.017265098 -0.01441084
000240 e4 26 53 bc 87 b1 98 bc 95 20 24 bb e2 4e 3b bb
       -0.01288769 -0.01863934 -0.0025043834 -0.0028580953
000250 c2 15 7d bb 28 8f d6 bc 9b f8 f6 bc 88 8d db ba
       -0.0038617705 -0.02619131 -0.030147841 -0.0016750554
000260 67 c8 05 bb e0 9a f6 bb 3a 36 9f ba d9 ce 46 bc
       -0.0020413639 -0.0075257868 -0.0012146898 -0.012134277
000270 1e 37 25 3d b3 94 86 bc 45 6d 65 bc fc eb 05 bd
       0.040335767 -0.016428327 -0.014003103 -0.032695755
000280 e2 a4 55 bd 61 51 03 bb 44 1d d2 ba 77 9e cd bc
       -0.052159198 -0.002003752 -0.001603045 -0.025099976
000290 9d ab 5d 3b f2 79 22 3c 91 0a 4e bc 44 62 ea bb
       0.0033824213 0.009916769 -0.012575761 -0.0071528275
0002a0 ff ac 0a bc 60 15 a2 bb 3c 44 8a bc 49 b2 86 bb
       -0.008464097 -0.0049463958 -0.01687824 -0.0041106087
0002b0 7f aa c0 bb 4c 91 4e 3b bb 07 1d bd 41 7d 41 bc
       -0.0058796997 0.003151971 -0.03833745 -0.011809648
0002c0 0b df 93 bc 90 20 17 bd 84 ed 58 bc fa 6d 1f bc
       -0.018050691 -0.03689629 -0.013240222 -0.00973081
0002d0 c0 36 97 bc c9 5b e9 bb c4 34 b4 bc cf cf 01 bc
       -0.018458724 -0.0071215373 -0.021997817 -0.007923081
0002e0 7c bf 9f ba e9 90 4f bc 44 58 e8 bc 91 9e 2a bc
       -0.0012187804 -0.012668827 -0.0283624 -0.010413782
0002f0 ce 21 30 3c 7e b1 04 3b 32 4a 54 ba f8 a0 cf ba
       0.010750247 0.0020247395 -0.0008098214 -0.0015840819
000300 21 a7 01 bd 30 38 d2 b8 0e a8 b4 3b 06 cc 9f bc
       -0.031653527 -0.00010024046 0.0055131977 -0.019506466
000310 5b 67 be bc 9e 3f 96 bc d8 45 a6 bc 2b 1f b1 3b
       -0.023242643 -0.018340882 -0.020296976 0.005405327
000320 41 0e b3 bb 82 69 ca 3b fb a7 73 bc 1a c0 62 3a
       -0.0054643457 0.0061771283 -0.014871593 0.0008649841
000330 e7 46 15 bc 49 ec b6 bc 0d bc 94 bc 75 09 02 bc
       -0.009111143 -0.022329466 -0.018156076 -0.007936825
000340 2d 2c da bc 85 44 44 bc 51 18 65 bb d5 bb 8e 3b
       -0.026632393 -0.011979227 -0.003495712 0.0043558874
000350 3b 51 7b bc b5 ae 20 bc e6 9e 03 bd 35 aa c8 bc
       -0.015339191 -0.009807278 -0.03213396 -0.024495224
000360 7a c1 10 bb d7 95 a0 bc a9 11 8c bc 97 ad ea bc
       -0.0022087977 -0.0196027 -0.017098265 -0.028647227
000370 6c 18 89 bb d3 1c 99 bb d0 61 9c 3b 66 1d 0d bb
       -0.0041838195 -0.0046726256 0.0047724023 -0.0021532415
000380 c6 88 65 bc 3e 56 c8 bb 88 c3 99 bb a9 9e 03 bc
       -0.01400966 -0.0061137965 -0.0046924986 -0.008033433
000390 3d 63 d9 bc ef a3 00 bc 38 ad f5 bc a7 f3 87 bc
       -0.026536578 -0.007851585 -0.029989824 -0.016595675
0003a0 9f 3e 3c bc da 3b 88 3b 52 12 84 bc 3c a3 ab bc
       -0.011489539 0.0041575255 -0.016122017 -0.02095186
0003b0 e0 fd 0a bc 57 e9 14 bb e4 cd e8 3b 8b a1 8f bc
       -0.00848338 -0.002272209 0.007104622 -0.017533084
0003c0 d3 37 79 3b 96 57 81 3b 27 7d 3f bb 3a 59 72 ba
       0.0038027659 0.0039472086 -0.0029218884 -0.0009244863
0003d0 f8 c3 80 bc 4f 62 af bc 4b 14 34 bc a0 1d 24 bc
       -0.015718445 -0.021409182 -0.010991166 -0.010016829
0003e0 1b ff f4 ba cb 12 73 3c 64 88 25 bc fe 24 bf bc
       -0.001869175 0.014836024 -0.010103319 -0.023333069
0003f0 96 13 37 bc 11 32 9c bc fd ad 59 bc 98 be 64 bc
       -0.011174103 -0.019066842 -0.013286111 -0.013961457

network_body._body_endoder.seq_layers.4.weight f4 [256, 256]
000000 43 50 03 bd b4 e7 74 3c f4 4a 04 ba bc 67 06 3d
       -0.032058965 0.01494782 -0.0005046569 0.032813773
000010 a6 6f 1d 3d d8 14 94 3c 03 05 a5 bd 80 fd c6 3c
       0.038436554 0.018076345 -0.080575965 0.0242908
000020 45 e5 ad bc d5 cf c2 bd 62 f9 19 be 77 d1 8e 3d
       -0.021227488 -0.09512297 -0.15036538 0.06973546
000030 d7 1b 57 bb e9 86 ea bc 71 fb 9d 3d 52 60 b7 3d
       -0.003282299 -0.028628783 0.07713974 0.089539185
000040 56 b6 40 bd db df f9 bc a0 80 14 be 2e c0 8a bd
       -0.04704889 -0.03050225 -0.14502192 -0.067749366
000050 d2 1e a9 3b ca 4c 65 bd 00 ef e0 3b 31 df 7d bd
       0.005161145 -0.055981435 0.0068644285 -0.06198043
000060 53 b0 48 3d 6e 1a 29 3b 7d e3 cc bd 65 33 92 3c
       0.04899628 0.0025803107 -0.100043274 0.017846772
000070 7b a0 41 3d c1 f5 93 bc 62 e5 41 bd bf 7d f8 bb
       0.047272187 -0.01806152 -0.047337897 -0.0075833495
000080 a9 fa f2 bd 1b 6a 9b bd 33 7b dd bc 74 3c 2f bc
       -0.11864216 -0.075885974 -0.027036285 -0.0106955655
000090 94 d2 8e 3d 2c 4d bb bd ba a9 3e bc 94 ae ff 3c
       0.06973758 -0.09145579 -0.011637146 0.031211175
0000a0 24 2b 96 bd 0c 79 60 bd a5 c2 38 3a 38 d5 ba 3c
       -0.07332447 -0.05480294 0.0007048047 0.022806749
0000b0 05 eb 02 3e e6 4e 95 3c 14 52 fe 3d b4 27 09 3c
       0.12784965 0.018226098 0.12417999 0.008371282
0000c0 0a 1e 1a bc 99 e8 bc bb e7 a3 b7 3c d9 2c af bd
       -0.009406576 -0.0057650325 0.022417022 -0.08553476
0000d0 e1 0b 8d bd 9b 60 37 bd 54 79 ad 3d f0 0c 4a bd
       -0.06887031 -0.044769865 0.08470407 -0.049328744
0000e0 7f 0b 8e 3c 8a 54 b2 bb f2 fb 97 3b a5 04 a0 bd
       0.017339466 -0.0054422067 0.0046381885 -0.07813386
0000f0 f5 36 0e bd 06 60 21 3d ce 5b 2b 3b 82 f5 ab bd
       -0.03472038 0.039398216 0.002614725 -0.08396436
000100 3c b3 b7 bc 88 42 cd bd 51 2f 62 bd 04 7f a3 3b
       -0.022424333 -0.100224555 -0.055220906 0.0049895067
000110 96 9c 8c 3c cc 13 11 be b2 9d 9d bc f4 f5 47 bb
       0.01716451 -0.14167708 -0.019240234 -0.003051159
000120 45 61 de bb d2 b1 24 3e 0a fd 70 3d 6e 07 10 bd
       -0.006786498 0.16083458 0.058835067 -0.035163336
000130 40 ae 85 3d af c7 ab bb fd e0 b9 bd fd 66 27 bd
       0.06527376 -0.00524231 -0.09076116 -0.0408697
000140 e8 ce 52 bd ec 49 0b 3d 76 70 8c bd 66 f1 0e 3e
       -0.051466852 0.034006044 -0.06857388 0.13959274
000150 60 c1 f1 bd f6 66 a8 bd 25 b9 04 3d e4 5e dd 3d
       -0.118044615 -0.08222763 0.03240313 0.108091146
000160 ed dd a9 b9 fc fc 4d bd b5 dc b7 3c 32 ae 24 be
       -0.0003239954 -0.050290093 0.022444109 -0.16082075
000170 90 fd 52 bc 09 a5 41 3e d3 29 e4 3c 4a 70 d1 3d
       -0.012877837 0.18910612 0.027851975 0.102264956
000180 4e 5a 5f bc 14 d5 52 3e ba e1 37 3e 08 e3 1c bd
       -0.01363237 0.20589095 0.17957202 -0.03830245
000190 19 e3 08 3e e4 33 26 bc b4 82 3d 3d 7b 7c cf 3d
       0.13367881 -0.010144208 0.046267226 0.10131165
0001a0 1e af 8f bc 48 e2 e4 3d 25 bf 7d bb 71 60 aa 3d
       -0.017539557 0.11175972 -0.0038718667 0.08319176
0001b0 0d 17 14 be 4b 8b 98 3d da 6f 54 bc a5 2b 84 3d
       -0.14461918 0.07448443 -0.012966121 0.06453637
0001c0 fe ed ff 3c bf 24 36 3d 22 92 27 3c 3b b2 6f bc
       0.031241413 0.044468638 0.010227712 -0.014629896
0001d0 9a e8 8e bd 97 14 13 3e 01 5d ac bc 45 ab f3 bb
       -0.06977959 0.14363323 -0.021040441 -0.0074361884
0001e0 34 6d 33 bd 21 1c 0d 3d 1f 5d 59 3d b2 76 81 bb
       -0.043805316 0.034450654 0.053067323 -0.003950917
0001f0 aa c7 4b bd 1a 1d 92 bc 35 56 5f bd a3 80 71 3b
       -0.04975096 -0.017836142 -0.054525573 0.0036850355
000200 70 27 75 bd 97 a3 42 bc a4 85 c1 3d fb d9 cd 3c
       -0.059852064 -0.011879823 0.09449318 0.025128355
000210 a5 47 2c 3d 5d 37 07 bc 77 8d 94 bc cb 11 5b bb
       0.042060513 -0.008252946 -0.018133862 -0.0033427353
000220 e4 19 57 3d 3f b7 cf 3b b4 e8 f2 3d 64 11 ed bb
       0.052514926 0.0063389833 0.11860791 -0.007234739
000230 6e 84 47 bd cc ca 91 bd 2c e7 d8 3c c1 63 02 be
       -0.04871028 -0.071187586 0.026477419 -0.12733366
000240 51 9d 72 3d 82 26 d2 bd ec f4 d1 bc 16 db 0e 3b
       0.05923206 -0.10261251 -0.025629483 0.0021798066
000250 c7 70 38 bd 1a 8d e0 bd 59 d3 44 bd 16 8c e3 b9
       -0.045029428 -0.10964413 -0.04805312 -0.00043401186
000260 1f ec 6a 3b 67 e8 98 bd 6f f6 98 bc a8 5f 9c bc
       0.0035846306 -0.07466202 -0.018672196 -0.019088581
000270 06 8e f9 3d 5d 21 6f 3b d5 ba f7 3b 08 f2 c8 3b
       0.12185292 0.0036488392 0.007560114 0.006132368
000280 bc 1c 54 bc 63 6b 82 3d 91 36 16 3c 39 c1 09 be
       -0.012946304 0.06368139 0.009168283 -0.13452615
000290 1f ed d5 bd a8 72 20 bd 7c de 56 bc 91 6c ae 3c
       -0.10445618 -0.039171845 -0.013114568 0.021292003
0002a0 6e 6a 80 bd 9a 09 a9 3c e2 39 a5 3c ef 53 62 3d
       -0.062703 0.020634461 0.020169202 0.055255827
0002b0 f9 91 80 bd 9d 1a 4c bd f4 ee e3 3c 2c c4 60 bd
       -0.06277842 -0.049830068 0.027823903 -0.054874584
0002c0 46 d2 57 bd d5 6f be 3d 59 5b a1 3d db ce da bd
       -0.052690767 0.09298674 0.07878751 -0.10683986
0002d0 a5 1a 51 3b 6b 8c 0d 3d f9 56 43 bd 6e 94 2f bd
       0.003190675 0.03455774 -0.047690365 -0.042866163
0002e0 97 ef 6a 3d a3 55 a1 bd 78 8f 0a 3e ad 30 33 bc
       0.057357397 -0.07877662 0.13531291 -0.010936898
0002f0 3b 92 b2 bd 08 ea af bd b7 73 3a 3d 2c 3b 85 3d
       -0.087192975 -0.0858956 0.04552051 0.06505427
000300 52 84 f7 3c 11 ef 00 bc 57 3b 0a bc d1 3d 88 3d
       0.030214462 -0.007869498 -0.008436999 0.066524155
000310 68 bf 05 3d 6d 22 3d 3d c0 cb d6 bc 9d 77 bb 3d
       0.032653242 0.04617541 -0.026220202 0.09153674
000320 a7 7a cd bc a2 4d 01 3c a4 db d1 3c 2e bd 8e 3b
       -0.0250829 0.007892044 0.025617428 0.004356048
000330 db 98 cb bc 6e 00 80 3d a6 93 00 be c2 b0 e7 3c
       -0.02485316 0.06250082 -0.12556323 0.028282527
000340 19 0c f6 bc ee 6a 75 3d 1e f5 80 3c 0a a6 00 3d
       -0.030035065 0.05991643 0.015741881 0.031408347
000350 51 ba a3 ba ce f7 d8 bc ec 4f 3a ba e9 49 a4 3c
       -0.001249144 -0.02648535 -0.0007107246 0.020054774
000360 d5 97 6e bd b4 63 a9 3d ff 6d 10 3d 52 d7 b9 3c
       -0.058250267 0.0827097 0.03526115 0.02268568
000370 15 da d7 3d 5c 82 0b bb 95 79 01 3e 47 02 db 3d
       0.10539643 -0.0021287417 0.12644036 0.10693794
000380 20 b2 59 bc 09 39 92 3b 73 e1 54 bc ef 82 e8 3c
       -0.013287097 0.0044623655 -0.012993204 0.028382747
000390 a8 30 85 3d 61 c6 8a bd 2b e8 fb bc 03 76 f3 bd
       0.06503421 -0.06776119 -0.030750355 -0.11887743
0003a0 3e d5 8a 3c 90 86 0f 3d e2 86 ac bd 5b 17 9c bd
       0.016947385 0.03504044 -0.08424164 -0.07621642
0003b0 18 9b 4a 3d e5 fb db 3d 4b 98 9c bb 50 b7 48 3d
       0.049464315 0.107414044 -0.004778897 0.049002945
0003c0 89 b9 65 bd 0a 77 7b 3d b6 02 44 3d 6f d6 f5 3b
       -0.056085143 0.06139282 0.047854148 0.007502369
0003d0 c8 f6 ea 3d e3 54 28 3d 65 fa 4b 3c f2 a9 d8 3d
       0.11472851 0.04109658 0.012449835 0.105792895
0003e0 7d 95 77 bb d8 eb 95 3d f0 60 6b 3d cf c1 4a bc
       -0.003777831 0.07320374 0.057465494 -0.012375309
0003f0 8f 4f f0 bd 3c e8 0c bd ba 52 d7 ba a2 70 96 3d
       -0.117339246 -0.034401163 -0.0016427853 0.07345702

network_body._body_endoder.seq_layers.4.bias f4 [256]
000000 be d3 f2 3b dc 16 a2 bb 91 21 74 39 86 42 88 ba
       0.0074104955 -0.0049465727 0.00023282158 -0.0010395802
000010 20 71 62 ba 04 83 84 3b a1 b1 09 39 26 d7 83 bc
       -0.0008638073 0.0040439386 0.0001313151 -0.016093802
000020 b4 c6 97 bc 97 e0 c0 3c b3 63 d0 bb 2a 49 b9 3a
       -0.018527366 0.023544593 -0.0063595413 0.0014136184
000030 85 21 61 bc 16 89 78 ba fe 2d 61 bc 55 72 0a bb
       -0.013740902 -0.00094808766 -0.013743876 -0.0021125276
000040 61 47 d5 ba 4e 69 29 bc 0e 34 df bc c0 1a c4 3c
       -0.0016271883 -0.010340048 -0.027246501 0.023938537
000050 e2 6d a6 3b 13 86 d0 bb ef 14 c5 3a 63 c3 8e bb
       0.005079017 -0.006363639 0.0015036146 -0.004356788
000060 31 f8 2c bb fc f4 1e bc b0 e4 95 bc 56 2f 92 bc
       -0.002639305 -0.0097019635 -0.018297523 -0.017844837
000070 53 a1 17 bc 1e ea 11 bc 62 73 34 bc fb e2 ed 3b
       -0.009254771 -0.008905916 -0.0110138375 0.007259724
000080 77 dd 0f bc 00 1c be bb 22 7a c3 bc d1 3b 30 bc
       -0.008780829 -0.0058016777 -0.023861948 -0.010756449
000090 a8 7e 07 bc ff d5 e8 b8 9c 07 9a bc 47 3f 27 bb
       -0.008269943 -0.00011102482 -0.018802457 -0.0025519894
0000a0 fa 34 6b bc d8 c2 2a bc 06 66 0c bc 53 4e dd ba
       -0.014355892 -0.010422431 -0.008569246 -0.0016884304
0000b0 f8 98 a7 bb 0f 3b 3b bc 4d 5e a6 ba 43 1a 71 bc
       -0.005114671 -0.011427655 -0.0012692899 -0.014715734
0000c0 a2 d0 f0 bc 33 e0 5f 3c e6 db 24 bc 70 6c a1 bc
       -0.029396359 0.013664293 -0.0100621935 -0.019705027
0000d0 59 0a 65 bc cc bd ae bc 29 86 92 bc fc 19 98 bb
       -0.013979518 -0.021330737 -0.017886238 -0.0046417695
0000e0 b2 0a 97 bc bf 59 77 bc d8 47 aa bc b5 ad 75 bc
       -0.018437717 -0.015097081 -0.02078621 -0.014995028
0000f0 1c d9 d9 bb 89 61 9a bc 27 72 4b bc fc b7 48 3b
       -0.006648196 -0.018845337 -0.012417353 0.0030627241
000100 5d aa cf bb ab 6c bc bc ec de ac bc 67 de 71 bc
       -0.0063374476 -0.023001036 -0.021102391 -0.0147624975
000110 88 a2 19 bc 41 8e dc bc e7 50 bb 3c 4c 17 8e bb
       -0.009377129 -0.0269233 0.022865726 -0.0043362733
000120 49 8c 57 bc 9f ac 3e bc 3c 81 51 3b 7c 9f 96 bc
       -0.013156005 -0.011637836 0.0031967899 -0.018386595
000130 4f e7 c0 b6 af c1 03 bc d8 bf 79 bb 85 3a 3c bc
       -5.7489738e-06 -0.008041783 -0.0038108733 -0.0114885615
000140 10 95 50 bc e9 bb 4b bc 8a 30 99 bc 21 26 2c ba
       -0.012730852 -0.012434938 -0.018699903 -0.0006566961
000150 c2 0b 92 3c ba 2e 8b bc 08 fd 98 3c 96 7b 8b bb
       0.017827872 -0.016990054 0.018675342 -0.004256676
000160 7c 90 d5 bc eb a0 17 bc 9c 70 6d 3b 5b bc 7c 3c
       -0.026069872 -0.009254674 0.003623045 0.015425767
000170 40 1a 1b bc 0f ba a0 bb de e9 d3 bc 76 22 70 bc
       -0.009466708 -0.0049049924 -0.025868353 -0.014656654
000180 bc 80 ac bc ad f7 d7 bc 15 b3 29 bb a5 f8 ed 3c
       -0.02105748 -0.026363218 -0.0025894095 0.029049227
000190 a1 f4 4f ba 31 23 d6 bc 8f 7d ed bc 54 09 d2 bc
       -0.0007932876 -0.026139827 -0.028990535 -0.025639214
0001a0 c1 92 d1 bb fe c6 18 bb ce 64 46 bc 89 80 e1 3b
       -0.0063956683 -0.0023311968 -0.012108995 0.0068817777
0001b0 a3 2d a7 bc a3 4d 55 bb ae 2e 97 bc 0a 85 a2 3b
       -0.020407503 -0.0032547496 -0.018454876 0.004959707
0001c0 dc dc 4c bc ee 56 d4 3c 9d ee 08 bc b2 39 48 bc
       -0.012503829 0.025920358 -0.008357671 -0.012220787
0001d0 f6 3b 06 bd 32 c7 c8 bc eb 1a c6 bc 46 5d 78 3c
       -0.032772027 -0.024509046 -0.024182757 0.015158957
0001e0 85 d4 44 3b df 8f a5 bc b3 44 88 bc b5 94 00 bc
       0.0030033898 -0.020210205 -0.01663432 -0.0078479545
0001f0 33 0d 61 bc ce 52 a0 3b 91 7e a1 bc 24 78 b1 bb
       -0.013736057 0.0048926836 -0.019713672 -0.005415933
000200 54 8d 4c bc 43 64 42 3c 18 11 05 bc af 30 9d 3b
       -0.012484867 0.011864725 -0.008121751 0.0047970633
000210 b6 a3 84 bb dd b7 00 3c ac f0 dc 3c b4 69 c3 bc
       -0.004047836 0.007856336 0.02697023 -0.023854114
000220 17 4d ba bb 8f 65 22 bc 40 69 47 bb ee 0c c4 bc
       -0.0056854594 -0.009911909 -0.0030427724 -0.023931947
000230 8c 24 24 bc fa e8 15 3d e9 f4 a5 bc 41 95 92 bc
       -0.010018479 0.036599137 -0.020258384 -0.017893435
000240 84 ca c8 bb ab 50 13 bd 72 75 48 3b d4 44 aa bc
       -0.0061276574 -0.035965603 0.003058758 -0.020784773
000250 8e a0 60 bc 92 37 11 bc ca d5 c9 ba f1 3c 5f 3c
       -0.013710154 -0.008863347 -0.0015398797 0.013625369
000260 c1 26 d3 bc 22 a2 34 bc ab fe a7 bb f8 7a d3 bc
       -0.025775315 -0.011024984 -0.0051267943 -0.025815472
000270 b6 a7 78 bc 86 fe 74 bb 27 58 92 bc 96 8a b7 bc
       -0.015176704 -0.0037383153 -0.0178643 -0.02240495
000280 6f 95 ab bc 7b ad eb bc d9 34 f5 bc 17 36 84 bb
       -0.020945279 -0.028769245 -0.029932426 -0.0040347683
000290 b0 92 b4 bc 19 f1 87 3c 42 b5 42 bc 8b d3 a0 bc
       -0.022042602 0.016594457 -0.011884036 -0.019632122
0002a0 23 9a 6d bc b2 ee 5d bc 56 f1 97 bc 94 94 ae bc
       -0.014502081 -0.013545679 -0.018547695 -0.021311082
0002b0 aa cf e6 bc ca 9a ac bc 8b b0 5c bc 2e 62 ae bc
       -0.028175194 -0.021069903 -0.0134698255 -0.02128705
0002c0 56 dd 2a 3d 85 c3 ca bc 58 e4 d9 3a 5b 6e f1 3b
       0.04171499 -0.024751434 0.0016623838 0.0073678917
0002d0 83 e7 10 bc 57 2e d7 b9 d8 2c 2f 3b a7 e6 44 bc
       -0.008844259 -0.00041042521 0.002672961 -0.012017882
0002e0 3b 74 ca bc 5e 58 87 bc d9 b1 7b 3c af 96 43 bc
       -0.024713626 -0.016521629 0.015362226 -0.011937781
0002f0 da 49 ca bc 2c ad dc bc 20 66 d4 ba eb 20 be ba
       -0.024693418 -0.026938044 -0.0016204752 -0.001450566
000300 46 ae b0 bb 04 00 73 3c 3b db b8 bc 37 2e e2 bb
       -0.0053918688 0.014831547 -0.022565475 -0.006902482
000310 31 59 42 bc d9 d4 73 bc 6f f5 99 bc 08 8d e3 bb
       -0.011862085 -0.01488229 -0.01879379 -0.0069443025
000320 a9 4f a6 ba 98 59 03 bc 39 43 2a b8 73 8d 47 bc
       -0.0012688535 -0.008016966 -4.0593764e-05 -0.01217972
000330 85 16 23 bc fa ff 9d bc 4f 47 9b bc ff 14 aa bc
       -0.0099541 -0.019287098 -0.018954901 -0.020761965
000340 64 f8 87 bc 70 5a 5e 3c b9 23 2f bc 69 83 72 bc
       -0.016597934 0.013571367 -0.010689669 -0.014801838
000350 cc 4e b9 ba 68 8f df bc 74 65 b5 3c 4d 3a 55 bc
       -0.0014137863 -0.027290061 0.022143103 -0.013014388
000360 48 b8 a4 bc 3f f2 86 bc b6 95 b6 ba 67 d9 e9 3b
       -0.020107403 -0.016472934 -0.0013930115 0.007136512
000370 73 8b a6 bc f1 17 85 bc d4 f1 de bc 2e 74 b6 3c
       -0.020330166 -0.016246768 -0.027214922 0.022272196
000380 68 4c 13 3c 9f 78 2c b9 e8 89 7b 3c 4d 8d c0 bc
       0.008990385 -0.00016448133 0.015352704 -0.023504877
000390 d1 72 55 bc 11 2f cd bb aa db 8a 3c 0a dd 38 bc
       -0.013027863 -0.0062617143 0.016950447 -0.011283169
0003a0 88 89 03 bc da e9 66 bc 9d 32 5c 3b 79 ed a7 3b
       -0.0080283955 -0.0140938405 0.0033599504 0.0051247445
0003b0 d7 9e 1b bd 91 83 9a bc ed 77 ce bc 68 d5 a6 3b
       -0.03799328 -0.018861564 -0.02520367 0.005091358
0003c0 f1 f9 f3 bc 0a 8b f6 bb 84 d4 93 ba a9 f7 8d bc
       -0.029782267 -0.007523899 -0.0011278545 -0.017330008
0003d0 a7 dc ab bb f4 e3 8f bc 22 82 6b bc df ff 50 bc
       -0.0052448097 -0.017564751 -0.014374288 -0.012756317
0003e0 d7 23 b4 ba a4 38 e1 bb 0f 54 c5 3c f3 f9 47 bc
       -0.0013743591 -0.006873207 0.024087934 -0.012205589
0003f0 86 6e c2 bb a6 07 f6 3c a8 76 21 bc 73 48 a4 bb
       -0.0059335856 0.030032944 -0.00985495 -0.0050135194

action_model._continuous_distribution.log_sigma f4 [1, 6]
000000 5c 63 2a 3d ff a0 9a 3d 07 8a 91 3c 7c 22 83 3d
       0.041598663 0.07550239 0.017766012 0.06403062
000010 88 14 0b 3d 71 16 d5 3d
       0.033955127 0.10404671
