results/NearSingularity03/NearSingularity/NearSingularity-5688.onnx (onnx, 623772 bytes, 9 tensors)

network_body._body_endoder.seq_layers.0.weight f4 [256, 85]
000000 b5 4a 6f bd ea 6f 64 be 3c 11 88 bd 5e 3d 6a bd
       -0.058420856 -0.22308317 -0.06643912 -0.05718743
000010 f1 83 a7 bd b0 74 5c 3b 5a 57 81 be 9e d6 38 3c
       -0.08179463 0.0033638887 -0.25261956 0.0112816375
000020 24 d5 12 3e 0c ba 79 bd cf 67 60 3d 7f 0d e8 3d
       0.14339119 -0.060968444 0.0547865 0.11330699
000030 7b cd 7f 3e eb 2e 83 3d 08 e9 0f 3d 57 96 15 be
       0.24980728 0.06405433 0.035134345 -0.14608131
000040 81 ee 77 3d 3e e7 df 3c 3b be 09 be 73 8b a9 bd
       0.06053019 0.027331945 -0.13451473 -0.08278551
000050 b7 4b 37 3e dd eb 19 3e 2c 10 1f bc 19 5e 41 bd
       0.17899977 0.15031381 -0.0097084455 -0.04720888
000060 53 3a 89 3d 25 15 a8 be ad ee 06 be 0f cf e7 bd
       0.067005776 -0.32828632 -0.13176985 -0.1131879
000070 73 61 b8 bd d1 c3 bf bc 07 5d 8f 3d 57 ed c0 bd
       -0.09002962 -0.023408802 0.070001654 -0.09420269
000080 db 97 30 bd 7b 05 9a 3d bf ed 05 be 18 1d 81 3e
       -0.04311357 0.075205766 -0.13078974 0.2521751
000090 f8 b4 04 3d 1b 01 51 3e f8 a7 65 be fd 3f 8f bd
       0.032399148 0.20410578 -0.22427356 -0.06994627
0000a0 0b c0 71 bd c5 41 0a 3e 58 04 b1 bc 33 bc 0e be
       -0.059021037 0.13501652 -0.021608517 -0.1393898
0000b0 2f a0 56 3d 18 d8 83 bd e3 db b5 bb 83 a4 98 bd
       0.052398857 -0.06437701 -0.005549894 -0.07453253
0000c0 b3 55 1a 3e c5 7d 96 bd 8c d4 0c be 02 87 9b bc
       0.15071754 -0.073482074 -0.13752955 -0.018985275
0000d0 12 b3 a4 3e f4 84 85 3e 3a f5 11 be d0 9a e2 3d
       0.3216787 0.26077998 -0.14253703 0.110646844
0000e0 a5 41 0b 3e be 76 a5 3c eb e6 3d be 60 db 48 3d
       0.1359926 0.020198222 -0.1854512 0.049037337
0000f0 d9 7b bf 3c 83 f9 7f 3d 36 52 95 3c 7e 81 34 3c
       0.023374485 0.062493812 0.018227678 0.0110172015
000100 85 9b 49 3d d0 15 e5 3c cc 59 af 3c 48 9f 0a bd
       0.04922058 0.027964503 0.021405123 -0.03384331
000110 28 32 4e 3e c4 ed ce bd 36 42 b8 3c 44 e9 64 3e
       0.2013632 -0.10103944 0.02249251 0.22354609
000120 08 ef 3e bc eb 94 dc 3a 1a 60 75 be c1 7b cb 3d
       -0.011653669 0.0016829049 -0.23962441 0.099357136
000130 d7 60 d6 3d dc b0 94 3c fe d9 57 be 1b 93 b6 3d
       0.104676895 0.01815074 -0.21079251 0.08914777
000140 e7 f5 b2 bd 6c d3 fb 3d 97 bb e8 bd ee 31 b2 3c
       -0.087383084 0.12296185 -0.11363905 0.021752324
000150 da 71 a5 3e 9b 5f c6 3d cb ca 44 3e 96 56 a6 3d
       0.32313424 0.09686204 0.19217984 0.08121984
000160 c0 19 af 3d d9 b8 7e 3c 79 f1 cd bd b3 ca 1a 3e
       0.08549833 0.015547001 -0.10055823 0.15116386
000170 ee 5e 8a 3d 50 c3 84 bd b2 9f 6f 3e 7f 22 08 bd
       0.06756388 -0.064825654 0.23400763 -0.033236023
000180 f9 87 66 bd b7 53 98 3c 61 5d 60 3a c1 7e e1 bd
       -0.056282017 0.018594606 0.00085588364 -0.110105045
000190 d2 ee a2 3d 5e f4 4b be 8e 32 ce bb 1c 43 86 bd
       0.079557076 -0.19917437 -0.0062926477 -0.06555769
0001a0 e0 92 0a bd 4a 67 9d bd bb 77 83 be b4 dd be bc
       -0.033831477 -0.076857165 -0.25677285 -0.023299076
0001b0 cd 57 27 3c a1 9b db bd 37 01 a8 3c c3 42 9a 3d
       0.010213804 -0.10723043 0.020508392 0.07532265
0001c0 c2 ac 2d 3e 76 ee 11 3d 65 3b 44 3e d9 0b 60 be
       0.16960433 0.035627805 0.19163282 -0.2187952
0001d0 63 39 9c bd a3 57 41 be 30 d6 8e 3d 9c 82 1b bd
       -0.07628133 -0.18881087 0.06974447 -0.037966356
0001e0 ce aa f6 bd 35 de 97 bb eb 92 ac 3d 43 24 f5 3d
       -0.12044297 -0.0046346434 0.0842646 0.11969807
0001f0 8e bf 0d 3e a7 e3 4b 3d e6 c4 a5 3d 3d 08 63 3d
       0.13842604 0.049777653 0.08094196 0.05542778
000200 f7 de 1d 3e f7 5a 7b 3d 05 a9 5c 3d 08 46 9a 3b
       0.15417086 0.061366048 0.053872127 0.0047080554
000210 b4 2f 27 3e e8 b1 3a 3e 55 65 3d bc d6 08 4c bd
       0.16326791 0.18231928 -0.011559804 -0.049813114
000220 69 9e 44 bd 88 4d 69 bd 76 c4 3a 3e ee 7a a3 bd
       -0.048002634 -0.056958705 0.18239006 -0.07982431
000230 1c 53 3d 3e 03 86 01 3c fa 40 a4 3c 83 fe fc 3d
       0.18488735 0.007905486 0.020050514 0.12353232
000240 83 3d 59 bd c1 3b 35 3d 1d 1f 7a be 7a f2 66 3d
       -0.053037178 0.04424644 -0.24425931 0.056383587
000250 eb 21 92 be 5d 44 0f be 1a 5e a1 bb 7f bc 15 3d
       -0.28541502 -0.13990922 -0.004924548 0.036556717
000260 46 c1 7e bd ad 50 36 3e 5c 74 8e 3c 65 b4 dd 3c
       -0.06219604 0.17804213 0.017389469 0.027063558
000270 fd a1 3a 3d 11 e5 33 3d 9e b5 b1 3d 21 19 13 bd
       0.04556464 0.043919627 0.08677219 -0.035912637
000280 d4 b0 7e bd 96 40 a1 bc d8 a9 0b bd d7 9b 97 3d
       -0.062180355 -0.019684117 -0.034097522 0.07402771
000290 a9 c1 26 bb ab 88 57 3c 61 0b 06 be 05 82 10 be
       -0.002544502 0.013155143 -0.13090278 -0.14112099
0002a0 9e d0 26 3d 22 c0 1d bc 58 ad 4f bd 2f 8e 3e 3d
       0.040726297 -0.009628328 -0.050702423 0.046522316
0002b0 cc 53 9e bd be 0e 80 be aa 3c 4a 3c d0 9b ec bd
       -0.07730827 -0.25011247 0.012343565 -0.115531564
0002c0 0f 88 59 3d e7 e4 5e bd 36 c4 0d be 54 cc bf bc
       0.05310827 -0.054417517 -0.1384438 -0.02341286
0002d0 09 73 0c 3e a1 c9 b6 bd 9e 24 07 3e 9f 5e c7 bc
       0.13715757 -0.089251764 0.13197562 -0.024337111
0002e0 a9 02 58 be f1 86 83 bb 33 0b 29 3d 9a af ec bd
       -0.21094765 -0.004013889 0.041270446 -0.11556931
0002f0 be 5f a6 3e 3f d3 55 3e 11 7e a3 3d 6a f4 43 bd
       0.3249492 0.20881365 0.0798303 -0.047840513
000300 50 0b 55 bc 55 d3 03 3d 9b f3 05 be 5a 30 1e 3d
       -0.013003185 0.032183964 -0.1308121 0.03862033
000310 61 2e 80 3c c3 59 13 3e d1 7b d7 3d e1 bb 3d be
       0.015647115 0.1438971 0.10521663 -0.18528701
000320 81 22 8d bd 54 f9 29 3e 53 47 23 3e 57 02 ff bd
       -0.06891347 0.16599017 0.15945177 -0.12451618
000330 9d 8c 61 bd 43 bc b0 3c 0c a0 f8 3c 4f 1d 24 be
       -0.05506574 0.021574145 0.030349754 -0.16026805
000340 1c fc 63 3d 04 7a 82 3d a3 ab 1d 3e 27 82 64 bd
       0.055660352 0.06370929 0.15397505 -0.055788185
000350 38 e1 e4 bd 6e f2 0c 3d 1b 20 a8 bc ad aa b1 3c
       -0.111757696 0.034410886 -0.020523122 0.02168783
000360 ab 79 27 be 47 27 7b bc c4 21 ed 3d 5e 3a 12 3e
       -0.16355006 -0.015329189 0.11578706 0.14280078
000370 d6 71 0c be e2 df 1b bd df d3 2f 3d bf e4 1f 3d
       -0.137153 -0.03805531 0.042926665 0.03903651
000380 45 49 04 3e 82 b1 0c 3e e5 89 69 3e 05 b2 03 3d
       0.12918575 0.13739589 0.22806509 0.032152195
000390 1b 54 4e bd 7d 92 a5 bd 05 2b 2a 3d 6a 33 fe bd
       -0.050373178 -0.08084581 0.041544933 -0.1241215
0003a0 a7 26 d2 bc 4f ba 73 3c 6e e1 d0 bd 10 48 0e bd
       -0.025653196 0.014875962 -0.10199247 -0.034736693
0003b0 da 28 4b bd 83 c7 99 3d 6b 28 41 bc 3c d9 05 3d
       -0.049599506 0.07508757 -0.011789422 0.032677874
0003c0 95 4e a9 bd 21 47 7d 3d 7a f3 17 ba 3d b1 4c bd
       -0.082669415 0.061835412 -0.00057964737 -0.049973715
0003d0 25 fd d3 bd 59 d7 d6 bc b9 71 39 bc 5c 93 9f 3d
       -0.10351018 -0.026225733 -0.0113186175 0.077917784
0003e0 9c 70 ca 3d 4d 2b d0 bd 95 0f d4 3b 35 de 2c 3d
       0.0988476 -0.10164509 0.006471584 0.0422041
0003f0 c5 90 82 3d ce 10 95 bd 19 4d 41 3b 64 ba 9e bc
       0.06375269 -0.07278596 0.0029495417 -0.019375987

network_body._body_endoder.seq_layers.0.bias f4 [256]
000000 20 88 94 3b 7d 95 a5 3a 46 d4 81 3b 79 a5 65 3b
       0.004532829 0.0012633052 0.0039620725 0.0035041256
000010 98 f1 cf 3b 8a f5 3a bb 72 a6 14 bb d1 d1 1d bb
       0.006345939 -0.00285277 -0.0022682217 -0.002408136
000020 c7 ce 89 b9 80 d4 c1 3a 19 9a fe 3a cb ec 9f 3b
       -0.00026284737 0.0014788061 0.0019424587 0.004880523
000030 ee 80 61 3b 2d 3b 68 ba c4 f9 31 ba 7d a1 3b 3a
       0.0034409123 -0.00088589155 -0.0006789232 0.00071575475
000040 c7 83 a2 ba 12 3e 4f 3b 97 1a 89 3b 2e e9 14 b9
       -0.0012398892 0.003162269 0.004184078 -0.00014201246
000050 f8 63 e7 ba 9a 85 85 bb a0 8b d2 b7 c2 30 06 3b
       -0.0017653694 -0.0040747644 -2.5098969e-05 0.002047584
000060 d6 0b b5 3b d9 9d da ba 81 fe c7 ba ff 10 d7 3a
       0.0055250926 -0.0016679122 -0.0015258343 0.0016408263
000070 90 42 6e b7 e1 88 2d 3b 53 6e 47 3b 50 ef 70 3b
       -1.4201403e-05 0.0026479291 0.0030430749 0.0036763735
000080 7c a4 67 3b a0 70 a7 36 63 bd ff 3a bb bd a1 3b
       0.0035345843 4.990099e-06 0.0019511398 0.0049359477
000090 74 fa a0 3b 08 63 a8 39 09 21 16 39 05 db d9 3b
       0.004912669 0.0003211724 0.00014317421 0.0066484236
0000a0 27 e8 88 3a ed 90 d8 39 3e b4 23 3b 12 c9 43 bb
       0.0010445163 0.0004130671 0.002497926 -0.0029874486
0000b0 40 9e cc 38 a3 01 84 bb f1 8d 08 3b 35 f2 96 ba
       9.7569544e-05 -0.0040285154 0.0020836557 -0.0011516275
0000c0 83 6a ec b9 ce 49 9b 3b 23 c8 76 bb 68 37 5b bb
       -0.00045092785 0.004739023 -0.0037655912 -0.0033449773
0000d0 ac 88 60 3b f3 28 78 bb be dd 28 ba ef 2c bc ba
       0.003426115 -0.0037866205 -0.00064417336 -0.0014356653
0000e0 be f7 1c 3b 43 89 a4 3b 88 94 45 ba 33 62 07 3c
       0.0023951377 0.0050212457 -0.00075370865 0.008263159
0000f0 ae 37 42 ba 4e 4d 7f 3b 80 4d 15 37 de 10 00 3b
       -0.00074088096 0.003895599 8.899136e-06 0.0019541304
000100 7e 58 d9 39 b0 74 18 3a 50 5e e9 b9 4f 1e 61 39
       0.00041455397 0.00058157276 -0.0004451149 0.00021468963
000110 d5 79 a9 ba 45 4a 4c ba 76 3e 95 3b 17 5d 07 3c
       -0.0012929986 -0.00077930494 0.004554565 0.00826194
000120 56 8a 02 bb 82 b6 e5 3a 9e ec a5 3a 0e 1d 50 3a
       -0.001991888 0.0017525705 0.0012659018 0.00079389
000130 88 be 2c 3b 04 76 d4 3b b0 aa c7 3b 13 d9 34 3b
       0.0026358683 0.006483795 0.0060933456 0.0027595207
000140 82 2a a3 3b e6 15 c8 bb 55 1f 60 3a b9 74 90 bb
       0.0049794326 -0.006106126 0.0008549591 -0.0044084457
000150 e9 91 36 bb af 10 66 bb 2e dc a7 39 c0 19 e8 3b
       -0.0027857965 -0.003510516 0.0003201677 0.0070831478
000160 56 94 3f 3a 0f 4c b8 3a a8 da 5d 3b 7f f2 8a b9
       0.00073081756 0.0014060753 0.0033852253 -0.00026502085
000170 12 e4 a2 3b 1e e0 8d ba 7d 1e fe bb 55 c8 b4 ba
       0.0049710358 -0.0010824238 -0.0077550993 -0.0013792614
000180 24 39 61 bb a9 e2 be 3a 1a 57 65 3b 52 b2 45 bb
       -0.0034366334 0.00145634 0.0034994544 -0.0030166102
000190 4b 3f e7 b9 12 91 a5 ba 7c 95 a5 3a 55 9a 15 bb
       -0.0004410691 -0.0012631735 0.0012633051 -0.0022827585
0001a0 7c 96 27 3b 8a 6b 8f ba 2f c8 c9 b9 78 60 2f bb
       0.0025571873 -0.0010942083 -0.00038486856 -0.002676038
0001b0 15 fa 27 3a 4f 2b b7 39 92 45 f0 ba d9 50 b5 ba
       0.00064078096 0.00034936747 -0.001833128 -0.0013833299
0001c0 2b e3 9f 3b 85 a0 58 3b eb 9d 19 bb 70 55 0e 3b
       0.0048793755 0.0033054661 -0.0023440074 0.0021718405
0001d0 12 a3 53 ba 35 94 e1 bb e1 46 7d ba 06 80 7b ba
       -0.00080733106 -0.0068841227 -0.0009661746 -0.0009593967
0001e0 c0 a0 d4 3b 91 d4 1f bb e9 06 60 b9 8b 15 2d bb
       0.0064888895 -0.0024388174 -0.00021364879 -0.0026410546
0001f0 79 66 86 3a 85 ad e4 3b 8e af b4 3b b9 09 79 bb
       0.0010253928 0.006978693 0.005514092 -0.003800018
000200 dc 43 e3 3a 55 a0 bb b9 80 90 bf b5 6a 32 bc 3b
       0.0017338949 -0.00035786876 -1.4272664e-06 0.0057433145
000210 9e 5d 3a bb a7 03 03 bb 44 9a 98 ba 1b 33 34 3a
       -0.0028437148 -0.001999119 -0.0011642654 0.00068740704
000220 a1 be bf 3a 54 5d da b7 04 56 b7 3b 0a 5a 1e ba
       0.0014628955 -2.6031084e-05 0.0055949707 -0.00060406385
000230 0a 98 99 3b 28 b9 1d 3b 77 7e 19 3b 34 fc 83 bb
       0.004687314 0.002406666 0.0023421326 -0.0040278677
000240 5f e8 9d 3b 48 45 cd 3a 12 6b 72 3b d4 83 97 bb
       0.0048189606 0.0015660906 0.0036990088 -0.0046238694
000250 a9 0c 0d 3b 82 b5 ea 3a 58 d4 03 3c 6a a1 8e 3b
       0.0021522439 0.0017906877 0.008046232 0.004352738
000260 23 08 90 3b 59 f6 44 bb 02 9f a4 ba e7 f4 46 3b
       0.004395501 -0.0030054061 -0.0012559595 0.0030358376
000270 e0 11 db 3a 9b 13 b4 3b ef 9a 60 3a 9a 9c f1 39
       0.0016713701 0.005495501 0.0008568009 0.0004608378
000280 d4 f2 40 3a 7a 44 c5 ba cb 7e 8c bb 8f 8d 3a bb
       0.0007360403 -0.0015050315 -0.004287576 -0.0028465723
000290 7c 64 d5 3a 8e 8a cd 3b 6a 1d 16 3a 77 d0 22 b9
       0.0016280557 0.0062726205 0.0005726429 -0.00015527183
0002a0 df ee ba 39 d6 e5 13 3b ac 3b 75 3b 87 cd c5 3a
       0.00035654657 0.0022567413 0.00374196 0.0015091159
0002b0 35 df f9 3a cd 9b fa b9 98 a0 3f bb b0 62 cd 3a
       0.0019063713 -0.00047799796 -0.0029240008 0.001566967
0002c0 c9 7e 28 3b ba 07 d7 3a bd 1e 87 3b 94 4d 02 bb
       0.0025710335 0.0016405501 0.0041235373 -0.0019882666
0002d0 91 60 0e 3b 0c 7e 31 bb 5a ae a2 b9 43 99 9a ba
       0.0021725039 -0.0027083186 -0.0003102895 -0.0011794943
0002e0 e0 57 02 bb 7f d1 d5 bb b7 54 b5 3a fa 6e 46 bb
       -0.0019888803 -0.006525218 0.0013834451 -0.003027855
0002f0 cb a5 d9 3b 90 33 0a 3b 13 0f 74 3b dc 12 cb ba
       0.0066420785 0.0021087863 0.003724043 -0.0015493291
000300 0a 00 75 bb 28 e0 2b 37 6f 32 98 3b 5b 9e df ba
       -0.0037384056 1.0244585e-05 0.004644684 -0.0017060743
000310 5c a6 cc 39 18 8b 3e 3b 33 2a 0a bb bb e0 8c bb
       0.0003903386 0.0029074606 -0.0021082282 -0.004299251
000320 67 d9 0f 3b 6d 0c 06 3b 74 63 60 bb f0 fd 1d 3a
       0.002194965 0.0020454184 -0.0034238966 0.00060269143
000330 0c d7 7b ba 23 ef ab ba 28 2d 0d 3a fb 5c 5a bb
       -0.00096069346 -0.0013117533 0.0005385452 -0.003331958
000340 f2 a9 a0 3b c5 54 0e bb 57 e1 31 ba 82 b3 8d 3a
       0.0049030716 -0.0021718007 -0.00067855924 0.0010810944
000350 c2 91 b0 3b 33 64 10 bb f9 96 96 ba 96 02 86 b9
       0.0053884694 -0.002203238 -0.0011489085 -0.00025560398
000360 6f 59 35 bb 1a 08 d5 3a de 6d 27 3b c2 5d 07 b8
       -0.0027671715 0.0016253025 0.0025547664 -3.2273827e-05
000370 41 36 87 bb 95 2d c6 b9 20 4a 80 3a 50 ce fc 3a
       -0.0041263406 -0.00037799464 0.0009787716 0.001928756
000380 af 0a 27 3a d5 2f 9f 3a 10 c8 92 3b fb 40 0d bb
       0.00063721364 0.0012144992 0.0044794157 -0.0021553624
000390 73 d0 40 bb 5e 28 b1 3b 11 f5 27 3b 62 23 8f 3a
       -0.002942112 0.0054064235 0.0025628249 0.0010920579
0003a0 a1 73 f6 ba 9d 15 b8 3a e7 b1 24 3b 0c e5 a3 ba
       -0.0018802771 0.0014044527 0.0025130452 -0.0012504174
0003b0 9d 04 d3 ba 39 d3 c0 3a 15 d8 c3 3a fa 7d 8e bb
       -0.0016099397 0.0014711387 0.0014941717 -0.0043485137
0003c0 03 e0 30 ba 84 59 92 39 e9 ff 6c ba 8f 84 11 3b
       -0.00067472475 0.00027913984 -0.0009040819 0.0022204255
0003d0 69 dd 01 bb 65 32 c5 3b 4a 8b b6 bb 36 77 8b 3b
       -0.0019815809 0.0060179704 -0.005570804 0.0042561544
0003e0 e7 12 64 bb ec 31 73 bb a7 bb 7e 3b 12 86 34 3a
       -0.0034801306 -0.0037108613 0.0038869174 0.0006886433
0003f0 ae e1 9a 3a 6a 88 aa b9 52 2e 14 3a 15 09 58 3b
       0.0011816525 -0.00032526563 0.0005652654 0.0032964398

network_body._body_endoder.seq_layers.2.weight f4 [256, 256]
000000 df 16 f6 bc 13 57 85 bd a6 cc 19 bd 63 b7 43 3c
       -0.030040203 -0.06510749 -0.037548684 0.011945578
000010 92 94 aa bc ea e2 20 3c 1e 11 65 bd c7 a0 5c 3d
       -0.020822797 0.0098197255 -0.055924527 0.053864267
000020 e2 4d 5b 3d 9e 53 87 bb b6 3c 19 bc 2e ea e3 3d
       0.05354107 -0.004129841 -0.0093528535 0.111286506
000030 10 8f 16 3b 12 06 a3 bc a0 4b a2 3d e8 41 1c bd
       0.0022973455 -0.019900355 0.079245806 -0.03814879
000040 03 53 94 3d e4 d6 8b 3d 4f 42 1a bd cf 04 cc bd
       0.07242396 0.068280965 -0.037660893 -0.09961855
000050 c9 3f c5 bd e9 68 74 3c 24 4f 8a bd 18 53 7a 3a
       -0.09631307 0.014917591 -0.06753376 0.0009549125
000060 59 bb d2 bd fa 84 78 bd 6e a4 80 bc ed 77 14 be
       -0.1028964 -0.06067369 -0.015703406 -0.14498873
000070 29 63 57 3c 3f 06 85 bd 68 b4 90 3d d9 36 37 3c
       0.0131462 -0.06495332 0.0706566 0.01118251
000080 b3 36 c1 bc 00 7a d0 3d 00 84 8a 3d a5 49 f0 3c
       -0.023585653 0.1017952 0.06763458 0.029331991
000090 d2 cb 19 3c 80 07 dd bd 59 18 db bd d1 1d f9 3c
       0.009386973 -0.10792446 -0.10698003 0.030409725
0000a0 44 ee 75 3c 7e 3e e0 ba d1 de 5d bd ac 37 a0 bd
       0.01501042 -0.0017108468 -0.054167572 -0.078231186
0000b0 b5 53 2b bd eb 95 ad bd a4 2e 20 3d 25 5d d3 3c
       -0.041827876 -0.0847586 0.03910698 0.02580125
0000c0 7f fc 1d 3d 21 a9 44 3d 3b 7b 89 3d b3 42 e5 3d
       0.038570877 0.048012856 0.067129575 0.111943625
0000d0 46 08 87 3d f4 e0 cb 3c d2 9e 8b bd 13 16 0d 3d
       0.06593375 0.02488754 -0.06817402 0.03444488
0000e0 a9 41 8f bd f4 4c 76 3d 9e eb 48 be 4d a6 4b 3d
       -0.069949456 0.060131982 -0.19621131 0.049719144
0000f0 b9 57 1a bd c3 30 f1 3c 53 22 b1 bc 25 ef 81 bc
       -0.037681315 0.029442197 -0.021622812 -0.015861103
000100 cd d2 39 3d 60 47 aa 3d 78 63 b1 3d 51 68 f1 3c
       0.04536705 0.08314395 0.0866155 0.029468687
000110 fd 13 3c 3d 59 f1 4d 3c a7 99 2f bd 0c ad 36 bd
       0.0459175 0.012569749 -0.042871144 -0.044598624
000120 2b ff 1f bb 96 27 5d bc cc aa 05 bd 46 ee bd bc
       -0.0024413567 -0.013498208 -0.032633588 -0.023184907
000130 cb 6d 9d 3d b2 9d fe 3c 3f e5 77 bc d7 05 9e 3d
       0.07686957 0.031081054 -0.01513034 0.077159576
000140 e0 0b 89 3d 4a 28 20 bd a6 bc 00 bd 80 21 0f be
       0.06691718 -0.039100923 -0.03142991 -0.13977623
000150 58 fc 07 ba 32 79 22 3d 77 52 44 3a b0 f9 0c bd
       -0.00051874435 0.039666362 0.0007489095 -0.034417808
000160 70 53 eb bd 24 20 15 3e 08 dd c6 3d 8d b8 10 bc
       -0.11490524 0.14563042 0.09710127 -0.008833063
000170 2f b0 bb bd 79 34 d9 bb 4d 52 0b 3e 7e ef de 3d
       -0.09164464 -0.0066285697 0.13605614 0.10885523
000180 a8 4c 17 bb 6b 15 2b bd c8 24 21 3d dc 6b 40 3d
       -0.0023086462 -0.041768473 0.039341718 0.046977863
000190 77 b1 91 bd 4c 2b 5f bd 6d e4 1a bd d4 fa b7 3d
       -0.07113927 -0.05448465 -0.0378155 0.089833885
0001a0 12 45 d4 bc 18 9f ae bc 49 96 61 3d ba b9 2f bd
       -0.025911842 -0.021316096 0.055074964 -0.042901732
0001b0 42 2a 7b bd 2e be 0f bd d0 e2 0f be 35 4b 20 3c
       -0.061319597 -0.03509348 -0.14051366 0.009783556
0001c0 18 ad dd 3c 4c be d3 bc c4 b0 d6 3d 22 20 e8 3d
       0.027060077 -0.025847577 0.10482934 0.11334254
0001d0 1b 2d 33 3d 4a b1 5e 3d 4e 12 ad bd 6b 69 b8 3a
       0.043744188 0.054368295 -0.08450757 0.0014069503
0001e0 9f e2 ee bd 8d 25 b6 bd 48 38 ac bd c7 8f 47 bd
       -0.11664318 -0.08893881 -0.08409172 -0.0487211
0001f0 55 29 8f 3d 68 a4 ed 3c 6d b3 5d bb 4c 0c 05 be
       0.06990305 0.02900906 -0.003382887 -0.12992972
000200 23 40 6f 3c ab 33 79 bd b7 21 be 3d 70 4b 3b 3c
       0.014602694 -0.06084029 0.09283774 0.01143156
000210 c0 3c 88 3c a4 5a a5 3c 8f 92 85 3d 6c 96 9e bd
       0.01663053 0.020184822 0.065220945 -0.077435344
000220 f1 02 29 bd 8c cb 1e 3c 02 14 24 be e8 07 c2 3d
       -0.04126257 0.009692084 -0.16023257 0.09474164
000230 38 b2 2e bc 3c 54 5c 3d 76 3e a6 3d a2 02 32 be
       -0.010662608 0.05379127 0.08117382 -0.17383817
000240 19 ae c2 bc 37 62 87 3d 76 1b 5f 3d cd 5f 9b 3d
       -0.023764657 0.0661053 0.05446955 0.07586632
000250 cf 1f 50 3a 05 6e df bd f4 de 52 bd c3 c0 a5 bd
       0.000793931 -0.109096564 -0.051482156 -0.08093407
000260 f8 08 82 bd 02 aa ed bd 5f 47 b4 bd 33 18 0c bd
       -0.06349367 -0.11604692 -0.088026755 -0.034202766
000270 d9 48 21 bd 64 08 52 be 70 6c 64 3d c0 50 06 3c
       -0.039376114 -0.20511013 0.055767477 0.008197963
000280 7b 37 84 bc ce 8e 8b 3d a4 97 2a 3d 5b 46 a8 3c
       -0.016139736 0.06814347 0.041648522 0.02054136
000290 d5 48 12 bd 0b 70 bf bc 96 93 01 3d 2c 75 02 3c
       -0.03571399 -0.023368856 0.03163489 0.007962506
0002a0 aa c8 13 bd b0 25 93 3c b2 f5 9a 3d 50 3a 88 3d
       -0.03608004 0.017962307 0.07566394 0.06651747
0002b0 a1 ab 44 3c 15 f4 6d 3d f3 08 cc 3c 83 e8 9b bb
       0.01200381 0.058094103 0.024906611 -0.004757942
0002c0 0b 79 3f 3e 54 46 07 3d 7f ab 49 3c d1 7a 35 3e
       0.18698518 0.033026055 0.012308954 0.17722632
0002d0 ba 2a 9d 3c 40 e6 98 3d ee f8 af 3c 3c f5 8d 3b
       0.019185413 0.07465792 0.021481004 0.0043322127
0002e0 eb 1c e4 3c c5 ef f9 bd 4d 8a 48 3c b1 53 b3 bc
       0.02784582 -0.122039355 0.012240005 -0.021890493
0002f0 0d ce 9a 3d 1c 75 f5 3c b4 b7 99 3d bf 32 c2 3c
       0.07558832 0.029963069 0.07505742 0.023705838
000300 99 63 81 3d b0 0c df bc 89 a4 7e 3d 5a 0d 27 bd
       0.06317825 -0.02722773 0.06216863 -0.040784217
000310 6b d8 f9 3d 48 7e 50 bd b0 0f 0a 3d 7c ce 22 bd
       0.121994816 -0.05090168 0.033706367 -0.0397477
000320 07 0b 2b bd 25 c2 3e 3d 93 6a 60 bd be c7 fd bc
       -0.041758563 0.04657187 -0.054789137 -0.030979034
000330 93 b8 38 bd 39 f8 bd bc 6e b8 bd bb 26 51 00 3e
       -0.0450979 -0.02318965 -0.005789808 0.12530956
000340 72 c4 01 bd b6 0f 5b 3c 39 25 7b bb e6 83 48 bb
       -0.031681485 0.013370445 -0.0038321747 -0.0030596196
000350 95 b1 84 3d 4c 02 0f bd 84 6f bc bc 07 26 99 bc
       0.064791836 -0.0349143 -0.023002394 -0.01869489
000360 05 c2 28 be 51 1f b0 3c 30 bb fa 3d 47 7b c8 3b
       -0.16480263 0.021499308 0.122427344 0.0061182114
000370 b5 8e 1c bc 86 d8 1c be a5 54 ff bc 76 63 b2 bd
       -0.009555508 -0.15316972 -0.031168291 -0.08710377
000380 6f be ad bd 72 d3 9a bd 63 d6 42 3d 89 89 c0 3c
       -0.08483588 -0.07559861 0.047567736 0.023503082
000390 ff 37 d5 3c 16 1b 5f bd 70 b5 5d bd 5a 62 d3 3d
       0.026027678 -0.05446919 -0.05412811 0.103214934
0003a0 df 27 2e 3d 48 4d 7a bb 8b 57 b1 ba 47 2c 6a 3d
       0.042518493 -0.0038193036 -0.0013530118 0.057171132
0003b0 78 89 88 bd a8 8c 10 3c c6 cd 96 bd 7c 50 1a 3c
       -0.06666845 0.008822598 -0.07363467 0.009418603
0003c0 c8 62 79 3d 1b 6a bf 3d 54 16 a5 3b 05 39 a7 3b
       0.06088522 0.0934641 0.005038062 0.005103233
0003d0 19 9c 49 bd d8 6c 81 3d 93 46 20 3e 8d a3 c2 3d
       -0.049221132 0.063195884 0.15651922 0.09503851
0003e0 88 04 36 3c c0 fc a0 3d 3f 86 f0 3c bc e1 82 3d
       0.011109479 0.07860708 0.029360889 0.06390712
0003f0 97 74 03 3e aa 31 8b 3d 26 22 60 3c 15 9e 1e 3d
       0.12837444 0.06796582 0.013680017 0.038724978

network_body._body_endoder.seq_layers.2.bias f4 [256]
000000 f1 c7 a1 ba e0 ce 13 bb 5f a3 1f 3b 80 52 5b bb
       -0.0012342912 -0.0022553727 0.0024358851 -0.0033465922
000010 cc 3b a0 bb 91 14 c3 3b 30 c5 cb 3a e4 e9 3c bb
       -0.004889941 0.0059533794 0.0015546437 -0.0028825933
000020 d7 67 23 3b 6f 45 dd ba 58 98 5a 3a 4a e4 71 bb
       0.002493372 -0.0016881655 0.0008338741 -0.0036909753
000030 90 51 52 bb f9 94 a6 3a 5f 77 ca 3b fb 42 95 3a
       -0.0032092072 0.0012709192 0.006178781 0.001138776
000040 1f 84 8c 3b 71 19 92 bb a3 0c fe 3a 74 28 ba b9
       0.004288211 -0.0044585993 0.0019382428 -0.00035506824
000050 99 33 b1 ba 3b d0 5f 3a 37 21 b2 ba f8 e2 8a 3b
       -0.0013519406 0.00085378037 -0.0013590221 0.0042384826
000060 9e 63 72 3b a0 1c b1 ba db 10 aa bb 5f 87 56 bb
       0.0036985646 -0.0013512559 -0.0051899976 -0.0032734496
000070 f0 e5 55 bb 70 fc 77 3b ee e5 fc 3a 00 13 2c 3b
       -0.0032638274 0.0037839673 0.0019294599 0.0026256442
000080 31 fb f9 3a 13 a2 f7 ba 32 ae 6e 3a 22 1b 53 ba
       0.0019072053 -0.0018892906 0.00091049366 -0.00080530543
000090 8e 15 86 3b e6 22 1e 3b 15 5f 46 bb e5 4b 89 ba
       0.004091925 0.0024129688 -0.0030269076 -0.0010474889
0000a0 0a 27 b9 3b 18 fa b0 ba 65 7a 0a 3b 64 11 86 3b
       0.005650406 -0.0013502268 0.0021130082 0.0040914286
0000b0 84 fe 3b bb 42 66 93 3b 54 52 1a bb 25 6a 12 3b
       -0.0028685639 0.004498274 -0.0023547607 0.00223411
0000c0 40 4d 8e 3b 6f 5a 0a bb 48 3e 0c bb e2 11 d7 ba
       0.004342705 -0.0021111032 -0.0021399427 -0.0016408528
0000d0 53 06 70 ba b8 92 2b 3b 06 0e 3c bb e8 cd 72 bb
       -0.0009156216 0.002617998 -0.0028694882 -0.0037049
0000e0 9b f9 79 b9 c2 44 12 3b 78 a9 2f bb 53 95 09 bb
       -0.00023839476 0.0022318815 -0.0026803892 -0.0020993545
0000f0 cf 23 49 3b 6d c6 89 bb 88 e6 60 3b 4e 9f 01 bb
       0.003069151 -0.0042045624 0.0034317095 -0.001977879
000100 68 a5 87 bb f8 b2 3e bb 5d d0 6a b9 04 d8 a4 ba
       -0.004139591 -0.0029098373 -0.000223936 -0.0012576585
000110 20 7d 78 3b ed 07 f1 ba 0d bf 96 3b cd c6 8c 3b
       0.0037916377 -0.0018389203 0.0046004117 0.00429616
000120 ff b5 c4 b8 04 b9 c5 b7 f2 a1 0c 3a 38 c3 34 3a
       -9.379908e-05 -2.3570385e-05 0.0005364708 0.0006895545
000130 20 a7 b3 ba e2 96 41 bb 7a f4 42 bb 2c 79 87 3b
       -0.0013706423 -0.0029539396 -0.002974777 0.004134318
000140 95 d9 19 b9 35 1e 0a bb 6b 9c 75 3b 3e 4f eb 39
       -0.00014672273 -0.0021075134 0.0037477266 0.00044881733
000150 46 dc c7 ba 01 83 01 3b e8 89 90 b8 a1 30 67 3b
       -0.0015248142 0.0019761922 -6.892142e-05 0.0035276788
000160 f4 cf fb 3a f0 08 f9 ba d4 e5 56 3b 6c e6 f6 3a
       0.0019211755 -0.0018999856 0.0032790797 0.0018836982
000170 3f 6d 5d 38 df 44 1b 3b 99 68 e3 bb 1b c2 9e 3b
       5.279225e-05 0.0023692173 -0.0069399592 0.0048449165
000180 e7 86 04 3b 52 e9 cc 3a cd fe 55 bb e5 d8 25 bb
       0.002022201 0.00156335 -0.0032653094 -0.0025306281
000190 16 17 50 bb 0f be 64 bb 0e c4 25 ba 4a 10 ad 39
       -0.0031752042 -0.0034903323 -0.0006323465 0.00033009268
0001a0 52 57 3a bb 81 4e a0 bb 8a cd 87 39 99 12 bb 3b
       -0.0028433395 -0.004892171 0.00025902345 0.005709004
0001b0 f9 84 3f 3b b8 21 a1 ba ef 39 6a 3b fd 07 9c bb
       0.0029223545 -0.0012293374 0.0035740098 -0.0047616945
0001c0 68 55 4f 3b 12 82 2e 3b 9c 4d 61 ba 1a 87 9b 3a
       0.00316366 0.002662782 -0.00085946335 0.0011865825
0001d0 92 4f 6d 3a 24 2e 03 bb d6 b0 d1 3b ea ca 46 bb
       0.00090526894 -0.0020016516 0.0063992543 -0.0030333349
0001e0 a2 5f 2a bb 72 89 7c 3b 82 96 60 3b 09 f0 d4 3a
       -0.0025996943 0.0038534072 0.0034269397 0.0016245852
0001f0 12 79 c9 b9 b5 1f ce 38 ad f1 95 3a 53 ef 20 ba
       -0.00038427912 9.828751e-05 0.0011439823 -0.0006139178
000200 92 6f 2b bb eb 6f 83 ba 04 12 56 bb 20 2c 81 b9
       -0.002615903 -0.0010027861 -0.0032664547 -0.00024637673
000210 2a 39 84 3b c9 43 b6 3b 62 03 b8 ba 3d 07 9b 3b
       0.004035135 0.00556228 -0.0014039094 0.0047310875
000220 7a 8b 29 3b e7 90 29 3b dc 27 16 3b 7a 05 5a 3a
       0.0025870488 0.0025873722 0.0022911942 0.0008316856
000230 bc 5a 09 3a 3a 38 bc ba 32 88 29 3b 21 97 d2 3b
       0.0005239656 -0.0014360019 0.0025868532 0.0064267074
000240 05 f2 ac bb c3 a7 25 3b 1e e5 92 bb 19 9f 95 3a
       -0.0052778744 0.0025276996 -0.0044828793 0.0011415213
000250 f5 02 11 bb b3 c0 e0 3a 9f 40 f6 3b 00 7b e8 3a
       -0.0022127007 0.0017147273 0.0075150277 0.0017736852
000260 65 25 89 ba 00 fa 66 ba 4d c5 ff ba 77 ac f1 3a
       -0.0010463415 -0.00088110566 -0.0019513756 0.0018438239
000270 a6 a2 52 ba f0 c8 88 3a 3b df 2a 3b 74 e0 48 ba
       -0.0008035101 0.0010435861 0.0026072997 -0.00076628407
000280 bd 4c 13 3b fe 4c c1 ba 31 1f 4e 3b c5 e7 98 3b
       0.002247616 -0.0014747677 0.0031451697 0.004666301
000290 5c 0f a1 3a ac f8 0e 3b e9 4b 4c ba ea 1e 36 3a
       0.0012287903 0.00218157 -0.0007793294 0.00069473556
0002a0 f6 bc d7 ba ff 95 58 ba 1b da a1 3b 81 89 1e 3b
       -0.0016459513 -0.0008262097 0.0049393303 0.0024190845
0002b0 33 5b b5 bb 1f 4a f1 3b 34 c8 90 3b e8 4b 95 3b
       -0.0055345534 0.0073635723 0.0044183973 0.004556168
0002c0 ae 5e 36 bb c5 20 24 3b e6 c4 c7 b9 8e ff 0e 3b
       -0.002782743 0.0025043946 -0.0003810294 0.0021819803
0002d0 20 f2 1a bb bc 27 88 bb 2c 6e ff ba ca b1 63 3a
       -0.0023642853 -0.0041551273 -0.001948779 0.00086858554
0002e0 2b 75 b8 ba 20 43 55 3a dd 86 30 3b b7 02 b1 3a
       -0.0014073005 0.00081353076 0.0026935854 0.0013504837
0002f0 ec 63 72 bb ba ca 5b 3a 76 e7 71 39 e2 10 2a bb
       -0.0036985828 0.00083843956 0.00023069777 -0.0025950004
000300 fc 31 92 ba d0 1b 8b 3b 46 64 1f bb 68 08 08 3a
       -0.0011153813 0.004245259 -0.0024321242 0.0005189241
000310 9c fe a3 3a ed 60 10 bb 48 86 52 3b 05 03 0a bb
       0.0012511793 -0.0022030429 0.0032123495 -0.0021058929
000320 6f 7f 47 bb 60 d8 a8 b9 ae 6e 47 bb 51 8b 28 bb
       -0.0030440947 -0.0003220467 -0.003043096 -0.0025717805
000330 cb 39 a5 3b 2f b8 21 3b a8 f1 79 3b b2 03 16 3a
       0.00504229 0.0024676432 0.0038138423 0.00057225965
000340 ed 37 28 bb 24 c6 d5 3b d8 5c 27 ba b2 ce 51 3b
       -0.00256681 0.0065238643 -0.0006384379 0.003201407
000350 a4 99 08 3b 9c eb d3 bb 84 83 c5 3a d9 94 58 3b
       0.002084353 -0.006467296 0.0015069102 0.0033047704
000360 c2 54 87 39 3d fa bc ba cb e0 69 3b b6 9e 9c b9
       0.00025812356 -0.0014417839 0.0035686966 -0.00029872888
000370 ec d6 41 38 ab eb 91 3a 09 a7 a3 3a c8 a5 31 3b
       4.6214947e-05 0.0011132857 0.0012485693 0.002710687
000380 2f 29 86 3b 82 f5 ff ba f5 f0 6e 3b 33 a2 03 3b
       0.004094265 -0.0019528123 0.003645954 0.0020085692
000390 1b cc ed 3a 69 53 57 3a 2a 0e 8a ba 58 97 2c bb
       0.0018142493 0.0008214028 -0.0010532786 -0.0026335325
0003a0 4a 79 6c 3b 12 53 8e 3b 07 ca 2d 3a 7c ed 29 39
       0.0036083036 0.004343399 0.00066295307 0.00016205566
0003b0 89 54 63 3b e7 c0 87 bb 8c bf f2 3a 44 c8 0e bb
       0.0034687838 -0.004142869 0.001852022 -0.0021786848
0003c0 7b 8a 15 bb 99 55 03 ba a4 5e 4c 3b 1e cc b0 ba
       -0.0022818136 -0.00050100085 0.003118434 -0.0013488566
0003d0 26 f6 04 3b c9 a9 82 ba 54 5a 13 39 4e 34 1d 3a
       0.0020288317 -0.0009968813 0.00014052662 0.0005996869
0003e0 ca bb 28 3b ee 63 aa 3b 65 94 07 3b 68 48 38 3b
       0.0025746697 0.005199901 0.0020687815 0.002811933
0003f0 75 36 21 ba f9 ce ba ba 1b 35 88 3b b4 da d7 3a
       -0.00061497773 -0.0014252356 0.0041567213 0.0016468377

network_body._body_endoder.seq_layers.4.weight f4 [256, 256]
000000 29 52 81 3d 0a 2e 69 ba cf 93 41 bd 13 77 69 3c
       0.06314499 -0.0008895105 -0.047260102 0.014249581
000010 41 83 45 3e af b3 a7 bd b6 62 45 be 47 c9 93 3d
       0.1928835 -0.08188569 -0.19275936 0.07216125
000020 87 af b4 3d ca 95 bf 3d 47 b8 9c 3d e1 ce aa bb
       0.08822542 0.09354742 0.076523356 -0.00521265
000030 30 7f b9 3a 47 07 3f 3b b9 70 3b 3d 0a 69 e2 3d
       0.0014152285 0.0029148625 0.045761798 0.11055191
000040 c7 9a 9b bd 27 05 b6 3d bb f8 e6 3d c4 a5 1f 3d
       -0.07597881 0.088877015 0.1127791 0.038976446
000050 d0 f6 14 be e6 64 6b 3d 46 94 f4 bd 29 78 34 be
       -0.14547276 0.05746927 -0.119423434 -0.17623962
000060 13 64 04 bd 14 57 36 bd f7 3c 5b bd 71 a0 96 bd
       -0.032322 -0.044516638 -0.053524937 -0.073548205
000070 72 88 0f bc f2 73 8e 3d 7a cd c4 bd a1 97 ae bd
       -0.008760558 0.069557086 -0.09609504 -0.08525015
000080 6d c9 ab bd 35 a2 dc bd 37 a1 4c 3c 77 64 ca bc
       -0.08388028 -0.10773126 0.0124896085 -0.024706108
000090 e2 c1 f4 bc 47 8a 83 3d 15 9b 62 3d 0e 36 90 3d
       -0.029877607 0.06422859 0.05532368 0.0704156
0000a0 b0 41 fe 3c 78 e0 56 bd 2e 30 68 bd 80 14 92 3d
       0.031037182 -0.052460164 -0.056686573 0.07132816
0000b0 18 2c f2 3d bf 7c 38 3d f2 ad 38 3c ca 07 27 3c
       0.118248165 0.045040842 0.011271941 0.010194728
0000c0 6e e8 6a bd 80 be d1 3d f5 c6 e1 bd 23 66 51 3c
       -0.05735057 0.10241413 -0.11024276 0.012780699
0000d0 fd a0 ca 3c dd 98 f6 3d 8d 8c 0c 3d 5a fe b7 bd
       0.024734968 0.12040875 0.034313727 -0.089840606
0000e0 ec 4e e4 bb e8 a4 fb 3b 16 76 a7 3c 5f 4e 8d bd
       -0.006967416 0.0076795705 0.02044205 -0.06899714
0000f0 65 5c a0 3d 21 bf 06 3d e3 e0 e1 bd 1d e0 0a bd
       0.07830123 0.03289712 -0.11029222 -0.033905137
000100 8f f0 b9 3d fe 63 19 3d 26 0b 86 3d 62 46 38 3c
       0.09079086 0.037448876 0.06545095 0.011247249
000110 a3 dc 1d bd 32 06 10 3d 72 b8 f3 3c cd a9 a4 3d
       -0.038540494 0.03516216 0.029751036 0.080401994
000120 1d b0 e9 bb a5 6e b7 3b f0 2f bc 3d 97 0e ab bb
       -0.00713159 0.0055979067 0.09188831 -0.005220245
000130 6c ff d1 bd 43 13 67 bd 29 ab 25 3d 2a 68 9a 3d
       -0.10253796 -0.056414854 0.040446434 0.07539399
000140 86 84 11 3d cc e6 29 bd b8 e3 94 3a 9e 2b 87 bd
       0.035526775 -0.04147987 0.0011359369 -0.06600116
000150 25 0a 03 3c b8 c8 eb 3d 7b 2d f7 3d 59 f6 8b 3b
       0.007998024 0.115128934 0.120692216 0.0042713103
000160 51 8f b6 bc e3 03 7d bc 4f a6 88 bd 7c ff 06 3d
       -0.022285135 -0.015442821 -0.06672346 0.032958493
000170 a1 da 0d be 81 38 06 bd 41 5e f8 3d 5c 32 c1 bb
       -0.13852932 -0.03276873 0.121273525 -0.005895896
000180 c4 83 d6 bb b0 59 46 3d 51 72 9a bd 52 3f 45 bb
       -0.0065464694 0.048425376 -0.075413354 -0.0030097556
000190 06 4e 10 bd b6 7a 13 bd 47 36 53 bc 73 cc 82 bc
       -0.03523066 -0.0360057 -0.012891359 -0.01596663
0001a0 3b b5 5a bd bc 3a 30 3b 4e 37 01 be a5 26 b8 3d
       -0.05339549 0.0026890477 -0.12618753 0.08991746
0001b0 c8 33 72 3d ba f1 ce bd 46 eb 1f bd 17 7b f8 3d
       0.059131414 -0.101046994 -0.039042734 0.121328525
0001c0 73 ca 9d bd 18 97 47 bc 27 4f fd 3d f7 9d d3 bd
       -0.0770463 -0.01218202 0.12368613 -0.10332864
0001d0 81 cb 9b bd 4e 31 03 bc 7b 8f 68 bd ff 6c 45 bd
       -0.07607175 -0.008007361 -0.05677746 -0.04819965
0001e0 d9 41 b9 bd 55 c7 7a 3d bc 91 54 3b f5 7a 20 bd
       -0.090457626 0.061225254 0.0032435497 -0.03917976
0001f0 fd 9f f8 b9 3e 5e 1b bd f4 5a 68 3d a6 b7 db 3d
       -0.00047421447 -0.037931673 0.056727365 0.107283875
000200 57 25 82 3d 9c 4b 5b bd cc 06 b6 bd dd 00 7a bd
       0.06354778 -0.053538904 -0.08888015 -0.06103598
000210 0f 24 46 bd 40 37 45 3d e2 38 38 3c 3c f0 b5 bc
       -0.048374232 0.048148394 0.011244031 -0.02220928
000220 3b f0 6c 3c 7b c1 cb 3d 71 e2 39 bb 29 b0 ee bb
       0.014461572 0.09949013 -0.002836373 -0.0072841835
000230 f5 60 24 bd 66 74 34 bd a0 d9 87 3c 82 fc 2b bd
       -0.040131528 -0.04405632 0.016583264 -0.041988857
000240 22 45 09 3c c5 ab ad bd cb d3 b5 3d da 2c 37 bc
       0.008378299 -0.08480028 0.08878287 -0.011180127
000250 0a 48 42 3b 79 8f a2 3d 49 80 00 3e 52 01 21 bd
       0.002964499 0.079375215 0.12548937 -0.0393079
000260 17 2d 9f bd 1d ea 44 bd a0 75 51 3d 16 19 86 bd
       -0.07772272 -0.04807483 0.051137567 -0.065477535
000270 e6 92 f6 3d 4c ff 2a bd 05 dd 3b 3c fc 61 77 bc
       0.120397374 -0.041747376 0.011466269 -0.015099045
000280 6b 3e 91 3d 25 83 d2 3d d8 c6 c4 3c e1 75 41 3d
       0.070919834 0.1027892 0.024020597 0.04723156
000290 d1 86 81 bd 44 19 02 3e 03 07 bf bc 71 0a 8b 3d
       -0.06324542 0.1270495 -0.023318773 0.06789101
0002a0 7d ab 49 bd 5c e9 ec bb f7 48 51 3d ce 0c c2 3b
       -0.04923581 -0.007229967 0.051094975 0.0059219366
0002b0 14 59 0f bc 8c df 86 bc cf 3c b0 3c 7f b6 84 bd
       -0.008749265 -0.016464017 0.02151337 -0.06480121
0002c0 c1 36 36 bd 56 ff 9c bb 09 03 06 3c ca e5 49 39
       -0.04448581 -0.0047911806 0.008179435 0.00019254457
0002d0 fc c3 9a bd 71 38 ea 3d 5f c0 07 3d ca 9c 9e 3d
       -0.07556912 0.114365466 0.033142444 0.07744749
0002e0 ab 22 cc bc 52 54 de bb 8f cb 4f bd 92 20 36 3d
       -0.024918875 -0.006784954 -0.050731238 0.044464655
0002f0 23 9d 62 3d 69 07 92 bc f9 6e 9b bc 88 a0 58 3c
       0.05532564 -0.017825799 -0.018973814 0.013221867
000300 0c d6 57 bd e4 ed be 3d 60 50 ac 3a 19 a3 19 3d
       -0.052694365 0.09322718 0.0013146512 0.037509058
000310 a2 68 34 3d 1f 0f 0f bd 00 85 09 3d 8d ac 08 bd
       0.044045098 -0.03492653 0.033574104 -0.033367682
000320 2b 5d a4 bd 92 9d d2 bd f2 74 9e 3d f8 8b 6c bc
       -0.08025583 -0.102839604 0.07737149 -0.014437668
000330 0e e5 38 bc cf 56 14 3d 0b 4c c6 bc 83 19 6c 3d
       -0.01128508 0.0362156 -0.024206182 0.057641517
000340 b1 2a 26 3c b7 47 25 bd 06 5d f0 bc 9f 4b 3c 3d
       0.010142014 -0.040351596 -0.029341232 0.045970555
000350 f9 5e 9b bc 47 59 b2 bc 24 9a 7f 3c 44 d9 82 3c
       -0.018966185 -0.021771086 0.015600715 0.015972741
000360 ac 91 c2 3b 1e 1f 00 3d 0f 65 04 bc 52 f7 f4 bc
       0.0059377756 0.031279676 -0.008080735 -0.029903088
000370 7d f6 d0 bc fc 63 c6 3d 15 60 df bd e1 52 9b bc
       -0.02550816 0.09687039 -0.10906998 -0.018960418
000380 9f 53 c9 bc 12 21 7a bc e9 f9 ad 3b 85 f9 be bd
       -0.024576006 -0.015266674 0.0053093326 -0.09324936
000390 8d e4 07 bb 29 1c 8f 3b e1 cf a7 bd 0b 58 83 3d
       -0.0020735592 0.0043673706 -0.08193947 0.06413277
0003a0 88 ca e3 bc 38 ba 1d bd a5 29 ea 3c 1b 21 e7 3c
       -0.027806535 -0.03850767 0.02858431 0.028214028
0003b0 33 6a 3e 3c cb dd 93 3b 3f 01 37 bd ba 0e 8f 3d
       0.011622 0.0045125238 -0.044678923 0.06985231
0003c0 27 d4 4c bc 0f 9b 64 3d cf 2c a4 bd 8b ca ba 3b
       -0.012501753 0.055811938 -0.08016359 0.0057004145
0003d0 9f 9b fa 3c 12 e6 c0 bd 5c c7 02 3e 49 2c 1a bc
       0.030591784 -0.094188824 0.12771362 -0.0094099725
0003e0 1b 91 8a bc 75 27 09 3d bb ed 7a bd c4 76 5b 3b
       -0.016914895 0.033484895 -0.061261874 0.0033487538
0003f0 4e 45 da bc 7b 21 df bc d2 53 a6 3c b8 55 e0 bc
       -0.026644375 -0.027237644 0.02030364 -0.027384624

network_body._body_endoder.seq_layers.4.bias f4 [256]
000000 ed 30 c2 39 18 33 db 3a 6f 9b 9b ba 0a 61 f0 3a
       0.00037039016 0.0016723601 -0.0011871884 0.0018339467
000010 29 9a 35 3b f8 17 7d bb 9e 6b 60 ba d0 e6 fe ba
       0.0027710295 -0.0038619023 -0.0008560958 -0.001944745
000020 48 c4 f8 ba cc 3b 23 3b f0 61 d5 3b 75 3c 5c 3b
       -0.0018979395 0.0024907468 0.006511919 0.003360537
000030 66 53 a8 bb fe 49 ae 3a 70 ec 64 3b 63 55 0a 3b
       -0.005136895 0.0013297198 0.0034930967 0.0021108023
000040 d1 d1 e2 ba 52 29 85 3b 82 eb 90 bb e4 98 ff 3a
       -0.0017304962 0.0040637637 -0.004422606 0.0019500521
000050 d9 fb 82 3a 83 65 87 3a ee 68 e8 39 8f c1 41 bb
       0.0009993269 0.0010329935 0.00044328667 -0.0029564833
000060 a8 85 b5 b8 1b 6a 68 bb db 21 84 3a 00 4b 03 3b
       -8.655648e-05 -0.0035463634 0.001008089 0.0020033717
000070 a9 b3 9c b9 cf b8 ce ba bb 2a 14 bb 42 9b a1 b9
       -0.00029888496 -0.001577163 -0.0022608477 -0.0003082399
000080 42 27 96 3b 93 95 6e bb 02 70 cf b9 46 70 7d b9
       0.0045823166 -0.003640507 -0.0003956557 -0.00024169785
000090 73 33 40 3a 7f dd 18 3b a9 70 e6 39 1d f0 e3 ba
       0.0007331885 0.0023325381 0.00043952957 -0.0017390285
0000a0 4a b7 89 3a 4a 7e a0 ba 3e 0b c2 bb f8 d7 a4 bb
       0.0010506895 -0.0012244668 -0.0059217503 -0.0050306283
0000b0 a1 7f 41 bb 54 21 d8 39 fa 09 a3 bb 2a cf 2c 3b
       -0.0029525536 0.00041223562 -0.0049755545 0.0026368597
0000c0 31 96 9e b9 7a d5 1b bb 10 cf 7f 3b 65 d9 cd 3b
       -0.0003024801 -0.0023778365 0.003903333 0.006282019
0000d0 98 22 81 3b 56 56 a9 39 0a 82 b2 b9 db 26 bf 3b
       0.0039408915 0.00032298517 -0.00034047692 0.0058334894
0000e0 c2 5f dd ba 39 6c 85 ba ad 12 00 3a 0e 46 1a bb
       -0.00168895 -0.0010179348 0.00048855954 -0.002354029
0000f0 a8 b1 c1 3a 86 13 57 3a e1 98 2a bb 52 a6 87 3a
       0.0014777677 0.00082045083 -0.0026031064 0.001034925
000100 25 e3 86 3b f6 54 b2 b9 fc d5 07 bb 78 30 84 ba
       0.004116433 -0.00034014106 -0.002072691 -0.0010085246
000110 51 94 9a 3b ad a8 ac 3b d6 b6 0a 3b 2f 2b 3a bb
       0.0047173877 0.005269131 0.0021166108 -0.0028407087
000120 d1 13 1d 3b 32 a2 f4 b9 4a d0 55 bb 42 80 80 bb
       0.002396811 -0.00046660152 -0.003262537 -0.0039215395
000130 fd d1 2e 3b e1 d2 3f bb ba 3a 43 3b 9d 52 f6 39
       0.0026675456 -0.002926998 0.0029789642 0.00046982328
000140 ad 6c 29 bb b1 f2 81 3b c5 eb 3e 3b c3 09 71 3a
       -0.002585213 0.0039656986 0.0029132229 0.0009194875
000150 42 bd 5e bb e9 ae 3b bb d2 8a a6 3b fc 8f 0b 3b
       -0.0033987318 -0.002863819 0.0050824666 0.0021295538
000160 65 d7 c4 bb 47 88 b6 3b 64 b6 31 bb c9 e4 8c bb
       -0.0060071223 0.0055704447 -0.002711677 -0.0042997343
000170 3e 6d dd 3a f4 c0 94 b9 57 16 a4 bb 9d 11 0c bb
       0.0016893519 -0.0002837252 -0.005007546 -0.0021372803
000180 5e 09 1c 3b f1 1e 07 3b d5 76 0c 3a e5 89 7f bb
       0.0023809294 0.0020617808 0.00053582835 -0.0038992104
000190 d6 cc 76 ba 1d ae c1 bb e5 97 16 bb fc da b7 39
       -0.0009414678 -0.0059106485 -0.002297872 0.00035067636
0001a0 68 d9 19 3b 4e 7b a0 b9 46 75 31 3a b6 4f 92 3b
       0.0023475531 -0.00030609447 0.0006769489 0.0044650687
0001b0 ef c8 73 bb be ab 99 3a 1e 0c 24 3b 5b 01 b3 3a
       -0.0037198623 0.0011724157 0.0025031636 0.001365702
0001c0 4a 99 a8 3a 32 84 59 3b ed 4d b7 3a 4d cb 11 bb
       0.0012863067 0.0033190367 0.0013985016 -0.002224642
0001d0 72 78 41 bb 7c e0 ad ba 52 20 c2 3a 0d f1 b2 3b
       -0.0029521254 -0.0013265754 0.0014810658 0.0054608644
0001e0 f5 55 81 bb 98 fa 2c 3b 1b 1d 50 bb dd 04 82 3a
       -0.0039470145 0.0026394483 -0.003175563 0.0009919662
0001f0 8b b7 20 3b 5f f5 82 bb 45 e1 3d b9 a9 4a a2 ba
       0.0024523463 -0.0039965357 -0.00018108364 -0.001238187
000200 af 05 9b bb 99 af 00 bb fd 7b af bb d6 2e 5e bb
       -0.004730902 -0.0019635914 -0.0053553567 -0.0033902428
000210 7a c5 76 3b de b9 76 3b 92 4e 38 38 02 0e 6f b9
       0.0037654326 0.0037647407 4.3942193e-05 -0.00022798034
000220 14 8b 7b ba 2e 94 c4 3a 9a 44 3a bb 0b ec fa ba
       -0.00095956144 0.0014997774 -0.0028422237 -0.0019143833
000230 2e 8d 12 b9 65 05 c7 ba 26 bd db 39 8a 2c 64 bb
       -0.00013976239 -0.0015184103 0.00041911862 -0.0034816586
000240 c5 12 25 3b 60 2f a1 3b 5d 54 1a ba f5 ab 54 bb
       0.002518819 0.0049189776 -0.0005887205 -0.0032451127
000250 47 32 31 bb 38 d9 2c 37 4a 22 51 bb d0 62 3d 39
       -0.0027038024 1.0302574e-05 -0.0031911307 0.00018061255
000260 06 a4 e3 ba ea 63 2e bb 45 53 4a bb 89 84 86 ba
       -0.0017367608 -0.0026609846 -0.0030872386 -0.0010262887
000270 bc 62 da 3b a4 b0 b5 ba 3c 8f 1a 3b ba 25 65 3a
       0.006664602 -0.0013861847 0.002358391 0.00087412784
000280 30 51 85 bb 72 92 1f 3b 5b 22 1f 3b ed 94 2a 3a
       -0.004068516 0.0024348763 0.0024281952 0.0006507177
000290 af 25 86 3b 4b 47 3f b9 58 4b a6 3a 0c 55 b8 b9
       0.0040938477 -0.00018241738 0.0012687249 -0.0003515858
0002a0 8f cf b0 3b 56 59 87 bb 6e 36 86 3a 51 c8 1f 3b
       0.0053958367 -0.0041305227 0.001023961 0.0024380872
0002b0 f2 fb e9 3a d0 5f 87 bb bf 9f a1 ba a3 9f 84 3b
       0.0017851575 -0.004131295 -0.0012330933 0.0040473505
0002c0 20 ba b0 3a bb be eb ba 4b f8 fa 3a 76 b3 45 bb
       0.0013483204 -0.0017985919 0.0019147483 -0.0030166782
0002d0 80 be 00 ba 53 73 9b b9 e3 af 14 bb 33 9d 5b 3b
       -0.0004911199 -0.00029649827 -0.0022687844 0.0033510446
0002e0 90 c6 25 ba c3 92 5b 3a 0f 4e e6 3a 13 c5 86 ba
       -0.00063238386 0.0008376056 0.0017570871 -0.0010282121
0002f0 04 b6 93 bb 22 c1 b6 b9 79 85 9b bb 16 08 35 3b
       -0.004507782 -0.0003485764 -0.004746136 0.0027623228
000300 95 92 8b 3b bc 97 42 3b 00 17 53 3b 7d 04 0b ba
       0.0042594173 0.0029692492 0.0032209754 -0.0005303098
000310 e8 4d ae ba ac 58 24 3b 9f ac 36 bb 0a a1 aa 3b
       -0.0013298364 0.0025077267 -0.0027873886 0.0052071856
000320 69 31 32 ba 75 f8 22 3a d3 1a 3b 3b 66 1f 98 3b
       -0.0006797524 0.00062168326 0.0028549924 0.004642415
000330 f6 ce 89 3b a6 39 ad 39 70 de 29 bb ab e4 97 3b
       0.00420558 0.00033040083 -0.0025919937 0.0046354136
000340 6b 42 85 bb 58 bb 1b bb 02 ad 84 bb 6f 87 43 3a
       -0.0040667555 -0.0023762789 -0.0040489445 0.0007458841
000350 ee 3a ad 3a 97 99 5f bb 46 49 f6 3a ac 47 a3 ba
       0.0013216415 -0.0034118646 0.0018790148 -0.0012457273
000360 a0 50 0d 3a e1 65 61 3b 1b 8f 23 b9 da 62 aa 3b
       0.0005390737 0.0034393 -0.00015598202 0.0051997723
000370 04 3f 00 bb a9 d2 64 3a 24 6b 1e 3b 23 e6 87 ba
       -0.001956881 0.00087289006 0.0024172748 -0.0010368269
000380 03 c2 4e 3b 15 a8 8a bb 2b b2 e0 ba d7 a0 ae 39
       0.0031548745 -0.0042314627 -0.0017142942 0.000333077
000390 1b dc b7 3a 34 d6 2c 3a 33 8d 95 3b 27 00 1e 3b
       0.0014027389 0.0006593198 0.0045639514 0.0024108978
0003a0 9a 2e 71 3a 62 67 91 bb 22 4d 67 bb 98 bc 86 ba
       0.00092003646 -0.004437373 -0.0035293777 -0.0010279594
0003b0 55 b7 c2 ba 3c 90 43 38 35 58 72 ba 7a ce 29 3b
       -0.0014855663 4.662595e-05 -0.0009244711 0.0025910423
0003c0 cd b2 ac ba 86 0b 74 b9 e1 89 7a 3b 15 4c d7 39
       -0.0013175845 -0.00023273946 0.0038229155 0.0004106468
0003d0 65 b9 1f bb f2 36 c5 ba 8b 5a c5 3b 24 f9 d1 3b
       -0.0024371978 -0.0015046282 0.0060227565 0.0064078737
0003e0 31 37 81 3a ff 3c d2 ba 3c e2 9b 3a e0 ec 05 bb
       0.0009858367 -0.0016039907 0.0011892985 -0.0020435378
0003f0 7a b6 97 bb a4 87 99 3b 43 f0 4e 3a b2 9b 23 bb
       -0.004629907 0.004685359 0.0007894078 -0.0024964628

action_model._continuous_distribution.log_sigma f4 [1, 6]
000000 97 6a e5 3a 4d 9f 93 3a a9 61 25 bb 5f 9c 0e bb
       0.001750308 0.0011262685 -0.0025235212 -0.0021760685
000010 e3 a7 33 bb ca 69 f1 bb
       -0.00274133 -0.0073673474
