results/NearSingularity03/NearSingularity/NearSingularity-43728.onnx (onnx, 623772 bytes, 9 tensors)

network_body._body_endoder.seq_layers.0.weight f4 [256, 85]
0	0x3dcc6fce	0.099822626
1	0xbd86383c	-0.065536946
2	0xbdba0cf0	-0.09084499
3	0xbcd6819e	-0.026184853
4	0xbdb189a0	-0.08668828
5	0xbdc79801	-0.09745789
6	0x3d092900	0.033486366
7	0xbe3814e3	-0.17976718
8	0x3e0ce3ad	0.13758726
9	0x3d5224d4	0.051304653
10	0x3e2cd077	0.16876398
11	0xbdd4e97a	-0.103960946
12	0xbe05740c	-0.1303255
13	0xbe12aa93	-0.14322881
14	0xbd47b7d3	-0.048759293
15	0xbe455f23	-0.19274573
16	0x3dbd1992	0.09233393
17	0xbbc6fef2	-0.0060728723
18	0x3d100f15	0.035170633
19	0xbd28444b	-0.041080754
20	0x3a85adf0	0.0010198932
21	0xbc6b3866	-0.014356708
22	0xbd7fee27	-0.06248298
23	0xbd0039e2	-0.0313052
24	0x3daa677f	0.083205216
25	0x3d0c6a60	0.034281135
26	0xbe17bda0	-0.1481843
27	0x3e40a415	0.18812592
28	0x3dc00b2c	0.09377131
29	0x3e10b85a	0.14132825
30	0x3e46b492	0.1940482
31	0x3e536abc	0.20646185
32	0x3d1c49ea	0.038156427
33	0xbc9009dd	-0.017582828
34	0x3e6eebbd	0.23332115
35	0x3bc9f31e	0.006163015
36	0xbbf1af0a	-0.0073756026
37	0xbd2e8567	-0.04260769
38	0xbd423795	-0.04741629
39	0x3cd13823	0.025539463
40	0xbdb7e9d8	-0.08980149
41	0xbdeaea7f	-0.11470508
42	0xbdcc6023	-0.09979274
43	0x3b57e769	0.0032944328
44	0xbdc5d6af	-0.09660088
45	0xbd75063a	-0.05982039
46	0x3d64c03f	0.055847403
47	0xbe716e10	-0.23577142
48	0x3cf4cce1	0.02988285
49	0xbd8c71bc	-0.068576306
50	0xbe2185af	-0.15773652
51	0x3cc6f4b0	0.024286598
52	0xbd6d8afb	-0.05799387
53	0x3bd9a9ad	0.0066425414
54	0xbe049a72	-0.12949541
55	0xbe3d61a8	-0.18494284
56	0xbcab08f2	-0.020878289
57	0x3d87d61d	0.06632636
58	0x3e3a2ca7	0.18181096
59	0x3d4749d9	0.04865441
60	0x3d0c9e5b	0.034330707
61	0xbd07a22b	-0.03311364
62	0xbdce8951	-0.10084785
63	0x3d97bf5b	0.07409545
64	0xbd69f520	-0.057118535
65	0xbc4c41eb	-0.012466888
66	0x3db2a093	0.08722033
67	0xbdaaef66	-0.08346443
68	0xbe5bf193	-0.21478872
69	0x3de31d78	0.11089605
70	0x3e16c763	0.14724497
71	0x3d54da0c	0.05196576
72	0x3b0e670d	0.0021728904
73	0x3b84b81a	0.004050267
74	0x3d89c6a7	0.06727343
75	0x3e1fd60c	0.15608996
76	0xbde53bee	-0.11193071
77	0x3bae0450	0.0053105727
78	0x3d9acd8e	0.07558738
79	0xbdfe4163	-0.12414815
80	0x3ea49d86	0.3215143
81	0xbe26e3f3	-0.16297893
82	0x3e1a5444	0.15071207
83	0xbb571389	-0.003281804
84	0x3d23fb65	0.04003467
85	0xbd823304	-0.06357387
86	0xbd9743ea	-0.073860005
87	0x3e83e869	0.25763252
88	0x3e3f8a38	0.1870507
89	0x3d08ba13	0.03338058
90	0xbd7c42f3	-0.061587285
91	0x3e263295	0.16230233
92	0x3d1b2a1c	0.037881956
93	0xbe1090b5	-0.14117701
94	0x3c58d01e	0.013233213
95	0xbd8e36fa	-0.0694408
96	0xbdb5aefc	-0.08871266
97	0x3d684ff5	0.056716878
98	0xbcd24641	-0.025668265
99	0xbe60b89b	-0.21945421
100	0xbe7fd085	-0.24981888
101	0x3cbab673	0.022792077
102	0x3e263ba8	0.16233695
103	0xbe202293	-0.15638189
104	0xbb5d233d	-0.0033742927
105	0xbcdf739a	-0.027276803
106	0xbe1af16c	-0.15131158
107	0x3e6b7c58	0.22996652
108	0x3e2e2fc9	0.17010416
109	0xbdbfbd02	-0.09362222
110	0xbd00383b	-0.031303626
111	0xbbb3e095	-0.0054894187
112	0x3dbd981a	0.09257527
113	0x3dcdd6fd	0.100507714
114	0x3e0f7530	0.14009547
115	0xb8a3c71a	-7.809531e-05
116	0x3d28a4f9	0.041172955
117	0xbc426e57	-0.011867127
118	0x3d2c9638	0.042135447
119	0xbe23eadc	-0.1600756
120	0xbc4180ab	-0.011810462
121	0x3e3823fb	0.17982475
122	0x3e2a0263	0.16602473
123	0x3d52d893	0.051476073
124	0x3dfd09be	0.12355374
125	0xbd340e61	-0.043959025
126	0x3ce0f752	0.027461682
127	0x3d81538a	0.06314762
128	0x3df5b9ee	0.11998354
129	0x3e22ca55	0.15897496
130	0x3e0bdeaf	0.13659166
131	0x3da49482	0.08036138
132	0xbe404697	-0.18776928
133	0x3cb49812	0.022045169
134	0x3e7cd318	0.24689901
135	0x3e0e1649	0.13875689
136	0x3e705d9f	0.23473214
137	0xbd723af4	-0.059138253
138	0x3d1f78f7	0.03893372
139	0x3dde9c0e	0.10869609
140	0xbdc01f0b	-0.09380921
141	0xbdb747f7	-0.08949273
142	0x3c00b637	0.007855943
143	0x3e5b44d9	0.21412982
144	0xbd172231	-0.03689784
145	0xbd66b1f5	-0.056322057
146	0xbdecf5ad	-0.115702964
147	0x3e3a28b6	0.18179592
148	0xbcb7a220	-0.022416174
149	0x3dade9f6	0.0849189
150	0xbdb1329b	-0.0865223
151	0xbdd56842	-0.10420276
152	0xbe2af565	-0.16695173
153	0xbdf13283	-0.117772125
154	0xbe0bc89b	-0.13650744
155	0xbb35a588	-0.0027717073
156	0xbe4959af	-0.19663118
157	0x3e293626	0.16524562
158	0x3d4e32e7	0.050341513
159	0xbe0c6435	-0.13710101
160	0x3d8621e5	0.065494336
161	0x3dc99914	0.098436505
162	0xbd509656	-0.05092462
163	0xbe18f53a	-0.14937297
164	0x3e5a55eb	0.21321838
165	0x3e58ae3f	0.2116022
166	0x3e50fdc3	0.20409302
167	0x3dcc5423	0.09976985
168	0x3ccf2242	0.02528489
169	0x3dcb5f4d	0.099302866
170	0x3d3583b9	0.044315074
171	0xbe4c80c7	-0.19971
172	0x3dc54706	0.09632687
173	0xbdd8a765	-0.10578803
174	0xbe6ee2cb	-0.23328702
175	0xbd4333c9	-0.047656808
176	0xbdea6ef7	-0.11446946
177	0xbcfe6602	-0.0310545
178	0x3df35a3a	0.11882444
179	0x3dcba2ae	0.09943138
180	0x3e825665	0.2545654
181	0x3c639ae3	0.013891908
182	0x3b52cfdd	0.0032167353
183	0x3e1971df	0.14984845
184	0x3d88cca6	0.066796586
185	0xbc07ffcf	-0.008300736
186	0xbcc07ae0	-0.023496091
187	0xbe2c4303	-0.16822438
188	0x3d86d4eb	0.0658358
189	0xbcef3157	-0.029198332
190	0x3d860633	0.06544151
191	0xbe6d7694	-0.23189765
192	0xbe46bdf8	-0.19408405
193	0x3dee22f4	0.116277605
194	0x3e3b24c7	0.18275748
195	0x3d0f97f0	0.03505701
196	0x3de03510	0.10947621
197	0x3db5428c	0.088505834
198	0x3defc618	0.11707705
199	0x3e354919	0.17703666
200	0x3d796847	0.060890462
201	0x3cf1a0ad	0.029495561
202	0xbd96aa89	-0.07356746
203	0x3db57a6e	0.08861242
204	0x3e7331de	0.23749492
205	0x3e14539b	0.14485018
206	0x3ddb9095	0.10720936
207	0xbd2fb6f7	-0.0428991
208	0x3ea73710	0.32659197
209	0xbdc607f5	-0.096694864
210	0x3e9bb8bd	0.30414382
211	0xbcff2602	-0.031146053
212	0x3e0d7047	0.13812362
213	0x3e2924fd	0.16518016
214	0x3d886762	0.06660344
215	0x3e60a552	0.21938065
216	0xbcf2f284	-0.029656656
217	0xbd17781e	-0.036979787
218	0xbd705993	-0.058679175
219	0x3e32a97f	0.1744747
220	0xbd96c4e5	-0.073617734
221	0x3d05a8bb	0.032631617
222	0x3e19ee76	0.15032372
223	0x3d73efea	0.05955497
224	0x3e008396	0.12550196
225	0x3dfa7db0	0.12231004
226	0xbdd8ce6e	-0.10586248
227	0x3e1c28e1	0.15249969
228	0x3e1b71e0	0.15180159
229	0x3cffbecd	0.03121891
230	0xbcca763e	-0.024714585
231	0xbe4a6a02	-0.19767001
232	0xbdb0bf78	-0.0863027
233	0xbd469211	-0.048479144
234	0xbe1d5011	-0.15362574
235	0x3d9eeb9c	0.07759783
236	0x3e27df90	0.16393876
237	0xbd23c002	-0.039978035
238	0x3e218c93	0.15776281
239	0x3cbda366	0.023149204
240	0xbc05b8e3	-0.008161756
241	0x3cfd6fce	0.030937102
242	0x3e4c5333	0.19953613
243	0x3d9f3ba7	0.0777505
244	0xbcb69f3b	-0.022292724
245	0x3e082ef6	0.13299164
246	0x3d99f34c	0.07517108
247	0xbd1e77d2	-0.03868849
248	0xbdb07594	-0.08616176
249	0x3d96b42a	0.07358582
250	0xbdc0744d	-0.093971826
251	0xbe4f7c37	-0.20262228
252	0xbd3af3ec	-0.04564278
253	0xbd5710af	-0.052506145
254	0xbbf5170d	-0.0074795545
255	0x3c7613ca	0.0150193665

network_body._body_endoder.seq_layers.0.bias f4 [256]
0	0xbc97e448	-0.01854147
1	0xbaeb184e	-0.001793632
2	0xba1e0646	-0.00060281565
3	0xbac9bfa2	-0.0015392194
4	0x3c07c4b1	0.008286641
5	0x3b083af3	0.002078709
6	0x3c256d7a	0.010096902
7	0xbc905300	-0.017617702
8	0x3b72ccae	0.0037048268
9	0x3b890ac8	0.0041821934
10	0x3b661f9b	0.0035114053
11	0x3aa200c0	0.0012359843
12	0xbbf940da	-0.007606608
13	0x3b8487eb	0.004044523
14	0xbb5d98a9	-0.0033812916
15	0x3c08495d	0.008318272
16	0x3af3a4c7	0.0018588536
17	0x3c29e0c3	0.010368529
18	0x3abdbfdc	0.0014476734
19	0x3bf9147e	0.00760132
20	0x3b4d135c	0.0031292057
21	0xbc0e627e	-0.008690475
22	0x3bd233a6	0.0064148484
23	0xbc0a1037	-0.0084267175
24	0x3ac898fc	0.0015304382
25	0x3b461b03	0.0030228503
26	0x3c2d6427	0.01058296
27	0xb794d778	-1.774331e-05
28	0xbc937ce3	-0.018003887
29	0x3c851e69	0.016249852
30	0x3bc7aff2	0.0060939724
31	0x3c919a05	0.017773638
32	0xbb19ec84	-0.0023486922
33	0xbb2d9b51	-0.002649028
34	0x3c058488	0.008149274
35	0x3b7e387d	0.0038790994
36	0x3c13a4f7	0.009011499
37	0x3c23241d	0.009957341
38	0xbb7089e6	-0.0036703288
39	0x3cba49d5	0.022740284
40	0x3b2c6208	0.0026303548
41	0xbb6c79f8	-0.0036083441
42	0xb78d2294	-1.6824612e-05
43	0x3c35c195	0.011093517
44	0xbc43d773	-0.011953223
45	0x39002418	0.00012220477
46	0xbc4c1900	-0.012457132
47	0x3b4ff66a	0.0031732568
48	0xbc063695	-0.008191724
49	0xbc0107e9	-0.007875421
50	0xbc19ee6b	-0.009395222
51	0x3c0d5daa	0.008628288
52	0xbb8e3a4d	-0.004340446
53	0x3c55d260	0.013050646
54	0xbb3aabc3	-0.0028483726
55	0x3b9407e6	0.004517543
56	0x3b54ad4c	0.0032451926
57	0xbaae2533	-0.0013286233
58	0x3bf731c9	0.0075437766
59	0xbc1c531e	-0.009541301
60	0xbb8e1a45	-0.0043366277
61	0xbbfc9555	-0.0077082315
62	0x3b80b972	0.003928357
63	0xbac2519a	-0.0014825345
64	0xbbfd973f	-0.007738977
65	0xbb6cfbd1	-0.0036160836
66	0x3c27db47	0.010245151
67	0xbbbee984	-0.005826177
68	0x3b7d4221	0.0038644152
69	0x3c2cf855	0.010557254
70	0x3b0573f6	0.0020363308
71	0x3b2dc3a4	0.0026514316
72	0x3be96ed8	0.0071238093
73	0x3baef77b	0.0053395606
74	0x3c242e89	0.0100208605
75	0xbbd066e2	-0.006359921
76	0x3c148537	0.009064964
77	0xbbc455c3	-0.005991669
78	0x3b87c71e	0.0041436097
79	0xbb2916ed	-0.0025801018
80	0xbc228c62	-0.009921165
81	0x3b6a0c33	0.0035712838
82	0x3c038e00	0.008029461
83	0x3c805497	0.015665336
84	0xbcad4969	-0.021153169
85	0x3c06cb3e	0.008227168
86	0xbb6781fe	-0.0035325284
87	0xbb1fdde8	-0.002439374
88	0xbc827240	-0.01592362
89	0x3a93dcd1	0.0011281018
90	0xbbf58157	-0.007492225
91	0x3c225b28	0.009909429
92	0xbbab196e	-0.0052215373
93	0xbaae44a0	-0.0013295598
94	0x3b177a80	0.0023113787
95	0x3c089031	0.008335159
96	0xbc3ecdc7	-0.011645741
97	0x3b0517ae	0.0020308304
98	0x3affb920	0.0019510128
99	0xbbe4235f	-0.0069622244
100	0xbc82bda3	-0.015959566
101	0xbb960640	-0.004578382
102	0x3b3d6900	0.0028901696
103	0x3bbcf825	0.005766886
104	0x3b7f0404	0.0038912306
105	0xbabb937c	-0.0014310922
106	0xbbe831db	-0.0070860214
107	0xbb03dd10	-0.0020120777
108	0xbb284eee	-0.0025681811
109	0xbc162065	-0.009162997
110	0xbbe2001e	-0.0068969866
111	0x3782ca86	1.5591515e-05
112	0xba95bbbf	-0.001142375
113	0x3b44e8c6	0.003004597
114	0x3c44c86e	0.012010677
115	0x3c42944b	0.011876176
116	0x3bea532a	0.007151027
117	0x3b7c9ef8	0.0038546901
118	0x3b33700d	0.002738002
119	0xbb45418f	-0.003009889
120	0x3a04425d	0.0005045289
121	0x3b55b6a1	0.0032610076
122	0xba8a0cef	-0.0010532419
123	0x3bea4d52	0.0071503306
124	0x3bfe52e2	0.0077613452
125	0x3c325052	0.010883408
126	0x3c71c3c4	0.014756147
127	0x3c0b2755	0.008493264
128	0x3b9b6409	0.0047421497
129	0xbb62af53	-0.0034589365
130	0xbb151550	-0.00227483
131	0x3ac6638a	0.0015135866
132	0xbc771cb7	-0.01508253
133	0xbaab9329	-0.0013090122
134	0x3a6b5236	0.0008976789
135	0x3c398c44	0.011324946
136	0x3b56a2bb	0.0032750804
137	0x3bdad882	0.006678642
138	0x3b12ebb9	0.0022418334
139	0x3ae8d491	0.0017763545
140	0x3c1b31f5	0.00947236
141	0xbb9d4207	-0.004799131
142	0x3c87f774	0.016597487
143	0xbaa55654	-0.0012614229
144	0x3c496446	0.012291973
145	0x3c0bdcf6	0.008536568
146	0x3b0acf27	0.0021180601
147	0xbbe6c72b	-0.0070427856
148	0x3c02558e	0.007954968
149	0x3c2a007a	0.01037609
150	0x3c93236d	0.017961228
151	0x39d19edc	0.00039981946
152	0x3c2f6a9d	0.010706571
153	0x39d00702	0.00039678073
154	0xbc30f415	-0.010800381
155	0x3b499e0f	0.0030764376
156	0xbb862ccf	-0.004094697
157	0x3c6a3fbf	0.014297425
158	0x3b38bdfe	0.0028189416
159	0xba806462	-0.0009795541
160	0x3b92bf33	0.004478359
161	0x3a6ba83a	0.0008989606
162	0x3bf15123	0.0073644086
163	0x3bcc66df	0.006237849
164	0x3c28108b	0.01025785
165	0xbc1864b4	-0.009301353
166	0x3c50cd98	0.01274433
167	0xbbb3c269	-0.005485822
168	0x394538ea	0.00018808586
169	0xbb141c99	-0.0022600053
170	0xba5b37d0	-0.0008362504
171	0xbbe03cd4	-0.006843189
172	0x3aa0f3db	0.0012279706
173	0x3ba3ad01	0.004994989
174	0x3b950db3	0.004548752
175	0x3c081b77	0.008307329
176	0xba6edb91	-0.00091116974
177	0x3c6f24de	0.014596192
178	0x3badedf4	0.0053079072
179	0xbc85858e	-0.016299035
180	0xbac751a2	-0.0015206824
181	0x3b920fdc	0.004457457
182	0x3ca1e085	0.01976038
183	0x3aa4c591	0.0012571086
184	0x3c84ebd9	0.016225742
185	0xbc8bb502	-0.017054085
186	0x3c7db5e4	0.015485261
187	0xbaf75b4a	-0.0018871811
188	0x3c4a569e	0.012349753
189	0x3c02f76b	0.007993559
190	0x3b399c60	0.0028321967
191	0x3b8803ce	0.004150844
192	0xbcb2e1cd	-0.021836186
193	0xbcb9336c	-0.022607528
194	0x3c3fdd5b	0.01171049
195	0xbb97ca0a	-0.004632239
196	0x3c005abf	0.007834136
197	0xbb99753d	-0.0046831653
198	0x394df3ea	0.00019641189
199	0xbb871f4d	-0.0041236044
200	0x3c1adcc1	0.009452046
201	0x3b288776	0.0025715507
202	0x3c02526e	0.007954223
203	0xb8c5948c	-9.421361e-05
204	0xbb918e2a	-0.004441996
205	0xbbb4bd26	-0.0055157123
206	0xbae9f563	-0.001784962
207	0x3c3ed073	0.011646378
208	0xbbdfccd8	-0.006829839
209	0x3bc13176	0.005895789
210	0x3b772778	0.0037712734
211	0xbba43595	-0.0050112703
212	0xbc640cf0	-0.0139191
213	0xbb8aceaf	-0.0042360644
214	0x3b936cef	0.00449907
215	0x3b5e9f53	0.0033969476
216	0xbbc285e7	-0.0059363726
217	0x3c1206dd	0.008912769
218	0xbb29b60d	-0.0025895864
219	0x3bbf59c7	0.0058395597
220	0xbc5f225b	-0.013619031
221	0xbb88e755	-0.0041779676
222	0x39cc9e3d	0.0003902781
223	0xbb361b47	-0.0027787255
224	0xb87896b0	-5.9268146e-05
225	0x3bfd73d8	0.007734757
226	0xbc19dbe1	-0.009390802
227	0x3ba8ea6d	0.005154899
228	0xbbe5fe94	-0.0070188735
229	0x3b30cc91	0.00269774
230	0xbadd7175	-0.0016894775
231	0x3b3b2ff8	0.0028562527
232	0xbad57fd9	-0.0016288712
233	0x3c049d3c	0.008094128
234	0x3c912703	0.017718798
235	0x39749562	0.00023325303
236	0x3926d854	0.00015911582
237	0x3c3beecb	0.011470507
238	0xbb4f0d3d	-0.0031593584
239	0xba49d917	-0.00076998904
240	0x3b7d9e71	0.0038699175
241	0x3bbc0b15	0.005738626
242	0x3bcbf53f	0.006224304
243	0x39a014dc	0.0003053312
244	0xbc863f11	-0.016387494
245	0xba46c3cb	-0.0007582276
246	0xbbe3b53f	-0.0069490965
247	0x3b655128	0.0034991
248	0xbbaa8c1c	-0.0052046906
249	0x3c38a178	0.011268966
250	0x3b647e6b	0.003486539
251	0xbc06cd68	-0.008227684
252	0xbb292b2a	-0.0025813081
253	0xbc35a319	-0.011086249
254	0xbc1be002	-0.009513857
255	0x3babbe30	0.005241178

network_body._body_endoder.seq_layers.2.weight f4 [256, 256]
0	0xbd83386d	-0.06407247
1	0x3d36d1d2	0.044633694
2	0xbdd8744e	-0.10569058
3	0x3cc1ae9f	0.023642836
4	0xbd8e21e7	-0.0694006
5	0x3c5fffe2	0.013671847
6	0xbce7ec9a	-0.028311063
7	0x3c5e7012	0.013576524
8	0x3e1a3a29	0.15061249
9	0xbd73fcb4	-0.05956717
10	0x3e4ebc76	0.2018908
11	0x3df87689	0.12131984
12	0xbc66ca8c	-0.014086377
13	0xbd50f4b6	-0.051014625
14	0x3e193a14	0.14963561
15	0xbe153d5b	-0.14574187
16	0xbd62501f	-0.05525219
17	0xbdedf0ee	-0.11618219
18	0x3d955f98	0.07293624
19	0xbe4d35e2	-0.20040086
20	0x3de37db5	0.11107961
21	0xbd59fe4f	-0.053221043
22	0x3bc43287	0.0059874686
23	0x3d2d8bf7	0.04236981
24	0xbd7b475b	-0.061347347
25	0xbd1d2dc3	-0.03837372
26	0x3dd32083	0.103089355
27	0x3a0a30d3	0.00052715576
28	0xbd672a3e	-0.05643677
29	0xbdad74a5	-0.08469514
30	0xbda1cdb8	-0.07900566
31	0xbcf21115	-0.029549161
32	0xbd201174	-0.039079145
33	0x3d1cdee3	0.0382985
34	0xbd8be620	-0.06831002
35	0xbd67725b	-0.056505542
36	0x3da84345	0.08215956
37	0xbd28e2b7	-0.041231837
38	0xbdc8333b	-0.097753964
39	0x3d901bb3	0.07036533
40	0x3d99129f	0.07474255
41	0xbc0bdd5a	-0.008536661
42	0x3c05236f	0.008126124
43	0xbdcc49a9	-0.09974987
44	0xbc221024	-0.009891544
45	0x3e0b445c	0.13600296
46	0xbc79885c	-0.0152302645
47	0xbe05e457	-0.13075386
48	0x3c6d28b6	0.014475038
49	0xbd994f8a	-0.07485874
50	0xbdaaf2d4	-0.08347097
51	0x3c600801	0.013673783
52	0x3c8351c6	0.016030204
53	0x3de8f41b	0.113746844
54	0xbdfac74c	-0.12245044
55	0xbb70c885	-0.0036740613
56	0x3d189b68	0.037257582
57	0x3d961dfd	0.073299386
58	0x3dff8780	0.124770164
59	0xbd573e2e	-0.052549534
60	0x3de7b04c	0.11312923
61	0x3ba06ba4	0.0048956443
62	0xbd6ab621	-0.057302598
63	0x3ce852a8	0.028359726
64	0x3d25b573	0.040456247
65	0xbd544adc	-0.051829204
66	0xbd21c3aa	-0.03949324
67	0x3d88b200	0.06674576
68	0x3d709235	0.058733184
69	0xbcc23f06	-0.023711693
70	0xbdb3bf10	-0.08776677
71	0xbd7498ae	-0.05971592
72	0x3daa8a71	0.08327187
73	0x3d88805b	0.06665107
74	0xbd2ea1c4	-0.04263474
75	0xbc80f324	-0.015740938
76	0xbd499db2	-0.049222656
77	0xbd73fae2	-0.059565432
78	0xbcbb2e7b	-0.022849312
79	0x3d832a38	0.06404537
80	0xbce5f6fb	-0.028071871
81	0xbd611c7d	-0.05495881
82	0xbcc9d7fc	-0.024639122
83	0xbd4fb8a6	-0.050713204
84	0x3dd08ee2	0.10183503
85	0xbd83d06b	-0.06436237
86	0x3caccdde	0.021094259
87	0x3dfeb77e	0.12437342
88	0x3d0d91ed	0.034562994
89	0xbc5097b9	-0.012731486
90	0x3d66e10e	0.056366973
91	0x3d35a050	0.04434234
92	0xbe3699a4	-0.17832047
93	0xbe12e695	-0.14345773
94	0x3d35e0b3	0.044403743
95	0xbe171655	-0.14754613
96	0x3da0abfc	0.078453034
97	0xbdc13f7b	-0.09435936
98	0xbd20c28d	-0.039248038
99	0xbdad9621	-0.084759004
100	0x3d39bcfb	0.04534624
101	0x3de28528	0.11060554
102	0xbd106546	-0.035252832
103	0x3d7ee925	0.062234063
104	0xbd9865d5	-0.07441298
105	0xbccb1b07	-0.024793161
106	0xbd0fc455	-0.035099346
107	0x3ba617ab	0.0050687394
108	0x3d6bfbd8	0.057613224
109	0x3da47fd4	0.08032194
110	0x3d490e2e	0.04908579
111	0xbd83b539	-0.0643105
112	0x3d07a7d4	0.033119038
113	0xbd88222f	-0.06647145
114	0xbd1c2771	-0.03812355
115	0x3db9e0b5	0.090760626
116	0x3d268044	0.040649667
117	0x3d846555	0.0646464
118	0xbdabbe2f	-0.08385884
119	0xbd6b2d33	-0.057416152
120	0x3dd6a477	0.10480588
121	0xbcc66213	-0.024216687
122	0xbcb4615f	-0.022019086
123	0xbb93a80c	-0.0045061167
124	0x3af8e3ec	0.0018988824
125	0x3c1f942a	0.009739915
126	0x3bb3dd25	0.005489009
127	0x3d5b369d	0.05351888
128	0x3d68d1e9	0.05684081
129	0x3d098cc7	0.03358152
130	0xbd41ce93	-0.047316145
131	0xbdc95b0d	-0.0983182
132	0xbcc8772d	-0.02447089
133	0xbd85bff3	-0.06530752
134	0xbd2939cf	-0.041314896
135	0xbcc48da6	-0.023993324
136	0x3b8088cb	0.003922557
137	0x3da7e79d	0.081984736
138	0x3d5f9c13	0.054592203
139	0x3d228e47	0.039686467
140	0x3becc303	0.0072253956
141	0xbd2100fd	-0.039307583
142	0xbd658820	-0.056038022
143	0xbc66e846	-0.014093464
144	0xbd2549f7	-0.04035374
145	0xbd966a5c	-0.07344505
146	0x3d52fa7f	0.051508423
147	0xb9be0f86	-0.0003625119
148	0x3cf9c4d5	0.030489365
149	0xbc40dc04	-0.011771206
150	0x3d4b5055	0.049637157
151	0xbd9f969a	-0.07792397
152	0xbc64df99	-0.013969325
153	0xbd206dd6	-0.039167248
154	0x3dbb7532	0.091532126
155	0xbd3bd004	-0.045852676
156	0xbdda4c69	-0.10659105
157	0x3d909994	0.07060543
158	0xbca687d8	-0.020328447
159	0x3d392905	0.045205135
160	0xbce47c65	-0.027891347
161	0x3d60c2cf	0.054873284
162	0x3e19a481	0.1500416
163	0x3d920312	0.07129492
164	0x3ca7ba37	0.020474536
165	0xbd4f3700	-0.05058956
166	0xbc848096	-0.016174596
167	0xbde6f5a9	-0.11277325
168	0x3d19c4a8	0.03754106
169	0x3dd84d2c	0.10561594
170	0x3cbcb943	0.023037558
171	0x3d059a54	0.032617882
172	0xbbb975eb	-0.005659809
173	0x3d221cc0	0.0395782
174	0x3d6467d8	0.055763096
175	0xbe20aaa5	-0.15690096
176	0x3d8228e5	0.06355456
177	0x3da127ec	0.078689426
178	0x3d529193	0.05140836
179	0xbe25f1bf	-0.162055
180	0x3d91facb	0.07127913
181	0xbdad3ec0	-0.08459234
182	0xbc993d51	-0.018705996
183	0xbce88e2f	-0.02838811
184	0x3c8cb6cb	0.017177006
185	0xbd8ab8f9	-0.06773562
186	0xbdb9e8cc	-0.090776056
187	0x3d8a0cb9	0.06740708
188	0x3cf2b4f5	0.029627303
189	0xbd9bf792	-0.0761558
190	0x3c0539e4	0.008131478
191	0x3cb2c887	0.021824135
192	0xbdbd3ef4	-0.09240523
193	0xbda3982b	-0.07988008
194	0x3d486a6f	0.048929628
195	0xbc97e972	-0.018543933
196	0x3c893dc5	0.016753087
197	0xbd855ee7	-0.06512242
198	0x3d85cb8a	0.065329626
199	0x3ddcff3a	0.10790868
200	0x3d93414b	0.07190188
201	0x3e0dcc30	0.13847423
202	0xbc6a3599	-0.014295005
203	0xbcdb1e92	-0.026747975
204	0xbdeac8ac	-0.114640564
205	0xbd3c2e90	-0.045942843
206	0x3df5a544	0.119944125
207	0x3d351bca	0.044215955
208	0x3db6bc99	0.08922691
209	0xbb97ebdf	-0.0046362723
210	0xbe0f73b9	-0.14008988
211	0xbc02d63e	-0.00798565
212	0x3c80c711	0.015719922
213	0xbc016aa0	-0.007898957
214	0xbd9655b3	-0.073405646
215	0x3d4120a9	0.047150288
216	0x3d58a095	0.052887518
217	0xbdc5df03	-0.09661677
218	0xbdf938cb	-0.121690355
219	0xbd29f27b	-0.041491013
220	0xbd9fa5d8	-0.07795304
221	0xbda3cf7a	-0.079985574
222	0x3d7dd0b6	0.06196662
223	0x3c21f14b	0.009884189
224	0xbd25ab51	-0.040446583
225	0x3d04f6be	0.032461874
226	0xbcb182f1	-0.021668883
227	0xbd74aa33	-0.059732627
228	0xbe46c8c9	-0.19412531
229	0xbda73e8a	-0.08166225
230	0x3c996740	0.018725991
231	0x3d7d8a5b	0.061899524
232	0x3bb7d2a6	0.005609828
233	0x3d9bbde8	0.07604581
234	0x3d74754e	0.059682183
235	0xbda4b6be	-0.08042668
236	0x3d7025ad	0.05862968
237	0x3d915cc1	0.070977695
238	0x3db73f08	0.08947569
239	0x3d4c0a3e	0.049814455
240	0xbcc090ce	-0.023506548
241	0x3a3ebc88	0.0007276018
242	0x3e021abc	0.12705511
243	0x3b77ea1c	0.003782875
244	0xbdb5032b	-0.08838495
245	0x3d128f05	0.035780925
246	0xbdf445b8	-0.1192736
247	0xbcab2597	-0.020891948
248	0xbd527834	-0.051384166
249	0x3ca3762d	0.019953812
250	0xbde1553a	-0.11002584
251	0x3d555743	0.052085172
252	0xbd41e245	-0.047334928
253	0xbe013159	-0.12616481
254	0xbde185d0	-0.11011851
255	0x3d2703c8	0.04077509

network_body._body_endoder.seq_layers.2.bias f4 [256]
0	0xbb0fb4ca	-0.0021927827
1	0xbc498211	-0.012299077
2	0xbab4f173	-0.0013804868
3	0x3b551831	0.003251564
4	0xba5f327a	-0.00085142965
5	0xba9a27a3	-0.001176108
6	0xbb3d40c7	-0.0028877722
7	0x3bc0d575	0.005884821
8	0xbb047b6c	-0.0020215167
9	0xbbc669d3	-0.0060550957
10	0x3c8dd867	0.017315103
11	0xbb89381e	-0.004187598
12	0x3b606aac	0.003424327
13	0xbc1a2daa	-0.009410301
14	0xb96c60ca	-0.0002254277
15	0xbb350a70	-0.002762463
16	0x3bfa774a	0.007643615
17	0x3b271254	0.0025493102
18	0xbc1f3e49	-0.00971944
19	0x3c320d87	0.010867483
20	0x3b0cdea4	0.002149501
21	0x3bc6278b	0.0060471944
22	0x3c5ff5ff	0.01366949
23	0xbb683714	-0.003543322
24	0xbb87fb70	-0.0041498467
25	0xbc1eccb4	-0.00969236
26	0x3bd80427	0.006592292
27	0x3c4c8971	0.01248394
28	0xbb456e35	-0.0030125503
29	0xbc34f2a9	-0.011044183
30	0x3b71c1f8	0.0036889296
31	0x3b4858cc	0.0030570505
32	0x3beb0c6a	0.0071731107
33	0x3addc200	0.0016918778
34	0xbc252e68	-0.010081865
35	0x3b596ee8	0.0033177678
36	0xbbef8909	-0.007310037
37	0x3c191121	0.009342463
38	0x3c0848c7	0.008318133
39	0x3b953a8e	0.0045540994
40	0x3baa777a	0.005202231
41	0x3b65095f	0.0034948213
42	0xbc0a48fc	-0.008440252
43	0x3b6cc670	0.003612902
44	0xba55a7cd	-0.00081503094
45	0x3a178c9f	0.0005781147
46	0x3b974785	0.00461668
47	0xbaf4b23c	-0.0018668841
48	0xbaba2190	-0.0014200676
49	0xba90d905	-0.0011051005
50	0xbaaca408	-0.0013171444
51	0xbab2044e	-0.0013581605
52	0xbbb67328	-0.005567927
53	0x3c026aa7	0.007959998
54	0xbc04fe9c	-0.008117344
55	0x3c1058dd	0.008810249
56	0xbbbd1d1f	-0.005771294
57	0xbb778b4f	-0.0037772243
58	0x3a4055e0	0.0007337015
59	0x3c4956b5	0.012288739
60	0xbc158cec	-0.009127837
61	0x3b088a01	0.002083421
62	0xbb9ea348	-0.004841242
63	0xbb95add9	-0.0045678434
64	0x3bcca03a	0.0062446864
65	0x3c673c85	0.01411355
66	0x3b4941a5	0.0030709293
67	0xbbd0bfca	-0.0063705193
68	0x3a9e466b	0.001207543
69	0x3bbed7b5	0.005824054
70	0xbaa6fae4	-0.0012739566
71	0x3c1de36b	0.00963674
72	0xbb77e791	-0.0037827233
73	0x3baf5131	0.005350255
74	0xbc01b0b1	-0.007915662
75	0x3b936d97	0.004499148
76	0xbc2be43c	-0.010491427
77	0xbb38f2c5	-0.0028220874
78	0xbc44d227	-0.012012995
79	0xbbc6dd68	-0.006068874
80	0x3b19a164	0.0023442144
81	0xbb940be3	-0.0045180186
82	0xbc120fb5	-0.008914878
83	0xbae4b932	-0.0017450212
84	0xba4a4680	-0.0007716194
85	0x39d893e8	0.0004130893
86	0x3b335584	0.0027364204
87	0x3afcac28	0.0019277381
88	0x3bb8550e	0.0056253737
89	0x3ba79206	0.005113843
90	0xbb28c513	-0.002575223
91	0x3c6ca3ad	0.01444332
92	0xbb181f34	-0.0023211958
93	0xbbc400b7	-0.0059815305
94	0x3caf2ad0	0.02138272
95	0x3b85642d	0.00407078
96	0xbbf712d0	-0.0075400844
97	0x3bb9be62	0.0056684474
98	0x3bd9656c	0.006634405
99	0x3b0fd036	0.0021944172
100	0x3bb514ca	0.00552616
101	0x3b71baf3	0.0036885112
102	0x3c4f9b20	0.012671262
103	0xbbb8c106	-0.0056382446
104	0x3c49b71d	0.012311724
105	0x3c1aca66	0.00944767
106	0xbb68b558	-0.003550848
107	0xbc6979ae	-0.014250202
108	0x3c2050d4	0.009784896
109	0xbb15c960	-0.0022855625
110	0xbbc5b61c	-0.006033672
111	0xbb2cbc62	-0.0026357402
112	0x3c1bca02	0.009508612
113	0xbc50261e	-0.0127044
114	0x3c593d41	0.013259233
115	0xbc318233	-0.010834265
116	0xba14618b	-0.0005660287
117	0xbbcd0248	-0.0062563755
118	0xbba46e63	-0.005018042
119	0x3c5ca723	0.013467583
120	0x3c44910a	0.011997471
121	0x3b3159bb	0.002706154
122	0xba44781d	-0.0007494705
123	0x3bdda508	0.006764058
124	0x3bdf56a2	0.0068157474
125	0xbb4c0394	-0.0031130062
126	0x3aa48c71	0.0012554062
127	0x3c1fcc53	0.0097533045
128	0x3c2ce631	0.010552929
129	0xbb9a780c	-0.0047140177
130	0x3b70eb21	0.0036761241
131	0x3bc21e86	0.005924049
132	0xb92dc206	-0.00016570845
133	0xbc8d9f80	-0.01728797
134	0x3c5d829c	0.013519909
135	0x3c083fc2	0.008315982
136	0x3c0e3339	0.008679205
137	0x3bcbf938	0.0062247775
138	0xbc23d211	-0.009998814
139	0xbbad9ad4	-0.005297998
140	0xbafe1c13	-0.0019387029
141	0x3bf2747d	0.0073991404
142	0xbc1c55d6	-0.009541949
143	0x3b5c6955	0.0033632119
144	0x39b0371d	0.00033610399
145	0xbbf1c327	-0.0073780003
146	0xb8dce40a	-0.00010532893
147	0xbc1e0e4c	-0.009646963
148	0xbb291531	-0.0025799985
149	0xbc45b203	-0.012066367
150	0xbc0eb680	-0.008710504
151	0x3b7146a8	0.0036815796
152	0x3c257cd1	0.010100559
153	0x3b957c9f	0.004561975
154	0xbbd4f376	-0.0064987494
155	0xbc48dafa	-0.012259239
156	0xbac1849f	-0.0014764256
157	0x3c2a7708	0.010404356
158	0xb948d7d7	-0.00019153893
159	0x3b885bd7	0.004161339
160	0xbb99e1ca	-0.0046961056
161	0xb9a6c993	-0.00031812172
162	0xbc75d9fe	-0.015005587
163	0x3ac64422	0.0015126506
164	0x3c8c1253	0.017098581
165	0x3bfed2fc	0.007776616
166	0x3b90ed3a	0.004422811
167	0xbb91141b	-0.0044274456
168	0x3b095eac	0.002096097
169	0x3b916bf6	0.004437919
170	0xbabb5a71	-0.0014293921
171	0xbb2709b6	-0.0025487966
172	0x3c454aea	0.012041787
173	0x3c5d3e43	0.013503614
174	0x3c0e9cc7	0.008704371
175	0xbbc57a24	-0.006026523
176	0xb976e160	-0.00023544347
177	0x3c36c3d8	0.011155091
178	0xbc0f2f41	-0.008739294
179	0x3b19801b	0.0023422304
180	0x3b0c1178	0.0021372717
181	0x3c06a0af	0.008217021
182	0x3b894c0c	0.0041899737
183	0x3c5b633d	0.0133903595
184	0x3bc479f1	0.005995982
185	0x3b1bf2ee	0.002379592
186	0xbb919d8f	-0.0044438313
187	0x3c051d89	0.0081247175
188	0xbc7dd3c6	-0.015492385
189	0x3c453802	0.012037279
190	0xbb180e57	-0.0023201907
191	0x3ba36b42	0.0049871514
192	0x3c975169	0.018471437
193	0xbb1c8058	-0.002388021
194	0xbb291d3b	-0.0025804776
195	0xbc351185	-0.01105154
196	0xb923da7c	-0.00015626283
197	0xbbe6fafe	-0.0070489636
198	0xbb80cdf3	-0.003930801
199	0x3becaaac	0.007222494
200	0xbc84a8f2	-0.01619384
201	0x3c7cf79e	0.015439896
202	0xbb7a960a	-0.0038236403
203	0xbbb960c9	-0.0056572896
204	0x3b2c3a18	0.0026279744
205	0xbc08d808	-0.008352287
206	0xbc21d564	-0.009877536
207	0x3c14e2eb	0.009087305
208	0xbb867cf1	-0.0041042496
209	0x3c1bbe2d	0.009505791
210	0xbaedb43b	-0.0018135378
211	0x3b6c0b2c	0.00360174
212	0x3ba89aa5	0.005145388
213	0x379d4346	1.8747185e-05
214	0x3ad18bfe	0.0015987155
215	0xbbe987e3	-0.0071267947
216	0x3ba6a124	0.0050851274
217	0xbb6941f5	-0.0035592292
218	0x3b437f00	0.0029830337
219	0x3b8d0e45	0.0043046796
220	0x3b475261	0.0030414092
221	0x3c235f33	0.009971428
222	0xbc0b810a	-0.008514652
223	0xbb4608cc	-0.0030217646
224	0x3c90d186	0.017678034
225	0xbb378809	-0.0028004667
226	0xbb89e913	-0.004208693
227	0xbb2ca6cb	-0.0026344534
228	0x3bd7e01b	0.0065879948
229	0x3979f20a	0.00023836657
230	0x3c269a5a	0.010168636
231	0x3c9ec623	0.019381588
232	0x3c4b6a5e	0.012415497
233	0xbbfe7f0b	-0.0077666095
234	0xbbc59a93	-0.0060303896
235	0x3c6b36bc	0.014356311
236	0x3c477dd2	0.012175994
237	0x37d6ae38	2.5591915e-05
238	0x3c37adbd	0.011210856
239	0xbb940f3d	-0.004518418
240	0xbc55a314	-0.013039369
241	0xb96c1cae	-0.00022517398
242	0x3c15b7bb	0.009138043
243	0xba56c1d4	-0.0008192335
244	0x3bb45506	0.0055032996
245	0xbb3ecd4d	-0.0029114068
246	0x3c21adb3	0.009868073
247	0xb8094fd0	-3.2737677e-05
248	0x3abb598c	0.0014293655
249	0xba30f490	-0.000675031
250	0x3c07e7fc	0.0082950555
251	0x3bf58325	0.0074924403
252	0xb9f81814	-0.00047320186
253	0x3bb6267b	0.0055587864
254	0x3c3b71ee	0.011440737
255	0x3b87abde	0.004140361

network_body._body_endoder.seq_layers.4.weight f4 [256, 256]
0	0x3a8db096	0.0010810073
1	0x3d813dd1	0.06310619
2	0x3d435922	0.047692426
3	0xba73d091	-0.0009300793
4	0x3ce9a6dd	0.02852195
5	0x3d8d1e03	0.0689049
6	0xbe080ccc	-0.13286132
7	0xbc30a80d	-0.010782254
8	0xbcb4a7e6	-0.022052716
9	0xbc77caf9	-0.015124076
10	0xbd8aed84	-0.06783584
11	0x3d630787	0.0554271
12	0x3d81e222	0.063419595
13	0xbdff5713	-0.1246778
14	0x3da61977	0.08110326
15	0x3c0ae0f2	0.008476483
16	0xbd0b24a7	-0.0339705
17	0xbd8fd2d2	-0.07022633
18	0xbdd79cee	-0.10527979
19	0x3d6bd91f	0.05758011
20	0xbd0eefd5	-0.03489669
21	0xbbea485e	-0.00714974
22	0xbc63b99d	-0.013899234
23	0x3b9552a5	0.004556971
24	0x3c262dc0	0.010142744
25	0x3d31f1b4	0.043443397
26	0x3d7e35a5	0.06206288
27	0x3db5b1ed	0.08871827
28	0xbc8ca07d	-0.01716637
29	0x3c99d3ed	0.018777812
30	0xbd968076	-0.07348721
31	0x3d4da760	0.05020845
32	0x3d70690b	0.058693927
33	0xbd2f5fe2	-0.04281605
34	0xbd0b90a9	-0.034073506
35	0x3c4b4fbf	0.01240915
36	0x3bb88c9d	0.005631997
37	0x3d56fb4f	0.05248576
38	0xbd52b5b0	-0.051442802
39	0x3d162da8	0.036664635
40	0xbda47e50	-0.08031905
41	0xbd3a4228	-0.045473248
42	0x3c9e99d1	0.019360455
43	0x3d8296e0	0.06376433
44	0xbd5e628f	-0.05429321
45	0x3d75a358	0.05997023
46	0xbdee16c8	-0.11625439
47	0xbdbd9a48	-0.092579424
48	0x3e05ee42	0.1307917
49	0xbd2121c5	-0.039338846
50	0x3d82137b	0.06351372
51	0x39614520	0.00021483423
52	0x3dc951f6	0.09830086
53	0x3d1ef85e	0.03881108
54	0xbcf22578	-0.029558882
55	0x3df0ec08	0.117637694
56	0x3ca5a00c	0.020217918
57	0x3c609359	0.013707005
58	0x3cf046d4	0.029330648
59	0x3d46c7fd	0.048530567
60	0x3c0c2adb	0.008555139
61	0xbdc12c3b	-0.094322644
62	0x3c90bd8c	0.017668508
63	0x3d2a3616	0.041555487
64	0xbcd7749a	-0.026300717
65	0x3de96268	0.11395723
66	0x3d93f045	0.07223562
67	0xbb1c43c0	-0.0023844093
68	0xbd4d3b05	-0.050105114
69	0x3d84bf1a	0.06481762
70	0x3c9af701	0.018916609
71	0x3e0ccbec	0.13749665
72	0xbe04b46f	-0.12959455
73	0xbc92a328	-0.017900065
74	0x3ccb75ad	0.024836386
75	0x3c2d824e	0.010590149
76	0xbd4d80ed	-0.05017178
77	0xbe33f0bf	-0.17572306
78	0xbc47f4e9	-0.012204387
79	0x3d5a2f5c	0.05326782
80	0x3d2b2fa1	0.04179347
81	0x3b7c3d87	0.0038488822
82	0x3d725980	0.059167385
83	0x3d873bee	0.066032276
84	0xbdc245fa	-0.09486003
85	0xbd13d2ea	-0.036089815
86	0x3c174859	0.009233558
87	0xbd336e23	-0.043806206
88	0x3d92cf86	0.07168488
89	0xbd02c3b8	-0.031924933
90	0xbd2cc0e0	-0.042176127
91	0xbd6ffc1b	-0.058590036
92	0x3cef1e5d	0.029189283
93	0x3e19e8af	0.15030168
94	0x3dbab81e	0.09117149
95	0x3d32e1c2	0.04367233
96	0x3be12821	0.006871239
97	0x3d3d7ef2	0.046263643
98	0x3c5e0e06	0.013553148
99	0x3d29e6c9	0.04147986
100	0x3d89edcb	0.067348085
101	0x3df528b6	0.119706556
102	0x3d6da142	0.058015116
103	0xbb89b4ac	-0.004202446
104	0xbd3f6841	-0.046730284
105	0x3da1612a	0.07879861
106	0x3b3a6e34	0.0028447034
107	0xbca58b85	-0.02020813
108	0xbdc14f60	-0.09438968
109	0x3c9fe124	0.019516535
110	0x3d43927b	0.047747117
111	0xbcf7fec6	-0.030272853
112	0xbc34a1c5	-0.011024897
113	0x3dab73ed	0.083717205
114	0x3d729e29	0.059232865
115	0x3c303c43	0.010756555
116	0xbd182ee8	-0.03715411
117	0x3ac1de6c	0.0014791018
118	0xbc9126e2	-0.017718736
119	0xbd252305	-0.0403166
120	0x3d905213	0.070469044
121	0xbbb86639	-0.0056274203
122	0xbc940471	-0.018068524
123	0xbd6fb3a5	-0.05852093
124	0x3cc054e7	0.023477985
125	0xbb517be8	-0.0031964723
126	0xbd938fcf	-0.07205164
127	0xbd4a3509	-0.049366985
128	0x3d6a5345	0.05720832
129	0x3bccd29f	0.006250694
130	0x3d734b88	0.059398204
131	0xbd00bb94	-0.03142889
132	0xbc46af4c	-0.012126755
133	0xbadae65f	-0.0016700736
134	0x3d232461	0.039829616
135	0xbc0c4e65	-0.008563613
136	0xbca2f8ed	-0.019894088
137	0xbb46d91c	-0.003034181
138	0x3d5c705b	0.053818088
139	0x3d7246b8	0.059149474
140	0xbd25e6d8	-0.040503353
141	0xbd98b429	-0.07456238
142	0x3d351029	0.044204865
143	0xbd97659f	-0.073924296
144	0xbcefb9b1	-0.02926335
145	0x3dd25c53	0.10271516
146	0x3d9f6ed7	0.07784813
147	0xbdf01a44	-0.1172376
148	0xbc150a5b	-0.009096707
149	0x3d0c2756	0.0342172
150	0x3d7d2915	0.061806757
151	0xbe1303aa	-0.14356866
152	0xbd70218c	-0.058625743
153	0xbd106b56	-0.035258614
154	0xbd026660	-0.031835914
155	0x3db08ac9	0.08620221
156	0x3cb6365b	0.022242716
157	0x3d200067	0.039062884
158	0xbd6b0ae6	-0.05738344
159	0xbd664737	-0.05622026
160	0x3d6f5a53	0.05843575
161	0x3db4ea3e	0.08833741
162	0x3d79b319	0.060961816
163	0x3d4baab5	0.049723346
164	0xbd92a373	-0.07160082
165	0xbde31dd4	-0.11089674
166	0xbd209fd7	-0.039214935
167	0x3d094824	0.033516064
168	0xbd5b4537	-0.053532805
169	0x3c97a26a	0.018510062
170	0x3d48ceca	0.049025334
171	0xbcfc84c4	-0.030825026
172	0xbd376f6d	-0.044784
173	0x3ceb0812	0.028690372
174	0xbe141f1c	-0.14464992
175	0x3dbf681d	0.0934603
176	0x3d269aa1	0.04067481
177	0xbe0d2f9b	-0.13787691
178	0xbda72c57	-0.08162754
179	0xbd335582	-0.04378272
180	0xbbe45895	-0.0069685676
181	0x3dfe98d6	0.12431495
182	0x3b136566	0.0022490858
183	0xbbb02f99	-0.005376768
184	0xbd8271b5	-0.06369344
185	0x3db83634	0.089947134
186	0xbd5d4a2f	-0.054025825
187	0x3dfc4350	0.12317526
188	0xbb9609d4	-0.0045788083
189	0xbc602315	-0.013680239
190	0x3cb14b21	0.02164227
191	0xbbb1fa1a	-0.0054314258
192	0xbbad3943	-0.005286367
193	0x3d57aa00	0.05265236
194	0xbd2b09d5	-0.041757423
195	0x3b83d963	0.0040237173
196	0x3d8dee08	0.069301665
197	0xbbdd7d80	-0.0067593455
198	0xbcc28619	-0.023745583
199	0xbdf2e6ca	-0.11860426
200	0xbd1fba86	-0.038996242
201	0xbd3b7c64	-0.045772925
202	0x3dc78aba	0.09743257
203	0xbc86e7f7	-0.016468031
204	0xbd5925b4	-0.053014472
205	0x3de75d76	0.11297123
206	0xbdbe1571	-0.092814334
207	0xbb8e4d32	-0.0043426985
208	0x3e03f012	0.12884548
209	0x3cd86fd1	0.026420506
210	0x3d51f02e	0.051254444
211	0x3d623c5e	0.055233352
212	0xbd940ad8	-0.07228631
213	0xbc916044	-0.017746098
214	0xbd36a764	-0.04459323
215	0xbdaaf0f1	-0.08346737
216	0xbe07e612	-0.13271359
217	0x3d2594f0	0.04042524
218	0x3cd751bf	0.026284097
219	0xbb3e518c	-0.0029040305
220	0x3d97f21a	0.07419224
221	0x3b812ac8	0.0039418675
222	0xbc39cbd0	-0.011340097
223	0xbac00821	-0.001465086
224	0xbddcc7c0	-0.10780287
225	0x3d0a2393	0.033725332
226	0xbccb8e17	-0.024848027
227	0xbcb7481e	-0.022373255
228	0xbdf1d0e4	-0.11807421
229	0x3de46b6e	0.11153303
230	0x3cd82a46	0.026387345
231	0xbc6c8277	-0.014435402
232	0xbd3ba625	-0.045812745
233	0x3bac7649	0.005263124
234	0xbd88be2c	-0.066768974
235	0x3d7be7d8	0.0615004
236	0xbddae891	-0.1068889
237	0xbdca78f9	-0.09886355
238	0xbe2a51a7	-0.1663271
239	0xbd8e56db	-0.0695016
240	0xbce57808	-0.028011337
241	0xbd37a022	-0.04483045
242	0xbd9351e0	-0.07193351
243	0xbd6a0e28	-0.057142407
244	0xbd7180d3	-0.058960747
245	0x3d8afabf	0.06786107
246	0xbd88b411	-0.0667497
247	0xbd5d171f	-0.053977128
248	0x3bb414d6	0.005495648
249	0x3c83d01a	0.016090441
250	0x3dae34b3	0.08506145
251	0xbd871d17	-0.06597345
252	0x3dc08030	0.0939945
253	0xbccc1b0d	-0.024915243
254	0xbd8b7450	-0.06809294
255	0x3c80c60a	0.015719432

network_body._body_endoder.seq_layers.4.bias f4 [256]
0	0xbc1e8040	-0.009674132
1	0x3c31e0be	0.010856805
2	0x3badc606	0.0053031472
3	0xbb811582	-0.0039393315
4	0x3aa45cca	0.001253986
5	0x3b839b37	0.004016306
6	0xbc53fc8d	-0.012938631
7	0xbc40f613	-0.011777419
8	0x3b258933	0.002525878
9	0x3c85511e	0.016274031
10	0x3b4a8b8e	0.0030905935
11	0xb98784a5	-0.00025848034
12	0x38e6cf32	0.00011005848
13	0xbc3a5250	-0.011372164
14	0x3bacecdd	0.0052772597
15	0x3c132cfd	0.008982894
16	0xbb5c8fca	-0.003365504
17	0xbb4f6598	-0.0031646248
18	0xbc02dcfe	-0.007987259
19	0x3c3d5552	0.0115559865
20	0x3b8d48bb	0.0043116487
21	0x3c3e3813	0.011610049
22	0x3c935b3b	0.017987838
23	0xbac92a85	-0.0015347755
24	0xbb15472a	-0.0022778013
25	0xbbb27906	-0.005446556
26	0xbbdc7a0f	-0.0067284177
27	0x3c675426	0.014119184
28	0x3ba378c0	0.0049887598
29	0x3c351813	0.011053103
30	0x3c00c8ad	0.007860345
31	0x3bb87c67	0.0056300643
32	0x3a908687	0.001102642
33	0x398a1ce0	0.00026342925
34	0xbbcf2e34	-0.0063226465
35	0xbb27a27f	-0.0025579033
36	0xba9c04ac	-0.0011903248
37	0x3bd64eb1	0.0065401425
38	0xbc584467	-0.013199902
39	0xbc01169a	-0.007878924
40	0x3b075fd8	0.0020656493
41	0x3be63701	0.0070256
42	0xbc312d53	-0.010814029
43	0x3c6a6db6	0.014308384
44	0x3b0915a6	0.0020917444
45	0x3b44c6f7	0.003002582
46	0xbc09c436	-0.008408597
47	0xb9310906	-0.00016883397
48	0x399fbf16	0.00030469213
49	0xbc33b688	-0.010968812
50	0x3ad8b5b7	0.0016533647
51	0x3abbe4ff	0.0014335214
52	0x3bd8172a	0.0065945582
53	0x3b53e727	0.0032333822
54	0xbb6d169b	-0.0036176804
55	0x3c228c20	0.009921104
56	0xbb6bbccb	-0.0035970684
57	0xb9ade5a4	-0.00033168227
58	0x3ada25d4	0.0016643354
59	0xbc80e5d6	-0.015734594
60	0x3c1d0cbc	0.009585556
61	0x39f5d285	0.0004688689
62	0xbb1af6d4	-0.0023645656
63	0xbb1026c2	-0.0021995758
64	0x3a061c61	0.0005115923
65	0xbc29bd9e	-0.01036015
66	0xbc06bbed	-0.008223516
67	0x3c5312a6	0.012882864
68	0xbc6d278e	-0.014474763
69	0xb99498da	-0.00028342643
70	0xbc228e63	-0.009921643
71	0x3bc96f97	0.0061473357
72	0x3a932fe7	0.0011229486
73	0xbc6e3cf5	-0.0145409005
74	0x3c4441f4	0.011978615
75	0x3bb33de9	0.0054700268
76	0x3c1d5768	0.009603359
77	0x3b25f9eb	0.0025325965
78	0x3c3e506a	0.011615852
79	0x3b300cac	0.0026863022
80	0x3a937fb9	0.0011253274
81	0x3b8f56e8	0.0043743737
82	0x3bf4fc5e	0.0074763736
83	0xbbae85e9	-0.005326022
84	0x3a0f3b67	0.0005463869
85	0x3bf19c3b	0.0073733605
86	0x3b2ef3e3	0.002669566
87	0x3c19db56	0.009390673
88	0x3c15420c	0.009109985
89	0xbb99d533	-0.004694605
90	0x39ec6d58	0.00045094895
91	0x3bc1e0a3	0.0059166714
92	0x3b44b8b0	0.003001731
93	0x3c09e438	0.008416228
94	0x3b484aff	0.003056228
95	0xbc46ebf3	-0.012141216
96	0xbbb2daa4	-0.005458193
97	0xbc2d3621	-0.010571987
98	0xbb671499	-0.003526008
99	0x3cc0a45e	0.023515876
100	0x3c01b17a	0.007915849
101	0x3bae4693	0.0053184717
102	0x3ad7b4d4	0.0016457089
103	0xbc2844e3	-0.01027033
104	0xbc35ff49	-0.011108228
105	0xbbbb8b28	-0.005723376
106	0x3b7cea8c	0.003859195
107	0xbad95b5a	-0.0016583011
108	0xbc316f3a	-0.010829741
109	0x3c074251	0.008255557
110	0xbc49d65f	-0.012319176
111	0xbbd54f33	-0.0065096854
112	0xbaea01f8	-0.001785337
113	0xbc0a0ebc	-0.0084263645
114	0x3c152a76	0.009104362
115	0x3c0d104f	0.008609845
116	0x38fd6fb2	0.00012084785
117	0xb72d2104	-1.0319291e-05
118	0xbbdb64be	-0.006695359
119	0x3c3db085	0.01157773
120	0x3b2b12fe	0.002610385
121	0x3b879415	0.004137526
122	0xba208800	-0.0006123781
123	0xbb9cd978	-0.0047866665
124	0x3c5cffb5	0.0134887
125	0xbc4b0057	-0.012390218
126	0x3c0e55d9	0.00868746
127	0x3b257fd8	0.0025253203
128	0x3c00c3bd	0.007859168
129	0xbb883189	-0.0041562957
130	0xbbdd5545	-0.0067545497
131	0x3b02f575	0.001998273
132	0x3ac17933	0.0014760852
133	0x3bf0272e	0.0073288893
134	0xbc322d55	-0.010875066
135	0x39d8bf94	0.00041341467
136	0xbc2871eb	-0.010281066
137	0xbba5d467	-0.0050607207
138	0xbbf88103	-0.007583739
139	0x3c844ace	0.01614895
140	0xbbc48918	-0.005997788
141	0xbbaaa8ca	-0.0052081095
142	0xbb8438c7	-0.0040350887
143	0x3be43f24	0.0069655348
144	0xba28e17e	-0.00064422924
145	0xbba19357	-0.0049308944
146	0x3af4ba3e	0.0018671227
147	0x3c7ed7b3	0.015554356
148	0xbc90518c	-0.01761701
149	0xbc47365d	-0.012158957
150	0x3bc0c403	0.0058827414
151	0x3836c1f0	4.35728e-05
152	0xba924bf9	-0.0011161558
153	0xbbb4046d	-0.0054936917
154	0x3bc6786d	0.0060568363
155	0xbc4c7376	-0.0124787
156	0x3af1ae89	0.0018438856
157	0x3bd7a0ef	0.006580464
158	0xbc57e4e2	-0.0131771285
159	0xb99f6b66	-0.0003040686
160	0xbbdb43ab	-0.0066914163
161	0xbb87a423	-0.0041394397
162	0xbbfe5ae5	-0.0077623003
163	0xbbf3f41d	-0.007444872
164	0x3bd7c380	0.0065845847
165	0xbb9ea808	-0.004841808
166	0x3bed5336	0.0072425855
167	0xba987ff1	-0.0011634809
168	0x3af74596	0.0018865343
169	0x3c446183	0.011986139
170	0x3bff2c73	0.007787281
171	0xbbe7afe2	-0.0070705274
172	0xbb06b329	-0.0020553565
173	0x3b199b30	0.0023438446
174	0xbbcba646	-0.0062148897
175	0xba8b971e	-0.0010649895
176	0xba6c4c92	-0.00090140954
177	0xbb1ecd5e	-0.0024231295
178	0xbc684235	-0.014175941
179	0x3c942bc3	0.018087273
180	0x3bddb573	0.006766015
181	0x3c47a5ad	0.012185496
182	0xbaf4a4e3	-0.0018664863
183	0x3c2e1053	0.010624009
184	0xbbfa80d4	-0.007644752
185	0x3b22a93f	0.0024820117
186	0x3ba9a053	0.005176583
187	0xbaf3b6ef	-0.0018593947
188	0xbb86c9fe	-0.004113435
189	0x3bd87003	0.0066051497
190	0x3b241f1d	0.002504296
191	0xbbc61e44	-0.0060460884
192	0x3c4237c3	0.011854115
193	0x3b04c333	0.002025795
194	0x3c2823ec	0.010262471
195	0xbb2a61bd	-0.0025998198
196	0xbb9f3c82	-0.004859508
197	0xb99111b8	-0.00027669757
198	0x3808582c	3.2507043e-05
199	0xbad22aea	-0.0016034518
200	0x3c5e7b11	0.013579146
201	0xba8a3483	-0.0010544214
202	0xbb35f1b1	-0.0027762468
203	0x3c40bb9b	0.011763479
204	0xbb786527	-0.0037902088
205	0xbb9b8c19	-0.0047469256
206	0xba434bb2	-0.0007449939
207	0x3c03d09f	0.008045345
208	0x3c2179c1	0.009855689
209	0x3be9cf2a	0.0071352916
210	0xbb95a104	-0.0045663137
211	0xbb094a8c	-0.0020948974
212	0xbb7c9a3d	-0.0038544082
213	0x3c2a02e9	0.01037667
214	0xbc2aab89	-0.010416874
215	0x3b6293cd	0.003457296
216	0x3c0f0087	0.008728153
217	0x3bb8fae3	0.0056451424
218	0x3be358f9	0.0069380966
219	0x3b656e67	0.0035008432
220	0xbb258501	-0.0025256278
221	0xbbbaf255	-0.0057051578
222	0x3c4c7309	0.012478598
223	0x3bbcbe2e	0.005759976
224	0x3a1a974c	0.0005897179
225	0xba7415f8	-0.0009311135
226	0xbbf105ea	-0.0073554413
227	0x3ba52041	0.0050392454
228	0x3bbd4777	0.0057763415
229	0xbb8aea18	-0.004239332
230	0x3b85832d	0.0040744753
231	0x3b5ee567	0.0034011246
232	0x3bf021ca	0.0073282467
233	0xbbc89472	-0.0061212117
234	0xbc2c4452	-0.010514336
235	0x3b58bc6e	0.0033071297
236	0xbbe0a3c0	-0.006855458
237	0xbc1f8d67	-0.009738303
238	0x3bb63094	0.00555999
239	0x3aa6d677	0.001272871
240	0x3be3c132	0.006950521
241	0xbb8683ca	-0.004105066
242	0xbc0e3ea6	-0.008681929
243	0x3b9b1539	0.0047327545
244	0x3b668adb	0.003517798
245	0x3c62f125	0.013851439
246	0x3a28e5ab	0.00064429146
247	0x3aab5d11	0.0013074001
248	0xbbbf86ad	-0.005844912
249	0x3c1bac8d	0.0095015885
250	0xbba96013	-0.0051689236
251	0x3b060909	0.0020452163
252	0xbbae3da3	-0.0053174063
253	0x3bf91e71	0.007602506
254	0x382ca8d1	4.1165218e-05
255	0x3bca86e0	0.006180629

action_model._continuous_distribution.log_sigma f4 [1, 6]
0	0xbc97e74a	-0.018542904
1	0xbced5699	-0.028971957
2	0xbbf4256d	-0.0074507506
3	0xbbfbb3cc	-0.0076813456
4	0xbb1531ff	-0.0022765396
5	0x3b9ca808	0.004780773

action_model._continuous_distribution.mu.weight f4 [6, 256]
0	0xba94d4b1	-0.0011354891
1	0xbbc2b559	-0.0059420285
2	0x3c05bc5f	0.008162587
3	0x3be75779	0.007059988
4	0x3d31937f	0.043353554
5	0x36bd4780	5.6409626e-06
6	0xbbfd5dbe	-0.007732122
7	0xbc10d2fd	-0.008839366
8	0xbc8043a3	-0.015657252
9	0xbc976dfc	-0.018485062
10	0xbc8fcf8d	-0.017555023
11	0xbc4ea52e	-0.012612624
12	0x3bda9fab	0.006671866
13	0x3c33b70a	0.010968933
14	0xbcc33b01	-0.023831846
15	0xbd03c14b	-0.03216676
16	0xbac1323e	-0.0014739705
17	0xbbe2cbed	-0.0069212825
18	0xbc153ed5	-0.009109219
19	0xbc9577c3	-0.018245583
20	0xbb67b892	-0.0035357815
21	0x3b1c4914	0.002384727
22	0xbca498db	-0.020092418
23	0x3c7dc403	0.015488627
24	0x3c8f7594	0.01751212
25	0x3cedc4c1	0.029024484
26	0x3c4b506e	0.012409313
27	0xbaeab8a4	-0.001790781
28	0xbc81157d	-0.015757317
29	0x3b8eba1a	0.004355681
30	0xbc61d13e	-0.013782797
31	0xba30adcf	-0.00067397667
32	0x3c85fb63	0.016355222
33	0xbc781d68	-0.01514373
34	0x3c6214b6	0.013798883
35	0x3cc01bf0	0.023450822
36	0x3ba74ee4	0.00510584
37	0x3b8e8873	0.004349762
38	0xbb4a817a	-0.0030899928
39	0x3cc1b635	0.023646453
40	0xb96daab6	-0.00022665676
41	0xbc92e3c1	-0.017930867
42	0x3a4f56a7	0.00079093355
43	0xbbd5dccf	-0.0065265666
44	0xbc3a4394	-0.011368651
45	0xbc23fe42	-0.01000935
46	0xbb9218cb	-0.004458522
47	0x3c81299e	0.015766915
48	0xbbbd969d	-0.005785777
49	0x3ba1b032	0.004934334
50	0x3c1f9599	0.009740257
51	0xbc9d1f5a	-0.019179989
52	0xbcde856c	-0.02716323
53	0x3ce8f38c	0.028436445
54	0xbb2a8660	-0.0026020035
55	0x3c402762	0.01172814
56	0xba25ab1d	-0.00063197484
57	0x3a8e8728	0.001087402
58	0x3c05b653	0.008161145
59	0x3ca029ea	0.019551236
60	0xbcb6b924	-0.022305079
61	0xbc6cd8fe	-0.014456032
62	0xbc34eea6	-0.011043226
63	0x3cac70e6	0.021049928
64	0xbbe12b89	-0.006871645
65	0x3b80b4b6	0.0039277924
66	0x3b555d58	0.0032556858
67	0x3bf7893b	0.007554201
68	0x3c70e1db	0.014702286
69	0x3c8e4d68	0.017370895
70	0x3c5f1e7c	0.013618108
71	0xbc567764	-0.013089988
72	0x3b3d0f6a	0.0028848299
73	0x3c4ffce0	0.012694567
74	0xbbdf73ba	-0.0068192156
75	0xbbcfc9bf	-0.0063411887
76	0xbbdc4cb2	-0.00672301
77	0x3bf8ec07	0.007596496
78	0xbcbae9d7	-0.022816582
79	0x3d04a86b	0.03238718
80	0xbc90ac97	-0.017660422
81	0xbc669615	-0.014073868
82	0x3b36814a	0.0027848058
83	0xb9e77f20	-0.0004415447
84	0xbb0a22e4	-0.0021077925
85	0xbca90cc4	-0.02063597
86	0x3c526cde	0.012843339
87	0xbc50c04f	-0.012741162
88	0xbcccaba5	-0.02498419
89	0x3c4505cc	0.012025308
90	0x3c8e8d79	0.017401444
91	0x3c8856c1	0.01664293
92	0xbc6f3708	-0.014600523
93	0xbb9928cd	-0.0046740533
94	0xbb54d1da	-0.0032473714
95	0x3c941f1d	0.018081242
96	0xbb986666	-0.0046508787
97	0x3c863451	0.016382368
98	0x3cc7133e	0.024301168
99	0xbb5e79cd	-0.003394711
100	0x3c107f1c	0.008819368
101	0xbc0e8431	-0.008698509
102	0xbbe8b45c	-0.0071015786
103	0x3c8f23ef	0.01747319
104	0x3b995b49	0.0046800715
105	0x3c8bdbcb	0.017072579
106	0x3d0187a4	0.031623498
107	0x3c1745d8	0.009232961
108	0x3c098237	0.008392862
109	0xbc85c91d	-0.01633125
110	0x3c9f1f8a	0.019424219
111	0x3b1f393b	0.0024295587
112	0x3c70d442	0.014699044
113	0x3c1c64cc	0.009545516
114	0xba1e65ba	-0.000604238
115	0xbcae7d62	-0.021300022
116	0x3c8490d1	0.016182335
117	0x3c6c2daf	0.014415189
118	0x3cb59ff8	0.022171006
119	0xbd0357e8	-0.032066256
120	0xbc8fb241	-0.017541053
121	0x3aa799c0	0.001278691
122	0x3c630b90	0.013857737
123	0x3c8325a8	0.016009167
124	0xbceeef51	-0.02916685
125	0x3c11a328	0.008888997
126	0xbcfa6792	-0.030566964
127	0x3b4df6bc	0.0031427583
128	0xbcbd8664	-0.023135372
129	0x3c9cd494	0.019144334
130	0x3c343915	0.010999938
131	0x3ac6dfb5	0.0015172871
132	0x3b69fc24	0.0035703266
133	0xbba2ed2a	-0.00497212
134	0x3d0cedfa	0.03440664
135	0xbc875be1	-0.016523303
136	0x3ce16133	0.027512169
137	0x3c86e2cf	0.016465573
138	0xbb3f863d	-0.00292243
139	0xbce43c99	-0.027860926
140	0x3b513482	0.0031922166
141	0xbbcbc6c8	-0.006218765
142	0x3cbc30ee	0.02297255
143	0x3abe9461	0.001454007
144	0xbb821451	-0.003969707
145	0x3c021828	0.00794033
146	0x3bee0723	0.0072640344
147	0xbce3ddab	-0.02781566
148	0x3caa731d	0.020806843
149	0x3a5fee35	0.00085422705
150	0xbad987fe	-0.0016596315
151	0x3cd521ca	0.026017088
152	0xbac4af49	-0.0015005852
153	0x3bbf90a4	0.0058461
154	0xbc0614f6	-0.008183708
155	0x3c5d32b6	0.01350086
156	0x3bf69ea5	0.007526236
157	0x3b859188	0.0040761866
158	0x3cb9e8a3	0.022693938
159	0xbc5265cd	-0.012841654
160	0xbc586f1d	-0.013210085
161	0x3d073750	0.033011734
162	0x3c8638c7	0.016384495
163	0xbb256035	-0.0025234346
164	0xbc8629d7	-0.016377373
165	0xbb54585d	-0.0032401301
166	0xbc7b541b	-0.0153398765
167	0x3c966a8c	0.018361352
168	0xbaebb180	-0.0017981976
169	0xbc375082	-0.011188628
170	0xbb8a1fb4	-0.004215205
171	0xbbd23738	-0.006415274
172	0xbca37014	-0.019950904
173	0xbc567705	-0.0130899
174	0xbb95790e	-0.00456155
175	0xbc061ffa	-0.008186335
176	0xbc18b238	-0.009319834
177	0xbc955ce5	-0.018232772
178	0x3c0bd35a	0.008534277
179	0x3b3d9d00	0.002893269
180	0xbc001313	-0.007817048
181	0xbc0feb34	-0.008784104
182	0xbbf535f6	-0.0074832393
183	0xbcd4048b	-0.025881073
184	0x3b7e4423	0.0038797937
185	0x3d17024b	0.03686742
186	0xbc8d790b	-0.017269632
187	0x3c5efd38	0.013610177
188	0xba074490	-0.0005160058
189	0x3c8a3a32	0.016873453
190	0x3b67e7ef	0.0035386046
191	0x3ca2aa2e	0.019856539
192	0xb9f502fe	-0.0004673227
193	0x3b5865ca	0.0033019655
194	0xbd0bcb0c	-0.034129187
195	0x3c0778dc	0.008268561
196	0x3aa3567f	0.0012461691
197	0x3c67545d	0.014119235
198	0x3c9ada06	0.01890279
199	0x3cfb7851	0.03069702
200	0xbc30dc44	-0.010794703
201	0x3c62a839	0.013834053
202	0xbc234cbc	-0.009967025
203	0xbb8962f9	-0.0041927067
204	0x3c9af460	0.018915355
205	0xbb635b9b	-0.0034692052
206	0x3bc21314	0.0059226844
207	0x3b54e92d	0.0032487616
208	0xbccd7e94	-0.025084771
209	0x3bd90fa8	0.006624181
210	0xbc4e52f7	-0.012593023
211	0x3c35e3eb	0.011101703
212	0xbc58b2a8	-0.013226189
213	0xbcf41fdc	-0.029800348
214	0xbb453bd9	-0.0030095486
215	0xbc0d13ae	-0.008610649
216	0x3c96c1b1	0.018402906
217	0x3b67f856	0.0035395822
218	0xbca55bcf	-0.02018538
219	0x3c6de377	0.014519564
220	0x3c09d0be	0.008411584
221	0xbc7aa63b	-0.0152984215
222	0xbc43d653	-0.011952954
223	0x3c4a455a	0.012345636
224	0x3caa7efd	0.020812506
225	0x3c81c8b6	0.015842777
226	0x3c94b2af	0.01815161
227	0xbbbeaed5	-0.0058191814
228	0xbc52cae1	-0.012865753
229	0x3bb423fb	0.0054974533
230	0xbd024977	-0.031808343
231	0xbd16a030	-0.03677386
232	0x3b0a5c80	0.0021112263
233	0x3c7863cf	0.015160515
234	0x3c5e67d0	0.0135745555
235	0xbb7d4028	-0.0038642976
236	0x3c72d24e	0.014820648
237	0x3b9ee600	0.0048491955
238	0x3b23e06c	0.0025005592
239	0xbc9c3d5f	-0.019072233
240	0xbcb01987	-0.021496547
241	0x3c8907dd	0.016727382
242	0x3bda3a0b	0.0066597513
243	0xbc3f2902	-0.011667492
244	0xbbf96399	-0.00761075
245	0x3c04c47d	0.008103487
246	0x3bb9a313	0.005665192
247	0x3c55131c	0.013005044
248	0x3af7748a	0.0018879336
249	0xbcaf9784	-0.021434553
250	0x3bc4412a	0.0059892135
251	0xbc30875b	-0.010774459
252	0xbc59f46e	-0.0133029055
253	0xbbe7f988	-0.007079307
254	0x3d1303b9	0.035892222
255	0xbbdef846	-0.006804499

action_model._continuous_distribution.mu.bias f4 [6]
0	0xbc1e5c9d	-0.009665635
1	0x3bff9841	0.0078001325
2	0x3b430d5d	0.0029762604
3	0x3b328654	0.002724071
4	0xbbb6fc2c	-0.0055842604
5	0xbc23a443	-0.0099878935
