results/NearSingularity03/NearSingularity/NearSingularity-1030295.onnx (onnx, 623772 bytes, 9 tensors)

network_body._body_endoder.seq_layers.0.weight f4 [256, 85]
0	0x3d91ed7b	0.07125374
1	0xbda3d4ed	-0.07999597
2	0xbb6cc28a	-0.0036126697
3	0x3d6165c3	0.05502869
4	0x3c32b3a1	0.010907085
5	0xbc8ce6a6	-0.017199825
6	0xbe9993eb	-0.29995665
7	0x3e5fd64c	0.21859092
8	0x3e5ad61f	0.21370743
9	0xbde9435e	-0.113898024
10	0x3e028f4a	0.12749973
11	0x3d6f79af	0.058465656
12	0xbe1763bd	-0.14784141
13	0x3e492e83	0.19646649
14	0xbd073492	-0.03300912
15	0x3df70a38	0.12062496
16	0x3ca645c6	0.020296942
17	0xbdb7d2f7	-0.08975785
18	0xbe6756e8	-0.22591746
19	0xbd44e4c3	-0.048069727
20	0xbbf41d14	-0.0074497554
21	0xba330194	-0.0006828543
22	0x3e35d01e	0.17755172
23	0x3cd7461b	0.026278546
24	0xbd4b2c99	-0.04960308
25	0x3e5be304	0.21473318
26	0x3df316e9	0.11869604
27	0x3dd0f230	0.102024436
28	0x3d9b39d3	0.075793885
29	0xbd164f22	-0.03669656
30	0xbd99fa74	-0.07518473
31	0x3e315451	0.1731732
32	0x3dd0b264	0.10190275
33	0x3d9fcaef	0.078023784
34	0x3dae2aea	0.08504279
35	0x3dd16e65	0.10226134
36	0x3d036319	0.03207693
37	0xbdd4a948	-0.1038385
38	0x3cc82066	0.024429511
39	0xbdc2aab5	-0.09505216
40	0x3dad1648	0.084515154
41	0xbdda5a73	-0.10661783
42	0xbdf97714	-0.121809155
43	0xbcfef6b1	-0.031123491
44	0xbd65cca7	-0.056103375
45	0x3da6282d	0.08113132
46	0xbca9bf42	-0.020721082
47	0xbdbe0ed3	-0.09280171
48	0x3e33c211	0.17554499
49	0x3d9a2e4c	0.07528362
50	0xbdaa0984	-0.08302596
51	0xbe5cfccf	-0.21580814
52	0x3d3273c3	0.04356743
53	0xbd84d9e4	-0.06486872
54	0x3e44f04e	0.19232294
55	0xbbebf3f5	-0.007200713
56	0x3dddf64f	0.10837995
57	0x3e366cfc	0.17815012
58	0xbe16648a	-0.1468679
59	0x3d967c01	0.073478706
60	0x3c6eeabc	0.014582332
61	0xbe42dc09	-0.19029249
62	0xbd62db39	-0.05538485
63	0xbd856d5e	-0.06515001
64	0x3c5178eb	0.012785177
65	0x3d57a1f2	0.052644677
66	0x3e654e2a	0.22393098
67	0xbdff7d18	-0.124750316
68	0xbdd9908f	-0.106232755
69	0x3ea89a81	0.32930377
70	0xbde9d525	-0.11417607
71	0x3e253ac8	0.16135705
72	0x3e850672	0.2598148
73	0x3e516e91	0.20452334
74	0x3d9471b0	0.07248247
75	0x3c9435d3	0.018092072
76	0xbda552fd	-0.080724694
77	0x3e1662a2	0.14686063
78	0x3c8de3ac	0.017320476
79	0x3d3274e0	0.043568492
80	0x3e15e852	0.14639404
81	0xbd7c8652	-0.061651535
82	0xbe719398	-0.23591459
83	0xbc860b61	-0.016362848
84	0xbce9f91f	-0.028561173
85	0xbdc47c54	-0.09594026
86	0x3dedb0ae	0.116059646
87	0xbcaa8c4a	-0.020818848
88	0xbd19031f	-0.037356492
89	0xbc975150	-0.01847139
90	0x3e8ca43d	0.27469054
91	0xbc92c8b1	-0.017917963
92	0xbb012bff	-0.0019710062
93	0xbca63a17	-0.020291371
94	0x3bd5f3fb	0.006529329
95	0xbe040654	-0.12893039
96	0x3e3de89b	0.18545763
97	0xbc2ac0e3	-0.010421964
98	0x3c82f312	0.015985046
99	0x3e1bbf0d	0.15209599
100	0xbdd89f4f	-0.10577261
101	0x3d2770e2	0.040879138
102	0x3ab7952a	0.0014006246
103	0xbda4efc0	-0.08053541
104	0x3e4124aa	0.18861642
105	0x3d7fc8f5	0.062447507
106	0x3d06e5f1	0.032934133
107	0xbd6b70a8	-0.057480484
108	0xbe430760	-0.19045782
109	0x3e139f40	0.14416218
110	0xbd67feea	-0.05663959
111	0x3c7910a4	0.015201721
112	0x3d90499f	0.07045292
113	0xbc071f4d	-0.008247209
114	0x3df2de4a	0.118588045
115	0xbd5161a9	-0.051118527
116	0xbe07a28f	-0.13245605
117	0xbd824ec5	-0.0636268
118	0x3cafbddf	0.021452842
119	0xbe5f160f	-0.21785758
120	0xbda91754	-0.082564026
121	0xbdbdd9c6	-0.092700526
122	0xb997efd4	-0.0002897965
123	0x3e1bdb6d	0.15220423
124	0x3cc56a2e	0.024098482
125	0xbe201bca	-0.156356
126	0xbd1f83a9	-0.03894392
127	0xbd5895a3	-0.05287708
128	0x3d85ccee	0.06533228
129	0xbd0d8c2e	-0.034557514
130	0xbd6fe807	-0.058570888
131	0xbe2272f7	-0.15864168
132	0x3de7945b	0.113075934
133	0xbe21c16c	-0.15796441
134	0xbe099081	-0.1343403
135	0xbd17bc2b	-0.037044685
136	0x3db8636a	0.09003337
137	0xbd3ea892	-0.04654748
138	0x3e8cb473	0.27481422
139	0x3dab25d3	0.08356824
140	0xbe3035f7	-0.17208086
141	0x3d5ae7e6	0.05344381
142	0xbc85c316	-0.016328376
143	0xbe598e3c	-0.21245664
144	0xbd2803c0	-0.0410192
145	0xbcf09c36	-0.029371362
146	0x3c78ff92	0.015197651
147	0x3cf41dcd	0.029799366
148	0xbd7ecf51	-0.06220943
149	0xbd88d514	-0.066812664
150	0x3d8d6907	0.06904798
151	0x3cad6194	0.021164693
152	0xbdac7063	-0.084198736
153	0xbdb8a54f	-0.09015905
154	0x3e00026f	0.12500928
155	0x3ca97755	0.020686785
156	0xbd2a1b54	-0.04152997
157	0x3dc9fe72	0.09862985
158	0x3e5118f4	0.20419675
159	0x3a86e0d2	0.001029039
160	0xbdc715c1	-0.09720946
161	0xbd710d5f	-0.058850642
162	0xbe4d6c05	-0.20060737
163	0xbd89fde1	-0.06737877
164	0xbd1b28fb	-0.03788088
165	0xbe1497d5	-0.14511044
166	0xbe022257	-0.12708412
167	0xbdd6f52a	-0.1049598
168	0x3d3e97a8	0.04653135
169	0xbc82220e	-0.01588538
170	0xbc7c8396	-0.015412232
171	0xbe05f84d	-0.13083
172	0xbd4bd5ae	-0.049764328
173	0xbd7e58b5	-0.062096316
174	0x3de10c37	0.10988658
175	0xbe0df314	-0.13862258
176	0xbdcbe5c0	-0.09955931
177	0xbc209887	-0.00980199
178	0xbd9a6940	-0.07539606
179	0x3c82b8ba	0.015957225
180	0x3d3fb85a	0.04680667
181	0xbdbcb4b5	-0.09214155
182	0x3e2e9dca	0.17052379
183	0x3c73821c	0.014862563
184	0xbc946fea	-0.018119771
185	0x3d7eb561	0.062184695
186	0x3d8bb171	0.06820954
187	0x3dda6e83	0.1066561
188	0xbd96454a	-0.073374346
189	0x3b654566	0.0034983992
190	0xbd7c6e9e	-0.06162893
191	0xbd44b3e8	-0.048023134
192	0xbd9ebd86	-0.077509925
193	0xbdd31c15	-0.103080906
194	0xbd623cca	-0.055233754
195	0x3d99290b	0.074785315
196	0x3dbdc99b	0.09266969
197	0xbce5a176	-0.028031092
198	0x3d994ea4	0.07485703
199	0x3db7cfce	0.089751825
200	0x3d9b6838	0.075882375
201	0xbdb61a7f	-0.088917725
202	0xbbd7627a	-0.0065730186
203	0x3d65df8d	0.056121398
204	0x3e40f292	0.18842533
205	0xbe099d3e	-0.1343889
206	0x3e3936c0	0.18087292
207	0xbdde66c2	-0.10859443
208	0x3db1cb15	0.08681313
209	0x3d4b3325	0.049609322
210	0xbd49618f	-0.049165305
211	0xbdd0662c	-0.10175738
212	0x3d1523eb	0.036411207
213	0xbc9bbc93	-0.019010818
214	0x3d6d95a5	0.05800404
215	0xbc9a1af3	-0.018811679
216	0xb9f5ac88	-0.00046858587
217	0x3dab4d1a	0.08364315
218	0xbc1c0b91	-0.009524242
219	0x3d98d445	0.07462362
220	0x3cb4838a	0.022035379
221	0xbe274429	-0.16334595
222	0x3d3761ac	0.04477088
223	0xbdd8e1de	-0.10589956
224	0x3d81b4e1	0.06333328
225	0x3c9c07e3	0.01904673
226	0x3b332c8c	0.0027339784
227	0x3d76b127	0.06022754
228	0x3d70651f	0.058690187
229	0x3cfd913d	0.030953044
230	0xbdab700c	-0.083709806
231	0xbdb00fea	-0.08596785
232	0x3ea3a490	0.3196149
233	0x3b853f32	0.0040663714
234	0xbe3a0b6e	-0.18168423
235	0xbd759455	-0.059955914
236	0x3d0f1fc9	0.034942422
237	0x3d8a8f9a	0.06765671
238	0x3d9ca319	0.07648296
239	0x3c17d886	0.009267932
240	0x3e107fe3	0.14111285
241	0x3d30be05	0.043149967
242	0xbe3f315d	-0.18671174
243	0xbd199741	-0.037497763
244	0x3d3f629d	0.046724904
245	0xbd0ac3af	-0.033878025
246	0x3d8e5526	0.069498345
247	0x3d91f5b1	0.0712694
248	0xbdb8d003	-0.0902405
249	0x3e0ad573	0.13557987
250	0x3e7c064d	0.24611779
251	0xbdce6e51	-0.10079635
252	0xbd951969	-0.07280237
253	0xbc8b3897	-0.016994758
254	0x3e4dc3f2	0.20094278
255	0xbd2032c4	-0.039110914

network_body._body_endoder.seq_layers.0.bias f4 [256]
0	0x3d12a92e	0.035805874
1	0x3c3964fa	0.011315579
2	0xbcbe0843	-0.023197299
3	0xbd14d993	-0.036340307
4	0xbb166d3b	-0.002295329
5	0x3d62279a	0.05521355
6	0x3d8424ae	0.064523086
7	0x3d88773b	0.066633664
8	0x3d380f41	0.044936422
9	0x3ca4dbee	0.020124402
10	0x3c105b38	0.008810811
11	0x3d7770c0	0.06041026
12	0x3d20f82b	0.03929917
13	0x3ce5f345	0.028070102
14	0xbbf1e6c3	-0.0073822453
15	0x3c41d3a7	0.011830247
16	0x3d996b7c	0.07491204
17	0x3807f5df	3.2415493e-05
18	0x3ca3f1e6	0.020012807
19	0xbd728e29	-0.059217606
20	0xbc76f168	-0.015072204
21	0xbac7b85d	-0.001523744
22	0x3cc56423	0.0240956
23	0x3d1b42f0	0.037905633
24	0x3d3ca9e6	0.046060465
25	0x3c43d224	0.011951957
26	0x3ca92b8f	0.020650653
27	0x3c9caf4c	0.019126557
28	0xbcfdf481	-0.031000378
29	0x3d668f22	0.056288846
30	0x3c81f12d	0.015862072
31	0x3d10ff50	0.035399735
32	0x3d104517	0.03522214
33	0x3d2b22c7	0.041781213
34	0x3ca22c9e	0.019796666
35	0xbc27f9e3	-0.010252449
36	0xbce553c9	-0.027994053
37	0xbc015f7a	-0.007896299
38	0xbbcf039d	-0.0063175694
39	0x3da29cf7	0.07940095
40	0xbb9643ec	-0.0045857336
41	0xbd0e3036	-0.034713946
42	0x3c7b001a	0.015319848
43	0x3ced5ca7	0.028974844
44	0x3ce75dd9	0.028242992
45	0xbcd786e6	-0.026309442
46	0x3d44bb19	0.048029993
47	0xbd044cc7	-0.032299783
48	0x3cf65a2b	0.030072292
49	0x3d219808	0.03945163
50	0x3bd519b7	0.0065033096
51	0x3d10bd4e	0.035336785
52	0x3cc99133	0.02460537
53	0x3c90c3ea	0.017671544
54	0x3ce6ae5b	0.028159311
55	0xbcd9df0c	-0.026595615
56	0x3cec7cd3	0.028868115
57	0x3c0d5caf	0.0086280545
58	0xbcd10418	-0.025514647
59	0x3d993935	0.074816145
60	0x3cbda5b0	0.023150295
61	0x3d9e9324	0.077429086
62	0x3d353597	0.04424056
63	0x3d3f4eb2	0.04670591
64	0x3dbe97f4	0.093063265
65	0x3d100288	0.035158664
66	0x3c18d929	0.009329119
67	0x3a29cf3e	0.000647772
68	0xbbfdb2f7	-0.0077422815
69	0xbc98e05d	-0.018661672
70	0x3c86e056	0.016464394
71	0x3d122e4a	0.035688676
72	0x3ca160d5	0.019699493
73	0xbd43b072	-0.047775693
74	0x3b696ca6	0.0035617738
75	0xbcd789d9	-0.026310848
76	0x3d797ac6	0.0609081
77	0x3c66bbee	0.014082892
78	0xbd274006	-0.040832542
79	0x3cc718e8	0.024303868
80	0xbc9abc36	-0.018888574
81	0xbcdbb379	-0.026818978
82	0xbd32cb4b	-0.043650907
83	0x3c91566d	0.017741406
84	0x3beb732e	0.0071853613
85	0x3aaaa1ac	0.0013018153
86	0x3d07fc28	0.03319946
87	0x3d9dd6b3	0.07706966
88	0x3caafbe6	0.020872068
89	0xbcc7ff18	-0.02441363
90	0xbc04fcb3	-0.008116889
91	0x3c6e8f40	0.014560521
92	0x3d0f1d4b	0.034940045
93	0x3d001db5	0.03127833
94	0x3d9f8c46	0.07790427
95	0x3c3b7c16	0.011443159
96	0x3d4a5295	0.049395163
97	0x3d226959	0.03965125
98	0x3da92b8c	0.08260259
99	0xbc7b72ae	-0.015347166
100	0xbbfa5b9b	-0.0076403148
101	0x3acd6db2	0.001567295
102	0x3cb4d9b1	0.02207646
103	0x3aa7f2fe	0.0012813506
104	0x3c7efb69	0.015562871
105	0x3b83151f	0.0040003206
106	0xba55e5cb	-0.0008159547
107	0xbc98dc98	-0.018659875
108	0xbc80ce06	-0.01572324
109	0x3d7bae06	0.06144526
110	0xb8cf65c8	-9.8894874e-05
111	0x3c870e56	0.016486328
112	0x3da22e16	0.079189464
113	0x3d3452ab	0.04402415
114	0x3d0a6a0e	0.033792548
115	0xbd3cada3	-0.04606403
116	0xbdb3354b	-0.08750399
117	0xbd1abd4d	-0.037778188
118	0x3ce55619	0.027995156
119	0x3d0224f8	0.031773537
120	0x3d0087c2	0.03137947
121	0x3b8ad23c	0.0042364877
122	0x3db7fab6	0.08983366
123	0x3d975f29	0.07391197
124	0x3d6127a4	0.054969445
125	0x3d1fab85	0.038981933
126	0xbc8de424	-0.0173207
127	0x3c83763a	0.016047586
128	0x3c6a41df	0.014297931
129	0xbd393f35	-0.045226295
130	0xba9a3938	-0.001176632
131	0x3d3f8b33	0.04676361
132	0x3c501aff	0.012701749
133	0xbabd38da	-0.0014436499
134	0x3d3ff6ec	0.046866342
135	0x3cd08484	0.025453813
136	0xbcb2268f	-0.021746902
137	0x3d4f6d3b	0.05064128
138	0xbbc1fe43	-0.005920203
139	0xbbd7d17a	-0.006586251
140	0xbacffc8c	-0.0015868112
141	0xbcb1602f	-0.02165231
142	0xbc50b582	-0.012738587
143	0x3d443c12	0.04790885
144	0x3d554118	0.05206403
145	0x3cd41d0f	0.025892762
146	0xbcd871bc	-0.02642142
147	0x3cf7a67b	0.030230751
148	0x3da1872c	0.0788711
149	0xbbb72a79	-0.00558978
150	0x3ce10bb6	0.027471405
151	0x3cd7f523	0.026362007
152	0x3ad5ea34	0.0016320408
153	0x3b117bcf	0.002219904
154	0x3c9b2014	0.018936194
155	0xbca2b26f	-0.019860474
156	0xba2eabd2	-0.00066631765
157	0x3c5e353b	0.013562496
158	0xbbdeaf3c	-0.006795792
159	0xbc6d0e9c	-0.014468815
160	0x3cb40724	0.021976061
161	0x3d239f2f	0.03994673
162	0x3c5b407e	0.013382075
163	0x3bc26d0e	0.0059334105
164	0x3d60f0fc	0.05491732
165	0x3d38cc1f	0.04511654
166	0x3c824782	0.015903238
167	0xbc9eac39	-0.019369232
168	0x3bd8c202	0.0066149244
169	0xbcc8eaac	-0.024525963
170	0x3c1abc64	0.00944433
171	0xbc88fe2b	-0.01672276
172	0x3d35fb37	0.04442903
173	0xbcbc0f36	-0.022956472
174	0x3ca9bb54	0.020719208
175	0x3ca8a1aa	0.0205849
176	0x3c6895ff	0.014195918
177	0xbc21e21c	-0.009880569
178	0x3b01c336	0.0019800193
179	0x3bcfeb7f	0.006345212
180	0x3cb0523e	0.021523591
181	0xbc64f2d9	-0.013973915
182	0x3d2d7e70	0.04235691
183	0xbd2355d7	-0.039876785
184	0xbbe0d95c	-0.0068618488
185	0xbb2972c1	-0.0025855752
186	0xbc93335a	-0.017968822
187	0x3c8d9d92	0.01728705
188	0x3d10d47c	0.03535889
189	0xbc6efb58	-0.014586292
190	0x3daaf5d7	0.083476715
191	0x3d928bad	0.07155547
192	0x3c2f9c64	0.010718439
193	0xba03af7f	-0.00050234044
194	0xbd243ba4	-0.04009594
195	0x3d8bc78d	0.06825171
196	0x3bb53ac9	0.0055306894
197	0x3db0039c	0.085944384
198	0x3cab7dc9	0.020934002
199	0x3d9b1b3c	0.07573554
200	0x3d9232c9	0.07138593
201	0xbb601cfc	-0.0034196964
202	0x3d5eb19f	0.05436861
203	0x3ca576ce	0.020198252
204	0xbd5b9010	-0.053604186
205	0x3d278e1f	0.04090702
206	0xbc643cd6	-0.01393052
207	0x3ce0ce85	0.027442226
208	0x3d833410	0.064064145
209	0xbb7dedb4	-0.0038746418
210	0x3caa2717	0.020770593
211	0xba83324b	-0.0010009495
212	0xbc5b1d1d	-0.01337364
213	0x3d675489	0.056477103
214	0x3cb69333	0.022286987
215	0xbc0eba85	-0.008711462
216	0x3cb9b98d	0.022671485
217	0x3d35014e	0.044190697
218	0x3cc15a48	0.02360262
219	0xbba68339	-0.005081561
220	0x3d1d2a61	0.038370494
221	0x3cff2e21	0.031149926
222	0x3d192a20	0.03739369
223	0x3d1e7352	0.038684197
224	0x3d6a8a19	0.057260606
225	0x3d2d8c30	0.04237002
226	0x3db5c759	0.08875913
227	0xbbc67f57	-0.0060576606
228	0x3c3e6990	0.011621848
229	0xbd4a5303	-0.049395572
230	0x3d5de38a	0.054172076
231	0xbc589691	-0.013219492
232	0x3d08208a	0.033234157
233	0x3d4941ef	0.049135145
234	0xbb112609	-0.0022147915
235	0xbda75f8d	-0.08172522
236	0xbb633c20	-0.0034673288
237	0x3b4b2b11	0.0031001011
238	0x3c92d4a2	0.017923657
239	0x3acd770e	0.001567574
240	0xbb8e67cf	-0.004345871
241	0xbccec852	-0.025242005
242	0x3a1cc7c4	0.0005980695
243	0xbd771fd1	-0.060333077
244	0xbc995132	-0.018715475
245	0xbc875717	-0.01652102
246	0xbd033754	-0.032035187
247	0x3cc3b50f	0.023890046
248	0xb7e1e8cd	-2.6930496e-05
249	0x3d826a43	0.06367924
250	0xbd18b4ab	-0.037281673
251	0x3cfa6ed5	0.030570427
252	0xbccea676	-0.02522586
253	0xbcb18609	-0.021670358
254	0x3c547cab	0.012969176
255	0xbc5e2a5d	-0.013559905

network_body._body_endoder.seq_layers.2.weight f4 [256, 256]
0	0x3c9df5a6	0.019282173
1	0xbd1e97b3	-0.03871889
2	0xbd6f14d9	-0.05836949
3	0x3dbb2723	0.09138324
4	0x3d3d54d1	0.046223465
5	0x3d309790	0.04311329
6	0xbd453311	-0.048144404
7	0xbd9ba4f4	-0.07599822
8	0x3c244813	0.010026949
9	0x3d784eb4	0.060621932
10	0x3d30d17e	0.043168537
11	0x3d2da159	0.0423902
12	0xbdd211ac	-0.10257277
13	0x3d399575	0.04530855
14	0xbdd5a077	-0.10430997
15	0x3c3f6e6c	0.0116840415
16	0xbd2bee1d	-0.04197513
17	0x3b08a6c4	0.0020851353
18	0xbd1bac1b	-0.03800593
19	0xbe01579d	-0.12631078
20	0x3e5ad14b	0.21368901
21	0xbde0e6f8	-0.10981554
22	0xbcd0cf70	-0.025489539
23	0xbd9e2125	-0.077211656
24	0xbdfb18cb	-0.12260588
25	0xbd609ac4	-0.054835096
26	0x3a9f0a6c	0.0012133843
27	0x3c9e02ed	0.019288504
28	0x3ccc8ad2	0.024968538
29	0xbd0b6431	-0.034031097
30	0x3de6d841	0.11271716
31	0xbe01fd42	-0.12694266
32	0x39dd5c2a	0.00042221072
33	0x3e30fc9b	0.17283861
34	0xbde819f7	-0.113330774
35	0xbc713ed6	-0.014724454
36	0xbd2383e6	-0.03992071
37	0xbd65b949	-0.056084905
38	0x3d8c5868	0.068528
39	0xbe01409c	-0.12622303
40	0xbd3292cd	-0.04359703
41	0xbd6fdbb4	-0.058559135
42	0xbd80df01	-0.062925346
43	0x3c801344	0.015634187
44	0x3753d618	1.2626428e-05
45	0x3c7e4bd6	0.01552101
46	0xbe0b7959	-0.13620509
47	0xbd296a01	-0.04136086
48	0xbd196a7e	-0.037455074
49	0xbdeac3a7	-0.11463099
50	0xbd36279a	-0.04447136
51	0x3cc62c65	0.02419109
52	0xbd45dbbb	-0.048305254
53	0xbdbc5167	-0.09195214
54	0x3c716128	0.0147326365
55	0x3d9a5f82	0.07537748
56	0x3db98f41	0.09060527
57	0xbe3b4495	-0.1828788
58	0x3dc62cf5	0.096765436
59	0xbe27ddf7	-0.16393267
60	0x3e0d5fdf	0.13806103
61	0xbd4530be	-0.048142187
62	0x3c8c21b7	0.01710592
63	0x3cea45b9	0.0285977
64	0x3cf81a82	0.030286077
65	0xbdfe7042	-0.12423755
66	0xbda1e679	-0.07905287
67	0xbbe52172	-0.0069925124
68	0xbda1945e	-0.07889627
69	0x3dc7aba9	0.097495385
70	0x3d809b43	0.06279614
71	0xbdde7cf1	-0.108636744
72	0xbd07b358	-0.03313002
73	0x3d260fba	0.04054234
74	0x3d6417ce	0.055686764
75	0xbc850a7b	-0.016240349
76	0xbda7649a	-0.08173485
77	0x3b234eac	0.0024918718
78	0xbd34857c	-0.044072613
79	0x3de125c1	0.10993529
80	0x3dab5ac4	0.083669215
81	0x3d12c422	0.035831578
82	0xbdbfd085	-0.09365944
83	0x3d774c7e	0.060375683
84	0x3d636dae	0.05552452
85	0xbd8d394a	-0.06895693
86	0xbd22d5ad	-0.03975456
87	0xbd8cfa5c	-0.0688369
88	0x3cf5135c	0.029916458
89	0x3dda6f83	0.106658004
90	0x3df8b16a	0.12143214
91	0xbdc25ea2	-0.09490706
92	0xbb4d4b81	-0.0031325521
93	0x3ca2274e	0.019794133
94	0x3d6facac	0.058514282
95	0x3d34a972	0.04410691
96	0xbda22a87	-0.07918268
97	0x3d06eb9b	0.032939535
98	0x3d976931	0.073931105
99	0xbcc804e4	-0.024416395
100	0x3ca968b3	0.020679807
101	0xbc9670f5	-0.018364409
102	0xbbe73caa	-0.0070567923
103	0xbd89242e	-0.06696354
104	0x3d8f875f	0.07008242
105	0x3d31a1a4	0.043367043
106	0x3d028f4d	0.031874944
107	0x3da9af98	0.08285445
108	0x3df93528	0.12168342
109	0xbd869735	-0.06571809
110	0xbda5e567	-0.08100396
111	0x3c0bbe4e	0.008529259
112	0xbdd04085	-0.10168556
113	0x3ccd1802	0.025035862
114	0x3d757d7e	0.05993413
115	0x3da2b496	0.079446
116	0x3d071fda	0.03298936
117	0x3ca7e687	0.020495666
118	0xbda92a26	-0.08259992
119	0xbdaa3bd8	-0.083121955
120	0xbda482a2	-0.08032729
121	0x3b9dc7db	0.0048150844
122	0x3bc7dbba	0.0060991915
123	0xbe057b7a	-0.13035384
124	0x3b8bfa35	0.0042717704
125	0xbce8cfb9	-0.028419362
126	0x3ca245c9	0.019808667
127	0xbd063758	-0.032767624
128	0xbdd399ae	-0.103320464
129	0x3cff3ef0	0.03115794
130	0x3db1fe28	0.086910546
131	0xbb4c6dc1	-0.0031193348
132	0xbd56baab	-0.052424114
133	0xbc7d1db1	-0.0154489735
134	0xbcc5d4cf	-0.024149327
135	0x3c8157a6	0.015788864
136	0xbdf8758d	-0.12131796
137	0x3d4c252a	0.04984013
138	0xbc8130e7	-0.015770389
139	0xbdee2099	-0.11627311
140	0x3cbbde19	0.022933053
141	0x3cf899f7	0.030346854
142	0xbd3c6d8a	-0.046002902
143	0xbcec64eb	-0.028856715
144	0xbd02c3e3	-0.031925093
145	0xbcffe846	-0.031238686
146	0xbdb55d66	-0.08855705
147	0xbdd26f36	-0.10275118
148	0xbd2f2d0c	-0.04276757
149	0x3e393840	0.18087864
150	0xbd81638d	-0.06317816
151	0xbd6dfd71	-0.05810303
152	0xbc2802b2	-0.010254549
153	0xbd6439e3	-0.055719268
154	0xbd907b8d	-0.070548154
155	0xbc48bf31	-0.012252615
156	0x3af1d800	0.0018451214
157	0xbd458d9b	-0.04823075
158	0xbcca86ec	-0.024722539
159	0x3c3ec639	0.01164394
160	0xbcf55780	-0.02994895
161	0x3d97151a	0.07377072
162	0x3dbe36da	0.09287806
163	0x3d7d1d30	0.061795413
164	0xbe0b6e68	-0.13616335
165	0xbdcac445	-0.09900717
166	0xbdb67cbe	-0.089105114
167	0xbce6b69a	-0.028163243
168	0xbddc1ce3	-0.10747697
169	0x3b6e867e	0.0036396082
170	0xbdb4bc62	-0.08824994
171	0xbd0b1e63	-0.033964526
172	0x3c7bbb3f	0.015364467
173	0xbd203321	-0.03911126
174	0xbd530358	-0.05151686
175	0xbdd5c02b	-0.10437044
176	0x3de97475	0.113991655
177	0x3cd28b51	0.025701197
178	0x3c1dceac	0.009631794
179	0x3dcef963	0.101061605
180	0x3cc84a8b	0.024449607
181	0xbd04b3a6	-0.03239789
182	0xbdea22f7	-0.1143245
183	0x3d2b5af1	0.041834775
184	0x3ce9b486	0.028528463
185	0xbbf15ce0	-0.007365808
186	0x3cdf6747	0.027270926
187	0xbd8fb986	-0.07017808
188	0x3ca2f2cb	0.019891163
189	0x3d8f1dc3	0.069880985
190	0xbc0d6d59	-0.008632028
191	0xbcb6b7d6	-0.022304457
192	0xbd81411b	-0.06311246
193	0x3d964b66	0.073386
194	0xbdb3a7d3	-0.08772244
195	0xbdbd07fa	-0.09230037
196	0x3da03759	0.07823057
197	0xbd1ea979	-0.03873584
198	0xbda44d8a	-0.08022602
199	0xbddde876	-0.10835354
200	0x3c8660ce	0.016403582
201	0xbd841c07	-0.06450658
202	0x3de2326f	0.11044776
203	0x3d951073	0.07278528
204	0xbd7ebc7d	-0.062191475
205	0xbd9b015e	-0.0756862
206	0x3d723fde	0.05914294
207	0x3ca81769	0.020518975
208	0x3be2e00b	0.0069236807
209	0xbc061ec3	-0.008186045
210	0xbd2a2864	-0.041542426
211	0x3dd01792	0.10160746
212	0x3df87af1	0.12132824
213	0xbd0be02c	-0.034149334
214	0xbbfb424f	-0.0076678167
215	0x3c05f2a2	0.008175524
216	0x3cd909c6	0.026493918
217	0xbd980f49	-0.074247904
218	0xbc487a2d	-0.01223616
219	0xbdeb3709	-0.114851065
220	0xbd4fe98c	-0.050759837
221	0x3c6d956b	0.014500956
222	0xbe12e8bf	-0.14346598
223	0x3ba5c6d5	0.005059103
224	0xbd9e66cc	-0.07734451
225	0x3c4998a7	0.012304462
226	0xbe5ace3a	-0.21367732
227	0x3da28add	0.07936642
228	0xbd4efc60	-0.050533652
229	0xbe086138	-0.13318336
230	0xbd91a78f	-0.071120374
231	0x3e43ba89	0.19114126
232	0x3cf57872	0.02996466
233	0xbd898224	-0.067142755
234	0x3dee7802	0.116439834
235	0xbe5dc7e1	-0.21658279
236	0xbcec7c9d	-0.028868014
237	0x3da8c47d	0.08240602
238	0x3b9bb9cf	0.0047523747
239	0x3b9695f6	0.0045955135
240	0xbb22b759	-0.0024828522
241	0xbca28e54	-0.019843258
242	0xbc290331	-0.010315702
243	0x3d621ab1	0.055201236
244	0x3da76696	0.081738636
245	0xbd22f163	-0.039780986
246	0x3dd9e06e	0.1063851
247	0xbcba89b6	-0.022770744
248	0xbc0cb4e2	-0.008588048
249	0xbd9ac021	-0.07556177
250	0xbc19807b	-0.009369011
251	0x3da5cd34	0.0809578
252	0xbddd35ac	-0.10801253
253	0x3c64eadc	0.01397201
254	0xbdbf7114	-0.0934774
255	0xbd2e411d	-0.042542566

network_body._body_endoder.seq_layers.2.bias f4 [256]
0	0x3b84e976	0.004056151
1	0xbc962302	-0.01832724
2	0xbd4865b5	-0.04892512
3	0xbcfb8316	-0.030702155
4	0x3cbd278f	0.023090152
5	0xbb4bbec6	-0.0031089052
6	0xbc886710	-0.016650707
7	0xbca9b9eb	-0.020718535
8	0xbc8642a9	-0.016389208
9	0x3b8a07e9	0.0042123687
10	0xbbd333e2	-0.006445394
11	0xbca8fe14	-0.020628966
12	0xbccea0dd	-0.02522319
13	0xbc9cad23	-0.019125527
14	0x3d929381	0.071570404
15	0x3da48677	0.0803346
16	0x3d5b7ace	0.053583913
17	0x39a7f882	0.00032037875
18	0xbc8e56d6	-0.017375391
19	0xbb524978	-0.0032087248
20	0x3af53300	0.0018707216
21	0xbb54138e	-0.0032360288
22	0x3ced80b2	0.02899203
23	0xbc6fab1a	-0.014628196
24	0xbc6079f2	-0.013700949
25	0xbb141cc9	-0.0022600165
26	0x3cee5bb8	0.02909647
27	0xbd03b0e6	-0.032151125
28	0xbca27c93	-0.019834792
29	0xbc88aff3	-0.016685462
30	0x3de2ccad	0.11074195
31	0xbbfab0c1	-0.0076504652
32	0xbcf8929e	-0.03034335
33	0xbc008132	-0.007843303
34	0x3d9e8f36	0.07742159
35	0xbc98f050	-0.018669277
36	0x3acadf66	0.0015477955
37	0xbcbd0ba8	-0.023076847
38	0xbcfb2adb	-0.030660084
39	0xb9a12fbb	-0.00030743875
40	0xbd2bec78	-0.04197356
41	0xbb396e67	-0.0028294565
42	0xba9584d0	-0.0011407379
43	0x3c12ad08	0.008952387
44	0xbc1a5d2f	-0.009421631
45	0x3dc8b4c4	0.09800103
46	0xbc8cd336	-0.017190557
47	0x3b9ffb57	0.004882257
48	0xbc8c0a6f	-0.017094819
49	0xbb3a5f0a	-0.0028437995
50	0xbc78dbe6	-0.015189147
51	0x3d39873b	0.04529498
52	0xb99d16fb	-0.00029962495
53	0xbca887ac	-0.020572506
54	0xbd52ffd3	-0.051513504
55	0xbc5d8422	-0.013520272
56	0x3bd904f2	0.006622904
57	0xbce82930	-0.028339952
58	0xbc6ae15f	-0.014335959
59	0x3ac69527	0.0015150652
60	0xbaf21305	-0.0018468803
61	0x3daad1d6	0.08340804
62	0xbc892cf5	-0.01674507
63	0x3b45ed48	0.0030201245
64	0xbbc7be11	-0.0060956557
65	0xbcc601c2	-0.02417076
66	0xbcf99d2d	-0.030470455
67	0xba4e589e	-0.00078714814
68	0x3d6066b5	0.05478545
69	0xbc3f2834	-0.0116673
70	0xbc5d09ef	-0.013491138
71	0xbce5e1ee	-0.028061833
72	0xbc6580a3	-0.01400772
73	0xbb34a417	-0.0027563625
74	0xbcb4a834	-0.022052862
75	0xbc75bfff	-0.014999389
76	0xbb49b560	-0.0030778274
77	0xbc2d2fc3	-0.010570469
78	0xbc849cff	-0.016188143
79	0xbcee35f2	-0.029078458
80	0xbbf325ea	-0.007420291
81	0xbc8f441a	-0.017488528
82	0x3a60d8d6	0.0008577233
83	0x3dadbfdc	0.0848386
84	0xbc2ba6fa	-0.010476822
85	0xbbabf157	-0.005247276
86	0xbbaac5c1	-0.0052115624
87	0xbca43563	-0.020044988
88	0x3a7aaf19	0.0009562835
89	0xbcd53d8b	-0.026030323
90	0xbcb9728a	-0.022637624
91	0xbced245a	-0.028947998
92	0xbce7fec3	-0.028319722
93	0xbc0a965d	-0.008458701
94	0xba0558f5	-0.0005086803
95	0xbc50182d	-0.012701076
96	0xbc0f7097	-0.008754871
97	0x3d119785	0.03554489
98	0xbce1f881	-0.027584316
99	0x3ba4a60f	0.0050246785
100	0x3d6af3d2	0.05736143
101	0xbcd6d28c	-0.026223443
102	0xbcb2bb12	-0.021817718
103	0xbce15823	-0.027507847
104	0xbb1240fa	-0.002231656
105	0x3d9259e9	0.07146055
106	0x3a6bf655	0.0009001245
107	0xbd29b9b7	-0.041436877
108	0xba0a79a3	-0.00052824075
109	0x3c6d5a1b	0.014486815
110	0xbb8ac84b	-0.0042353026
111	0xbce0d605	-0.027445802
112	0xbacf4908	-0.0015814612
113	0x3b673f69	0.0035285598
114	0xbc41c747	-0.011827297
115	0xbca2ed9e	-0.019888695
116	0xbd112cab	-0.03544299
117	0x3d77a9cd	0.06046467
118	0xbbb686d5	-0.0055702724
119	0xbc42a128	-0.011879243
120	0x3bf5f741	0.0075062816
121	0xbce4e38f	-0.02794054
122	0xbccd291d	-0.025044018
123	0x3bc432e2	0.005987511
124	0xbca208e2	-0.019779626
125	0xbc1f1de3	-0.009711715
126	0xbd2a67a5	-0.04160275
127	0xbc0eb720	-0.008710653
128	0xbcbc8676	-0.023013335
129	0xbaf55e1e	-0.0018720066
130	0xbb10e3dd	-0.0022108473
131	0xbd24580a	-0.040123023
132	0xbc883cd3	-0.016630566
133	0xbd1e7ba3	-0.038692128
134	0x3d494ac8	0.049143583
135	0xbc1e92ab	-0.009678523
136	0x3ca99952	0.020702992
137	0x3ce3e8b3	0.02782092
138	0xbc79729a	-0.015225077
139	0x3c0d0764	0.008607719
140	0xbc930e87	-0.017951263
141	0xbc214f61	-0.009845586
142	0xbc9e6291	-0.01933411
143	0xbc904d68	-0.017615035
144	0xbc5326e4	-0.01288769
145	0xbcc27fe8	-0.023742631
146	0xbb242095	-0.0025043834
147	0x3c508234	0.012726355
148	0xbb7d15c2	-0.0038617705
149	0xbd01693e	-0.031594507
150	0xbc638d98	-0.013888739
151	0xbadb8d88	-0.0016750554
152	0xbbe682c6	-0.0070346324
153	0xbc0fc92f	-0.008775993
154	0xba9f363a	-0.0012146898
155	0xbc46ced9	-0.012134277
156	0x3da4ca8d	0.08046446
157	0xbc5008ba	-0.012697393
158	0xbcb0abd2	-0.021566305
159	0xbd1693ac	-0.036761925
160	0xbd55a4e2	-0.052159198
161	0xbb035161	-0.002003752
162	0xbad21d44	-0.001603045
163	0xbcbe563f	-0.023234485
164	0x3cad0962	0.021122638
165	0x3d925838	0.07145733
166	0xbc700919	-0.014650607
167	0x3bb00b73	0.0053724586
168	0xbc105a61	-0.0088106105
169	0xbba21560	-0.0049463958
170	0xbc8a443c	-0.01687824
171	0xbb86b249	-0.0041106087
172	0xbbc0aa7f	-0.0058796997
173	0xbbf890d6	-0.007585625
174	0xbd716b8e	-0.058940463
175	0xbc417d41	-0.011809648
176	0xbd21a941	-0.039468054
177	0xbd2064bc	-0.039158568
178	0xbcc70525	-0.024294445
179	0xbc1f6dfa	-0.00973081
180	0xbc9736c0	-0.018458724
181	0xbbe95bc9	-0.0071215373
182	0xbc82960f	-0.015940694
183	0xbcaf0e8f	-0.021369247
184	0xba9fbf7c	-0.0012187804
185	0xbc4c09c0	-0.012453496
186	0xbc64c631	-0.013963268
187	0xbc4a9e24	-0.012366805
188	0x3dad0350	0.084478974
189	0x3cc14617	0.023592992
190	0x3a32cfce	0.00068211264
191	0x3be15e61	0.006877706
192	0x3ccb6ae5	0.024831245
193	0xb8d23830	-0.00010024046
194	0x3c78e4fc	0.015191313
195	0xbc9fcc06	-0.019506466
196	0xbd0a44d1	-0.033757035
197	0xbcb29918	-0.021801516
198	0xbced6850	-0.028980404
199	0x3bb11f2b	0.005405327
200	0xbbb30e41	-0.0054643457
201	0x3b9ffe2c	0.0048825946
202	0xbc73a7fb	-0.014871593
203	0x3a946010	0.0011320133
204	0xbbfcded0	-0.007716991
205	0xbd017ebc	-0.031615004
206	0xbcc6561d	-0.024210984
207	0xbc965d56	-0.018355053
208	0xbd16a45b	-0.036777835
209	0xbc444485	-0.011979227
210	0x3d805189	0.062655516
211	0x3d89920d	0.0671731
212	0xbcc00c62	-0.023443405
213	0xbca3fb21	-0.020017209
214	0xbd246a82	-0.040140636
215	0xbc9c9212	-0.01911262
216	0xbb10c17a	-0.0022087977
217	0xbd3c2d80	-0.04594183
218	0xbc818083	-0.01580835
219	0xbd292b20	-0.041300893
220	0xbb89186c	-0.0041838195
221	0x3d43121e	0.0476247
222	0xbcbfd380	-0.02341628
223	0xbb0d1d66	-0.0021532415
224	0xbc6588c6	-0.01400966
225	0xbbc8563e	-0.0061137965
226	0xbb99c388	-0.0046924986
227	0xbd0b256d	-0.03397124
228	0xbce2fc7f	-0.02770829
229	0xbc00a3ef	-0.007851585
230	0xbd10a2e9	-0.035311613
231	0xbbd03544	-0.006354006
232	0xbc3c3e9f	-0.011489539
233	0x3c7fa97a	0.015604371
234	0xbc85c0a0	-0.016327202
235	0xbc2c1918	-0.01050403
236	0xbc0afde0	-0.00848338
237	0xbb14e957	-0.002272209
238	0x3ba2764a	0.004957949
239	0xbcaf355d	-0.02138775
240	0x3d8172ee	0.06320749
241	0x3d222aec	0.039591715
242	0xbb3f7d27	-0.0029218884
243	0xbafe2f42	-0.0019392746
244	0xbc44c57d	-0.0120099755
245	0xbba4afee	-0.0050258553
246	0xbcc556bf	-0.024089215
247	0xbc241da0	-0.010016829
248	0xbaf4ff1b	-0.001869175
249	0x3d0301f5	0.03198429
250	0xbc258864	-0.010103319
251	0xbcc3e537	-0.02391301
252	0xbd093093	-0.03349359
253	0xbca6003b	-0.020263782
254	0xbc91e452	-0.017809067
255	0xbcc39909	-0.023876684

network_body._body_endoder.seq_layers.4.weight f4 [256, 256]
0	0xbd4ae364	-0.049533263
1	0x3c993929	0.018704014
2	0xbb9d4ca4	-0.004800396
3	0x3ca6237d	0.020280594
4	0x3d5328be	0.051552527
5	0x3c9414d8	0.018076345
6	0xbdb10321	-0.08643175
7	0x3cba5561	0.02274579
8	0xbcc3394b	-0.02383103
9	0xbdcf98ce	-0.10136567
10	0xbe1ab787	-0.15109073
11	0x3d62b875	0.055351693
12	0xbc3af260	-0.011410326
13	0xbcea86e9	-0.028628783
14	0x3d9a68b5	0.075395025
15	0x3dabe0db	0.08392497
16	0xbd31d815	-0.043418963
17	0xbcf9dfdb	-0.03050225
18	0xbe27ce21	-0.16387226
19	0xbdad7ef7	-0.08471482
20	0x3ba91ed2	0.005161145
21	0xbd56133c	-0.052264437
22	0xbbeabe0a	-0.0071637677
23	0xbd7f68e1	-0.06235588
24	0x3d405bac	0.046962425
25	0x3b291a6e	0.0025803107
26	0xbd99ed3b	-0.07515951
27	0x3c080e68	0.008304216
28	0x3d64c4d9	0.05585179
29	0xbd1b47b4	-0.03791018
30	0xbd33bcce	-0.04388123
31	0xbbf87dbf	-0.0075833495
32	0xbdf1d1bb	-0.11807581
33	0xbd9b6a1b	-0.075885974
34	0xbd05b1f7	-0.032640424
35	0xbcc1db91	-0.023664268
36	0x3d4e95b0	0.050435722
37	0xbde61ff0	-0.1123656
38	0xbc698cd1	-0.014254765
39	0x3cffae94	0.031211175
40	0xbdbeb370	-0.09311569
41	0xbd60790c	-0.05480294
42	0x3a38c2a5	0.0007048047
43	0x3cbad538	0.022806749
44	0x3e02eb05	0.12784965
45	0x3ca17479	0.019708859
46	0x3dfe5214	0.12417999
47	0x3c03efb3	0.008052754
48	0xbcf19df0	-0.029494256
49	0xbbbce899	-0.0057650325
50	0x3cb7a3e7	0.022417022
51	0xbdbec968	-0.09315759
52	0xbdccf601	-0.10007859
53	0xbd146bb5	-0.03623553
54	0x3d966cf3	0.07344999
55	0xbd4a0cf0	-0.049328744
56	0x3c8e0b7f	0.017339466
57	0xbbed4c46	-0.0072417585
58	0x3b97fbf2	0.0046381885
59	0xbda004a5	-0.07813386
60	0xbd0e36f5	-0.03472038
61	0x3d0ed4eb	0.034871023
62	0x3b2b5bce	0.002614725
63	0xbdc62483	-0.09674933
64	0xbcb7b33c	-0.022424333
65	0xbe02b60b	-0.12764756
66	0xbda7dbd5	-0.081962265
67	0x3ba37f04	0.0049895067
68	0x3c7f18ac	0.015569847
69	0xbe1113cc	-0.14167708
70	0xbd030a1a	-0.031992055
71	0xbc7a1aff	-0.015265225
72	0xbbde6b9d	-0.006787731
73	0x3e24b1d2	0.16083458
74	0x3d70fd0a	0.058835067
75	0xbd1f034f	-0.038821515
76	0x3d85ae40	0.06527376
77	0xbc9065cd	-0.017626667
78	0xbdcbc27e	-0.09949206
79	0xbd1abed1	-0.037779633
80	0xbd519a3b	-0.051172476
81	0x3cb93257	0.022607012
82	0xbd8c7076	-0.06857388
83	0x3e0b6d6b	0.13615958
84	0xbdf1c160	-0.118044615
85	0xbda82d13	-0.08211722
86	0x3cbe47e7	0.023227645
87	0x3de92774	0.11384478
88	0xb9a9dded	-0.0003239954
89	0xbd4dfcfc	-0.050290093
90	0x3cb7dcb5	0.022444109
91	0xbe20cdf9	-0.15703572
92	0xbcc1b68e	-0.02364662
93	0x3e41a509	0.18910612
94	0x3ce429d3	0.027851975
95	0x3d9ecf99	0.0775444
96	0xbd2b0654	-0.04175408
97	0x3e56cd9b	0.2097687
98	0x3e3538a4	0.17697388
99	0xbd1ce308	-0.03830245
100	0x3dfac5ce	0.122447595
101	0xbca26e1e	-0.019827899
102	0x3d2bc19e	0.041932695
103	0x3dba9d0d	0.09111986
104	0xbd38a733	-0.04508133
105	0x3ddf9855	0.10917727
106	0xbb7dbf25	-0.0038718667
107	0x3da7535d	0.08170197
108	0xbe14170d	-0.14461918
109	0x3d6db2b9	0.05803177
110	0xbc546fda	-0.012966121
111	0x3d889174	0.06668368
112	0x3cffedfe	0.031241413
113	0x3d3624bf	0.044468638
114	0xbb9e7f02	-0.004836918
115	0xbc8e6c39	-0.017385589
116	0xbd9a57c5	-0.07536272
117	0x3e11a0ce	0.14221498
118	0xbd0676c1	-0.032828096
119	0xbc595ba7	-0.0132664805
120	0xbd336d34	-0.043805316
121	0x3cc26bc3	0.023733025
122	0x3d2517cf	0.04030591
123	0xbd370e0b	-0.044691127
124	0xbda37923	-0.07982089
125	0xbcb47284	-0.022027262
126	0xbd731730	-0.059348285
127	0x3b7180a3	0.0036850355
128	0xbd81bf7b	-0.0633535
129	0xbcb8d9d0	-0.022564799
130	0x3dc185a4	0.09449318
131	0x3cb8eab4	0.022572853
132	0x3d2c47a5	0.042060513
133	0xbcb33062	-0.021873657
134	0xbcbb43f1	-0.022859545
135	0xbb9e32f1	-0.00482785
136	0x3d53bb70	0.051692426
137	0x3c23a7a1	0.009988696
138	0x3ddfec11	0.10933698
139	0xbd0daa17	-0.03458604
140	0xbd4a0e22	-0.049329884
141	0xbdc67f36	-0.09692232
142	0x3a8596cb	0.0010192035
143	0xbe0d35a1	-0.13789989
144	0x3d729d51	0.05923206
145	0xbdfc2402	-0.123115554
146	0xbcd1f4ec	-0.025629483
147	0x3c72459f	0.014787107
148	0xbd3870c7	-0.045029428
149	0xbe043354	-0.12910205
150	0xbd598665	-0.053106684
151	0xb9e38c16	-0.00043401186
152	0xbbec2b40	-0.0072073042
153	0xbd9d9e7b	-0.076962434
154	0xbc98f66f	-0.018672196
155	0xbc9c5fa8	-0.019088581
156	0x3de42d35	0.11141435
157	0xbc1b1deb	-0.009467582
158	0xbc5236b7	-0.012830428
159	0x3bc7877a	0.006089148
160	0xbc541cbc	-0.012946304
161	0x3d826b63	0.06368139
162	0x3c163691	0.009168283
163	0xbe1d2915	-0.15347703
164	0xbdc6376d	-0.096785404
165	0xbcf721b9	-0.030167447
166	0xbcb8c108	-0.022552982
167	0xbb5b02cd	-0.0033418417
168	0xbd885ede	-0.066587195
169	0x3ca9099a	0.020634461
170	0x3ca539e2	0.020169202
171	0x3d6253ef	0.055255827
172	0xbd8091f9	-0.06277842
173	0xbd6cd005	-0.05781557
174	0x3c98dcbf	0.018659947
175	0xbd60c42c	-0.054874584
176	0xbd85b70b	-0.06529053
177	0x3db8848f	0.090096585
178	0x3dad9eeb	0.08477577
179	0xbddacedb	-0.10683986
180	0x3b511aa5	0.003190675
181	0x3d0d8c6b	0.03455774
182	0xbd8e478a	-0.06947239
183	0xbd54b736	-0.051932536
184	0x3d6aef97	0.057357397
185	0xbddb6372	-0.10712327
186	0x3ddfa238	0.10919613
187	0xbc4f9991	-0.01267089
188	0xbd9a013e	-0.07519768
189	0xbdde6b75	-0.108603396
190	0x3cb537c6	0.022121321
191	0x3da38fa0	0.07986379
192	0x3d0f2481	0.034946922
193	0xbc00ef11	-0.007869498
194	0xbcfd5fc9	-0.030929463
195	0x3d883dd1	0.066524155
196	0x3d11c4a6	0.03558793
197	0x3d3e7314	0.046496466
198	0xbcfbfb47	-0.030759467
199	0x3dbb779d	0.09153674
200	0xbccd7aa7	-0.0250829
201	0x3c0a40be	0.008438287
202	0x3cd1dba4	0.025617428
203	0xbbdd10a4	-0.0067463685
204	0xbd689010	-0.056778014
205	0x3d6c79be	0.05773329
206	0xbe0f0561	-0.13966896
207	0x3bd28096	0.00642402
208	0xbd30cfa3	-0.043166768
209	0x3d756aee	0.05991643
210	0x3c6673b1	0.014065669
211	0x3d372153	0.044709515
212	0xbc89aa67	-0.016804887
213	0xbceaca39	-0.02866088
214	0xbc2f207f	-0.0106889
215	0x3a2a3447	0.0006492775
216	0xbd6e97d5	-0.058250267
217	0x3d811915	0.06303612
218	0x3c961386	0.018319856
219	0x3c48d4d8	0.012257777
220	0x3dd7da15	0.10539643
221	0x3a446999	0.0007492542
222	0x3dec4e7c	0.11538407
223	0x3ddb0247	0.10693794
224	0xbc59b220	-0.013287097
225	0x3b923909	0.0044623655
226	0xbc54e173	-0.012993204
227	0x3cac6c29	0.021047669
228	0x3d05179f	0.03249323
229	0xbd8ac661	-0.06776119
230	0xbd2174b6	-0.039417945
231	0xbe1af955	-0.15134175
232	0x3c8ad53e	0.016947385
233	0x3caf84e9	0.021425681
234	0xbd9e7756	-0.07737605
235	0xbd8f6a3a	-0.07002683
236	0x3d4a9b18	0.049464315
237	0x3ddbfbe5	0.107414044
238	0xbb97e146	-0.004635009
239	0x3d375cd1	0.04476625
240	0xbd672e46	-0.056440614
241	0x3d616840	0.05503106
242	0x3d4402b6	0.047854148
243	0x3c01362e	0.007886453
244	0x3dc2c559	0.09510297
245	0x3d03d8d8	0.03218922
246	0xbb031825	-0.0020003405
247	0x3dd8a9f2	0.105792895
248	0xbb77957d	-0.003777831
249	0x3d8454a9	0.0646146
250	0x3d6b60f0	0.057465494
251	0xbd1cb69f	-0.0382601
252	0xbdf5a193	-0.119937085
253	0xbd1b0b48	-0.037852556
254	0xbc138cb0	-0.0090057105
255	0x3d40022e	0.04687708

network_body._body_endoder.seq_layers.4.bias f4 [256]
0	0x3b5bae95	0.0033520807
1	0x3d6bd0ee	0.057572298
2	0x39742191	0.00023282158
3	0xba884286	-0.0010395802
4	0x3d01670c	0.031592414
5	0x3d24f3e1	0.040271644
6	0xbbf8b72b	-0.0075901947
7	0xbcdaff9d	-0.026733214
8	0xbcae5d8e	-0.021284845
9	0x3d66037a	0.05615566
10	0xbc3c45a4	-0.011491213
11	0x3d234d2b	0.039868515
12	0x3d20b4e7	0.039235022
13	0xba788916	-0.00094808766
14	0xbc88fff9	-0.01672362
15	0xbb0a7255	-0.0021125276
16	0xbad54761	-0.0016271883
17	0xbc9b6410	-0.018968612
18	0xbce0fa81	-0.0274632
19	0x3da2ccfc	0.07949254
20	0x3d4e4d11	0.050366465
21	0xbbd08613	-0.006363639
22	0x3d55b856	0.05217775
23	0xbba4fdc1	-0.0050351326
24	0xbb2cf831	-0.002639305
25	0xbc0dc822	-0.008653672
26	0xbca46a7a	-0.020070303
27	0xbcb753f5	-0.022378901
28	0xbc206eb1	-0.009792016
29	0xbbf8e101	-0.007595182
30	0xbc347362	-0.0110138375
31	0x3d29cc26	0.041454457
32	0xbc928fed	-0.017890895
33	0xbbbe1c00	-0.0058016777
34	0xbc897ae1	-0.016782226
35	0x3d10e2f6	0.035372697
36	0xbc0cd2f7	-0.00859522
37	0xb8e8d5ff	-0.00011102482
38	0xbd0923eb	-0.03348152
39	0x3ca05975	0.019573906
40	0xbc6b34fa	-0.014355892
41	0xbc55c8a1	-0.013048322
42	0x3d22584a	0.03963498
43	0x3d2903f2	0.04126353
44	0xbcaa5943	-0.020794516
45	0xbcc19e43	-0.023635035
46	0xbaa65e4d	-0.0012692899
47	0xbcc497a5	-0.023998091
48	0x3ce7f56b	0.028315267
49	0x3dae5a82	0.08513357
50	0xbc25c458	-0.010117613
51	0x3d052d39	0.03251383
52	0xbc656c68	-0.014002897
53	0xbcf594d2	-0.02997819
54	0xbc92aff3	-0.017906165
55	0xbc7e89a7	-0.015535749
56	0xbc97c0cc	-0.01852455
57	0xbc7972a4	-0.015225086
58	0xbc8a82c4	-0.016908057
59	0xbc75adb5	-0.014995028
60	0xbbd9d91c	-0.006648196
61	0xbc237991	-0.009977714
62	0xbc4cda62	-0.012503238
63	0xbbc81268	-0.00610571
64	0xbbcfaa5d	-0.0063374476
65	0x3d49d6f7	0.049277272
66	0xbc4123af	-0.011788293
67	0x3be80fd6	0.007081966
68	0xbb929867	-0.004473734
69	0xbcdc8e41	-0.0269233
70	0x3d321a47	0.04348209
71	0xbb93b995	-0.004508207
72	0xbc72affc	-0.014812466
73	0xbc89be23	-0.016814297
74	0xbb945db8	-0.0045277737
75	0xbc8aa6e7	-0.016925288
76	0xb6c0e74f	-5.7489738e-06
77	0xbc18afd0	-0.009319261
78	0x3cd3b41f	0.025842724
79	0xbc23a960	-0.009989113
80	0xbc80635c	-0.015672378
81	0x3be7c02e	0.00707247
82	0xbcf758b2	-0.03019366
83	0xbc89dde3	-0.016829437
84	0x3d657410	0.05601889
85	0xbc8b2eba	-0.016990054
86	0xbc1a8eb3	-0.009433436
87	0xba4a100a	-0.00077080785
88	0xbc8ffa0a	-0.017575283
89	0xbcb98e90	-0.022650987
90	0x3d6db3ee	0.058032922
91	0x3d2df91f	0.04247391
92	0xbb126d0d	-0.0022342831
93	0xbba0ba0f	-0.0049049924
94	0xbca7ab8e	-0.020467546
95	0xbcc8e7b7	-0.024524553
96	0x3d3aa413	0.04556663
97	0xbcddbe3a	-0.027068246
98	0xbbfcec95	-0.0077186325
99	0x3cc3a6d9	0.02388327
100	0xba4ff4a1	-0.0007932876
101	0xbd230ab2	-0.03980512
102	0xbcf0e02a	-0.029403765
103	0xbc369fce	-0.011146499
104	0xbbd192c1	-0.0063956683
105	0xbb1a8603	-0.0023578412
106	0xbc21eeff	-0.009883641
107	0x3c689821	0.014196427
108	0xbca72da3	-0.020407503
109	0xbb67aa73	-0.0035349398
110	0xbc9b3198	-0.018944547
111	0x3d945f21	0.07244707
112	0x3d4f7093	0.05064447
113	0x3d412b6b	0.047160547
114	0xbc58b863	-0.013227555
115	0xbc4839b2	-0.012220787
116	0xbd14c803	-0.03632356
117	0xbccb6d03	-0.024832254
118	0xbc51f7f2	-0.012815462
119	0x3c185eb1	0.00929992
120	0x3a53abbf	0.00080746034
121	0xbc6d8cb4	-0.014498878
122	0x3c9e6668	0.01933594
123	0xbc1dbd6b	-0.00962768
124	0xbc3d1a66	-0.011541938
125	0xb9c5ae1b	-0.00037704487
126	0xbc83ff46	-0.016112935
127	0xbbb17824	-0.005415933
128	0xbaf40733	-0.0018617868
129	0xba2eb11e	-0.0006663966
130	0xbc80b9ab	-0.015713533
131	0x3d40286b	0.046913546
132	0x3cb423d7	0.021989746
133	0x3d5b095a	0.053475715
134	0x3d93a29c	0.0720875
135	0xbcdee04d	-0.027206564
136	0xba812675	-0.000985338
137	0x3c9929b9	0.018696653
138	0xbb476940	-0.0030427724
139	0xbd38dde1	-0.045133475
140	0x3cce0f64	0.025153823
141	0x3d9300fb	0.071779214
142	0xbd0b6ac5	-0.03403737
143	0xbcd9b18d	-0.02657392
144	0xbc6f35a6	-0.014600193
145	0xbd1350ab	-0.035965603
146	0x3d513aa7	0.051081326
147	0xbcc83429	-0.024438934
148	0xbb1b536a	-0.0023700842
149	0xbca2e655	-0.019885221
150	0x3dd6c9c8	0.104877055
151	0x3ba8d24a	0.0051520215
152	0xbd18f6a2	-0.037344582
153	0x3daa0964	0.08302572
154	0xbc61b0e8	-0.013775088
155	0x3d1d35f5	0.038381536
156	0xbcaafb9f	-0.020871935
157	0x3d32d06a	0.04365579
158	0x3d6e8202	0.058229454
159	0xbd0b1083	-0.033951294
160	0xbcc871c8	-0.024468318
161	0xbcec1a73	-0.028821206
162	0x3d31260e	0.043249182
163	0xbc68b223	-0.014202627
164	0xbce3165f	-0.027720628
165	0x3d90f366	0.070776746
166	0x3d7c6c77	0.061626878
167	0xbcc8796d	-0.024471963
168	0xbba4dddc	-0.0050313305
169	0xbc7c1457	-0.015385709
170	0xbc97f156	-0.018547695
171	0x3d3bca2b	0.0458471
172	0xbd18a4fa	-0.03726671
173	0xbcc99690	-0.024607927
174	0xbc0a7294	-0.008450169
175	0x3c222167	0.009895659
176	0x3df4c69f	0.119519465
177	0xbd3628f6	-0.044472657
178	0x3ad9e458	0.0016623838
179	0x3cbfe983	0.023426777
180	0xbbeb929f	-0.0071891095
181	0xbc0f6651	-0.0087524215
182	0x3ae59963	0.0017517026
183	0xbc757b60	-0.014983028
184	0x3d836a0e	0.06416713
185	0xbcda937a	-0.02668165
186	0x3c7bb1d9	0.015362226
187	0xbc4396af	-0.011937781
188	0xbc8cfcd9	-0.01721041
189	0x3c08e20c	0.008354675
190	0x3bfef807	0.007781032
191	0xbbeb1577	-0.0071741897
192	0xbbc607dd	-0.006043418
193	0x3b925d69	0.0044667018
194	0xbcb8db3b	-0.022565475
195	0xbc4bf791	-0.012449161
196	0x3c6fab80	0.014628291
197	0xbc80dc6e	-0.015730109
198	0x3c852a27	0.016255451
199	0x3aeca41d	0.0018054281
200	0xbaa64fa9	-0.0012688535
201	0x3d2aa0d5	0.041657288
202	0x3c1c9d89	0.009559044
203	0xbc247e35	-0.010039856
204	0x3d574249	0.05255345
205	0xbca65b21	-0.020307126
206	0xbd456479	-0.04819152
207	0xbcce9fbd	-0.025222654
208	0xbc579648	-0.013158388
209	0x3cd89040	0.026435971
210	0xbc3f73e7	-0.011685348
211	0xbcf36ba0	-0.029714406
212	0xbab94ecc	-0.0014137863
213	0xbcd99738	-0.026561365
214	0x3d514179	0.05108783
215	0xbc83d8d8	-0.01609461
216	0xbca4b848	-0.020107403
217	0xbc504a11	-0.012712971
218	0x3d597330	0.053088367
219	0x3dbe06ec	0.09278664
220	0xbc5f7f06	-0.013641125
221	0xbceb270c	-0.028705142
222	0xbd010cee	-0.03150647
223	0x3db25ea7	0.0870946
224	0x3d43f016	0.047836386
225	0x3d77d387	0.060504463
226	0x3d7b1be0	0.06130588
227	0xbce20989	-0.027592437
228	0xbc5572d1	-0.013027863
229	0xbbcd2f11	-0.0062617143
230	0x3d32ae34	0.043623164
231	0x3d46b483	0.048511993
232	0xbc2fadfd	-0.010722634
233	0xbc66e9da	-0.0140938405
234	0x3c9d5913	0.019207513
235	0x3d0c77ca	0.034293927
236	0xbd233e4a	-0.039854325
237	0xbd419af6	-0.047266923
238	0xbcc378ba	-0.023861278
239	0x3d581421	0.05275357
240	0xbd148219	-0.036256883
241	0xbc033078	-0.008007161
242	0xbc0bb257	-0.008526406
243	0xbca26ce1	-0.019827308
244	0x3d0c8a43	0.034311544
245	0xbca6fdac	-0.020384632
246	0xbc6b8222	-0.014374288
247	0xbbe6d83f	-0.0070448215
248	0x3d91d7d7	0.07121246
249	0xbc11039a	-0.008850956
250	0x3dadd037	0.084869795
251	0xbd31979e	-0.043357484
252	0x3cc37d81	0.023863556
253	0x3d4db9f3	0.050226163
254	0xbc1e9b3c	-0.009680565
255	0x3d2a181f	0.04152691

action_model._continuous_distribution.log_sigma f4 [1, 6]
0	0x3da64a84	0.081196815
1	0x3e354de3	0.17705493
2	0x3dd65124	0.10464695
3	0x3e0efe52	0.13964203
4	0x3dc04fbb	0.093902074
5	0x3e2119b1	0.15732457

action_model._continuous_distribution.mu.weight f4 [6, 256]
0	0x3cd63fcb	0.026153466
1	0x3d9246b1	0.071423896
2	0x380abe22	3.307884e-05
3	0x3b4a79a8	0.0030895267
4	0x3c14b102	0.009075405
5	0x3dcc6dad	0.099818565
6	0x3c7d92a3	0.015476855
7	0x3c2579ef	0.010099872
8	0x3cc87324	0.024468966
9	0x3dacfdc4	0.084468395
10	0x3d231849	0.039818082
11	0x3d9ec82f	0.07753026
12	0x3d97ef6a	0.074187115
13	0x3bf431cf	0.0074522267
14	0x3c5b5530	0.0133870095
15	0x39bbef6e	0.00035845808
16	0x3b5a7a58	0.0033337083
17	0x3c125307	0.008930928
18	0x3c8e2f39	0.017356502
19	0x3db3a2cc	0.087712854
20	0x3dd2e440	0.102974415
21	0xbc69361e	-0.014234094
22	0x3d517072	0.051132627
23	0xbcb190f9	-0.021675574
24	0x3c3939af	0.011305257
25	0x3cdb6562	0.026781742
26	0x3c7aa0fa	0.015297169
27	0x3c23469a	0.009965563
28	0xbc68ffc9	-0.01422114
29	0x3d198826	0.037483357
30	0xbc841078	-0.016121134
31	0x3daf9f09	0.085752554
32	0x3d2fa2cd	0.04287987
33	0xbb99ebb5	-0.004697288
34	0x3d4a6c31	0.049419586
35	0x3da5805c	0.08081123
36	0x3a36de76	0.0006975898
37	0x3c54b7c3	0.012983265
38	0x3d0f8134	0.035035327
39	0x3d894334	0.06702271
40	0x3c95a54f	0.018267302
41	0x3c2b5630	0.01045756
42	0x3db3e4a1	0.08783842
43	0x3c80cadb	0.015721729
44	0x3c270b9c	0.010195639
45	0x3c73a735	0.014871408
46	0xbc3f5cf3	-0.011679876
47	0x3c3b4ab9	0.0114313895
48	0x3da416b1	0.080121405
49	0x3dff81c2	0.12475921
50	0xbc6160dd	-0.013756004
51	0x3de8c368	0.11365396
52	0x3cd62fec	0.026145898
53	0xbc7fba5d	-0.015608397
54	0xbc86c472	-0.016451094
55	0x3a0d9ce1	0.00054021
56	0x3d30fc1d	0.043209184
57	0x3cb61d29	0.022230702
58	0x3bc00ccd	0.005860901
59	0x3cd76e46	0.0262977
60	0x3d008b8a	0.031383075
61	0x3d298a80	0.04139185
62	0x3cc29775	0.023753861
63	0x3b2acbf2	0.0026061502
64	0x3c8f0d6b	0.017462453
65	0x3debf6f8	0.11521715
66	0x3d31bdb5	0.04339381
67	0x3d67b314	0.056567267
68	0x3d066649	0.03281239
69	0x3c4a87c4	0.012361471
70	0x3cee5bc2	0.029096488
71	0xbb9a39c0	-0.0047065914
72	0x3cda766e	0.0266678
73	0xbc8eef53	-0.017448103
74	0x3aaeaf65	0.0013327418
75	0x3c1faeb8	0.009746246
76	0xbc2b796d	-0.010465962
77	0x3cd8c1cd	0.026459599
78	0x3d9b0871	0.075699694
79	0x3c29d379	0.01036536
80	0xbcc49976	-0.023998957
81	0x3d569f3d	0.052397955
82	0x3c56de07	0.013114459
83	0xbc3bc589	-0.01146067
84	0x3dfad9f9	0.12248606
85	0x3bb0a0b0	0.005390249
86	0xbd1f5e0d	-0.038908053
87	0xbb6664c5	-0.0035155278
88	0x3d130f54	0.03590329
89	0x3bce1259	0.0062888083
90	0x3dba7d10	0.09105885
91	0x3ccd46af	0.025058119
92	0x3d2942cc	0.041323468
93	0x3c80efa7	0.015739275
94	0x3d2ef427	0.04271331
95	0x3b2c9e33	0.0026339411
96	0x3d6b3689	0.057425056
97	0x3bbc315e	0.0057431897
98	0x3cb0a664	0.021563716
99	0x3dc0d718	0.09416026
100	0x3d010ab2	0.03150434
101	0x3ca21104	0.019783504
102	0x3d52de6f	0.05148166
103	0x3c265632	0.0101523865
104	0x3c275224	0.010212455
105	0xbb020788	-0.0019840915
106	0x3d1b3a93	0.037897658
107	0x3d5a583c	0.053306803
108	0x3cc37ecf	0.023864178
109	0x3cd0baa5	0.025479624
110	0x3c1d5dda	0.0096048955
111	0x3db8ff4d	0.0903307
112	0x3d57f0ab	0.052719753
113	0x3de63c60	0.11241984
114	0x3c947bb9	0.018125402
115	0x3c8443fe	0.016145702
116	0x3d1a9bf4	0.037746385
117	0x3c226d6d	0.009913784
118	0x3d4eb5e5	0.050466437
119	0x3d519887	0.051170852
120	0x3dbfec53	0.09371247
121	0x3d67f3d5	0.05662902
122	0x3dc00e37	0.09377711
123	0x3d513f45	0.05108573
124	0x3d314a0a	0.0432835
125	0x3c4dd181	0.012562157
126	0x3d653282	0.05595637
127	0xbadaf8ad	-0.0016706191
128	0x3d4723d0	0.048618138
129	0x3d4a2c38	0.049358577
130	0xbc1c51ff	-0.009541034
131	0x3da0cd39	0.07851643
132	0xbd050ad8	-0.032481045
133	0x3dddcbd6	0.10829894
134	0x3d90aad9	0.070638366
135	0xbc3c5c41	-0.011496604
136	0x3cfb3d8e	0.030669
137	0x3d442512	0.047886916
138	0xb9b44dd4	-0.00034390262
139	0xbcc152b9	-0.023599016
140	0x3dc1db87	0.094657
141	0x3e006628	0.1253897
142	0x3cb7e72f	0.022449104
143	0x3ca4e19f	0.020127116
144	0x3cbb1e33	0.022841549
145	0x3c97ced1	0.018531235
146	0x3db0e72a	0.08637841
147	0x3bf4df44	0.0074729044
148	0x3d3b3da2	0.045713075
149	0x3c59563d	0.01326519
150	0x3dba9e27	0.091121964
151	0x3d1047d5	0.035224754
152	0x3c977c35	0.018491844
153	0x3dd87bc1	0.10570479
154	0xbc62c641	-0.013841213
155	0x3d9740e3	0.07385423
156	0x3c705ca9	0.014670529
157	0x3d95a9af	0.07307755
158	0x3d9c4ba3	0.07631614
159	0x3d0364b7	0.03207847
160	0x3caa383f	0.020778773
161	0x3caa9c18	0.020826384
162	0x3dbaac51	0.09114898
163	0x3ccc3fb8	0.024932727
164	0x3c794f23	0.015216622
165	0x3dca8112	0.098878995
166	0x3de2a594	0.11066738
167	0x3cb7f1f6	0.022454243
168	0x3d2c613c	0.042084917
169	0x3bd40b1a	0.00647105
170	0xbcf149ff	-0.02945423
171	0x3d6ef998	0.0583435
172	0x3c638637	0.01388698
173	0xba6a23b3	-0.0008931711
174	0x3d2a73f7	0.0416145
175	0x3ce4680e	0.027881648
176	0x3de57310	0.11203587
177	0x3cbe423b	0.02322494
178	0x3bf342d8	0.00742374
179	0x3d90bed7	0.0706765
180	0x3cd0b94c	0.025478981
181	0x3c4418c2	0.011968793
182	0xbd0fddab	-0.03512351
183	0x3c218ad4	0.009859759
184	0x3d96d847	0.073654704
185	0x3d0c1c24	0.034206524
186	0xbc8641af	-0.016388742
187	0x3c4f4864	0.012651537
188	0x3d346e85	0.044050712
189	0x3d4ffae4	0.050776377
190	0x3d2bb145	0.041917104
191	0xba0b186e	-0.00053060695
192	0x3c0c4002	0.0085601825
193	0x3d41886c	0.047249243
194	0xb698ba97	-4.551675e-06
195	0x3c07bf87	0.00828541
196	0x3d9d7f6a	0.07690318
197	0x3c41327c	0.011791822
198	0x3db57cb7	0.08861678
199	0x3d0efb98	0.034907907
200	0xbd492adc	-0.04911314
201	0x3dba6cde	0.09102796
202	0xbb6328f1	-0.0034661854
203	0x3d063420	0.032764554
204	0x3dbdb79a	0.09263535
205	0x3d334521	0.0437671
206	0xbc0fdb9a	-0.008780384
207	0x3c82919e	0.015938576
208	0x3c22e637	0.009942583
209	0x3d2f8858	0.042854637
210	0x3c1d714c	0.009609532
211	0x3c39ca61	0.011339755
212	0xbc03e2d6	-0.008049687
213	0x3c2d15ac	0.010564249
214	0x3d3248af	0.043526348
215	0x3bf15c8c	0.007365769
216	0x3b27a843	0.002558247
217	0x3cbfca23	0.023411816
218	0x3dcde368	0.1005314
219	0x3db1887c	0.086686105
220	0x3d329aa3	0.043604504
221	0xbca87c98	-0.020567223
222	0x3d1a1c2c	0.037624523
223	0x3e026e52	0.12737396
224	0x3db97f4e	0.090574846
225	0x3dbc8b11	0.09206212
226	0x3db1975e	0.08671449
227	0x3c55ba33	0.013044882
228	0x3d0d5710	0.034506857
229	0x3c79eb7a	0.015253896
230	0x3d87504a	0.06607111
231	0x3d970587	0.07374101
232	0x3d387356	0.045031868
233	0x3d09481a	0.033516027
234	0x3d7796f3	0.06044669
235	0x3d9671db	0.07345935
236	0x3a4edbff	0.00078910583
237	0x3c9c8997	0.019108577
238	0x3cb45044	0.02201093
239	0x3da1e748	0.079054415
240	0x3c34b7e3	0.01103017
241	0x3c101e15	0.008796235
242	0x3caab5a5	0.020838568
243	0x3cd586eb	0.02606531
244	0x3d5bbd96	0.0536476
245	0x3d389047	0.04505947
246	0x3d11822a	0.035524525
247	0x3d35a683	0.04434825
248	0x3d95935d	0.07303498
249	0xbba672c9	-0.0050796014
250	0x3def37f9	0.11680598
251	0x3cafd872	0.021465514
252	0x3d20cfdc	0.03926073
253	0x3d633c04	0.055477157
254	0x3d6e3333	0.058154296
255	0x3dc7afd6	0.09750335

action_model._continuous_distribution.mu.bias f4 [6]
0	0x3d3b6995	0.045754988
1	0xbcaad691	-0.020854266
2	0xbd2da72b	-0.042395752
3	0xbd2ea9f8	-0.042642564
4	0xbd25b607	-0.040456798
5	0x3c2c73ec	0.010525685
