results/NearSingularity03/NearSingularity/NearSingularity-999948.onnx (onnx, 623772 bytes, 9 tensors)

network_body._body_endoder.seq_layers.0.weight f4 [256, 85]
0.07269901 -0.08473749 -0.004779079 0.060105693 -0.0005885479 -0.028695451 -0.30503353 0.2185916
0.20109701 -0.11393264 0.119076185 0.058465622 -0.148185 0.19638062 -0.037706684 0.1154744
0.025045915 -0.097081 -0.23134641 -0.05347751 -0.0012609115 -0.013386631 0.17648405 0.029952638
-0.046219878 0.21242197 0.11937478 0.09142004 0.08431932 -0.032061584 -0.08304699 0.16496697
0.095428385 0.08369648 0.07209693 0.10147091 0.036708053 -0.100459844 0.02928629 -0.09436864
0.0739185 -0.09809142 -0.12846524 -0.029586392 -0.04730426 0.08181491 -0.019967664 -0.08390738
0.17705686 0.07874981 -0.07841407 -0.20772192 0.045823555 -0.074318916 0.20332132 -0.010075214
0.108189054 0.18764241 -0.1466428 0.06925302 0.018906577 -0.18645184 -0.054572392 -0.061280247
0.021284988 0.055776436 0.21467373 -0.11368633 -0.10916263 0.32915586 -0.11361227 0.16288503
0.24752055 0.20795728 0.07733173 0.018697087 -0.07721823 0.15478538 0.01875548 0.03744365
0.13766147 -0.058880292 -0.23756552 -0.015288773 -0.029682515 -0.09699744 0.112518065 -0.021679457
-0.032564078 -0.026829071 0.26633266 -0.022710398 -0.0019646008 -0.029879006 0.0064890655 -0.13698573
0.18545839 -0.0061464394 0.015318487 0.14859155 -0.11346698 0.04806733 -0.004030342 -0.08347025
0.18382773 0.06558595 0.022953998 -0.05595729 -0.1932967 0.14829107 -0.057459116 0.015254432
0.062089812 -0.0056560873 0.12375287 -0.055889178 -0.1385615 -0.06842631 0.025598815 -0.22787502
-0.082055055 -0.09010378 0.003783872 0.15692924 0.024152929 -0.16471748 -0.036347393 -0.054253653
0.06793077 -0.018626014 -0.060035262 -0.15734512 0.122882314 -0.15693013 -0.13357788 -0.03151338
0.09770245 -0.04606786 0.2665964 0.08597599 -0.17183767 0.054955088 -0.006426578 -0.21301675
-0.04375626 -0.019263934 0.017653717 0.025091775 -0.056823276 -0.058428865 0.070071556 0.013113758
-0.08164806 -0.09156506 0.12143987 0.022061758 -0.040419213 0.08709289 0.2081729 0.007356222
-0.10243936 -0.053743463 -0.19301848 -0.06653675 -0.044568602 -0.15309462 -0.12560785 -0.10629801
0.04729994 -0.018181814 -0.01598879 -0.1354142 -0.051529665 -0.05957078 0.10242289 -0.14608641
-0.10208471 -0.009807161 -0.08637119 0.01595065 0.03939887 -0.09214128 0.17100349 0.014811185
-0.02267321 0.05711565 0.072119564 0.0991936 -0.073207386 0.0010976304 -0.054602973 -0.0590533
-0.07983814 -0.09954119 -0.05481649 0.07219532 0.09401784 -0.037921324 0.08191911 0.09176853
0.07116011 -0.09433331 -0.010106692 0.057319775 0.17728892 -0.13478431 0.18648224 -0.1077914
0.09218255 0.05095721 -0.059048615 -0.09469943 0.038420416 -0.015853046 0.07305941 -0.020127555
-0.00071217195 0.093014136 -0.006467706 0.077553414 0.022534737 -0.15513214 0.04814534 -0.114626944
0.0691317 0.022762703 0.0042600944 0.07364654 0.057564277 0.026620569 -0.078167185 -0.07943329
0.3173462 0.0032487914 -0.17203172 -0.0552805 0.026437504 0.073687784 0.07477185 0.009491227
0.14177373 0.04732219 -0.20124695 -0.033008166 0.057614405 -0.036538973 0.068653144 0.08064259
-0.09029924 0.12905532 0.23581554 -0.100136735 -0.07425482 -0.016885327 0.19996138 -0.038330846
00000000: 38e3 943d d98a adbd d299 9cbb 6331 763d
00000010: c848 1aba b912 ebbc 5b2d 9cbe 7ad6 5f3e
00000020: 60ec 4d3e 8455 e9bd 37de f33d a679 6f3d
00000030: cfbd 17be 0018 493e 5372 1abd d87d ec3d
00000040: 172d cd3c 67d2 c6bd 13e6 6cbe 3c0b 5bbd
00000050: 2b45 a5ba 9a53 5bbc 3cb8 343e 3c5f f53c
00000060: 0e51 3dbd 2585 593e c47a f43d 6e3a bb3d
00000070: 9caf ac3d 0253 03bd 8a14 aabd 1aed 283e
00000080: f56f c33d 0f69 ab3d 8ea7 933d fbcf cf3d
00000090: 2f5b 163d e4bd cdbd cde9 ef3c 5844 c1bd
000000a0: 9562 973d 28e4 c8bd 648c 03be 295f f2bc
000000b0: 1dc2 41bd 938e a73d 3a93 a3bc a2d7 abbd
000000c0: 654e 353e 9547 a13d 8e97 a0bd 0eb5 54be
000000d0: 7bb1 3b3d 8434 98bd 7733 503e 8312 25bc
000000e0: 3992 dd3d 5525 403e 8829 16be 87d4 8d3d
000000f0: f7e1 9a3c 3bed 3ebe 4d87 5fbd ff00 7bbd
00000100: db5d ae3c d575 643d 6ed3 5b3e 61d4 e8bd
00000110: a890 dfbd 1e87 a83e 8dad e8bd 55cb 263e
00000120: 0776 7d3e c1f2 543e 1960 9e3d a22a 993c
00000130: 9724 9ebd 0f80 1e3e 18a5 993c 835e 193d
00000140: 21f7 0c3e 762c 71bd 6044 73be c37d 7abc
00000150: bf28 f3bc 98a6 c6bd df6f e63d 1e99 b1bc
00000160: e961 05bd a4c8 dbbc c15c 883e 280b babc
00000170: 88c0 00bb d1c4 f4bc 3aa2 d43b fd45 0cbe
00000180: cee8 3d3e 1268 c9bb 64fa 7a3c 6228 183e
00000190: 6061 e8bd 40e2 443d f610 84bb 73f2 aabd
000001a0: 563d 3c3e ed51 863d 060a bc3c 7933 65bd
000001b0: 92ef 45be 9dd9 173e 405a 6bbd baed 793c
000001c0: e351 7e3d b356 b9bb 2572 fd3d 0dec 64bd
000001d0: 11e3 0dbe 1823 8cbd 9bb4 d13c 1258 69be
000001e0: 7b0c a8bd 5588 b8bd d6fa 773b 0fb2 203e
000001f0: 5ddc c53c b3ab 28be 01e1 14bd 1439 5ebd
00000200: 4a1f 8b3d 9595 98bc 89e7 75bd 141f 21be
00000210: b9a9 fb3d 4bb2 20be a4c8 08be 2d14 01bd
00000220: 3918 c83d a7b1 3cbd 537f 883e 2e14 b03d
00000230: 37f6 2fbe 9618 613d 0b96 d2bb 1021 5abe
00000240: c439 33bd 66cf 9dbc 879e 903c 448d cd3c
00000250: 86bf 68bd 1b53 6fbd ad81 8f3d 16db 563c
00000260: 1937 a7bd 7686 bbbd 77b5 f83d dcba b43c
00000270: 9e8e 25bd c25d b23d 472b 553e 760c f13b
00000280: bacb d1bd 1b22 5cbd a3a6 45be 6b44 88bd
00000290: 918d 36bd d6c4 1cbe 589f 00be c5b2 d9bd
000002a0: 95bd 413d 07f2 94bc ecfa 82bc 05aa 0abe
000002b0: c510 53bd 7d00 74bd 18c3 d13d ad97 15be
000002c0: ca11 d1bd 37ae 20bc 61e3 b0bd f0aa 823c
000002d0: b660 213d 91b4 bcbd 8a1b 2f3e 9daa 723c
000002e0: 2bbd b9bc 1af2 693d 6cb3 933d 0426 cb3d
000002f0: c1ed 95bd 5dde 8f3a 5ea7 5fbd e0e1 71bd
00000300: 2e82 a3bd 40dc cbbd 4187 60bd 24db 933d
00000310: 6d8c c03d 6453 1bbd 35c5 a73d 24f1 bb3d
00000320: 64bc 913d d331 c1bd 8a96 25bc 24c8 6a3d
00000330: 3a8b 353e e604 0abe 33f5 3e3e bdc1 dcbd
00000340: 34ca bc3d 82b8 503d f6dc 71bd c6f1 c1bd
00000350: ba5e 1d3d 3fde 81bc 2ca0 953d 8be2 a4bc
00000360: 0db1 3aba 327e be3d 0def d3bb 53d4 9e3d
00000370: c59a b83c f6da 1ebe 0c34 453d 88c1 eabd
00000380: ec94 8d3d d978 ba3c 4398 8b3b ffd3 963d
00000390: 85c8 6b3d 6113 da3c 1e16 a0bd ecad a2bd
000003a0: 337b a23e ade9 543b 1529 30be ce6d 62bd
000003b0: 7793 d83c 9fe9 963d fc21 993d 1781 1b3c
000003c0: 222d 113e ead4 413d ae13 4ebe 9233 07bd
000003d0: 15fd 6b3d e4a9 15bd 059a 8c3d f127 a53d
000003e0: cfee b8bd 1427 043e a179 713e 7d14 cdbd
000003f0: e912 98bd 1953 8abc adc2 4c3e ce00 1dbd

network_body._body_endoder.seq_layers.0.bias f4 [256]
0.031064307 0.00777397 -0.027781669 -0.03243871 0.00081812503 0.044663675 0.05142972 0.058254205
0.035860766 0.026406193 0.014729168 0.049908936 0.02840359 0.03360736 -0.009489241 0.017570708
0.06928402 0.006104162 0.026216662 -0.062368736 -0.012599596 -0.010291244 0.020125661 0.026361916
0.03777663 0.021091867 0.027190223 0.026772635 -0.026602402 0.042793624 0.023615925 0.027604098
0.028033236 0.03424974 0.015484593 -0.0070330137 -0.028265571 -0.022412203 -0.0017606224 0.073355906
-0.0064204447 -0.0414347 -0.0013471602 0.011190299 0.022071302 -0.023017889 0.044900484 -0.028895123
0.027287794 0.03252549 0.0046125716 0.017244574 0.023248104 0.020183424 0.025416424 -0.022820778
0.035383817 -0.000370661 -0.024002342 0.060688473 0.029092321 0.07656636 0.029555738 0.02680041
0.07886897 0.032637227 -1.28610955e-05 -0.0017855002 -0.003926777 -0.016884018 -0.0037973681 0.03218805
0.006790177 -0.0456704 0.01039867 -0.023897933 0.052106563 0.021352096 -0.04415094 0.020887129
-0.015024575 -0.022888204 -0.042679638 0.008742385 0.012619159 0.004165048 0.032505542 0.066713646
0.021654595 -0.02122287 -0.00386852 0.0033826984 0.026647482 0.038301032 0.07427015 0.013895636
0.044132754 0.027072685 0.08397089 -0.011691632 -0.0043196734 -0.016137118 0.0130136125 0.0035496843
0.020282485 0.0100779105 0.004533449 -0.0150496345 -0.009937282 0.054525964 -0.019016573 0.02226274
0.079572886 0.043490764 0.025273873 -0.035417132 -0.08742165 -0.033696093 0.023616403 0.015997214
0.027950225 0.008640369 0.08181391 0.07088719 0.047804456 0.04265817 -0.015495853 0.015480415
0.0097053815 -0.03811912 -0.015500356 0.04306217 0.004319615 -0.018180765 0.029184649 0.0356529
-0.024382746 0.050436515 -0.0017031878 0.000592755 0.0047967248 -0.018952364 -0.01356792 0.03691111
0.048532765 0.025728356 -0.02405874 0.019939667 0.0688675 2.0878195e-05 0.032933354 0.021177832
0.0047445274 0.005296882 0.015071897 -0.01663403 0.003989828 -0.0022532048 -0.0019055839 -0.009598014
0.030649606 0.03279596 0.021357868 0.01258966 0.04663897 0.028175509 0.016529191 -0.016358854
-0.011425717 -0.022022853 -0.0006518583 -0.01626593 0.035715964 -0.015907433 0.027879609 0.011726859
0.0144531075 -0.002401674 -0.01626226 -0.005384143 0.014619207 -0.009917145 0.04148587 -0.036637466
-0.0004203259 -0.003321564 -0.012707307 0.0074339146 0.021873122 -0.011059859 0.06912906 0.06353621
0.01621074 0.0032741 -0.043423045 0.061757814 0.010166518 0.07895732 0.010671525 0.06231017
0.055194326 -0.011128352 0.047305863 0.02698959 -0.05451548 0.025632087 -0.010659876 0.028627397
0.057250198 0.0019284798 0.02604718 0.0024431096 -0.0067602633 0.037599597 0.014355824 -0.006230564
0.0145135755 0.043853045 0.018327376 -0.01998268 0.031216567 0.027811693 0.032102074 0.025079468
0.042315036 0.024471616 0.075291544 -0.0007789561 0.015714873 -0.050725527 0.04254579 -0.010005706
0.03909383 0.030387666 0.0050801085 -0.06887861 0.0024372903 0.010495015 0.026058055 0.00029890888
-0.0067297374 -0.023388907 0.005120974 -0.0587111 -0.011839832 -0.012285463 -0.033139702 0.019689448
0.0028801174 0.055227477 -0.036922548 0.037914332 -0.027830955 -0.018463073 0.014404872 -0.022229161
00000000: 937a fe3c c9bc fe3b 6296 e3bc 74de 04bd
00000010: 7177 563a 42f1 363d f8a7 523d f69b 6e3d
00000020: bde2 123d cd51 d83c 9c52 713c 506d 4c3d
00000030: a5ae e83c dfa7 093d c378 1bbc 72f0 8f3c
00000040: c8e4 8d3d 6c05 c83b 53c4 d63c 5c76 7fbd
00000050: 896e 4ebc 9b9c 28bc 92de a43c f2f4 d73c
00000060: abbb 1a3d dac8 ac3c 08be de3c 4952 db3c
00000070: 48ed d9bc 5e48 2f3d 2f76 c13c fd21 e23c
00000080: f5a5 e53c 7549 0c3d 17b3 7d3c 3275 e6bb
00000090: 338d e7bc cc99 b7bc afc4 e6ba 9f3b 963d
000000a0: 9862 d2bb 6fb7 29bd 3293 b0ba 8457 373c
000000b0: e0ce b43c 0390 bcbc 92e9 373d 77b5 ecbc
000000c0: a78a df3c 7339 053d 0e25 973b 7e44 8d3c
000000d0: cf72 be3c b557 a53c 1b36 d03c a4f2 babc
000000e0: 9fee 103d 4755 c2b9 8fa0 c4bc 7a94 783d
000000f0: 0553 ee3c d3ce 9c3d e01e f23c 898c db3c
00000100: 0e86 a13d 9dae 053d fcc5 57b7 7207 eaba
00000110: 31ac 80bb 5a50 8abc 44dd 78bb 9ed7 033d
00000120: 2280 de3b e310 3bbd 2f5f 2a3c 99c5 c3bc
00000130: b16d 553d 97ea ae3c 9ed7 34bd 7c1b ab3c
00000140: a329 76bc 0b80 bbbc d8d0 2ebd 383c 0f3c
00000150: 97c0 4e3c f47a 883b 8824 053d 2aa1 883d
00000160: fa64 b13c 96db adbc ff86 7dbb 43b0 5d3b
00000170: d24b da3c 8be1 1c3d f31a 983d 86aa 633c
00000180: 8cc4 343d 89c7 dd3c eef8 ab3d 428e 3fbc
00000190: 0c8c 8dbb fd31 84bc 0c37 553c d2a1 683b
000001a0: 7427 a63c d21d 253c 548d 943b be92 76bc
000001b0: fbcf 22bc 9e56 5f3d a5c8 9bbc 5a60 b63c
000001c0: 1cf7 a23d 5f23 323d 270b cf3c 8e11 11bd
000001d0: 1f0a b3bd ea04 0abd 3077 c13c 970c 833c
000001e0: dff7 e43c 5690 0d3c 0d8e a73d 4e2d 913d
000001f0: 9bce 433d 55ba 2e3d 51e2 7dbc 91a1 7d3c
00000200: 5203 1f3c cb22 1cbd 35f5 7dbc f561 303d
00000210: 8f8b 8d3b d4ef 94bc a514 ef3c c608 123d
00000220: 53be c7bc 8596 4e3d 803d dfba 1d63 1b3a
00000230: d82d 9d3b fd41 9bbc fb4b 5ebc 1b30 173d
00000240: 4bca 463d 46c4 d23c d616 c5bc 8358 a33c
00000250: 670a 8d3d 9523 af37 20e5 063d 227d ad3c
00000260: fb77 9b3b 7791 ad3b 1ef0 763c 1744 88bc
00000270: 1abd 823b 81aa 13bb c9c4 f9ba fd40 1dbc
00000280: e214 fb3c 0e55 063d b2f6 ae3c dc44 4e3c
00000290: 8108 3f3d 53d0 e63c 3a68 873c 0103 86bc
000002a0: ee32 3bbc 4569 b4bc 78e1 2aba 2140 85bc
000002b0: e74a 123d 4e50 82bc c763 e43c 0322 403c
000002c0: bacc 6c3c 6765 1dbb 6e38 85bc 776d b0bb
000002d0: 6685 6f3c 857b 22bc 16ed 293d 2b11 16bd
000002e0: 305f dcb9 99ae 59bb 4f32 50bc 3298 f33b
000002f0: 432f b33c 6934 35bc 8993 8d3d 461f 823d
00000300: 63cc 843c 4892 563b 5ddc 31bd c3f5 7c3d
00000310: 7891 263c 60b4 a13d 9fd7 2e3c f338 7f3d
00000320: 7213 623d b153 36bc cbc3 413d 4619 dd3c
00000330: a04b 5fbd 62fa d13c c3a6 2ebc 0184 ea3c
00000340: 2f7f 6a3d 0bc5 fc3a e560 d53c 941c 203b
00000350: 3385 ddbb 0902 1a3d b134 6b3c c229 ccbb
00000360: 59ca 6d3c 409f 333d 4b23 963c b8b2 a3bc
00000370: e3b9 ff3c 59d5 e33c 777d 033d 7573 cd3c
00000380: 8852 2d3d b378 c83c 7432 9a3d dc32 4cba
00000390: 7abc 803c 92c5 4fbd 7f44 2e3d f9ee 23bc
000003a0: da20 203d 8eef f83c 0a77 a63b 3b10 8dbd
000003b0: f2ba 1f3b 49f3 2b3c b477 d53c dfb6 9c39
000003c0: 2185 dcbb 189a bfbc d8cd a73b 0d7b 70bd
000003d0: dbfb 41bc f748 49bc 7fbd 07bd c44b a13c
000003e0: 5ac0 3c3b 3536 623d 193c 17bd 0f4c 1b3d
000003f0: befd e3bc df3f 97bc 6a02 6c3c ee19 b6bc

network_body._body_endoder.seq_layers.2.weight f4 [256, 256]
0.015772242 -0.04716853 -0.06740722 0.085965164 0.040408313 0.04375992 -0.040663924 -0.0777218
0.009827348 0.056573223 0.038552135 0.04044754 -0.10464963 0.03839981 -0.11373035 0.0017393307
-0.04184384 -0.005559308 -0.0418929 -0.13624771 0.2076577 -0.11007777 -0.023876762 -0.07384173
-0.13014674 -0.06360143 -0.0024381948 0.009821964 0.013642814 -0.03584366 0.10364266 -0.13351265
-0.0011406231 0.17251477 -0.123569824 -0.022857396 -0.049749576 -0.058488037 0.067396864 -0.12927328
-0.042262856 -0.065427184 -0.05800221 0.020568943 -0.0010148183 0.011494344 -0.13458347 -0.048535578
-0.038716253 -0.108919635 -0.044683125 0.027945053 -0.053550888 -0.09873141 0.012878855 0.06937153
0.08598323 -0.18358827 0.090703584 -0.15643308 0.13240473 -0.051643025 0.01710592 0.02986318
0.03777315 -0.13326222 -0.08223778 -0.015763551 -0.0847461 0.09866044 0.06610261 -0.10971225
-0.035218846 0.029350812 0.047944818 -0.027522717 -0.07433133 -0.0041450104 -0.055393804 0.10972939
0.07630996 0.028554006 -0.10619464 0.06311217 0.048523255 -0.075579345 -0.046328086 -0.07125778
0.024206609 0.105972156 0.11644197 -0.09168157 -0.008411171 0.016754534 0.051461045 0.0364364
-0.07482903 0.036389355 0.06965362 -0.03115634 0.014626935 -0.013140378 -0.004835484 -0.072759725
0.06682816 0.039774865 0.02783323 0.08320516 0.119709626 -0.07191343 -0.07770051 0.0011473186
-0.1056425 0.024108283 0.05897194 0.06799469 0.030478923 0.019661017 -0.0938325 -0.082654774
-0.091448575 0.00056946895 -0.004602796 -0.13382046 -0.0038876196 -0.036548145 0.009383051 -0.03130502
-0.10870955 0.019361444 0.09017519 -0.004671553 -0.054017503 -0.010851398 -0.022742232 0.009083554
-0.13186562 0.04005064 -0.02251631 -0.12560952 0.015830494 0.031319596 -0.048030965 -0.029268792
-0.03321009 -0.033883948 -0.092590325 -0.10663514 -0.04454238 0.17617129 -0.07047911 -0.06483903
-0.011062589 -0.0604544 -0.07956497 -0.02199443 -0.001630445 -0.045081627 -0.028882796 0.004681292
-0.036074862 0.07319 0.08361746 0.058017615 -0.14527534 -0.09900037 -0.08853036 -0.033811282
-0.10828606 0.0007240942 -0.091061294 -0.03405209 0.012682997 -0.04970923 -0.057609808 -0.10662836
0.110133626 0.021700444 0.008936899 0.10367333 0.02447132 -0.043908145 -0.11822977 0.030299012
0.018676879 -0.0063196737 0.019372635 -0.077827856 0.020332163 0.063401416 -0.008221586 -0.029453648
-0.07269211 0.07338684 -0.0975045 -0.095329076 0.07133167 -0.03854594 -0.08206713 -0.10835354
0.016494446 -0.06704845 0.10206166 0.064920686 -0.068071134 -0.07054385 0.06010954 0.012184948
0.0051939436 -0.015594296 -0.04910827 0.096318975 0.11315952 -0.0326027 -0.015074337 0.0014720152
0.026445245 -0.07745359 -0.013763301 -0.1144417 -0.051206745 0.0075491555 -0.14349888 0.008650531
-0.0737129 0.011970308 -0.20615727 0.07416464 -0.055925254 -0.14547336 -0.07337867 0.1852371
0.025482064 -0.063209124 0.10673701 -0.22010042 -0.03841528 0.07331365 0.0018788358 -0.007274614
-0.0008121991 -0.018560993 -0.015232981 0.04382591 0.0790912 -0.046020396 0.09496829 -0.020106902
-0.015024895 -0.07556177 -0.00844469 0.073104285 -0.11888909 0.0023107878 -0.092359826 -0.044477038
00000000: ca34 813c ca33 41bd cc0c 8abd 810e b03d
00000010: 3083 253d 9a3d 333d 378f 26bd 9b2c 9fbd
00000020: e302 213c 53b9 673d d8e8 1d3d 52ac 253d
00000030: 8c52 d6bd 1f49 1d3d 75eb e8bd 41fa e33a
00000040: 7264 2bbd db2a b6bb e497 2bbd 8584 0bbe
00000050: 38a4 543e 7470 e1bd 3399 c3bc 553a 97bd
00000060: 3045 05be 7741 82bd 1fca 1fbb 4eec 203c
00000070: 1c86 5f3c cdd0 12bd 9a42 d43d 8ab7 08be
00000080: f680 95ba b6a7 303e 2d12 fdbd 6f3f bbbc
00000090: 36c6 4bbd 2791 6fbd 5e07 8a3d 3760 04be
000000a0: d11b 2dbd b0fe 85bd ba93 6dbd 3380 a83c
000000b0: a703 85ba c652 3c3c 40d0 09be 3ecd 46bd
000000c0: ef94 1ebd 4211 dfbd a705 37bd 06ed e43c
000000d0: 2d58 5bbd b233 cabd d501 533c a912 8e3d
000000e0: fa17 b03d 90fe 3bbe cdc2 b93d fe2f 20be
000000f0: 1b95 073e a387 53bd b721 8c3c a1a3 f43c
00000100: 05b8 1a3d e475 08be 486c a8bd 9022 81bc
00000110: 5d8f adbd 7c0e ca3d ce60 873d d1b0 e0bd
00000120: a341 10bd 1d71 f03c c961 443d 5277 e1bc
00000130: 063b 98bd ded2 87bb 9de4 62bd cdb9 e03d
00000140: 6548 9c3d 17ea e93c 937c d9bd f440 813d
00000150: 52c0 463d 58c9 9abd 85c2 3dbd 99ef 91bd
00000160: f04c c63c ee07 d93d 2179 ee3d 8cc3 bbbd
00000170: 02cf 09bc ce40 893c d1c8 523d 563e 153d
00000180: f63f 99bd 010d 153d 8fa6 8e3d 953b ffbc
00000190: d0a5 6f3c bd4a 57bc fb72 9ebb 0d03 95bd
000001a0: 34dd 883d f8ea 223d 8402 e43c 7867 aa3d
000001b0: 522a f53d 5947 93bd 7221 9fbd a061 963a
000001c0: 185b d8bd bc7e c53c 908c 713d cd40 8b3d
000001d0: efae f93c 2410 a13c 412b c0bd e846 a9bd
000001e0: 6449 bbbd 6a48 153a 0dd3 96bb 3b08 09be
000001f0: 6fc7 7ebb 82b3 15bd 5ebb 193c b139 00bd
00000200: 1da3 debd e49b 9e3c c5ad b83d d413 99bb
00000210: 7541 5dbd 10ca 31bc eb4d babc 30d3 143c
00000220: c807 07be 240c 243d 2074 b8bc c89f 00be
00000230: f4ae 813c fa48 003d 1ebc 44bd 1bc5 efbc
00000240: 4e07 08bd e5c9 0abd ff9f bdbd 8663 dabd
00000250: 1272 36bd 3f66 343e 5a57 90bd 53ca 84bd
00000260: dc3f 35bc 089f 77bd f6f2 a2bd aa2d b4bc
00000270: a8b4 d5ba 83a7 38bd 9d9b ecbc 8665 993b
00000280: 3cc3 13bd a4e4 953d a23f ab3d e1a3 6d3d
00000290: 0fc3 14be b5c0 cabd 684f b5bd b37d 0abd
000002a0: 15c5 ddbd 24d1 3d3a 587e babd 347a 0bbd
000002b0: 58cc 4f3c e89b 4bbd 43f8 6bbd f85f dabd
000002c0: bd8d e13d 21c5 b13c 126c 123c af52 d43d
000002d0: 1478 c83c 07d9 33bd 7322 f2bd a235 f83c
000002e0: 4100 993c 4415 cfbb 5cb3 9e3c 3664 9fbd
000002f0: a38f a63c 9ad8 813d d5b3 06bc c748 f1bc
00000300: 9adf 94bd d74b 963d 70b0 c7bd e43b c3bd
00000310: 5716 923d 59e2 1dbd d012 a8bd 76e8 ddbd
00000320: 5c1f 873c b350 89bd b405 d13d 23f5 843d
00000330: e168 8bbd 4b79 90bd 6c35 763d 60a3 473c
00000340: f531 aa3b 387f 7fbc c125 49bd e242 c53d
00000350: 2ec0 e73d 698a 05bd 5afa 76bc a2f0 c03a
00000360: b3a3 d83c fd9f 9ebd 787f 61bc 6960 eabd
00000370: 2abe 51bd e85e f73b 5ff1 12be f5ba 0d3c
00000380: caf6 96bd 1c1f 443c e41a 53be a1e3 973d
00000390: e111 65bd f8f6 14be 8e47 96bd cbae 3d3e
000003a0: c3bf d03c c973 81bd ef98 da3d 0162 61be
000003b0: 5759 1dbd 7825 963d 4543 f63a e35f eebb
000003c0: c2e9 54ba 390d 98bc c193 79bc cc82 333d
000003d0: 91fa a13d e27f 3cbd bc7e c23d 3bb7 a4bc
000003e0: fa2a 76bc 21c0 9abd 995b 0abc b3b7 953d
000003f0: 207c f3bd 9670 173b 2627 bdbd 8e2d 36bd

network_body._body_endoder.seq_layers.2.bias f4 [256]
0.0056138677 -0.01572129 -0.050077952 -0.028798873 0.021327568 -0.0031089052 -0.012305456 -0.020718535
-0.016928226 0.010516146 -0.006445394 -0.020628966 -0.022157501 -0.019125527 0.068572335 0.07704346
0.051117707 0.00032037875 -0.014475415 0.0004895648 0.0018707216 -0.01385215 0.029142959 -0.014628196
-0.012711109 -0.0022600165 0.0380734 -0.028169421 -0.019834792 -0.015259657 0.10890666 -0.0076504652
-0.03034335 -0.007843303 0.075066924 -0.018669277 0.0018887622 -0.023076847 -0.030660084 -0.00030743875
-0.040509526 -0.0028294565 -0.0011407379 0.008952387 -0.009421631 0.09560812 -0.017190557 -0.0036348617
-0.031139009 -0.0028437995 -0.015189147 0.031792402 0.0019884147 -0.020572506 -0.04979583 -0.013520272
0.006622904 -0.028339952 -0.014335959 0.0015150652 -0.0018468803 0.080589235 -0.01674507 0.008131705
-0.0060956557 -0.019137759 -0.027827267 -0.00078714814 0.049232453 -0.0116673 -0.012474201 -0.028061833
-0.01400772 -0.0027563625 -0.022052862 -0.011402909 -0.0030778274 -0.008893874 -0.009157493 -0.026628582
-0.003975376 -0.011693882 0.0008577233 0.08130741 -0.010476822 -0.005247276 -0.001716421 -0.020044988
0.0009562835 -0.026030323 -0.022637624 -0.028947998 -0.028319722 -0.008458701 -0.0005086803 -0.009106557
-0.012000466 0.035162084 -0.027584316 0.0050246785 0.053677663 -0.02049887 -0.021685632 -0.027507847
0.0012059826 0.06855143 0.0009001245 -0.041436877 -0.00052824075 0.01463111 -0.0042353026 -0.023684459
-0.0015814612 0.0035285598 -0.011827297 -0.016923374 -0.03544299 0.057764865 -0.0023061996 -0.006120086
0.0075062816 -0.02546594 -0.02179219 0.010034243 -0.015432446 -0.009885239 -0.03799953 -0.008710653
-0.023013335 0.0005302868 -0.0022108473 -0.038333997 -0.016630566 -0.038692128 0.03504345 -0.009678523
0.019653507 0.014036466 -0.0132343415 0.009861346 -0.017951263 -0.0058654896 -0.017453458 -0.015022962
-0.01288769 -0.021433804 -0.0025043834 0.0058024237 -0.0038617705 -0.026321582 -0.033442177 -0.0016750554
-0.0070346324 -0.008775993 -0.0012146898 -0.012134277 0.07794364 -0.009734724 -0.019575717 -0.036761925
-0.052159198 -0.002003752 -0.001603045 -0.021183996 0.025549425 0.06387009 -0.014650607 0.008040562
-0.0088106105 -0.0049463958 -0.01687824 -0.0041106087 -0.0058796997 -0.007585625 -0.058940463 -0.011809648
-0.039468054 -0.039158568 -0.024211148 -0.00973081 -0.018458724 -0.0071215373 -0.010837591 -0.018882884
-0.0012187804 -0.011093146 -0.012644449 -0.008511046 0.0823882 0.020400038 0.004442367 0.0077198097
0.021111656 -0.00010024046 0.022420764 -0.019506466 -0.033757035 -0.021801516 -0.02643017 0.005405327
-0.0054643457 0.0048825946 -0.014871593 0.006757285 -0.003919554 -0.031615004 -0.021460384 -0.015317083
-0.036777835 -0.011979227 0.060036853 0.060299475 -0.023443405 -0.020017209 -0.040140636 -0.017616272
-0.0022087977 -0.0374 -0.013023436 -0.040320586 -0.0041838195 0.04319962 -0.02341628 -0.0021532415
-0.01400966 -0.0061137965 -0.0046924986 -0.03397124 -0.021372238 -0.007851585 -0.035311613 -0.0027338404
-0.011489539 0.017966708 -0.016327202 -0.013278666 -0.00848338 -0.002272209 0.004957949 -0.019925384
0.060325813 0.021764752 -0.0029218884 -0.0019392746 -0.006652495 0.00082099385 -0.024089215 -0.010016829
-0.001869175 0.02930879 -0.010103319 -0.020539803 -0.027585056 -0.020263782 -0.017809067 -0.021091472
00000000: 89f4 b73b efc9 80bc 8a1e 4dbd 9deb ebbc
00000010: 27b7 ae3c c6be 4bbb d39c 49bc ebb9 a9bc
00000020: 10ad 8abc ea4b 2c3c e233 d3bb 14fe a8bc
00000030: a683 b5bc 23ad 9cbc a76f 8c3d f6c8 9d3d
00000040: cd60 513d 82f8 a739 4b2a 6dbc 2356 003a
00000050: 0033 f53a 21f4 62bc 37bd ee3c 1aab 6fbc
00000060: 4142 50bc c91c 14bb daf2 1b3d 8fc3 e6bc
00000070: 937c a2bc a403 7abc 740a df3d c1b0 fabb
00000080: 9e92 f8bc 3281 00bc b0bc 993d 50f0 98bc
00000090: 5890 f73a a80b bdbc db2a fbbc bb2f a1b9
000000a0: 51ed 25bd 676e 39bb d084 95ba 08ad 123c
000000b0: 2f5d 1abc 31ce c33d 36d3 8cbc dc36 6ebb
000000c0: 3c17 ffbc 0a5f 3abb e6db 78bc c038 023d
000000d0: 1050 023b ac87 a8bc b6f6 4bbd 2284 5dbc
000000e0: f204 d93b 3029 e8bc 5fe1 6abc 2795 c63a
000000f0: 0513 f2ba f80b a53d f52c 89bc d83a 053c
00000100: 11be c7bb cac6 9cbc 02f6 e3bc 9e58 4eba
00000110: f8a7 493d 3428 3fbc 9760 4cbc eee1 e5bc
00000120: a380 65bc 17a4 34bb 34a8 b4bc 44d3 3abc
00000130: 60b5 49bb 9cb7 11bc 4f09 16bc 2f24 dabc
00000140: df43 82bb b297 3fbc d6d8 603a 8084 a63d
00000150: faa6 2bbc 57f1 abbb 88f9 e0ba 6335 a4bc
00000160: 19af 7a3a 8b3d d5bc 8a72 b9bc 5a24 edbc
00000170: c3fe e7bc 5d96 0abc f558 05ba ab33 15bc
00000180: 9a9d 44bc 1e06 103d 81f8 e1bc 0fa6 a43b
00000190: 1cdd 5b3d 3fed a7bc 11a6 b1bc 2358 e1bc
000001a0: 1012 9e3a b164 8c3d 55f6 6b3a b7b9 29bd
000001b0: a379 0aba 53b7 6f3c 4bc8 8abb e905 c2bc
000001c0: 0849 cfba 693f 673b 47c7 41bc e3a2 8abc
000001d0: ab2c 11bd da9a 6c3d 9c23 17bb 018b c8bb
000001e0: 41f7 f53b f29d d0bc 8985 b2bc aa66 243c
000001f0: 5fd8 7cbc b3f5 21bc 65a5 1bbd 20b7 0ebc
00000200: 7686 bcbc f202 0b3a dde3 10bb 1c04 1dbd
00000210: d33c 88bc a37b 1ebd b889 0f3d ab92 1ebc
00000220: 6400 a13c 35f9 653c dad4 58bc 7c91 213c
00000230: 870e 93bc 4b33 c0bb 8efa 8ebc df22 76bc
00000240: e426 53bc f295 afbc 9520 24bb 4222 be3b
00000250: c215 7dbb 5ca0 d7bc aafa 08bd 888d dbba
00000260: c682 e6bb 2fc9 0fbc 3a36 9fba d9ce 46bc
00000270: eaa0 9f3d 647e 1fbc 415d a0bc ac93 16bd
00000280: e2a4 55bd 6151 03bb 441d d2ba 0f8a adbc
00000290: 074d d13c 52ce 823d 1909 70bc 90bc 033c
000002a0: 615a 10bc 6015 a2bb 3c44 8abc 49b2 86bb
000002b0: 7faa c0bb d690 f8bb 8e6b 71bd 417d 41bc
000002c0: 41a9 21bd bc64 20bd 7556 c6bc fa6d 1fbc
000002d0: c036 97bc c95b e9bb 2790 31bc 47b0 9abc
000002e0: 7cbf 9fba 07c0 35bc aa2a 4fbc ea71 0bbc
000002f0: 25bb a83d fb1d a73c 4691 913b 75f6 fc3b
00000300: 5af2 ac3c 3038 d2b8 c0ab b73c 06cc 9fbc
00000310: d144 0abd 1899 b2bc 1584 d8bc 2b1f b13b
00000320: 410e b3bb 2cfe 9f3b fba7 73bc 376c dd3b
00000330: 9a6f 80bb bc7e 01bd b0cd afbc 81f4 7abc
00000340: 5ba4 16bd 8544 44bc 34e9 753d 95fc 763d
00000350: 620c c0bc 21fb a3bc 826a 24bd 0050 90bc
00000360: 7ac1 10bb be30 19bd 4060 55bc 3327 25bd
00000370: 6c18 89bb 16f2 303d 80d3 bfbc 661d 0dbb
00000380: c688 65bc 3e56 c8bb 88c3 99bb 6d25 0bbd
00000390: d514 afbc efa3 00bc e9a2 10bd 3b2a 33bb
000003a0: 9f3e 3cbc eb2e 933c a0c0 85bc c38e 59bc
000003b0: e0fd 0abc 57e9 14bb 4a76 a23b 8f3a a3bc
000003c0: 3318 773d fe4b b23c 277d 3fbb 422f feba
000003d0: 2cfd d9bb f737 573a bf56 c5bc a01d 24bc
000003e0: 1bff f4ba fd18 f03c 6488 25bc 1743 a8bc
000003f0: 0efa e1bc 3b00 a6bc 52e4 91bc 06c8 acbc

network_body._body_endoder.seq_layers.4.weight f4 [256, 256]
-0.05830263 0.011030922 -0.0049076495 0.010990799 0.054780386 0.018076345 -0.08757271 0.02274579
-0.023818707 -0.1105297 -0.15109073 0.055351693 -0.019038044 -0.028628783 0.07519751 0.0831085
-0.040951446 -0.03050225 -0.17289616 -0.09297326 0.005161145 -0.057394538 -0.006279162 -0.06235588
0.039138865 0.0025803107 -0.07227562 0.0094300965 0.05585179 -0.036906607 -0.04447821 -0.0075833495
-0.11807581 -0.075885974 -0.035172574 -0.023664268 0.05056528 -0.1123656 -0.014254765 0.031211175
-0.09086456 -0.05480294 0.0007048047 0.022806749 0.12784965 0.019555004 0.12417999 0.008617138
-0.03095786 -0.0057650325 0.022417022 -0.0973365 -0.096310355 -0.03623553 0.0739627 -0.049328744
0.017339466 -0.0072417585 0.0046381885 -0.07813386 -0.03472038 0.03235402 0.002614725 -0.1003118
-0.022424333 -0.13451096 -0.0893896 0.0049895067 0.016802479 -0.14167708 -0.040361922 -0.015265225
-0.006787731 0.16083458 0.058835067 -0.046574235 0.06527376 -0.02579166 -0.10389711 -0.04094035
-0.05424853 0.021227043 -0.06857388 0.1336647 -0.118044615 -0.08211722 0.014260843 0.11384478
-0.0003239954 -0.050290093 0.022444109 -0.15703572 -0.02364662 0.18910612 0.027851975 0.073422365
-0.040532403 0.21252538 0.17697388 -0.03830245 0.11945958 -0.022446794 0.03626869 0.09111986
-0.053197153 0.10733643 -0.0038718667 0.08170197 -0.14461918 0.05634975 -0.012966121 0.05605734
0.031241413 0.044468638 -0.004836918 -0.024848673 -0.07536272 0.14175645 -0.04004071 -0.018645661
-0.043805316 0.016183883 0.033754893 -0.046592563 -0.08807516 -0.02406555 -0.05867846 0.0036850355
-0.0633535 -0.028902313 0.09449318 0.024423506 0.042060513 -0.021873657 -0.02544131 -0.00482785
0.05522293 0.006713948 0.100277595 -0.032979302 -0.049329884 -0.10079617 -0.005721628 -0.14425273
0.05923206 -0.1307982 -0.025629483 0.011058042 -0.045029428 -0.13381535 -0.054130975 -0.00043401186
-0.0072073042 -0.076962434 -0.018672196 -0.019088581 0.10881539 -0.018174656 -0.021739837 0.006089148
-0.012946304 0.06368139 0.009168283 -0.16263157 -0.094270594 -0.030113917 -0.022552982 -0.0030285665
-0.066587195 0.020634461 0.020169202 0.055255827 -0.06277842 -0.05781557 0.018659947 -0.054874584
-0.06529053 0.090096585 0.08478051 -0.10683986 0.003190675 0.03455774 -0.08010636 -0.05687005
0.057357397 -0.1075459 0.10262981 -0.020022409 -0.07389544 -0.11079595 0.014923828 0.082856596
0.03284751 -0.007869498 -0.026684152 0.066524155 0.03558793 0.046496466 -0.038844917 0.09153674
-0.0250829 0.008438287 0.025617428 -0.0054728333 -0.060887326 0.05773329 -0.14757262 -0.0021405246
-0.043166768 0.05991643 0.0144911315 0.045392312 -0.016804887 -0.02866088 -0.0106889 0.0014492754
-0.058250267 0.06303612 0.009759761 0.011778728 0.10539643 0.0023510507 0.11538407 0.10693794
-0.013287097 0.0044623655 -0.012993204 0.021047669 0.028383669 -0.06776119 -0.039417945 -0.15141532
0.016947385 0.018818788 -0.07737605 -0.0763108 0.049464315 0.107414044 -0.004635009 0.035685394
-0.05710926 0.051571917 0.047854148 0.007886453 0.094364084 0.02808038 -0.0020003405 0.105792895
-0.003777831 0.060397606 0.057465494 -0.044638682 -0.11824366 -0.037852556 -0.0090057105 0.047670472
00000000: bdce 6ebd 0abb 343c 59d0 a0bb c112 343c
00000010: 6661 603d d814 943c 5259 b3bd 6155 ba3c
00000020: 731f c3bc 655d e2bd 87b7 1abe 75b8 623d
00000030: acf5 9bbc e986 eabc 2701 9a3d ca34 aa3d
00000040: b4bc 27bd dbdf f9bc b10b 31be c468 bebd
00000050: d21e a93b 8916 6bbd 6ec1 cdbb e168 7fbd
00000060: 1350 203d 6e1a 293b 3e05 94bd b180 1a3c
00000070: d9c4 643d 622b 17bd c92e 36bd bf7d f8bb
00000080: bbd1 f1bd 1b6a 9bbd 1e11 10bd 91db c1bc
00000090: 8a1d 4f3d f01f e6bd d18c 69bc 94ae ff3c
000000a0: 3317 babd 0c79 60bd a5c2 383a 38d5 ba3c
000000b0: 05eb 023e d131 a03c 1452 fe3d e52e 0d3c
000000c0: 579b fdbc 99e8 bcbb e7a3 b73c 5c58 c7bd
000000d0: 5d3e c5bd b56b 14bd c279 973d f00c 4abd
000000e0: 7f0b 8e3c 464c edbb f2fb 973b a504 a0bd
000000f0: f536 0ebd a685 043d ce5b 2b3b 4670 cdbd
00000100: 3cb3 b7bc 3ebd 09be e511 b7bd 047f a33b
00000110: 5aa5 893c cc13 11be 8b52 25bd ff1a 7abc
00000120: 9d6b debb d2b1 243e 0afd 703d a0c4 3ebd
00000130: 40ae 853d 0849 d3bc 02c8 d4bd 12b1 27bd
00000140: b533 5ebd 56e4 ad3c 7670 8cbd 66df 083e
00000150: 60c1 f1bd 132d a8bd 50a6 693c 7427 e93d
00000160: eddd a9b9 fcfc 4dbd b5dc b73c f9cd 20be
00000170: 8eb6 c1bc 09a5 413e d329 e43c 775e 963d
00000180: 4e05 26bd 41a0 593e a438 353e 08e3 1cbd
00000190: 39a7 f43d 57e2 b7bc 7a8e 143d 0d9d ba3d
000001a0: 42e5 59bd 34d3 db3d 25bf 7dbb 5d53 a73d
000001b0: 0d17 14be ffce 663d da6f 54bc 629c 653d
000001c0: feed ff3c bf24 363d 027f 9ebb 728f cbbc
000001d0: c557 9abd 9a28 113e ba01 24bd c9be 98bc
000001e0: 346d 33bd 1094 843c 9242 0a3d d8d7 3ebd
000001f0: c060 b4bd 1e25 c5bc d358 70bd a380 713b
00000200: 7bbf 81bd 8bc4 ecbc a485 c13d ce13 c83c
00000210: a547 2c3d 6230 b3bc 4b6a d0bc f132 9ebb
00000220: 7031 623d ae00 dc3b 575e cd3d 4e15 07bd
00000230: 220e 4abd 396e cebd 7f7c bbbb fdb6 13be
00000240: 519d 723d f7ef 05be ecf4 d1bc ca2c 353c
00000250: c770 38bd e406 09be 71b8 5dbd 168c e3b9
00000260: 402b ecbb 7b9e 9dbd 6ff6 98bc a85f 9cbc
00000270: 9ada de3d 04e3 94bc be17 b2bc 7a87 c73b
00000280: bc1c 54bc 636b 823d 9136 163c e488 26be
00000290: f110 c1bd 76b1 f6bc 08c1 b8bc ea7a 46bb
000002a0: de5e 88bd 9a09 a93c e239 a53c ef53 623d
000002b0: f991 80bd 05d0 6cbd bfdc 983c 2cc4 60bd
000002c0: 0bb7 85bd 8f84 b83d 67a1 ad3d dbce dabd
000002d0: a51a 513b 6b8c 0d3d ce0e a4bd 92f0 68bd
000002e0: 97ef 6a3d 0641 dcbd 942f d23d 0906 a4bc
000002f0: 7e56 97bd fde8 e2bd 1283 743c b8b0 a93d
00000300: 1c8b 063d 11ef 00bc b998 dabc d13d 883d
00000310: a6c4 113d 1473 3e3d d91b 1fbd 9d77 bb3d
00000320: a77a cdbc be40 0a3c a4db d13c 7455 b3bb
00000330: fd64 79bd be79 6c3d 471d 17be 0b48 0cbb
00000340: a3cf 30bd ee6a 753d 366c 6d3c 4aed 393d
00000350: 67aa 89bc 39ca eabc 7f20 2fbc 9df5 bd3a
00000360: d597 6ebd 1519 813d 68e7 1f3c 91fb 403c
00000370: 15da d73d 1614 1a3b 7c4e ec3d 4702 db3d
00000380: 20b2 59bc 0939 923b 73e1 54bc 296c ac3c
00000390: de84 e83c 61c6 8abd b674 21bd 9e0c 1bbe
000003a0: 3ed5 8a3c dc29 9a3c 5677 9ebd d648 9cbd
000003b0: 189b 4a3d e5fb db3d 46e1 97bb d92a 123d
000003c0: 66eb 69bd 133d 533d b602 443d 2e36 013c
000003d0: f541 c13d d308 e63c 2518 03bb f2a9 d83d
000003e0: 7d95 77bb 7b63 773d f060 6b3d 0dd7 36bd
000003f0: bb29 f2bd 480b 1bbd b08c 13bc 1d42 433d

network_body._body_endoder.seq_layers.4.bias f4 [256]
-0.0031507353 0.05615096 0.00023282158 -0.0010395802 0.030315224 0.03220814 -0.0075901947 -0.026733214
-0.021284845 0.051280953 -0.011540068 0.033144582 0.038015857 -0.00094808766 -0.01672362 -0.0021125276
-0.0016271883 -0.018968612 -0.0274632 0.07868691 0.04682433 -0.006363639 0.04433702 -0.0050351326
-0.002639305 -0.008778999 -0.020070303 -0.022378901 -0.009792016 -0.007595182 -0.0110138375 0.036142807
-0.019210689 -0.0058016777 -0.016246619 0.03096737 -0.00859522 -0.00011102482 -0.03348152 0.017442955
-0.014355892 -0.013048322 0.03728571 0.043422922 -0.020794516 -0.023635035 -0.0012692899 -0.023998091
0.02215707 0.08213479 -0.010117613 0.027143817 -0.014002897 -0.027043834 -0.017906165 -0.015535749
-0.020072926 -0.015225086 -0.016908057 -0.014995028 -0.006648196 -0.009573051 -0.014195015 -0.00610571
-0.0063374476 0.04544934 -0.011095753 0.0010009652 -0.0042067566 -0.0269233 0.044017456 -0.004508207
-0.014812466 -0.016814297 -0.0045277737 -0.016925288 -5.7489738e-06 -0.009319261 0.023169067 -0.009989113
-0.015672378 0.004875022 -0.030909626 -0.016829437 0.049996797 -0.016990054 -0.008578013 -0.00077080785
-0.016458903 -0.022650987 0.054969713 0.04264079 -0.0013974992 -0.0049049924 -0.018845454 -0.024524553
0.04367154 -0.027068246 -0.0077186325 0.0186003 -0.0007932876 -0.03980512 -0.028510967 -0.011146499
-0.0063956683 -0.0023578412 -0.00957096 0.013494768 -0.020407503 -0.0035349398 -0.018944547 0.06861321
0.05343619 0.03685232 -0.013670221 -0.012220787 -0.03632356 -0.024832254 -0.012329674 0.00929992
-0.0040941727 -0.013338022 0.014692236 -0.010411207 -0.011345887 -0.00037704487 -0.015869778 -0.005415933
-0.0011484171 -0.0006663966 -0.015713533 0.043091197 0.02049722 0.04699637 0.071073495 -0.027206564
-0.000985338 0.0160404 -0.0030427724 -0.045123085 0.01806595 0.068033 -0.03403737 -0.025918022
-0.014600193 -0.035965603 0.042526133 -0.024438934 -0.0016818623 -0.019885221 0.106297396 0.0014511442
-0.03702892 0.0812131 -0.013775088 0.035075136 -0.020871935 0.04125311 0.05593316 -0.033951294
-0.025714848 -0.028821206 0.04092223 -0.014202627 -0.02798747 0.06740831 0.059371967 -0.024471963
-0.0045709116 -0.015385709 -0.018547695 0.04373268 -0.03726671 -0.024607927 -0.0070866565 0.006269547
0.11908674 -0.044472657 0.0016623838 0.01971321 -0.0071891095 -0.0087524215 0.0017517026 -0.014983028
0.06216518 -0.02668165 0.015362226 -0.011937781 -0.016233698 0.002940708 0.0079771215 -0.0071741897
-0.006043418 0.0044667018 -0.022565475 -0.012449161 0.006215356 -0.015730109 0.013868359 0.0023354294
-0.0012688535 0.03745987 0.010424303 -0.008563307 0.053687543 -0.022252867 -0.051581234 -0.028718114
-0.013571944 0.018404318 -0.011685348 -0.02954902 -0.0014137863 -0.026561365 0.049081877 -0.01609461
-0.020107403 -0.012850295 0.050071985 0.09348624 -0.013640546 -0.028705142 -0.031472314 0.0808712
0.042080183 0.058403492 0.056914203 -0.027592437 -0.013027863 -0.0062617143 0.046460822 0.045613535
-0.010448279 -0.0140938405 0.017282113 0.033157796 -0.039854325 -0.047266923 -0.02358483 0.051539697
-0.036256883 -0.008007161 -0.008526406 -0.019827308 0.030728653 -0.019131266 -0.014374288 -0.0064214654
0.06877045 -0.008850956 0.08355792 -0.043357484 0.027768422 0.042852838 -0.008657151 0.03520262
00000000: 917c 4ebb 8dfe 653d 9121 7439 8642 88ba
00000010: a257 f83c afec 033d 2bb7 f8bb 9dff dabc
00000020: 8e5d aebc fa0b 523d 8e12 3dbc 9dc2 073d
00000030: 84b6 1b3d 1689 78ba f9ff 88bc 5572 0abb
00000040: 6147 d5ba 1064 9bbc 81fa e0bc 9a26 a13d
00000050: deca 3f3d 1386 d0bb bc9a 353d c1fd a4bb
00000060: 31f8 2cbb cad5 0fbc 7a6a a4bc f553 b7bc
00000070: b16e 20bc 01e1 f8bb 6273 34bc 7b0a 143d
00000080: bc5f 9dbc 001c bebb a117 85bc 48af fd3c
00000090: f7d2 0cbc ffd5 e8b8 eb23 09bd 87e4 8e3c
000000a0: fa34 6bbc a1c8 55bc e7b8 183d 3cdc 313d
000000b0: 4359 aabc 439e c1bc 4d5e a6ba a597 c4bc
000000c0: be82 b53c 4936 a83d 58c4 25bc b65c de3c
000000d0: 686c 65bc 088b ddbc f3af 92bc a789 7ebc
000000e0: fa6f a4bc a472 79bc c482 8abc b5ad 75bc
000000f0: 1cd9 d9bb 49d8 1cbc 3592 68bc 6812 c8bb
00000100: 5daa cfbb 1629 3a3d f6ca 35bc d232 833a
00000110: d5d8 89bb 418e dcbc a64b 343d 95b9 93bb
00000120: fcaf 72bc 23be 89bc b85d 94bb e7a6 8abc
00000130: 4fe7 c0b6 d0af 18bc 0ecd bd3c 60a9 23bc
00000140: 5c63 80bc a6be 9f3b 2f36 fdbc e3dd 89bc
00000150: 71c9 4c3d ba2e 8bbc cb8a 0cbc 0a10 4aba
00000160: d2d4 86bc 908e b9bc ec27 613d 1ca8 2e3d
00000170: 4b2c b7ba 0fba a0bb c861 9abc b7e7 c8bc
00000180: eee0 323d 3abe ddbc 95ec fcbb a85f 983c
00000190: a1f4 4fba b20a 23bd d58f e9bc ce9f 36bc
000001a0: c192 d1bb 0386 1abb 84cf 1cbc 2919 5d3c
000001b0: a32d a7bc 73aa 67bb 9831 9bbc 1585 8c3d
000001c0: e8df 5a3d 75f2 163d 10f9 5fbc b239 48bc
000001d0: 03c8 14bd 036d cbbc 6702 4abc b15e 183c
000001e0: 6928 86bb b887 5abc b4b7 703c c493 2abc
000001f0: 19e4 39bc 1bae c5b9 5601 82bc 2478 b1bb
00000200: 7c86 96ba 1eb1 2eba abb9 80bc 6580 303d
00000210: c9e9 a73c 447f 403d fb8e 913d 4de0 debc
00000220: 7526 81ba 2867 833c 4069 47bb fcd2 38bd
00000230: 0bff 933c e354 8b3d c56a 0bbd 0852 d4bc
00000240: a635 6fbc ab50 13bd e22f 2e3d 2934 c8bc
00000250: ef71 dcba 55e6 a2bc 73b2 d93d 5234 be3a
00000260: a3ab 17bd 0e53 a63d e8b0 61bc f2aa 0f3d
00000270: 9ffb aabc 05f9 283d 2b1a 653d 8310 0bbd
00000280: f2a7 d2bc 731a ecbc 119e 273d 23b2 68bc
00000290: fb45 e5bc 5e0d 8a3d 0530 733d 6d79 c8bc
000002a0: 96c7 95bb 5714 7cbc 56f1 97bc 0a21 333d
000002b0: faa4 18bd 9096 c9bc 2f37 e8bb c670 cd3b
000002c0: c0e3 f33d f628 36bd 58e4 d93a 997d a13c
000002d0: 9f92 ebbb 5166 0fbc 6399 e53a 607b 75bc
000002e0: eaa0 7e3d 7a93 dabc d9b1 7b3c af96 43bc
000002f0: 88fc 84bc e5b8 403b 79b2 023c 7715 ebbb
00000300: dd07 c6bb 695d 923b 3bdb b8bc 91f7 4bbc
00000310: 2faa cb3b 6edc 80bc 1d38 633c 010e 193b
00000320: a94f a6ba 856f 193d b2ca 2a3c 1d4d 0cbc
00000330: 78e7 5b3d a54b b6bc d846 53bd 4042 ebbc
00000340: dc5c 5ebc a7c4 963c e773 3fbc c910 f2bc
00000350: cc4e b9ba 3897 d9bc 140a 493d d8d8 83bc
00000360: 48b8 a4bc 0b8a 52bc 4818 4d3d b775 bf3d
00000370: 997c 5fbc 0c27 ebbc 1de9 00bd cd9f a53d
00000380: 455c 2c3d 8038 6f3d de1e 693d 8909 e2bc
00000390: d172 55bc 112f cdbb b44d 3e3d 42d5 3a3d
000003a0: 422f 2bbc dae9 66bc 3893 8d3c 78d0 073d
000003b0: 4a3e 23bd f69a 41bd f934 c1bc 4a1b 533d
000003c0: 1982 14bd 7830 03bc 57b2 0bbc e16c a2bc
000003d0: a8ba fb3c 2cb9 9cbc 2282 6bbc 286b d2bb
000003e0: 86d7 8c3d 9a03 11bc 6a20 ab3d 9e97 31bd
000003f0: 9a7a e33c 7586 2f3d b9d6 0dbc 9f30 103d

action_model._continuous_distribution.log_sigma f4 [1, 6]
0.08097758 0.1761309 0.09967198 0.13143045 0.09543847 0.14995722
00000000: 93d7 a53d a95b 343e d320 cc3d b495 063e
00000010: 3f75 c33d 638e 193e

action_model._continuous_distribution.mu.weight f4 [6, 256]
0.022606304 0.06958317 3.307884e-05 0.0030895267 0.011210722 0.09319655 0.015476855 0.010099872
0.024468966 0.080567785 0.04061872 0.07314955 0.07050694 0.0074522267 0.0133870095 0.00035845808
0.0033337083 0.008930928 0.017356502 0.083529234 0.09921033 -0.014234094 0.050174333 -0.021675574
0.011305257 0.030971255 0.015297169 0.009965563 -0.01422114 0.037483357 -0.016121134 0.08217104
0.04287987 -0.004697288 0.053395256 0.076230854 0.0006975898 0.012983265 0.035035327 0.06883366
0.018267302 0.01045756 0.0847694 0.0070686876 0.010195639 0.014871408 -0.011679876 0.0114313895
0.068082765 0.120372936 -0.013756004 0.10739567 0.026145898 -0.015608397 -0.016451094 0.00054021
0.04459322 0.022230702 0.005860901 0.0262977 0.031383075 0.045412764 0.02762894 0.0026061502
0.017462453 0.110636055 0.048368637 0.051935285 0.03672954 0.012361471 0.023692317 -0.0047065914
0.0266678 -0.017448103 0.0013327418 0.009746246 -0.010465962 0.026459599 0.072166935 0.01036536
-0.023998957 0.05620229 0.013114811 -0.01146067 0.11523931 0.005390249 -0.038887378 -0.0035155278
0.037060477 0.0062888083 0.08284888 0.025275921 0.04551667 0.015739275 0.047722865 0.0026339411
0.053426225 0.0057431897 0.021563716 0.09388286 0.03150434 0.019783504 0.05610497 0.0101523865
0.010212455 -0.0019840915 0.04252811 0.05330687 0.023864178 0.025479624 0.0096048955 0.076815456
0.04530206 0.111606985 0.021730967 0.016145702 0.037746385 0.009913784 0.053935282 0.051170852
0.09369321 0.06201411 0.08573678 0.056592878 0.047905974 0.012562157 0.056478266 -0.0016706191
0.05315998 0.049358577 -0.009541034 0.07374747 -0.028965922 0.10308516 0.06462729 -0.011496604
0.030669 0.044491924 -0.00034390262 -0.023603631 0.0896317 0.117583714 0.022449104 0.023614071
0.022841549 0.018531235 0.080638796 0.0074729044 0.049845625 0.01326519 0.08471814 0.032118466
0.022611666 0.100014634 -0.013841213 0.07189877 0.014670529 0.068308905 0.07077109 0.03207847
0.02077885 0.020826384 0.085357055 0.024932727 0.017541744 0.09536998 0.10770044 0.022454243
0.04633962 0.00647105 -0.02945423 0.055982966 0.01388698 -0.0008931711 0.047890853 0.031266276
0.10748375 0.02322494 0.00742374 0.066167444 0.025478981 0.011968793 -0.03512351 0.009859759
0.069927506 0.034206524 -0.016388742 0.012651537 0.04778714 0.0532359 0.045846142 -0.00053060695
0.0085601825 0.047249243 -4.551675e-06 0.00828541 0.07018612 0.011791822 0.08837881 0.03868252
-0.04911314 0.08807599 -0.0071529495 0.036449566 0.08804727 0.045106836 -0.008777934 0.0182509
0.014433016 0.038350176 0.009609532 0.011339755 -0.008049687 0.010564249 0.039193876 0.007365769
0.002558247 0.027780574 0.096195966 0.07979447 0.043604504 -0.020567223 0.037624523 0.12276646
0.085549176 0.08840962 0.082440145 0.013044882 0.034506857 0.015253896 0.06144166 0.06851817
0.049512465 0.033516027 0.059175298 0.06832594 0.00078910583 0.019108577 0.026679974 0.07740108
0.01103017 0.008796235 0.020838568 0.02606531 0.048451368 0.045064677 0.035524525 0.048864167
0.070609 -0.0050796014 0.11236285 0.021465514 0.042448886 0.05058237 0.062275782 0.09634919
00000000: db30 b93c 9f81 8e3d 22be 0a38 a879 4a3b
00000010: 2dad 373c d5dd be3d a392 7d3c ef79 253c
00000020: 2473 c83c b900 a53d d15f 263d 6ecf 953d
00000030: f165 903d cf31 f43b 3055 5b3c 6eef bb39
00000040: 587a 5a3b 0753 123c 392f 8e3c 6011 ab3d
00000050: c92e cb3d 1e36 69bc 9a83 4d3d f990 b1bc
00000060: af39 393c 6eb7 fd3c faa0 7a3c 9a46 233c
00000070: c9ff 68bc 2688 193d 7810 84bc 4a49 a83d
00000080: cda2 2f3d b5eb 99bb fcb4 5a3d ec1e 9c3d
00000090: 76de 363a c3b7 543c 3481 0f3d a9f8 8c3d
000000a0: 4fa5 953c 3056 2b3c 949b ad3d 73a0 e73b
000000b0: 9c0b 273c 35a7 733c f35c 3fbc b94a 3b3c
000000c0: fa6e 8b3d 1686 f63d dd60 61bc 43f2 db3d
000000d0: ec2f d63c 5dba 7fbc 72c4 86bc e19c 0d3a
000000e0: 61a7 363d 291d b63c cd0c c03b 466e d73c
000000f0: 8a8b 003d bc02 3a3d 1656 e23c f2cb 2a3b
00000100: 6b0d 8f3c 2895 e23d 311e 463d 18ba 543d
00000110: b771 163d c487 4a3c 6416 c23c c039 9abb
00000120: 6e76 da3c 53ef 8ebc 65af ae3a b8ae 1f3c
00000130: 6d79 2bbc cdc1 d83c 42cc 933d 79d3 293c
00000140: 7699 c4bc 5f34 663d 81df 563c 89c5 3bbc
00000150: 9602 ec3d b0a0 b03b 5f48 1fbd c564 66bb
00000160: bacc 173d 5912 ce3b acac a93d 730f cf3c
00000170: b06f 3a3d a7ef 803c 0d79 433d 339e 2c3b
00000180: 75d5 5a3d 5e31 bc3b 64a6 b03c a845 c03d
00000190: b20a 013d 0411 a23c 53ce 653d 3256 263c
000001a0: 2452 273c 8807 02bb f531 2e3d 4e58 5a3d
000001b0: cf7e c33c a5ba d03c da5d 1d3c 6c51 9d3d
000001c0: a78e 393d 3492 e43d 2405 b23c fe43 843c
000001d0: f49b 1a3d 6d6d 223c 3eeb 5c3d 8798 513d
000001e0: 3ae2 bf3d 8202 7e3d c496 af3d efcd 673d
000001f0: 0e39 443d 81d1 4d3c c155 673d adf8 daba
00000200: 47be 593d 382c 4a3d ff51 1cbc ea08 973d
00000210: f149 edbc 501e d33d 505b 843d 415c 3cbc
00000220: 8e3d fb3c 2a3d 363d d44d b4b9 675c c1bc
00000230: d390 b73d bbcf f03d 2fe7 b73c 4c72 c13c
00000240: 331e bb3c d1ce 973c f425 a53d 44df f43b
00000250: ed2a 4c3d 3d56 593c b480 ad3d a78e 033d
00000260: 1a3c b93c 79d4 cc3d 41c6 62bc aa3f 933d
00000270: a95c 703c 8ae5 8b3d 6ff0 903d b764 033d
00000280: 6838 aa3c 189c aa3c aecf ae3d b83f cc3c
00000290: b4b3 8f3c 5651 c33d 0c92 dc3d f6f1 b73c
000002a0: 9dce 3d3d 1a0b d43b ff49 f1bc 654e 653d
000002b0: 3786 633c b323 6aba 3329 443d 1111 003d
000002c0: 7120 dc3d 3b42 be3c d842 f33b cc82 873d
000002d0: 4cb9 d03c c218 443c abdd 0fbd d48a 213c
000002e0: 2736 8f3d 241c 0c3d af41 86bc 6448 4f3c
000002f0: 73bc 433d e30d 5a3d 2ac9 3b3d 6e18 0bba
00000300: 0240 0c3c 6c88 413d 97ba 98b6 87bf 073c
00000310: bebd 8f3d 7c32 413c f3ff b43d 9071 1e3d
00000320: dc2a 49bd 2f61 b43d 4a63 eabb 244c 153d
00000330: 2152 b43d f2c1 383d 53d1 0fbc e982 953c
00000340: 7578 6c3c 1315 1d3d 4c71 1d3c 61ca 393c
00000350: d6e2 03bc ac15 2d3c c289 203d 8c5c f13b
00000360: 43a8 273b 1694 e33c 6402 c53d 486b a33d
00000370: a39a 323d 987c a8bc 2c1c 1a3d fb6c fb3d
00000380: 6834 af3d 1a10 b53d 61d6 a83d 33ba 553c
00000390: 1057 0d3d 7aeb 793c 40aa 7b3d 4153 8c3d
000003a0: 95cd 4a3d 1a48 093d cc61 723d 78ee 8b3d
000003b0: ffdb 4e3a 9789 9c3c f68f da3c 7584 9e3d
000003c0: e3b7 343c 151e 103c a5b5 aa3c eb86 d53c
000003d0: f174 463d bd95 383d 2a82 113d cb25 483d
000003e0: 749b 903d c972 a6bb 7e1e e63d 72d8 af3c
000003f0: e2de 2d3d 762f 4f3d e414 7f3d b952 c53d

action_model._continuous_distribution.mu.bias f4 [6]
0.04188672 -0.024630759 -0.045953605 -0.03953559 -0.032636758 0.0099316165
00000000: 6991 2b3d 72c6 c9bc d939 3cbd 12f0 21bd
00000010: 1fae 05bd 38b8 223c
