results/NearSingularity03/NearSingularity/NearSingularity-225000.onnx (onnx, 623772 bytes, 9 tensors)

network_body._body_endoder.seq_layers.0.weight f4 [256, 85]
000000 79 91 ad 3c 30 d8 00 3c 10 e1 c9 bd 7b c6 5b 3d
       0.02118753 0.007864043 -0.098573804 0.053656083
000010 d7 4d 80 be d1 ca 42 be 45 c0 97 bd a6 e3 18 bd
       -0.25059387 -0.19022681 -0.074097194 -0.037326477
000020 20 6d 49 be bc 36 31 bd 28 39 86 3c d5 f9 ab bd
       -0.19670534 -0.04326509 0.016384676 -0.08397261
000030 af 26 4b 3e c8 94 1d be 77 e7 7f bc 47 69 d1 bd
       0.19838975 -0.15388787 -0.01561915 -0.10225158
000040 68 2c eb bd 9b ec 53 3d b1 88 c4 3d ab 79 da 3d
       -0.11483079 0.051739316 0.09596384 0.106677376
000050 ed 0a 75 3d c9 3b b1 bd a3 bb f9 3d 23 c1 93 bd
       0.059824873 -0.08653981 0.12193992 -0.07214572
000060 2c 87 a1 3c 9e 24 a0 ba 94 a4 6a bd 29 a1 02 bd
       0.019717775 -0.0012217944 -0.05728586 -0.031891976
000070 64 0d 1b bd 06 0a 56 bd dd 29 98 bd 72 a6 ec 3d
       -0.037854567 -0.052255653 -0.0742986 0.115551844
000080 5a d0 55 3e 26 b0 e3 3d 5f 8a 91 3d 46 77 61 be
       0.20880261 0.11117582 0.0710647 -0.22018155
000090 28 20 0e be 26 ed e5 bc 32 0c 55 bd 36 08 ea 3c
       -0.13879454 -0.028067183 -0.052013583 0.028568368
0000a0 e9 e5 0f be 32 05 3f ba 20 72 67 3d 3d 5b 1b bd
       -0.14052548 -0.0007286846 0.056505322 -0.03792881
0000b0 81 fb 15 bd 46 6b 64 be 0e e7 05 3e 17 2e 69 bd
       -0.036616806 -0.22306547 0.13076422 -0.05692872
0000c0 3a 07 16 bd b2 d4 2e 3d df 30 43 3e 4c 01 37 3e
       -0.036627986 0.04268331 0.19061612 0.17871588
0000d0 45 25 9e bd 69 94 a9 3d 9a 31 95 bd 29 98 75 bd
       -0.07721952 0.0828026 -0.07284851 -0.059959564
0000e0 72 5b 19 3e 40 c0 c2 3d b2 9c 9c bd d2 d4 38 3e
       0.1497629 0.09509325 -0.07647075 0.18049935
0000f0 f2 b8 32 3e 1b 30 d5 3d 39 06 71 be 8e 86 a4 3d
       0.17453364 0.10409566 -0.2353753 0.08033477
000100 34 ef 60 3d c8 ba a9 bc ae e1 c2 bd d6 e7 04 3c
       0.054915622 -0.020718947 -0.09515701 0.008111915
000110 88 5e 1a 3e 4b 26 20 be 5d 2d 8a bd 4c fa a7 3b
       0.15075123 -0.15639608 -0.067469336 0.0051262733
000120 b5 84 1e bd b2 78 45 bd f4 86 2f 3d d8 56 e7 3c
       -0.038700778 -0.048210807 0.04285331 0.028239653
000130 40 cc 92 bd 6e 16 d1 3d 56 a6 c6 bd 8a 9d d6 3d
       -0.07167864 0.10209356 -0.09699695 0.10479267
000140 f4 dc 14 3b da 53 04 be de 2f 1e bd ef ce cd 3d
       0.0022714706 -0.12922612 -0.03861987 0.10049235
000150 52 00 8d bd f5 3e 51 be bb c6 f3 bc cf 58 08 be
       -0.06884827 -0.20434172 -0.029757848 -0.13315128
000160 0b 51 15 be bc a8 a5 3c 56 26 c1 bd 30 44 14 bd
       -0.14581697 0.02022206 -0.0943114 -0.03619784
000170 25 42 b5 bd 25 d4 f2 bd 4e cd 0a 3d 82 a1 d3 3d
       -0.08850507 -0.118568696 0.0338872 0.103335395
000180 ad 45 66 be e3 10 92 bd 13 88 52 3d f8 a2 ad 3c
       -0.22487517 -0.07132127 0.0513993 0.021195874
000190 43 0f 31 bb fb a3 7a 3e e4 57 66 bd db fd 33 bd
       -0.0027017153 0.24476616 -0.056236163 -0.043943267
0001a0 1e ec c1 bd b3 ae 9d bd d6 94 2b be f2 fe 56 bc
       -0.09468864 -0.07699337 -0.16755995 -0.013122307
0001b0 18 39 80 bd e3 a4 d1 bd 87 14 a8 3d 48 6e f0 bc
       -0.0626089 -0.10236528 0.0820704 -0.029349461
0001c0 c3 31 33 be 3b 9b 21 3c 1a 31 22 3d c3 37 91 bc
       -0.17499451 0.00986367 0.03959761 -0.017726785
0001d0 f6 7a 59 bd 1c 8c 58 3d d8 e9 68 be 6f bb 1d be
       -0.05309578 0.052867994 -0.22745454 -0.15403531
0001e0 cf 8f 95 bd 05 fc a0 3e 1b 5c 7f 3c fa 38 fc 3c
       -0.0730282 0.31442276 0.0155859245 0.030788887
0001f0 1e b5 61 3b e3 ef 39 3d 41 4d 52 bd 00 5e d2 38
       0.003444023 0.04539479 -0.051343206 0.00010031089
000200 88 53 48 3e ef 21 95 bd a0 2c 7d bc 73 39 b5 3c
       0.19563115 -0.07281863 -0.015452534 0.02212212
000210 7f c1 37 be 5c e1 72 bd 03 cf de 3d ff 7d 5a 3c
       -0.17944907 -0.05929695 0.10879328 0.013335704
000220 95 ad a5 bd ab da 31 3e fb e5 15 bc 65 d7 e3 bd
       -0.08089749 0.17368571 -0.00914907 -0.111250676
000230 08 ea 00 bb 1b e8 37 3c bd 0b 90 be 1c 4a 40 3c
       -0.0019670743 0.011224772 -0.28133956 0.011736419
000240 71 2b 06 be 58 d2 47 bd 8c ae 3c 3c 63 44 93 bc
       -0.13102509 -0.048784584 0.011516225 -0.017976945
000250 8c a3 28 3e cb b5 64 be e2 17 8b bc fc 18 14 be
       0.16468638 -0.22334974 -0.016979162 -0.14462656
000260 86 dd b7 bd ba 83 86 3c 8b 3c 6f be e4 68 f8 3d
       -0.08977799 0.016420234 -0.23362939 0.12129381
000270 ca 26 0a 3e e3 11 b6 bd 7d 4e f8 bb 5c 46 ea bd
       0.1349136 -0.0889013 -0.007577716 -0.11439201
000280 c4 eb 36 3d 1b ed 54 bc ae da 87 bd 70 ad ce bd
       0.044658437 -0.0129959835 -0.06633507 -0.10091674
000290 5e 9f 85 3c 57 05 9d bd f0 87 c8 bd b2 69 3e 3d
       0.016311344 -0.07667034 -0.09791553 0.046487518
0002a0 e2 98 2c bd ad c3 24 be 00 77 80 3d 7f 51 36 3d
       -0.042137988 -0.1609027 0.062726974 0.044511314
0002b0 fc 77 45 bb 86 2a 20 be 26 de 4c bd dc c2 a6 bc
       -0.003013133 -0.15641221 -0.050016545 -0.020356588
0002c0 62 01 63 bd e3 ae c6 3d 8a ac e8 bb 1e 27 eb 3d
       -0.05542124 0.09701326 -0.0071006464 0.114820704
0002d0 a7 f0 df bc eb eb 64 bb 22 69 31 be ec 8c e6 3d
       -0.027336432 -0.0034930657 -0.17325261 0.112573475
0002e0 4e 99 d2 bd 19 71 81 3d 7c 45 59 be 76 c2 8d 3d
       -0.10283147 0.063204 -0.21217912 0.06921856
0002f0 0c e8 0e 3d 3c 6d 6c bd ca b3 da 3c 26 f5 43 bd
       0.034889266 -0.05772136 0.026697058 -0.047841214
000300 87 c2 36 bd 75 7b 96 3d 3b 18 c6 3d 55 9b 03 3e
       -0.04461911 0.07347766 0.0967259 0.12852223
000310 63 87 d9 3d ae 47 3c bd 77 91 21 3c 2f 8a a0 bd
       0.10621526 -0.045966797 0.009861342 -0.078388564
000320 d0 fc 76 3b 83 83 6f 3c 16 15 e8 bc b3 fe 7a 3d
       0.003768731 0.014618757 -0.028330367 0.061278056
000330 5c 1c 2e be 96 6a a5 bd 20 2c 0f 3d 03 29 bd 3d
       -0.17003006 -0.0807697 0.03495419 0.09236338
000340 a6 15 de bd f1 3a e4 3d 64 93 2e 3d d8 86 8e 3d
       -0.10843973 0.11144055 0.04262103 0.06959313
000350 fb eb a7 3d 15 1c a5 3e 7e c0 4f 3d fd 75 7f bd
       0.081993066 0.32247987 0.050720684 -0.06236838
000360 cf 22 13 3c 08 04 f2 bc c9 23 fc bc 45 b6 b0 3d
       0.008980467 -0.029542938 -0.030778782 0.08628515
000370 99 e5 51 be d2 e7 7c be a6 37 bc bd af b5 19 3d
       -0.20497741 -0.24697807 -0.091903016 0.037526783
000380 c7 dc 7d bd e2 bf b6 bd f3 ab 2c 3e 81 c2 00 3e
       -0.061978128 -0.089233175 0.16862468 0.12574197
000390 75 2c 2a bd 7c 54 eb bd af dc f3 bd 10 18 26 3d
       -0.041546304 -0.114907235 -0.119073264 0.04055029
0003a0 ee 10 8a bd 09 98 a2 3c 8b 6e 22 3e 14 ef f3 3c
       -0.0674151 0.019847887 0.15862481 0.029777087
0003b0 a7 da cb 3a 3c ce 1f 3d 4b a0 1a be 49 16 e8 bb
       0.0015552834 0.03901504 -0.1510021 -0.0070827347
0003c0 1a 7d 14 3e 16 2c ae bc fa e5 17 3e 5e 91 53 be
       0.14500847 -0.021261256 0.14833823 -0.20660922
0003d0 75 7b b4 bd 21 7e 17 3b 67 22 e0 bc 87 7a 07 3e
       -0.0881261 0.002311595 -0.027360154 0.13230334
0003e0 27 75 41 be ad 9b 8a bd 27 68 a6 bd 4e 18 62 3d
       -0.18892346 -0.06767974 -0.08125334 0.05519896
0003f0 8a e7 b1 bd 98 77 c6 bd 98 4b ec 3d a8 49 72 be
       -0.08686741 -0.096907794 0.11537856 -0.2366091

network_body._body_endoder.seq_layers.0.bias f4 [256]
000000 fb 27 2c bc ab 71 94 3a bc 7e 26 bc 7e 45 d1 3a
       -0.010507579 0.001132538 -0.010162052 0.0015966145
000010 62 4d b6 bc a2 11 84 bc a1 72 83 bc f2 0e 92 bc
       -0.022253696 -0.01612169 -0.01604587 -0.017829392
000020 64 c9 0f bb 0e 26 c2 3a d1 69 54 bc 53 fa d7 bc
       -0.0021940107 0.0014812367 -0.012964682 -0.026364481
000030 69 d5 5d bc c2 f8 92 3b 5d 58 84 3c 21 13 53 3a
       -0.0135396505 0.0044852206 0.016155416 0.00080518617
000040 33 7f 18 bc 23 a7 82 3b 33 80 d0 bb af 68 e5 ba
       -0.00930767 0.0039872094 -0.006362939 -0.0017502512
000050 b5 14 12 bc d3 d1 75 bc 62 8f 37 39 60 d9 64 bb
       -0.00891607 -0.015003639 0.00017505654 -0.0034919605
000060 64 2c c4 bc e5 d5 86 3b de 13 71 bb d1 08 8a 3a
       -0.023946948 0.0041148537 -0.0036785523 0.0010531192
000070 b4 d8 50 bc 70 f1 a3 3b cc ae 90 bc 61 4c 81 bb
       -0.012746979 0.005003147 -0.017661475 -0.0039458727
000080 a0 36 22 3c fa 9c 92 ba d8 ac 95 ba 18 e3 b6 bc
       0.009900719 -0.0011185699 -0.0011419309 -0.022325084
000090 a5 c2 ae bc 54 e5 e9 bc e4 74 93 bc 06 14 87 bc
       -0.021333048 -0.028551735 -0.018000074 -0.01648904
0000a0 f1 6e 1b bb 62 e1 8c bc 2d 46 a3 bb 6b 6d 4e bc
       -0.002371725 -0.017197315 -0.004982731 -0.012599329
0000b0 7c e5 36 bc 6b 7a c1 bb 79 64 f5 ba 25 4e 09 bc
       -0.011163112 -0.005904486 -0.001872196 -0.0083804475
0000c0 48 f4 db b8 66 c4 c5 bc 74 1e e4 bb 09 93 11 bc
       -0.00010488235 -0.024141502 -0.006961638 -0.008885154
0000d0 2d d8 16 bc 49 bb 85 3b 9b c2 10 3c 1c 91 66 bc
       -0.009206814 0.004081164 0.00883546 -0.014072683
0000e0 11 a2 05 bc e9 a5 67 bc 0c 27 bd ba e6 dc 22 bc
       -0.008156315 -0.014138677 -0.0014431193 -0.009940362
0000f0 15 05 20 3b f1 60 94 3c 54 74 df ba 28 28 f7 bb
       0.0024417092 0.018112632 -0.0017048218 -0.007542629
000100 a4 cf 84 ba 08 03 21 bc 25 9d 19 bb c5 f9 07 bc
       -0.0010132683 -0.009827383 -0.0023439613 -0.008299296
000110 5a e9 38 3c 88 11 02 3b 3c 43 7f bc 8f 40 37 3c
       0.011286104 0.0019846875 -0.015579995 0.011184826
000120 f9 4e 4e bc 89 c3 0f bc f5 a0 92 bb b0 e4 9d bb
       -0.012592071 -0.008774647 -0.004474754 -0.0048185214
000130 1a f1 ec bb f3 a2 28 bc 43 93 3c bc b4 f4 d7 bb
       -0.00723089 -0.010292756 -0.011509719 -0.00659045
000140 d1 82 1a bc f0 ab 68 bc 24 cc c8 bb 65 5f 20 3b
       -0.009430603 -0.014201149 -0.006127851 0.0024470922
000150 12 a9 e4 bb d8 cd 9d ba 95 da 08 bc 43 01 52 bc
       -0.0069781626 -0.0012039496 -0.008352895 -0.012817684
000160 56 b0 e6 bc 4d d6 c4 bb 6c 6e a4 bc 2e e9 0c bc
       -0.028160255 -0.006006992 -0.020072185 -0.008600516
000170 25 88 f8 bc 20 88 ff bc 0d 52 70 3b d6 8c 1e bc
       -0.030338356 -0.03119284 0.003667 -0.009677133
000180 9f 58 c2 3b 40 01 6e 3c 21 d9 39 bc d8 6a 14 bc
       0.0059309746 0.014526665 -0.0113432715 -0.009058677
000190 81 38 2e bc 83 67 07 3c 06 ff 8d bc 6c 7d 66 bb
       -0.010633589 0.008264425 -0.017333519 -0.0035169972
0001a0 fb 34 f3 3b aa 22 2f 3a cc 91 9c bb e7 d7 21 bc
       0.0074220872 0.00066808856 -0.0047781225 -0.009878135
0001b0 b0 f6 d7 bb 70 27 8e bc c6 c2 d1 3b 1f 7b db bb
       -0.0065906867 -0.01735279 0.0064013926 -0.006698027
0001c0 75 99 4a bc 57 cc 4b 3b 32 7d 30 bc ff 2c 14 bc
       -0.012365689 0.0031097138 -0.010772036 -0.009043931
0001d0 80 02 b1 bc c8 b9 7d bc 31 f2 bd bb 02 0f 59 bb
       -0.021607637 -0.015486188 -0.0057966937 -0.0033120518
0001e0 9c 77 96 bc f2 53 09 3c d0 28 3b 3b 72 50 98 bb
       -0.018367581 0.0083818305 0.0028558262 -0.0046482617
0001f0 11 9e 87 3b 4c 8d 1c 3a 31 a7 a4 bc f0 5c b2 bc
       0.004138716 0.00059719826 -0.020099254 -0.021772832
000200 a5 c2 a9 3a fb 48 a7 bb 80 43 7f bb e5 33 cd ba
       0.0012951685 -0.0051051355 -0.0038950145 -0.0015655725
000210 34 bf 63 3c 20 a9 66 3c c9 6b 90 bb aa 59 7c 3b
       0.013900567 0.0140784085 -0.0044073802 0.0038505592
000220 af c5 cc bc f5 6a 98 bc dd 49 fe bc c9 f5 9f 38
       -0.024996607 -0.018605689 -0.03104108 7.627492e-05
000230 e6 8a 77 bc 75 01 6b 3b a9 61 15 bb f0 87 07 bc
       -0.0151088 0.0035859023 -0.0022793806 -0.008272156
000240 eb 6c 82 3c 77 36 1f bb 84 de 90 bc e2 04 a4 bc
       0.015921077 -0.0024293938 -0.017684229 -0.02002186
000250 b7 0b 1a bc e2 fe 87 3b 0f c7 47 3c f0 08 f7 bc
       -0.009402207 0.0041502574 0.012193455 -0.030155629
000260 c1 c7 f2 bb 58 14 77 3b 33 7b 9c bc 2c 84 d3 bc
       -0.0074090664 0.0037701335 -0.019101715 -0.02581986
000270 a4 0d b0 bb 35 fa 1d 3c 83 8c 28 bc 45 b1 c6 3a
       -0.00537272 0.009642174 -0.010287407 0.0015159032
000280 ed 18 6e bc 57 00 8f bc a1 cb 32 3c 90 e5 22 bc
       -0.01453231 -0.017456217 0.010912807 -0.009942427
000290 e7 1d e7 bc ac 98 03 3c f3 aa c3 bc 3b 0b d7 bb
       -0.0282125 0.008032005 -0.023885226 -0.006562618
0002a0 cb d8 64 3c c3 48 c7 bb 2e 49 5a bc 6e 23 2b bc
       0.013967703 -0.006081672 -0.013323111 -0.010445459
0002b0 98 10 bc bc d0 13 64 3b bf 7a bf 3a 8b 09 1b 3c
       -0.022957131 0.0034801848 0.0014608725 0.009462724
0002c0 25 b6 a6 bc d1 10 2f b9 43 89 72 3c 6e 06 84 bc
       -0.020350525 -0.00016695565 0.014803234 -0.016116347
0002d0 7c f6 82 bc d2 bb a1 39 fe d4 fa bb 78 95 7f bb
       -0.015986674 0.0003084825 -0.007654785 -0.0038999002
0002e0 fa 7a d1 bc 8b 59 fc bc 8d 78 ab bb 21 ed 31 bc
       -0.025571335 -0.030804416 -0.0052328766 -0.010859759
0002f0 08 b9 3d bb e5 78 b9 bc 96 7e 59 bc 8a 7d ee 3b
       -0.0028949399 -0.022640655 -0.013274809 0.007278149
000300 5b 84 5f bc 71 3d f9 bb f2 15 b9 bc f0 4c bc bb
       -0.013642396 -0.0076062013 -0.022593472 -0.0057464764
000310 6e b9 5b 3b 76 fd f7 bb 2f 34 65 bc 9f f0 df bb
       0.0033527273 -0.0075680567 -0.013989492 -0.006834104
000320 11 23 00 bc 18 96 69 bc 6c d5 15 bc 95 60 7f 3b
       -0.0078208605 -0.014256977 -0.009145122 0.003896748
000330 61 17 cf bb fc 27 35 bc 5b a3 e8 bc 35 8b ce 3b
       -0.0063199257 -0.011056896 -0.028398206 0.006303216
000340 97 1f 05 3b e9 53 39 bb 1b fc ca bb 10 c2 b5 bc
       0.0020313018 -0.0028278774 -0.006194604 -0.022187263
000350 f7 15 f8 bc 11 c3 e1 bb d7 aa 1e ba fd 5b 52 bc
       -0.030283911 -0.006889709 -0.0006052679 -0.0128393145
000360 6f b1 a6 bb 4d 55 b6 bc 08 fd 33 bc 99 e1 90 39
       -0.0050870697 -0.022257471 -0.01098562 0.00027633904
000370 82 24 01 bd 31 d8 b2 b9 f1 50 ae ba 1d f4 37 bc
       -0.031528957 -0.0003411188 -0.0013299269 -0.011227635
000380 9b e9 e5 bb e4 91 e0 bc 11 59 74 3c d7 b3 08 bc
       -0.0070163733 -0.027413316 0.014913813 -0.008343658
000390 98 d8 16 bc 12 ab f9 bc 9c e0 a4 bc 72 bf 30 bc
       -0.009206913 -0.03047708 -0.020126633 -0.010787832
0003a0 ad 27 33 3b 96 02 fd bb db e2 9c b9 a5 7a 15 bc
       0.002733688 -0.0077212555 -0.0002992366 -0.009123479
0003b0 70 67 18 3c 31 f8 e9 3a 29 99 c4 bc b2 5b 89 bc
       0.009302005 0.0017850456 -0.023998814 -0.016767357
0003c0 92 e1 a5 bc 08 3c 36 bc 2c 4e 31 bc 75 6f 8e 3b
       -0.020249162 -0.011122711 -0.01082186 0.004346783
0003d0 80 99 85 bc ac 66 88 bc e2 bf d9 3b 3d fb 62 3c
       -0.016308546 -0.01665052 0.0066451887 0.013853845
0003e0 9d 6a 2b bc 7c ef 59 ba 3a be 11 3b f3 6a 99 3c
       -0.01046243 -0.0008313579 0.0022238628 0.018727755
0003f0 5d 66 4b bc 4c 7f ab ba 56 f0 e7 3a bc 97 30 bc
       -0.012414542 -0.0013084202 0.0017695527 -0.010778364

network_body._body_endoder.seq_layers.2.weight f4 [256, 256]
000000 d4 9c 2a bd bf 9e 1e 3c 5c ba 3d 3c 9a 22 53 3d
       -0.04165347 0.009681403 0.011580076 0.05154667
000010 85 c1 b3 bb 0a dd 76 3c 06 a5 ef bd 11 d3 33 bd
       -0.005485716 0.015067348 -0.117013976 -0.04390246
000020 d5 c7 31 bb 27 ac 8b bd 7c dd 95 bc 93 3c 8f bc
       -0.0027127166 -0.06819945 -0.018294089 -0.017484939
000030 9b f1 0e 3d c7 14 09 3c 89 f0 cf bd 96 f0 31 3d
       0.03489838 0.00836677 -0.101533 0.04344233
000040 07 14 bd 3b 4b c9 98 3d 00 fa 59 bc a8 4d cd 3d
       0.0057702097 0.074602686 -0.013304234 0.100245774
000050 86 ac 8d 3d 8c ec db 38 1b b8 e8 3c e3 b4 ac bd
       0.06917672 0.00010486794 0.0284081 -0.08432939
000060 1e 51 c6 bd c4 6a 91 bc 8a 04 6b 3c d3 9b e6 bd
       -0.096834406 -0.017751105 0.014344344 -0.1126019
000070 04 5f 99 3d ee a8 0e bd 0e 2b 59 3d 4f 24 4c 3d
       0.07488826 -0.034829073 0.053019576 0.049839314
000080 a4 ac 8c 3d ba 19 35 3d 92 4e 98 3d a4 49 73 3d
       0.06868866 0.044213988 0.07436861 0.0593964
000090 46 4c 8f 3d f6 91 14 be 7b ed ab 3c 61 b5 88 3d
       0.0699697 -0.14508805 0.020987263 0.0667522
0000a0 be c2 20 bd 2f 9b e7 3d 7a 31 43 3d dc 53 cc 3c
       -0.03924822 0.11308896 0.047654606 0.024942331
0000b0 81 b1 8b bd cf ec 66 ba e0 03 cb bd bd 60 76 bd
       -0.068209656 -0.0008809091 -0.099128485 -0.06015085
0000c0 65 44 df bc 7c 48 0c bd 00 fb c8 3d fe 13 49 bd
       -0.027254293 -0.034248814 0.098134995 -0.04909133
0000d0 b8 8d 15 be c1 d0 1c bb 74 ae 41 3d fa 6f 4f 3d
       -0.14604843 -0.0023928138 0.047285512 0.0506439
0000e0 e7 7d d0 3c df 48 b1 bb d9 67 da 3d 59 fb df 3c
       0.02545066 -0.0054102982 0.106643386 0.027341532
0000f0 c8 50 e6 bd 52 a6 71 3d 9c 5b f9 bd 6c bc 96 bd
       -0.112458766 0.058996506 -0.12175676 -0.07360157
000100 0b a1 ac bd 01 de 36 3d b2 69 05 bd e3 e7 4b bd
       -0.08429154 0.044645313 -0.032571502 -0.04978169
000110 f1 0a 8e bd 65 37 ae bd 12 74 97 bc da d2 ca 3d
       -0.06935681 -0.085066594 -0.018487964 0.09903498
000120 89 5c 06 be a1 d8 6a bc 11 8d 8c 3d 33 71 0c 3e
       -0.13121237 -0.014333875 0.06862844 0.13715057
000130 41 3f c6 bc d6 8b b1 3d 23 89 41 3d d4 79 84 bd
       -0.024200084 0.0866925 0.047249924 -0.06468549
000140 59 52 95 3d f4 ae 89 bd bd 25 7c 3d b4 72 75 3d
       0.07291097 -0.06722823 0.061559428 0.059923843
000150 df 64 4b bd ee a7 32 bd d0 96 95 bd a3 22 8c 3c
       -0.049656745 -0.04361718 -0.07304156 0.01710636
000160 b9 f5 07 bd 79 8d 84 3d 90 b3 56 3d 71 ef 63 3d
       -0.033193324 0.06472296 0.052417338 0.05564827
000170 71 eb 65 3d a5 7e cb bd 62 d1 a9 bd c1 32 0f bd
       0.056132738 -0.09936265 -0.0829189 -0.034960512
000180 38 f3 e0 3c f5 f4 98 bd 62 0d f7 b9 38 7e ff 3c
       0.027459726 -0.07468597 -0.00047121482 0.031188115
000190 75 f0 e8 3d 63 ba fd bd dc 71 0c 3e 6e fc 3d 3e
       0.113739885 -0.12389066 0.13715309 0.18553326
0001a0 c9 21 35 3d d6 92 b9 bd e1 50 a1 3c 2d f4 28 bc
       0.044221673 -0.0906121 0.019691886 -0.010312122
0001b0 39 00 fd 3c 40 c4 eb bd b0 18 7e bd e0 08 f6 bc
       0.030883895 -0.11512041 -0.062035263 -0.030033529
0001c0 be 6f 91 3d 6a 99 30 3d 33 d7 0d 3d f2 e8 36 bd
       0.07101391 0.043115057 0.034629058 -0.044655748
0001d0 f5 b7 f2 3d 85 dc 2d bd cb fc 93 bd be a0 50 3d
       0.11851493 -0.042446632 -0.07225951 0.050934546
0001e0 62 5b 9e bd eb cf 0a 3e d1 69 48 3d 6b 75 21 3d
       -0.07732274 0.13555877 0.04892904 0.03941862
0001f0 35 e7 12 be 74 5a c6 bc b1 39 2a bd 06 62 bd 3b
       -0.14346011 -0.024213053 -0.041558925 0.0057795076
000200 a1 0f bb bd 54 64 42 3d 52 d4 dc 3c 86 cf 01 3c
       -0.0913384 0.04745896 0.026956711 0.007923013
000210 08 f0 9a 3c 38 2e 99 bc 80 23 ae 3c e6 42 35 3d
       0.018913284 -0.018698797 0.021257162 0.044253252
000220 e0 d5 13 be b4 e0 16 3e 8d f7 67 3c 53 cb d3 bc
       -0.14437056 0.14734155 0.014158142 -0.025853788
000230 bb b5 25 3d d0 4c 6c 3d 31 b8 0a 3e 62 47 97 3c
       0.040456515 0.05769044 0.13546826 0.018466655
000240 72 97 97 bd b0 a2 5b 3d 7f f0 41 bd 4c d2 a2 3d
       -0.07401933 0.053621948 -0.047348496 0.07950267
000250 c0 e5 7b 3d 21 48 95 3d 88 9a 5a bc b0 91 0d 3d
       0.061498404 0.07289148 -0.013342507 0.034562767
000260 b4 e8 5e bd 74 da 95 3c 03 96 b3 3b 7d 80 35 3d
       -0.05442114 0.018292643 0.0054805293 0.04431199
000270 ee 16 ee 3c 86 e4 a2 bc a7 9e 8d 3b 88 72 2f 3d
       0.029063668 -0.01988436 0.0043218913 0.042833835
000280 5d e6 e9 3d a3 c7 91 3c 92 a2 8a bd 87 e3 97 bc
       0.114208914 0.01779539 -0.06769289 -0.01854111
000290 3a 17 95 3d d4 bc 03 3d 88 13 0a bd e9 5c d4 bc
       0.07279821 0.032162502 -0.033710033 -0.02592321
0002a0 b2 59 1d be 03 f9 95 bc 9f af 68 3d 51 a4 db 3d
       -0.15366247 -0.018307215 0.05680811 0.107247
0002b0 f5 48 13 3c 65 5f fd 3c 41 5a 1b 3c 84 1e 32 ba
       0.008989562 0.030929277 0.009481967 -0.00067947083
0002c0 d0 19 b0 3d 79 15 06 be 63 0f 5c 3d c6 cd b3 3d
       0.08598673 -0.13094129 0.05372561 0.087794825
0002d0 74 fe 88 3d 00 53 d3 ba 6a 57 ec 3d fa 70 7e 3a
       0.06689158 -0.0016122758 0.115401104 0.0009706166
0002e0 07 a9 9e 3d 2e 2d 52 3c c9 dd 99 bd 23 7c 18 be
       0.07747083 0.0128281545 -0.07513005 -0.14891104
0002f0 c1 97 14 3d 3a 74 0e 3d 82 75 59 3d b4 77 24 bb
       0.036277536 0.03477881 0.05309058 -0.0025095763
000300 39 99 99 bc e8 36 e3 bc 3c 91 b1 3c 65 47 d6 ba
       -0.01874982 -0.027736142 0.021675698 -0.0016348182
000310 d0 96 61 3d 1f 7d fd 3b ee 82 87 3c 3d c7 f0 bc
       0.055075467 0.007735863 0.016541924 -0.02939188
000320 2d ea 8b bb 7a 2c 02 be 3b fe f2 bc 5a a5 08 bd
       -0.0042698593 -0.12712279 -0.029662242 -0.033360817
000330 c1 7c 6f 3c 11 29 a1 bb 86 0a 28 bd 67 b0 0e bd
       0.014617146 -0.0049182256 -0.04102566 -0.0348362
000340 c0 e9 87 bb ea 8b 46 3d ea fc d6 bc d2 55 3c 3d
       -0.004147738 0.048473276 -0.026243646 0.045980282
000350 6f 1f 4a 3c fe d9 e3 ba bd 9f 3e 3d 19 54 0a bd
       0.012336596 -0.0017383692 0.046539057 -0.033771608
000360 3a 2f 5a bd a5 65 e8 3d 02 08 8e bd 60 05 63 3c
       -0.053267695 0.11347512 -0.06935121 0.013856262
000370 79 f9 d1 3d f8 de 2a 3c 57 73 2e be b0 7a 02 be
       0.10252661 0.010429136 -0.17036186 -0.12742114
000380 32 4f 48 3d d1 45 b3 3d 9b cc 30 bd f4 aa 1e bc
       0.04890365 0.08753551 -0.043163877 -0.009684313
000390 53 77 55 3d 5a 7a d2 3d 6f 3b 93 bd 56 39 23 3d
       0.05211575 0.10277243 -0.071890704 0.0398496
0003a0 24 08 bf 3d 76 07 bd 3d 77 26 fe 3d 36 cf c5 3d
       0.093277246 0.09229939 0.1240968 0.09658663
0003b0 04 11 9d 3c e2 1c 01 3d 98 63 aa 3c b4 de ab 3d
       0.019173153 0.031521685 0.020799443 0.083920866
0003c0 b0 98 f6 3d 84 e3 b7 bc 87 af 38 bd 50 f6 d2 3d
       0.120408416 -0.022447355 -0.04508927 0.10300887
0003d0 60 06 bf bc ed 87 0f 3d 42 2c 49 bd c0 14 20 bd
       -0.02331847 0.03504174 -0.049114473 -0.03908229
0003e0 95 e8 a7 3d 92 6c ac 3c e4 15 08 bd fa ca 99 bd
       0.081986584 0.021047864 -0.033224 -0.07509418
0003f0 1f e3 78 3d a8 4a 18 bd d0 87 0b bc 1a 4e 4e 3d
       0.060763475 -0.037180573 -0.008516267 0.050367452

network_body._body_endoder.seq_layers.2.bias f4 [256]
000000 f0 f4 cf bb d8 6c 16 3b 64 89 25 bc 6b 96 39 bc
       -0.0063463375 0.002295306 -0.010103557 -0.011327366
000010 4f a5 0c 3c 02 d3 7c bc 67 d9 0f bc 2e cf 0e bb
       0.0085843345 -0.015431168 -0.00877986 -0.002179097
000020 fb 60 ff bb 0d 27 02 bc dd 2f 7e bc 5c cf 62 bc
       -0.0077935434 -0.007943881 -0.015514341 -0.013843384
000030 e1 f6 4c bc 79 50 5b bc c6 ec 0c 3c 9e 31 2d bc
       -0.012510032 -0.013385885 0.008601373 -0.010570912
000040 32 4b 1f bc 4b d5 8d bc ce 0a 22 bc 2e d6 0f bc
       -0.009722518 -0.01731362 -0.009890271 -0.008779092
000050 68 90 18 bc 90 8f 61 bc 27 7c c3 bb 71 f0 81 bc
       -0.009311773 -0.013767138 -0.005965728 -0.015861722
000060 5e c3 3d bc 63 86 3c bc 01 89 d1 3b 4c 7c 3d 3c
       -0.011582224 -0.01150665 0.006394506 0.011565279
000070 8c a7 d8 ba af 32 aa bb c4 a4 33 bc 25 f6 25 3c
       -0.0016529425 -0.0051940302 -0.010964576 0.010129486
000080 8a 0b 46 bc 62 5d c6 bb ae 39 12 bb d9 c4 84 bc
       -0.012087712 -0.0060536126 -0.0022312212 -0.016207146
000090 e4 ba 7a bb ac 54 2a bc c7 38 c1 3b b7 eb ab bb
       -0.0038258368 -0.010396164 0.005896661 -0.0052466053
0000a0 a5 ba 65 bc e4 a5 83 ba 8a d2 4b bb cd 23 01 bc
       -0.01402155 -0.0010043946 -0.0031100833 -0.007882071
0000b0 a1 f1 8e 3b c3 2f b9 ba f5 48 f3 b7 31 97 91 3a
       0.0043623005 -0.0014128614 -2.900183e-05 0.0011107681
0000c0 c0 9a 3c 3c d8 3e 47 bb 75 42 9c 3a 92 61 03 bc
       0.011511505 -0.0030402448 0.0011921661 -0.008018868
0000d0 5f c6 a0 bc 42 fd 47 3b 91 fc 3b bb 69 3e e6 ba
       -0.01962584 0.0030515944 -0.0028684477 -0.0017566207
0000e0 bb b6 00 3c f2 3e 2b 3c 6d e6 6d bc be 9b f2 bb
       0.007856066 0.010452019 -0.01452027 -0.00740382
0000f0 84 5c 96 bb 92 f8 45 bb e2 35 fe 3b 5e 30 4b bc
       -0.0045886654 -0.0030207974 0.007757888 -0.012401668
000100 29 ba 81 bb 4a 5b 91 bc 9a 6b 24 bc f6 79 df bb
       -0.0039589596 -0.017743725 -0.01003542 -0.006819959
000110 2d b6 c1 bc f7 ba 90 bb 90 3d f1 3b de 01 00 3c
       -0.023646438 -0.004416819 0.007362075 0.007812945
000120 56 6f 83 bb c5 77 69 3c 49 ca 09 bb 0b 63 78 bc
       -0.004011075 0.014249747 -0.0021025112 -0.015160332
000130 d2 5d 1e bb e8 74 c9 bb 38 9a 2a bb a5 1b 21 bc
       -0.0024164808 -0.0061479695 -0.0026031863 -0.009833251
000140 e5 19 9e bc 79 3d e4 3b 09 10 5f bc 19 57 44 3b
       -0.019299457 0.006965336 -0.013614663 0.002995914
000150 51 3a 44 3b 9d 90 ca 3b c3 2c 7c bb 65 f8 63 3b
       0.0029941986 0.00618179 -0.0038478829 0.0034785506
000160 81 c4 84 3b c2 54 dc bb 8c 9f 3d bc 94 6c 8f bc
       0.0040517454 -0.006723971 -0.0115736835 -0.017507829
000170 d5 55 ff 3a ad 07 1c bc b7 71 ed b9 8b d9 47 bc
       0.0019480536 -0.009523314 -0.00045288887 -0.012197862
000180 85 92 39 bc 51 f1 f1 bb 88 5c 09 3c bb 22 85 bb
       -0.011326437 -0.0073835035 0.008383878 -0.004062978
000190 57 cc 2d bc 11 12 bb 3b 0e 3b f2 bb e4 4e 5f 3c
       -0.0106078 0.005708941 -0.007392294 0.013629649
0001a0 e4 5e 80 3b a2 f9 20 3c 74 38 eb bb 10 2b 63 3b
       0.003917562 0.009825142 -0.0071783606 0.0034663118
0001b0 8d 09 5d 3c 00 a1 64 3c 8f b7 c2 bb c4 1e 44 3a
       0.013491047 0.013954401 -0.005942292 0.0007481391
0001c0 bb 86 be 3a f2 1b c0 bb bb f0 81 bc d2 66 7d bc
       0.0014536002 -0.0058627063 -0.01586186 -0.015466409
0001d0 11 21 fb bb 6b e5 34 3a 08 07 23 bc e8 c6 ee bb
       -0.007663854 0.0006900641 -0.009950407 -0.007286895
0001e0 9b 5a d7 bb f8 a5 a2 bb 99 6e cc bb 02 74 19 bc
       -0.0065720803 -0.0049636327 -0.00623877 -0.009366037
0001f0 9f d0 90 bc 0f d5 22 3b 6f 35 e4 bb 07 12 af bb
       -0.017677603 0.002484623 -0.0069643776 -0.005342725
000200 e6 31 dc 3b 95 7f ed bb 51 59 9b bb 31 29 11 3b
       0.0067198155 -0.007247875 -0.004740872 0.0022149796
000210 99 7c 1c bc 52 b2 18 3c 71 2a 3d bc 76 b9 1b bc
       -0.009551191 0.009319859 -0.011545763 -0.009504667
000220 55 e0 5a bc e0 dc 21 3d f2 c2 36 bb f0 a0 40 bb
       -0.013359149 0.039517283 -0.0027887193 -0.0029392801
000230 4e 01 98 3b e3 24 7f bc 59 c4 20 bc c6 55 ea 3b
       0.0046388274 -0.015572759 -0.009812438 0.0071513383
000240 0a d9 88 3c f6 f2 1a 3b 10 e4 45 bb 56 3c 37 3a
       0.016705055 0.002364335 -0.003019575 0.0006989887
000250 93 0f 2b bb df 0d 47 bc 49 65 89 bc 08 e6 c6 bb
       -0.0026101812 -0.012149303 -0.01677193 -0.0060699023
000260 04 c2 92 39 e5 e2 f3 ba 4a b6 27 bc ba 70 cb 3b
       0.00027991843 -0.0018607049 -0.010236332 0.0062085064
000270 20 0c d7 bb 81 84 c2 bb 16 0f be 3b 14 9d 82 bc
       -0.0065627247 -0.005936206 0.005800138 -0.015944041
000280 6f 7a 3b bc 11 75 b8 bb 79 5b 82 ba 05 e2 8c 3b
       -0.011442765 -0.00562919 -0.0009945474 0.0042994046
000290 ad ab c6 b8 74 29 9e bc 02 b9 13 3c a1 41 9f 3c
       -9.473353e-05 -0.019306876 0.009016277 0.019440474
0002a0 1b 41 c4 3b 15 71 23 bc 65 e1 13 bc b2 0f 4b bb
       0.0059892065 -0.009975691 -0.009025906 -0.0030984697
0002b0 e4 f1 db 3c 92 05 c4 39 3d 55 7b bc 0f 0d ca bb
       0.02684874 0.00037388183 -0.015340147 -0.0061661075
0002c0 46 2b da 3a f0 bc 97 ba ee d3 35 ba 69 09 ec bb
       0.0016644977 -0.0011576694 -0.0006936182 -0.00720327
0002d0 ef c3 0d bc a3 ab c9 bb 5f ef 93 bb a9 ee 6d bc
       -0.008652671 -0.006154494 -0.0045146192 -0.014522233
0002e0 e4 33 0f bc 61 37 82 bc 9a e3 2a 3a 80 9e a3 bc
       -0.008740399 -0.015895547 0.00065189006 -0.01997304
0002f0 eb 5d 45 3c 12 81 16 bc d1 76 0c bc 69 d6 79 bc
       0.012046318 -0.009186046 -0.00857325 -0.015248873
000300 3e 52 50 bc 78 36 9e bc d5 76 b5 bb 4c f9 54 bb
       -0.012714921 -0.019313082 -0.0055378475 -0.0032497225
000310 c2 31 71 3b 12 89 11 bc 4b a6 b8 bc 86 17 d1 3b
       0.003680334 -0.008882778 -0.022540232 0.006380978
000320 03 25 03 3c a2 29 73 3b 58 2d 1c bb e3 7d 30 bc
       0.00800443 0.0037103673 -0.0023830738 -0.010772201
000330 4e 63 d1 3b 84 9c 89 bc 14 5c 68 bc 13 03 93 bc
       0.006390012 -0.016798265 -0.014182109 -0.017945802
000340 6a c6 ad bc f8 7e 04 bc a3 cb 03 3c cf db d8 bb
       -0.021212775 -0.008086912 0.008044156 -0.006618
000350 93 d6 33 3c ad 58 a0 3b ae 08 d5 bb f4 55 e8 3b
       0.010976451 0.0048933835 -0.006501279 0.0070903245
000360 8a 14 9c bc 92 e6 96 3c 39 3b 7f bb 1c 88 d5 bb
       -0.019052763 0.018420491 -0.0038945212 -0.0065164696
000370 ff 49 30 bc d7 55 80 bb 3d 44 0a ba 63 a5 47 bc
       -0.01075983 -0.003916483 -0.00052744505 -0.012185427
000380 60 a1 6a ba a1 b4 64 bb 20 64 ba bc 20 dc 49 3c
       -0.00089504384 -0.0034897702 -0.022752821 0.012320548
000390 9d 97 2a 3a 9f 82 0d bc f2 86 8b bc bb 3c 07 3c
       0.00065075775 -0.0086370995 -0.01703212 0.008254225
0003a0 ee 92 19 bb c8 8d d4 bb 8d 1c 99 bc 8e 13 94 bc
       -0.0023433524 -0.006486628 -0.018690372 -0.01807573
0003b0 8f d8 96 bb 46 f5 a6 3b dc e4 a6 bb 80 f3 ce 3b
       -0.0046034525 0.005095157 -0.0050932 0.0063156486
0003c0 0a 93 4e bc b4 9c 4d bb 5a d3 16 bb 6a 97 be bb
       -0.012608299 -0.003137392 -0.002301416 -0.00581639
0003d0 32 16 31 bc 4c f0 40 3a 72 5e 86 bb 72 3c 30 3c
       -0.010808514 0.0007360026 -0.004100614 0.010756599
0003e0 b9 30 9f bc 34 48 9e bb f4 54 93 ba 7e 4f 01 bb
       -0.019432412 -0.0048303846 -0.0011240528 -0.001973122
0003f0 18 dc 50 3b d4 ff b7 bc 47 2b 0d bb b4 68 41 bc
       0.0031869467 -0.022460856 -0.0021540688 -0.011804748

network_body._body_endoder.seq_layers.4.weight f4 [256, 256]
000000 c3 fa 79 3d d3 bf 33 3e 19 00 da bd be e2 88 bd
       0.06103016 0.17553644 -0.1064455 -0.06683873
000010 b9 7c 4f 3d 90 4b b8 3d fa ea 7e 3d 99 e4 c6 bc
       0.050656054 0.089987874 0.06223581 -0.024278926
000020 52 76 dd bb b4 c7 35 3c ea ca 7f 3d 0a c4 03 3d
       -0.0067584896 0.011094976 0.062449373 0.03216938
000030 7b a5 4b bc 5d ec 40 bd 4a fc 41 bd c3 82 b1 bd
       -0.01242959 -0.047100414 -0.047359742 -0.08667519
000040 f4 22 6a 3d 63 c9 a1 3d 66 b9 71 bc 1d 49 63 3d
       0.05716224 0.078997396 -0.014753675 0.055489648
000050 62 f3 ba 3d 7e 44 09 bd 50 5d 35 bd e0 fb 90 bd
       0.09128453 -0.033512585 -0.044278443 -0.07079291
000060 5b bd 80 bd 0d 39 a7 bc 61 19 09 be 23 f7 6b bd
       -0.06286117 -0.020412946 -0.13388588 -0.057608735
000070 c6 1c 17 bd 27 06 a3 bc 62 f2 61 3d 40 aa 31 bb
       -0.036892675 -0.019900395 0.055162795 -0.0027109534
000080 e5 55 55 3c 0a 13 16 3d ee 1d 13 bd 97 d7 b9 3c
       0.013020967 0.03663925 -0.035917215 0.022685809
000090 5a 2d d0 3d ec 29 e3 3c 75 95 be ba 2c 36 c0 bb
       0.101649 0.02772995 -0.0014540391 -0.005865833
0000a0 25 01 5f 3b a1 c6 41 3c 59 1f c8 3d 89 67 30 bd
       0.0034027782 0.011827142 0.09771604 -0.04306749
0000b0 22 8d b0 3d 63 cb b1 3c 4b f2 a4 bc 95 cd a0 bd
       0.08620669 0.021703428 -0.020135066 -0.07851712
0000c0 84 4e 12 bd a9 67 89 bd e7 74 51 bc 72 7e c4 bd
       -0.03571941 -0.06709225 -0.012784219 -0.0959443
0000d0 37 d7 85 bd ef 58 90 3c 63 b7 ec 3d 42 c8 45 bc
       -0.065351896 0.017620532 0.11558416 -0.012071671
0000e0 3e a1 88 3d 1f df d2 bc f1 28 b4 bd b6 fe 8f bc
       0.066713795 -0.025741158 -0.087968715 -0.01757751
0000f0 75 1f 83 3c 25 60 4d 3d a1 b2 d3 bc 55 04 ee bc
       0.01600621 0.05014052 -0.025842013 -0.0290548
000100 91 90 38 bd c4 21 93 3c f5 22 ba bd e0 50 76 3d
       -0.045059744 0.017960437 -0.09088699 0.060135722
000110 d4 8d ee 3d d8 06 d7 bb 71 a8 44 3d 1f ce c8 bd
       0.11648145 -0.006562095 0.0480122 -0.098049395
000120 10 63 c9 3c 76 d7 9c bd aa 1e 01 bd 71 7d 68 bb
       0.02458337 -0.076582834 -0.031523384 -0.003547516
000130 eb a0 c4 bd a6 8a e9 3c 5a 51 ac bd 2d e0 11 3e
       -0.09601005 0.028508496 -0.08413954 0.14245673
000140 a0 db a5 3d 3e a5 db bc c2 1e 3b 3d 87 7a c9 3d
       0.08098531 -0.026812192 0.04568363 0.09837823
000150 1c 64 2c be 56 70 34 bc 12 c3 f7 bd 02 6f 5e bd
       -0.16835064 -0.011013111 -0.120977536 -0.054305084
000160 65 50 94 3d 4c 89 9f 3d ef e5 78 bd 97 51 2e bd
       0.072418965 0.07789859 -0.060766157 -0.04255828
000170 31 0c db bd e9 e3 18 bd 20 3c 03 3c c4 a4 d4 3c
       -0.10695685 -0.037326727 0.00800994 0.025957473
000180 e3 a8 81 bd 87 c8 13 be bb b8 8a 3d c1 ec 9c bc
       -0.06331041 -0.14431964 0.06773516 -0.019155862
000190 02 1b 3a bd 4d ec db bc 99 7a e5 3c 0f 4d da bd
       -0.045435913 -0.026846075 0.02801256 -0.10659229
0001a0 61 bf 9a bb 6f 95 ca 3d b0 7f 58 bd d1 96 36 bd
       -0.004722521 0.098917834 -0.052856147 -0.044577423
0001b0 8e 2d 21 bc 29 cc 34 bd 58 5f 20 3d 0a 91 fb bd
       -0.009837521 -0.044140015 0.039153427 -0.122835234
0001c0 61 c6 70 3d 10 a3 70 3d 35 32 6c bb 32 c6 cb 3c
       0.05878294 0.05874926 -0.0036040668 0.02487478
0001d0 30 52 01 bd 9b 79 20 3e 70 e5 49 3d 57 40 c6 3d
       -0.03157252 0.15671389 0.049291074 0.096802406
0001e0 99 3a 38 3d c7 64 02 3d cc b5 a7 3c 4c b0 9e 3d
       0.044977758 0.03183439 0.02047243 0.0774847
0001f0 ed 0d ce 3c 8d 6c 0a be 31 97 63 3c fb 50 90 3c
       0.025153125 -0.13517971 0.013891027 0.01761674
000200 12 77 0f 3c 35 6b 88 bd 33 79 dc 3d fb fa ec bd
       0.008756416 -0.06661073 0.107653044 -0.11571308
000210 17 0a bb 3b a4 8e d6 bd 52 a4 7b bc e2 13 4a bd
       0.00570799 -0.10476425 -0.015359001 -0.049335368
000220 81 af a9 3c 83 ec 32 bd ac 63 eb bd 4c 76 64 bc
       0.02071357 -0.043682586 -0.1149362 -0.01394422
000230 4f 82 0f bd 5a 30 b8 bd a9 e0 8a bd d7 45 b0 3d
       -0.03503638 -0.08993597 -0.06781132 0.08607071
000240 f1 9b 2b be 6c 09 f5 bd 19 b0 18 bd 32 20 b5 bd
       -0.16758706 -0.11964688 -0.037277315 -0.088440314
000250 df 76 80 3d 46 71 13 3d 66 fb 96 3d da ae 3a 3d
       0.06272673 0.035996698 0.07372169 0.045576908
000260 8a 65 8d bd c6 37 b4 3b 4b f4 90 bd 92 f9 de 3d
       -0.06904133 0.005499813 -0.07077845 0.108874455
000270 f6 5c 0d 3d e8 a1 ed bd 23 33 e7 bd 36 35 3e 3d
       0.034512483 -0.11603147 -0.112890504 0.046437465
000280 db 7e 0a ba 9f e5 97 bd da a3 69 bd 39 eb 94 3d
       -0.0005283185 -0.074168436 -0.057041027 0.07271428
000290 32 f6 76 3a c5 a2 5b bc da 6b 1b 3d 0d 27 09 be
       0.0009420841 -0.0134055065 0.037944652 -0.13393803
0002a0 d4 0e 67 bc 18 ef 88 bd df 67 ac bd 55 37 24 bd
       -0.014102656 -0.066862285 -0.08418249 -0.04009183
0002b0 1b 52 a7 3d 73 92 a8 3d 76 08 02 3e 3b a0 40 3d
       0.08169957 0.08231058 0.1269854 0.047027808
0002c0 8f 4f f4 3c b1 ef 46 3e 95 5f 65 bd 4b c4 45 3d
       0.029823093 0.19427373 -0.055999357 0.048282903
0002d0 be 8c 65 bd 06 d4 05 bd 81 c8 c0 3c ac e5 66 3d
       -0.056042425 -0.032672904 0.023533108 0.056371376
0002e0 1b 00 86 3b 17 d9 31 bd b2 8b b0 3c 99 b5 71 3c
       0.004089368 -0.043419924 0.021550987 0.014752769
0002f0 68 26 f2 3d a8 6b 0b 3d ea bc 06 bc 0a b8 9e 3d
       0.11823732 0.034038216 -0.008223752 0.077499464
000300 ff 9a 8e 3d ee 0d 42 bc 8d b1 dc bd 4b ac 4f bd
       0.06963157 -0.011844141 -0.107760526 -0.05070142
000310 a9 6f 54 3e 8f 6d fb bc bc c9 0d 3d 69 e0 da bc
       0.2074572 -0.03069189 0.034616217 -0.026718335
000320 d8 4c 63 bc 9f 9b 07 3d f6 ac d0 bd 21 17 2f 3d
       -0.013873301 0.033107396 -0.1018924 0.042746667
000330 32 c0 d9 3c 01 a0 56 bd ad 95 fc 3c 61 70 f4 3c
       0.026580904 -0.052398685 0.03083309 0.029838743
000340 7c 31 6e bd c3 de f7 3c 55 01 c1 bb df ba d4 bc
       -0.05815266 0.030257588 -0.0058900514 -0.025968013
000350 08 c8 f9 bd 89 7b 1a 3e 4b a2 a6 bd a6 d6 84 bc
       -0.12196356 0.15086187 -0.08136424 -0.016215634
000360 c7 e7 ea bd 90 c8 a0 3d 18 ce 4e 3d 91 21 41 3d
       -0.11469989 0.07850754 0.050489515 0.047151152
000370 c0 4b cc bc 3d ac a5 bc 61 c3 e5 3c c3 8c 09 3e
       -0.024938464 -0.020223731 0.028047265 0.13432603
000380 4c 58 1a bd ef 9d 06 be 6c 56 ab 3c d5 5f 84 3c
       -0.037681863 -0.13146184 0.020915233 0.016158978
000390 83 47 e3 3b 19 93 cd bd dd 75 df ba 34 3c fd 3c
       0.006936015 -0.10037822 -0.0017048676 0.030912496
0003a0 a4 67 0c bc d0 00 ec 3c cf 98 21 3d 6c e9 97 bd
       -0.008569632 0.028808981 0.03945237 -0.074175686
0003b0 b7 99 49 bd 2a c5 cd 3d 07 46 94 bd e9 69 44 bc
       -0.04921886 0.10047372 -0.07239919 -0.011988142
0003c0 ca 76 0c be 11 b8 e5 bc 9d dd 1e 3c 3b c0 d3 3c
       -0.1371719 -0.028041871 0.009696391 0.025848499
0003d0 91 d4 2b 3e 2c 5f f7 bc d0 90 ca 3d 39 d8 9c 3d
       0.16780306 -0.030196749 0.09890902 0.07658429
0003e0 b5 76 7c bc 82 a8 1f 3c 7c 29 56 bd 95 52 f8 bd
       -0.015409161 0.009744765 -0.052285656 -0.12125126
0003f0 6e dc d0 bd 49 51 71 3d bb e9 d2 3d c3 10 56 3c
       -0.101982936 0.05891541 0.10298487 0.01306552

network_body._body_endoder.seq_layers.4.bias f4 [256]
000000 dd ec 10 bc 7b d4 df bb 8e 68 5b bc cb a4 9b bc
       -0.008845535 -0.0068307496 -0.013391627 -0.018999478
000010 cd 69 6b bc 4f 9a 6f 3c de ce 8f bc d7 7a 01 3c
       -0.014368487 0.014624192 -0.017554697 0.007902822
000020 ea d8 51 3a 9b 14 99 bc 3c 4c 6d bc a7 a3 a3 3a
       0.000800504 -0.018686583 -0.014483508 0.0012484685
000030 0b 1e da bb f3 ff 5e b9 74 8c bf bb d4 91 90 bb
       -0.0066564134 -0.00021266918 -0.0058456007 -0.0044119153
000040 4c e5 aa 3c c0 fa 9f 3a d5 81 03 bc e3 86 dc bb
       0.02086129 0.0012205467 -0.00802656 -0.006729947
000050 05 b0 78 bc c2 a9 aa bb a0 09 b8 3a e2 44 3f bc
       -0.015178685 -0.005208225 0.0014040954 -0.011674138
000060 81 a1 12 bc 91 63 18 bc 9c 85 21 bc f9 65 00 bc
       -0.008949638 -0.009301082 -0.009858515 -0.007836812
000070 6d 7b 6d bb 6d 67 1b 3c 45 04 c5 3b ca 1e f6 3b
       -0.0036236898 0.009485108 0.006012472 0.0075109946
000080 40 db 18 bc 27 57 23 3c 47 f4 0d bc 54 91 cc 3b
       -0.009329617 0.009969509 -0.008664197 0.0062429104
000090 c2 9a 5e 3a fe 2c 63 bc 2d bc 6a ba 05 ba 57 bc
       0.00084916886 -0.013865707 -0.0008954432 -0.013166909
0000a0 18 53 ef 3b 64 fb c5 ba 05 89 6d ba be 2f 83 bc
       0.0073036067 -0.0015104827 -0.000906125 -0.016013976
0000b0 0d 89 48 bc 27 4f 9b bb 3a 40 d7 bb cf 52 16 3c
       -0.012239707 -0.0047396603 -0.0065689357 0.009175017
0000c0 41 ca 90 bc bd 31 36 3c a4 34 66 bc 09 c5 0d bb
       -0.017674567 0.011120257 -0.014050636 -0.0021632335
0000d0 05 50 b7 b9 fc be 00 bb f9 29 22 bc 73 4c 01 bb
       -0.000349641 -0.0019645086 -0.009897702 -0.0019729405
0000e0 e2 00 22 bc 83 b7 04 bc f6 e7 3a 3b 40 12 f8 ba
       -0.009887906 -0.008100393 0.0028519607 -0.0018926337
0000f0 c7 d9 4c 3a e4 6d 6e 3c 00 4a 3d bb 1f a0 b0 bc
       0.0007814434 0.014552567 -0.0028883219 -0.021560727
000100 97 bd 0d 3c e6 8c b9 bb 7f 6c 62 b9 c3 47 02 bc
       0.008651159 -0.0056625484 -0.00021593457 -0.00795168
000110 98 b6 d3 3b 46 86 5f 3c ce d3 a6 bc 22 39 f7 b9
       0.006460976 0.013642853 -0.020364668 -0.00047154078
000120 36 6a 1d bc 61 4d 2a 3b e8 fe 6c bc d5 73 b3 3b
       -0.009607842 0.0025986063 -0.014465071 0.0054764547
000130 0d a9 57 bc 43 7a e6 3a 0f 5a a2 bb 75 80 9d bc
       -0.013162863 0.0017584044 -0.0049545835 -0.019226292
000140 82 bb 66 bc 01 47 93 bc c0 c2 9d 3b c6 3e 00 bc
       -0.014082791 -0.017978193 0.004814476 -0.007827466
000150 03 8c 05 bc 79 ff 1b bc 91 6e 47 bc d6 b9 55 bc
       -0.008151057 -0.009521359 -0.012172357 -0.013044795
000160 95 eb bf bb 4c db 1b bc da c6 85 b9 8b 33 57 bb
       -0.005856941 -0.009512734 -0.00025515893 -0.0032837118
000170 de 9c 9e bc 69 bd ee 3b 0a 70 70 3b 6d 59 ce b9
       -0.01936191 0.007285763 0.0036687874 -0.0003935801
000180 d3 68 a6 bb 02 0b e0 ba d9 71 48 bc 41 3a 59 39
       -0.005078414 -0.0017093124 -0.012234175 0.00020716434
000190 82 ef 28 bc 05 b3 b9 bb d0 d6 06 bc c1 33 bd 3c
       -0.010311009 -0.0056670927 -0.008229926 0.023095967
0001a0 10 15 76 bb f1 3b 6c bc 6a be 90 3a b0 2d 82 3b
       -0.0037549175 -0.014418588 0.0011043076 0.0039727315
0001b0 02 ed 85 bc 6f 6e b7 bb c1 5d 76 bc 4f 75 b4 3a
       -0.016348366 -0.0055978815 -0.015037001 0.0013767871
0001c0 36 1c 1e bc d8 81 c6 39 39 5b b8 bb 8d 53 e0 bb
       -0.009650281 0.00037862244 -0.005626109 -0.0068458975
0001d0 39 c3 07 3a 80 ae ee 3b f8 d7 3d bc e2 1f 94 ba
       0.0005178932 0.0072839856 -0.0115871355 -0.0011301006
0001e0 b2 e4 3b bc 04 37 c9 bb 6f a3 57 bc 0d ff 57 3c
       -0.011468099 -0.0061405916 -0.013161524 0.013183367
0001f0 dd 7f 3f bb cd da 6c bb d2 51 a8 3c 27 5c f3 bb
       -0.00292205 -0.0036141158 0.020546827 -0.007426757
000200 5d ab 58 bc cf a7 9a bb eb 74 2c bc 05 ce 6e bc
       -0.01322445 -0.0047197114 -0.010525922 -0.014575486
000210 7d 8c b3 bb 7d 36 38 3c 12 0d 0d 3b f0 53 8b 3b
       -0.005479394 0.01124346 0.0021522683 0.0042519495
000220 3e 83 bf bb b3 f1 18 3c 4f ba 8d bb 31 8d 60 3b
       -0.0058445027 0.009334969 -0.004325188 0.0034263844
000230 5b 00 34 bc ef 7e 3a 3c 6b 4e 2a bb 38 f6 cf bb
       -0.010986413 0.011382802 -0.0025986682 -0.0063464902
000240 c6 b9 97 ba 13 78 ea 3a f3 e3 90 3b 92 d4 1f bc
       -0.001157575 0.0017888568 0.004421705 -0.009755271
000250 9b de 3a bc 03 c5 45 bc 03 a6 4c 3c 7e ce b2 3a
       -0.011405612 -0.012070897 0.012490752 0.0013641862
000260 f5 91 a6 3b 03 e5 4e bc df 56 02 3c 21 d6 25 bb
       0.0050833174 -0.012627843 0.007955282 -0.0025304633
000270 81 a2 eb 3b fc 6e 4f bc 4f 06 30 bb 69 d7 c3 3a
       0.007191003 -0.012660738 -0.002685923 0.0014941517
000280 88 88 35 bb 3d e5 9b 3a 56 7a 17 3c e8 7e 02 bc
       -0.0027699787 0.001189388 0.009245476 -0.007964827
000290 11 16 b5 3b 10 83 8d bc 18 2d e4 bb 33 6a 61 bc
       0.005526312 -0.01727441 -0.0069633834 -0.01375823
0002a0 92 36 c0 3b 06 41 9f bb a7 a9 ed bb df b9 c1 3b
       0.0058658803 -0.0048600463 -0.00725289 0.00591205
0002b0 49 96 c4 bb 9d f7 51 3a 46 0a 14 bc e1 7b f4 3a
       -0.0059993607 0.00080096145 -0.0090356525 0.0018652641
0002c0 96 b9 f8 b9 c4 df 1c 3c 5d 28 71 bc 6f 97 11 bc
       -0.00047440518 0.009574834 -0.014719096 -0.008886202
0002d0 a4 86 52 bb 68 b2 1b bc b3 8e 83 bc 16 2b d8 3a
       -0.003212371 -0.009502985 -0.016059255 0.0016492333
0002e0 f2 75 13 bb dc 22 03 bc a8 82 98 3c 0b d8 34 bc
       -0.002250072 -0.008003917 0.01861699 -0.011037837
0002f0 9c a9 35 3b 1e f4 47 39 92 fc 21 bc 84 9d db bb
       0.0027719503 0.0001906906 -0.009886878 -0.006702127
000300 28 5b 5e 3c cd f2 c3 3b d9 1b 3b bc e9 c8 20 bb
       0.013571538 0.005979872 -0.011420214 -0.0024533814
000310 a1 ea 74 bc 86 df 4f bb 2d 2d b1 3b ee fb 5c bc
       -0.014948518 -0.0031718924 0.0054069967 -0.013487799
000320 17 f4 a5 bb af da b7 bb 73 a7 c8 bb 7f e6 96 3c
       -0.005064498 -0.005610786 -0.006123477 0.018420456
000330 0d 08 26 bb dc 75 4d bc 75 e3 38 3b 5c b2 70 bc
       -0.0025334388 -0.012540307 0.0028211747 -0.014690962
000340 73 b2 2b bc cf b4 a3 bc 19 4a 60 3b e4 63 33 3c
       -0.010479557 -0.019983677 0.0034223853 0.010949109
000350 73 0f 13 3c 21 6d 41 bc 4a 0a 1c bc ad c8 6f bc
       0.008975851 -0.0118058035 -0.0095239375 -0.014635247
000360 dc 50 d2 bb 2a 31 8e bc b8 ef 08 bc 9d 06 02 bc
       -0.0064183306 -0.017357428 -0.008357935 -0.007936147
000370 e1 26 2d 3b 22 53 fb bb 5b a2 25 ba c8 b2 f6 ba
       0.0026420879 -0.0076698223 -0.00063184433 -0.0018821592
000380 b0 bf 67 bc aa 99 06 3c 02 ba 7d bc d7 52 34 3b
       -0.014144823 0.008215347 -0.015486242 0.0027515197
000390 ea e5 7b 3b 61 f8 c8 bb 08 31 92 bc c0 78 4e 3b
       0.00384366 -0.0061331247 -0.017845646 0.0031505078
0003a0 e9 be c6 bb 44 47 47 bc c8 aa 0c bc 0a de 2e bc
       -0.0060652387 -0.012162987 -0.008585639 -0.010673055
0003b0 ed 8d 3f bc a8 1b 0b bc b0 68 2b b9 d8 9a 41 bc
       -0.011691553 -0.0084904805 -0.0001634683 -0.011816703
0003c0 00 e0 40 3a c6 16 4c 3b c3 a6 81 3b 85 4c b0 bb
       0.00073575974 0.0031141504 0.003956647 -0.0053802156
0003d0 fe ef 03 bb 72 2d 2d 3b 20 10 94 3c b3 9c 2f bc
       -0.002013206 0.0026424793 0.018074095 -0.010718512
0003e0 a1 ad c0 3b 05 fe 44 bc df 1d 52 bc c5 0a 9f bb
       0.005880073 -0.012023454 -0.012824505 -0.0048535788
0003f0 8a a0 8d ba 6b db bb 3b c9 e3 d7 3c 1f 3f 21 3a
       -0.0010805291 0.005732944 0.026353734 0.00061510684

action_model._continuous_distribution.log_sigma f4 [1, 6]
000000 91 b2 16 3d f1 b5 29 3d 14 07 e0 3c 44 4a 22 3b
       0.036791388 0.04143328 0.027347125 0.0024763504
000010 0e 5d 5f 3c dd 9c 07 3d
       0.013633026 0.03310858
