results/NearSingularity03/NearSingularity/NearSingularity-5760.onnx (onnx, 623772 bytes, 9 tensors)

network_body._body_endoder.seq_layers.0.weight f4 [256, 85]
000000 65 51 96 bc 2a ec 9a 3d 65 ce ca 3c fb 1d c9 3c
       -0.018349359 0.07564576 0.02475662 0.024550429
000010 d2 ed de 39 b3 79 0d be e5 b8 03 3e 60 b7 21 3e
       0.0004252033 -0.13815956 0.128635 0.15792608
000020 b2 b9 b9 bd 0f 7f 23 3d aa 13 97 3d 40 2b 26 3e
       -0.09068622 0.039916094 0.073767975 0.16227436
000030 71 af f7 3d 10 de a0 bd ac 95 f5 3b 20 ca 9e 3b
       0.1209401 -0.07854855 0.007494649 0.0048458725
000040 89 54 e3 bc 77 58 a0 bc 6d 01 0b 3e 75 0a 1c bd
       -0.02775027 -0.019573433 0.13574763 -0.03809591
000050 3d 9b 0d bc da 17 ae bd b4 4e 26 be 67 fb 1d bd
       -0.008642969 -0.08500643 -0.1624096 -0.038569834
000060 3f 84 f1 3c c2 88 67 3d b2 2b b5 bb 9c 66 8b 3d
       0.029482005 0.056526907 -0.0055288905 0.068066806
000070 a1 68 58 3e 4f 30 97 bc 2a 51 04 3d 35 9b 63 bd
       0.21133663 -0.018455653 0.032303967 -0.05556794
000080 ae 09 e5 bd d6 46 ee 3d 77 25 a4 bd ee 60 bc bd
       -0.11183487 0.11634605 -0.08014958 -0.09198175
000090 dd 98 06 3e 64 07 84 be ce a8 75 3c 41 43 12 3e
       0.1314425 -0.2578689 0.014993859 0.14283468
0000a0 e6 d3 47 be 3a 1a f7 3c 55 6c ee bc c6 eb 7e bd
       -0.19514427 0.030163873 -0.029104391 -0.06223657
0000b0 e6 ea 90 bd f2 98 ad 3c af 6e 9c 3d ac 35 fe bc
       -0.07076053 0.021191094 0.07638299 -0.031031452
0000c0 1d ef 06 3d 63 93 0e be c3 59 06 be 71 4b 6e 3c
       0.03294288 -0.13923411 -0.13120179 0.014544354
0000d0 be c6 ac bd b8 24 1b be 34 95 8b 3e 0f 55 6a 3d
       -0.084363446 -0.15150726 0.2726227 0.057210024
0000e0 04 2f cf bd 2b 54 d9 bb 22 b8 02 3e aa 06 98 bd
       -0.101163894 -0.006632348 0.12765554 -0.07423146
0000f0 4b 8a 63 3d ad 85 1c 3e aa 4f 09 3d 92 5d b4 bd
       0.05555181 0.15285368 0.03352324 -0.088069096
000100 0a 08 e4 3d c9 71 87 bd 5a 27 33 3e 4b f8 26 bd
       0.11134346 -0.066135 0.1749548 -0.040764134
000110 ce b1 18 3e 4a 6f 15 be fa 52 c2 bd 33 0a 59 3d
       0.14911577 -0.14593235 -0.09488483 0.052988242
000120 1e 44 f6 bd d2 31 c2 bd a3 5d 40 bd 6a d1 36 be
       -0.12024711 -0.09482159 -0.0469643 -0.17853323
000130 47 b2 3e 3d 7a e7 eb 3d 7e fb ea bd ee 3d 54 be
       0.046556737 0.1151876 -0.114737496 -0.2072675
000140 16 e8 08 bd 4c 94 5b 3e 84 0f 1b be 82 0b c2 3b
       -0.03342446 0.2144329 -0.15142637 0.005921782
000150 5b 84 f5 3c ba e7 96 be 04 aa 74 3a 78 7b a7 bd
       0.029970339 -0.29473668 0.00093331956 -0.08177847
000160 d6 5f 10 3d 49 50 5c bd 07 65 04 3d 29 12 94 3d
       0.035247646 -0.053787503 0.03232291 0.07230026
000170 74 a0 88 bd ac 02 ef bd 04 02 0f 3e 31 b3 94 bc
       -0.06671229 -0.116704315 0.13965613 -0.018151851
000180 bb 9d e6 3d a7 55 10 3d 01 04 d9 bd 74 ab af 3d
       0.112605534 0.035237934 -0.10596467 0.08577624
000190 6e 12 38 3c 7e af 92 3d 04 c9 71 3e d0 57 02 bd
       0.011234863 0.07162379 0.23611838 -0.031822026
0001a0 57 34 3c be 70 b6 cd 3d 0b a7 90 3c 99 87 66 3e
       -0.18379341 0.10044563 0.017657777 0.22512664
0001b0 9a db df bd 8f eb b9 3b 2d 13 ee 3c cb 33 42 3d
       -0.109305575 0.0056738327 0.029061878 0.047412675
0001c0 fd f1 d5 3d 52 1f 5e 3e 68 bc 80 3e 98 9d 96 3d
       0.10446546 0.21691635 0.25143743 0.07354277
0001d0 b5 82 e4 bb e3 0e 6f be f0 84 13 bd a8 de a7 bd
       -0.0069735893 -0.23345523 -0.03601545 -0.08196765
0001e0 0d ab 4a bd 08 51 cf 3c 0c 9f 48 3e a4 1c 7a bd
       -0.049479533 0.025307193 0.19591922 -0.06106247
0001f0 3c b2 12 bd 68 3d 95 3d 09 6b aa 3d b9 5c 6f 3e
       -0.03581451 0.07287103 0.083211966 0.23375215
000200 4c 60 99 3d a3 60 73 3c 1b 1f ca bd ce 20 2c be
       0.0748907 0.014854583 -0.09869214 -0.16809389
000210 dd 23 c2 3d 08 e9 68 bd 2a 74 16 bd 04 e2 7e 3d
       0.09479497 -0.05686286 -0.036731876 0.062227264
000220 06 58 a5 bd 59 37 cb 3d ca 75 4c 3e 60 2f 2d 3e
       -0.0807343 0.09922666 0.19966808 0.16912603
000230 f8 81 20 3c 55 15 3d 3e d3 f3 82 3b 37 b2 43 be
       0.009796612 0.18465169 0.0039963513 -0.19110952
000240 67 04 04 3d ae b0 c9 bc e4 48 28 3e 95 8f 1e 3c
       0.03223076 -0.02462038 0.16434056 0.009677787
000250 b3 e2 9e bd b1 6a ca 3d e7 da 92 be 90 da 8d bd
       -0.07758083 0.09883631 -0.28682634 -0.06926453
000260 64 a2 93 3e 2e 7e 4c be cd 4b 7f bc 2b 1c d0 bd
       0.28834832 -0.19970009 -0.015582037 -0.101616226
000270 90 00 4c 3d 60 29 06 be e8 5b 34 3d 39 17 4f 3d
       0.049805224 -0.13101721 0.04403296 0.050559256
000280 c9 83 b5 bc 0b 9b 9b 3c 29 27 23 bd b3 83 d3 bd
       -0.022157567 0.018994829 -0.039832268 -0.10327854
000290 c8 c7 d3 bd 87 1e bb bd 12 33 f9 3d 7c dc d6 3b
       -0.103408396 -0.09136682 0.12167944 0.0065570455
0002a0 d4 76 31 3d 37 10 29 3d fc ea a2 3d 82 c5 7b bc
       0.043326214 0.04127523 0.07954976 -0.015366914
0002b0 e3 16 65 bd 30 14 5e bd 18 50 cc bd 6c a3 83 3d
       -0.05593003 -0.05421847 -0.09976214 0.064276546
0002c0 e9 db 9d 3d 03 56 a1 3d 99 81 d8 bc c5 ec 30 bd
       0.0770796 0.078777336 -0.026428984 -0.04319455
0002d0 bd 3c 62 3c 1a 7e 6e 3d 2f 5f dd bd 81 1b 9a 3d
       0.013808426 0.05822573 -0.108091705 0.07524777
0002e0 c0 33 ba 3c be 8e 7e 3d 28 df cf 3b 99 8f 63 bd
       0.022729754 0.06214785 0.006343741 -0.055556867
0002f0 21 9c 31 3e 85 d1 7f 3d 66 44 8d be 1b db 72 bd
       0.17344715 0.062455673 -0.27591246 -0.059290987
000300 b4 1f dc 3b c8 ec 7e 3c c4 a3 89 bd ba cf 4d bd
       0.0067176465 0.015559383 -0.06720689 -0.05024693
000310 91 be 31 3d 41 81 16 3c 0a 52 2b be 63 b3 89 bd
       0.04339463 0.00918609 -0.16730514 -0.067236684
000320 b7 dd fe 3d a0 0a 0e bd eb 61 88 bd 6a 16 75 3d
       0.124446325 -0.0346781 -0.06659301 0.05983583
000330 99 18 29 3e e9 41 8f 3d 06 8a 24 be 63 0c 4a 3b
       0.1651329 0.06994993 -0.16068277 0.0030830137
000340 f0 78 48 3d de 46 1c 3d 60 e5 0a 3e 7d 81 3d 3e
       0.04894346 0.03815352 0.13564062 0.18506427
000350 62 bf a1 bd 4d b4 0b 3e 87 ac e2 3c 1e da f1 bd
       -0.078978315 0.13642998 0.027670158 -0.11809181
000360 25 1e 2a bd d8 57 20 be 8b aa 8c be d1 f4 0f 3d
       -0.041532654 -0.1565851 -0.27473864 0.035145584
000370 14 8b 01 3e b5 99 c6 bc ef 49 0a bd 5e 78 57 3e
       0.1265071 -0.024243215 -0.033761915 0.2104201
000380 75 e9 8b bd cc ae 17 be 69 44 b5 bc 80 23 03 3e
       -0.06831638 -0.14812773 -0.022127347 0.12806511
000390 9a a0 c8 3d ed c8 3c 3e 4f f5 9e bd 4d e7 70 3d
       0.09796257 0.18436022 -0.07761633 0.058814336
0003a0 d8 33 ab 3d a5 d6 02 3e b9 85 45 3d 84 dd f0 bd
       0.08359498 0.12777193 0.04822323 -0.11761001
0003b0 01 e1 17 3e 70 7e 99 bd 6c a2 43 bd fa 3d 89 bc
       0.14831926 -0.07494819 -0.04776232 -0.016753186
0003c0 a9 7c c1 bd 1d c9 7d bd 80 f4 7a be e3 38 71 3e
       -0.09447605 -0.061959375 -0.24507332 0.23556857
0003d0 f3 47 33 3c 06 b1 12 be fe ce 35 be 02 c3 5c bc
       0.010942447 -0.14325342 -0.17754743 -0.013474228
0003e0 da 2f 22 3c a6 2d 8c bd eb 47 72 bd 13 47 ca 3d
       0.009899104 -0.06844644 -0.059150618 0.098768376
0003f0 2e 86 cb bd 27 9e 16 3d 44 41 31 3e af 15 c2 3d
       -0.09937702 0.03677192 0.17310053 0.09476792

network_body._body_endoder.seq_layers.0.bias f4 [256]
000000 db f5 8c ba ae 37 f6 3a 84 d4 df b8 63 6e 29 3b
       -0.0010754423 0.0018784904 -0.00010673053 0.002585315
000010 99 6a aa bb d3 ec 13 3b 81 53 58 3a d1 a9 6c ba
       -0.0052006957 0.0022571578 0.0008252189 -0.000902799
000020 7f 29 32 3b 92 8e 8e 39 88 9e 4f bb cd f9 f1 3a
       0.0027185378 0.00027190574 -0.0031680185 0.0018461287
000030 32 be 4d 3b 48 f3 62 3b e1 85 aa ba 10 85 df b9
       0.0031393883 0.003462987 -0.001300987 -0.00042633014
000040 fe ee 93 ba 5b a8 0d 3a bc f7 3e b8 ab d7 cb 3a
       -0.0011286435 0.000540381 -4.553025e-05 0.0015551945
000050 72 00 e9 3b 01 8d e5 ba 47 6f 22 3b 50 c3 c9 b9
       0.007110649 -0.0017513336 0.0024785565 -0.00038483227
000060 1e f1 8f 3a d0 72 b7 bb aa 1d 07 ba 94 84 bb 3a
       0.0010981893 -0.0055984035 -0.00051542616 0.0014306479
000070 66 1d ce 39 e0 c0 04 3b 27 87 96 bb c0 d8 e6 3b
       0.00039313285 0.0020256564 -0.004593748 0.0070448816
000080 11 13 12 bb c1 9f 8d 3a dd b3 b2 3a de 37 42 3b
       -0.0022289196 0.0010805057 0.0013633926 0.002963535
000090 d0 de 6a 3b d5 ed 25 b8 a7 3e e1 ba 4a 46 02 3b
       0.0035838373 -3.9560564e-05 -0.001718481 0.0019878321
0000a0 1d d1 f0 ba f5 4b 16 3a 30 47 62 3b a0 f6 9b b8
       -0.0018372867 0.00057333644 0.0034527294 -7.4369134e-05
0000b0 04 4a 7a 3b d8 93 e4 b9 ab ef 97 ba b6 7a d2 3a
       0.003819109 -0.000435977 -0.0011591812 0.0016058299
0000c0 f7 26 58 39 1b 55 7e bb ab 50 af 3a f8 ee 59 3b
       0.00020613881 -0.003880805 0.0013375481 0.0033254009
0000d0 c7 da f0 ba 6b a3 ea 38 75 ac 11 bb 2e e4 88 3a
       -0.0018375748 0.000111884285 -0.0022228037 0.0010443979
0000e0 95 48 84 bb dd 14 8a 3b b8 21 68 bb c5 bf 09 3b
       -0.0040369728 0.004213913 -0.0035420489 0.0021018845
0000f0 f7 80 1c 3a 79 ab da 39 05 37 cc 3a a6 93 85 3a
       0.0005970145 0.00041707957 0.0015580362 0.0010191097
000100 3a 10 4d 3a 8e 70 59 3b 6c 70 fa 3a fb 53 e9 39
       0.00078225473 0.003317866 0.0019106991 0.00044503793
000110 8e 5c 6e 3b 7b a7 b9 ba db 83 28 bb bd 02 3c ba
       0.0036371085 -0.0014164293 -0.0025713358 -0.0007172039
000120 f9 0d 1e 3b 4f 16 51 bb cb 7c 9e 3b 11 8c c9 ba
       0.0024117215 -0.0031904166 0.004836654 -0.0015376826
000130 ab 20 14 3a 83 b6 2e bb eb 47 3c 3b 58 6a 06 3b
       0.000565062 -0.0026659078 0.002872939 0.0020510163
000140 f9 41 83 3b a8 e3 3f 39 e2 52 9e 38 2f c6 aa 39
       0.0040056673 0.00018299988 7.549465e-05 0.00032572585
000150 2a f7 a3 ba 5f b6 41 ba 85 58 4c ba e2 88 0c 3a
       -0.0012509574 -0.0007389541 -0.0007795173 0.00053609733
000160 c0 5e 05 3b 20 13 f8 39 d4 be 49 b9 30 c2 01 ba
       0.0020350665 0.00047316495 -0.00019239943 -0.00049498957
000170 d8 41 5f bb ee df d3 3a a6 a6 38 ba 65 33 c6 ba
       -0.0034066346 0.0016164759 -0.00070438755 -0.0015121518
000180 dd 22 67 3b ec 0a c0 3a 94 d8 2d bb d8 45 da 3a
       0.0035268583 0.0014651692 -0.0026526796 0.0016652895
000190 94 2d 9d 3a 71 71 85 bb 32 60 6f bb 58 a8 55 3a
       0.0011991733 -0.004072361 -0.0036525843 0.00081503903
0001a0 89 11 c7 ba fd fe 91 bb eb cb 82 bb 50 fd bb 3a
       -0.0015187721 -0.004455446 -0.003991594 0.0014342461
0001b0 dc b5 25 3b 14 fb b9 ba 08 db 8a ba a4 43 1b bb
       0.0025285399 -0.0014189207 -0.0010593841 -0.002369144
0001c0 42 74 e7 3a 1d 61 89 3b 12 24 83 ba 7b b8 c3 bb
       0.0017658549 0.004192485 -0.0010005257 -0.0059729195
0001d0 08 90 4a 3b ee e5 4e bb 87 99 85 3b c9 d1 30 bb
       0.0030908603 -0.0031570154 0.00407714 -0.002698051
0001e0 f8 c1 bd ba bc 4a f9 ba 77 1e 73 ba 1b 10 ea 3a
       -0.0014477363 -0.0019019465 -0.0009274254 0.0017857583
0001f0 0e 4e 5a 3b 43 b5 8e 3b 44 ed c6 3b ef e7 1d 3a
       0.0033310684 0.004355104 0.0060707647 0.00060236355
000200 80 46 62 3b eb 03 62 b8 b1 f8 8b 3a c6 aa 39 b8
       0.0034526885 -5.3886248e-05 0.0010678974 -4.4266482e-05
000210 97 e0 e5 ba 14 7e 0c bb 00 56 6a ba 6b ce 6c bb
       -0.0017538246 -0.0021437453 -0.00089392066 -0.0036133777
000220 5c e6 91 3a 65 96 6a 3b 3c 05 16 3a fa 67 b2 39
       0.0011131275 0.0035795209 0.0005722826 0.00034028274
000230 e2 d9 44 3a cb b5 73 3a ce 2d f1 3a 56 40 0a 3b
       0.0007509274 0.00092968036 0.0018400492 0.0021095476
000240 1a 4c 8b ba 61 16 a9 3a 45 11 f2 3a 20 7c 7b 3b
       -0.0010627538 0.0012900346 0.0018468281 0.0038373545
000250 66 5c e2 39 51 21 ce ba ab 42 13 3b 47 79 27 bb
       0.0004317492 -0.0015726482 0.0022470157 -0.0025554465
000260 f3 70 0e 3b fb f3 1c bb a1 e3 2e 3b 67 25 39 bb
       0.0021734803 -0.0023949135 0.002668597 -0.0028251053
000270 09 bc 58 bb 4e 63 af b8 96 6b 05 b9 46 2a 94 bb
       -0.0033071062 -8.363147e-05 -0.00012723947 -0.004521641
000280 6d 6b 66 3b 2b a0 13 bb df ac 07 39 8d 29 13 3b
       0.0035159246 -0.0022525887 0.00012939003 0.0022455186
000290 03 d4 92 3b c9 5a ad bb 8d 1e 61 3b fd ea c7 3b
       0.00448084 -0.0052903634 0.0034350485 0.006101011
0002a0 44 95 ae 3a 42 dd 88 3b 5a 71 6c bb ea 15 23 3a
       0.0013319631 0.0041767666 -0.0036078305 0.0006221222
0002b0 14 c1 b7 3b b9 21 ba 3a 98 14 cc b9 9f 7e af b9
       0.0056077335 0.0014200724 -0.00038925256 -0.0003347294
0002c0 aa 6b 4f 3b 53 56 ee ba 48 7a 33 3b 1b 81 87 b9
       0.0031649866 -0.0018183686 0.0027386118 -0.00025845398
0002d0 83 01 92 3b 2d 15 2d 3a b3 b2 9d b9 84 28 fe 3a
       0.0044557466 0.00066025817 -0.00030078515 0.0019390737
0002e0 c9 c9 75 bb 1b a6 0f bb 75 61 6d 3b 7b 0d 17 3b
       -0.0037504307 -0.0021919075 0.003622142 0.0023048806
0002f0 07 9a bf 3a c8 60 f0 b9 b0 17 19 bb 8c ee 9f 3a
       0.0014618047 -0.00045848475 -0.0023360066 0.001220183
000300 00 3d c6 3a 10 84 de 3a 20 57 1e b6 b7 c6 4d 3b
       0.0015124381 0.0016976614 -2.3594548e-06 0.003139896
000310 c1 98 aa ba bc 0a 04 3a 72 b7 79 bb 5d 87 13 3a
       -0.0013015495 0.0005037 -0.0038103727 0.00056277757
000320 75 d3 a8 bb c4 33 2e 3b 80 84 07 3b fc 89 6b 3b
       -0.005152161 0.0026581148 0.0020678341 0.00359404
000330 8f ae 5b 3a 37 a4 ba b9 76 f7 40 ba 35 39 d6 3a
       0.0008380198 -0.00035599034 -0.00073610933 0.0016343953
000340 c7 44 f5 b8 dc c5 53 3b eb 0d ba 3b 64 07 83 bb
       -0.00011695321 0.0032313978 0.0056779287 -0.0039986838
000350 bf da fa ba d0 83 7c 3a aa a6 49 bb 67 20 43 ba
       -0.0019138678 0.00096326787 -0.0030769506 -0.0007443488
000360 5b cc 13 3b b3 a4 1e 3a 5b c5 13 3a 9b 89 60 ba
       0.0022552225 0.0006051764 0.0005637013 -0.00085654267
000370 40 7d b9 3a 38 e1 1e 3b 56 49 27 3b 0a de 90 ba
       0.0014151707 0.0024243128 0.002552589 -0.0011052501
000380 25 76 86 3b 6e bd e2 ba e3 74 09 bb a3 c3 0c ba
       0.0041034394 -0.0017298886 -0.002097421 -0.00053697283
000390 aa 6d 9d bb df e4 ef ba a3 46 9d ba e1 44 8d 38
       -0.0048043327 -0.0018302462 -0.0011999201 6.7362336e-05
0003a0 a9 21 1f bb 57 5c 93 38 fe 02 12 bb c0 c0 13 ba
       -0.0024281538 7.026706e-05 -0.0022279616 -0.0005636327
0003b0 e9 36 37 3b 61 b2 03 3b 0c cb d6 3a 86 58 e4 ba
       0.0027956313 0.0020095336 0.0016387417 -0.0017421402
0003c0 ed 8f a9 b9 d6 53 ac 3a 7a 21 9b bb 3b 2b 30 3b
       -0.00032341425 0.0013147544 -0.0047342153 0.0026881236
0003d0 75 db 48 bb c6 75 b4 3a ee 7b 9e b8 1a f8 84 3a
       -0.0030648385 0.0013768009 -7.557111e-05 0.0010144741
0003e0 20 7d 2c 3b 84 59 19 b9 70 ce bb 39 4e 3e 48 bb
       0.0026319697 -0.00014624564 0.00035821227 -0.0030554715
0003f0 75 8d 36 ba b1 6f 09 bb f4 09 fb 3a 9f 16 19 3b
       -0.0006963828 -0.0020971114 0.0019152747 0.002335943

network_body._body_endoder.seq_layers.2.weight f4 [256, 256]
000000 97 a2 e0 3d 26 a3 2e 3c bd 1e 95 bc 7e 68 de bc
       0.109685116 0.010659015 -0.018203134 -0.027149435
000010 13 dd 76 bd 04 43 2e bc 5d cb 5a bc 72 9e da bd
       -0.060269427 -0.010636095 -0.01335415 -0.10674752
000020 84 d0 5b 3d e4 a0 de 3d d3 9e 61 bd 3e 31 3d 3d
       0.053665653 0.10870531 -0.055083107 0.04618954
000030 55 d3 34 bd 4f 94 86 3d 5f 82 f8 3c 52 5b 95 bd
       -0.044146854 0.06571256 0.030335603 -0.072928086
000040 5c 59 0b 3d 27 70 9c 3d e9 22 c6 bd 5b df 9d bd
       0.034020767 0.07638579 -0.09674627 -0.07708617
000050 77 ae f8 3d d6 d3 01 3d 65 16 d0 bd af fd 26 bd
       0.121426515 0.031696163 -0.101605214 -0.040769275
000060 e3 00 ec 3c 85 81 9a 3d c7 82 4d bd ea 60 a6 3d
       0.028809017 0.07544235 -0.050173547 0.08123954
000070 6b db 85 bd 99 fa a1 3d fd 82 30 3d 40 00 93 bd
       -0.06535991 0.07909126 0.04309367 -0.07177782
000080 57 32 e6 bd c3 15 98 3d a2 71 bf 3c a1 04 1c 3d
       -0.1124007 0.07426026 0.023369614 0.038090352
000090 4d c3 16 3d 33 f6 fa 3c 39 d2 44 bd 84 21 0d bd
       0.036807347 0.030634975 -0.048052046 -0.03445579
0000a0 2e b8 9c 3d f5 35 65 bd fb da 18 3c 3d af 1f bd
       0.07652317 -0.05595966 0.009329553 -0.03898548
0000b0 5a d7 f2 3c e3 92 59 3c 1f d8 82 3b 85 98 03 bd
       0.029643703 0.013279649 0.003993049 -0.032127876
0000c0 d7 9f a3 3d f5 ec f0 3c f7 39 c4 3d 70 c4 87 3c
       0.079894714 0.029409865 0.095813684 0.01657316
0000d0 a6 d9 ca bd ec 9d 8f bc 73 cf 93 bc 38 85 8c bd
       -0.099047944 -0.017531358 -0.018043255 -0.06861347
0000e0 59 60 ce bd c0 8e de bb fa 31 be bd 17 eb c3 3c
       -0.100769706 -0.0067919195 -0.09286876 0.02391581
0000f0 8b b1 85 3d 1b a7 4d bd 4b fc 02 3e e3 67 93 3d
       0.06528004 -0.050208192 0.12791555 0.07197549
000100 bf 2e df bd 74 dd 75 3c 99 69 b0 bd 49 fe 04 bd
       -0.10897588 0.015006412 -0.08613891 -0.032469068
000110 a6 3d b6 bd 83 2d 4d bd f3 43 9a bc 0a 1a 56 bc
       -0.08898477 -0.05009223 -0.018831229 -0.013067732
000120 0f cb 18 bd ea 3e 89 bd cc 60 81 3d 91 8e 14 3c
       -0.037303027 -0.06701453 0.06317291 0.009067194
000130 db e4 88 3d f8 55 15 be 9a 5a 8d 3d 3b 4c 3b bd
       0.06684276 -0.14583576 0.069020465 -0.045726996
000140 04 56 1a bd 39 17 5a 3c 4f a1 90 bd a6 7d 29 3d
       -0.037679687 0.013311201 -0.07062017 0.041379593
000150 df 96 ec bd 1d 58 08 bd f2 b7 f3 3d 48 99 bb bc
       -0.11552214 -0.033287156 0.11900319 -0.022900239
000160 bf 83 c2 bd 3d 37 ad bb 8f 0b 18 3b 37 d7 eb 3d
       -0.09497785 -0.005286126 0.0023200249 0.11515658
000170 99 29 0d 3c ca d9 0e 3b 23 f4 29 3d 98 1b c3 3d
       0.008615875 0.0021797293 0.041492593 0.095267475
000180 7e 23 dd 3d c2 d4 98 3d 57 02 e2 3c bd 97 79 bc
       0.10797785 0.07462455 0.027589006 -0.015233931
000190 ec 68 bc bb 07 4d ec bc de 75 ec 3c 51 43 33 3d
       -0.0057498123 -0.028845323 0.028864797 0.04376537
0001a0 f0 6c c4 bc ac 1d 97 3a e5 82 08 bd ff 9b 50 3d
       -0.023977727 0.0011529229 -0.033327956 0.05093002
0001b0 ef f3 91 3d c6 54 1c bd 3f 33 cb bb 2f 23 fb 3d
       0.07126605 -0.038166784 -0.0062011774 0.1226257
0001c0 04 50 a4 bc 7d a7 dd bc d2 7d 94 bc 51 0a 34 bd
       -0.020057686 -0.027057404 -0.018126402 -0.04395515
0001d0 ac 5a dc 3c 65 e2 57 3d 10 eb a1 3d 4a 90 ce bc
       0.026898704 0.05270614 0.07906163 -0.025215287
0001e0 a3 06 1e 3d f1 dd 90 3b 94 52 6c bd b9 42 2f 3d
       0.038580548 0.0044209887 -0.05769594 0.04278824
0001f0 5b 85 82 bd 0a 5a 03 3e a1 d5 c5 bb 39 e8 75 bd
       -0.06373092 0.12827316 -0.0060374294 -0.060035918
000200 1b e0 e2 bd 21 5e 60 3d 85 d1 06 3e 54 f2 6a ba
       -0.11077901 0.05477727 0.13165863 -0.00089625013
000210 90 f8 4e 3d e8 f7 d5 bc ce 56 09 be 62 f9 a6 bc
       0.050530016 -0.026119187 -0.1341202 -0.020382587
000220 78 35 e4 ba 94 f2 db 3d 6c ec 21 3c d8 7b 13 be
       -0.0017410954 0.107396275 0.0098830275 -0.14402711
000230 0e 32 c4 3c 97 8c be 3b c0 21 76 3d e0 47 34 bd
       0.02394965 0.0058150995 0.06009078 -0.044013858
000240 97 25 8e bc 5e c3 4e 3d 64 ee 4b 3d 4d b0 92 bd
       -0.017351909 0.050479285 0.049787894 -0.07162533
000250 02 41 5c 3c f6 1b 1d 3d b9 52 96 3c 60 83 f5 3c
       0.013443233 0.038356744 0.018349992 0.029969871
000260 58 78 60 3b fa 5f 5c 3d 4f 06 4c bd a7 c1 fa 3d
       0.0034251418 0.053802468 -0.049810704 0.122439675
000270 ec a4 a4 bc 4a 2d e4 bb 4b d1 1b 39 b3 28 01 bd
       -0.020098172 -0.0069634067 0.0001485992 -0.031532954
000280 70 67 b0 bd 3b c5 bd ba 36 95 db bd 41 5d 8b 39
       -0.08613479 -0.0014478335 -0.10721819 0.00026581626
000290 7e 9d 88 3c ae da 70 3d ab 37 61 bd b4 f9 a1 bc
       0.01667666 0.0588023 -0.05498473 -0.019772388
0002a0 3c f6 ce bc 63 0e aa bd d1 93 68 3d 13 8d 8f bb
       -0.025263898 -0.08303525 0.056781594 -0.004380831
0002b0 e2 f4 3b 3e c9 2b 33 bd 3d 5c 2e bd e6 82 83 bd
       0.18355134 -0.04374293 -0.042568434 -0.06421451
0002c0 f6 c8 ac 3d 86 40 9c 3d c6 74 10 3d 5b 12 9a bd
       0.08436768 0.07629494 0.035267614 -0.07523032
0002d0 40 98 3a 3b 59 87 c7 3d ae 9f b3 3d a0 91 06 bd
       0.0028472096 0.097426124 0.08770691 -0.032853723
0002e0 64 3f d5 3d cf f5 dd bd 6a f3 1f bd b0 ab 8c 3c
       0.104124814 -0.108379 -0.039050497 0.01717171
0002f0 5e 1a 22 bd cd 0b b9 bc b8 32 66 bd f7 cd 0b 3d
       -0.039575927 -0.022588635 -0.056200713 0.03413197
000300 15 a6 fa bd 3f e5 5e 3d 04 35 84 3d 13 0b 7c 3d
       -0.12238709 0.054417845 0.064554244 0.061534
000310 6c 65 08 bd 35 5c c4 3d 4e 21 d6 bd 45 03 5f 3d
       -0.03329985 0.095878996 -0.10455571 0.054446477
000320 1f 4f d5 bd 0a 1c 3d 3d c3 10 19 be e3 55 f0 bc
       -0.10415482 0.04616932 -0.149478 -0.029337829
000330 53 d4 56 3d 14 84 c1 bb 5e cf bb bd f6 19 7b bd
       0.052448582 -0.0059056375 -0.091704115 -0.061304055
000340 4c a2 9a bc 5f 19 15 3c a5 64 48 bc be 79 45 bd
       -0.018876217 0.009100287 -0.012231027 -0.048211806
000350 2c 13 99 bd 2b cd 55 bc 48 67 5f bd 48 41 cd 3d
       -0.0747436 -0.013049404 -0.054541856 0.10022217
000360 b1 b2 db bc 83 14 b5 bc 4c c1 88 bd 67 33 d5 ba
       -0.026818605 -0.022104507 -0.066774935 -0.001626593
000370 a2 a0 0b 3c ab ea c2 3d 8c 7a ad bc 20 c7 37 3d
       0.008522185 0.095174156 -0.021176599 0.044867635
000380 10 30 56 bd 2d fc 16 bd be c1 97 b9 cd 26 5c 3d
       -0.05229193 -0.036861587 -0.00028945314 0.05374794
000390 bc 58 bf bc aa a1 4a bd d0 52 88 3d 15 13 1f 3d
       -0.023357742 -0.04947058 0.0665642 0.038836557
0003a0 bb 72 a5 bd 09 e4 02 bd 62 28 ca bd 58 0c 42 bd
       -0.08078524 -0.031955753 -0.09870984 -0.047375053
0003b0 04 63 f8 3b 5b a0 8b 3d 57 de ef 3c 38 df f8 3d
       0.007580163 0.06817695 0.029280825 0.121519506
0003c0 d5 15 16 bc 52 58 a7 bd 3b ae b4 bb ca 5d b4 bc
       -0.009160479 -0.08171143 -0.005513934 -0.022017378
0003d0 a7 a5 53 3b 37 93 2e bc 1d a5 ac 3c c8 14 a6 3c
       0.0032294781 -0.010655216 0.021074826 0.020273581
0003e0 36 8e 20 bd 6c a2 21 bb a6 0f 05 3e 9e f4 98 3d
       -0.039198123 -0.0024663461 0.1299425 0.07468532
0003f0 e1 e5 0b 3c 26 fa 83 3d a3 c9 77 3d 28 a6 6c bc
       0.008538694 0.064441964 0.06049503 -0.014443912

network_body._body_endoder.seq_layers.2.bias f4 [256]
000000 51 8c 20 3b 20 ea 1b 3b 88 0a 93 ba 81 6a e5 3a
       0.0024497698 0.0023790672 -0.0011218349 0.0017503054
000010 ea 0d 5a 3a 4e cd e7 b9 bc 85 0b bb 66 17 48 ba
       0.00083181134 -0.00044212717 -0.0021289429 -0.0007632881
000020 03 46 11 3b 20 81 9b bb 38 1c 56 ba 6c 73 99 3a
       0.0022166974 -0.0047456175 -0.0008167657 0.0011707372
000030 be 57 dd 3a 09 d8 89 3b b1 cf 3b 3b 54 27 f4 3a
       0.0016887111 0.0042066616 0.002865773 0.0018627443
000040 9b d8 b0 3a 3f ef ad ba 15 df 4c b9 ae 4f dd 37
       0.0013492288 -0.0013270153 -0.0001953806 2.6382357e-05
000050 37 80 cd ba ae 7b 6c 3b 10 75 89 3a c5 75 9d 3b
       -0.001567847 0.003608446 0.0010487158 0.004805299
000060 7d 97 b9 ba c1 d3 48 39 91 2e d0 39 f6 ce 64 3a
       -0.0014159527 0.00019152371 0.00039707546 0.00087283493
000070 10 33 4a 3a 85 0d a2 3a 11 4f 0c 3b ff 0d e1 ba
       0.00077132974 0.0012363648 0.0021409432 -0.0017170309
000080 52 df 87 ba 88 73 cd 3a d8 51 1b bb 7c e5 e7 3a
       -0.0010366237 0.001567469 -0.0023699906 0.0017692293
000090 97 a2 93 3b d8 7f 52 3a 0b 80 48 3a 2d 6e 6f 3b
       0.004505466 0.00080299145 0.00076484744 0.0036534176
0000a0 a6 63 79 3b 93 5c 85 b9 e0 0a 14 3a e2 a2 ba 39
       0.003805378 -0.0002543671 0.00056473725 0.00035598042
0000b0 27 e4 42 bb 94 de ae 3a 69 37 15 3a e4 aa 16 bb
       -0.002973804 0.001334148 0.00056921557 -0.0022990042
0000c0 34 5b 16 bb 59 13 8c 3b a2 33 9a 3a 0a 47 85 ba
       -0.0022942545 0.0042747674 0.0011764655 -0.0010168266
0000d0 57 93 1e 3a 31 b5 26 ba cd 20 f8 ba e3 ed a3 3a
       0.0006049177 -0.0006359397 -0.0018930674 0.0012506809
0000e0 68 0b ef 3a 10 03 f9 b9 f0 56 de b9 79 c6 12 3a
       0.0018237652 -0.00047495263 -0.00042407913 0.0005599033
0000f0 ab 2b cd ba a6 31 ff 3a cc 39 c0 3a b5 3e 53 3b
       -0.0015653273 0.0019469752 0.0014665662 0.0032233421
000100 57 e0 a3 3b b5 c1 2e bb d0 03 8a 39 06 e5 ae bb
       0.0050011086 -0.0026665751 0.00026324252 -0.0053373603
000110 6f 9f 3d 3b 0e 0c f5 3a e6 d7 b0 bb 61 b3 0e bb
       0.002893414 0.0018695609 -0.005396831 -0.0021774399
000120 81 ad 4c 39 3d f4 78 bb d1 e1 6a bb 86 c8 79 ba
       0.00019519591 -0.0037987374 -0.0035840163 -0.00095284765
000130 46 a9 dc ba 22 af 3e bb 1b 95 8a bb 9b 79 2b 3b
       -0.0016835115 -0.0029096087 -0.0042292005 0.0026165012
000140 6c d9 54 bb ca 8e 39 3b 44 2d be 39 33 16 55 3b
       -0.0032478226 0.0028313869 0.0003627335 0.0032514452
000150 33 9b c8 b9 bd f1 90 b9 80 42 06 bb 4c 09 a4 3a
       -0.00038262605 -0.0002764593 -0.0020486414 0.0012514978
000160 f0 3f 6f 3b e6 f8 b4 3b 19 03 81 3b 94 88 ea ba
       0.0036506616 0.005522835 0.003937137 -0.0017893487
000170 2d a8 ec ba 0c c3 76 39 3d e4 a9 39 6c 1c ae 3a
       -0.0018055491 0.00023533049 0.00032404243 0.0013283617
000180 d4 90 2f bb 6a 15 10 3b 17 40 8b bb 0f c8 95 3b
       -0.0026789205 0.002198542 -0.0042495835 0.004570968
000190 e3 6d 79 ba d3 09 94 39 e5 b3 b8 ba a9 aa 15 b9
       -0.00095149706 0.0002823608 -0.0014091699 -0.00014273323
0001a0 a8 04 3d 3a db a2 fa ba 14 92 02 38 e0 41 d6 39
       0.00072104717 -0.0019122021 3.113046e-05 0.0004086634
0001b0 4e d3 60 bb 8a 0d 5e ba 23 34 ba bb 3b 6b 87 b8
       -0.0034305635 -0.00084706454 -0.0056824847 -6.457275e-05
0001c0 f3 b1 05 3b 6c 7f 3b 38 f8 9f 24 3a 2b 10 2c ba
       0.0020400255 4.4702945e-05 0.0006279941 -0.00065636885
0001d0 e5 2d 35 3a 6f d6 bb 3a 9b d7 0a 3a 44 78 b0 3a
       0.0006911441 0.0014330874 0.000529641 0.0013463576
0001e0 b1 72 bd ba 1d ff 0c bb c0 ca 02 3b 01 52 c4 3a
       -0.0014453736 -0.0021514364 0.0019957274 0.0014978052
0001f0 c9 e0 7f 3b 7d 29 ba 38 c9 d8 4b bb ff 03 d0 3a
       0.0039043895 8.876899e-05 -0.0031104556 0.0015870332
000200 14 c8 52 ba a0 29 18 ba 46 80 a0 39 34 df c9 b9
       -0.0008040678 -0.00058045425 0.0003061315 -0.00038504007
000210 4c 3b 3c b9 49 6d 4f 3a 8a 4a 08 3a da 8b 13 ba
       -0.00017951167 0.0007912708 0.00051990955 -0.00056284445
000220 06 a6 95 3a 65 03 28 3b 67 67 8e 3a 1d 8e e6 3a
       0.0011417277 0.002563679 0.0010864557 0.001758996
000230 22 96 b9 3a f7 1d 24 bb a0 cf 93 3a dc a9 15 bb
       0.0014159123 -0.0025042275 0.0011277087 -0.002283684
000240 6f 12 14 3a 34 bf 80 ba 25 32 91 bb d7 63 dd 3a
       0.0005648499 -0.0009822608 -0.0044310265 0.0016890717
000250 d2 69 c4 b9 e0 7c d6 3b a2 1f af ba d0 61 5c 39
       -0.00037462875 0.006545648 -0.0013360868 0.00021017273
000260 37 27 aa bb 0a f6 1b 38 ee 15 cb 3a f3 13 48 3a
       -0.005192663 3.718402e-05 0.0015494206 0.0007632367
000270 37 fa 60 bb 54 d5 17 3b 08 21 9a bb 63 18 9c 39
       -0.0034328827 0.0023167925 -0.0047036447 0.00029772808
000280 33 8e 39 bb fe 94 cf 3a 18 ae 3e 3b a7 27 ab 39
       -0.0028313517 0.001583725 0.0029095467 0.00032645205
000290 ad 0e 22 bb ec 79 ed 39 6f 3c a5 b9 48 b1 89 3a
       -0.0024727986 0.00045295001 -0.0003151628 0.0010505104
0002a0 ef df a6 bb 60 1f f7 3a f6 8e 1b bb 27 da 6e bb
       -0.005092613 0.0018853955 -0.0023736334 -0.0036445947
0002b0 bd 87 9a ba ef 11 80 b9 59 c2 84 3b b1 8c 69 3a
       -0.0011789721 -0.00024427424 0.0040514884 0.0008909209
0002c0 c5 14 9e ba f6 1f 52 3b 97 8a c5 ba c6 87 e3 39
       -0.0012060633 0.0032062507 -0.001507121 0.00043397973
0002d0 05 95 b8 ba 9f 75 83 bb d5 9e 58 3a 8d 46 06 3b
       -0.0014082497 -0.0040118243 0.0008263414 0.002048883
0002e0 20 80 0d bb 0a 34 f5 ba 3b e9 71 b8 5d 32 af 3a
       -0.002159126 -0.0018707525 -5.767609e-05 0.001336645
0002f0 7e ec 3a bb 54 98 04 bc 5c 2e 4e b9 87 15 a7 3a
       -0.0028522308 -0.0080929585 -0.00019662961 0.0012747505
000300 44 f7 4e b9 1b 6b 52 3a 74 f2 b6 39 ba 4f c5 bb
       -0.00019737805 0.0008026824 0.00034894387 -0.006021467
000310 24 f5 ec 39 c1 16 f6 39 99 00 90 3a a6 e3 c7 3b
       0.00045196072 0.0004693773 0.0010986506 0.006100136
000320 8a 9a 9c 3a 0a 2b b3 bb 04 1d ee ba 22 71 4c 3b
       0.0011947912 -0.005467777 -0.0018166606 0.0031195362
000330 ef dd 8a 39 0e 32 9d bb 7f 6e 82 bb 81 c1 04 3a
       0.00026486765 -0.0047972267 -0.0039804573 0.0005064235
000340 5b 85 1a bb e8 94 16 3a f6 0b a7 ba 08 79 43 3a
       -0.0023578021 0.00057442347 -0.0012744654 0.0007456695
000350 00 ff ba 39 ab 9e 21 ba f1 5c f0 ba 83 64 94 3b
       0.00035666674 -0.0006165306 -0.0018338246 0.0045285835
000360 33 e9 ec ba aa d4 61 3b b0 02 4d 3b 64 82 5e 39
       -0.001807487 0.0034459033 0.003128212 0.00021220144
000370 da 33 1b 3b 8e a7 80 3a b8 17 32 bb 17 3b 61 3a
       0.002368203 0.000981556 -0.0027174782 0.0008591874
000380 10 72 31 b9 7a 27 e9 b9 71 36 77 bb c4 46 09 3b
       -0.00016922527 -0.00044470635 -0.0037721659 0.002094672
000390 11 a8 b9 ba 6d f0 e6 3a 1f 66 06 3b eb 7d 50 38
       -0.0014164468 0.001761926 0.0020507646 4.9708335e-05
0003a0 d8 64 f3 ba c5 e9 06 3b 95 78 95 3b ec ce 90 3a
       -0.0018569482 0.0020586115 0.0045614936 0.0011047996
0003b0 52 e3 1b 3b 5e f4 1d 3b dc 37 6b ba 80 ae 86 3b
       0.0023786617 0.0024101953 -0.0008972862 0.0041101575
0003c0 07 e2 aa ba 01 e1 5f 3a b9 ba 85 ba 6a f0 8c bb
       -0.0013037332 0.0008540303 -0.0010202742 -0.0043011205
0003d0 b0 73 94 b9 3e 8e aa ba ca 51 b2 3a 09 db a7 3b
       -0.00028314954 -0.0013012362 0.0013604697 0.0051225466
0003e0 f1 27 1c 3a 5f 7e a0 ba ab 11 48 3b 73 f2 9f 3b
       0.00059568795 -0.0012244693 0.003052811 0.004881197
0003f0 9a 45 79 b8 3b a4 87 bb fa e1 83 3a 89 ec 3f bb
       -5.9431048e-05 -0.004139451 0.0010061853 -0.0029285273

network_body._body_endoder.seq_layers.4.weight f4 [256, 256]
000000 2a c5 01 3c 56 d7 a4 3c 26 95 c0 3d c6 0d 47 be
       0.007920543 0.020122211 0.09403448 -0.19438848
000010 52 1e 24 be d6 9b 21 bc 99 a7 03 3d 84 4d 0a bb
       -0.16027191 -0.009863814 0.032142255 -0.0021103332
000020 fb 13 b8 bd 8c 3c 99 3c 38 52 1c bd 4b 55 02 be
       -0.08988186 0.018705629 -0.038164347 -0.12727849
000030 ea a8 93 bd fd c5 c8 bd e5 fb 1b bd 63 c7 be bd
       -0.07209952 -0.09803388 -0.038082022 -0.09315374
000040 f3 42 9b bd b2 27 86 bd d0 cb 00 3e 96 82 c2 3d
       -0.07581129 -0.0655054 0.12577748 0.094975635
000050 53 61 44 be 69 a5 ac 3a 19 67 96 bc 07 5f 88 3c
       -0.19177751 0.0013171855 -0.018359708 0.016646875
000060 b1 02 ec 3b 31 d2 80 3d e6 c6 10 bd 3f 70 2c 3d
       0.0072024693 0.06290091 -0.035345934 0.042099234
000070 e6 30 4a be ba b1 5f bc 0d 3d 1e bd a5 e7 98 bd
       -0.19745216 -0.013653213 -0.03863244 -0.07466058
000080 67 97 09 3d b3 2f 61 3d 56 49 fc bc c8 a2 47 3d
       0.033591654 0.05497713 -0.030796688 0.048739225
000090 a4 c7 b6 bc d2 81 b2 bd 72 83 9a 3d d7 3c 67 3c
       -0.022311993 -0.087161675 0.075446025 0.014113626
0000a0 f5 32 bf 3d 5f 2b 1e bd ff fe 0e be 64 62 98 bd
       0.09335891 -0.03861558 -0.13964461 -0.074406415
0000b0 92 15 4a 3c 50 f4 ac 3d ee d8 64 bd d2 aa 45 bc
       0.012334244 0.084450364 -0.055870943 -0.0120646525
0000c0 49 96 25 3d dc 1c 0a 3b 26 63 d4 3d d8 b0 32 3d
       0.040426526 0.002107433 0.103704736 0.043625683
0000d0 33 75 96 bd 68 b7 9a 3c bf e2 bb bd ec 6b 0e bd
       -0.07346573 0.018886283 -0.09174108 -0.03477089
0000e0 9b d8 0a 3c 04 85 51 bd ff 09 51 3b 85 3a 23 3c
       0.008474494 -0.051152244 0.0031896827 0.009962683
0000f0 43 5e f2 bc 3c d7 a0 bc 43 5a 82 3c 41 36 d9 3d
       -0.029585963 -0.019633882 0.01591218 0.10606051
000100 34 e4 dc bc 5b 1d e6 3b 45 5d 14 3d 11 fc bd bd
       -0.026964284 0.0070225424 0.03622176 -0.092765935
000110 10 01 62 3d 1f dc 76 bd 43 0c 44 3c ba 94 84 bd
       0.055176795 -0.060268518 0.011965814 -0.0647368
000120 ce 16 8c bd 6e b5 3f 3d 42 cf 89 bd 75 af 13 3b
       -0.06840287 0.046803884 -0.067289844 0.0022535
000130 2a 75 58 3d d8 62 94 bd f1 c3 26 bc 47 b2 ee 3d
       0.05284611 -0.072454154 -0.010178552 0.116550975
000140 26 7d bc ba ae e0 88 bd 25 0b 40 3d ad 1b 05 bd
       -0.0014380559 -0.06683479 0.04688563 -0.032497097
000150 05 21 20 3d 73 20 07 3d 0a 11 da bc a4 50 74 3d
       0.03909399 0.03298993 -0.026619453 0.059647217
000160 f2 eb 27 3d c6 1a e2 bd 6d 01 23 bd d2 68 66 ba
       0.0409965 -0.11040263 -0.03979628 -0.0008789423
000170 50 89 5e bd 31 c9 2b bd 1e 63 38 bd f5 cc 4b bd
       -0.05433017 -0.041939918 -0.0450164 -0.04975601
000180 ae 13 bc 3d f7 b1 2d bd 95 da 41 bb 26 b9 ca bd
       0.09183441 -0.04240605 -0.0029579748 -0.098985955
000190 9e a0 30 bb 78 d3 8b bd d2 09 f6 3d 74 66 19 bd
       -0.0026951204 -0.06827444 0.12013592 -0.037451223
0001a0 43 0a 13 bd 27 68 cf 3a b0 33 70 bc b1 c4 bd 3c
       -0.03589846 0.0015823886 -0.014660761 0.023165079
0001b0 b8 2f f8 bc 49 02 17 bd aa 58 d0 bd 5e ca 35 bc
       -0.030296192 -0.036867414 -0.10173161 -0.011095611
0001c0 db f6 f6 bd 91 12 c0 3c 33 3b 13 be 91 ad 92 bc
       -0.12058803 0.023446353 -0.14378051 -0.017905029
0001d0 61 42 b7 3c 6d af fb bd f3 19 55 3d 00 05 3d 3c
       0.02237052 -0.12289319 0.0520267 0.011536837
0001e0 1b 44 8d 3c 49 14 9e bd 9a 9f 25 be 57 58 4c 3a
       0.01724439 -0.07718713 -0.16174164 0.0007795146
0001f0 18 be 04 be b2 1d 8f bd 4a 60 6f bc 2f 2f 1d be
       -0.1296314 -0.06988086 -0.014610359 -0.1535003
000200 24 f7 c0 3c 35 16 b6 bc 5a 8f 5c 3c 0a 60 6a bc
       0.023555346 -0.022227386 0.013461912 -0.014305124
000210 b9 33 c5 3d 18 b3 a1 bd 50 60 a5 3c 0e 62 66 3d
       0.09629006 -0.078954875 0.020187527 0.056245856
000220 a0 5c 36 39 32 e0 07 be 76 ba 31 3d f3 fe 00 3d
       0.00017391378 -0.13269117 0.043390714 0.03149314
000230 71 c8 14 bd a5 27 57 ba 1c 8c 76 bd 2e 3b 8f bc
       -0.03632397 -0.00082075066 -0.060192212 -0.017484274
000240 42 ae bb bc 8f a1 f7 bd fe 2f 8a bd 39 da 9b bd
       -0.022910241 -0.12091362 -0.06747435 -0.07609982
000250 a4 14 29 3d c2 06 94 3d cf 3e 9c bd 6c 73 14 3d
       0.04127945 0.072278515 -0.07629167 0.036242887
000260 27 0e dc bb 79 7e bb bc ad 9f 84 bc 34 eb cb bd
       -0.0067155543 -0.022887455 -0.01618942 -0.09956971
000270 46 40 a6 3c ea 46 c1 3c 14 d8 2a bd 10 99 34 bb
       0.02029432 0.023593385 -0.041709974 -0.0027557053
000280 1d 95 2d 3d 51 92 af bd 71 5c a7 3d 6f 72 e8 bc
       0.042378534 -0.085728295 0.08171929 -0.028374879
000290 1e c0 fc 3c 89 96 e4 3d 2c e1 9c bd f5 7b b0 bd
       0.030853327 0.11161525 -0.076601356 -0.08617393
0002a0 aa b6 88 bd fc 0a 8d 3d 23 32 c3 3d c9 f2 91 3c
       -0.066754654 0.06886861 0.09531047 0.017815964
0002b0 02 04 bd bd 66 fb aa 3c c2 0d 89 bc 7b 38 ee 3d
       -0.0922928 0.02087183 -0.016730193 0.116318665
0002c0 1e 16 06 3d 89 8a 8f bd 8c 4f 26 3e 9d ba c7 3d
       0.032735936 -0.07008845 0.16241282 0.097523905
0002d0 db a0 94 bc 55 71 31 3e 7b 54 45 3b ce 8a 80 3d
       -0.018143108 0.17328389 0.0030110169 0.06276475
0002e0 9d 5e d6 3d d6 7e e4 bc db 7a 01 bc 47 d3 a4 bd
       0.10467265 -0.027892511 -0.007902826 -0.080481105
0002f0 0a 6f 48 bd 07 6c 2c bd 64 d8 80 3d 97 e9 d9 bd
       -0.04893402 -0.04209521 0.06291273 -0.10640257
000300 82 a3 bd 3d c0 c8 ad bd d1 e5 05 bd be 01 2e bc
       0.09259702 -0.08485556 -0.032689873 -0.010620533
000310 26 90 48 bc 72 24 dd bd 0f 3c 5b bb 64 3a c6 bc
       -0.012241399 -0.10797967 -0.0033452546 -0.024197765
000320 9c a4 0d 3d 1a 15 ef 3c 5c f8 a1 3b c7 4e 19 bd
       0.03458081 0.029184867 0.004942937 -0.037428644
000330 df 84 39 bd e6 9d ba bd a4 b4 8f bc 92 00 ac bd
       -0.04529273 -0.09112148 -0.01754219 -0.08398546
000340 7d 32 d7 bc 75 8d d7 bd 7c 85 59 3d 48 03 11 3d
       -0.026269192 -0.10525028 0.053105816 0.03540352
000350 9a a1 ed bd fb 88 cb bc 92 c0 f4 bd 00 4a 28 bc
       -0.11603089 -0.02484559 -0.11950792 -0.010271549
000360 49 12 0c bd 54 fa 32 bd ae 0c 94 bd 90 fe 96 3b
       -0.034197126 -0.043695763 -0.07228981 0.004607983
000370 73 e0 0f bd 75 d9 86 3b 28 d4 10 3d e3 71 25 3d
       -0.03512616 0.0041152784 0.035358578 0.040391814
000380 bd 8c cf bd 72 10 32 bd 11 7e 4f 3d 64 c4 d8 bd
       -0.101342656 -0.043472715 0.050657336 -0.105843335
000390 03 fc a8 bc 02 fb 6a 3b b3 06 23 3d c6 63 89 3d
       -0.020627981 0.0035855179 0.03980131 0.067084834
0003a0 cb da 01 3d 88 73 a6 3d 0b be 47 bd 6b e3 d9 bc
       0.031702798 0.081275046 -0.048765223 -0.0265977
0003b0 87 a5 ed bd 51 1d dd 3d b8 43 18 bd 93 6f fe bd
       -0.116038375 0.10796607 -0.037173957 -0.12423625
0003c0 df 36 2b 3d 29 5c 05 3c 6f 7c d9 3c fe a4 54 39
       0.041800376 0.0081396485 0.026548592 0.0002027936
0003d0 6f 93 a0 bc 09 a7 d3 bc 76 60 0a bd fc 10 6c bc
       -0.019601552 -0.025836485 -0.0337834 -0.014408346
0003e0 0e 85 27 3d 66 c8 12 3d b1 0a 01 3e 43 7d 9a 3c
       0.040898375 0.035835646 0.12601735 0.018858558
0003f0 16 8b 3e bd b5 6f bd bc de 2d d0 3c 41 4e 14 3d
       -0.04651936 -0.023124555 0.025412496 0.03620744

network_body._body_endoder.seq_layers.4.bias f4 [256]
000000 6f e5 d1 39 a9 0c 73 3b 9d 28 81 3b 05 6e 42 ba
       0.00040034528 0.0037086403 0.003941609 -0.0007416907
000010 41 26 1f 3a 3b 72 ee ba bc fd 08 3a 91 de 1a bb
       0.0006071069 -0.0018192002 0.00052257976 -0.0023631195
000020 ed 4f 09 ba a9 04 71 3b 6d 7f b8 bb b9 89 82 3b
       -0.0005238045 0.003677646 -0.0056304247 0.003983703
000030 64 82 1a 3a 3c 45 4e bb 97 61 03 bb fc 48 e3 ba
       0.00058940635 -0.0031474372 -0.0020047182 -0.0017340477
000040 66 26 44 3a 6d 75 94 3a 13 0c 54 ba f7 bd af 3a
       0.00074825285 0.00113265 -0.00080889574 0.0013408054
000050 1e e9 58 3b 8f c7 22 bb 87 e4 2b bb 6f 42 37 bb
       0.0033097933 -0.0024838184 -0.0026228742 -0.0027963181
000060 d4 7b 43 3b 43 f3 00 3b fb 0d 91 3b 26 5d fc ba
       0.0029828446 0.0019676245 0.0044267154 -0.0019253835
000070 5e 76 58 3b a8 36 1b 3b f4 1a 9f bb d3 cb ce ba
       0.0033029537 0.00236837 -0.004855508 -0.0015777297
000080 1d c2 b0 3a eb 73 8c 3a 11 40 ba ba 60 52 c8 ba
       0.0013485585 0.0010715699 -0.0014209767 -0.0015283339
000090 55 9a c1 bb 68 c4 22 bb 58 e5 60 3b cc b4 a3 38
       -0.0059082904 -0.0024836306 0.0034316387 7.806122e-05
0000a0 d9 73 5a bb a5 e8 83 b9 54 d9 e7 b9 24 14 f0 ba
       -0.003333321 -0.000251596 -0.00044221675 -0.0018316549
0000b0 81 ce c1 3a 34 a3 b0 ba 65 59 23 3a a0 b1 2b 39
       0.0014786274 -0.0013476373 0.00062312774 0.00016374001
0000c0 46 fd 75 3a 09 3a 50 ba d8 8c fe b9 d2 b2 33 ba
       0.0009383749 -0.0007943218 -0.00048551592 -0.00068549544
0000d0 f3 f0 06 3b 04 a2 8c 3b 88 d7 9e b7 80 db 42 ba
       0.0020590394 0.0042917747 -1.8935432e-05 -0.0007433221
0000e0 e3 a0 1c bb 16 50 9f 3a 44 03 21 3b fc 31 44 bb
       -0.0023899607 0.0012154605 0.0024568597 -0.002993702
0000f0 82 ad 33 3b c2 57 11 bb f8 00 09 3b 1d b6 6e ba
       0.002741665 -0.0022177552 0.0020905118 -0.00091061165
000100 82 72 61 bb 43 dc c8 3a 55 18 3b ba d6 69 31 39
       -0.0034400527 0.0015324432 -0.00071371096 0.00016919462
000110 ad 39 59 3b cf de 53 3a 73 4e 42 bb 8e ae 94 bb
       0.003314595 0.00080822123 -0.002964881 -0.00453741
000120 90 d7 3f bb fa 58 22 3b de 4c 10 ba 35 45 11 39
       -0.0029272772 0.0024772272 -0.0005504618 0.00013854059
000130 38 fa df 3a a9 17 1c bb d2 5d a5 3a ba ae 54 3b
       0.0017088121 -0.0023817813 0.0012616462 0.0032452778
000140 40 e0 dc 39 ee fa aa ba de ae 9b b9 6e a1 6c 3a
       0.0004212875 -0.0013044754 -0.0002969419 0.00090267404
000150 0e 4e dc ba 20 6b 79 3b b6 26 66 ba 71 b3 8c bb
       -0.001680793 0.0038058236 -0.0008779572 -0.004293852
000160 17 d1 88 3b d1 db 47 bb 6a f0 ea b9 5c e8 66 ba
       0.004175316 -0.003049601 -0.0004481108 -0.0008808428
000170 02 9d 3b 3a 6c 8a 00 3b 30 0e 58 39 0d 59 95 3b
       0.000715688 0.0019613756 0.0002060465 0.004557735
000180 0d e9 3b 3a 42 a5 ee 39 d0 87 8b 36 3d ee 7f 3b
       0.0007168211 0.00045518024 4.1583335e-06 0.0039051913
000190 e9 c6 4d ba 4d ae c2 3a 01 20 34 bb 84 ae 53 3b
       -0.00078497693 0.0014852971 -0.0027484896 0.0032300064
0001a0 a4 dc b9 b9 d4 a6 21 3b 30 66 a5 bb 92 08 e1 ba
       -0.0003545034 0.0024666088 -0.005047582 -0.0017168692
0001b0 23 ae 11 3a 38 46 ad ba 1c 1d 4f 3a f2 6e 86 ba
       0.00055572594 -0.0013219779 0.0007900761 -0.0010256453
0001c0 a1 f1 e7 ba ca 07 a9 3a 70 2f 4e bb 71 cd 4d bb
       -0.0017695912 0.0012895998 -0.003146138 -0.003140297
0001d0 8b 30 79 bb 6b c3 12 3a 3b 24 db 3a d2 e7 5a 3a
       -0.0038023319 0.00055985776 0.0016719172 0.0008350584
0001e0 4d 18 49 ba 4a 3f 10 3b 5d c4 89 b9 ac 1f 3e 3a
       -0.00076711626 0.002201038 -0.00026276978 0.0007252644
0001f0 7f 0a 6f ba 02 1e 10 3b 4f f4 18 3b 7f 1d cd 3a
       -0.00091186905 0.0021990542 0.0023338979 0.0015649049
000200 cb 09 48 3b f3 02 1c 39 2f 54 00 bb e7 92 5e 39
       0.0030523415 0.00014878418 -0.0019581427 0.00021226295
000210 eb d1 51 ba 3a bc 07 ba d0 ae ea ba ef 7a b1 3a
       -0.00080039975 -0.0005177889 -0.0017904881 0.0013540665
000220 70 4f cf b6 9a da f6 ba 2e 11 37 ba fa 68 0a 3a
       -6.1783285e-06 -0.0018833459 -0.0006983456 0.0005279925
000230 c1 89 99 bb 6d 0c 00 3a c9 62 68 bb 39 b4 9a 3b
       -0.004685611 0.0004884664 -0.0035459271 0.0047211912
000240 8a be 29 bb 2f f6 d9 3a 7e ec 51 3b 41 26 c0 ba
       -0.0025900924 0.0016629155 0.003203183 -0.0014659838
000250 73 c1 d4 bb 5b a0 46 3a c8 12 90 ba 96 87 67 3a
       -0.0064927875 0.00075769954 -0.0010991925 0.00088321546
000260 bf e5 1a 3b 0a e7 cf 3a 87 83 ad 3b 86 8e 53 3b
       0.0023635474 0.0015861702 0.0052952203 0.0032280996
000270 c5 5f 40 b9 fa 9b 00 3b 1e 64 89 bb b2 07 1d 3b
       -0.00018346224 0.001962422 -0.004192843 0.0023960886
000280 9e 4e 25 3b 3b e4 02 ba c0 8d f7 3a 07 e1 d6 3a
       0.0025223861 -0.00049931154 0.0018886849 0.0016393968
000290 80 ef 7a bb 59 98 bd 3a eb ff 47 3b 5a cf 25 3b
       -0.0038289726 0.0014464959 0.003051753 0.0025300593
0002a0 46 e4 76 3a cb e1 35 bb a0 05 94 bb a2 3c 08 bb
       0.00094181707 -0.0027752991 -0.004517272 -0.0020788093
0002b0 12 b6 41 bb 54 35 1e 3a 8a b6 65 bb 55 71 de ba
       -0.0029557985 0.0006035168 -0.0035051429 -0.0016971031
0002c0 48 02 d2 3a 2a 2d da 39 a2 4c 3d bb cc 28 e4 b9
       0.0016022408 0.0004161385 -0.0028884788 -0.00043517945
0002d0 ef 24 bc 39 95 cc 81 3b e4 a0 ca 3a e7 0b 09 3b
       0.00035885672 0.0039611557 0.0015459326 0.0020911635
0002e0 72 3e cb 3a 56 1e 03 39 5c 64 cd 3a fe d8 32 3b
       0.0015506281 0.00012504435 0.0015670168 0.0027289982
0002f0 9c c9 bd 3a 0a 26 c0 ba 9d 0c 06 bb 40 97 08 3b
       0.001447964 -0.0014659774 -0.0020454295 0.0020842105
000300 da 74 12 39 4e 1c 4b 3a 8a 61 39 b9 bd d8 29 bb
       0.00013967176 0.0007748053 -0.00017679311 -0.002591654
000310 26 76 7c ba 77 58 67 bb 69 67 05 3b cc ed 89 ba
       -0.00096306426 -0.0035300532 0.0020355827 -0.001052314
000320 4d 60 79 b9 f3 6f 3b 3a df b9 c4 3a 9f 07 cc bb
       -0.00023782365 0.00071501656 0.0015009007 -0.0062264944
000330 e3 ae bc 39 f5 4e 60 3a 9f a2 1e bb 1f 45 ea b9
       0.00035988455 0.00085566874 -0.0024205816 -0.00044683457
000340 ac 09 c8 38 d6 2f 3e 3b 7c da 5f 3a d6 6f 3b bb
       9.538545e-05 0.0029020212 0.00085393316 -0.0028600595
000350 27 50 7e bb 59 49 aa b9 07 ff 1d 3b 0a 02 9c 3a
       -0.0038805099 -0.00032479575 0.0024108307 0.0011902463
000360 2b 27 2b 3b 87 15 b9 3b 3a 1f cd ba bd e2 5c ba
       0.0026115875 0.005648318 -0.0015649565 -0.00084261206
000370 76 2d 3a 3a c8 b5 ca 3a 59 b7 bb 3a 39 da 56 bb
       0.0007102111 0.0015465552 0.001432161 -0.003278388
000380 03 5e 13 3b 0c 33 32 bb 86 e2 f8 b9 01 8f db 3a
       0.0022486455 -0.002719107 -0.0004747102 0.0016750993
000390 4b c7 15 3b 27 7f c0 39 e8 e0 59 bb 87 84 58 3b
       0.0022854384 0.0003671583 -0.0033245627 0.0033037977
0003a0 70 3c 7c 3b 9c 64 30 3b e8 bc 0b ba fd ab 4f 3b
       0.0038488172 0.0026915437 -0.00053305784 0.0031688206
0003b0 5f 58 85 3b 31 45 3c b9 73 1a 38 3b dc 4f 48 3b
       0.0040693725 -0.00017954853 0.0028091937 0.0030565178
0003c0 af 8e 0e ba 4e 69 2c bb 31 93 08 bb 37 91 17 3b
       -0.00054381316 -0.0026307884 -0.0020839686 0.0023127326
0003d0 49 3f 6b 3b 09 fb 06 bb 9f 09 30 3b 56 19 ac 3a
       0.0035895875 -0.0020596406 0.0026861203 0.0013130109
0003e0 53 79 05 bb 6d 95 eb 39 e3 02 6b 3a e7 e7 08 bb
       -0.0020366504 0.00044934024 0.0008964969 -0.0020890178
0003f0 3a f3 34 ba fe 36 ce 3a 7e 73 67 3b 6c 45 8c bb
       -0.00069026987 0.0015732942 0.0035316641 -0.0042807367

action_model._continuous_distribution.log_sigma f4 [1, 6]
000000 40 9a af bb cd 20 f2 3a df 84 41 bb 68 a7 bd 3b
       -0.005358964 0.001847291 -0.002952866 0.0057877786
000010 5a 23 5a 3b 0e 49 3d 3a
       0.0033285231 0.0007220664
