results/NearSingularity03/NearSingularity/NearSingularity-1664.onnx (onnx, 621844 bytes, 7 tensors)

network_body._body_endoder.seq_layers.0.weight f4 [256, 85]
00000000: 8730 22be 54e6 12bd c320 f73d f3f4 cdbc
00000010: ffbf c9bd 4d02 2f3d 5d82 1dbd 0f7b bebc
00000020: bd57 adbd fe03 d6bc c295 aabc 0001 ddbc
00000030: f071 2c3c 8e0b b7bd f8f9 213e 2b96 0dbe
00000040: b559 eabb 3706 b53e 0bbc 8bbd f494 9fbd
00000050: 0a6a c9bd 66c6 ed3d 6c6f 9b3d 802b a3bd
00000060: f6bc 073e 85af 633e eaaa e1bc 90d8 a6bc
00000070: a660 1c3e 86c2 c23d 2b15 fa3d 8d8f 4abe
00000080: 0ba4 1abe 6876 efbd aaec 91b7 ae1f 333e
00000090: dc70 053d 34af 1bbe 7e89 2e3d 415d 053a
000000a0: 0bb6 df3d cbc0 3e3e 60e6 683d a97e 0dbe
000000b0: e4a9 6cbd 8e31 883d 7d3c 96bd 6b61 d4bc
000000c0: e752 17be a1fa 83bc 8170 a43e a302 9bbd
000000d0: 3421 c43d 9b79 6c3e 8d76 aa3d ee96 f53d
000000e0: bf93 3b3e fcf4 883c b486 44bd 05e2 953d
000000f0: 79c7 dbbd d8dd f13c ce29 4dbe 4465 d73d
00000100: 5385 babd 1398 623d 290e 02be f209 09be
00000110: 3bbf 293d d16f 1b3b 6a62 bbbc c512 32bd
00000120: e8df 8d3e 8f58 723c 7552 55be 3e5e 1bbe
00000130: fa38 7e3e a180 8ebb 9287 9c3d fdb9 a43c
00000140: 96dc 2d3d 5f7b 7e3e 3437 99bd 3ceb 0cbe
00000150: d079 02bd 9429 44be 233c 43bd 0043 3cbe
00000160: 3d42 c6bd 2865 bd3c 604f 503e 526e 13be
00000170: e380 33bd 0a9f 413d 428a 063e 9602 243d
00000180: db78 aabc f932 17bd bee1 18be a6b2 90be
00000190: f854 1dbe 00e8 83bd 8337 36bb c16e 1a3e
000001a0: 9807 a53c 27ba 883d 61e9 64be 96f6 33be
000001b0: 2ac6 293d 521c ea3d 19e1 0d3e 2ea0 873d
000001c0: efe7 5bbd da5c 81bd f572 cbbd 6469 ebbc
000001d0: b210 8ebc 7a7a 423b d5a6 01bd 7ce0 1abe
000001e0: 7fae 743c 39a7 68bd 3491 a93d e0af 8c3c
000001f0: 7a3e 583d d6ae d3bd fd29 0cbc 80a2 083e
00000200: 6b7a 7b3d ed9b 50be bc02 a43d e65a 00be
00000210: 0554 dabc 0f51 063e 7b17 ae3d b190 7ebb
00000220: 7aeb 1cbd e128 cc3d 1d20 89be 0e36 f23d
00000230: ad86 bbbd 5c76 a7bd 870f 24be 919b 03be
00000240: 3f6f 7fbd dfef 9b3d 2ab6 32bd 1979 bcbc
00000250: 1562 0abe 0d64 b8bc fcc7 94bb c14f 9b3d
00000260: 7c9f 2cbd 7f65 2e3e 27c7 8b3d b2e8 abbd
00000270: 9194 f0bd 3287 c4bd 7d36 34bd e17d dfbd
00000280: 2a2a 053e 9531 823d 336f 163d fefb 11be
00000290: c63a ab3d c102 973d 0d81 023e c9a9 37bd
000002a0: 3122 4a3c bb5c ac3c c1bf dcbd 6719 21bd
000002b0: f8a8 3ebd 5458 e0bd 03a9 5cbe c3f4 5f3e
000002c0: 26e4 733d 1c7f a0be 7a4e 05bd 606c cdbd
000002d0: 171a 1a3e f1f8 cf3d 4f0a 47be 91e0 a4bd
000002e0: 9ea6 23be f798 1abc 6292 103e 269e 003c
000002f0: 6313 11bc 8bf8 ca3d df54 813d d559 aebd
00000300: 0968 72bd e1d3 19bd adbd 263e afc1 df3d
00000310: 91bc 993d b711 013e 5b64 383b 62ee 163d
00000320: b660 8abd 9b01 c7bd e342 12be d2cf 0bbd
00000330: d582 e3bd 74c5 003e 22b0 29be d8a9 c73d
00000340: c6cd a2bd b721 0b3e b8a6 c03d a9c7 9e3c
00000350: 3759 ab3c b84d 0b3e 14ea 20be ada5 1b3e
00000360: 43f4 1a3d ff95 023e 71a6 043e 9dd9 5dbb
00000370: 21e3 27be bbb8 173d c012 953c 51d8 b53d
00000380: 0ad7 053e 1007 84bd c7ec d9bd 1ddd cd3d
00000390: 30e7 8a3d be0c bbbe 0f17 05be 1f22 6bbd
000003a0: 5f40 4cbd c28b adbd b094 1abd 8a10 f9bd
000003b0: 6c6e 98bb 6eeb c3bd bc90 173d 2ab5 a9bd
000003c0: 1a15 443d 26d6 36be 337a a73c 0c6e 0abc
000003d0: 8590 7c3d 4e1a 69be 1175 acbc 1a32 cebc
000003e0: 33cc 493e b0e6 00be 7c00 fe3b 3206 bf3d
000003f0: 8b1c d3bd 2ac4 11be 9aaa a03c b68f 203e
-0.15838824 -0.03586419 0.12066796 -0.025141215 -0.098510735 0.042726804 -0.038454402 -0.023252038
-0.084640004 -0.02612495 -0.020823363 -0.026978016 0.010525212 -0.08937751 0.15818012 -0.13826816
-0.007151807 0.35356304 -0.06822976 -0.077920824 -0.098346785 0.11610107 0.075896114 -0.07967281
0.13255677 0.22234924 -0.027547318 -0.020366937 0.15271243 0.09509759 0.12211069 -0.19781323
-0.1510164 -0.11692506 -1.7395552e-05 0.17492554 0.032578334 -0.15203553 0.04261159 0.0005087443
0.10923394 0.18628232 0.056860328 -0.13817848 -0.057779208 0.06650077 -0.07335756 -0.025925359
-0.14777718 -0.01611072 0.32117084 -0.07568862 0.095766455 0.23093264 0.08323393 0.11991678
0.1831808 0.01671838 -0.047980025 0.073185004 -0.10731406 0.029524729 -0.20035478 0.10517362
-0.09107461 0.05532081 -0.12700714 -0.133827 0.041442137 0.002371777 -0.022874076 -0.04347493
0.2770989 0.014791622 -0.20832236 -0.1517267 0.24826422 -0.00434883 0.076430455 0.020108217
0.042446695 0.2485175 -0.07481232 -0.1376161 -0.03185445 -0.19156486 -0.047664773 -0.18384933
-0.09680603 0.023119524 0.20342779 -0.14397553 -0.043824088 0.047270812 0.13138679 0.04004153
-0.020809582 -0.036913846 -0.14929864 -0.28261298 -0.15364444 -0.06440735 -0.0027804084 0.15081312
0.020145223 0.06676131 -0.22354652 -0.17574534 0.04144875 0.11431183 0.13855399 0.06622349
-0.053687986 -0.06316538 -0.09934036 -0.028736778 -0.017341945 0.0029675053 -0.031653244 -0.15124696
0.014934181 -0.0568001 0.082796484 0.017173707 0.052793957 -0.10336082 -0.008554933 0.13343239
0.061396044 -0.20371981 0.08008334 -0.12534675 -0.026651392 0.13116859 0.08500572 -0.0038843567
-0.038310505 0.099687345 -0.26782313 0.11826716 -0.09156547 -0.08176872 -0.16021548 -0.12852313
-0.062361952 0.07614111 -0.043630756 -0.023006963 -0.13513978 -0.022508645 -0.0045404416 0.07583571
-0.042144284 0.17030905 0.06825095 -0.083939925 -0.11747087 -0.09596099 -0.043997277 -0.10912681
0.13004366 0.06357113 0.03672714 -0.14256284 0.083608195 0.07373572 0.12744541 -0.044839654
0.012337253 0.021040311 -0.10778762 -0.039330866 -0.04654786 -0.10954347 -0.21548848 0.21870713
0.05954375 -0.31346977 -0.032545544 -0.100304365 0.15049015 0.10154904 -0.19437526 -0.08050645
-0.15981528 -0.009435884 0.1411834 0.0078502055 -0.00885472 0.09910687 0.06315016 -0.08513228
-0.059181247 -0.03755558 0.16283293 0.10925614 0.07506669 0.12604414 0.0028135988 0.036848433
-0.067567274 -0.09717103 -0.14283328 -0.03413374 -0.111089386 0.12575322 -0.16571096 0.09749192
-0.079494044 0.1358708 0.09406799 0.019382315 0.020916564 0.13603866 -0.15714294 0.15199919
0.037830602 0.12752531 0.12954117 -0.0033851631 -0.16395237 0.037041407 0.018197417 0.0887915
0.13070312 -0.064466596 -0.10640865 0.1005194 0.06782377 -0.3653316 -0.12997077 -0.057405587
-0.049866077 -0.08473922 -0.037739456 -0.12161358 -0.004651835 -0.09566389 0.037003264 -0.082865074
0.047871687 -0.17855129 0.020444011 -0.008449089 0.061661262 -0.2276394 -0.021051915 -0.025170375
0.19706802 -0.12588 0.0077515226 0.093273535 -0.103081785 -0.14234987 0.0196126 0.15679821

network_body._body_endoder.seq_layers.0.bias f4 [256]
00000000: 0000 0000 0000 0000 0000 0000 0000 0000
00000010: 0000 0000 0000 0000 0000 0000 0000 0000
00000020: 0000 0000 0000 0000 0000 0000 0000 0000
00000030: 0000 0000 0000 0000 0000 0000 0000 0000
00000040: 0000 0000 0000 0000 0000 0000 0000 0000
00000050: 0000 0000 0000 0000 0000 0000 0000 0000
00000060: 0000 0000 0000 0000 0000 0000 0000 0000
00000070: 0000 0000 0000 0000 0000 0000 0000 0000
00000080: 0000 0000 0000 0000 0000 0000 0000 0000
00000090: 0000 0000 0000 0000 0000 0000 0000 0000
000000a0: 0000 0000 0000 0000 0000 0000 0000 0000
000000b0: 0000 0000 0000 0000 0000 0000 0000 0000
000000c0: 0000 0000 0000 0000 0000 0000 0000 0000
000000d0: 0000 0000 0000 0000 0000 0000 0000 0000
000000e0: 0000 0000 0000 0000 0000 0000 0000 0000
000000f0: 0000 0000 0000 0000 0000 0000 0000 0000
00000100: 0000 0000 0000 0000 0000 0000 0000 0000
00000110: 0000 0000 0000 0000 0000 0000 0000 0000
00000120: 0000 0000 0000 0000 0000 0000 0000 0000
00000130: 0000 0000 0000 0000 0000 0000 0000 0000
00000140: 0000 0000 0000 0000 0000 0000 0000 0000
00000150: 0000 0000 0000 0000 0000 0000 0000 0000
00000160: 0000 0000 0000 0000 0000 0000 0000 0000
00000170: 0000 0000 0000 0000 0000 0000 0000 0000
00000180: 0000 0000 0000 0000 0000 0000 0000 0000
00000190: 0000 0000 0000 0000 0000 0000 0000 0000
000001a0: 0000 0000 0000 0000 0000 0000 0000 0000
000001b0: 0000 0000 0000 0000 0000 0000 0000 0000
000001c0: 0000 0000 0000 0000 0000 0000 0000 0000
000001d0: 0000 0000 0000 0000 0000 0000 0000 0000
000001e0: 0000 0000 0000 0000 0000 0000 0000 0000
000001f0: 0000 0000 0000 0000 0000 0000 0000 0000
00000200: 0000 0000 0000 0000 0000 0000 0000 0000
00000210: 0000 0000 0000 0000 0000 0000 0000 0000
00000220: 0000 0000 0000 0000 0000 0000 0000 0000
00000230: 0000 0000 0000 0000 0000 0000 0000 0000
00000240: 0000 0000 0000 0000 0000 0000 0000 0000
00000250: 0000 0000 0000 0000 0000 0000 0000 0000
00000260: 0000 0000 0000 0000 0000 0000 0000 0000
00000270: 0000 0000 0000 0000 0000 0000 0000 0000
00000280: 0000 0000 0000 0000 0000 0000 0000 0000
00000290: 0000 0000 0000 0000 0000 0000 0000 0000
000002a0: 0000 0000 0000 0000 0000 0000 0000 0000
000002b0: 0000 0000 0000 0000 0000 0000 0000 0000
000002c0: 0000 0000 0000 0000 0000 0000 0000 0000
000002d0: 0000 0000 0000 0000 0000 0000 0000 0000
000002e0: 0000 0000 0000 0000 0000 0000 0000 0000
000002f0: 0000 0000 0000 0000 0000 0000 0000 0000
00000300: 0000 0000 0000 0000 0000 0000 0000 0000
00000310: 0000 0000 0000 0000 0000 0000 0000 0000
00000320: 0000 0000 0000 0000 0000 0000 0000 0000
00000330: 0000 0000 0000 0000 0000 0000 0000 0000
00000340: 0000 0000 0000 0000 0000 0000 0000 0000
00000350: 0000 0000 0000 0000 0000 0000 0000 0000
00000360: 0000 0000 0000 0000 0000 0000 0000 0000
00000370: 0000 0000 0000 0000 0000 0000 0000 0000
00000380: 0000 0000 0000 0000 0000 0000 0000 0000
00000390: 0000 0000 0000 0000 0000 0000 0000 0000
000003a0: 0000 0000 0000 0000 0000 0000 0000 0000
000003b0: 0000 0000 0000 0000 0000 0000 0000 0000
000003c0: 0000 0000 0000 0000 0000 0000 0000 0000
000003d0: 0000 0000 0000 0000 0000 0000 0000 0000
000003e0: 0000 0000 0000 0000 0000 0000 0000 0000
000003f0: 0000 0000 0000 0000 0000 0000 0000 0000
0.0 0.0 0.0 0.0 0.0 0.0 0.0 0.0
0.0 0.0 0.0 0.0 0.0 0.0 0.0 0.0
0.0 0.0 0.0 0.0 0.0 0.0 0.0 0.0
0.0 0.0 0.0 0.0 0.0 0.0 0.0 0.0
0.0 0.0 0.0 0.0 0.0 0.0 0.0 0.0
0.0 0.0 0.0 0.0 0.0 0.0 0.0 0.0
0.0 0.0 0.0 0.0 0.0 0.0 0.0 0.0
0.0 0.0 0.0 0.0 0.0 0.0 0.0 0.0
0.0 0.0 0.0 0.0 0.0 0.0 0.0 0.0
0.0 0.0 0.0 0.0 0.0 0.0 0.0 0.0
0.0 0.0 0.0 0.0 0.0 0.0 0.0 0.0
0.0 0.0 0.0 0.0 0.0 0.0 0.0 0.0
0.0 0.0 0.0 0.0 0.0 0.0 0.0 0.0
0.0 0.0 0.0 0.0 0.0 0.0 0.0 0.0
0.0 0.0 0.0 0.0 0.0 0.0 0.0 0.0
0.0 0.0 0.0 0.0 0.0 0.0 0.0 0.0
0.0 0.0 0.0 0.0 0.0 0.0 0.0 0.0
0.0 0.0 0.0 0.0 0.0 0.0 0.0 0.0
0.0 0.0 0.0 0.0 0.0 0.0 0.0 0.0
0.0 0.0 0.0 0.0 0.0 0.0 0.0 0.0
0.0 0.0 0.0 0.0 0.0 0.0 0.0 0.0
0.0 0.0 0.0 0.0 0.0 0.0 0.0 0.0
0.0 0.0 0.0 0.0 0.0 0.0 0.0 0.0
0.0 0.0 0.0 0.0 0.0 0.0 0.0 0.0
0.0 0.0 0.0 0.0 0.0 0.0 0.0 0.0
0.0 0.0 0.0 0.0 0.0 0.0 0.0 0.0
0.0 0.0 0.0 0.0 0.0 0.0 0.0 0.0
0.0 0.0 0.0 0.0 0.0 0.0 0.0 0.0
0.0 0.0 0.0 0.0 0.0 0.0 0.0 0.0
0.0 0.0 0.0 0.0 0.0 0.0 0.0 0.0
0.0 0.0 0.0 0.0 0.0 0.0 0.0 0.0
0.0 0.0 0.0 0.0 0.0 0.0 0.0 0.0

network_body._body_endoder.seq_layers.2.weight f4 [256, 256]
00000000: 2ed9 fb3c 341f e0bb 6979 c83d 83d8 8e3c
00000010: 6db9 943d 40e9 17bd 9ad1 363d 6c1b 1fbd
00000020: ea12 5e3d e9c1 fe3b d91c 8e3d 196e 903d
00000030: 8d54 56bd ab82 60bd 78fb 063e 3a07 2f3d
00000040: 5eff f3bc f132 31be 67f8 fa3c f7a3 8cbd
00000050: dc93 253c 6ae3 1cbc d6ae 68bd 8624 3a3d
00000060: 87e3 c6bd b32f 8f3d 2912 bd3c 71d7 0dbd
00000070: fb08 123d 6269 09bd 6675 f73b 2f03 8a3d
00000080: 0f59 cabd ff05 5e3c cf5e 54bd ad24 16bd
00000090: 0559 e5bd 61cd 49bc efbe d13c dee7 a43d
000000a0: f64e 77bd 01d8 843d a336 773b d5db bebc
000000b0: c2b2 8e3d 88c4 243d 6fb5 ac3d c033 813d
000000c0: 40b3 c2bc 79c5 863d 6db2 2ebc 9fdc cdbd
000000d0: ee00 db3b d574 6d3c 9f59 6a3a e923 a53c
000000e0: 9b56 08bd c292 1e3d d20a 1fbd f3e2 3fbd
000000f0: cd40 883d 756f cd3b 47e6 1abd eefe 09be
00000100: e4a7 a43d b9e0 343d 5188 a93d 78dc ef3c
00000110: a281 c8bc 0cb4 03be 7047 7cbc 90a5 67ba
00000120: 8759 aa3d 3335 0d3d a73d 54bc 3d48 d83b
00000130: 504a 52bd 62f8 e63d 4208 643b 011d 8abc
00000140: 3595 ae3d e052 1ebd 074c fcbc efa5 26bc
00000150: 7219 73bd 3d9d dbbd 8bb6 2ebc 41af 22bc
00000160: 4f6d 48bd 506b 863d e048 df3d dcd6 97bd
00000170: 5115 0e3d c2cf b0bd 8a3d c23d fd6f 04bd
00000180: dc8b 4dbd 7ac2 053d cbb3 393e 1207 c03d
00000190: 15b4 a53d 47ff 063d fc32 bfbd a424 853d
000001a0: 5d0d 073c 698c f23d 96ae bbbb 0d45 bfbd
000001b0: 3871 f1bc db1d 06be b7a6 013e ee62 9cbd
000001c0: 4207 cf3d a340 b1bd 66e8 7fbd 1421 b4bc
000001d0: 22bb deba 6754 ab3d 9bf0 a6bc afc1 20bd
000001e0: 1af2 39bd 3d8b 4abc d80a aebd a911 593c
000001f0: 3eef 3bbe a074 3bbd a4d8 b9bd e915 ac3d
00000200: f536 863c 091b 68bc bc12 4fbd ec6b 75bd
00000210: cd48 6cbc e471 b53d 877b 97bb 7528 743d
00000220: d082 a4bc 88cd 8e3c 6ab5 7b3d 9ee4 34bd
00000230: 0e57 09bd edac a6bd d253 933d 9ce4 afbd
00000240: 1e00 52bd 4092 8f3c c312 ecbd a469 23bd
00000250: 36ec f73d 3d60 96bd cb3e 8e3b 65a7 50bc
00000260: 6da9 ccbc ec98 27bc 78a0 92bc 31c3 d33c
00000270: 3a7e c1bd 23fb 37bd cf36 6b3d 32ba 84bc
00000280: e820 853d acd1 963c fd89 be3c 7c9b fc3c
00000290: eab3 efbd 40f9 403c ace0 e5bd 0f3f 59bc
000002a0: a543 23bd 421d b1bd 1ce2 bb3c b9d2 ec3c
000002b0: dce7 bfbc ed2c 8dbd 5663 55bd eb62 b93b
000002c0: 32b9 8bbb afef 1b3c 0a8f e43c 83a6 3b3c
000002d0: 7006 153d b6fe 483d 8773 cfbd 827c 4c3d
000002e0: 59c9 803b eeff 25bd 3d54 57bd e311 72bd
000002f0: 951a f9bc 5896 9f3d 241d 953c 8738 d93d
00000300: ae5a 63bc e48a 5ebd 975b b93d d17a 85bd
00000310: f130 b83d 898a 60bc 2c50 a4bc 8332 223a
00000320: aa67 c6bc e20d 13bd b4f6 d4bc 9420 7bbd
00000330: 46f6 b33b fa2b a1bb 1b2d 68be 6921 6e3c
00000340: 51ba c43a 0661 2c3d 92ef e7bd 3c47 fbbc
00000350: af0b 2f3d ad46 ddbd d299 0bbd 3e28 303b
00000360: 8b89 2e3d c9fa 1c3d 88d3 d43c 2372 a23d
00000370: 74aa 823d db5f 9fbc 4680 ec3b 09c0 eabb
00000380: 02b9 003e 0206 99bd 22ae cbbd a9ce 3dbd
00000390: b249 c13c 4a01 48bd 040d 9f3d 4fe3 953d
000003a0: 3755 a33c be33 853d a1dd dcbb ba27 cebd
000003b0: d019 4d3d 3661 c3bd 5c9f 303d 1dbd 28bd
000003c0: 64bc 063d d1e4 34bd 5ef8 1e3d 6aa1 af3d
000003d0: b696 913d 4ef6 c73d 5fa0 f93d 3432 44bc
000003e0: 90da db3c 4e7e 7cbd 14b0 543d 8546 b83c
000003f0: a89d 2ebb 7c28 27bc 1bda 1b3c 99d9 123d
0.030743208 -0.006839657 0.09788782 0.017437225 0.0726193 -0.03708768 0.044633485 -0.03884451
0.054217257 0.0077745807 0.06939096 0.070522495 -0.052326728 -0.054812115 0.13181865 0.0427315
-0.029784855 -0.17304589 0.030636026 -0.06867211 0.010106053 -0.009575704 -0.05680736 0.045444988
-0.09711366 0.0699152 0.023079948 -0.03462929 0.035653096 -0.033547767 0.007551837 0.067388885
-0.09880268 0.013551234 -0.05184823 -0.03665607 -0.1119862 -0.012317033 0.02560374 0.08052038
-0.060378037 0.06486512 0.0037721775 -0.023298183 0.06967689 0.04022649 0.08433043 0.06308699
-0.023767114 0.06580634 -0.010662657 -0.10051846 0.0066834604 0.014493187 0.0008939746 0.020158725
-0.03328572 0.038714178 -0.03882868 -0.046847295 0.06652985 0.00626939 -0.037817266 -0.13476154
0.08039835 0.044159625 0.082779534 0.029279932 -0.024475876 -0.12861651 -0.015397891 -0.00088366214
0.08317857 0.034474563 -0.012954152 0.0066004083 -0.0513404 0.11277844 0.003479496 -0.016859533
0.08524553 -0.038653255 -0.030797971 -0.010171398 -0.05935044 -0.1072335 -0.010663639 -0.009929479
-0.04893237 0.06563437 0.10902572 -0.07414028 0.034688298 -0.08633377 0.09484394 -0.032333363
-0.05018221 0.03265617 0.18134992 0.093763486 0.080909885 0.032958295 -0.093358964 0.06501129
0.008242932 0.11843187 -0.0057275994 -0.09339342 -0.029472932 -0.13097326 0.12661253 -0.07636057
0.10108806 -0.086549066 -0.06247749 -0.02198843 -0.0016993026 0.08365708 -0.020378402 -0.03924721
-0.0453969 -0.012362299 -0.08498162 0.013248839 -0.18352982 -0.04576552 -0.09074524 0.084026165
0.016383627 -0.014166602 -0.050554976 -0.059917375 -0.014421654 0.088596135 -0.00462288 0.059608895
-0.020081908 0.01743199 0.061452307 -0.04416334 -0.033530287 -0.08138452 0.07193722 -0.08588526
-0.051269643 0.017525792 -0.11527016 -0.03989567 0.121056005 -0.07342575 0.0043409816 -0.0127352225
-0.024983132 -0.0102293305 -0.017898783 0.02584991 -0.09447904 -0.044917237 0.057425316 -0.016202066
0.06500417 0.018410526 0.023259157 0.03083586 -0.11704238 0.011778176 -0.112244934 -0.013259663
-0.039859433 -0.086481586 0.022934966 0.028909074 -0.023425989 -0.068933345 -0.052096687 0.005657544
-0.0042640204 0.009517594 0.027900238 0.011453274 0.036383092 0.049071036 -0.10129457 0.049923427
0.0039302525 -0.040527277 -0.05257057 -0.05909909 -0.030408183 0.07792348 0.018202372 0.10606485
-0.0138766 -0.054331675 0.090506725 -0.06517566 0.0899371 -0.013704904 -0.02005776 0.00061873364
-0.024219353 -0.03590191 -0.025996543 -0.061310366 0.0054920046 -0.0049185725 -0.22673456 0.014534333
0.001500914 0.042084716 -0.11324991 -0.030673616 0.04273575 -0.10804496 -0.03408224 0.0026879455
0.04261164 0.038325105 0.025979772 0.07931926 0.063801676 -0.019454887 0.00721744 -0.0071640057
0.12570575 -0.07471849 -0.099453226 -0.046339665 0.023594711 -0.048829354 0.077661544 0.07318746
0.019938095 0.0650401 -0.0067402874 -0.10066171 0.050073445 -0.09540026 0.043120727 -0.041195977
0.032894507 -0.04416353 0.03881108 0.08575709 0.07108824 0.09763776 0.121887915 -0.01197486
0.026837617 -0.06164389 0.051925734 0.022494564 -0.0026644263 -0.010202523 0.00951245 0.03585205

network_body._body_endoder.seq_layers.4.weight f4 [256, 256]
00000000: 0033 f7bc a954 e9bc a603 ebbd c37a acbc
00000010: aed3 23bd 4b80 e5bd 9883 233d bd1d 24bd
00000020: 4304 123b 5e2f 6abc 95b3 ebbc 0fd5 9b3c
00000030: d44d 57bb af80 ecbc 0ad6 153d 68f2 02be
00000040: d5d3 573c f646 9bbd 78c8 d0bc 6cce e7bd
00000050: cf02 5d3d c7c8 443d 3bcf 753d b6e0 abbd
00000060: f043 42bc 0cc1 4b3c c7e0 333c f03a 3f3c
00000070: aafd 36bd f426 223d 71f2 07bb a36e f9bc
00000080: 2576 93bd 503a ef3c 98ec 2abb b943 18bd
00000090: 85ac 103d 8ea3 263d 491e adbd 8dee 1dbd
000000a0: 2e89 f3bc f483 ed3d 6fe2 59bd 1440 4dbc
000000b0: 24d1 0fbc 54a3 bc3d 8522 35bd 84c3 603d
000000c0: 8985 c83c a551 2dbd cfcd 3a3d d2ff aa3c
000000d0: 4ac3 82bd ab5d 9bbc 8279 753c 4fba 3ebc
000000e0: b0e2 7bbd c6da 693d 4718 91bd 1c84 953c
000000f0: 776b 123d 7912 6bbd f76d 0bbe e991 56bc
00000100: a924 273d 75cf 30bd 8351 323a 9627 063e
00000110: 2bf9 903d c558 e8bc b85e 6a3d b5f0 a0bd
00000120: 579e 0c3d de05 09bb da57 53bd 0c76 953b
00000130: 61b3 6a3d 6330 48bc d184 de3d fc5c 48ba
00000140: d153 4cbd d1a5 7fbd 1942 733d dac3 d83c
00000150: 1583 4dbd 6780 ee3a 9b21 81bc 1f76 383d
00000160: fc07 123c 6f83 18bd 9f71 9b3d 50d0 ab3d
00000170: 86fc 413d b0e5 c73d d719 983d c00d 0fbe
00000180: 7218 c33d a34c 37bd 194e ecbc bf9d 40bd
00000190: 57a0 ed3c 5dc9 9e3d b315 b7bc 0250 ad3d
000001a0: c7e3 33bc 9bdd 9b3d 3ea0 02bd dfc7 b93c
000001b0: ee60 3fbe 10aa 16bd a8fb 363d 1ae4 5b3c
000001c0: fb44 d2bd 0778 82bd bc35 d23d 5c15 c13d
000001d0: ab76 37bd e848 87bd a335 cebb a1c2 323d
000001e0: c967 913d ffe9 373c 50df c9bc 89d5 8fbc
000001f0: 87ee 813d f99e 973c f48e 623d 22b2 90bc
00000200: cb38 0fbe 5b6e 88ba eb36 4ebd 2bc3 aa3c
00000210: 77f0 80bd dad4 32bc 43ff ab3d b4ad 38bd
00000220: f096 abbc d981 52bc acdd 8d3d f28a c4bd
00000230: dd23 06bc 8094 b1bd 0876 ff3d f174 f73d
00000240: 7caf 8bbb d2b6 bb3d 8698 d4bd 29b3 1abd
00000250: 39e7 8c3b 313b 01bd da3e 88bd 21d2 8bbd
00000260: 34bb fd3b 6b37 cc3d 0a98 c53c f933 71bd
00000270: 9f1f aebd f74c c53b 303f 223d 6dba 503d
00000280: e4cb 78ba 9390 0abd 6a91 6c3c 47c4 c63c
00000290: 03ee c53b 35c2 c03c 48f5 ccbd f238 75bd
000002a0: c0b0 71bc 48c8 fd3b e063 87bb 44bf 48bb
000002b0: 1dbe 973d 1b81 0f3d d23b da3b 8c7f 073e
000002c0: 3bd7 313d 04af 05bd 7d54 7d3d 60ca b03d
000002d0: 1d16 ff3c f96d b33d 74f3 22be 3598 39bd
000002e0: ad65 6f3c 134b 0b3e 66f3 43bd 0796 973d
000002f0: 6cb5 6dbd 57c2 9cbc 9fec 703d dd44 babd
00000300: 3667 8cbd 4de7 893b 8bd2 073d b267 753c
00000310: 3078 b43d cd5b b03d a38d 3cbd 100f 30bb
00000320: 9bdc 08bd 93c4 febd 68f5 133d 6d13 a13d
00000330: 5362 bebc 04b0 ccbc cb6d 973c cf42 a03c
00000340: a69b dbbd 93c9 6d3c e065 d83d 5a85 613c
00000350: c03a bebd 5bec c53c be19 c7bd e75c 71bb
00000360: 17bc 9dbd b23c d3bd f6c6 a63c 043f c63d
00000370: eaff 1cbd b1dc 9fb8 a6ab d83b f0a3 23bc
00000380: 9a8e 233c fb5f 683d d95d 223d d400 bcbd
00000390: 30f4 133d 27b7 4f3d a3b0 a43c 2351 953d
000003a0: 55d9 e43b ca51 aa3d f349 30bd 18fe c9bc
000003b0: f727 22bd f149 e6bd 4269 34bc 5097 8fbd
000003c0: d615 c53d 422c 893d 752c 043c 8726 51bd
000003d0: bf85 223c e394 013b a1a6 3f3d 8999 62bd
000003e0: 4664 63bd 91f4 053d 28fa fc3c 5a6b 6abc
000003f0: 32a7 233c 04bc 4dbb a60b 81bd 352c 733d
-0.030175686 -0.028482752 -0.11475305 -0.021054631 -0.039996795 -0.112061106 0.03992042 -0.040067423
0.0022280372 -0.01429352 -0.028772155 0.019022493 -0.0032852786 -0.028869955 0.036581077 -0.12787783
0.013173063 -0.07581894 -0.025486216 -0.11318669 0.053957757 0.04804304 0.060012084 -0.083924696
-0.011857018 0.012436163 0.010978884 0.011671767 -0.044675507 0.03958793 -0.0020743872 -0.030448264
-0.07200269 0.02920261 -0.0026080962 -0.03717396 0.035320777 0.04068332 -0.08453042 -0.038557578
-0.029728498 0.11597434 -0.05319446 -0.012527484 -0.00877789 0.0921084 -0.044222374 0.05487396
0.024477737 -0.04231419 0.04560643 0.020873938 -0.06384905 -0.018965563 0.014982583 -0.011641099
-0.061495483 0.057093404 -0.07084709 0.018251471 0.035747018 -0.057390664 -0.13616167 -0.013096311
0.040806446 -0.043166596 0.00068023073 0.13101038 0.07078775 -0.028362641 0.057219237 -0.07858411
0.034330692 -0.0020908038 -0.051597454 0.0045611914 0.057299975 -0.012218568 0.108651765 -0.000764325
-0.04988462 -0.062413994 0.059389208 0.026460577 -0.050173838 0.0018196226 -0.015763095 0.045034524
0.008913036 -0.03723472 0.07590031 0.08389342 0.047359966 0.09760606 0.074268036 -0.13970089
0.09526147 -0.04475082 -0.028845834 -0.04702544 0.02900712 0.07753251 -0.022349214 0.08462526
-0.010979599 0.07610627 -0.0318911 0.022678314 -0.1868932 -0.036783278 0.04467359 0.013421083
-0.10267063 -0.0637055 0.10264155 0.09427902 -0.044790905 -0.06605703 -0.006293015 0.043642644
0.070998736 0.011225223 -0.024642617 -0.017557876 0.063443236 0.018508421 0.055312112 -0.017663065
-0.13986509 -0.0010408865 -0.050345343 0.020845016 -0.06295865 -0.010915006 0.08398297 -0.04508753
-0.020945996 -0.012848341 0.06927046 -0.09596814 -0.008187261 -0.08670902 0.124736845 0.12082852
-0.0042628627 0.091657296 -0.10380654 -0.037768517 0.004300025 -0.03155059 -0.06652613 -0.06827188
0.0077432636 0.09971508 0.02412035 -0.058887456 -0.08502125 0.006021138 0.03961104 0.05095904
-0.0009490831 -0.033829283 0.014438966 0.024263514 0.006040336 0.023530105 -0.10007721 -0.05986876
-0.014751613 0.0077448227 -0.004131779 -0.0030631581 0.07409308 0.035035234 0.006659963 0.13232249
0.04341815 -0.03263761 0.061848152 0.0863235 0.031138474 0.0876121 -0.15913182 -0.04531117
0.014611644 0.13602857 -0.047839545 0.07401662 -0.058034346 -0.019135637 0.05881941 -0.09095166
-0.068556234 0.0042084814 0.033159774 0.014978336 0.088119864 0.086112596 -0.046033513 -0.0026864447
-0.03341351 -0.12439837 0.03612271 0.07865033 -0.023240244 -0.024986275 0.01848497 0.019563107
-0.10723047 0.014513391 0.10566306 0.013764704 -0.092885494 0.024160555 -0.09721707 -0.0036829056
-0.07701891 -0.10314311 0.020358544 0.09679988 -0.038329996 -7.622818e-05 0.006612259 -0.009987816
0.009982729 0.05673216 0.03964028 -0.091798455 0.036121547 0.050711777 0.020103758 0.07290866
0.006983916 0.08316381 -0.043039273 -0.024657294 -0.039588895 -0.11244572 -0.011011424 -0.070112824
0.096233055 0.06697895 0.00806724 -0.051062133 0.009919583 0.0019772581 0.04678977 -0.055322204
-0.05551555 0.03270394 0.030881003 -0.014307821 0.009988593 -0.0031392584 -0.0630105 0.05936833

action_model._continuous_distribution.log_sigma f4 [1, 6]
00000000: 0000 0000 0000 0000 0000 0000 0000 0000
00000010: 0000 0000 0000 0000
0.0 0.0 0.0 0.0 0.0 0.0

action_model._continuous_distribution.mu.weight f4 [6, 256]
00000000: c473 9abc 3011 dfbc 374c 2a3c a574 c9bb
00000010: b34a 9bbc 50bb 49bc 0a9f 8eba 1e6e 88bc
00000020: 63a6 c3bb 5ed4 89b9 b9fe 083c 8fff 2a3b
00000030: 6525 9cbc aa1a 2dbc f0e6 fcb9 44f1 b33b
00000040: 0081 01bc d550 153c fe27 0cbc 43e1 e039
00000050: dd82 52bc 7306 3fba 7107 0cbb c7f6 29bc
00000060: 3725 553c 877b b0ba e842 3c3c 9ea8 ae3c
00000070: 48b8 7dbc d064 89bb d23a f3bb c376 97bb
00000080: c7c6 3bbb 6374 04bd 8dce d2ba 7e28 123c
00000090: e0d3 a53c 7d15 dcba d5ce 83bc f2b7 5d3c
000000a0: f705 01bc c314 ccbc c360 553c f865 abbc
000000b0: 4f76 6ebc 6b25 d9bb 0e9c b53b 53ff 87bc
000000c0: 8ceb b7bb af37 7ebb b1ef 39bb ab30 46bc
000000d0: f01a 4e3b d13b a53c e01f 54bb 22cd 313c
000000e0: 0d36 d33b 0bd4 873c ac4a b3bb 85a8 64ba
000000f0: 06c5 b3ba 7b3b 9d3b b055 5c3b 0f24 82bc
00000100: 75dd 8f3b 651f 573c acf6 06bc bf59 403c
00000110: 35ed 3ebb 1b09 55bb 2ba3 d4bc 91bc ccbb
00000120: ad0a 82bc 1d67 433c 3578 c93c ba3d 8bbc
00000130: 534b 24bc db42 1a3c 3b99 8a3c 2b17 943c
00000140: c0dc 54bc bbd1 39bc fbab fd3b bf7e 113c
00000150: edd8 d33c 47bf adb9 e0a7 4d3b ab9d 83bc
00000160: df08 c33c 43b6 a33b 328e c7bb 3ae7 23bc
00000170: c1a9 4cbb f416 193c 0dba edba 36e5 1bbc
00000180: eb5e 723b 50a8 b03c 88b8 6737 512d 97ba
00000190: 38fa 4c3c fd5a e83c 2b70 43bc e3b3 55ba
000001a0: aa09 a23a 8f92 903c 7fd7 f7ba 7900 a7bb
000001b0: b73b 41bb 5840 6a3b bbd7 123a 7b85 f039
000001c0: 030b f7bb 0db8 9cbb a749 863b 3b2f 94bb
000001d0: 0735 84bc 12da cd3b 757a 7e3b ade7 de3b
000001e0: 1376 aa3c ad24 e43b ec97 85bc 05b2 a8bc
000001f0: d513 9b3c 723a 74bc 5be7 913b cb10 5c39
00000200: df7a e53b d806 643c 838f e2bb 5f99 07bc
00000210: bbda b03b 1b1d 963c 6701 a1bb e7c7 9ebb
00000220: 7211 afbc dd01 75bc 6f81 00ba dd9c 90bb
00000230: 5ec7 b1bc 5d69 51bb f6e1 c2bb efd5 82ba
00000240: 4781 f83b 92a8 64b9 829d afbc d101 3a3c
00000250: 13cd 193c c594 d53c 80c7 a63b 2723 c73b
00000260: 637a 95bc 3733 dcbc 2fee 0eba 490a c33c
00000270: 50d6 803b 7538 01bb 72e7 de3b 0ccf 863b
00000280: 9700 8f3c fb13 273c 95eb dcbb 4ea5 40bc
00000290: 66a3 c23b 2f46 8fbc df85 12bc 1e8b 033c
000002a0: 03f5 0c3c 95a1 b93b 0b96 543c a67c 18bb
000002b0: 6f0c e13b 33b0 853c 2ef8 8c3a 90ed 86bc
000002c0: 4ffb 923c 9711 99bc 06ed b5ba 1f75 a53c
000002d0: 8c02 b5ba f20a c63b dba3 b53a bb58 1fbb
000002e0: a0a5 febb d16d 9a3b 2b80 813c 7389 9bba
000002f0: 196d 0e3b 7b75 a0bb 7b9f 1b3c 05b1 373b
00000300: 50e9 523b c267 5fbc ade5 023c 4040 48bc
00000310: 1333 983b 62ca 553c 234d 883c 733c 913c
00000320: 54ee 913c ed64 9f3c b510 7c3c 3484 aabb
00000330: e5b7 213c 1d16 e53b dfc3 e53b f7d9 f4bb
00000340: 2c5f 1ebb d5fe e43b e684 08bc fe48 043c
00000350: bb32 8bbb 814d 95bc 2a02 08bc 7a9c 6b3c
00000360: 846c 853c a73b be3c 49ed 02bb 2c34 0cbc
00000370: 422b 223c 225f 26bc 997e 453b a088 9e3a
00000380: 94a8 4c3c 7999 48bc f05f 623a 1575 4b3b
00000390: 3fff 9b3c caf7 be3b 4d7d ee3b 5f40 adbb
000003a0: b3ed 763c da5c 383c 7603 323c 6319 27bc
000003b0: ba61 bc3b 5f69 d33b 15a9 133d 3fe3 fe38
000003c0: 73af 20bc 5517 63bc 52b3 f8bb 148f 4c3c
000003d0: 7067 f5bb c94f 11bd b69b 433c 1b06 1a3c
000003e0: 9215 413c eb0b f33b 93cc d53c fa38 b43c
000003f0: f876 163c 536b b13a 5657 c2bb 2057 4f3c
-0.01885403 -0.027229875 0.010394148 -0.0061479383 -0.018956518 -0.012312725 -0.0010881138 -0.01665407
-0.0059707626 -0.00026288902 0.008361512 0.0026092266 -0.0190608 -0.010565439 -0.00048237247 0.0054914076
-0.007904291 0.00911351 -0.008554457 0.00042892442 -0.012848583 -0.0007287033 -0.002136674 -0.010373778
0.013009361 -0.0013464548 0.011490561 0.021320637 -0.015485831 -0.004192926 -0.0074227834 -0.004622312
-0.0028652416 -0.032337558 -0.0016083285 0.008920787 0.020242631 -0.0016791072 -0.016089836 0.0135326255
-0.007874957 -0.024912244 0.013023558 -0.020922646 -0.014554574 -0.006626775 0.005542285 -0.01660124
-0.005612796 -0.0038790514 -0.0028371627 -0.012096564 0.0031449161 0.020170124 -0.0032367632 0.01085213
0.0064456523 0.016580602 -0.005471548 -0.0008722621 -0.0013715334 0.0047983504 0.003362041 -0.015886335
0.0043904134 0.013130044 -0.008237522 0.011740147 -0.0029133086 -0.0032506648 -0.02595671 -0.006248065
-0.015874231 0.01192644 0.024593452 -0.016997207 -0.010027724 0.009415354 0.01691877 0.018077454
-0.012992084 -0.011341508 0.007741449 0.008880316 0.025860274 -0.00033139644 0.003138058 -0.016066393
0.023807941 0.0049960925 -0.006089949 -0.010003859 -0.003122911 0.009343851 -0.0018137112 -0.009515097
0.0036982845 0.021564633 1.38116375e-05 -0.0011533891 0.012510829 0.0283637 -0.011928598 -0.00081521104
0.0012362499 0.01764801 -0.0018908827 -0.005096492 -0.0029485056 0.0035743918 0.00056016044 0.00045875818
-0.0075391545 -0.0047826828 0.0040981355 -0.004522232 -0.016138567 0.0062820995 0.0038830314 0.0068025202
0.020808255 0.00696238 -0.016307794 -0.020592699 0.018930355 -0.014906513 0.0044526285 0.00020987091
0.0070031728 0.013917647 -0.0069140806 -0.008276313 0.0053971685 0.018324425 -0.0049134973 -0.0048456076
-0.021370623 -0.0149540575 -0.00049020996 -0.004413231 -0.021701511 -0.003195367 -0.005947347 -0.000998197
0.0075837704 -0.00021806572 -0.02143741 0.011352972 0.009387272 0.026071915 0.0050897 0.0060771885
-0.018246835 -0.02687989 -0.0005452362 0.023808615 0.003931798 -0.001971749 0.006802493 0.0041140374
0.017456336 0.010197635 -0.0067419508 -0.011758162 0.005939889 -0.01748952 -0.00894305 0.008028774
0.008603337 0.005665014 0.012975226 -0.0023267656 0.0068679373 0.01631937 0.0010755116 -0.0164707
0.017942099 -0.018685145 -0.0013879843 0.02019745 -0.0013809963 0.0060437853 0.0013858037 -0.0024314362
-0.007771209 0.004712798 0.015808186 -0.0011866525 0.0021732508 -0.0048968173 0.009498472 0.0028029096
0.0032182522 -0.013635578 0.007989329 -0.01222235 0.0046447604 0.01304874 0.016638344 0.01772902
0.017813839 0.019457305 0.015384843 -0.005203748 0.009870504 0.0069911615 0.007011875 -0.0074722725
-0.0024165614 0.006988386 -0.008332467 0.008074043 -0.004247991 -0.018225433 -0.008301297 0.014380569
0.016287096 0.023221804 -0.0019977859 -0.008557361 0.009898009 -0.010154517 0.0030135273 0.0012095161
0.012491364 -0.012243622 0.00086355116 0.0031045128 0.01904261 0.0058278786 0.0072781206 -0.0052872146
0.01507132 0.011252606 0.010865083 -0.010198924 0.0057489546 0.00645177 0.03604992 0.00012153992
-0.009807455 -0.013860543 -0.007589736 0.012485284 -0.0074891374 -0.03547648 0.01193898 0.00940087
0.011784928 0.007417192 0.026098525 0.021999825 0.009183638 0.0013536013 -0.0059308214 0.01265505

action_model._continuous_distribution.mu.bias f4 [6]
00000000: 0000 0000 0000 0000 0000 0000 0000 0000
00000010: 0000 0000 0000 0000
0.0 0.0 0.0 0.0 0.0 0.0
