results/NearSingularity03/NearSingularity/NearSingularity-2880.onnx (onnx, 623772 bytes, 9 tensors)

network_body._body_endoder.seq_layers.0.weight f4 [256, 85]
-0.06808001 -0.03189485 0.022009116 -0.09780431 0.12026055 -0.063052 -0.015556013 -0.09404729
-0.11386879 -0.12551294 0.13768505 0.069266684 0.18671136 0.0039049778 -0.021822888 0.027273124
0.13596715 -0.08805699 -0.026458504 0.10153912 0.01705167 -0.20787822 -0.065273225 -0.21021837
0.05041849 0.09124717 -0.082323916 0.053964395 -0.18591511 0.106137685 0.004109353 0.09195223
0.07277171 0.12079831 -0.12043326 -0.1404734 -0.073209606 -0.019912614 -0.10159019 -0.18858431
-0.04355076 0.04145174 -0.2674371 0.06701864 -0.181536 0.09454767 -0.17056552 -0.024477506
-0.14549877 0.05348132 -0.007936741 0.054668568 0.04276139 0.024715338 -0.034965403 0.08107008
-0.021375543 0.113074176 0.028735261 0.04503334 0.007299343 0.0195918 0.12539317 0.09413799
-0.0332466 -0.06602433 -0.040082533 0.022510566 0.027906172 0.02143723 0.11638227 0.06807434
0.0285722 -0.086970866 -0.09291469 -0.05370655 -0.17565286 0.03594705 0.037872817 0.18240504
-0.14424834 0.2026731 0.008096911 -0.032348227 -0.0013367237 0.092825405 -0.058914226 0.069824636
0.08431774 -0.052999284 -0.31094193 0.22579898 -0.008261403 0.055998344 -0.107002854 -0.17907201
-0.18174681 -0.008221417 -0.009403218 0.023890093 -0.08028301 -0.20644854 0.04532948 0.029943084
0.049351033 0.010685859 0.06689667 -0.111584224 -0.16733646 0.2614 0.018614408 -0.008757616
-0.2291935 -0.10021959 0.0077232243 0.04938121 0.009855381 -0.05830814 0.25562793 -0.07264103
0.21773274 -0.18039636 -0.006475954 -0.14785399 -0.022094384 -0.052706853 0.008259307 -0.011079697
0.006928092 -0.23794255 0.0142462235 -0.016166193 0.094652675 -0.12114163 -0.07974927 -0.05468127
0.15302446 0.093810946 -0.010744843 0.081626266 0.06960788 0.05920073 0.059843525 -0.027735688
0.048657943 -0.09754448 -0.20035194 -0.063039124 -0.16712411 0.10382266 -0.023840932 -0.05956463
0.07504038 -0.04707147 0.0724918 0.16345704 -0.13874401 0.11311898 -0.025129188 0.16629405
0.0758539 -0.2934036 0.21809465 0.14369442 -0.019868493 -0.10891458 -0.09854607 0.16098398
-0.07766479 -0.111379676 -0.024538975 0.06305045 0.12123038 -0.068494715 -0.1320055 -0.08740861
0.061584022 -0.09078053 -0.10273786 0.043809567 0.05817195 -0.028568882 0.23762439 0.0087888185
0.092002 0.03178102 -0.05236222 0.09176221 0.16557729 0.052951347 0.0065230452 -0.07753991
-0.011297298 -0.12508053 0.11229205 -0.07174601 0.024529727 -0.15115188 -0.041145846 0.18957123
-0.058745757 0.009142143 -0.1598701 -0.03753946 0.0125942575 0.04504517 -0.12084489 0.07938842
-0.04409328 -0.12401198 0.03870159 0.03262899 0.11903626 -0.049686007 -0.099174395 0.10016521
-0.08551126 -0.005250086 -0.13628653 0.010524675 0.039740816 -0.053952545 0.028719356 0.012423981
-0.2436887 -0.2484453 -0.15693876 0.04588319 -0.110952854 0.09941359 -0.009012106 -0.06210492
0.19367866 -0.0927518 -0.030552521 0.085471734 -0.20874791 -0.039037835 0.13720718 -0.09818065
-0.15639052 0.042923883 0.13338107 0.18825474 0.035177052 0.039283972 -0.09016208 -0.05313831
0.015199004 0.031919487 -0.017159624 0.096295856 0.06857901 0.024597049 0.022375777 0.18720143
00000000: 886d 8bbd 2da4 02bd 764c b43c a04d c8bd
00000010: 2a4b f63d 6821 81bd a6de 7ebc de9b c0bd
00000020: 0a34 e9bd 7786 00be 4ffd 0c3e b1db 8d3d
00000030: 4331 3f3e a8ea 7f3b eac5 b2bc e36b df3c
00000040: f93a 0b3e 3957 b4bd 81bf d8bc bef3 cf3d
00000050: f2af 8b3c 07de 54be f8ad 85bd 7c43 57be
00000060: 9e83 4e3d ccdf ba3d 7199 a8bd c509 5d3d
00000070: 8860 3ebe b75e d93d c0a7 863b 7351 bc3d
00000080: 5609 953d 1b65 f73d b7a5 f6bd 42d8 0fbe
00000090: ebee 95bd c71f a3bc 840e d0bd 3f1c 41be
000000a0: 4862 32bd 4dc9 293d 84ed 88be 1241 893d
000000b0: 93e4 39be 35a2 c13d baa8 2ebe 0d85 c8bc
000000c0: a1fd 14be 3b0f 5b3d 1b09 02bc 26ec 5f3d
000000d0: 9126 2f3d d277 ca3c e237 0fbd 1208 a63d
000000e0: c31b afbc 6f93 e73d 3666 eb3c e174 383d
000000f0: 542f ef3b fc7e a03c 1167 003e 6bcb c03d
00000100: 962d 08bd c437 87bd 952d 24bd 1468 b83c
00000110: 7c9b e43c 219d af3c d459 ee3d 8f6a 8b3d
00000120: 3f10 ea3c c81d b2bd 0f4a bebd 66fb 5bbd
00000130: 58de 33be 373d 133d 8720 1b3d 63c8 3a3e
00000140: d6b5 13be 8a89 4f3e e8a8 043c 937f 04bd
00000150: 0135 afba 3f1b be3d 0b50 71bd 3800 8f3d
00000160: c7ae ac3d c715 59bd c833 9fbe d937 673e
00000170: d65a 07bc 855e 653d 5024 dbbd a75e 37be
00000180: d61b 3abe 1fb3 06bc f40f 1abc 28b5 c33c
00000190: 6b6b a4bd 3f67 53be 68ab 393d 334b f53c
000001a0: 4f24 4a3d be13 2f3c 1f01 893d 4586 e4bd
000001b0: 405a 2bbe 39d6 853e 3e7d 983c 1b7c 0fbc
000001c0: b3b1 6abe ee3f cdbd 1a13 fd3b f443 4a3d
000001d0: 7778 213c 84d4 6ebd aae1 823e d2c4 94bd
000001e0: 55f5 5e3e d3b9 38be 3d34 d4bb 0967 17be
000001f0: 48ff b4bc 24e3 57bd 0b52 073c 9e87 35bc
00000200: 0c05 e33b 36a7 73be fe68 693c f76e 84bc
00000210: 43d9 c13d 1a19 f8bd 9653 a3bd 78f9 5fbd
00000220: 72b2 1c3e f41f c03d 230b 30bc ac2b a73d
00000230: 948e 8e3d 777c 723d 7c1e 753d f435 e3bc
00000240: 8d4d 473d 66c5 c7bd 0f29 4dbe a81a 81bd
00000250: 9522 2bbe faa0 d43d 0f4e c3bc 0bfa 73bd
00000260: c5ae 993d 04ce 40bd 9576 943d 4861 273e
00000270: e912 0ebe ecaa e73d badb cdbc fd48 2a3e
00000280: 4a59 9b3d ff38 96be 3454 5f3e a124 133e
00000290: 40c3 a2bc 9b0e dfbd 86d2 c9bd fcd8 243e
000002a0: b80e 9fbd 071b e4bd f605 c9bc 9820 813d
000002b0: a247 f83d f546 8cbd 732c 07be 4903 b3bd
000002c0: 873f 7c3d 24eb b9bd 3a68 d2bd a971 333d
000002d0: b645 6e3d 4a09 eabc cf53 733e fafe 0f3c
000002e0: 8b6b bc3d d12c 023d c479 56bd d3ed bb3d
000002f0: 188d 293e 83e3 583d 45bf d53b 3fcd 9ebd
00000300: 4d18 39bc 1c15 00be 60f9 e53d 92ef 92bd
00000310: 91f2 c83c 8fc7 1abe 8c88 28bd f61e 423e
00000320: 649f 70bd edc8 153c fdb4 23be fac2 19bd
00000330: 2558 4e3c 4981 383d 877d f7bd 6596 a23d
00000340: 289b 34bd fef9 fdbd 8f85 1e3d faa5 053d
00000350: 48c9 f33d 8e83 4bbd f21b cbbd 6b23 cd3d
00000360: 8720 afbd ea08 acbb b28e 0bbe b06f 2c3c
00000370: 44c7 223d 58fd 5cbd db44 eb3c f48d 4b3c
00000380: 8889 79be 7268 7ebe 8eb4 20be 03f0 3b3d
00000390: 403b e3bd 5a99 cb3d 83a7 13bc bb61 7ebd
000003a0: b353 463e a8f4 bdbd 4849 fabc ce0b af3d
000003b0: 03c2 55be 23e6 1fbd 0a80 0c3e f012 c9bd
000003c0: d624 20be f4d0 2f3d 0c95 083e dac5 403e
000003d0: d015 103d 3be8 203d e6a6 b8bd 8ea7 59bd
000003e0: 3e05 793c 02be 023d 5792 8cbc c336 c53d
000003f0: 2773 8c3d c07f c93c 684d b73c bbb1 3f3e

network_body._body_endoder.seq_layers.0.bias f4 [256]
0.00016256279 -0.0002923798 -0.00043777525 0.00023800094 0.0011514236 -0.0018366926 -0.00058341207 0.00026663518
0.0010538228 0.0006406829 -0.0026838963 -7.171319e-05 -0.0012104538 0.001174594 -0.00058254565 0.0012373043
-0.00077704934 -0.0026787503 0.0006491444 0.0010940549 -0.0014673182 -0.0022594 0.000851224 -0.0006559613
0.0007976332 -0.0021806958 -0.00035781326 -0.0025490914 -0.0009313321 -0.0015694444 -0.0014936684 -0.0007864499
0.0010132388 -0.0018915929 0.00010137022 -0.0017826401 -0.0008225985 0.001642437 -0.00038302582 0.00027652344
-0.00070454215 0.0004033401 -8.4379906e-05 -0.001841775 0.0014721743 -0.0008530936 0.001246215 0.0018642012
-0.00014932301 0.0008069401 0.00039612086 -0.0002825557 -0.00029365093 0.0012520734 -8.840658e-05 4.0713494e-06
-0.0004397572 -0.0005184166 -0.0017548152 0.00094401115 0.00019734647 -0.0015191365 -0.001167346 0.0010417379
-0.000501405 -0.0008553334 0.0012790358 -0.0007676848 0.0002834492 0.0021440757 0.00059891684 0.00090812205
-0.0017275083 -0.0009893152 -0.0013659546 0.00078505086 -0.0008389547 0.0017408519 -0.00046876562 0.0010366868
-0.0009808211 0.0012592691 0.0001341737 -0.00095710036 0.0006015122 0.00026154547 0.0004204171 0.0015870235
-0.00016001874 -0.0014063049 -0.0015186985 0.0011061128 0.0015778498 -0.00080501573 -0.0015797038 0.0008080045
0.001996543 0.0018211247 0.00016273072 -0.0010830577 -0.0023760546 -0.0009459508 -0.00044940878 -0.0027756253
0.0008563306 -0.0007451703 -0.00094749324 4.640745e-05 0.00074110506 -0.0012604074 0.00010671981 -0.0023248163
-0.00031023065 0.0006223364 -0.0018763733 0.0006504456 -0.00045936793 0.0005273345 -0.0008473516 0.00021704583
-0.0015694323 0.001496738 0.00044552545 0.00040903257 -0.0007310079 0.00073900644 0.000616623 0.0008407289
0.0033291513 0.0013224611 -0.0008252525 -0.0015546998 -0.0012388063 -0.0013474977 -0.000503158 0.00037452884
-0.00024482448 -0.0006203426 -0.0005642685 -0.002141565 -0.000624479 0.0014658825 -0.00092574075 -0.0023423068
-0.0016614568 -0.000537993 0.000799709 0.0006217314 -0.0011299724 -0.000106812746 0.0016828433 -0.00018641882
-0.0010649309 -0.00056110346 -0.000381641 0.0015129808 -8.206183e-05 -0.0013188849 3.5305322e-05 0.0009834588
0.00093151676 0.00011413282 -0.00059646246 -0.0012878911 0.00091796817 0.0021258984 -0.0017270506 0.0001228824
0.0007891297 -0.0013740893 0.00024561211 -0.00027493507 0.0015173865 0.0010406843 -0.001157254 -0.0023782246
-0.0016793942 0.0006688485 -0.0014898992 -0.00074934366 0.0015605248 0.0005685816 0.0005034583 -0.0015700428
0.00015014123 -0.00092417013 -0.001262216 -0.0027891765 -0.0010415384 -0.00080648635 -0.00085931557 0.00039384997
0.0010535563 0.00067835173 0.0012836619 0.0016065001 -0.0017803957 -0.0007402727 -0.00132943 0.0012189532
0.00026606472 -0.001683553 0.0015024206 0.0017540063 -0.0007974842 -0.0020488973 0.0004867145 -0.00033417172
-0.0024261733 0.0017017758 0.0004045689 -0.0007454383 0.0005009227 0.0007515891 -0.0013117003 0.0020770442
0.0005402182 0.00044710634 0.0016334179 5.6686047e-05 0.00018123306 0.0010724578 0.0007789355 -0.00094058417
-0.0019716998 0.0012799987 0.001417492 0.00023342093 0.0012105057 0.00024177495 -0.00035011693 -0.0004969232
-0.0011815387 0.00015098059 0.00015789177 0.0014465258 0.0011282592 0.0010265432 0.0007532876 -0.0014282583
-0.0011513585 -0.0020450233 0.0008127503 0.0013752703 -0.00034508193 0.00023488942 0.00024751658 -0.000815409
0.0015350649 -0.0007034141 -0.002063804 -0.0009065918 -0.0017790417 0.00048655138 0.00017226879 0.0018844903
00000000: 9e75 2a39 8d4a 99b9 3385 e5b9 e48f 7939
00000010: 5deb 963a 2dbd f0ba 1ff0 18ba 2bcb 8b39
00000020: 6d20 8a3a 80f3 273a 4fe4 2fbb ba64 96b8
00000030: 17a8 9eba d6f4 993a fab5 18ba 0b2d a23a
00000040: e6b2 4bba f98d 2fbb 582b 2a3a 6466 8f3a
00000050: 0753 c0ba 7112 14bb ad24 5f3a d1f4 2bba
00000060: 4218 513a 01ea 0ebb e298 bbb9 a80e 27bb
00000070: a424 74ba d1b5 cdba 32c7 c3ba c229 4eba
00000080: a7ce 843a 53ef f7ba b996 d438 7aa7 e9ba
00000090: a7a3 57ba 0a47 d73a dbd0 c8b9 59fa 9039
000000a0: 06b1 38ba 6477 d339 1ef5 b0b8 b767 f1ba
000000b0: f9f5 c03a 24a2 5fba 0958 a33a 3658 f43a
000000c0: 9793 1cb9 d588 533a 71ae cf39 fc23 94b9
000000d0: 29f5 99b9 9d1c a43a ec66 b9b8 a09c 8836
000000e0: 368f e6b9 59e6 07ba d401 e6ba 8477 773a
000000f0: caee 4e39 c31d c7ba a201 99ba ec8a 883a
00000100: b870 03ba 7438 60ba 52a5 a73a 743e 49ba
00000110: e89b 9439 9f83 0c3b a100 1d3a 0a0f 6e3a
00000120: 8f6d e2ba e9ab 81ba d509 b3ba dfcb 4d3a
00000130: 4ced 5bba 4c2d e43a a8c4 f5b9 70e1 873a
00000140: e58e 80ba 0f0e a53a fab0 0c39 ebe5 7aba
00000150: cdae 1d3a 0a20 8939 6e6b dc39 ac03 d03a
00000160: b4ca 27b9 c353 b8ba 110f c7ba fdfa 903a
00000170: dbcf ce3a b107 53ba 100e cfba 44d0 533a
00000180: 6fd8 023b ceb2 ee3a b2a2 2a39 63f5 8dba
00000190: 95b7 1bbb aff9 77ba a09e ebb9 44e7 35bb
000001a0: 607b 603a 8857 43ba 3261 78ba 9fa5 4238
000001b0: b846 423a 4134 a5ba c3ce df38 f25b 18bb
000001c0: 74a6 a2b9 4a24 233a a4f0 f5ba aa82 2a3a
000001d0: 52d7 f0b9 d23c 0a3a ce20 5eba cc96 6339
000001e0: 69b5 cdba 322e c43a 6a95 e939 6c73 d639
000001f0: 1ca1 3fba e2b9 413a dea4 213a 5d64 5c3a
00000200: e42d 5a3b 6e56 ad3a c255 58ba 12c7 cbba
00000210: 715f a2ba 859e b0ba 5de6 03ba 695c c439
00000220: c95b 80b9 7d9e 22ba 6beb 13ba 8059 0cbb
00000230: 14b4 23ba db22 c03a 69ad 72ba 6381 19bb
00000240: 3dc5 d9ba 1908 0dba 90a3 513a b0fb 223a
00000250: 951b 94ba a800 e0b8 da92 dc3a 6c79 43b9
00000260: 2795 8bba 0417 13ba fd16 c8b9 364f c63a
00000270: 9c18 acb8 6fde acba cd14 1438 67e7 803a
00000280: 0831 743a 975a ef38 eb5b 1cba 74ce a8ba
00000290: cda3 703a a852 0b3b 345e e2ba fed9 0039
000002a0: 99dd 4e3a c91a b4ba 80c5 8039 2925 90b9
000002b0: 0be3 c63a 9267 883a 00af 97ba fddb 1bbb
000002c0: 1e1f dcba aa55 2f3a b948 c3ba 9a6f 44ba
000002d0: 868a cc3a de0c 153a 84fa 033a e5c9 cdba
000002e0: 3b6f 1d39 0244 72ba f170 a5ba 9eca 36bb
000002f0: 3b84 88ba 626a 53ba b143 61ba a67d ce39
00000300: 7c17 8a3a 6ad3 313a 8c40 a83a 3391 d23a
00000310: 2b5c e9ba dc0e 42ba 4540 aeba 48c5 9f3a
00000320: 9a7e 8b39 aaaa dcba dfec c43a afe6 e53a
00000330: 420e 51ba cb46 06bb b72d ff39 c533 afb9
00000340: 6f00 1fbb 1f0e df3a 521c d439 8469 43ba
00000350: 5a50 033a 4a06 453a 5ced abba 051f 083b
00000360: 6e9d 0d3a 9969 ea39 6918 d63a 2ec2 6d38
00000370: 6109 3e39 b691 8c3a 7a31 4c3a 8991 76ba
00000380: a237 01bb a1c5 a73a 24cb b93a 74c2 7439
00000390: d5a9 9e3a f884 7d39 e68f b7b9 f443 02ba
000003a0: dcdd 9aba 8b50 1e39 c08f 2539 5a99 bd3a
000003b0: 19e2 933a 138d 863a 4678 453a 6534 bbba
000003c0: 2ee9 96ba cc05 06bb c00e 553a 6a42 b43a
000003d0: 1dec b4b9 a64c 7639 1dc5 8139 2cc1 55ba
000003e0: 3b34 c93a 5265 38ba e340 07bb 59a8 6dba
000003f0: bc2e e9ba d217 ff39 0da3 3439 0001 f73a

network_body._body_endoder.seq_layers.2.weight f4 [256, 256]
0.05553243 -0.0065768776 -0.072383426 0.043301545 -0.056827936 0.044810466 0.07849372 -0.013917881
-0.0733894 0.04077141 -0.03126272 0.017251289 -0.05543124 0.017313583 -0.04965771 0.07613311
-0.04041992 -0.025875108 0.059078913 -0.012408071 0.052458737 -0.16365433 0.13110423 -0.06404002
0.002013242 -0.019578002 0.01585051 -0.007996899 0.035265323 -0.12012137 -0.04459958 -0.054940075
-0.015491525 -0.00030504641 0.05687614 0.043361682 -0.07734959 -0.09549574 -0.05251239 -0.08382794
0.021146802 0.02962682 -0.040952623 -0.020851066 -0.048382677 -0.06258584 0.0099701565 -0.0013689949
0.039748278 -0.02802164 0.055685684 -0.08173641 0.040852048 -0.027531402 -0.014194503 0.029166637
-0.17323665 -0.049108997 -0.017916385 -0.15117303 0.059053365 0.023704497 0.08329217 0.07925105
-0.0012808366 0.1334194 -0.054906502 0.07060153 0.073188245 0.031139135 0.034163643 0.12285836
-0.01396532 -0.07304262 -0.01484019 0.023909193 -0.015778162 0.06462151 0.028293708 0.17540134
-0.037558123 0.028327825 0.004326296 0.10553426 -0.0016968878 -0.05985219 -0.003242611 0.13996586
0.0053091487 -0.13947901 0.018301558 -0.024562884 0.027922537 0.09162425 -0.022936381 -0.018284876
0.047555786 -0.037108455 -0.13002075 -0.007673558 0.0636203 -0.05944915 0.0077132066 0.113219425
0.069888815 0.057547078 -0.09618394 -0.07722024 -0.0053809606 -0.089906104 -0.087721355 0.045150973
0.018994382 0.008656434 -0.06211627 0.0075335684 -0.027903225 0.10016896 -0.014458022 0.0049684043
0.03513772 -0.000537045 -0.017203791 -0.04914696 -0.047995284 0.00635133 -0.020046225 0.041127555
0.06639817 -0.032743104 0.05804998 -0.03432688 -0.05251813 -0.11375832 0.086389326 -0.05443717
0.063958526 0.07208139 0.081261545 -0.011590289 0.032185074 0.031298615 0.09376105 -0.08984632
0.036295127 -0.067589305 0.043461815 0.11686463 -0.012123547 0.037160676 -0.026096126 -0.14577064
-0.10666146 0.075262874 -0.03650047 -0.014280341 -0.04837179 -0.021776656 -0.163429 0.13032515
-0.12501281 0.013704892 0.0029783105 0.10605104 0.04917624 -0.01709656 -0.017059641 -0.103303395
0.06983113 -0.04876158 0.032927465 -0.009237521 0.051616777 -0.003979429 -0.025775384 -0.039405834
-0.035676587 0.20021828 -0.04183348 0.0033157014 0.0149772735 0.029917022 -0.09154204 -0.036607273
-0.058115426 -0.13060132 0.011568488 -0.0584293 0.025716467 -0.1023707 0.047911137 0.076812744
-0.03771924 -0.034800064 -0.002626027 -0.009794809 0.026334139 0.0484054 -0.008829421 0.0025381625
0.0047806143 0.004174634 0.0996389 -0.0007990175 0.028095381 -0.014436605 -0.074851654 0.023713928
-0.18330663 -0.02418324 -0.06092524 -0.0489774 0.03522118 0.035488937 -0.17439066 -0.06347444
0.023396103 -0.076994754 -0.06781936 0.050730083 0.01213349 0.045594085 -0.012956331 0.068522304
0.04330057 -0.06287218 -0.071301445 0.06897701 0.08706923 0.11375174 0.098689124 0.024047868
0.1966706 0.03828949 -0.1364963 -0.01069017 -0.005660808 -0.037805285 -0.00036655396 -0.017248893
0.039752353 -0.0008882844 0.067385726 -0.07807898 0.113821484 0.0131359175 0.009494217 -0.11683409
0.0011637434 -0.08692328 -0.09959383 0.03353037 0.15449761 -0.069783725 -0.022677945 -0.06600437
00000000: f975 633d d982 d7bb c33d 94bd f65c 313d
00000010: 69c4 68bd 2e8b 373d 51c1 a03d d307 64bc
00000020: 2f4d 96bd ecff 263d 560d 00bd 9352 8d3c
00000030: de0b 63bd 37d5 8d3c e265 4bbd adeb 9b3d
00000040: 5c8f 25bd 09f8 d3bc bbfc 713d 394b 4bbc
00000050: f9de 563d 0095 27be 3040 063e 6a27 83bd
00000060: 99f0 033b 0c62 a0bc eed8 813c 6d05 03bc
00000070: 5f72 103d 3102 f6bd 0dae 36bd d808 61bd
00000080: 2ad0 7dbc a3ee 9fb9 f5f6 683d 059c 313d
00000090: 7669 9ebd 4593 c3bd 3b17 57bd fcad abbd
000000a0: 0f3c ad3c f2b3 f23c f0bd 27bd dbcf aabc
000000b0: ea2c 46bd 012d 80bd de59 233c d96f b3ba
000000c0: 17cf 223d a38d e5bc ac16 643d 6b65 a7bd
000000d0: 7a54 273d 8989 e1bc 1090 68bc dfee ee3c
000000e0: f364 31be 8426 49bd 62c5 92bc 1acd 1abe
000000f0: f1e1 713d ef2f c23c 1695 aa3d 604e a23d
00000100: bfe1 a7ba 189f 083e a4e5 60bd 8997 903d
00000110: b8e3 953d 8017 ff3c 2def 0b3d 2a9d fb3d
00000120: ccce 64bc 5f97 95bd 4524 73bc 36dd c33c
00000130: 3441 81bc 4858 843d 35c8 e73c 699c 333e
00000140: 8cd6 19bd c10f e83c 9ac3 8d3b 5922 d83d
00000150: 1b6a deba 9227 75bd fc81 54bb 3653 0f3e
00000160: 5ef8 ad3b 96d3 0ebe 26ed 953c 1a38 c9bc
00000170: cebd e43c 7fa5 bb3d 14e5 bbbc 2aca 95bc
00000180: dbc9 423d 09ff 17bd 2924 05be 7872 fbbb
00000190: 5c4b 823d f480 73bd 11bf fc3b 96df e73d
000001a0: de21 8f3d 7cb6 6b3d 16fc c4bd a525 9ebd
000001b0: c552 b0bb b120 b8bd 41a7 b3bd 3af0 383d
000001c0: 1b9a 9b3c b7d3 0d3c a16d 7ebd 27dc f63b
000001d0: 4e95 e4bc 6225 cd3d 57e1 6cbc ffcd a23b
000001e0: 92ec 0f3d 7bc8 0cba f7ee 8cbc 534e 49bd
000001f0: b496 44bd d11e d03b fb37 a4bc 5e75 283d
00000200: c4fb 873d a21d 06bd d1c5 6d3d 589a 0cbd
00000210: 401d 57bd 1ffa e8bd e3ec b03d 83f9 5ebd
00000220: b0fc 823d 689f 933d 746c a63d 32e5 3dbc
00000230: 7fd4 033d fa32 003d cb05 c03d 5901 b8bd
00000240: 33aa 143d 436c 8abd 0405 323d b956 ef3d
00000250: d7a1 46bc cb35 183d 8bc7 d5bc e644 15be
00000260: 5371 dabd 6c23 9a3d 8481 15bd 17f8 69bc
00000270: 8021 46bd f564 b2bc ef59 27be f573 053e
00000280: 5c03 00be 7c8a 603c c22f 433b 4a31 d93d
00000290: 066d 493d 160e 8cbc a9c0 8bbc bb90 d3bd
000002a0: a003 8f3d 39ba 47bd f3de 063d f958 17bc
000002b0: 1d6c 533d df65 82bb e626 d3bc 0368 21bd
000002c0: 9d21 12bd 0506 4d3e 9559 2bbd 3d4c 593b
000002d0: 3d63 753c 8b14 f53c 657a bbbd 82f1 15bd
000002e0: 710a 6ebd 5abc 05be c189 3d3c 9053 6fbd
000002f0: 57ab d23c bba7 d1bd 783e 443d 0050 9d3d
00000300: 7d7f 1abd 838a 0ebd 6c19 2cbb 687a 20bc
00000310: b1ba d73c be44 463d 47a9 10bc 4d57 263b
00000320: b3a6 9c3b 5ecb 883b 7b0f cc3d 2875 51ba
00000330: 4928 e63c 8387 6cbc d34b 99bd b643 c23c
00000340: bcb4 3bbe ee1b c6bc bf8c 79bd 879c 48bd
00000350: 1644 103d d95c 113d 7793 32be e3fe 81bd
00000360: 2fa9 bf3c 6daf 9dbd e0e4 8abd 59ca 4f3d
00000370: 8ccb 463c ddc0 3a3d ca46 54bc 6c55 8c3d
00000380: f05b 313d 21c3 80bd 7e06 92bd d243 8d3d
00000390: 5a51 b23d acf6 e83d 861d ca3d 0900 c53c
000003a0: 0564 493e 71d5 1c3d b0c5 0bbe d325 2fbc
000003b0: 4d7e b9bb b7d9 1abd 0a2e c0b9 8d4d 8dbc
000003c0: 5dd3 223d c2db 68ba 8701 8a3d dfe7 9fbd
000003d0: 3d1b e93d 0838 573c a28d 1b3c b646 efbd
000003e0: c088 983a d504 b2bd daf7 cbbd 2457 093d
000003f0: 9f34 1e3e c5ea 8ebd 19c7 b9bc 4d2d 87bd

network_body._body_endoder.seq_layers.2.bias f4 [256]
0.002083049 -0.0010947312 0.00045046525 0.0006179661 -0.002090239 0.00019886125 -0.001381583 -0.0014467151
-0.0002246879 0.0003727789 8.3636594e-05 0.0001503351 -0.000108694105 -0.00030986988 -0.0004994603 -0.002660565
-0.00013945195 -0.0019563767 0.00060916017 -0.0014558401 -0.0011850414 -0.00013805623 -0.00070381036 0.0008635585
0.000998001 8.403293e-05 1.6332124e-05 0.00075917656 -0.00085037155 -0.0001771924 -0.0007608668 -0.0017602658
0.00086032983 -0.0006547452 -0.0015196394 -0.0027501518 -5.848919e-05 -5.4783533e-05 0.0011906899 -0.00038066786
0.001183728 0.00017955615 -0.0007224744 0.00097255857 -0.00056565343 -0.0007733291 0.00038720478 0.00061862986
-5.9548183e-06 0.0004617835 0.00042573916 -0.00010201974 -0.000121086196 -0.0010713284 0.00050498766 -0.00048398282
0.0007766152 -0.0013044642 0.0007560982 -0.00051537016 0.0013860579 0.00073124765 -0.001609033 0.00053343474
-0.0021631867 -0.0016828266 -0.0010558378 0.00031040938 0.0008222343 -0.0018466028 -7.255265e-05 0.00091991783
0.0014654141 0.0018338695 -0.0007454947 -0.0009647127 0.0007604433 0.00024105402 0.001655702 2.7464564e-05
-0.0013274206 0.0010165178 -0.00044866235 0.00038018002 0.00179267 -0.0007395642 2.9800169e-05 0.0004236632
-0.0015797422 -0.0015271932 0.00010566 0.0005056159 0.0029319068 0.0003391963 0.00042749633 0.0001364489
-0.00049560174 -0.0008004656 0.0020925726 0.00012777679 0.00053741224 -0.00048730997 0.0017337516 -0.0005057203
0.0010021088 0.00023360658 0.0005101484 0.0006354509 0.0012760995 0.0010267149 8.026851e-06 0.00050615205
-0.00058294355 0.00060392194 -0.0013243748 0.0010952345 -0.0010304081 0.0005984443 -3.2249016e-05 -0.0008635658
0.00022630184 0.00040786422 -0.00071055035 -0.0016264245 -0.0016764508 0.00019175727 3.4421915e-05 0.0002969586
-0.0003980189 -0.00050894695 0.00038734757 0.0013157367 4.6017652e-05 0.001235421 -0.00018091386 0.0007248667
-0.0019006586 0.00062782626 0.00095756905 0.00021706222 -0.00032789202 -0.00024271797 0.00021498073 0.00072560826
0.0012075955 0.0020408141 0.0017242864 -0.0006977691 0.00045789548 -0.0016750458 0.0013114633 -0.0025862127
-0.00024729013 0.0006660542 0.0016710524 0.0006443132 -0.0007465524 -0.002810379 -0.0020725876 0.00048925035
-0.00039686856 0.00093971984 0.00025945462 0.00023456731 -0.000800308 -0.00049980474 0.000720534 0.0017812251
-0.0011785039 0.001151243 0.0002791117 0.00059884554 0.00073061156 0.00070662 0.00058671733 0.0015984605
-0.0003402048 -0.00089658925 0.0012193938 -0.00043664503 -0.00011813713 0.00076735805 -0.00027114962 0.0011527323
0.002296107 0.0014599648 0.00021643193 8.479929e-05 0.0002802673 -0.00033617916 -0.00087967294 -0.0008091775
0.0010813464 -0.001174924 -0.00061766984 -0.00069338706 9.61505e-05 0.00066056754 -8.114318e-05 -0.00029485754
0.00053066935 0.0002661005 -0.0016755988 -0.00072729343 -0.0004215553 0.00043099473 -0.00042644487 -0.0011167657
-0.0001287192 0.0016066123 -0.0021959203 0.0022778246 0.0021650696 -0.0006881434 -0.0021945196 0.00093608024
-0.0010363652 -0.0019886286 -0.0010071787 0.0005817476 0.0016552828 0.0014853387 -0.0019771904 0.0018416084
0.0017612579 6.625611e-05 0.0021888367 0.002124767 -0.0007732217 -6.303301e-05 0.0009844977 -0.00038696826
6.7208166e-05 0.0008976979 -0.00017503432 0.0013963322 0.0002671223 -0.00033099498 0.0012814016 -0.0011499947
0.002631122 0.0013226469 -0.0013544286 0.0001451362 -0.00019116286 0.0013614384 -0.00032397703 -6.949554e-05
0.0015986185 0.0005605261 0.001817612 0.0020245118 0.00095631194 -0.001199775 -0.0012727847 7.646289e-06
00000000: c383 083b 157d 8fba 6c2c ec39 01ff 213a
00000010: 64fc 08bb 6985 5039 3c16 b5ba b49f bdba
00000020: 339a 6bb9 8971 c339 0e66 af38 45a3 1d39
00000030: b4f2 e3b8 0876 a2b9 37ee 02ba e05c 2ebb
00000040: d939 12b9 8e36 00bb 0cb0 1f3a e3d1 beba
00000050: 6453 9bba 30c3 10b9 ea7f 38ba 6e60 623a
00000060: 5bcf 823a d63a b038 f800 8937 7a03 473a
00000070: 78eb 5eba b9cc 39b9 e874 47ba b8b8 e6ba
00000080: c287 613a 35a3 2bba a32e c7ba e43b 34bb
00000090: 4a52 75b8 5fc7 65b8 ec10 9c3a 6094 c7b9
000000a0: 5227 9b3a 3d47 3c39 7064 3dba 4df3 7e3a
000000b0: 5c48 14ba 3db9 4aba bf01 cb39 8c2b 223a
000000c0: 80cf c7b6 881b f239 be35 df39 6ef3 d5b8
000000d0: a8ef fdb8 d16b 8cba 2661 043a 13bf fdb9
000000e0: c495 4b3a 8efa aaba e434 463a e819 07ba
000000f0: 63ac b53a 33b1 3f3a 30e6 d2ba 33d6 0b3a
00000100: 40c4 0dbb 4a92 dcba 0a64 8aba 71be a239
00000110: 368b 573a b509 f2ba 6827 98b8 a426 713a
00000120: 2313 c03a 735e f03a 4d6d 43ba c6e4 7cba
00000130: 7c58 473a 72c3 7c39 2404 d93a b463 e637
00000140: d8fc adba ad3c 853a 713a ebb9 e652 c739
00000150: 06f8 ea3a 50df 41ba 60fb f937 1d1f de39
00000160: 5a0f cfba 1a2c c8ba c895 dd38 4f8b 043a
00000170: 3c25 403b 28d6 b139 9621 e039 b913 0f39
00000180: 45eb 01ba 56d6 51ba 8b23 093b d2fb 0539
00000190: 20e1 0c3a a37d ffb9 0d3f e33a 5192 04ba
000001a0: 3159 833a 4af4 7439 7bbb 053a 6394 263a
000001b0: cb42 a73a d692 863a 10ab 0637 4aaf 043a
000001c0: aed0 18ba 8450 1e3a a596 adba f98d 8f3a
000001d0: c20e 87ba ebe0 1c3a 1e43 07b8 eb60 62ba
000001e0: 704b 6d39 9cd6 d539 3a44 3aba c02d d5ba
000001f0: 5bbc dbba 7312 4939 4060 1038 1cb1 9b39
00000200: 31ad d0b9 da6a 05ba e914 cb39 cc74 ac3a
00000210: 1403 4138 daed a13a b2b3 3db9 fb04 3e3a
00000220: 851f f9ba b594 243a 5f05 7b3a 329b 6339
00000230: ece8 abb9 1c82 7eb9 736c 6139 bf36 3e3a
00000240: 2e48 9e3a 2ebf 053b 7301 e23a 7eea 36ba
00000250: b111 f039 368d dbba 68e5 ab3a 737d 29bb
00000260: b8a6 81b9 249a 2e3a 3707 db3a 20e7 283a
00000270: 49b4 43ba 562e 38bb 40d4 07bb 0941 003a
00000280: cc12 d0b9 8857 763a 6907 8839 2ff6 7539
00000290: c3cb 51ba 5405 03ba 38e2 3c3a ff77 e93a
000002a0: 0778 9aba 4ee5 963a bd55 9239 d8fb 1c3a
000002b0: 8386 3f3a 773c 393a efcd 193a 6f83 d13a
000002c0: 845d b2b9 1609 6bba 11d4 9f3a 81ed e4b9
000002d0: 64c0 f7b8 8728 493a 1629 8eb9 4717 973a
000002e0: 487a 163b 4a5c bf3a 01f2 6239 46d6 b138
000002f0: d7f0 9239 3441 b0b9 da99 66ba fc1e 54ba
00000300: f7bb 8d3a e8ff 99ba 1feb 21ba 6bc4 35ba
00000310: 68a4 c938 f029 2d3a 6a2b aab8 1c97 9ab9
00000320: 9e1c 0b3a 6883 8b39 c49f dbba d6a7 3eba
00000330: 3204 ddb9 22f7 e139 7694 dfb9 7060 92ba
00000340: ccf8 06b9 f794 d23a 6ee9 0fbb 8e47 153b
00000350: d7e3 0d3b 8664 34ba eed1 0fbb 4863 753a
00000360: a5d6 87ba a753 02bb 4f03 84ba 6c80 183a
00000370: 13f6 d83a b2af c23a c093 01bb 2062 f13a
00000380: 02da e63a faf2 8a38 9672 0f3b ad3f 0b3b
00000390: 08b2 4aba 9730 84b8 430a 813a 00e2 cab9
000003a0: 1cf2 8c38 7c53 6b3a 6b89 37b9 2205 b73a
000003b0: 8c0c 8c39 6589 adb9 b4f4 a73a 6bbb 96ba
000003c0: e76e 2c3b aa5c ad3a 1587 b1ba b42f 1839
000003d0: e472 48b9 4b72 b23a 76db a9b9 22be 91b8
000003e0: bc88 d13a 45f0 123a f03c ee3a acad 043b
000003f0: 02b1 7a3a c541 9dba 91d3 a6ba 9048 0037

network_body._body_endoder.seq_layers.4.weight f4 [256, 256]
0.055225674 0.05315881 0.071099274 0.0013002942 0.13395786 0.02143128 -0.05667989 0.055322453
0.028927265 0.04419788 0.113712296 0.030382844 -0.101939864 -0.078624465 -0.08969878 -0.03099347
-0.036132324 -0.073105305 0.042586103 -0.040922955 0.15115185 -0.008354484 -0.034257118 -0.07042277
-0.12579843 0.04418184 0.010543748 -0.010422965 0.038530134 0.031206131 0.12050639 -0.059134025
0.012854062 0.04256877 0.042240307 -0.11912625 -0.13900496 -0.08252277 -0.08126947 -0.010775312
0.03713177 0.14853537 0.08254393 0.12454003 -0.019851577 -0.07929049 0.014209216 0.016438393
0.05883294 0.088715844 0.009984934 0.0051879617 0.0264271 -0.070836134 -0.0842999 0.029510945
0.040822007 0.090454526 -0.008262184 -0.0755199 0.035232477 -0.004273511 0.029019577 -0.09245381
0.027374944 0.026534926 0.06118729 0.078922726 0.050103582 -0.06450385 -0.057542775 0.06492556
0.047270298 -0.013566037 -0.084404275 0.020380152 -0.029920075 0.042843584 0.03427177 0.038032744
0.06462761 -0.05190833 -0.03743801 0.0038212223 0.015730795 -0.13146357 -0.109957464 0.10209478
0.02021033 -0.06504279 -0.028158277 0.034596503 -0.019545995 0.12358664 -0.005177085 -0.020496875
0.004843733 0.09057186 0.009100379 -0.017071225 -0.027838243 -0.09585125 -0.06389177 0.05880839
0.026954288 0.029382357 -0.090253204 -0.07581423 -0.004803571 0.10629621 0.041697763 -0.05709012
-0.05688631 -0.061649926 -0.021556241 0.020237084 0.153309 0.04839564 -0.13583332 0.054831255
-0.05817883 -0.08314493 -0.024724737 0.0042902157 0.057166222 -0.03788627 0.06931173 -0.04341112
0.09707123 -0.092452064 -0.04360896 -0.09188503 0.045218237 -0.047490697 -0.015117679 -0.06755583
-0.026265163 -0.1044387 0.031013845 -0.0054501407 -0.10715285 0.02774326 -0.060679235 -0.035369717
-0.07128206 -0.07958649 0.13463174 0.003554269 -0.036012784 -0.014534989 0.10703083 0.012576283
0.11200298 -0.016299393 0.021575062 0.0057091387 -0.031148009 0.013227828 0.063131034 0.045652997
0.09851481 -0.058093753 0.024759335 0.021002917 0.030192092 -0.09736608 -0.117865816 -0.045439303
0.0036396368 0.03288126 -0.049897123 -0.045493487 0.013473431 -0.2335075 0.038362756 -0.0080096
0.042413402 -0.10225133 0.04744113 0.091006614 -0.03879018 0.07000642 0.04866334 -0.06613104
-0.04699383 0.10076779 0.005760449 0.0037914428 0.02718371 -0.09296943 0.034008957 0.046095993
0.0274745 -0.048473835 -0.007893236 0.037436374 -0.008266694 0.113699235 0.013712675 0.032168474
-0.012812428 0.10567525 0.056556035 -0.013858369 -0.06515634 -0.0187365 0.061106496 -0.024422193
0.045053355 -0.0071486216 -0.060455088 -0.05974689 0.019459017 -0.05009988 -0.0038314064 0.1163059
-0.047164395 0.024191657 -0.034611326 0.033138853 0.049627412 0.027187414 -0.030340083 0.05441589
-0.043007288 -0.093658626 -0.045196142 -0.023285832 0.09525351 -0.118452914 -0.022186771 0.018193949
-0.06425972 -0.040855754 -0.020563232 0.002154623 0.011287511 -0.06947126 0.046829995 -0.15733798
0.05357997 -0.01315092 0.03158979 0.0032759362 0.08060775 -0.019640328 0.0143286185 0.011856949
-0.01948038 -0.024176778 -0.05558461 0.025975188 0.008171251 -0.09631084 0.038489707 0.07479147
00000000: 5134 623d 0dbd 593d 7f9c 913d a26e aa3a
00000010: 402c 093e a790 af3c 2c29 68bd cc99 623d
00000020: dff8 ec3c d608 353d fee1 e83d 71e5 f83c
00000030: d9c5 d0bd dd05 a1bd feb3 b7bd 05e6 fdbc
00000040: 7dff 13bd 3cb8 95bd c46e 2e3d d49e 27bd
00000050: 8dc7 1a3e 3fe1 08bc 3151 0cbd d039 90bd
00000060: 4ed1 00be 04f8 343d afbf 2c3c 15c5 2abc
00000070: c6d1 1d3d 00a4 ff3c 0ecc f63d 8536 72bd
00000080: d899 523c 975c 2e3d 2c04 2d3d 77f8 f3bd
00000090: 5157 0ebe b301 a9bd 9c70 a6bd ef8a 30bc
000000a0: 7c17 183d a819 183e cb0c a93d d80e ff3d
000000b0: c69f a2bc 0d63 a2bd c6cd 683c cfa9 863c
000000c0: cffa 703d a7b0 b53d d997 233c c7ff a93b
000000d0: a57d d83c 8912 91bd 6da5 acbd f0c0 f13c
000000e0: fa34 273d 3940 b93d 1d5e 07bc 2daa 9abd
000000f0: ee4f 103d cf08 8cbb 77ba ed3c 6c58 bdbd
00000100: 6b41 e03c c65f d93c 869f 7a3d 3da2 a13d
00000110: 6a39 4d3d 981a 84bd f9b1 6bbd b1f7 843d
00000120: 809e 413d 1544 5ebc 26dc acbd 47f4 a63c
00000130: f21a f5bc c17c 2f3d 8e60 0c3d 39c8 1b3d
00000140: 7b5b 843d d49d 54bd 9958 19bd 796d 7a3b
00000150: dedd 803c 639e 06be 6131 e1bd 1117 d13d
00000160: 2290 a53c 2735 85bd 30ac e6bc 10b5 0d3d
00000170: ec1e a0bc fe1a fd3d 89a4 a9bb 10e9 a7bc
00000180: 2db8 9e3b bd7d b93d c219 153c f4d8 8bbc
00000190: 070d e4bc a94d c4bd b0d9 82bd 11e1 703d
000001a0: 3dcf dc3c 45b3 f03c acd6 b8bd 7e44 9bbd
000001b0: 4667 9dbb d4b1 d93d 46cb 2a3d 54d7 69bd
000001c0: 9f01 69bd a284 7cbd b796 b0bc 3ec8 a53c
000001d0: 09fd 1c3e 823a 463d e417 0bbe bd96 603d
000001e0: ed4c 6ebd e447 aabd 888b cabc f094 8c3b
000001f0: 2127 6a3d a22e 1bbd 4ff3 8d3d dccf 31bd
00000200: 48cd c63d 8257 bdbd 4f9f 32bd 382e bcbd
00000210: c236 393d 9b85 42bd 24b0 77bc b65a 8abd
00000220: 0a2a d7bc f5e3 d5bd bf10 fe3c 1897 b2bb
00000230: f472 dbbd d545 e33c ca8a 78bd d6df 10bd
00000240: 54fc 91bd 3efe a2bd e7dc 093e bdee 683b
00000250: 2482 13bd 2a24 6ebc fb32 db3d c10c 4e3c
00000260: d261 e53d 4e86 85bc 2fbe b03c ba13 bb3b
00000270: 1c2a ffbc 88b9 583c d84a 813d a3fe 3a3d
00000280: 22c2 c93d b7f3 6dbd 17d4 ca3c 4f0e ac3c
00000290: 6855 f73c de67 c7bd a263 f1bd 901e 3abd
000002a0: f986 6e3b 80ae 063d ed60 4cbd 6157 3abd
000002b0: aabf 5c3c 971c 6fbe 4422 1d3d b33a 03bc
000002c0: adb9 2d3d 2569 d1bd a151 423d ad61 ba3d
000002d0: 74e2 1ebd 875f 8f3d 3653 473d b66f 87bd
000002e0: 9a7c 40bd 585f ce3d 26c2 bc3b db79 783b
000002f0: 5fb0 de3c c266 bebd fa4c 0b3d 27cf 3c3d
00000300: 3412 e13c 808c 46bd a252 01bc e256 193d
00000310: 0771 07bc 25db e83d 21ab 603c 17c3 033d
00000320: 38eb 51bc 446c d83d 4da7 673d 360e 63bc
00000330: b070 85bd 4a7d 99bc ce4a 7a3d 0d11 c8bc
00000340: de89 383d fc3e eabb c19f 77bd 28b9 74bd
00000350: 8468 9f3c 8835 4dbd 5518 7bbb ca31 ee3d
00000360: 742f 41bd 952d c63c 9bc4 0dbd 9bbc 073d
00000370: 1d46 4b3d 24b8 de3c c48b f8bc 32e3 5e3d
00000380: 6928 30bd 18d0 bfbd 971f 39bd eec1 bebc
00000390: 4614 c33d 7197 f2bd 08c1 b5bc 7a0b 953c
000003a0: 9a9a 83bd 5d58 27bd 3974 a8bc 9334 0d3b
000003b0: 41ef 383c f346 8ebd cfd0 3f3d 351d 21be
000003c0: ac76 5b3d f576 57bc 4c64 013d 17b1 563b
000003d0: ad15 a53d c1e4 a0bc 95c2 6a3c a643 423c
000003e0: 5195 9fbc 610e c6bc b0ac 63bd ebc9 d43c
000003f0: b6e0 053c 9e3e c5bd 62a7 1d3d 452c 993d

network_body._body_endoder.seq_layers.4.bias f4 [256]
0.00044440886 -0.0005812322 -0.00034106625 0.00037036696 0.0012944349 0.0009974018 0.0012269056 -0.0009688622
-0.00012970524 -0.000693947 -4.3087464e-05 0.00046637515 0.0006684692 -0.0011534932 0.0012478433 -0.0005377504
-0.00054580515 0.0014420694 -0.0010649014 -0.00049483165 0.000880257 -0.0022549075 -0.0004835862 0.0013877645
-0.00025521772 -0.00021042745 0.0012878281 0.0014185456 -0.0004668726 0.0012184624 -0.0003748948 -0.00067524175
-0.0019387581 -0.00012253503 0.0007107156 0.00011064096 5.803642e-05 -0.00037981453 -0.0017376652 -0.000566307
0.0006192404 -0.001671529 -0.0010838 -0.00022190888 0.0010975723 0.0010261118 0.002353067 -0.0016585457
-0.00013468359 -0.0015697969 0.001218033 7.9349775e-05 0.0015114145 0.0011852493 -0.0015603583 -0.0022339446
0.00014981991 7.263075e-05 0.0025204828 0.00075777393 -0.0009931341 -0.0009051045 0.0008422005 -0.00070455135
0.00088519417 -0.00016981275 -0.0020059464 0.0009382264 -0.0018215564 -0.00024275374 -0.0013407107 0.00050765614
-0.00034412014 -0.0018962127 -0.0014748509 -7.610681e-05 0.00041580398 -0.001003449 -0.0006383719 -0.0007620413
0.0010820618 -0.00027897593 -0.0014089564 0.00039872504 0.00079852715 0.00086789305 -0.0005858908 -0.0001360894
-0.0012208404 -0.0017010921 0.002031155 -0.0004084287 0.00082829903 -0.000507538 7.487639e-05 -0.0005710015
-0.0005440615 0.00080765435 0.002336354 0.000665017 -8.026434e-05 -5.6236255e-05 0.0008808387 -0.0009954196
0.0012032839 -0.0012527481 0.00045577635 -0.001749076 0.0014907137 -5.4932476e-05 -0.001887007 -0.00084994023
0.0020424172 -0.0010404043 -6.074582e-05 -0.00042012823 -0.0011183486 -0.0019050619 0.0012662081 -0.00031407108
0.00025279092 0.0018333953 0.0013540173 0.00050435937 -0.00012409696 0.0010781387 0.0012545165 0.0015815983
0.0015684844 0.0003994041 0.00015459262 0.00044220034 -0.0017964836 -0.00062757346 0.00024580077 0.001284517
0.0009815241 -0.00010473491 -0.0003579369 -0.0010371631 0.0020478955 -0.0015494779 -0.00073387724 -0.00042384496
0.0005175287 0.0012203481 0.0002035638 0.00048047877 0.00093418057 0.00068547326 0.000561882 9.96445e-05
0.0011824552 0.00017487476 -0.00045587585 0.000506714 0.0012218825 -0.0018018858 0.00039810347 -0.0005307004
-3.2641154e-05 0.00049060065 -0.0006303277 -0.00022158047 0.0012923355 -0.0008477841 0.001648284 0.0010014533
0.00089595036 0.0023297335 0.0015322324 -0.0012733098 -0.0012207438 0.00072983565 -0.00029285575 -0.0009535735
-0.001468739 -0.00029708166 0.0007709785 -0.0027247742 0.0020874434 -0.00022731576 -9.411293e-05 0.00022304087
-0.00034380303 -0.0004502326 -0.001167612 -0.00032014525 0.002985329 0.00090322533 0.0005677981 6.2826875e-06
-0.0022394315 0.0019845692 -0.0015290513 0.00046901393 -0.002895844 -0.000978287 0.0011975513 0.0002557447
0.0010207727 -0.0015297155 0.00048585594 0.00012066525 0.0020437818 -0.001273755 -0.00034099552 -0.0010438116
0.0007995099 -0.0008967561 -0.000993769 -0.0005278409 -0.0008467421 0.0014693796 -0.0005645308 0.0018476272
0.0014599999 6.440298e-05 0.00073064474 -0.0008558978 0.0014640826 -0.0013115698 0.00011023818 -0.00034589102
-0.00051659707 -0.00012383205 0.0017611434 0.00023431197 0.001884245 0.0005472661 -0.0012346726 0.002572176
-0.0016819516 -0.000750294 -0.00080906117 -0.0015165616 -0.0010837775 0.0014790812 0.0003818052 0.00033582555
9.5812524e-05 0.00207558 0.0008964392 0.0012934874 -0.00025353482 -0.00070557365 -4.7724287e-05 0.00039322537
-9.629378e-05 -0.0008474481 -0.00018215648 0.0017229669 -0.00022400387 -0.0016468687 -0.0012463066 -0.0004549217
00000000: 8cff e839 d55d 18ba 23d1 b2b9 d02d c239
00000010: 07aa a93a 40bb 823a 1fd0 a03a 3efb 7dba
00000020: 7c01 08b9 ffe9 35ba d0b8 34b8 d083 f439
00000030: 353c 2f3a cf30 97ba ac8e a33a d2f7 0cba
00000040: 5d14 0fba d203 bd3a 2994 8bba 97b7 01ba
00000050: 0cc1 663a 12c7 13bb d789 fdb9 a6e5 b53a
00000060: bece 85b9 30a6 5cb9 57cc a83a 7eee b93a
00000070: 94c6 f4b9 d0b4 9f3a 878d c4b9 b502 31ba
00000080: ed1d feba bf7c 00b9 514f 3a3a ea07 e838
00000090: 226c 7338 d821 c7b9 5ec2 e3ba 3874 14ba
000000a0: 8554 223a 3517 dbba 4b0e 8eba 36b0 68b9
000000b0: 6adc 8f3a 997e 863a ea35 1a3b 8f63 d9ba
000000c0: da39 0db9 a5c1 cdba 68a6 9f3a 9668 a638
000000d0: a81a c63a 5e5a 9b3a f084 ccba 5f67 12bb
000000e0: fa18 1d39 5651 9838 af2e 253b 59a5 463a
000000f0: 0d2c 82ba 8944 6dba 1ec7 5c3a a4b1 38ba
00000100: 600c 683a c30f 32b9 3276 03bb 4ff3 753a
00000110: 4ac1 eeba b68b 7eb9 c9ba afba 3a14 053a
00000120: 066b b4b9 578a f8ba c94f c1ba 889b 9fb8
00000130: 4400 da39 2986 83ba 6a58 27ba bac3 47ba
00000140: f8d3 8d3a 8443 92b9 bbac b8ba f80b d139
00000150: 4054 513a 5183 633a 7796 19ba 38b3 0eb9
00000160: 9b04 a0ba 2ef7 deba 201d 053b 5f22 d6b9
00000170: 3522 593a 4c0c 05ba f506 9d38 43af 15ba
00000180: 599f 0eba c4b8 533a 841d 193b 8954 2e3a
00000190: 9753 a8b8 38df 6bb8 16e8 663a bd78 82ba
000001a0: 82b7 9d3a 4033 a4ba 44f5 ee39 4041 e5ba
000001b0: 0d64 c33a 4c67 66b8 7355 f7ba 86ce 5eba
000001c0: 13da 053b 2d5e 88ba 54c9 7eb8 a844 dcb9
000001d0: 8d95 92ba 45b3 f9ba e5f6 a53a e8a9 a4b9
000001e0: 0689 8439 8a4e f03a 4879 b13a fc36 043a
000001f0: 0620 02b9 5550 8d3a 976e a43a a24d cf3a
00000200: 9a95 cd3a 1c67 d139 241a 2239 20d7 e739
00000210: fd77 ebba be83 24ba d2de 8039 3d5d a83a
00000220: 7ca6 803a 20a5 dbb8 7aa9 bbb9 6bf1 87ba
00000230: fc35 063b da17 cbba ab61 40ba 8237 deb9
00000240: c3aa 073a 16f4 9f3a be73 5539 c5e8 fb39
00000250: cce3 743a 55b1 333a 434b 133a 3cf8 d038
00000260: 9dfc 9a3a 965e 3739 9f02 efb9 00d5 043a
00000270: 9327 a03a 412d ecba 8bb8 d039 b31e 0bba
00000280: 2ce8 08b8 a79b 003a 933c 25ba 0e58 68b9
00000290: 9563 a93a d43d 5eba 3c0b d83a 3243 833a
000002a0: 36de 6a3a 71ae 183b 30d5 c83a 30e5 a6ba
000002b0: 5d01 a0ba 7152 3f3a 6f8a 99b9 3cf9 79ba
000002c0: b482 c0ba a0c1 9bb9 7e1b 4a3a 2092 32bb
000002d0: 7dcd 083b 9c5b 6eb9 7f5e c5b8 14e0 6939
000002e0: 7640 b4b9 320d ecb9 8f0a 99ba 2bd9 a7b9
000002f0: 82a5 433b 6dc6 6c3a 49d8 143a e0cf d236
00000300: 6dc3 12bb 8c0f 023b 736a c8ba fce5 f539
00000310: 33c8 3dbb dd39 80ba 27f7 9c3a 7915 8639
00000320: 73cb 853a bc80 c8ba 7bba fe39 aa0d fd38
00000330: f8f0 053b 20f4 a6ba a5c7 b2b9 81d0 88ba
00000340: 3396 513a 4814 6bba 5b41 82ba ce5e 0aba
00000350: e7f7 5dba 3398 c03a 05fd 13ba 152c f23a
00000360: 785d bf3a 1610 8738 bd88 3f3a 545e 60ba
00000370: 76e6 bf3a fbe8 abba ac2f e738 b558 b5b9
00000380: 3e6c 07ba ead8 01b9 2bd6 e63a a4b1 7539
00000390: c5f8 f63a 6876 0f3a bdd4 a1ba f491 283b
000003a0: ee74 dcba 61af 44ba 2d17 54ba 5dc7 c6ba
000003b0: 8a0d 8eba bbdd c13a 072d c839 be11 b039
000003c0: f5ee c838 7406 083b 04ff 6a3a 3c8a a93a
000003d0: deec 84b9 3ff6 38ba 902b 48b8 d129 ce39
000003e0: 54f1 c9b8 4727 5eba 4201 3fb9 2dd5 e13a
000003f0: 95e2 6ab9 bedb d7ba 1c5b a3ba 8f82 eeb9

action_model._continuous_distribution.log_sigma f4 [1, 6]
0.0013202527 -0.0003680614 0.000101880185 -0.0017701089 -0.0016193576 -6.8290086e-05
00000000: 540c ad3a 5df8 c0b9 82a8 d538 0003 e8ba
00000010: a040 d4ba f636 8fb8

action_model._continuous_distribution.mu.weight f4 [6, 256]
0.019420115 -0.009352472 0.0037583248 -0.0063306964 -0.008968977 -0.0075609623 -0.009971756 0.0023727592
0.00060649344 -0.021467129 0.007760058 0.0055841706 0.00691046 -0.0041982406 0.0056107785 0.006710808
-0.007958971 0.021482188 0.010596345 0.016555544 0.011883859 -0.0061389976 0.016255435 -0.009546221
-0.021889187 0.0014077638 -0.003732096 0.009745945 0.0028947692 0.004322562 0.017970666 -0.0049311975
-0.0067289546 0.0115653835 -0.00010644375 -0.008442221 0.012168012 0.013768935 -0.0060593635 -0.004703644
-0.015955927 0.002232095 -0.016242838 -0.014938482 0.01374292 0.006631512 -0.00039703606 -0.008647489
-0.013153663 -0.0073955455 0.010550244 -0.006923266 -0.016262986 -0.0055455645 0.009683074 0.001108477
0.013376879 -0.0072096544 0.008822145 0.002050689 0.0102973515 0.0057909735 -0.015388752 -0.011554283
-0.012834436 0.010556869 0.00014702044 -0.007401044 -0.016024733 0.014693318 0.0031179837 0.01695596
-0.0064162216 -0.0029802527 -0.0066890167 -0.018088339 -0.0055850893 -0.0013709236 0.005445591 -0.0043206657
0.019631913 -0.023350898 -0.014451325 -0.007876216 0.0010960884 0.021992426 0.0044641974 -0.01099019
-0.0018704922 -0.0019395212 -3.5961602e-05 -0.0026397042 -0.0029667364 -0.0015109944 -0.00255265 0.0073076384
0.009462846 -0.0025856234 0.0068478007 -0.012627482 0.004581883 0.010387145 0.01895655 7.29373e-05
0.0041044927 -0.0021161349 0.010732604 -0.012513716 -0.0030142546 0.0058575943 0.006052189 -0.017801167
0.009392314 -0.0033869073 -0.006115622 -0.012116396 -0.009493566 -0.019618424 -0.0038263886 -0.0063267555
-0.004564031 0.0071759815 -0.0045222277 0.017090889 -0.03501677 -0.0073009604 0.00076108275 0.010210199
0.0051231054 -0.0013529129 0.017667266 -0.0010992839 0.0035612714 -0.022454461 -0.011493638 -0.028802363
0.020967465 -0.016085552 -0.0107802395 0.005974433 0.018186755 0.0020155073 -0.0108031435 0.00013338483
-0.015077843 -0.0027646832 0.022236206 0.008754267 0.0043623094 -0.012987911 -0.007474956 -0.0015584021
-0.008845052 -0.02901287 -0.022841703 -0.003215571 0.005325015 0.010714346 0.0148064755 0.015796432
-0.00073973555 -0.007322072 -0.006291087 0.013507092 0.007714955 0.011552047 -0.012268886 -0.0020551416
-0.021676786 0.006615017 0.016055264 0.006476743 0.0029928072 -0.012244542 0.012741232 0.017440766
-0.0132387495 -0.015326199 0.0039039254 -0.026633313 0.019090982 -0.015866106 0.014783906 0.004406607
-0.02318505 -0.013038651 -0.0012766238 -0.01147881 0.013697378 -0.0068084006 0.00091252476 -0.0015958885
-0.0047194343 0.006891732 -0.025570424 -0.005005054 -0.012058067 0.0011096235 0.011970178 -0.0072545884
-0.017132748 0.002500694 0.011340857 -0.010781874 0.011615241 0.0010853355 -0.010815744 0.007646814
-0.009713876 -0.019354898 -0.015809022 -0.0029483507 0.017044285 -0.002258369 -0.0064327107 0.00503475
0.030123442 0.0045900433 -0.0071527264 0.001561727 0.01693104 -0.012765027 0.012701709 0.009654336
-0.017608216 -0.00044976932 0.00676932 0.0026703475 0.009826318 0.0008172322 -0.00944883 0.0025739174
0.01643 -0.015994424 -0.010675651 0.0058754142 -0.021222508 0.028166935 -0.027341653 -0.0045907157
-0.0062793596 0.01071477 -0.00288056 0.0012138317 -0.03878075 -0.025319515 0.0023165399 0.0049211793
0.0016028889 -0.022192063 0.018194208 -0.00037857826 -0.005743594 0.0011029292 0.009010725 0.00056537753
00000000: ef16 9f3c 1c3b 19bc 3a4e 763b bb71 cfbb
00000010: 9ef2 12bc f3c1 f7bb 9360 23bc 4b80 1b3b
00000020: 16fd 1e3a d5db afbc 1648 fe3b 6bfb b63b
00000030: 2471 e23b 6591 89bb 9fda b73b 56e6 db3b
00000040: 5866 02bc 6afb af3c 4b9c 2d3c 7e9f 873c
00000050: 84b4 423c a529 c9bb 1e2a 853c c167 1cbc
00000060: f450 b3bc b784 b83a 2e96 74bb 75ad 1f3c
00000070: 2bb6 3d3b 47a4 8d3b 3837 933c e295 a1bb
00000080: 907e dcbb bc7c 3d3c 8e3a dfb8 3e51 0abc
00000090: 575c 473c 1997 613c a08d c6bb 0721 9abb
000000a0: 01b6 82bc 5748 123b b30f 85bc 89c0 74bc
000000b0: fc29 613c 284d d93b 4729 d0b9 33ae 0dbc
000000c0: 7682 57bc 5556 f2bb eeda 2c3c 91dc e2bb
000000d0: f439 85bc 91b7 b5bb c2a5 1e3c 514a 913a
000000e0: b22a 5b3c f73e ecbb c28a 103c da64 063b
000000f0: 39b6 283c 35c2 bd3b 1b21 7cbc 2d4e 3dbc
00000100: 8747 52bc b8f6 2c3c 8029 1a39 7584 f2bb
00000110: 4d46 83bc 3ebc 703c 1657 4c3b 3ae7 8a3c
00000120: 2b3f d2bb 5850 43bb 8a2f dbbb ff2d 94bc
00000130: 2003 b7bb 90b0 b3ba ee70 b23b 5f94 8dbb
00000140: 1bd3 a03c 624a bfbc 40c5 6cbc 3f0b 01bc
00000150: a0aa 8f3a 7629 b43c 6748 923b 3310 34bc
00000160: 4e2b f5ba 8837 feba 7ad5 16b8 e3fe 2cbb
00000170: 946d 42bb 8f0c c6ba 5c4a 27bb ea74 ef3b
00000180: 0e0a 1b3c 9073 29bb 8463 e03b 80e3 4ebc
00000190: 9f23 963b d82e 2a3c c44a 9b3c eaf5 9838
000001a0: fb7e 863b daae 0abb ced7 2f3c 5406 4dbc
000001b0: cd8a 45bb 10f1 bf3b 7151 c63b c1d3 91bc
000001c0: 38e2 193c e0f6 5dbb 8e65 c8bb d983 46bc
000001d0: e78a 1bbc d1b6 a0bc 26c4 7abb ac50 cfbb
000001e0: de8d 95bb 7f24 eb3b 322f 94bb 3102 8c3c
000001f0: bf6d 0fbd e53c efbb 6683 473a ae48 273c
00000200: b9df a73b 3954 b1ba f1ba 903c d915 90ba
00000210: 3864 693b 6bf2 b7bc d04f 3cbc eff2 ebbc
00000220: f6c3 ab3c d9c5 83bc 9a9f 30bc 2dc5 c33b
00000230: 64fc 943c 9a16 043b abff 30bc 38dd 0b39
00000240: 0f09 77bc b02f 35bb b428 b63c 0f6e 0f3c
00000250: b4f1 8e3b 3fcb 54bc 7af0 f4bb 4c43 ccba
00000260: d6ea 10bc 66ac edbc 861e bbbc 54bc 52bb
00000270: 777d ae3b 398b 2f3c dc96 723c 8567 813c
00000280: d0ea 41ba feed efbb 7625 cebb da4c 5d3c
00000290: bccd fc3b cc44 3d3c 7003 49bc 8eaf 06bb
000002a0: 8493 b1bc c9c2 d83b 5486 833c dc3a d43b
000002b0: f922 443b 559d 48bc 9ac0 503c f0df 8e3c
000002c0: 57e7 58bc bd1a 7bbc 00d9 7f3b 1b2e dabc
000002d0: b164 9c3c a3f9 81bc 3238 723c 4c65 903b
000002e0: 93ee bdbc 11a0 55bc 6354 a7ba 9e11 3cbc
000002f0: f86a 603c 0119 dfbb 8036 6f3a 222d d1ba
00000300: 7ca5 9abb 0ad4 e13b 1179 d1bc 7001 a4bb
00000310: 338f 45bc c970 913a 911e 443c e6b7 edbb
00000320: fa59 8cbc afe2 233b 00cf 393c 75a6 30bc
00000330: da4d 3e3c d141 8e3a 8534 31bc 2092 fa3b
00000340: f326 1fbc 2a8e 9ebc ec81 81bc 1e39 41bb
00000350: 75a0 8b3c 2501 14bb 7dc9 d2bb 8bfa a43b
00000360: 70c5 f63c 1368 963b 6b61 eabb ddb2 cc3a
00000370: f7b2 8a3c 6724 51bc d41a 503c 382d 1e3c
00000380: 1b3f 90bc 04cf ebb9 2cd1 dd3b ff00 2f3b
00000390: 91fe 203c 863b 563a 44cf 1abc 2baf 283b
000003a0: 3598 863c bd06 83bc ede8 2ebc 8c86 c03b
000003b0: d3da adbc 58be e63c 9afb dfbc b76d 96bb
000003c0: 16c3 cdbb 018d 2f3c c7c7 3cbb 6f19 9f3a
000003d0: 90d8 1ebd df6a cfbc 17d1 173b d841 a13b
000003e0: 0718 d23a 21cc b5bc 050c 953c ea7b c6b9
000003f0: c234 bcbb 2a90 903a b8a1 133c d835 143a

action_model._continuous_distribution.mu.bias f4 [6]
0.00048664818 -0.001913318 -0.001133103 -0.00026863476 -0.00044676874 0.0009434795
00000000: d024 ff39 4cc8 faba a184 94ba 8cd7 8cb9
00000010: 493c eab9 d653 773a
