results/NearSingularity03/NearSingularity/NearSingularity-6000.onnx (onnx, 623772 bytes, 9 tensors)

network_body._body_endoder.seq_layers.0.weight f4 [256, 85]
000000 1a 62 ad 3e 76 2b 8f bd 9c 96 e6 bd c1 7f 32 3e
       0.33863908 -0.069907114 -0.11259195 0.17431547
000010 bf ca c8 bd 95 19 20 3d 78 83 9c bc bd 9f 46 be
       -0.09804296 0.039086897 -0.019105658 -0.19396873
000020 b2 f4 a9 3d 51 ad 44 3d 1b 8b 46 3a 51 4d ad bd
       0.08298625 0.04801685 0.0007573829 -0.084620126
000030 f4 81 92 3d 4c 1d 7f be ec 8f 32 3e e5 f3 5d 3d
       0.07153693 -0.2491352 0.17437714 0.054187674
000040 64 f6 81 3e 39 9f b1 bc b2 95 64 3a 22 e2 30 3d
       0.25383294 -0.021682369 0.0008719816 0.043184407
000050 52 0c 6c 3d 4d 3b 8b 3d 78 33 ab 3c 86 97 8b be
       0.057628937 0.0679842 0.020898566 -0.2726404
000060 64 d9 30 3e 77 f1 32 3c 7b 3d 90 3d 4a 94 12 3e
       0.17270428 0.0109218275 0.070429765 0.1431438
000070 55 79 78 bd e2 13 c6 bd 39 86 6a 3d 97 c8 17 bd
       -0.060662586 -0.09671761 0.05725691 -0.03705653
000080 d5 0e de bd 2d 1d 38 bd 7b be 81 3e e5 bf f2 3d
       -0.10842673 -0.0449497 0.25340638 0.11853007
000090 02 f5 4c bc 29 c6 56 3d fc 3e c3 bc e3 0b 9d 3c
       -0.012509586 0.052435074 -0.023833744 0.019170707
0000a0 f8 b1 c0 bd 16 bb 17 be 69 c7 b5 bd 05 95 07 be
       -0.09408945 -0.14817461 -0.08875925 -0.1324044
0000b0 82 f2 36 3e ae 2c b6 3d 47 a8 15 bd 7c 6b c2 bd
       0.17865947 0.08895241 -0.036537435 -0.09493157
0000c0 ee 85 d4 3c 22 f2 1e 3d ae aa 7a 3c 0f 9c 9f bc
       0.025942769 0.038805135 0.015299482 -0.019483594
0000d0 c0 10 14 bd 81 8f 0e bd 44 1c b0 bc ba b6 08 3e
       -0.036148787 -0.034804825 -0.021497853 0.13350955
0000e0 dd e6 94 bc 91 2c 06 be 9c 41 6d 3c 11 70 4f 3e
       -0.01817649 -0.13102938 0.0144809745 0.20257594
0000f0 a1 c6 45 3d 3a 45 91 bc 36 4d 8a 3d 0b 77 1d 3d
       0.04828513 -0.017733205 0.06753008 0.038443606
000100 e7 f1 d5 bd 63 88 23 3d cc b0 ea 3b f6 41 14 be
       -0.1044653 0.03992499 0.007162189 -0.14478287
000110 41 f7 93 3c 3e 38 27 bc 10 1f bc 3d e3 3f 91 3e
       0.018062236 -0.01020628 0.09185612 0.28369054
000120 85 d2 3c 3e 3e c7 b5 bd 95 3c b2 3d f5 c4 d4 3c
       0.18439682 -0.08875893 0.08702961 0.025972823
000130 67 0c 55 3d 9c fb 17 3b c8 9a 7a bd c9 5f 0a be
       0.05201378 0.0023190742 -0.061182767 -0.13513102
000140 ff 68 e9 3d fc bd 43 bd 5d 87 f4 bc 31 8e 60 3e
       0.113969795 -0.047788605 -0.029849702 0.21929242
000150 e4 6c b9 3c bb 2f f3 bd 11 aa 07 be 20 85 2d 3e
       0.02263493 -0.11874338 -0.13248469 0.16945314
000160 bb 65 06 3e 5f 88 23 be a0 52 84 3e f3 44 da 3d
       0.13124745 -0.1596999 0.25844288 0.10657682
000170 5a 9d 0d 3e 27 05 9d 3d a9 42 0a be cc 4c b0 bd
       0.13829556 0.07666998 -0.13501991 -0.08608398
000180 3b 01 9e bb ba 88 0d be 85 f7 a7 3d e4 ca 12 bd
       -0.004821924 -0.13821688 0.082015075 -0.035838023
000190 fe b5 95 bd 76 3e 09 be 8c 07 f5 3d 13 28 37 be
       -0.07310103 -0.13402733 0.1196433 -0.17886381
0001a0 93 b9 a7 bd 40 c7 48 be 0d 76 bd 3b 7e dd 01 3d
       -0.08189692 -0.19607258 0.005781895 0.031705372
0001b0 9e ec 2a 3d 0f c7 d2 bd 29 aa 11 be 3f c8 5f bd
       0.041729562 -0.10291874 -0.14225067 -0.05463433
0001c0 fe 08 1d 3e 40 41 24 be af 26 2d 3c 12 d2 be 3c
       0.15335461 -0.16040516 0.010568305 0.023293529
0001d0 c5 28 06 be 3d 4c d6 3d a0 4f bb 3d d2 87 29 3d
       -0.1310149 0.1046376 0.09146047 0.041389294
0001e0 fb 9e a7 bd 02 af 25 bd b6 83 61 3d d6 21 7a be
       -0.0818462 -0.040450104 0.05505725 -0.2442697
0001f0 cc 26 9c bc 51 8e d1 3d ed 59 2d 3d e7 35 19 be
       -0.019061469 0.10232223 0.042322088 -0.14961968
000200 db 58 29 be 6b d0 cc bd 15 ff b5 3d 42 fa ce 3d
       -0.16537802 -0.1000069 0.08886544 0.10106327
000210 9f 25 b1 be 11 3c b8 3d a6 25 5f 3e f0 94 a9 bd
       -0.34599015 0.08995832 0.21791705 -0.08280361
000220 7b cb c2 3c 5c 72 a0 3d fc ca 15 3e 8d 6b 54 3e
       0.023778668 0.07834312 0.14628214 0.20744152
000230 c3 5e 12 bd 6b 2b 1b be c8 f4 38 3c 49 05 4f be
       -0.035734903 -0.15153281 0.011288829 -0.2021686
000240 41 a4 2a bc d4 d3 9c bc 61 73 fb 3d a5 3b fd bc
       -0.010415138 -0.019143976 0.12277866 -0.03091223
000250 76 37 06 3b 37 c5 c2 3d 6d cb a2 3c 8a c5 08 3e
       0.0020479835 0.09510272 0.019872392 0.13356605
000260 4b 0c 5e 3c fe 0a 6a be f2 58 05 3e cc b1 b9 bc
       0.013552736 -0.22855756 0.13022211 -0.022667788
000270 59 81 b3 3c 5d 0f a1 3e 29 9a 3e 3d 34 af f6 3c
       0.021912264 0.31457034 0.046533737 0.03011284
000280 8e e6 31 3d 92 0f 2d bd d9 5a 78 3e c0 b8 be bd
       0.043432765 -0.042251177 0.24253406 -0.09312582
000290 b0 b9 04 bd 86 fe 40 bd 5c fc 0a be 38 b5 1c bc
       -0.032403648 -0.047117732 -0.1357283 -0.00956469
0002a0 0e 70 76 3e 29 38 d8 bd d1 ad 7c 3b 5d 4e eb bd
       0.24066183 -0.10557587 0.003855575 -0.11489556
0002b0 7d d5 f4 3b 92 ba 2f bd 9a af 77 3c cd ab 04 3e
       0.007471739 -0.042902537 0.01511755 0.12956162
0002c0 66 1e 16 3b a2 34 a0 be 5a f7 f9 3c 56 d1 d3 bd
       0.0022906302 -0.31290156 0.030513454 -0.10342662
0002d0 a8 e4 f4 bd 5f ab 81 3d cb db 5a be 8f 0a 81 3d
       -0.11957675 0.063315146 -0.21372907 0.06300842
0002e0 f7 40 25 bd 85 bb 47 be ff a2 e9 3d 5f 92 92 3d
       -0.04034516 -0.19505127 0.11408042 0.07156824
0002f0 13 58 2c bd 32 88 6b bc 9b aa 4e bd 8f 1f 2f be
       -0.04207618 -0.014375733 -0.05045567 -0.17101882
000300 18 c3 86 3d 82 6f f4 bc bd 31 77 bc 2d 3f 37 3c
       0.0658018 -0.029838327 -0.015087542 0.011184496
000310 ff 23 d6 bd 7e d9 d5 bd 27 0d 04 3e e9 f4 5a bd
       -0.104560845 -0.10441874 0.12895642 -0.05345622
000320 c2 0f ce 3d 43 66 87 bd 4e 2c b1 3d bc 90 e3 3c
       0.10061599 -0.06611302 0.086510286 0.027778976
000330 7b 72 03 bd 05 52 7b bb 28 23 20 be 53 aa 6d 3d
       -0.0320916 -0.0038348448 -0.15638411 0.058023762
000340 be 42 7c be 52 b1 15 be 2c 69 41 3d d4 7e a9 bd
       -0.24634835 -0.14618424 0.04721944 -0.08276144
000350 34 7b cb 3d 2b 34 4c 3d 7f 89 71 3e 5f ac 36 be
       0.099356085 0.04985444 0.23587607 -0.17839192
000360 34 dc 14 3e a9 49 de bb 59 58 d8 bd ab 17 e4 3d
       0.14537126 -0.0067836833 -0.10563726 0.11137327
000370 3f 72 6d 3d 79 14 48 bd 74 69 52 bd 8c 0c 4f be
       0.05797028 -0.04884765 -0.0513701 -0.2021963
000380 4d 36 dc bd b1 74 39 be a3 e5 08 be 8f fd 91 bd
       -0.107525446 -0.1811092 -0.1336885 -0.071284406
000390 a6 b8 e9 bd 3f 7e 30 be 8b 4e c0 bb e8 75 f3 3d
       -0.11412172 -0.17235659 -0.005868738 0.11887723
0003a0 ee 1e 55 be 75 70 0d be ad 81 11 be 61 a3 32 3d
       -0.2081258 -0.1381243 -0.14209624 0.04361284
0003b0 c6 d6 84 3c 69 49 22 be b5 62 48 3d 28 af 25 bd
       0.016215693 -0.15848316 0.04892226 -0.040450245
0003c0 32 a3 90 bc f6 44 ed 3d 07 f7 db bc 8b ff 88 bd
       -0.017655943 0.11585419 -0.02685119 -0.06689366
0003d0 87 36 12 be 58 0a 37 bd 6c bb 0e be f6 5d be bc
       -0.14278613 -0.0446876 -0.13938683 -0.023238163
0003e0 80 91 8f bc 58 23 08 3d b3 0f e9 bd e3 0d 7e 3c
       -0.017525434 0.03323683 -0.113799475 0.015506241
0003f0 52 07 24 3d b8 92 3d 3a af 84 ac 3d a2 dc 02 3e
       0.040046044 0.00072316406 0.08423745 0.12779477

network_body._body_endoder.seq_layers.0.bias f4 [256]
000000 85 67 0e 3b 6f 83 de b9 b3 4a 25 3a 25 15 87 bb
       0.0021729183 -0.00042441065 0.00063053815 -0.0041223937
000010 f9 f2 34 3b bf c0 24 3b 52 48 12 bb 67 d8 99 3a
       0.0027610643 0.00251393 -0.0022320938 0.0011737467
000020 c9 9b b9 bb 26 c4 14 bb 59 94 88 3b 55 22 61 ba
       -0.005664323 -0.0022699921 0.004168075 -0.0008588185
000030 82 6e 3a 3a 2a 58 20 3b 1d dd 7f 3b 3b 20 6a bb
       0.0007111804 0.0024466612 0.0039041706 -0.0035724777
000040 a2 dd 1c bb 55 4a c3 3a 1d f0 5a 3b 67 37 a8 ba
       -0.0023935814 0.0014899472 0.0033407279 -0.0012833894
000050 81 6f 30 bb da 0c 3b 3b 07 16 93 bb 14 4d 5c 3b
       -0.002692193 0.0028541596 -0.00448871 0.0033615278
000060 43 39 28 bb 6a 01 3d ba 26 49 85 ba e3 44 c6 b9
       -0.0025668896 -0.00072099885 -0.0010168895 -0.00037816828
000070 e3 44 a5 3b ed 51 87 ba 2e 2c 6b b9 90 95 a4 3b
       0.0050436123 -0.0010324098 -0.00022427805 0.005022712
000080 77 8b b0 3b 0e 59 e4 ba c5 8e e0 39 dd 16 b6 ba
       0.0053877193 -0.001742156 0.0004283098 -0.0013892312
000090 70 51 43 3b d8 5e 00 bb 94 f6 89 3a 09 43 9d ba
       0.002980318 -0.0019587781 0.0010525757 -0.0011998127
0000a0 40 fd a6 3a 00 be 1d 3b 1f 67 4d b9 d3 83 4c 3b
       0.0012740269 0.0024069548 -0.00019588739 0.0031206503
0000b0 e7 1e f6 3a 3a a3 1e bb 2c e6 e5 ba ec 2d a1 3b
       0.001877752 -0.0024206177 -0.001753991 0.0049188044
0000c0 11 3f 20 3b 51 74 bb 39 a5 5f 2e 3b dc 54 29 3b
       0.0024451653 0.00035754082 0.0026607302 0.0025837934
0000d0 47 e1 6c 3b 22 7c 49 bb c9 fe a3 3b cf 5d 3f ba
       0.0036145018 -0.0030744155 0.005004738 -0.00073000503
0000e0 65 24 3f bb e1 a6 5d 3b 0a 90 3d 3b 2a 11 b7 ba
       -0.002916598 0.0033821391 0.0028924965 -0.0013966907
0000f0 ef eb ca ba 56 4f b9 3a 16 d0 94 ba 25 4d d1 ba
       -0.0015481691 0.0014138024 -0.0011353518 -0.0015968425
000100 5f e0 e9 ba f6 5e 86 ba e3 33 d4 ba ed 7d 9c 3b
       -0.0017843357 -0.0010251689 -0.001618978 0.0047757537
000110 b5 80 b8 39 4c a5 19 3b c6 aa eb 3a fe 12 56 3b
       0.0003519111 0.0023444472 0.0017979972 0.0032665129
000120 bb a0 24 39 a9 22 5c bb 0e 92 6b 3b b8 7a 7d 3b
       0.00015700136 -0.0033589995 0.003594521 0.0038677882
000130 ba 4f 86 3a 25 cb 29 3b d6 a6 3d 3b ca dc 00 3b
       0.0010247149 0.0025908437 0.0028938553 0.001966285
000140 f2 03 fb 3a 89 c0 47 3b 89 58 ce 3a 82 f1 e6 3a
       0.0019150956 0.003047975 0.0015742938 0.0017619582
000150 f1 49 f2 3a e7 c9 18 3b 48 c8 5c 3a ff 33 90 3a
       0.0018485171 0.0023313703 0.0008422178 0.0011001824
000160 24 3a a4 ba ca 3a 00 bb a3 d3 b1 ba 3c f4 0c ba
       -0.0012529534 -0.001956629 -0.0013567101 -0.000537697
000170 14 85 dd 3a 1b b7 33 3b c7 e6 07 bc c9 ac 24 3b
       0.0016900622 0.0027422372 -0.008294768 0.0025127402
000180 ba 0d 24 bb b1 15 69 3b 86 4b d7 3a 37 52 1e 3b
       -0.0025032596 0.0035565908 0.0016425706 0.002415789
000190 7f 6c ba 3a 0a 3b ce 3a 2b df 8d b9 86 9b 8e bb
       0.0014223008 0.0015734148 -0.0002705989 -0.004352036
0001a0 c5 a9 59 bb 9a 3b 08 3c 6a 8d d0 ba 69 48 3d 3b
       -0.0033212763 0.008314991 -0.0015911285 0.002888227
0001b0 74 2f c8 3b 99 df 98 ba 4a 3d 90 3b f6 2f bb 3a
       0.0061091725 -0.0011663317 0.0044018375 0.0014281261
0001c0 d3 c3 f0 39 9d 72 f5 b9 2e 43 30 3b 2b 5e ac 3a
       0.00045922268 -0.00046815435 0.002689551 0.0013150623
0001d0 1f e3 70 bb dc eb f0 3b f2 a0 36 3a 34 66 d8 3b
       -0.0036756468 0.0073523354 0.0006966732 0.0066039804
0001e0 7d b4 01 3b 42 35 0e bb 23 85 92 3a 48 c9 ae 3a
       0.0019791417 -0.0021699225 0.0011178594 0.0013335133
0001f0 96 89 82 3b a6 e7 86 bb 94 41 f3 ba 51 68 d2 ba
       0.0039836867 -0.00411697 -0.0018558973 -0.0016052817
000200 fd d5 20 3b 3d 44 87 3b 39 33 f8 3a ad 75 10 bb
       0.002454161 0.0041280077 0.0018936164 -0.0022042796
000210 2e 26 a7 3a 59 fd 89 ba db 52 60 bb 6c cc 08 b9
       0.0012752467 -0.0010527774 -0.0034229073 -0.00013046124
000220 63 b1 d1 bb cd bc 0d 3b 1e a9 de 3b fd 79 50 bb
       -0.00639932 0.0021627427 0.0067950627 -0.0031810992
000230 a6 88 99 3a 74 84 e5 b8 79 4b ca ba cf 10 12 b9
       0.0011713698 -0.00010944242 -0.001543387 -0.00013929907
000240 bc 0d 62 3b 96 d4 b3 3b 20 80 bc 3b f1 48 66 3b
       0.003449305 0.0054879887 0.0057525784 0.0035138691
000250 78 da 3c 3b 3c 41 fb b9 da ec 20 3b c5 99 5f 3b
       0.002881674 -0.00047923054 0.0024555237 0.0034118753
000260 61 be d1 3b 9c a7 99 ba 3b 48 ca b8 3b ea 95 3a
       0.0064008688 -0.0011722925 -9.6455646e-05 0.0011437604
000270 1d 4a bc ba ac eb c5 bb 90 7d 64 bb dc 96 dc 3a
       -0.0014365349 -0.006040057 -0.003486488 0.0016829628
000280 db 6b 72 3b 85 57 99 3b 55 55 86 3b 38 26 50 3b
       0.0036990556 0.0046796226 0.004099528 0.0031761061
000290 f5 a8 82 b9 a6 52 4f 3b 66 3d 6c 3b 24 b8 34 ba
       -0.00024921415 0.0031634956 0.0036047339 -0.0006893894
0002a0 f2 54 0e bb a6 34 a1 3b fe a0 da 3a 1d b9 15 bb
       -0.0021718112 0.0049196063 0.001668006 -0.0022845932
0002b0 83 92 60 3b 6a 4a b1 3a c4 81 7b 3b 1c df 65 3b
       0.0034267015 0.0013526205 0.0038376907 0.003507561
0002c0 16 ab 5d 3b f8 f3 b6 3b 6f 0d 0a 39 21 7a 0e 3a
       0.00338239 0.0055832826 0.0001316571 0.0005435069
0002d0 1b 27 b3 3a af 58 b9 39 52 b0 bc 3b 78 cf c5 3a
       0.001366827 0.00035352024 0.0057583237 0.0015091738
0002e0 01 19 89 bb e8 83 42 39 f4 a8 14 3b fa a8 6f 3b
       -0.004183889 0.0001855042 0.0022683712 0.0036569224
0002f0 7c 72 b0 3b 4b 50 a6 3b 32 ae 1b 3b d6 fa 41 bb
       0.0053847414 0.0050754896 0.0023754952 -0.0029598973
000300 79 6b 72 bb 7a fd 23 3a 5c 50 b7 bb 73 ff 45 bb
       -0.0036990328 0.00062557275 -0.0055942964 -0.0030212074
000310 72 4a da 3a a2 77 bc 3a 70 92 6d ba 93 aa c5 39
       0.0016654267 0.0014378915 -0.00090626534 0.00037701856
000320 43 c1 a2 ba 43 a1 c2 bb 08 64 85 ba c0 8c 90 ba
       -0.0012417216 -0.005939634 -0.0010176906 -0.0011028275
000330 d0 bc b5 3a aa a7 91 3a 26 c0 14 ba d1 f3 17 39
       0.0013865475 0.001111259 -0.00056743843 0.00014491311
000340 06 6a 86 3a 80 ff 62 ba 74 6f 61 38 f9 73 96 ba
       0.0010254986 -0.0008659288 5.374798e-05 -0.0011478654
000350 34 73 2f 3a 72 d7 78 3b 9d 59 10 bb 05 c0 27 bb
       0.0006692887 0.0037970212 -0.002202607 -0.002559663
000360 d0 b4 22 3b 11 bb d7 ba 31 91 bf 3b 9c 7a 74 3b
       0.002482701 -0.0016458948 0.0058461656 0.0037304526
000370 7f f2 1e 3a cc 74 89 3b 37 91 b7 3a fd ea 45 3a
       0.00060633564 0.0041948315 0.0014005069 0.00075499696
000380 74 58 3f 3b 99 08 51 3b eb c0 28 bb 60 c5 e1 ba
       0.002919701 0.0031895994 -0.0025749754 -0.001722496
000390 90 13 ea 3a 95 c6 29 3b 56 75 8f b9 8a f6 30 3b
       0.0017858613 0.0025905718 -0.00027362508 0.0027002417
0003a0 40 d0 13 3b 74 11 58 ba 44 1f 87 bb e1 6a 5e bb
       0.0022554547 -0.0008242347 -0.0041236 -0.0033938217
0003b0 0b 30 79 3b bc 7b 49 3b d4 54 e2 39 4b ab 8e bb
       0.003802302 0.0030743917 0.0004316928 -0.004353916
0003c0 97 01 8e bb 82 bf e7 3a 8f fa d4 3b 34 59 42 ba
       -0.0043336856 0.0017680975 0.0064995955 -0.0007413805
0003d0 ad 45 b6 3a d2 5f f4 3b 9c 05 eb ba fd fc fa 3a
       0.0013906263 0.0074577117 -0.0017930749 0.0019148883
0003e0 ce f0 b3 3a 96 66 3d bb 37 dc 7b 3b c0 fb 6c 3a
       0.0013728382 -0.0028900257 0.0038430819 0.0009040199
0003f0 9a a5 54 bb 2d 75 4f ba 2c a7 c8 3a 57 39 66 39
       -0.003244734 -0.0007913884 0.001530861 0.0002195587

network_body._body_endoder.seq_layers.2.weight f4 [256, 256]
000000 73 0b 5b bd 5e 6f 3d 3c 4e 83 d5 3d 34 43 1c 3d
       -0.053477716 0.011562197 0.10425435 0.038150027
000010 3f 5b 65 3b 07 c1 94 3d f6 57 72 bd 21 bc 89 3d
       0.0034997014 0.072633795 -0.059165917 0.06725336
000020 bc 89 41 bd e7 1f 6a bd 46 39 8c 3c 04 e3 d9 bc
       -0.047250494 -0.05715933 0.017117154 -0.026597507
000030 c3 14 f8 bd 5d 03 a7 bd ea 67 2f 3d b9 08 16 3d
       -0.12113335 -0.08154938 0.04282371 0.036629412
000040 05 00 c3 bc 6e ce 8e 3d fd 09 35 bd d6 4e c4 3c
       -0.02380372 0.06972967 -0.04419898 0.023963373
000050 1d e9 97 bd d5 22 9f bb 61 03 5b bd 15 af 7a bc
       -0.0741751 -0.004856447 -0.05347002 -0.015300532
000060 a1 d7 c9 3c ea 45 2c 3b 1d cd 5a 3d a3 5b 87 3d
       0.024638953 0.002628679 0.053418268 0.06609275
000070 a8 19 f7 bc 9b 65 1a 3d dc 7d 88 3d 5b 43 53 3c
       -0.030163601 0.037694555 0.06664631 0.012894477
000080 f2 a4 68 bd 8c 77 a0 3b fb 7d 54 3c 0a cd 0f bd
       -0.05679793 0.0048970636 0.012969489 -0.03510765
000090 8e 80 02 bd c6 09 2b bd dc 06 4a bb f3 2b 89 bd
       -0.03186088 -0.041757368 -0.0030826842 -0.06697836
0000a0 9b 3f 8f 3d 46 33 cc bc ec 99 a0 3c 81 a9 a0 bd
       0.06994554 -0.024926793 0.019604646 -0.0784483
0000b0 e3 83 2a 3d 56 58 be 3d 55 ac b1 bd b4 f5 d4 3c
       0.041629683 0.092941925 -0.08675448 0.025996067
0000c0 47 43 c8 3c 36 ef ed 3c cf 99 60 bd 55 73 2b 3c
       0.024446143 0.029044729 -0.054834183 0.010464509
0000d0 75 e4 cc 3d 48 6a c9 bc 13 90 21 bd 68 a3 b4 3d
       0.10004512 -0.024586812 -0.03944404 0.0882023
0000e0 70 20 ba bb c5 89 d0 3c 2f da a0 3d 0f 28 ad bd
       -0.0056801364 0.025456319 0.07854115 -0.08454906
0000f0 80 6c 00 be 60 d9 09 3d ab e4 b2 3d 95 9c 6a bd
       -0.1254139 0.03365457 0.08735021 -0.057278235
000100 68 e1 cc 3c aa ea 0a 3c 61 01 1b bd 28 d2 ad 3c
       0.025009826 0.0084788 -0.037843112 0.021218374
000110 53 f1 d4 3d 01 38 b8 bd 93 73 b3 3d 0e 86 ef bc
       0.103975914 -0.08995057 0.087622784 -0.029238727
000120 e1 b0 d9 3d af 0c 04 bd ce ca 98 bc 81 65 8c 3c
       0.1062944 -0.03223866 -0.018651392 0.017138245
000130 92 f3 40 3c 04 1f a4 bd 00 c7 70 bd ae a4 e3 3d
       0.011776822 -0.08013728 -0.05878353 0.111153945
000140 a1 91 67 3c 41 56 e7 bc dd dd a1 bd 65 01 3b bd
       0.014133842 -0.028239371 -0.07903645 -0.045655627
000150 3d 04 26 bd b9 a6 fe 3c 30 f0 d0 bd 57 16 c9 bd
       -0.040531386 0.031085359 -0.10202062 -0.09818714
000160 44 35 a2 bd 3d 59 fd 3c a5 24 25 3d ac 9f c5 bc
       -0.07920316 0.030926341 0.04031815 -0.024123989
000170 6d ec 75 3d bd 9c ea 3d d4 17 bc 3c e7 10 07 be
       0.060039926 0.11455677 0.02296058 -0.13190041
000180 5d cb ac bd 81 73 9c bd 68 4f ac bc b8 57 46 3d
       -0.08437226 -0.07639218 -0.021033958 0.0484235
000190 e5 9a a6 3d e1 37 7f bc 3c 88 aa bd 95 6f 0e 3d
       0.081350125 -0.015577287 -0.08326766 0.03477438
0001a0 8d 1e 0a bd 9c c6 49 3d cd 30 31 3b 60 38 c3 3b
       -0.03372054 0.049261674 0.0027037144 0.005957648
0001b0 87 3b fe bd 08 cf d1 3d 42 59 87 3d 73 b6 a0 bb
       -0.12413698 0.10244566 0.066088215 -0.004904562
0001c0 0a fb 78 bd d5 14 64 bc d7 1d 8f 3d 8f b3 97 3d
       -0.060786285 -0.013920982 0.069881134 0.07407295
0001d0 98 f6 8f 3d f5 a0 c6 bc 4b 00 95 bd 7f 3b c6 bc
       0.07029456 -0.024246672 -0.072754465 -0.024198292
0001e0 10 2d 10 be 63 d5 85 bd e1 69 2b bd 7a 82 35 bd
       -0.1407969 -0.06534841 -0.04184902 -0.044313885
0001f0 cf 96 fe 3c 63 5e 41 bb d8 ad 59 bc 52 aa 9f bd
       0.03107777 -0.0029505722 -0.0132860765 -0.07796158
000200 71 0c 43 3d 53 6d 10 3e 33 12 14 bc c5 12 cb 3d
       0.047619287 0.14104204 -0.009037542 0.099156894
000210 d7 f3 c6 3d ce 5c db 3d cf 7b 83 3c 78 22 df bd
       0.097144775 0.107110605 0.016050247 -0.10895246
000220 1b 20 a6 bd bf d5 81 bd 81 25 a1 bc 31 52 89 bd
       -0.081115924 -0.06339597 -0.019671204 -0.0670513
000230 d4 07 43 3d 2e b8 87 bd fb 5f 6b 3d d7 6d b6 bd
       0.047614887 -0.06626926 0.05746458 -0.08907669
000240 80 97 e2 3c aa f8 7c 3c 5e e5 8b 3b 0b 47 61 3d
       0.027660131 0.0154401455 0.004269286 0.054999392
000250 89 76 a2 3d 14 07 22 3c 69 d7 90 3c 29 f5 0e bc
       0.07932765 0.009889383 0.01768084 -0.008725443
000260 f4 0f be 3c e5 64 fa bb f3 20 a7 3c 63 07 a3 bd
       0.023200966 -0.007641422 0.020401454 -0.07960393
000270 3c bd c6 bd 64 74 c2 bc ac 05 04 3e 28 0d c2 bd
       -0.09704062 -0.02373714 0.12892789 -0.094751656
000280 6e e8 ad 3d 73 43 f5 bd 42 89 b1 3b 89 45 41 bb
       0.08491598 -0.119757555 0.0054179737 -0.002949091
000290 63 c8 ba bd fb 3d 62 bd 08 f6 61 3c 50 7d 96 bc
       -0.09120252 -0.05523489 0.013791569 -0.0183703
0002a0 00 9b 80 bd 54 e7 09 bc ec e3 09 3e 9d 5e 57 3d
       -0.06279564 -0.008416969 0.13465852 0.052580465
0002b0 b1 42 9c 3c cc 59 f5 3d c2 b8 84 bb 09 c3 0b bc
       0.01907477 0.11980018 -0.004050345 -0.008530387
0002c0 43 b8 6c 3c e9 0f 3f 3d 67 22 b6 3d 6c 06 ed bc
       0.014448228 0.046646032 0.088932805 -0.028933726
0002d0 ff e0 b2 3c 6e 50 96 3d c1 18 15 bd b5 9e 0f bd
       0.021835802 0.073395595 -0.03640056 -0.035063464
0002e0 23 21 12 bc 9c e5 85 bc 0d f5 f2 3c 47 89 3f 3c
       -0.008919033 -0.016344838 0.029657865 0.011690444
0002f0 84 df 84 3d bd 0e a4 3d 86 cd cb 3c bf 36 c8 3d
       0.06487945 0.080106236 0.024878275 0.09776067
000300 d3 c5 54 3d 32 c5 03 3d 59 ee 3f 3d b1 c5 ad bc
       0.051946472 0.032170482 0.046858165 -0.02121243
000310 e5 55 11 bd ec 73 8a bd 4a a5 8d 3d 33 c6 2e 3c
       -0.035482306 -0.067603916 0.06916292 0.010667372
000320 7c bc 06 3d f3 3a b8 bd d3 a4 21 3d 50 2f 8e bc
       0.032894596 -0.08995619 0.03946383 -0.017356545
000330 10 63 17 bd 76 98 76 3d b9 36 bd 3a 84 c2 fb bd
       -0.036959708 0.06020399 0.0014435864 -0.1229296
000340 d3 22 0f 3d 82 de 49 bd 34 cf 07 bc 4c d1 17 3d
       0.03494532 -0.049284466 -0.008289147 0.037064835
000350 76 a0 89 3d 3c 94 8c bd 02 f0 a0 3c 3e cb 14 3e
       0.067200586 -0.06864211 0.019645695 0.14530656
000360 b7 04 1d bd 97 24 7f 3d 53 99 69 bd 66 8d ec 3a
       -0.038334575 0.062290754 -0.057030987 0.0018047511
000370 72 dd 62 bd e0 09 0e bd 50 9f 61 3c f1 64 6f 3d
       -0.055386968 -0.034677386 0.013770893 0.058445875
000380 52 6a ec bd 13 17 4c 3d b7 e2 d3 bd a4 34 d9 bc
       -0.115437165 0.049826693 -0.10345977 -0.026514359
000390 ab f0 0f bd ad 9a 06 3e 76 1f 37 3d 38 98 bb 3c
       -0.03514163 0.13144942 0.044707738 0.022899732
0003a0 55 aa 95 3d 11 19 d2 bd dd a8 eb 3c 83 d6 84 bb
       0.07307879 -0.10258687 0.028767044 -0.004053892
0003b0 17 7c e9 3c 91 1e b8 bd db e9 ff 3c ee 76 bd 3d
       0.028501553 -0.08990205 0.03123944 0.092512
0003c0 85 f1 14 bd 90 13 16 bd a4 a1 3a 3d fe 72 cd bd
       -0.036363143 -0.03663975 0.04556431 -0.10031699
0003d0 5f 77 69 bc e9 f2 00 3e e0 30 97 3c fb 05 0d bc
       -0.014249652 0.12592663 0.018455923 -0.008607383
0003e0 3c 92 8c bd 14 22 c5 3c 5f cd bd 3d 65 2e ad 3c
       -0.068638295 0.024064101 0.09267687 0.021140287
0003f0 79 1f 08 3d 1c 63 16 3e c8 0d 3f 3d 17 b4 a5 bd
       0.03323314 0.14686245 0.046644002 -0.0809099

network_body._body_endoder.seq_layers.2.bias f4 [256]
000000 b1 39 8a 3b 79 88 b7 3a 2b bc 0b ba 7e 0a 16 3a
       0.004218303 0.0014002464 -0.00053304684 0.00057236094
000010 10 7e 16 3b 4c 4e 6e ba 7b b2 3b bb db 68 15 3a
       0.0022963323 -0.00090906466 -0.0028640318 0.00056995236
000020 42 2b a7 bb 94 3f 73 3a d2 e7 19 3b ec 79 51 3b
       -0.0051015923 0.0009279188 0.0023484123 0.003196354
000030 24 07 84 ba 33 00 40 ba 80 11 3c ba 4f 9a ca 3b
       -0.0010072929 -0.00073242484 -0.00071742386 0.006182946
000040 32 e3 88 39 0d d5 90 bb ca 84 0d bb 58 fe ff ba
       0.00026109215 -0.004419929 -0.002159404 -0.0019530756
000050 ce a2 d7 b9 13 85 2a 3a 41 83 c2 ba b2 00 ba 3b
       -0.00041129295 0.0006504815 -0.0014840142 0.0056763524
000060 ba 8f 1a 3b 88 38 11 bb 76 9e 6d 3b bd b4 7c bb
       0.0023584203 -0.002215894 0.003625778 -0.0038559877
000070 45 62 01 3b 2f 8e 64 ba 5e 42 27 bb 79 7c ac b9
       0.001974241 -0.0008718697 -0.0025521736 -0.00032899136
000080 e7 16 5c 3b 31 d4 75 3a ba c7 64 3b 2d 2a 0e bb
       0.0033582987 0.0009377627 0.0034909085 -0.002169262
000090 0c 85 a1 3a 66 4e e0 39 7c ca 42 bb 69 98 33 3b
       0.0012322976 0.0004278302 -0.002972274 0.0027404076
0000a0 95 b2 90 3b dc 26 43 bb 10 01 26 bb c3 28 27 3b
       0.00441582 -0.00297778 -0.0025330223 0.0025506474
0000b0 6e 73 e2 39 a8 48 b3 39 11 2c 32 ba f2 be 56 3a
       0.0004319208 0.00034195674 -0.00067967275 0.0008191905
0000c0 6c f3 ae 3a 25 c3 4c 3b c6 f1 18 3a 18 ef 5e ba
       0.0013347692 0.0031244245 0.0005834367 -0.00085042557
0000d0 e8 c6 e7 39 e2 6c f5 3a 12 c1 b0 bb 21 14 4e ba
       0.0004420795 0.0018724466 -0.0053941095 -0.0007861276
0000e0 79 c7 a5 3a 31 b8 a2 3a 6d ae c9 39 00 40 8e ba
       0.0012647948 0.0012414512 0.00038467665 -0.0010852814
0000f0 f1 f9 74 3b a5 b3 e5 3a c7 bc 96 3b 14 28 17 3b
       0.0037380422 0.0017524852 0.0046001407 0.002306466
000100 43 90 90 3a 49 6d 3c bb 78 73 87 3b ec 4b 90 3b
       0.0011029321 -0.0028751662 0.004133638 0.004403582
000110 01 ed 40 b9 76 6a 24 3b 6d 36 df ba 87 12 63 39
       -0.00018398838 0.002508787 -0.001702977 0.00021655309
000120 1b e0 60 3b ec 62 c1 3b 13 91 3c 3a 6c 87 40 bb
       0.0034313265 0.005901685 0.00071932486 -0.0029377593
000130 76 60 55 bb af 00 22 b9 db f7 26 3b 41 c7 d4 3a
       -0.0032558716 -0.00015449779 0.0025477323 0.0016233699
000140 d6 c3 86 3b 90 3b 90 3b 79 d2 15 3b bd 5a e0 b9
       0.004112701 0.0044016317 0.0022861047 -0.00042792215
000150 d1 10 81 bb 07 fa 76 bb 44 96 86 3b 6b b0 5a 3b
       -0.0039387722 -0.003768565 0.0041072685 0.0033369313
000160 c1 40 29 3b 67 22 9f 3a 90 32 14 3b 91 46 7d 3b
       0.002582595 0.001214099 0.0022613145 0.0038646797
000170 5e f1 8d 3b 0e 3b ad 3a 3c c8 10 3b 93 68 20 ba
       0.0043317517 0.0013216452 0.0022092005 -0.00061190984
000180 cd 50 1c bb c3 d2 83 bb 94 1f 41 3b 3b f2 b3 3a
       -0.0023851872 -0.0040229275 0.0029468285 0.0013728807
000190 a0 1c cb bb 92 fa fc 38 d0 1b aa ba ab 16 bd ba
       -0.0061984807 0.00012062969 -0.001297826 -0.0014426311
0001a0 06 1a 86 bb 39 05 03 3b 4c a3 9c bb fc 60 8c 3b
       -0.0040924577 0.0019992127 -0.0047802087 0.0042840224
0001b0 36 5e de 3a d8 6f 50 bb 63 0d 90 3b 6d 45 01 bb
       0.0016965333 -0.0031804945 0.004396127 -0.001972522
0001c0 34 32 1e 3a 72 e0 7b ba 51 b0 ad 39 3b b9 cc ba
       0.00060347025 -0.0009608335 0.00033128497 -0.0015619168
0001d0 d6 4e cb b9 1b 72 4c 3b 34 0a b1 b9 a6 b9 b7 3b
       -0.00038777915 0.0031195942 -0.00033767673 0.005606848
0001e0 78 78 2b 3b ed 8a 02 bb 5a 7f 39 ba 9f cd 26 3b
       0.0026164334 -0.0019919232 -0.0007076167 0.002545215
0001f0 4a 12 97 3a 4e f5 22 3b a4 99 31 3b 3c 86 42 3b
       0.0011525836 0.0024865451 0.0027099634 0.002968206
000200 69 3b 72 b9 88 b4 61 3b ff 88 3b ba cb 63 46 3a
       -0.0002310105 0.003443988 -0.0007153898 0.0007567971
000210 8a 26 0a bb c7 44 09 bb 88 ea 3e bb 9b 14 bb ba
       -0.00210801 -0.0020945536 -0.002913149 -0.0014273109
000220 ab 1b 8f bb 37 c0 2d bb e7 61 43 39 e5 fe 7a 3b
       -0.004367312 -0.0026512274 0.0001863312 0.0038298902
000230 95 cf 46 ba f2 7e 24 39 8a b9 8f ba 20 5b c2 bb
       -0.0007584033 0.0001568755 -0.0010965329 -0.005931273
000240 85 96 b3 bb 95 b5 37 bb 61 53 83 bb bc 58 82 3a
       -0.00548059 -0.0028031815 -0.0040077423 0.0009944658
000250 6d a2 c6 3a 6b 34 39 3a 82 ca b3 3b 99 7e dc b8
       0.0015154608 0.0007065001 0.0054867873 -0.00010513998
000260 23 a3 53 3b 22 cb dd 39 f6 3f 49 3b 20 2f 50 b5
       0.0032293282 0.0004230375 0.003070829 -7.7554614e-07
000270 37 97 87 3b bc 24 26 bb 32 16 25 bb 76 a9 4f 3a
       0.0041378993 -0.0025351485 -0.0025190231 0.0007921675
000280 7d 0e 5b ba 8b 97 ea 3a 77 a0 30 3b b9 1f 23 3b
       -0.0008356346 0.0017897947 0.0026951113 0.0024890734
000290 68 83 0b bb ac 86 1f bb f7 e2 82 3b 0f a0 b8 b9
       -0.002128804 -0.0024341745 0.0039943415 -0.00035214468
0002a0 0b 48 62 bb 70 3d f2 ba 80 f2 00 ba f5 6f e8 3a
       -0.0034527804 -0.0018481445 -0.0004918948 0.0017733561
0002b0 50 7e 13 3b b9 64 67 3b b5 53 5b ba b6 44 5c 3a
       0.0022505708 0.0035307838 -0.00083666603 0.0008402573
0002c0 6e f6 02 3b 88 16 3a 3b d6 c6 de b9 a2 7b bc bb
       0.001998331 0.0028394777 -0.00042491284 -0.005752043
0002d0 23 7d 88 3b a1 cf bb 3a 59 58 73 bb a1 d2 13 3b
       0.004165308 0.0014328846 -0.0037131517 0.0022555965
0002e0 0e 96 64 bb 6c bc 02 3a 42 ea f4 b9 46 7b b3 3a
       -0.0034879479 0.00049871835 -0.00046713842 0.0013693355
0002f0 b7 7d 65 bb fb c7 cd ba 10 0b 15 bb 54 b3 92 3b
       -0.003501756 -0.0015699858 -0.002274219 0.004476944
000300 16 93 ab 3a 8a 99 13 39 01 f1 60 3b 84 3e 5a 3b
       0.00130901 0.0001407621 0.0034323337 0.0033301422
000310 77 39 65 ba 89 de 5c bb 9b e6 2a 3b 5e 7c ad 3b
       -0.00087442197 -0.0033701977 0.0026077393 0.0052943667
000320 70 14 a5 3a 83 39 05 3b 78 7a 14 3a f2 68 d7 ba
       0.0012594592 0.002032847 0.0005664001 -0.0016434474
000330 e1 a7 e3 3a fb a6 bc ba 86 27 50 3b 5d 4b 3b 3b
       0.0017368757 -0.0014393026 0.003176184 0.0028578856
000340 44 dc b2 ba 11 be db 3b 6c e7 b6 3b 71 39 76 3b
       -0.0013645967 0.0067060073 0.005581787 0.003757086
000350 37 bd a9 3a fb ee 28 bb 9a e7 86 3a 46 c5 48 bb
       0.0012950067 -0.002577721 0.0010292411 -0.0030635162
000360 9c 9d 84 bb 28 72 81 ba b4 04 9a 39 41 9c 48 3b
       -0.004047109 -0.000987594 0.00029376673 0.0030610713
000370 e7 0c 2e 3b 69 fd 00 bb c0 3c 3e bb 63 27 09 3a
       0.0026557983 -0.0019682294 -0.002902791 0.00052320043
000380 3d ea 0e 3b 9d 22 87 b9 c6 c7 8d 39 0f fa 2a 3b
       0.0021807097 -0.00025774995 0.00027042459 0.0026088988
000390 0e f5 46 b9 10 2a d9 3a 8f 75 2d bb c1 22 b2 3a
       -0.00018974041 0.0016568322 -0.0026467775 0.001359068
0003a0 03 16 99 ba a0 70 c4 ba 22 d6 15 3b 51 1e 71 ba
       -0.0011679534 -0.0014987178 0.0022863229 -0.0009197938
0003b0 be d3 1b b9 c2 70 88 3b e8 b7 23 bb 86 24 94 ba
       -0.00014860832 0.0041638324 -0.0024981443 -0.0011302389
0003c0 b4 04 e5 b9 20 bb 16 3b 2a 88 cc ba a7 73 2f 3a
       -0.00043681788 0.0022999719 -0.0015604545 0.0006692954
0003d0 7a cc 84 3a e1 0a 4d ba 4b f2 01 ba b5 7f bc ba
       0.001013174 -0.00078217505 -0.0004957064 -0.0014381321
0003e0 05 9c 09 3a 1e f5 56 3b 3e 60 1e bb ce c9 bc ba
       0.0005249384 0.003279991 -0.0024166252 -0.0014403404
0003f0 78 74 9a bb 57 44 97 3a 13 7b 8d 3b d9 4a 62 ba
       -0.004713591 0.0011540753 0.00431765 -0.0008632369

network_body._body_endoder.seq_layers.4.weight f4 [256, 256]
000000 02 4a ed 3c 65 42 ee 3b ca ba 24 bd cf 0e 1b bc
       0.028965954 0.0072710984 -0.0402172 -0.00946398
000010 3d 49 42 3c ee bf 6c bd 7d 15 3c bd 86 65 30 3a
       0.011858282 -0.057800226 -0.04591893 0.00067289954
000020 34 c1 15 bd d0 10 1b bb fa 25 bd bc 4b 61 3b bd
       -0.036561206 -0.0023661144 -0.023089398 -0.045747083
000030 14 97 7a bd 88 2b 87 3d 7f 13 8c bd 6c 93 f6 bb
       -0.061179236 0.066001 -0.06839656 -0.0075248983
000040 7d 4c 0c 3d 2d 85 c5 bc fe e8 2c bd 31 70 a2 3c
       0.034252632 -0.024111355 -0.042214386 0.019828888
000050 78 d4 0b bd 2c 45 02 3c 20 5d 8c b9 e7 6e 95 3b
       -0.034138173 0.007951062 -0.00026772264 0.0045603397
000060 3a b6 d7 bb 7d b8 44 bd 95 d3 cc bd fb 9d b3 3d
       -0.0065830024 -0.048027504 -0.100012936 0.08770367
000070 8c fb e1 b9 f2 8d 81 3d 8b df a7 3d 52 85 f2 bd
       -0.0004310276 0.06325902 0.08196934 -0.11841835
000080 10 95 aa bc 22 cd 01 3d af dc ef bd 13 e5 cc 3c
       -0.020823032 0.03168977 -0.11712014 0.025011575
000090 6a c7 3a bc 29 ee 39 bc e8 70 79 bd cb c4 80 bd
       -0.011400083 -0.011348286 -0.06089869 -0.06287535
0000a0 db b7 4c 3d 67 2a 96 bc 8e df b8 bd 7c 66 ac 3c
       0.049980026 -0.018330766 -0.09027015 0.021044962
0000b0 92 a9 88 3d 7f 34 49 3d d5 8a 0a bd 37 8c c3 bd
       0.06672968 0.04912233 -0.033823807 -0.09548228
0000c0 cb a7 0b 3d 3c 39 a8 3b 41 1d 0e bd 23 9c 7a bc
       0.034095567 0.005133776 -0.034695867 -0.015296015
0000d0 c1 19 c8 3d 7c 6a e3 bd a0 d5 d9 3c 57 16 e4 bb
       0.09770537 -0.11104295 0.026591122 -0.006960671
0000e0 76 22 e1 3d d0 9a b2 3d b9 f0 64 bb c7 51 e5 bd
       0.10992901 0.087209344 -0.003493352 -0.111972384
0000f0 bc 21 87 3c a9 76 be bd 15 d2 b6 bc d1 0e 76 3d
       0.016495578 -0.092999764 -0.022316972 0.060072724
000100 ca 06 c6 bc db 22 5e 3d 93 39 f3 3c 5b 11 86 bd
       -0.02417316 0.05423246 0.02969054 -0.06546279
000110 5f 4f 1e 3e 7d 77 b6 bd 9f cc 9b 3d 3e 4c a2 3c
       0.15459965 -0.08909509 0.07607388 0.019811746
000120 74 a4 26 3d 3d 86 06 bd 6c 1d c9 3c eb b5 9b 3d
       0.04068418 -0.032842863 0.024550162 0.076030575
000130 f2 14 b3 3d 89 14 0b bd 08 b3 13 3d f9 52 d3 3d
       0.087442294 -0.03395513 0.03605941 0.1031856
000140 2f d7 a2 bc eb e3 07 bc 06 be 6c bd 7e 7b 80 bb
       -0.019877998 -0.008294086 -0.057798408 -0.0039209714
000150 d2 bb cd 3b 50 64 cf bd 83 2b 11 bd b2 68 bc 3d
       0.0062784934 -0.10126555 -0.035441887 0.091996565
000160 32 68 0d 3d 01 24 2e bd 6c 05 28 3d f6 2d af bc
       0.034523197 -0.042514805 0.041020796 -0.02138422
000170 a2 51 fa 3a 13 14 96 bc 23 48 bf 3c af fc 93 3d
       0.0019097815 -0.018320119 0.023349827 0.0722593
000180 f3 32 6e 3d 19 7b 43 3d 97 f8 a2 bc 3a 59 02 3b
       0.058154058 0.047724817 -0.019893927 0.001988961
000190 a1 69 c3 3c 99 98 e9 3b 29 47 84 3d 16 62 84 bd
       0.023854079 0.0071287868 0.06458885 -0.06464021
0001a0 c5 bb 1c 3d b1 e4 3d bd 78 ab 31 bd 01 61 97 bd
       0.03826501 -0.046360675 -0.043376416 -0.07391549
0001b0 eb 5d 4d 3d ad aa fb 3c d8 dd 44 bd cd 83 4f 3d
       0.050138395 0.030721033 -0.04806313 0.050662804
0001c0 a8 c5 13 bd 35 18 68 3d a3 ec 3a 3d 5a 67 94 bd
       -0.03607717 0.05666371 0.04563583 -0.07246275
0001d0 90 a1 34 bc fa e2 4c bd 04 a4 8c 3d c6 a3 e4 bb
       -0.011024848 -0.05002115 0.06867221 -0.006977531
0001e0 9d 80 c3 bd bf 1e 88 3d 3f 9a de bc ac d0 da 3d
       -0.095460154 0.06646489 -0.02717316 0.10684332
0001f0 dd 37 83 bd 0a d8 25 bd 69 74 cd 3c d6 00 7c 3d
       -0.064071395 -0.040489234 0.025079923 0.061524235
000200 5f f8 2f bd b5 f2 58 bd 3c 71 e5 3b 7b ae 91 3c
       -0.042961475 -0.05296584 0.007002024 0.017783394
000210 0e 99 9c bd 5a 19 1e 3d 4a 2f f6 bd bf 03 04 bd
       -0.0764638 0.038598396 -0.120207384 -0.032230135
000220 d2 d7 70 3d 4d 4e 58 3d 5e 01 83 bd b3 3c be 3c
       0.058799572 0.05280905 -0.06396745 0.023222303
000230 ca 96 18 bd cf 44 c7 bd 7c 1f cb 3d f3 39 14 bd
       -0.03725318 -0.09729921 0.099181145 -0.036188077
000240 9a cc 84 3c c2 a8 07 3d 38 45 fa 3d 2e c9 a2 3b
       0.016210843 0.033119924 0.12220234 0.00496783
000250 1b 05 6f 3c b8 76 9c bd d3 48 2a bd e5 47 f6 bc
       0.01458862 -0.07639831 -0.041573357 -0.030063579
000260 e8 ec a6 bb ae c5 6f bd 2f 73 cc bc dd c7 6a 3d
       -0.0050941594 -0.05853813 -0.024957268 0.05731951
000270 f3 44 4a bd 85 7c 8a bb 14 bb 69 bd 19 c7 8d 3d
       -0.04938216 -0.0042262697 -0.057063177 0.069227405
000280 ed 80 c7 bc b7 b8 82 3d ea c6 2e bd 80 b6 14 3b
       -0.024353469 0.06382888 -0.042670168 0.0022691786
000290 c8 2c b1 bd 7b fb 2e be a6 aa 45 bb d9 eb ae 3c
       -0.086511195 -0.1708812 -0.003016153 0.021352695
0002a0 6f c2 f7 bb 6c 3f 4a bd 4b 79 47 bd d3 6e 09 bd
       -0.00756102 -0.04937689 -0.04869966 -0.033552956
0002b0 33 60 8b bd 88 c1 8b bd 5e 73 7f 3c 41 f9 17 3d
       -0.06805458 -0.068240225 0.0155914705 0.03710294
0002c0 19 76 6f 3b aa 9f f4 39 81 b4 5e bd 89 67 87 3d
       0.0036538898 0.00046658266 -0.05437136 0.06611545
0002d0 99 3a 32 3d 58 65 e0 3c 33 11 53 3c 0d 43 29 ba
       0.043512914 0.027392074 0.012882519 -0.000645683
0002e0 45 f3 f2 bd df 45 f8 bc 5e b1 f8 bd 58 b4 8d 3d
       -0.11862806 -0.030306755 -0.12143205 0.069191635
0002f0 da 1d b6 bc 5c c7 44 3b e8 b4 39 3d 0f d9 2e bd
       -0.022231031 0.0030026054 0.04533854 -0.042687472
000300 b8 b0 ce bd f4 bf 93 3d f0 4e 97 bd 7f 8f 89 bc
       -0.100923 0.072143465 -0.07388103 -0.016792057
000310 c6 85 bb 3b 40 a2 71 bd 27 bc 96 bc ce 86 75 3d
       0.005722734 -0.058992624 -0.018400265 0.059943013
000320 b0 f8 85 bc 98 50 97 3d e2 ce 14 3c c6 4b 16 3c
       -0.016353935 0.07388419 0.009082528 0.009173339
000330 48 07 04 3e b3 93 8d bc 67 19 bc bd 67 3c e0 bd
       0.12893403 -0.017282343 -0.091845326 -0.10949021
000340 c3 14 cc bd e2 ab bd 3d a0 af 91 b9 48 9c 5a bd
       -0.099648975 0.092613 -0.00027787406 -0.053371698
000350 fd c3 36 bd 8a b7 da 3c db 10 31 bc 28 d5 be 3d
       -0.044620503 0.026698846 -0.010807241 0.09318
000360 21 6f 20 3d ed 52 fa bc e6 aa 42 bc 1e 3d 04 be
       0.03916848 -0.03055712 -0.011881566 -0.1291394
000370 26 d5 03 3c 6e 01 ff 3d a6 d9 20 3e d6 d9 f4 3d
       0.008046424 0.124514446 0.15708026 0.119556114
000380 7e c8 ad 3d fe 17 1c 3d 49 f9 7e bc 7b d2 95 bc
       0.084855065 0.03810882 -0.015562364 -0.018288841
000390 b2 43 f7 bc da 95 92 bc c3 24 21 3b c2 5d 63 3d
       -0.030183647 -0.01789372 0.0024588562 0.055509336
0003a0 1e 64 41 3d b1 a8 80 bd 92 c3 96 bd 37 82 c4 3b
       0.04721462 -0.06282175 -0.07361521 0.005996968
0003b0 dc 6b 23 3d 7a 19 ca 3d d2 44 5b bb 5a 69 1e bd
       0.039897785 0.098681405 -0.0033457768 -0.03867469
0003c0 3c f7 92 ba f6 2f bb bd fd 44 49 3c 4e a0 97 3d
       -0.0011212598 -0.09140007 0.0122845145 0.074036226
0003d0 ed ef 77 bd 90 83 82 bd 12 57 fa bd 0c de 71 bd
       -0.060531545 -0.0637275 -0.122236386 -0.05904965
0003e0 97 2e f5 3c 21 60 d1 3d 26 2b b9 3a 41 8b 9b 3d
       0.029929442 0.10223413 0.0014127239 0.0759492
0003f0 dd f1 41 bb 67 8f 86 bc 14 6c 03 be 92 66 ba 3d
       -0.0029593625 -0.016425801 -0.12834197 0.09101595

network_body._body_endoder.seq_layers.4.bias f4 [256]
000000 4c e9 f4 3a af a1 92 bb 3b 59 b3 ba b8 5e 33 3a
       0.001868525 -0.0044748406 -0.0013683209 0.00068424223
000010 6d 63 25 ba fe 56 1c bb 26 76 1b 3b 92 e2 0b 3b
       -0.0006309066 -0.0023855562 0.0023721545 0.0021344763
000020 28 75 c5 3a 48 ae 1e 38 c1 22 00 ba a8 80 33 bb
       0.0015064823 3.7832448e-05 -0.0004887991 -0.0027389918
000030 02 61 56 3b fc fa 6d 3b 8a 88 aa 38 f0 a5 7e 3a
       0.003271163 0.0036312928 8.131664e-05 0.00097140577
000040 ee 4d 34 3b b8 87 e0 3a af 18 9e 3b 99 78 9a 3b
       0.002751227 0.0017130291 0.00482472 0.0047140834
000050 13 29 98 ba 8a 0f 8e ba 40 91 74 3a c0 25 f0 3a
       -0.0011608921 -0.0010838371 0.0009329505 0.0018321797
000060 3a 37 f7 3a 4c cd 09 bb 1e da 31 b8 28 a5 00 3b
       0.0018861063 -0.0021026907 -4.2403226e-05 0.001962969
000070 4b c5 c2 3a 38 7f 63 bb ec 35 3e 3b 6d a9 c6 3a
       0.0014859823 -0.003471328 0.002902384 0.0015156694
000080 db f6 1c 3b 64 3d 5a ba a3 87 6d ba 61 bb 9c 3a
       0.0023950848 -0.0008325188 -0.0009061044 0.0011957699
000090 1e fd 84 3a 89 9a c6 39 ee a0 f0 ba 68 2f e9 ba
       0.0010146236 0.0003788064 -0.0018358508 -0.0017790617
0000a0 2b f9 07 b9 4f 2c 8b ba ef bf fa 3a da 38 1f 38
       -0.00012967426 -0.0010618063 0.0019130687 3.79615e-05
0000b0 89 f4 6a ba 94 01 61 3b 43 db 3c bb 45 6a 5c b9
       -0.000896283 0.0034333216 -0.0028817214 -0.00021020423
0000c0 cf 9e 22 3a 06 4b b3 39 4d d6 17 3b a4 d3 86 37
       0.0006203474 0.00034197437 0.0023168505 1.6072598e-05
0000d0 4f 00 51 3b 59 40 0d ba 0b 7d 33 3b da df ff 3a
       0.0031891053 -0.00053883117 0.0027387764 0.0019521669
0000e0 20 5d 49 bb 7e 9c 9b 3b cf f1 46 39 9a 51 a3 3a
       -0.0030725673 0.00474888 0.00018972832 0.0012460232
0000f0 cb 3b 88 bb cf 85 9a b8 2e 90 28 ba d2 5a 45 3a
       -0.0041575185 -7.368216e-05 -0.0006430176 0.0007528487
000100 45 09 21 bb 94 ee 7f ba ed 5b 06 3b 18 fc 1c ba
       -0.0024572175 -0.0009763029 0.002050157 -0.00059884926
000110 66 4c 83 bb 3a ac d9 ba 11 66 83 bb 51 76 62 bb
       -0.00400691 -0.0016607114 -0.00400997 -0.0034555385
000120 14 47 28 3b 5b b1 03 ba 89 71 38 3b 92 89 65 3a
       0.0025677131 -0.00050236814 0.0028143844 0.00087561563
000130 79 7e 09 bb d5 5e d9 3a 5e fb 0a ba 57 c2 ae 38
       -0.0020979925 0.0016584048 -0.0005301739 8.333165e-05
000140 68 f3 3b 39 c1 7e 88 b9 d0 2f 8f 3a 66 21 3c 3a
       0.00017924386 -0.0002603438 0.0010924283 0.00071766076
000150 08 f9 89 bb 9c 59 fb 39 7d 57 c1 39 41 11 81 ba
       -0.004210595 0.00047941215 0.00036877012 -0.0009847061
000160 3d f7 94 bb 9b 65 37 3b 9c f0 47 b9 69 37 12 3b
       -0.0045460747 0.0027984146 -0.00019067753 0.002231086
000170 a0 31 38 3b 8c 98 5d 3b 75 7a b4 3b 17 72 80 3a
       0.002810575 0.003381285 0.005507762 0.0009799626
000180 b1 31 00 3b 7e 6b 1b ba 49 6d d6 39 ac 21 52 b8
       0.0019560868 -0.00059287983 0.00040898685 -5.009926e-05
000190 aa 58 55 39 ac 60 19 3b 15 ec bd ba 50 e0 83 3a
       0.00020346293 0.0023403568 -0.0014489914 0.0010061357
0001a0 a4 07 5b bb 07 d6 bb 39 87 17 ae 3a 64 c6 71 ba
       -0.0033421302 0.00035826882 0.0013282158 -0.0009222983
0001b0 27 e3 81 bb 72 14 ba 3a 51 5b a1 3b 4a 38 a9 ba
       -0.0039638462 0.0014196767 0.004924216 -0.0012910452
0001c0 83 89 46 3b 84 11 57 3b 99 e6 eb ba 17 59 c2 3a
       0.0030294366 0.0032816837 -0.0017997801 0.0014827576
0001d0 bb 3b 1d 3b 96 69 3a bb 2d b1 74 ba ca 14 85 3b
       0.00239919 -0.0028444282 -0.00093342626 0.004061316
0001e0 80 16 61 bb 91 73 79 bb 76 6e bc b9 f9 4f 28 ba
       -0.0034345686 -0.0038063268 -0.00035940454 -0.0006420608
0001f0 a6 db 38 3b 41 69 23 3b b2 9a 4c 3a 39 92 12 bb
       0.0028207093 0.0024934562 0.0007805034 -0.0022364988
000200 3a 4c ef ba f0 ea 37 3b 72 93 8a 3a 16 c4 a0 3b
       -0.001825697 0.0028063618 0.0010572507 0.0049061878
000210 74 a0 d2 b8 4d e4 64 3b 0b e6 1f 3b 23 8a 92 3a
       -0.00010043467 0.0034926117 0.002439859 0.0011180084
000220 d0 91 03 3a 13 08 a0 b8 72 af 12 3b f3 27 19 3b
       0.0005018981 -7.6308985e-05 0.0022382406 0.002336976
000230 62 a7 8e 3a 77 06 97 3b 3f 9a 62 ba f3 90 89 ba
       0.0010883624 0.004608925 -0.00086442 -0.0010495469
000240 44 e0 77 bb 32 c1 a6 b9 04 e3 56 ba a2 5b 45 3a
       -0.0037822882 -0.0003180593 -0.000819728 0.0007528608
000250 04 3d cf 3a 10 c4 01 bb ad 79 77 ba 84 08 71 bb
       0.0015811031 -0.00198007 -0.00094404334 -0.0036778757
000260 4c 5d 84 3b 88 36 a2 bb 2d 10 c9 ba 65 b0 22 3b
       0.004039442 -0.0049503483 -0.0015339904 0.0024824378
000270 70 a7 5a b8 c8 f5 82 3b 5b 8c 90 3a 2e 90 94 ba
       -5.213119e-05 0.0039965846 0.0011028157 -0.0011334473
000280 51 6e 5a 3a 91 a6 8c b9 03 95 89 3b ba 67 38 3a
       0.00083324785 -0.00026826983 0.004198672 0.00070344994
000290 17 a4 55 b7 fe a9 90 3a 45 fa 72 39 87 8c 2e bb
       -1.27339945e-05 0.001103699 0.00023172151 -0.0026634054
0002a0 76 b0 9e bb b4 40 04 bb 75 aa 0a 3b 03 1a 86 bb
       -0.004842813 -0.0020180168 0.002115873 -0.0040924563
0002b0 56 8b c5 3a a3 67 48 3b d6 77 22 bb c7 4c a5 39
       0.0015071433 0.003057935 -0.0024790666 0.00031528456
0002c0 d5 52 7a ba c1 7b 20 3b 66 bb 43 3a 62 4a 1a ba
       -0.0009549086 0.0024487826 0.0007466584 -0.00058857177
0002d0 bb 08 f1 ba 10 2e 2c 3b 03 9c ea 3a 64 09 0d 3b
       -0.0018389443 0.0026272573 0.0017899278 0.002152049
0002e0 0d 28 91 bb a6 e7 e3 ba 60 bc e3 b9 00 44 97 3b
       -0.0044298233 -0.0017387762 -0.00043437164 0.0046162605
0002f0 60 c7 78 3a 65 e3 7f 38 38 ff 6d 3a 4f f0 da ba
       0.00094901584 6.1008515e-05 0.0009078863 -0.0016703698
000300 be 9a 56 3b cd 6d e7 ba 49 97 bc ba 09 ab 6c 3a
       0.0032746042 -0.0017656625 -0.0014388348 0.0009028172
000310 eb c9 c2 39 02 b8 1e ba 22 70 32 3b b3 c7 00 3b
       0.00037153004 -0.0006054641 0.002722748 0.001965028
000320 03 b6 6d b8 1d a1 1e 3b 34 e7 1c 3b 80 0a 5b bb
       -5.6674715e-05 0.0024204918 0.0023941519 -0.0033423007
000330 b5 24 81 3b 62 af 56 39 ea 66 16 bb cc de 9e 38
       0.0039411434 0.00020473966 -0.0022949525 7.575526e-05
000340 1d de 83 38 48 71 ad bb 44 6e cc 3a 23 95 e7 3a
       6.2879386e-05 -0.005293045 0.0015596827 0.0017668348
000350 54 ed 5a bb 22 38 ca 39 7e 50 41 3b c4 95 80 bb
       -0.0033405619 0.00038570265 0.002949744 -0.0039241035
000360 a6 de 8d 3b 40 8f 01 b9 ff 60 a2 ba b4 69 9c b8
       0.0043295203 -0.00012355763 -0.0012388526 -7.4583484e-05
000370 04 b7 3f 3b d4 2c 6a 3a 62 da 83 3b 33 72 b8 3a
       0.0029253373 0.00089330715 0.004023836 0.001407212
000380 60 c9 01 ba 4b 38 47 3b 5e 94 a5 3a b8 b0 34 3b
       -0.00049509667 0.0030398543 0.0012632718 0.0027571153
000390 28 28 5b bb 1a ee bb 3a 62 31 f1 3a 84 c9 94 ba
       -0.0033440683 0.0014337928 0.0018401558 -0.001135156
0003a0 5e 11 2b bb 82 8b e1 ba 56 29 3e bb e2 3e bf 3a
       -0.002610288 -0.0017207714 -0.0029016337 0.0014590884
0003b0 b5 c3 c6 39 dc 73 05 3b 89 fb 42 ba 76 fc 30 bb
       0.00037911316 0.0020363247 -0.00074379944 -0.0027005947
0003c0 0a 74 87 3b c7 a2 2a 3b 59 72 0d 3b 45 56 44 3b
       0.004133706 0.0026036964 0.002158305 0.0029958647
0003d0 c9 09 6f 3a e0 53 07 3b 45 0e 41 3a c4 01 88 3a
       0.00091185846 0.0020649359 0.0007364492 0.0010376503
0003e0 38 ad 9e ba 94 df f8 b7 ba 0d 25 bb 9e 23 a0 ba
       -0.0012106067 -2.9668015e-05 -0.0025185184 -0.0012217646
0003f0 08 8c 12 3b 76 ca 15 bb d5 a1 3f bb bb dc 57 3a
       0.0022361297 -0.0022856272 -0.0029240747 0.00082344905

action_model._continuous_distribution.log_sigma f4 [1, 6]
000000 64 1c d4 3a b9 1d ae bb 3a 6b 73 ba ff b3 f9 3b
       0.0016182777 -0.005313602 -0.00092856924 0.007620334
000010 82 50 55 3a 9a cc b8 ba
       0.0008137302 -0.0014099062
