results/NearSingularity03/NearSingularity/NearSingularity-38968.onnx (onnx, 623772 bytes, 9 tensors)

network_body._body_endoder.seq_layers.0.weight f4 [256, 85]
00000000: 8e43 513d e898 fcbd c674 f2bd b0af f93b
00000010: 8c67 f53d 30f6 61bd add0 79bb 61f5 223e
00000020: f7fa f5bd bdca 773d 24d4 a7bd d054 a2bd
00000030: 46db a5bc 8725 643e 56eb 133e dca6 8d3d
00000040: 2826 a7bd 93c7 99bd b336 0a3e 57c6 c1bd
00000050: db4f 863d 849d 14be 3f0b 083c 927f ac3c
00000060: 809f 5d3d de39 473e a535 f4bc ac39 a43d
00000070: 7a6a bb3b 2110 2ebc fc34 a8bc 220a ec3d
00000080: c497 593d 22ef cf3d 466e b1bd 10ec c63c
00000090: d53c 3cbd 13ea 46be 5b18 a2bd 31f9 653d
000000a0: d01f 07be 4af3 95bd 5580 193e 1598 9b3c
000000b0: 3775 c03d 38d6 dd3d 72d1 2b3e 0f99 29be
000000c0: 4815 cfbc 2d6b 5ebc 98a9 843d 4814 c63d
000000d0: c422 593e 956d 7bbe e4f0 c83b ac5a 2a3d
000000e0: f4ec 243c a403 91bc 3af4 1dbe ff61 39bc
000000f0: 5151 97bd 8b27 57bc c078 1bbe 593e 2b3e
00000100: 1415 65be 7a33 673b 879e 013e 85f0 a2bd
00000110: c81a 46bd 1a3f 0c3d 55c5 043e b12a 893d
00000120: e006 293e 11ef e43d 1a4b 2e3d 1576 4bbd
00000130: 95f5 b3bd ce84 4abe 21cc a33d f62c 81bd
00000140: c9b1 553e 769e 583d 7d9e 103e 1840 f13d
00000150: 2ab3 f5bd f146 443c 6d7d 95bc 2d2e f93b
00000160: c079 0bbe 43e4 96bd 6188 c0bd 4062 c5bd
00000170: 561e 6ebe 28c1 f03d db3f acbd 0110 03be
00000180: 5bd4 80bd 7aec 00be 2603 2d3c b50b 49bd
00000190: 5ab6 493c 4150 aa3c c77d cc3d 9b75 483e
000001a0: b674 8ebd 0a44 e6bc d344 a7bd 546a 14bd
000001b0: c626 a43d 07fc a13d b667 19be 9f48 37bc
000001c0: a392 aa3d 5613 52bd f967 b0bc 43fa 52bd
000001d0: 9b2a 22bc 3b51 b53d d204 55bd 8d78 e43c
000001e0: 8edb 8eb8 e913 9f3b fa4c c9bd aad9 513e
000001f0: a63c 013e 4ab7 cf3d c129 49bd 5ff0 5d3c
00000200: d2d6 d03c 73d1 dd3c a8f3 173e d926 0ebe
00000210: 0151 933d 0b80 3cbe 83c6 ffbd af3e 813d
00000220: 585d 323c 83a7 663e 95a6 713d 4262 773d
00000230: d671 08be 603b 3cbe f727 d5bd e4ac 44bd
00000240: f81d 253d 0814 4dbd 3bb5 8b3d dba3 263b
00000250: 5ca2 c4bc d9a9 29bb 5c1f e1bd b87b c7bd
00000260: 3ebc 19be f7c2 c2bd d43e be3d 4af3 953c
00000270: 92e0 83bd f1ad d33d 7b53 75bc 4ffb e1bd
00000280: 007d 413a 5a58 bcbd ba3b cdbc 8df4 a2bd
00000290: c650 e33a 5f42 3c3d 8303 a83d 5d5f 01bd
000002a0: b426 983d 28bc 81be 2c27 53bd f3a2 8bbd
000002b0: 50c0 e4bd e8f3 0b3e 523d 8c3d f042 a73c
000002c0: 4cf8 91bd ba87 fcbc be52 8ebd 91e3 0a3e
000002d0: 4ce6 cabd 68c1 62bd 6a7f 893d 0a3b c23d
000002e0: 9073 0b3e 0c5b 37ba fdaa 4b3d 2951 30be
000002f0: ebe3 e93c 1787 be3c cfdb afbd 809f 3a3d
00000300: f811 a33d 552a 823e ebd5 da3d 7aab dcbd
00000310: bb78 213c 1190 203e e068 9a3d 015a ed3d
00000320: ea33 783c 38f3 69be 9ae5 403e adfa 103d
00000330: f8bf a73d 5a31 833d 8cc5 753d 8c07 e4bd
00000340: 3b14 13bd a5c5 5b3d c3e0 823a 80ec e43d
00000350: d60d 7a3c 55bb 013e 260d 983d 0559 093e
00000360: 2e33 abbd a990 923d 1604 05be 6a67 52bb
00000370: 826a 5f3e df4a 883c 1cf9 f23c 2793 5dbe
00000380: 4f26 503d da54 d0bc 8264 27be be04 fabc
00000390: f802 c13d 7e34 7dbd 3ad8 bf3d 9668 04be
000003a0: 23d3 d6bd bb6a 09be d903 c23a 52e5 aebd
000003b0: f3cf fcbd 6247 c0bd 12b3 d33d 9c27 a5bd
000003c0: ea1a 2e3e aa22 0cbe 3801 b4bd 41c6 32be
000003d0: f5ae 9fbd f67e cd3d 410c 9e3d f186 5e3a
000003e0: 8981 7e3e 75b2 343e 4ae9 cfbc 3f00 d1bd
000003f0: 71cd c03d e997 44bd 658c e33c b465 113e
0.051089816 -0.12333852 -0.11838679 0.0076198205 0.119826406 -0.055166423 -0.0038118765 0.15913917
-0.12010758 0.06049608 -0.081947595 -0.07926333 -0.02024616 0.2227994 0.14445242 0.069165915
-0.081615746 -0.07508769 0.13497429 -0.094616584 0.065582 -0.14513212 0.0083034625 0.021056924
0.05410719 0.19455668 -0.029810736 0.080188125 0.00571948 -0.010623963 -0.020533077 0.1152537
0.05312325 0.10153033 -0.08663611 0.024282485 -0.04595645 -0.1942523 -0.07914802 0.05614585
-0.1319573 -0.07321794 0.14990361 0.018993417 0.09397357 0.108318746 0.16779116 -0.16562293
-0.025278702 -0.013575357 0.0647766 0.09671837 0.21204668 -0.24553521 0.006132232 0.041590378
0.01006626 -0.017701931 -0.15425196 -0.011314868 -0.07388557 -0.013131986 -0.15182781 0.16723002
-0.22371322 0.0035278485 0.1265813 -0.07956032 -0.048365384 0.034239866 0.12965901 0.06697596
0.16506529 0.11178411 0.04255209 -0.04967316 -0.087870754 -0.19777223 0.07997919 -0.06307404
0.20868601 0.052885495 0.14122958 0.11779803 -0.119970635 0.011979804 -0.018248284 0.0076043815
-0.13620663 -0.07367756 -0.09401012 -0.0963788 -0.2325376 0.11755592 -0.08410617 -0.12799074
-0.062905036 -0.12590209 0.010559833 -0.04908343 0.012311542 0.020790221 0.099849276 0.19576113
-0.069558546 -0.028108615 -0.08167424 -0.036234215 0.08015208 0.079093985 -0.14980969 -0.011186748
0.0832875 -0.05128797 -0.021533953 -0.0515082 -0.009897853 0.08853384 -0.05200655 0.027889514
-6.811983e-05 0.0048546684 -0.09829135 0.20493189 0.12620792 0.101423815 -0.049112085 0.0135460785
0.02549306 0.027077412 0.14839041 -0.13882007 0.07193185 -0.1840822 -0.12489035 0.06310784
0.010886513 0.22524838 0.058996756 0.06039644 -0.13324675 -0.18382025 -0.10408013 -0.048016444
0.040311784 -0.05006793 0.06821676 0.0025427255 -0.0240032 -0.002588859 -0.109923095 -0.09740394
-0.15013215 -0.09509843 0.09289327 0.018304486 -0.06439318 0.10335911 -0.014973517 -0.110342614
0.0007380992 -0.09196539 -0.025052894 -0.079568006 0.0017342798 0.045961734 0.08203795 -0.031585086
0.07429257 -0.25338864 -0.05155103 -0.068181895 -0.11169493 0.13667262 0.068476334 0.02041766
-0.07127437 -0.030826438 -0.069493756 0.13563372 -0.09907207 -0.055360228 0.067137554 0.09483917
0.13618302 -0.0006994463 0.049723614 -0.1721846 0.028551063 0.023257775 -0.08586847 0.045562267
0.07962412 0.25422922 0.10685333 -0.10774894 0.009855445 0.15679957 0.075395346 0.115894325
0.015149096 -0.22846687 0.18837586 0.035395313 0.08190912 0.064058974 0.06000285 -0.11134252
-0.035907965 0.053655285 0.0009985197 0.11177921 0.015262088 0.12669118 0.07424383 0.13412865
-0.08359371 0.07156498 -0.1298984 -0.0032105097 0.21817973 0.016637264 0.0296598 -0.21638165
0.050817784 -0.025431085 -0.16346934 -0.03051984 0.09424394 -0.06181764 0.09367414 -0.12930521
-0.1048949 -0.1341962 0.0014802172 -0.08539833 -0.12344351 -0.09388615 0.10336889 -0.080641955
0.17002454 -0.13685098 -0.08789295 -0.1745844 -0.07797042 0.100339815 0.07717181 0.0008488736
0.24854101 0.17646201 -0.025379796 -0.10205125 0.09414185 -0.047996435 0.027776906 0.14198953

network_body._body_endoder.seq_layers.0.bias f4 [256]
00000000: 180a 063b aad1 91b9 a62e f3bb c115 03bb
00000010: f9d0 dabb 7fe8 10ba dadf 1cbc 41d0 ba3b
00000020: b6b5 32bc 3cb9 ddbb e95e 6cba aa7c 203a
00000030: d574 26ba f8cb 0b3b 4608 3fbc 9dd3 e5bb
00000040: 9029 043c 5790 64bb a00f beba a503 0abb
00000050: c952 fc3b 642d 1fbb 227a 1d39 d5dc 43ba
00000060: 56de 9abb 8211 dbba 497b 99ba 8508 d4bb
00000070: cba3 adbb 7d69 dfba adf4 fbbb c6f4 783a
00000080: 4613 2c3a e2af 92bb 3da3 68bb 54bc 563a
00000090: d641 4eb8 20fe 3dbb 1c6b 403b 0bcf 843b
000000a0: 8801 a33b b2fa 013c cc07 a1bb a1ae 43ba
000000b0: 51e1 733b a796 823b ecee a83b f445 f9bb
000000c0: 9798 0ebc 83d9 17bc abf7 55bc 31f6 25bb
000000d0: 7af9 a3bb 8737 37ba c101 33bb fe20 56bc
000000e0: 6aa0 953a 8a24 13bb 3f01 6c3b 29f4 9939
000000f0: 2e26 b83c 7d2a 85ba dbd7 43bb 500f d1bb
00000100: 051a c5bb 601d 423b f9fc bf3b 0336 b0bb
00000110: 0afb 6cbb 0598 073b f0dd ba3a 32b6 35bb
00000120: 2f57 0fba 0528 38bb 26f5 d53b 8e26 003b
00000130: 8e11 053c a752 febb 58b0 34bc 8032 02bc
00000140: 6a15 e3bb 2fa2 49bc e6dd 0f3c 3d27 053c
00000150: 98e4 9aba 839b f0ba a894 c3b9 4cf9 9bbb
00000160: da88 e9ba e29e 07bb 173a 13ba c062 17b9
00000170: 6ad6 dbb8 fd3c 3e3b 45d5 83ba 5e84 893b
00000180: 25d2 04bc 8bc1 f0ba 0b18 31bc 52b8 93bb
00000190: ffed 163b 9785 8039 2e3f 5fbb b7ac 103b
000001a0: e5e1 5d3b b98e 483c 85e5 26bc b9ad c53b
000001b0: 36b6 a1bb 5d97 973b 0552 b03b e96e ccbb
000001c0: df3a 2dba 6390 db3a 2b90 103b 5609 bbbb
000001d0: 45bc 273b 3bd1 b03b 508b 70bc b44d d4bb
000001e0: 0e87 13bc 4283 953b 3326 f5bb 1333 99ba
000001f0: 1baa 573b ec9f a5bb 4e34 cc3b e5e8 90b9
00000200: ba65 fd3b 2c0e cc3b ca8d 5f3b d0aa 4339
00000210: 417f 993b b55e 74ba 2b90 493a 6855 00bc
00000220: f405 fd3b 2262 6eba 3a82 7b3a 0ea7 d23a
00000230: f641 8bbb 9f7a b1bb e5c4 e1bb 31cd b83a
00000240: 411e 97bb 087d 03bc 79db 173a f501 94b9
00000250: 8a32 32bb 0482 53bb e1cc 343c 8521 3a3b
00000260: 3336 38bc a65b 96ba 4720 bdba 6139 f5bb
00000270: 8f26 70ba c69f 2ebc f90c b6bb 0529 18bc
00000280: a1ec cf3b 8370 5c3b 3978 1cbc 3e15 c6bb
00000290: 1f05 1bbc d4de 1bbb 31ad 563a 41f4 8c3b
000002a0: 5b9c 11bb ed2f 25bc 6aaa ae3a c4ba 9cbb
000002b0: b895 3abc 695d f6bb fed3 30bc 68e9 3cbb
000002c0: 67e2 b1bb 424a cdbb 627c 9abb 2f97 903b
000002d0: 24bf 783b fc79 adbb 4201 bdbb af37 c3ba
000002e0: 3462 463b f893 ae3b b4b9 d4bb 2229 d23a
000002f0: 5ad0 eeb9 96db b5bb a43b 443c fe5c bebb
00000300: 3bb3 a2ba 4115 0c39 0edf 22ba e9f8 44bb
00000310: 4eb3 003c 18e8 dbba 8d8e 0bbb 758f 613b
00000320: 79f5 efb9 d9e2 1f3a c363 ad3b 9cd8 0c3c
00000330: 8815 253a 7a83 593b bc10 15bc b125 79bb
00000340: 4711 88bb 1173 b5b9 8953 2dbb 957a 6bba
00000350: 690d f1bb a0cb 62bb ba57 28bc c94f d23b
00000360: 8d33 25bc 3e9e b23a f940 12bc 7790 7ab9
00000370: 0528 89bb bac2 19bc 15dd 723a 0791 39b9
00000380: b93d f33b bf15 cf3a 89a2 09bb 0669 e6bb
00000390: 13df c2bb e7a8 5d3b 9477 6dbb 0a3c 823a
000003a0: d68d 47bc 267e 07bc 26fa f23b 1ed8 cb3b
000003b0: 6d09 1bbb fc78 cbbb 84f5 22bc 9aac 00bb
000003c0: a82f 6abb 8fe9 113b d08d 923a 8739 37bc
000003d0: fc70 58bc 9cb5 73ba fc23 de3a 4bd6 0cbb
000003e0: b206 c039 db11 4339 2498 b736 7b25 363b
000003f0: 88cb b5ba 5b27 233c e65e 153c 9d7f 0dbc
0.0020452794 -0.00027812767 -0.0074213324 -0.002000198 -0.0066777435 -0.00055278087 -0.009574855 0.0057010953
-0.010907581 -0.0067664664 -0.0009016828 0.0006122092 -0.0006349807 0.0021331292 -0.011659687 -0.0070137517
0.00806655 -0.0034876072 -0.0014500506 -0.0021059301 0.0077002984 -0.002428853 0.00015018185 -0.0007471566
-0.0047262115 -0.0016713592 -0.0011709715 -0.006470742 -0.0052990667 -0.0017044988 -0.0076890797 0.00094969233
0.0006564151 -0.0044765333 -0.0035497688 0.0008191515 -4.917554e-05 -0.0028990582 0.0029360717 0.0040530018
0.004974548 0.007933306 -0.0049142595 -0.00074646814 0.0037213156 0.0039852443 0.005155435 -0.007607216
-0.008703372 -0.009268167 -0.013059537 -0.0025323743 -0.005004105 -0.000698917 -0.0027314278 -0.013069389
0.0011415605 -0.00224522 0.0036011485 0.00029364348 0.022479143 -0.0010159757 -0.0029883299 -0.006379999
-0.0060150647 0.002961956 0.005859014 -0.0053775324 -0.0036160373 0.0020689976 0.0014256816 -0.0027727005
-0.00054680085 -0.0028100025 0.006529468 0.001955423 0.008121861 -0.007761318 -0.011028372 -0.00794661
-0.006930043 -0.012306734 0.008780932 0.008127031 -0.0011817394 -0.0018356893 -0.00037304056 -0.004759943
-0.0017817274 -0.0020694067 -0.0005616261 -0.0001443727 -0.000104826715 0.002902805 -0.0010058066 0.0041966876
-0.008106743 -0.0018368227 -0.010808955 -0.0045080567 0.002303004 0.00024513595 -0.0034064758 0.0022075602
0.0033856567 0.012241059 -0.010186558 0.0060326722 -0.0049350513 0.004626198 0.0053808712 -0.0062388075
-0.0006608199 0.0016751405 0.0022058587 -0.0057079 0.0025594395 0.005396036 -0.014681652 -0.0064789895
-0.0090043675 0.0045627663 -0.0074813603 -0.0011688195 0.0032907787 -0.0050544646 0.006231821 -0.0002763934
0.007733074 0.0062272754 0.0034111612 0.00018660282 0.0046843593 -0.0009321974 0.0007689024 -0.007832862
0.007721657 -0.00090936024 0.00095942954 0.0016071515 -0.0042498065 -0.005416229 -0.0068899267 0.0014099238
-0.004611761 -0.008025415 0.0005792897 -0.00028230218 -0.0027190768 -0.003227354 0.011035175 0.0028401327
-0.011243391 -0.0011471405 -0.0014429175 -0.0074836467 -0.0009161019 -0.01065821 -0.0055557457 -0.009287124
0.006345347 0.0033636398 -0.009550148 -0.0060450127 -0.00946167 -0.002378394 0.00081892597 0.0043015783
-0.002221844 -0.010082227 0.0013325934 -0.0047830064 -0.011388235 -0.0075184596 -0.01079273 -0.0028825644
-0.0054286006 -0.0062649557 -0.0047145346 0.0044125537 0.0037955726 -0.0052940827 -0.005767972 -0.0014893914
0.0030270936 0.005327698 -0.006491864 0.0016033987 -0.00045550131 -0.0055498583 0.01197711 -0.0058094254
-0.0012413034 0.00013359358 -0.00062130473 -0.0030055589 0.00785525 -0.0016777543 -0.0021294684 0.0034417782
-0.00045768524 0.00060991716 0.0052914335 0.008596566 0.0006297459 0.0033189938 -0.009098228 -0.003801685
-0.0041524502 -0.0003460874 -0.0026447496 -0.0008982805 -0.007356335 -0.0034606233 -0.010274822 0.0064182025
-0.010083091 0.0013627482 -0.0089266235 -0.00023895675 -0.004185679 -0.009384805 0.0009264511 -0.00017697002
0.0074231294 0.0015799328 -0.002100142 -0.0070315627 -0.0059470027 0.0033822597 -0.0036234604 0.0009936106
-0.012179812 -0.008269822 0.007415074 0.0062208315 -0.0023656741 -0.006209491 -0.009946231 -0.0019634129
-0.0035733972 0.0022264456 0.001118118 -0.011183149 -0.013210531 -0.0009296776 0.001694798 -0.0021490033
0.00036626082 0.00018603301 5.4715365e-06 0.0027793336 -0.0013869861 0.009958114 0.009116864 -0.008636382

network_body._body_endoder.seq_layers.2.weight f4 [256, 256]
00000000: e65a a7bc c338 96bd c7bc be3d 7e56 713d
00000010: 9b7f 42bd 70c7 083e e693 b4bd e867 5abd
00000020: 736c a73b 12bd 423d 5cc2 a93c 8a15 af3d
00000030: 7a4d b43d 3643 0a3e b189 49bd 1500 92bd
00000040: a620 013e 079f 863d 75ba 94bc 341c 413d
00000050: d418 5fbd 7598 95bd cf47 103e 5d43 98bc
00000060: 1866 053c fdfd afbd d297 de3d 9670 793d
00000070: 4b51 a23d 9972 81bd 0812 c83d 0ded 9e3d
00000080: 0e95 343d 4544 1f3e 5293 99bc efbe 93bc
00000090: 3e7d 363d 5ebb 973d b7dd 433d 9150 823b
000000a0: 519d 3bbd b12e fa3d 248e 673c 16ef 9f3d
000000b0: 851e 5a3d cb83 303d 5d31 93bc 8f39 d9bd
000000c0: 7b98 3d3d 61a0 c2ba 4496 83bd 549d 57bd
000000d0: 4643 9a3d 8860 4d3d 3d49 f1bc 8809 0bbd
000000e0: 5b68 1cbe 0293 133a ecbe 08bd dfba b0bd
000000f0: a0ed 18bc 3fb2 e53d b70c d53d 07cb 4c3d
00000100: cd0e 4b3d f4eb 613c 980e 90bc f27a 54bd
00000110: 5a8d 7f3d 34a1 98bd ed8d 7ebd 8e7f 3dbd
00000120: 3f1f 7abd 1de3 933d 239d a0bd e8ba 8ebc
00000130: 4213 b93d 504a a13c dee8 023e 0bfa 523d
00000140: ddae a4bc be95 37bd b4b0 523d 0b0e 28bd
00000150: 37cd 8a3c a23c a23d f2ac d03d 588f 81bd
00000160: ada3 423d c268 a2bc 06da 9b3d ec37 2dbd
00000170: 195f 9dba 4db9 c4bd 97ca 53bd 746a 853c
00000180: 654b f73c 3436 c63c f894 033c 292b 4ebd
00000190: 3efe f73b 350d babb c2e8 8abd 0b9a 143e
000001a0: adcc 6fbc 64bd d8bd 1ffb 47bd 47e5 6cbd
000001b0: 0005 213d 37a6 cf3d f074 653c 25bf 31bd
000001c0: f8a4 f5bc 2ef8 b73d 573c d43c eb4f 88bd
000001d0: 6c7d d8bc 4e56 073e e668 133c ab90 5abc
000001e0: 5e01 53bd a38c c73b 37da 07bd f51b 76bd
000001f0: 0609 09bb c508 8dbd 75c5 3ebd db96 1d3d
00000200: 5ffc 2c3c ea87 b33d 5fb4 043d 00a6 8abd
00000210: ef16 2339 818a d43c 9935 34bc ea35 62bd
00000220: 2d4a f53d 80af 963d fabc 04bc b80d 873d
00000230: b295 c63d f896 82bc 997f bdbc 5ccf 84bd
00000240: cda5 8fbd 73ed e9bd 8bc9 8ebc 150b 76bd
00000250: e872 923d ca7b 213d 6b4d 67bc 4c7e 883d
00000260: bc72 68bc ceac 983d e00e 0dbe 3560 a03c
00000270: b816 b8bc e276 16be a702 893d 368f 453d
00000280: d475 413d f96e 163c 95f5 11be c594 19bd
00000290: 40a9 a53d 83bd 843d 4375 103e 7a88 55bc
000002a0: 87bf 87bc f8a5 fe3d 49da 99bd b196 6e3d
000002b0: 1684 98bc 07ec 5a3b f9d2 28bc 7fec 4ebc
000002c0: e402 97bd a2e6 4c3d b73a 32bd 8c3f b0bd
000002d0: ae4f 64bd 1b67 74bd f68c aabd 59d9 8bbd
000002e0: 6645 febc 555d 3ebc a71e 72bb ee4f 92ba
000002f0: 7b18 a1bc f186 92bc 93c4 4f3d 1213 823d
00000300: db5b ac3c 2104 d9bd 0b66 1ebe 09ef 333c
00000310: b356 49bd babf 423d a361 91bd 4bfc b83d
00000320: d834 27bd 81d2 d6bc dcf8 94bd 20ef c93c
00000330: 1dc7 a5bd 58bf ac3c bc07 8c3c 9e80 0bbd
00000340: 969d 4cbd 47a7 f6bc 6a54 dbbc cd31 e13c
00000350: 48e7 723c f81b 623c 6051 a93d 73d2 e13c
00000360: 6901 883d 5471 e8bb a55c 823d 9910 14be
00000370: ebdf 453d a5ac cf3d 5cdc c23c f22c e6bb
00000380: 723e 4dbd 918a 303d 8384 80bd e735 e7bd
00000390: e2e6 2e3d 2bc1 6e3d 988a 9c3c ae85 ecbc
000003a0: 3741 083e 069d 7e3d 1de0 ba3c 2970 d2bc
000003b0: d997 a33d 3cd5 363c 0bf4 653d c6a6 d33d
000003c0: 6164 83bc b8ce 013c 2d78 063d 1a0b 83bc
000003d0: ae09 8dbd 3e3f 66bc 4a2f e83c 44c4 093e
000003e0: 0eae 19bb 8ad1 e93d 2ca4 eabd 656d 2c3d
000003f0: 1046 a93c f7b8 c23c 1009 1a3d 305b 71bd
-0.020429086 -0.07335045 0.0931335 0.058920376 -0.047484975 0.1335733 -0.08817272 -0.05332175
0.0051093637 0.047543593 0.02072256 0.0854903 0.0880384 0.13502201 -0.04920358 -0.07128922
0.1261011 0.06573301 -0.018155316 0.047146037 -0.054467037 -0.073044695 0.14089893 -0.018586809
0.008142017 -0.08593366 0.10868801 0.060898386 0.07925662 -0.06320686 0.09769064 0.077600576
0.044087462 0.15553387 -0.018747006 -0.01803538 0.044553034 0.07408784 0.047818866 0.0039768894
-0.045804325 0.12215937 0.01413301 0.07809274 0.053251762 0.043094438 -0.017967874 -0.106066816
0.046287995 -0.0014848822 -0.06425145 -0.052640274 0.07532363 0.050140887 -0.029453868 -0.033944637
-0.15274183 0.0005629511 -0.033385202 -0.08629393 -0.009333998 0.11215638 0.10402816 0.04999831
0.049574662 0.013789166 -0.017585084 -0.051875062 0.062390663 -0.07452622 -0.06214707 -0.046264224
-0.061064955 0.07221053 -0.078424715 -0.017423108 0.09036876 0.019688755 0.12784144 0.05150799
-0.020102913 -0.04482054 0.05143805 -0.041029017 0.016943557 0.07921721 0.10189237 -0.06326169
0.047519375 -0.019825343 0.07609944 -0.04228966 -0.0012006491 -0.09605656 -0.051706877 0.016286112
0.030187318 0.024195768 0.008031122 -0.05033413 0.00756815 -0.005677844 -0.06782676 0.14511888
-0.014636201 -0.105829984 -0.048823472 -0.057835843 0.03931141 0.10139125 0.014004931 -0.04339518
-0.02998589 0.089828834 0.025907679 -0.06655868 -0.026426993 0.13216516 0.008997178 -0.013340156
-0.051514976 0.0060897633 -0.03316709 -0.060085256 -0.002090992 -0.06886438 -0.04657503 0.038473945
0.010558217 0.08766158 0.032398578 -0.06769943 0.00015553435 0.02594495 -0.010999107 -0.055227198
0.119770385 0.07357693 -0.008101696 0.065944135 0.09696521 -0.015941128 -0.023132132 -0.06484863
-0.07014046 -0.11422243 -0.017430088 -0.060069162 0.07150823 0.039424695 -0.014117579 0.06664714
-0.014187511 0.07454835 -0.13775206 0.019577125 -0.02247177 -0.14693788 0.06689959 0.04823228
0.04723151 0.009181731 -0.14253838 -0.037495393 0.080889225 0.06481459 0.14107232 -0.013033027
-0.01657082 0.12434 -0.07512338 0.05824918 -0.018617671 0.0033404843 -0.010304206 -0.012629627
-0.07373598 0.050024636 -0.043513026 -0.086058706 -0.05574005 -0.05966864 -0.083276674 -0.06828565
-0.031038951 -0.011618932 -0.003694454 -0.0011162737 -0.019664994 -0.01788661 0.050724577 0.063512936
0.021039894 -0.10596491 -0.15468614 0.010982283 -0.04915495 0.047546126 -0.07098701 0.09032496
-0.04082188 -0.026223423 -0.07274029 0.024650156 -0.080946185 0.021087334 0.017093532 -0.034058206
-0.049954973 -0.03010906 -0.02677365 0.027489567 0.01482565 0.013800614 0.08267474 0.02756617
0.06640894 -0.007093588 0.06365327 -0.14459457 0.048309248 0.10140351 0.023786716 -0.007024401
-0.05010838 0.043100897 -0.062752746 -0.11289578 0.042700656 0.058289688 0.019109055 -0.028872337
0.13306127 0.062161468 0.022811944 -0.025688248 0.07987947 0.0111592375 0.05614094 0.10334544
-0.016039075 0.007922821 0.032829452 -0.015996505 -0.06886612 -0.014053164 0.028342862 0.13453776
-0.0023449692 0.114169195 -0.114570946 0.042096514 0.020663291 0.023769839 0.0376063 -0.058924854

network_body._body_endoder.seq_layers.2.bias f4 [256]
00000000: b3e0 8039 aa56 953b c9bf 213b 6d3c 99ba
00000010: 975c a8b9 b58f bf3a a25c 76bb e78c 55bc
00000020: f73c 71bb 13a9 ef3b fc4d b3bb d4d0 bf3a
00000030: c8e2 48bc 42df 2bbb 8c87 0639 0637 9bbb
00000040: 7787 09bc a914 633b 4558 dbb9 aba6 94ba
00000050: 9c19 1837 de8a 583b 1a02 c33b be94 933a
00000060: 56a8 21bb 14a9 0c3a d741 3cbc 9959 a2bb
00000070: 2cbf 3c3a 26fd 38bc 85d7 10bb 0c95 25bb
00000080: 70cf ffba b7db 43bb 9a48 223c 518e 10bc
00000090: 828c bd3b 7aeb 5fbb 09f1 e43a 2965 b83b
000000a0: 8cf8 f7bb 5aa3 bdba c46d 873a bd49 d33b
000000b0: ccc7 cdbb b978 d4b7 1266 eabb a5fa ad3a
000000c0: 93aa 24bc f130 21bb 2690 debb c834 71bb
000000d0: e89a c53a 7905 0bbb 7aae 573c 3fbb 353c
000000e0: b346 4bbc bfcc 943a 3c20 08bc 7a15 b93b
000000f0: 5aaf c33b 900c 6cbb 4244 983b 81e0 8fb9
00000100: abfe a1bb 9e26 4cb9 26b7 fcbb c698 59bb
00000110: 5a3a 463c c8a3 9d3b 2c3a 4cbb ca9f 0ebb
00000120: 268c 88bb 5ad0 dabb 76f9 863b e523 febb
00000130: 8b47 103b a003 733b 209a 203c d270 d63b
00000140: 0931 943b 3385 f03a 9d14 5eba 0ff1 1c3b
00000150: 62c5 8fba 9e21 803a d8c5 a2bb eb15 4a3c
00000160: 8777 433c 0647 343b 800a 283c 6069 9c3b
00000170: f941 a1ba e539 30bb cb3d 88bb fd53 10bb
00000180: 5aa7 16ba cdc6 e83b 8793 0bbc 015d 46bc
00000190: 4c80 4f3a d7b8 e23b 40ab 8ebb bf6e eb3a
000001a0: 7ee5 6a3b 47e4 10bc e0aa 033c e66c aa3b
000001b0: d53c 1c39 56ac 16bb 7d4d 9ebb f192 eb3b
000001c0: 4dc9 92bb 5bff 9f3a 8bde 843a abed 93bb
000001d0: f819 963b dbd9 8d38 caf5 3d39 3026 d9bb
000001e0: 44b6 f93a e2f8 59bb 6f2c 04bc a6f6 77bb
000001f0: 0950 a43a 0cc7 c63b b937 383b f5c1 bbbb
00000200: a30b 0b3b f8ef 20bc 2771 d8ba 0fcc a4bb
00000210: 787b e13a b0bc 133a 1d16 05bc 3fc4 2fbb
00000220: 3b61 0abc 19c5 97bb eb3c ebbb 398f 52bb
00000230: e5f8 6fbc d691 2d3b 5ab3 013c 657a ebba
00000240: 4098 d3bb c25d c4bb 9138 84bb 480e 9a3b
00000250: f810 37bc eb78 643b 0006 8abb 80df dabb
00000260: 8080 883b 561a d03b 8e12 49bc 5cc9 e83b
00000270: f78f 5a3b 1ded 433b 4c3b 143b bc98 f4ba
00000280: 100b f1bb 84fc b23b 2b2b 06bb 10e3 44bc
00000290: 7854 4d3b 6714 c7bb ca82 1a3b f68a 9bbb
000002a0: ab96 fcba 7039 77bb a15a 82bc a177 273b
000002b0: 2ca9 88bb fffd 54b9 be9d 003c fcd2 9a3b
000002c0: 0d09 d1bb 583e 843b c6aa 5b3a f2ed debb
000002d0: 511b f33a 3362 a43b f183 8b3b 4068 18bc
000002e0: 4ed1 24bc 3c92 283b 6b93 0a3c dfd0 23ba
000002f0: bd57 b1ba f0d5 e0bb d6ab 8ebb 3e8b 2abc
00000300: 1230 123b 3bd6 07ba 4a5c 843b 94a3 3dbc
00000310: c473 f0bb 220f 96bc b276 1d3c 1ee9 ccbb
00000320: 78ff 9cba a897 a5bb 22bb 8e3b 326a 9dbb
00000330: a6b6 e93b 0a56 d23a f404 1339 b510 aebb
00000340: ab67 2d3b 7965 c939 5f8b 493b 0f77 76bb
00000350: 2c6e c53a 5cb7 50bb 413e 81ba a3ae 98bb
00000360: 9c38 21ba 7939 f63a cfba 143a dbfe 433b
00000370: 1de4 c9ba 4be3 3a3b c881 963a b135 9fbb
00000380: b547 ae3b 0540 1d3b c441 ce39 27e2 113b
00000390: bf91 d8ba 48f3 5e3b abdb 8dbb 84e3 05bc
000003a0: b913 0bbb de8d 01bc b61a 6db8 25f9 89bb
000003b0: 658c a0bb a46d 233b 8055 ea3b db1f d83b
000003c0: 0bcd 88bb 4595 3fbb 5e16 6dbc 68b7 0cbc
000003d0: b935 a3ba 8f2f b93b f3e1 b539 62f8 8f3b
000003e0: fcfb bdb9 32d1 32bc a5a6 44bb 42cc 303a
000003f0: 0877 933b c95c 103b 0cf4 13bc a701 683b
0.00024581476 0.0045574503 0.0024680963 -0.0011690982 -0.00032112442 0.0014614972 -0.0037591835 -0.013034082
-0.003681002 0.0073138564 -0.005471943 0.0014634379 -0.0122611 -0.0026225601 0.00012829731 -0.004736784
-0.008394114 0.0034649766 -0.000418367 -0.0011341175 9.065869e-06 0.0033041756 0.0059511783 0.0011259539
-0.0024666986 0.0005365771 -0.011490307 -0.0049545285 0.00072001177 -0.011290824 -0.0022101116 -0.002526584
-0.0019516777 -0.00298856 0.009905005 -0.008822993 0.005784572 -0.0034167455 0.0017466854 0.0056272936
-0.007567471 -0.0014468238 0.0010332395 0.0064479993 -0.006279921 -2.5328585e-05 -0.007153281 0.001327355
-0.010050434 -0.0024595822 -0.006792086 -0.0036805142 0.0015076073 -0.0021212979 0.013164157 0.011092006
-0.012406993 0.0011352523 -0.0083084665 0.005648312 0.0059718313 -0.003601823 0.004646809 -0.00027442354
-0.004943689 -0.00019469342 -0.0077122627 -0.0033202632 0.012098873 0.004810784 -0.0031162603 -0.0021762722
-0.0041670976 -0.0066776695 0.0041190935 -0.007755744 0.00220153 0.0037081018 0.009802371 0.006544211
0.004522447 0.0018350243 -0.00084716995 0.0023947393 -0.0010968859 0.0009775644 -0.0049674325 0.012334327
0.011930353 0.0027508154 0.01025641 0.004773304 -0.0012302987 -0.0026889977 -0.004157757 -0.0022022717
-0.0005746983 0.007103777 -0.00851906 -0.012107135 0.0007915541 0.0069190073 -0.0043539107 0.0017962082
0.0035842354 -0.008843488 0.008036345 0.00520097 0.00014899981 -0.0022990904 -0.0048310147 0.0071891476
-0.0044795633 0.0012206839 0.0010137124 -0.004514416 0.0045807324 6.763983e-05 0.00018116008 -0.0066268668
0.0019051512 -0.0033259918 -0.008067234 -0.0037836223 0.0012536059 0.0060662087 0.0028109385 -0.0057299086
0.0021216653 -0.009822838 -0.0016513214 -0.0050292085 0.0017202934 0.00056357216 -0.008122948 -0.0026819853
-0.008446033 -0.00463165 -0.007178893 -0.0032128824 -0.014646743 0.002648463 0.007916296 -0.0017965554
-0.0064573586 -0.005992622 -0.0040350636 0.0047014095 -0.011173479 0.0034862112 -0.004212141 -0.0066794753
0.004165709 0.0063507957 -0.01227249 0.007104082 0.003334997 0.002989597 0.0022618352 -0.0018661241
-0.007356055 0.005462231 -0.0020472507 -0.012017027 0.0031330865 -0.00607543 0.0023576492 -0.00474679
-0.0019270977 -0.0037723444 -0.015912356 0.0025553482 -0.0041705575 -0.00020312516 0.007850109 0.0047248583
-0.0063792528 0.0040357523 0.0008379634 -0.0068032676 0.001854757 0.005016589 0.004257672 -0.009302199
-0.010059668 0.0025721928 0.008457999 -0.0006249081 -0.0013530176 -0.006861441 -0.0043539805 -0.0104091745
0.0022306484 -0.0005181764 0.004039322 -0.011574645 -0.007338019 -0.018317763 0.009610819 -0.0062533757
-0.0011977991 -0.005053479 0.004355804 -0.0048039192 0.007132369 0.001604737 0.00014020858 -0.00531205
0.0026459496 0.0003841331 0.0030753238 -0.0037607586 0.0015062741 -0.0031847572 -0.0009860472 -0.00465949
-0.0006150098 0.0018785439 0.00056735886 0.0029906544 -0.0015403066 0.0028516825 0.001148277 -0.0048586954
0.0053186067 0.0023994457 0.0003934038 0.0022260041 -0.0016522928 0.0034019519 -0.004329165 -0.00817192
-0.0021221472 -0.007907359 -5.653008e-05 -0.0042106085 -0.004899549 0.0024937177 0.0071513057 0.0065955943
-0.0041748337 -0.0029233259 -0.014470665 -0.008588649 -0.0012451924 0.0056514214 0.00034691356 0.004393623
-0.00036236632 -0.010914134 -0.0030006554 0.0006744304 0.0045002736 0.002202796 -0.009030353 0.0035401375

network_body._body_endoder.seq_layers.4.weight f4 [256, 256]
00000000: 5b51 813d 1028 943d f88e 033d 8077 87bd
00000010: a3e5 843d 1a14 48bd 5fdb 263d 0698 363e
00000020: 4625 96bd 153d b13c 8d08 14bc 0860 dabc
00000030: ad8f 2cbc 619e cfbd 3059 623d 08be 46bb
00000040: b82c 443c e3e1 80bc d910 6d3d a5c9 a5bd
00000050: 4e8a 84bc 83ac b6bd 2443 bfbc 2c32 eebb
00000060: b49e 58bc b388 513c 18ce cbbd 1b00 473c
00000070: 9be2 54bd d5e0 5cbd f688 f13d b573 99bd
00000080: 026d 683d a930 9e3d 3eea 71bd b6c8 ab3d
00000090: 7af7 e53c 597c 803c b042 9b3c f56a 7f3d
000000a0: c8f0 6f3d 95a7 693d bb21 5abd f1c4 193d
000000b0: b635 1dbc d4ba 423d 6a75 33bd ae19 a6bc
000000c0: 11ac 033c 44e0 2bbd c9d5 7c3c e520 033d
000000d0: 7541 0fbd 8695 2b3e 8b9e 303d 28de 363a
000000e0: 1481 80bd e9aa a2bc 9402 60bd 1a37 693d
000000f0: 80fb fe3c 7972 89bd 8095 62bd 275d 2d3c
00000100: c505 99bd 0fed bdbb 0d96 00be f8a8 143d
00000110: 76fc d1bd 6d72 763d 7e88 e1bc 9d05 c43d
00000120: 336b ad3b a57d dc3d b903 4bbd a1b5 223d
00000130: a8ce 2ebd 1283 7fbd 612d 8b3b 2789 7ebd
00000140: 4d64 523d 0ddc 9d3d 78a7 293d 0162 1f3d
00000150: 0f1b dabd e942 363d 4481 abbd a73c 5f3d
00000160: 92eb 663d 0909 56bd 0c73 e8bc 0208 403d
00000170: c23f 223b c16d 11bd 5849 41bd f699 14be
00000180: 2774 ce3d ee84 d9bd ee47 09bc d2e6 44bd
00000190: 0301 b4bd a155 e93d 4141 cbbd 5396 afbd
000001a0: 2a0c fe3c 72b9 8abc 8572 c0bd f4bf 093d
000001b0: 712b 92bd 34da eabc 49c6 473d a82b 42bd
000001c0: 42f4 4c3d 2448 f13d a60c 48bd f812 4bbd
000001d0: 5899 f33d 3da1 f73d dac4 afbd 806e 9ebd
000001e0: 48aa 41bd d94d 05bd 836f 06be e01d a0bc
000001f0: b299 9e3d 4689 2fba 51a4 373d 8d59 963c
00000200: ff03 67bd 1e0d 453c 0b5b b5bc 4f08 8fbd
00000210: db27 85bc 995b 9ebd 3cc3 2b3c 6d63 643d
00000220: e8a4 67bd e31c 963d c2a3 31bd 1b3f 82bd
00000230: 032e a43d 3579 1bbc 6d79 d8bd 3c92 eabd
00000240: ae7b 533d bd77 f93d a566 a1bd 87bd 7abd
00000250: 14b4 1dbc c721 763d a231 593d 039d 29bd
00000260: f732 963c a0ce 133d 7a86 993d fe45 b4bc
00000270: f13a be3c e771 ff3c 1c8d 023b b8ea 0fbd
00000280: a845 81bd f3b4 d73c 7841 a23c e452 8c3d
00000290: ccc7 dcbd 1840 eebc 774c a9bd 0946 9d3d
000002a0: 619f 80bd 51ea c63b d3a1 99bc eecc c03d
000002b0: a7b3 063d e174 af3b b00a aa3d e35b 56bc
000002c0: 7984 883c 2805 aa3b 455f b7bc de00 2fbd
000002d0: 066c c7bc 1cc2 783d 3c05 a23b 6128 37bd
000002e0: 9bc6 eabd 7646 953d d087 173e 3826 923d
000002f0: b203 a23c 4b4b 2dbd c23c d0bc c891 c03d
00000300: 9c32 0abd d6b8 cabc 3ba7 b1bc ca00 133d
00000310: 9d4c abbd 638f 3abc a132 d9bd 7ce9 283c
00000320: 76bf 5c3d dc01 563d 17e7 e13c 4f91 c73d
00000330: aa54 653d 0721 b03b 1d82 90bb f1cb 4e3c
00000340: 81b1 edb9 1d3b cdbc 6630 773c 0128 8dbc
00000350: 0845 b4bd be3d 963c 1f9f 3f3d a378 1a3c
00000360: 907c efbd 54f6 ab3d f81c afbd 38bd cdbd
00000370: 059b a3bd 35cb d6bc 38c3 123d 0a5b 1c3d
00000380: 3e40 6cbd 126e 2d3d 8089 6abd 5189 d3bd
00000390: af10 12bd a02b d1bd ff3f 7fbc 4464 0f3d
000003a0: cc2c 453d bbbc 9bbc 62c6 ff3d 4239 2dbb
000003b0: d6d6 be3c c485 b8bd 05bc da3b a991 0c3e
000003c0: db2a 15bd 26ea f63b e6da 11bd 9660 cbbc
000003d0: 56b5 15be ce8d 803d 436c fc3d c3b2 fd3d
000003e0: 8259 5f3d 54b1 f5bc f4bb b43d f129 903d
000003f0: 45be ed3c 0db2 213d 208f 523d e9bd e2bd
0.063143454 0.07234204 0.032118767 -0.0661459 0.06489112 -0.048847295 0.040736552 0.1783143
-0.07331328 0.021635571 -0.009035242 -0.02665712 -0.010532302 -0.1013763 0.055260837 -0.003032567
0.011973552 -0.015732711 0.057877395 -0.08095101 -0.01617923 -0.08919623 -0.023347445 -0.0072691645
-0.0132214315 0.012788939 -0.09951419 0.012146021 -0.05197392 -0.053925354 0.11793701 -0.074927725
0.056744583 0.07724125 -0.05906128 0.08387892 0.028072108 0.015684294 0.018952698 0.06235786
0.058579236 0.057044584 -0.053254824 0.037541334 -0.009595325 0.047541454 -0.043813147 -0.020275917
0.008036629 -0.041961923 0.01543183 0.032013793 -0.034974534 0.16756257 0.04311995 0.0006975853
-0.0627462 -0.019856887 -0.05468996 0.056937315 0.031125784 -0.06711287 -0.055318356 0.010581291
-0.074718036 -0.005796082 -0.1255724 0.036293954 -0.10253231 0.06016772 -0.027530905 0.09571383
0.00529232 0.10766152 -0.049564097 0.039723996 -0.04267755 -0.062380858 0.004247353 -0.062142517
0.051365186 0.07707987 0.041419476 0.038911823 -0.10649692 0.044497404 -0.08374265 0.054501202
0.056377 -0.05225471 -0.028375171 0.046882637 0.002475724 -0.03550506 -0.047189087 -0.14511856
0.10080748 -0.106210575 -0.008378966 -0.04807169 -0.087892555 0.113932855 -0.099245556 -0.08573594
0.03101166 -0.01693413 -0.09396843 0.033630326 -0.07137192 -0.0286685 0.048773084 -0.047404915
0.05003763 0.11781338 -0.048840187 -0.049578637 0.118944824 0.12091301 -0.08582468 -0.0773592
-0.047281533 -0.032544944 -0.13128476 -0.019545496 0.07744159 -0.00066961756 0.04483444 0.018353248
-0.056400295 0.012027053 -0.02213814 -0.069840066 -0.016254356 -0.077323146 0.010483559 0.055758882
-0.05655375 0.073297285 -0.043369062 -0.06359693 0.080165885 -0.009489347 -0.10570035 -0.11453673
0.051631622 0.121810414 -0.07880906 -0.061215904 -0.0096254535 0.060090806 0.05302585 -0.041409504
0.018334849 0.036085725 0.074963525 -0.022006031 0.023221465 0.031182243 0.0019920534 -0.035135955
-0.06312114 0.0263314 0.019806609 0.06851748 -0.10780296 -0.029083297 -0.08266538 0.07679374
-0.06280399 0.006070413 -0.018753922 0.09414087 0.032886174 0.005354509 0.0830282 -0.013083431
0.01666473 0.005188603 -0.022384295 -0.042725436 -0.024343502 0.060731992 0.0049444716 -0.044716243
-0.11463662 0.0728883 0.14797902 0.07136196 0.019777153 -0.042308133 -0.025419597 0.094028056
-0.03373967 -0.02474634 -0.021686187 0.035889424 -0.08364222 -0.011386725 -0.1060536 0.010309573
0.05389353 0.052247867 0.027576013 0.09744512 0.055988945 0.005375031 -0.004410042 0.012621866
-0.00045336413 -0.025052601 0.015087223 -0.01723099 -0.08802229 0.018339988 0.04678261 0.009428176
-0.1169368 0.08396593 -0.08550447 -0.10045856 -0.07988552 -0.026219944 0.035830706 0.03817276
-0.057678454 0.0423413 -0.057260036 -0.103289254 -0.035660442 -0.10213399 -0.015579223 0.03500773
0.048138425 -0.019010892 0.124890104 -0.0026431833 0.023295801 -0.09009889 0.0066752457 0.1372744
-0.036417823 0.007535237 -0.03560915 -0.02482633 -0.14619955 0.06277047 0.12325337 0.12387612
0.05452872 -0.029991783 0.08824912 0.0703925 0.029021392 0.039476443 0.051406026 -0.11071379

network_body._body_endoder.seq_layers.4.bias f4 [256]
00000000: 15bb abbb 5a90 473a aa3c 8b39 bb45 c739
00000010: 1fdd 993a 922e dbbb 49ab 183b 907e af3b
00000020: d2c1 cebb 62c3 afb9 f60f 93bb 31bb c23b
00000030: f6e1 febb 4d0f 34bc bf17 6d3b f89b a63a
00000040: 2b67 893b 4d35 be3a 9a26 7d3a a1b3 683b
00000050: 8162 bcbb 04ac 2dbc 4a41 003c 5f56 2ebb
00000060: 54f1 5fba 5b82 e4bb 6413 35bb cebc bb3b
00000070: 874c 55ba ba5e c03a f4ff 7e3b 14f7 4a3b
00000080: 4327 cebb 3347 003b a39e 0ebb 3a13 33bb
00000090: 6abd 983a ffb5 02bb 4dd7 24bc c3af 4a3b
000000a0: 45b5 31b9 79ff 4b3b 67e5 aabb 91f5 31ba
000000b0: bb9f a73b 9a69 d83b 117a 8c3b 4b3e 2fbb
000000c0: f5c6 6d3c 0616 0a3c f9b5 c8ba 8427 d9bb
000000d0: dff6 b6bb aed5 98bb 5330 913b 508d a13a
000000e0: f8c3 dfbb 873b 22ba ef49 b6bb 8609 3fbb
000000f0: d2f9 003b 70d5 04bb dfc7 013b 38c4 123b
00000100: 96f4 03bc 021b 72bb 8c96 2c3a ff77 a1bb
00000110: 601d 03bb 4eb7 913b c2a3 15bc ffed 403b
00000120: c297 383c 52a7 103a f050 5bbc 9276 80bb
00000130: bc09 8cbb 8a5e 7d3b 7c41 acbb d491 12bc
00000140: 31ce 8339 4904 15bc 8676 c3bb 962f 20ba
00000150: 7341 4f3b c034 0dbc 08bb fa3a 9035 b5bb
00000160: cc7a 98bb 7091 6dbb 2231 043b a4cc 20ba
00000170: 3e31 aa3b ce34 0abb 007f 053b 3db5 d4ba
00000180: edda 8d3a a265 31bb 2bec 85ba 76f0 fd3a
00000190: a20a 82bb f9b2 643a f229 eabb c218 cfba
000001a0: 03ae 75bb 1c27 33bb 2471 f6ba 0aad d6ba
000001b0: 39c8 8bbb 55a1 5fbc b3b2 fcbb b50e 9e3b
000001c0: bb9c 01ba c769 98bb 688c c6bb 3f3e 68ba
000001d0: 0afc bcb7 f1b2 6d3a 2d11 afba 630e 273b
000001e0: 3f11 d6ba 2d5c 853b c6fb 873b d7cd 40bb
000001f0: 7c78 89bb ddab 723b 993b 693a 4026 04bb
00000200: eebc a4bb e5ca 10bb 75c8 ecbb c090 a5bb
00000210: 1a21 50bc d345 ba3b a38f 2bbc 0471 b13a
00000220: c431 f239 4009 d9b9 87a4 c4bb dcb5 a4bb
00000230: 520f 213b 3321 303b f7e5 d5bb dd95 613a
00000240: e687 6f3c fbba 07bc d900 77bb d601 5bbb
00000250: 1524 8eba a281 553b b9ff 0cbb 7c90 c23b
00000260: 6f97 98ba 151c 073b 1575 f2bb 53c7 103c
00000270: f603 3b39 7cbb 39bb 0138 8f3a 0ca4 b9bb
00000280: 5dc1 10bb 6a86 c33a 6e7c 9c3a e994 1cbc
00000290: b4a2 ac3a 0b25 713b f629 07bc 5e6d 13bc
000002a0: 125f e13a ba3d 343b 6f16 aabb 7a22 d2bb
000002b0: aebb 60ba 1f01 323b 0fb9 d03b fd90 dd3b
000002c0: e4e4 c9b9 fe88 213a cd18 e0ba aef1 6bbb
000002d0: 8c86 2c3c 951c f83b eaff e8bb 2b31 b1bb
000002e0: 664f 90bc 4d35 13bb 869e b5bb 4d09 9fba
000002f0: a9c5 5cbb 892a edb9 ca5c 253a 8ae4 f0ba
00000300: de08 443c f710 863b f7c6 27bb 5e38 24bc
00000310: a581 e53a 4c58 843b f409 84b9 1878 6abb
00000320: e4f1 74bb 58af d3bb 478b 83bb 199d 85bb
00000330: 90f1 3e3b 3ba8 1cbb f186 b83b 2d30 0abc
00000340: 0a56 283b bddc 553c 5e97 18bc 7d6b 803b
00000350: 64b2 a7bb a2e9 a9ba 2791 cebb 429c b4bb
00000360: 6449 c4ba 401f 86bb 38c2 07bb b2b2 ddbb
00000370: ba1f fa39 a98f dcb9 bd25 07bb e17e 22bb
00000380: 99e8 643b e0e2 643b c483 f93b 58cc a8ba
00000390: 2acd 233b 1a2f bfbb 271f 45bb b328 a3bb
000003a0: 93e9 cc3a 830e 14bc 255f 073b 5e55 bc3a
000003b0: 1552 a2bb 29cd a33a 9d55 243c db8f 91bb
000003c0: ce99 2fbb f6e1 bf3b e7f8 553a a4fc dbba
000003d0: 25ee aa3b 05d8 c2b9 f7bd 79bc 3cdd 9b3b
000003e0: f624 05bc a13b 173c 9191 5c3b e373 84bb
000003f0: 9538 29bb 75bd f4ba 12d7 c5b9 86b9 03bb
-0.005240808 0.00076127576 0.00026557344 0.0003800819 0.0011738873 -0.006688901 0.0023295453 0.0053556636
-0.0063097263 -0.00033524173 -0.0044879867 0.005942725 -0.0077784015 -0.010989976 0.0036177484 0.0012711277
0.004193207 0.0014511734 0.0009656936 0.0035507458 -0.0057490473 -0.010600094 0.007828066 -0.0026601774
-0.00085427356 -0.0069735474 -0.0027629966 0.0057292944 -0.00081367086 0.0014676668 0.0038909884 0.0030970024
-0.0062913015 0.0019573688 -0.0021762035 -0.0027324692 0.001165313 -0.0019944904 -0.010061097 0.0030927516
-0.00016947564 0.0031127615 -0.005215335 -0.00067886064 0.005115477 0.0066043856 0.0042870124 -0.002674001
0.014512767 0.008428102 -0.0015313021 -0.006627025 -0.0055836285 -0.0046641445 0.0044308095 0.001232544
-0.006828781 -0.000618868 -0.005563013 -0.0029149964 0.0019680155 -0.002026882 0.001980297 0.0022394788
-0.008053919 -0.0036942367 0.00065837125 -0.0049276347 -0.0020006523 0.0044469004 -0.009133281 0.0029438732
0.011266651 0.0005518097 -0.013385996 -0.0039203847 -0.0042736214 0.0038661086 -0.00525683 -0.008945901
0.00025139892 -0.00909526 -0.005965057 -0.00061106065 0.0031624704 -0.008618534 0.0019129226 -0.005530067
-0.0046533104 -0.0036250018 0.0020170887 -0.00061340095 0.0051938584 -0.0021088603 0.0020369887 -0.001622833
0.0010822691 -0.0027068635 -0.0010217478 0.0019374031 -0.0039685527 0.0008724179 -0.0071461136 -0.0015800225
-0.0037487752 -0.0027336543 -0.0018802029 -0.0016378474 -0.0042658118 -0.013649304 -0.0077117323 0.0048235306
-0.0004944314 -0.0046512815 -0.006059218 -0.0008859373 -2.2528711e-05 0.0009067497 -0.0013356559 0.0025490753
-0.0016332044 0.004069826 0.004149887 -0.0029419565 -0.004195271 0.0037028708 0.00088971254 -0.00201644
-0.005027405 -0.002209359 -0.007226045 -0.005052656 -0.0127032045 0.005684593 -0.010471257 0.001353771
0.00046194915 -0.00041396357 -0.0060010585 -0.005026562 0.0024575782 0.0026875257 -0.006527658 0.00086054
0.014619803 -0.008284326 -0.0037689714 -0.0033417842 -0.0010844494 0.0032578488 -0.0021514727 0.005937634
-0.001164181 0.0020616103 -0.007399211 0.008836585 0.00017835185 -0.002834051 0.0010926725 -0.005665308
-0.002208791 0.0014917378 0.0011938938 -0.009556987 0.0013171048 0.003679576 -0.00824975 -0.008998243
0.0017194471 0.0027502612 -0.0051906626 -0.0064128013 -0.00085728883 0.0027161313 0.006369717 0.0067616687
-0.00038508244 0.0006162076 -0.0017097235 -0.0036002207 0.010530125 0.0075717666 -0.0071105855 -0.0054074726
-0.017615985 -0.002246219 -0.005542579 -0.0012133509 -0.003368715 -0.00045235854 0.0006308077 -0.0018378657
0.011965005 0.004091378 -0.002560077 -0.010023205 0.001750995 0.004038846 -0.00025184418 -0.0035777148
-0.0037375623 -0.0064601116 -0.004014406 -0.0040775654 0.0029135682 -0.0023903984 0.0056313206 -0.008434338
0.002568605 0.013053116 -0.0093134325 0.0039190636 -0.0051177014 -0.0012963305 -0.0063039246 -0.0055117914
-0.0014975485 -0.0040930808 -0.0020715129 -0.006765687 0.00047707354 -0.00042068705 -0.002062186 -0.0024794864
0.0034928678 0.0034925267 0.0076145846 -0.0012878282 0.0024994113 -0.0058344724 -0.0030078383 -0.004979217
0.0015633575 -0.009036663 0.0020656076 0.0014368703 -0.0049536326 0.0012497056 0.010030177 -0.0044421977
-0.0026794556 0.005855794 0.00081623945 -0.0016783667 0.0052163773 -0.0003716351 -0.015243045 0.004756598
-0.008126488 0.009230525 0.00336561 -0.004042135 -0.002582108 -0.0018672185 -0.00037735008 -0.0020099594

action_model._continuous_distribution.log_sigma f4 [1, 6]
00000000: a2bf 833b 3de9 7b3c 28f2 193c 5524 b93b
00000010: cb65 fa3b 01f5 8d3b
0.004020647 0.015375433 0.009396113 0.005650083 0.007641529 0.0043321853

action_model._continuous_distribution.mu.weight f4 [6, 256]
00000000: 3582 35bc a97c a5bb e8ea 023c 26af c3bb
00000010: cedf b0ba 48eb 683c 387a c33b 629a 6bbb
00000020: b579 87bb 4a43 67b9 e0bd 963b 25e2 d73c
00000030: f582 483b e3bd bc3b 21d5 aeba 55d3 533c
00000040: 8718 993b 7a07 41bb f35e 87bc b3a4 d03c
00000050: 01c0 853b 16ec b43b abb4 41b9 9843 a33c
00000060: 9d4d df3c b23d 0bbc 031a 41bb 578b 3cba
00000070: 727d c2bb 90d8 b83b 3fde 9e3b 0ba2 58bc
00000080: cf52 653c 9e7a fdbb 03a1 d33c eca7 4c3c
00000090: 0385 95bc 2219 8c3c 98c6 ddbb 7495 c13c
000000a0: a5c8 983b 49a2 af3c 3ab9 30bb 2570 c4bc
000000b0: 747f a03c 457c 333c 7e5c 8f3b 1925 0f3b
000000c0: f369 ad3b c4a6 d03c 5a00 273c 8925 b53c
000000d0: be67 a43c 89a2 cf3c 3a4d a63c 8c21 0e3b
000000e0: b9bb 6b3c 7933 16bb 72b9 053c 5506 0ebc
000000f0: f72f 80b9 c3fc 3d3c 5e18 813c 5cc2 9abb
00000100: e96a 953c 1020 dc3c 06f2 273c 5062 ccbc
00000110: 6df5 1dbb 7029 c7bc 3342 8c3c 2961 8b3c
00000120: b04d c63b a366 353b 8400 3a3c e241 5abc
00000130: 8b22 2b3d 0484 a539 def6 bd3c cfe6 19bc
00000140: 843a 883a 7a47 2c3c 6ee9 c43b 4a7d 603c
00000150: 31a9 5a3c 1487 5e3c 6ba8 59bc 6c65 cb3c
00000160: 51c3 7f3c 7707 ad3c b6f4 71bc b624 9e3a
00000170: 85f2 2c3c 311f 803c e795 bb3c 7a37 043c
00000180: 2fc0 0b3d f1f6 553b 5dd7 bc3c 2cc0 e2bc
00000190: 5cd9 113c b93f 4fbc 70ab 2bbb b98e 433b
000001a0: f85a e8ba cd00 823b e82c d33a 9b40 08bc
000001b0: 1b00 263d 1f9c e43b 1dd4 353b e064 843c
000001c0: 4f73 bcbb 27b8 48bb f4b7 4a3c 65d1 823c
000001d0: 9e4a 383d f459 d23c 202c 033c 98ad 03bc
000001e0: 62ea 2a3c 82d9 133b 695c dd3a 0fe1 81bc
000001f0: f690 db3c e198 fa3c 7dc0 153d 1859 223c
00000200: ac1b de3c a248 113d 7d5e 4c3c 53ed f33c
00000210: e12c e03c f4ed 95bb 8701 2abb ab90 5c3c
00000220: ccbc e93a 619c 893c 8087 0e3d 9017 ff3b
00000230: 0d66 7a3c 85be 173c 5986 833c 90af e13c
00000240: 607d e83c 9609 a03c fdae a93c 84c8 4e3c
00000250: fbaf 3d3b 55ea be3b 6535 153d c03d 4ebc
00000260: da14 103d 03a6 81bc ed58 883b 8764 883a
00000270: 92f3 083d eae9 183b 2788 7dbb 402a c63c
00000280: 5f5e 063d 3372 a63b 00ac 753c 0b8e 12bc
00000290: 1918 b8bb 7014 8f3c d616 6bbc 1b0b 123c
000002a0: fa61 963c 6c02 d83b daaf b7bc f544 7a3c
000002b0: 66cd 023d b3cf 233c dd41 573c 67e5 2f3c
000002c0: 1633 933c ea2e 75bb acb8 2ebc 5b3b 46bc
000002d0: 4da4 04bc 99b9 643d 7b1a 303c 5813 803c
000002e0: b7f2 233c 8143 133d 97fa 09bb 2e26 57bb
000002f0: 17c3 e43c f746 b83c e4d8 db3c 3edc 973c
00000300: fc9e 163c d6b4 2f3b 01cc 113c 6197 093b
00000310: 0d79 c73a dab5 c1bb 212e f93b 91b5 2c3d
00000320: 40be 5d3c 2a4b 353c 27ee 163b 682d b23b
00000330: acf9 7cbc 2b8e a83c 6dbf b7ba 7271 95bc
00000340: 131d a23c 0890 313c b3a2 783c 8ad3 20bc
00000350: 5f85 133d 6b0c a13b 8010 fb3c 48a1 4a3c
00000360: 64cd db3b b684 cb3c 84f2 c63c d139 843b
00000370: dbec 31bc 6edb 8cbc 3b45 0c3c 6393 33bc
00000380: be05 04bb 4ac5 853b 99d3 2fbc 6ae7 4bbc
00000390: 3792 cf3b 664a 183b 9489 913b a43f e13c
000003a0: 2ba2 51bc b711 2d3c 986a c8bb 506a 153d
000003b0: 8d3b 5d3c af99 433d 7875 5b3b a621 743c
000003c0: d1b3 cabb 6370 ce3b 7cbb 8a3c 1904 753c
000003d0: a014 fb3c d8e7 133d 9253 fa3b b4e0 b83c
000003e0: 53ca 7bbb 03e2 33bc bbb8 fcbb 4957 803a
000003f0: 42dd dc3c 0b6c 5a3c 31cc 323d 59d5 88bb
-0.011078407 -0.005050261 0.007990576 -0.005971807 -0.0013494433 0.014216252 0.0059654973 -0.0035950174
-0.0041343817 -0.00022054944 0.0046002716 0.026352951 0.0030595635 0.005759941 -0.0013338664 0.012928803
0.0046721133 -0.002945392 -0.016524768 0.02546916 0.0040817265 0.0055213077 -0.00018473218 0.019929692
0.027258689 -0.008498596 -0.0029464967 -0.0007192394 -0.0059353644 0.0056410506 0.004848271 -0.013222228
0.013996794 -0.0077355644 0.025833612 0.012491208 -0.018251901 0.017101828 -0.006768059 0.023630835
0.0046625906 0.021439688 -0.0026965872 -0.023979256 0.019592024 0.010954921 0.0043750396 0.002184218
0.005292171 0.025470145 0.010192955 0.022112625 0.020069 0.025346057 0.020300496 0.0021687476
0.014388018 -0.0022918864 0.008161889 -0.008668502 -0.000244498 0.011595908 0.01575869 -0.0047228765
0.018239455 0.026870757 0.010250574 -0.024949223 -0.0024102584 -0.024311751 0.01712141 0.017014103
0.0060517415 0.0027679584 0.011352662 -0.013321372 0.04178099 0.00031569612 0.023189005 -0.009393408
0.0010393416 0.010515088 0.0060092723 0.013701746 0.013346002 0.01358201 -0.013284783 0.024828635
0.015610532 0.021121724 -0.014767816 0.0012065384 0.010555868 0.015639873 0.022898627 0.008069867
0.034118827 0.003264841 0.023051912 -0.027679525 0.00890192 -0.01264947 -0.0026194714 0.0029839708
-0.0017727306 0.0039673806 0.0016111406 -0.008316184 0.040527444 0.006976619 0.0027744838 0.016161382
-0.0057510505 -0.0030627341 0.012372959 0.015968988 0.044993035 0.025677659 0.008006126 -0.008036993
0.010431858 0.0022560065 0.0016888502 -0.015854387 0.026802521 0.030590476 0.036560524 0.009908937
0.027112804 0.03546966 0.0124737 0.029776251 0.02736515 -0.0045754854 -0.0025940852 0.013462226
0.0017832755 0.0167982 0.03479719 0.0077847913 0.01528312 0.009261732 0.016055273 0.027549535
0.028380096 0.01953582 0.020713324 0.012621049 0.0028944004 0.0058262744 0.036427874 -0.012587965
0.035176136 -0.01582623 0.0041609914 0.0010405936 0.03343541 0.0023332783 -0.003868589 0.024190068
0.032804843 0.0050795316 0.014994621 -0.0089449985 -0.005618107 0.0174658 -0.014348706 0.008913781
0.018357266 0.0065920856 -0.02242272 0.01527523 0.031934164 0.00999825 0.013138262 0.010735846
0.017968696 -0.0037411996 -0.010664146 -0.012099112 -0.008095813 0.055841062 0.010748501 0.015634224
0.010006598 0.03595305 -0.0021053904 -0.0032829153 0.027925057 0.022494776 0.02683682 0.018537637
0.009193178 0.0026810667 0.008898736 0.002099477 0.0015218571 -0.005911571 0.007604376 0.042165343
0.013534129 0.011065284 0.0023030133 0.0054375418 -0.015440386 0.020575603 -0.0014018841 -0.018242572
0.019789254 0.010837562 0.015175509 -0.00981606 0.036015864 0.0049148104 0.030647516 0.012367554
0.006707834 0.024843555 0.024285562 0.0040352126 -0.010859693 -0.017194476 0.008561428 -0.010960433
-0.0020145024 0.0040823566 -0.010731601 -0.01244531 0.006334569 0.0023237704 0.0044414494 0.027496167
-0.0127950115 0.010563306 -0.0061162226 0.03647834 0.013502968 0.047753986 0.0033486765 0.014900601
-0.0061859866 0.0063000186 0.016935103 0.01495459 0.030649483 0.036109775 0.007639357 0.022568084
-0.0038420155 -0.010979178 -0.0077124513 0.0009791638 0.026960973 0.0133314235 0.043651763 -0.0041758236

action_model._continuous_distribution.mu.bias f4 [6]
00000000: 7035 0239 1a75 243b f4bf 0d3c 4984 ec3a
00000010: a915 69bb 52c3 2e3b
0.00012417673 0.0025094212 0.008651722 0.0018044795 -0.003556589 0.0026666713
