results/NearSingularity03/NearSingularity/NearSingularity-16344.onnx (onnx, 623772 bytes, 9 tensors)

network_body._body_endoder.seq_layers.0.weight f4 [256, 85]
000000 bf 97 31 be bc 9d 49 3e 30 88 3b 3e 38 51 aa bc
       -0.17343043 0.19689077 0.1831367 -0.020790681
000010 38 8a 6d 3a e0 da 07 be c7 96 87 bc dc e6 13 be
       0.0009061429 -0.13267088 -0.016551388 -0.14443535
000020 b7 aa ff 3c 0e b7 8e be 11 ab 2b 3e 77 4d fd 3c
       0.031209333 -0.27874035 0.16764475 0.030920727
000030 a5 c6 00 3e 95 9e 7b bd 05 4b e5 3d 82 38 9d bd
       0.12575777 -0.061430532 0.111959495 -0.07676794
000040 35 42 0f 3e cd 24 57 bd 02 51 6d bc 8a 95 5e be
       0.139901 -0.05252533 -0.014484646 -0.21736732
000050 f9 0f f3 3c 3c 4c 55 3d 7c d7 22 3e 30 64 48 3d
       0.029670702 0.052074656 0.15902513 0.04892367
000060 b4 6f 0f bd d4 3c 9a 3b da 84 6c be 44 3b 06 3d
       -0.035018638 0.0047069583 -0.23097554 0.032771364
000070 e6 0b 0a be c1 7f 15 be a5 f4 a6 3c c3 07 44 3e
       -0.13481101 -0.14599515 0.020380327 0.19143586
000080 52 f2 4b 3d 4b ce 4f 3d 28 6d 76 3d 77 9d 20 3d
       0.04979164 0.050733846 0.060162693 0.03921267
000090 0f f8 bf 3d bf 5e 5e 3e 79 c0 5b 3d f4 bb f7 bd
       0.09373485 0.2171583 0.053650353 -0.12096396
0000a0 ec 7e 29 bd 60 33 9e 3c 90 ba 63 be 58 8e 1d 3d
       -0.041380808 0.019311607 -0.22239137 0.038465828
0000b0 71 c8 b1 3d 33 52 23 3e f0 d8 7f 3c c5 99 b8 bb
       0.08680809 0.15949325 0.015615687 -0.005633565
0000c0 dd a0 b0 3d 88 1e 83 3d 42 70 44 be fb 5b bc 3c
       0.08624432 0.06402308 -0.19183448 0.022993078
0000d0 15 ce 05 bd 7e a6 a5 3d a1 0d ff 3c a3 76 f1 3d
       -0.03266724 0.080883965 0.031134428 0.11790206
0000e0 0e 0e 3f be 54 4f f1 3d 81 6e eb 3d b0 18 5c 3e
       -0.18657705 0.11782709 0.11495686 0.21493793
0000f0 92 85 d9 3d 72 94 82 bd ca b8 1e 3c 19 36 6b 3b
       0.1062118 -0.0637597 0.009687612 0.00358904
000100 8d 86 d4 bd 32 69 1a be 71 73 54 be e5 fd 8c bb
       -0.10377226 -0.15079191 -0.20747162 -0.0043027275
000110 87 5e 9e bd ed f4 ce 3c 62 1f d1 bd 29 d5 a7 bc
       -0.077328734 0.025263274 -0.10211064 -0.020487385
000120 bf b5 8e bc aa 7f b6 bd 08 52 a0 3d c5 51 b8 bd
       -0.017420648 -0.08911069 0.07828146 -0.08999971
000130 2a 14 a3 bd 7e ef 81 3d 65 5b d1 3d 30 06 c2 bd
       -0.0796283 0.06344508 0.1022251 -0.094738364
000140 a3 5a 8b 3d b0 3d 4b 3d 1f 7e 05 3c eb b1 86 3e
       0.06804397 0.049619377 0.008147745 0.26307616
000150 a1 f4 d6 3d d1 c6 cb bd 8a 22 11 3e a4 47 dc bd
       0.10495878 -0.099500306 0.14173332 -0.10755852
000160 4b 52 0f 3d 79 00 c0 3c 46 c1 65 3d 25 2e 2c 3e
       0.03499059 0.023437725 0.056092523 0.16814478
000170 d4 b8 a5 3c 9d 9b 55 bd 6f ee 00 3e e3 96 01 3d
       0.020229734 -0.052150358 0.12590955 0.031638037
000180 93 81 e4 bc 03 f7 65 be ec 2f 85 bd ec 21 b2 3b
       -0.027893817 -0.22457509 -0.06503281 0.0054361727
000190 e7 03 c0 3c 39 09 ad 3c 78 ef 4b 3e c3 30 21 be
       0.02343936 0.021122562 0.19915569 -0.15741257
0001a0 53 b2 77 bc ea f9 1d bc a2 b4 aa 3c e6 54 9a 3d
       -0.015118199 -0.009642104 0.020838086 0.07535724
0001b0 3c cb da bd 87 1b ff 3d 9d 87 16 be 6d 39 5e 3c
       -0.10683295 0.12456422 -0.1470017 0.013563496
0001c0 c4 7f d8 bc 9b 8d bf bd a3 1c 91 3e 5a 33 0a bc
       -0.02642811 -0.09353181 0.2834216 -0.008435095
0001d0 31 0a 80 3d 22 4b c7 3c 17 a1 3a be 68 79 be 3d
       0.06251944 0.024327818 -0.18225513 0.093005
0001e0 94 ba 8c 3d ed e7 9c 3d d3 f6 ff 3d 1a 5f 4f be
       0.068715245 0.07661424 0.1249825 -0.20251122
0001f0 09 47 fb 3b 8f 14 0e bd 5d c2 08 3e 48 0a d1 bd
       0.00766838 -0.034687575 0.13355394 -0.10207039
000200 5e 5e e0 3c 7c eb 5f 3e d8 9c 4c bd 65 16 c5 3d
       0.027388748 0.21867174 -0.049954265 0.09623412
000210 06 0c 0c be 84 89 a4 3e 68 46 59 be 36 89 2f 3d
       -0.13676462 0.32136166 -0.21218264 0.042855464
000220 bc 01 f7 3d c0 ff 3a bd 36 54 ba 3d 18 c9 19 bd
       0.12060878 -0.04565406 0.09098093 -0.037545294
000230 0b 97 ec bc 17 dc db 3d 12 ca 01 bd 35 12 64 3d
       -0.028880617 0.10735338 -0.03168685 0.055681426
000240 45 82 97 bd cd a7 03 bd 99 eb 64 bd 02 ba bd bd
       -0.07397894 -0.03214245 -0.055888746 -0.09263994
000250 51 f2 c9 bd ce f9 c1 bc c7 f7 58 3d dd 50 0f be
       -0.09860671 -0.023678686 0.052970674 -0.1399569
000260 7e 5d 51 bd b0 8e fe bc 15 1b 6e 3d 1a e3 dd bd
       -0.05111455 -0.031073898 0.058131296 -0.10834332
000270 65 76 78 3d 35 a3 67 bc ca c5 a5 bd d0 02 5f 3d
       0.060659785 -0.014138033 -0.08094366 0.05444604
000280 1c 42 21 be 18 55 90 3d b5 fd cb 3d ce 27 f6 3c
       -0.15747875 0.0704748 0.099605 0.030048277
000290 28 b3 16 3d 63 09 8b bc fb 4e aa 3d 50 80 24 3e
       0.03679195 -0.01697225 0.083158456 0.16064572
0002a0 ca 51 10 bc a9 29 af 3d 2d 1b 8e bd 62 8b eb 3d
       -0.0088085625 0.08552868 -0.06938777 0.115011945
0002b0 d5 58 ed bc c4 86 50 3d d5 31 78 bd eb 8a 94 3c
       -0.028973022 0.050909773 -0.0605944 0.018132647
0002c0 63 45 27 b9 71 07 ae bd d4 a2 4d bd 03 a0 89 3d
       -0.0001595221 -0.08497513 -0.050204113 0.06719973
0002d0 0e f0 ff 3c a3 64 0b 3d 86 78 33 3d da 9c e4 3d
       0.031242397 0.03403152 0.043816112 0.111627296
0002e0 9b aa f5 3b ee 47 d3 ba b5 57 3e bc 44 96 96 bd
       0.0074971444 -0.0016119459 -0.011617591 -0.0735288
0002f0 ee 04 a2 bd 38 c7 8c bd d1 ab 81 be 11 96 bd 3d
       -0.079110965 -0.068739355 -0.25326398 0.092571385
000300 f0 11 25 3d 20 37 e0 3c 3c f0 45 3d cf 66 35 3e
       0.04030031 0.027370036 0.04832481 0.17715
000310 79 f6 e5 3c 06 8b 9d bb ce 8b 2d be 17 b0 f4 bd
       0.028071629 -0.0048078327 -0.16947863 -0.11947649
000320 23 e7 f4 3d 54 26 70 bc b3 a7 79 bd ad f2 b3 bd
       0.11958148 -0.014657576 -0.060950946 -0.08786521
000330 cc dd 04 3e d2 b8 7a be 90 b5 2a 3d 3e 48 27 bd
       0.12975234 -0.24484566 0.041677058 -0.04084038
000340 66 9d 14 be 7d a9 78 3d c3 6a 2b bd 10 a0 63 3d
       -0.14513168 0.06070851 -0.041849863 0.05557257
000350 f0 a5 9b 3d 2e c9 42 be 77 65 49 ba cc 94 e4 bd
       0.076000094 -0.19022056 -0.0007682661 -0.11161193
000360 f2 20 d0 3c 02 3b 93 bc 45 ff 96 bd 23 fa 63 3d
       0.025406335 -0.017972473 -0.073729075 0.05565847
000370 4e d6 8f 3c 22 dd 63 3d c7 53 36 be 96 43 44 bc
       0.017558243 0.05563081 -0.17805396 -0.011979004
000380 86 ac 5e 3e 60 37 f5 bb 8a e1 02 bd bd 77 02 3d
       0.217455 -0.007483408 -0.031953372 0.031852473
000390 b8 5f 11 be bd 10 06 3d ac 33 1d be 31 42 ec bd
       -0.1419667 0.032730807 -0.15351743 -0.115360625
0003a0 75 14 d0 3d 12 34 fc bc ca ea 69 bd ec a6 01 3d
       0.10160152 -0.030786548 -0.057108678 0.03165333
0003b0 c2 53 1b 3d ba d0 82 3d 43 54 14 be 4d 3b 4e 3e
       0.037921675 0.06387468 -0.14485268 0.20139809
0003c0 20 41 58 bd 48 c2 3c bc 95 ca a2 bd 17 53 33 bd
       -0.052796483 -0.01152093 -0.07948796 -0.043780413
0003d0 ab b7 09 be 32 50 c3 bc f4 b2 aa bb 60 fd 71 be
       -0.1344897 -0.023841951 -0.005209321 -0.23631811
0003e0 22 dc 18 3e 07 8b 49 3d e3 b4 40 bd 9e 44 d2 bd
       0.14927724 0.049204852 -0.047047507 -0.10266994
0003f0 5a ad 1e be 81 2f 57 3d f7 ab 8a bb fe 26 0e 3e
       -0.15495816 0.052535538 -0.0042319256 0.13882062

network_body._body_endoder.seq_layers.0.bias f4 [256]
000000 57 6e f6 3a 78 cc 5b bb b2 39 13 bb c2 bd 24 3c
       0.0018801194 -0.003353862 -0.002246481 0.010055007
000010 c2 eb 03 3c 42 88 f1 3b 37 9d 94 3b 4f f0 a8 bb
       0.0080518145 0.0073709795 0.004535343 -0.0051556
000020 57 90 04 bb 06 ac de 3b 3c 86 68 3b 84 41 4b 3b
       -0.0020227635 0.006795409 0.00354804 0.0031014392
000030 f9 b3 a4 3b c7 4b 22 3c d1 73 4b bb e4 fc 74 3b
       0.005026337 0.009905762 -0.0031044374 0.003738218
000040 27 d6 82 39 4b ef 15 bc 40 6b fe 3a cc 90 1a 3b
       0.00024955088 -0.00915129 0.0019410625 0.002358484
000050 b4 a4 29 3b de 43 1a ba f6 cc e9 3b fe c7 d5 3b
       0.0025885524 -0.0005884747 0.007135029 0.006524085
000060 ae 91 be 3b 81 35 f5 3b 67 cc 51 ba 9c 91 8e 3b
       0.005815706 0.007483185 -0.00080031756 0.004350854
000070 d2 2b 5f bb 50 ae d7 3b 45 a1 b7 3a 15 34 fa bb
       -0.0034053219 0.006582059 0.0014009854 -0.007635603
000080 ca 32 6d 3b 8e 5b 36 bb 94 ac 5b bb 26 96 78 3a
       0.0036193603 -0.0027825567 -0.0033519613 0.0009482823
000090 cc e4 3e 3c 74 5a b1 3b fc 6a 52 3b e1 95 2d bb
       0.011651229 0.005412394 0.0032107225 -0.002648704
0000a0 42 ea e9 bb 12 78 32 3c 8d c6 3a 3b 3d 01 09 bc
       -0.0071385214 0.010892885 0.0028499693 -0.008362112
0000b0 4a 13 a7 b9 b9 25 8b 3b b7 cf fc 3b 0e 5c 8a 3b
       -0.00031867094 0.0042464403 0.007715191 0.0042223996
0000c0 0e 32 f8 3a 89 94 4f 3b 7c c8 4f 3a 0b f9 da 3b
       0.0018935816 0.0031674227 0.0007926298 0.0066825203
0000d0 ae 7d b9 3b b0 87 cd 3a d7 e7 8f 3a c6 7d 23 3b
       0.005660734 0.0015680697 0.0010979128 0.0024946793
0000e0 77 08 73 3b ea 33 1b bb aa 6f 99 3b 95 f8 03 bb
       0.0037083903 -0.0023682066 0.004682501 -0.002013718
0000f0 82 f1 8f 3b 0d 9f 9e 3b 21 a0 80 3b 32 ee a1 bb
       0.0043928036 0.0048407377 0.003925339 -0.004941725
000100 ec 04 87 3a 21 fe 04 3c 0e d0 97 bb 06 97 1c bb
       0.001030115 0.00811723 -0.0046329563 -0.0023893728
000110 e9 9b e1 3a 66 32 5c bb 80 30 c9 3a 3d bc 8d 3a
       0.0017212603 -0.0033599376 0.0015349537 0.0010813546
000120 b6 f8 cc ba a2 b5 d1 bb 0e ad 88 ba f8 8d d8 3b
       -0.0015638086 -0.006399826 -0.0010427551 0.006608721
000130 11 c3 af 3a 62 2c 90 bb 46 31 d7 39 82 2d 18 ba
       0.0013409575 -0.004399822 0.00041044707 -0.0005805121
000140 77 62 50 3b e1 97 c3 bb 8a f5 4a 3b ee 64 4a 3c
       0.003179697 -0.005969033 0.0030969107 0.012353165
000150 23 50 01 ba c9 34 29 bb 4a a5 76 3b a8 d4 08 3c
       -0.0004932901 -0.0025818816 0.003763514 0.008351482
000160 b7 a5 17 bc 90 5c ef 3a 77 9e 6a 3b 37 8d 6e bb
       -0.009255818 0.0018261839 0.0035800019 -0.0036400089
000170 b8 a3 61 3b c4 6b 59 bb 3f 3e 61 bb 73 d9 3f bb
       0.003442986 -0.0033175806 -0.0034369377 -0.0029273897
000180 64 41 54 bc 1f de 4e 3b 33 75 5d 3a 10 25 09 ba
       -0.012955043 0.00315655 0.0008447945 -0.0005231658
000190 66 ee 65 39 dd 7c 6b 3b 0d 90 3c 3b 77 e2 c3 3b
       0.00021927952 0.0035932579 0.0028772384 0.0059779244
0001a0 f9 98 ce 3a f6 a5 51 3c 8f fe cd bb df 81 a8 3b
       0.0015762142 0.012795916 -0.0062864493 0.005142435
0001b0 5a 7a 0d bb 4d cb 0e 3b 6c 03 ea 3a 9b e3 4f 3b
       -0.002158782 0.0021788657 0.0017853803 0.0031721357
0001c0 01 0e a3 bb b2 d9 aa bb 56 19 89 bb c2 fa db 3a
       -0.0049760346 -0.0052139396 -0.0041839285 0.0016783106
0001d0 00 27 43 3c f6 1f c0 3b 3d 41 50 3b e2 68 e1 bb
       0.011911154 0.005863185 0.0031777166 -0.006878958
0001e0 40 93 41 bb 1e 1c 06 bc 42 41 6f bb 74 5e c4 3b
       -0.002953723 -0.008185415 -0.0036507403 0.005992705
0001f0 84 5f 9d b9 a5 12 a3 bb 81 f1 af 3b bb 6a b4 bb
       -0.00030016538 -0.004976588 0.0053693657 -0.0055058873
000200 98 67 10 ba 62 18 d1 bb de 2d ab 3b e3 36 10 bb
       -0.0005508601 -0.0063810805 0.0052239737 -0.0022005371
000210 0f 8e 96 3b 4a 01 8a 39 59 b8 9b 3b be 1b 54 3b
       0.0045945714 0.00026322372 0.0047522006 0.0032365168
000220 5c a2 cc 3b fb e4 a3 3b 4d c1 de 3a 29 56 82 3b
       0.0062449407 0.005001662 0.0016994864 0.0039775562
000230 44 6b 9f 3b 5b ad 8f bb c3 c6 c7 3b 7d d0 6b bb
       0.004865082 -0.0043846793 0.0060966923 -0.0035982423
000240 ca 95 a1 3b 50 99 14 bc 0c 61 8e 3b 1d e0 d1 ba
       0.0049311863 -0.009069756 0.004345065 -0.0016012226
000250 50 13 9c 3a 13 0b ee 3a dd ca 9a bb 59 b8 26 bb
       0.0011907611 0.0018161259 -0.00472389 -0.002543947
000260 c4 bc 32 39 b6 28 27 3c 7a be 48 3c 49 a3 df 3b
       0.00017045724 0.010202577 0.012252444 0.006824885
000270 ec 08 8b b8 b2 94 34 bb a2 37 fe 3b 0a b1 8c 3b
       -6.629698e-05 -0.002755445 0.007758097 0.0042935656
000280 35 ef 90 bb 00 5a 0d b9 d7 23 5d bb db 66 a8 3b
       -0.004423047 -0.00013480335 -0.0033743286 0.0051392145
000290 c9 a7 40 3c e1 6b 05 3b 0d a5 17 bb 58 6c f2 bb
       0.011758753 0.002035849 -0.002313915 -0.0073981695
0002a0 f0 a3 8b 3a 86 33 c5 3b f6 a8 13 3b 4c e8 bd 3b
       0.0010653716 0.006018105 0.0022531128 0.005795514
0002b0 7c d5 fc 3a bc 97 f6 3a 66 d0 cc 3b 84 17 45 39
       0.0019289698 0.0018813531 0.006250429 0.00018796144
0002c0 77 92 c7 3b c2 fa c8 3b 4c ec 07 3a 62 21 c1 bb
       0.006090458 0.0061334083 0.0005185052 -0.005893872
0002d0 99 c4 bf ba 2b b3 d3 3a 3d bd c0 3a 9c bb 89 ba
       -0.0014630734 0.0016151419 0.0014704835 -0.0010508182
0002e0 b7 79 b4 3b 6a cc fa 3a 02 91 72 3c 78 a5 54 bb
       0.0055076736 0.0019134406 0.01480508 -0.003244726
0002f0 42 f3 be 3b 40 10 2f bc 97 a0 ab 3b 7a f7 35 b9
       0.0058273384 -0.010685027 0.0052376497 -0.00017353697
000300 05 ca dc 3b 3c d1 82 bb 0c 47 f7 ba 5b 5e 1a bb
       0.00673795 -0.003992228 -0.0018865778 -0.0023554775
000310 17 2c 86 3b 9e 05 90 ba 58 1f 8b ba 57 62 85 bb
       0.0040946114 -0.0010988002 -0.00106142 -0.004070561
000320 60 8b 4a bb d8 5c 12 3b 58 6e 84 3b 0a f3 7f bb
       -0.0030905828 0.0022333171 0.0040414743 -0.0039054775
000330 d8 f4 79 3b 30 42 b6 3b 26 91 b5 3a 2c 21 27 bb
       0.0038140323 0.0055620894 0.0013852462 -0.002550195
000340 0e e8 39 bb e9 6a 65 3b 2c df 3e 3a d5 c7 a1 3b
       -0.0028367075 0.003500635 0.000728118 0.004937152
000350 54 47 8c 3b 97 3f 61 3b 03 bd 44 3b d4 92 e0 bb
       0.004280964 0.0034370178 0.0030019886 -0.006853441
000360 ec c4 5a 3a 3e e7 c4 3b 61 85 78 bb 5a 4b ab 39
       0.00083453837 0.0060090115 -0.0037921297 0.00032671803
000370 9b ae 09 3b 19 e5 23 3c 40 97 84 3a d1 dd 51 3a
       0.0021008614 0.010003352 0.0010115877 0.00080057705
000380 cd e5 68 bb d7 be f8 3a 36 d6 c0 3a 9a 49 88 ba
       -0.0035537363 0.0018977773 0.0014712277 -0.0010397912
000390 63 30 e3 bb 88 f8 4a ba d9 bd c2 39 15 e6 a9 bb
       -0.0069332584 -0.00077427225 0.0003714401 -0.0051848986
0003a0 6c b1 38 bc 41 e0 29 3b 6d 51 12 ba 93 92 01 3a
       -0.011272769 0.002592102 -0.00055815914 0.0004942801
0003b0 44 d6 48 3b 3c 82 6d 3a ce 5c 29 3c 47 32 d8 3a
       0.003064529 0.0009060239 0.010337068 0.0016494476
0003c0 e8 89 cd ba 52 2c 76 3b ca 6a bd 3b 48 8e 24 3a
       -0.0015681358 0.0037563038 0.0057805525 0.0006277305
0003d0 99 a9 90 bb f4 c8 a3 3b 0c 3f 37 3b 94 09 18 3c
       -0.004414749 0.0049983207 0.0027961163 0.009279627
0003e0 43 5a 62 3b 70 90 dc 3b a9 4d f0 3b 33 52 b6 bb
       0.0034538663 0.0067310855 0.0073334766 -0.005563998
0003f0 de 36 25 3c b1 a7 15 3c fe 47 aa 3b b6 f5 5f 3b
       0.010083882 0.009134219 0.0051965704 0.0034173555

network_body._body_endoder.seq_layers.2.weight f4 [256, 256]
000000 b9 22 9d 3d 8c 84 35 3b 2f ab ef bd bf 87 92 3c
       0.076726384 0.0027697412 -0.117025726 0.017886994
000010 58 34 35 bd 49 3d 96 3d 97 b8 9a bc 7a a7 01 be
       -0.044239372 0.07335908 -0.018886847 -0.12661543
000020 86 4f e0 3d 7d 63 8c bd f5 43 33 3c 05 5a 8f bc
       0.10952668 -0.068549134 0.010941495 -0.01749898
000030 0c ae bc 3c 97 1e 54 bd fd 8f 32 bd 55 27 2a 3d
       0.02303221 -0.051786985 -0.04359435 0.041541416
000040 b2 d1 71 3d 69 31 ef 3d 35 23 53 bc a8 cd 08 3c
       0.05903787 0.11679346 -0.012886812 0.0083498135
000050 44 32 9c 3c 35 92 a9 bd d4 b7 c2 3d 78 a6 58 bb
       0.019066937 -0.0827984 0.09507719 -0.0033058207
000060 e4 46 92 bd 32 8e 97 3d 5f 5c c6 3b ce 1f 79 3d
       -0.071424276 0.074001685 0.006053492 0.060821347
000070 69 67 8a bb af 9f ba bd 68 56 5b bd 0f 8e 34 3d
       -0.004223753 -0.091124885 -0.0535492 0.04408079
000080 18 94 11 3d 5b a0 18 bd ae 50 03 bd 0e 32 1f 3d
       0.035541624 -0.037262302 -0.032059364 0.038866095
000090 78 f9 f2 3c 2d 6e 3b 3d 95 9c 2d bd 88 2c a3 3c
       0.029659972 0.04575937 -0.042385656 0.019918695
0000a0 19 71 e4 bc f0 67 e4 3d 60 2f 51 b6 d3 ea 29 bc
       -0.02788596 0.11152637 -3.1171003e-06 -0.010370928
0000b0 7e 45 7f bc ad 59 89 bd c5 2c 95 3d 00 67 32 bd
       -0.015580533 -0.067065574 0.0728393 -0.04355526
0000c0 39 2f 80 3c 7b f9 9b 3d fa 24 c7 3c e2 5a 38 bc
       0.015647518 0.07615944 0.024309624 -0.011252137
0000d0 d6 ce 77 bd eb b2 ba 3b ae cf 8b bb c0 2c f7 bc
       -0.06049999 0.005697598 -0.0042667007 -0.030172706
0000e0 b5 c9 b5 3c 18 35 21 bd 55 f8 13 3e c7 a1 91 3d
       0.022190908 -0.039357275 0.144502 0.07110935
0000f0 8d 72 dc 3c 64 d0 0b 3c d1 a5 d9 bc 0d c9 2e bd
       0.02691009 0.008533571 -0.026568325 -0.042672206
000100 da 3e 51 bd 16 8d b0 bc 3a 52 75 bd 51 5d bf bd
       -0.05108533 -0.02155165 -0.05989287 -0.093439706
000110 c0 8c 0e be 46 37 91 3d 98 68 a1 3c ee d8 b9 3d
       -0.1392088 0.07090621 0.019703194 0.09074579
000120 fc b6 30 3d cb 18 1d bd 07 dc ae 3c cd f9 81 bd
       0.043143257 -0.038353723 0.021345152 -0.06346474
000130 5a 94 3a 3e 88 3b 77 3d 2f 88 cc 3d 4d 20 e3 3b
       0.18220654 0.060359508 0.099869125 0.006931341
000140 b0 d8 0e 3c 7b 4c 09 3d a6 af c4 3c 01 2e 9e 3d
       0.0087186545 0.033520203 0.024009537 0.07723618
000150 b8 c2 67 3d 99 41 26 3e 13 da 44 bc bb 4f 7c bd
       0.056582183 0.16235961 -0.012014884 -0.061599474
000160 28 9b 87 3d c6 ca 45 bd f1 c6 1d 3b 84 e3 02 3d
       0.066213906 -0.048289083 0.0024074877 0.031955257
000170 18 65 15 bb bd d7 5b 3d 93 ab 33 3d aa ed d4 3b
       -0.0022795852 0.05367254 0.043864798 0.0064980583
000180 a8 2f 7c 3d 1a 90 27 be 93 9c c6 bb 66 53 b7 bd
       0.061568886 -0.16363564 -0.0060611456 -0.08951454
000190 d0 ac 4d bc e0 5e 97 3d 91 35 82 bd e3 ac 9b ba
       -0.012553409 0.07391143 -0.06357873 -0.0011877086
0001a0 f2 ae 4f 3c 8e 48 91 3d 92 ca b7 bb 86 42 61 3c
       0.012675988 0.07093917 -0.005608865 0.013748771
0001b0 2d 22 75 bd 5d 6e d6 bd b4 ed 09 3d 55 99 e2 3c
       -0.059847046 -0.10470269 0.033673957 0.027661005
0001c0 dc eb 4b 3d fc 83 5b bd 80 31 ab bc 8b 2a 07 bc
       0.04978548 -0.053592667 -0.020897627 -0.008249889
0001d0 2c e2 fe 3c be 1e e8 3c 10 dd 1e 3d 38 13 e2 bc
       0.031113707 0.028334972 0.03878504 -0.027597055
0001e0 14 26 11 3d 4e b0 52 bd 95 0e e9 3c cc eb bb bd
       0.035436705 -0.05143767 0.028449336 -0.09175834
0001f0 b2 5c 29 be 6a 72 d3 bc e5 5d b6 3d bc bf 0c bd
       -0.16539267 -0.025811393 0.08904628 -0.03436254
000200 97 bf 81 3d 5a 2b 74 3d cc ab a2 bd 92 be 89 bd
       0.06335371 0.059611656 -0.07942924 -0.067258015
000210 ab ce bb 3c 3c 7a d0 bc 55 21 13 be 99 74 66 3c
       0.022925695 -0.02544891 -0.14368184 0.014065885
000220 96 28 70 bc b2 3b 9f 3d d5 95 11 3d 5f 9f a2 3d
       -0.014658114 0.07775058 0.03554328 0.07940554
000230 22 79 8a 3d 1d 24 40 bc 0d 42 a8 3c eb 72 02 bd
       0.067613855 -0.01172736 0.020539308 -0.031847876
000240 09 32 e4 3b 4c 2f 17 3d 0f 86 56 bd 07 16 b9 bd
       0.0069639725 0.03691034 -0.052373942 -0.090374045
000250 9a 89 6f 3d 57 fb 8e 3d e8 53 0b be bf 65 9f bd
       0.058480836 0.06981533 -0.13606226 -0.077830784
000260 0c 6f a4 3d 0c c4 70 3c 43 79 45 3c e6 93 bb bb
       0.08028993 0.014695179 0.012052837 -0.005724418
000270 1a cc 10 3c 38 d3 42 bd c7 e4 1c 3c e7 95 33 bd
       0.008837724 -0.047564715 0.009576029 -0.04384413
000280 0a 4e a9 bd 87 9a b3 bd 54 3b d6 bd 73 c2 e8 bd
       -0.08266838 -0.08769708 -0.10460535 -0.11365213
000290 31 63 ea bb 5c 78 df bc 9c b0 2c 3d e6 d2 cc ba
       -0.007152938 -0.027279072 0.042160615 -0.0015626817
0002a0 33 31 55 3c 9b 52 c8 bc d5 db 21 ba 84 0c b6 3d
       0.013012218 -0.024453452 -0.000617442 0.08889106
0002b0 bb 43 d7 3c 20 f5 38 bd d8 ee 73 3d a4 93 57 3c
       0.026277414 -0.045155644 0.05955395 0.013157759
0002c0 80 f6 57 3c f3 0c a7 3d 56 ae b4 bd 7d 27 75 bd
       0.013181329 0.08156767 -0.088223144 -0.059852112
0002d0 48 f5 10 be 85 23 68 3d c0 82 93 bc 80 1a 73 bd
       -0.14156067 0.0566745 -0.018006682 -0.059351444
0002e0 c2 0c cf 3d 40 aa b5 3c 1d f0 3c bc 6a 00 73 bd
       0.10109855 0.022175908 -0.011531857 -0.059326567
0002f0 83 a5 68 3d 1e c7 2e be a4 91 93 3b 70 9c 02 bd
       0.05679847 -0.17068145 0.0045034457 -0.03188747
000300 77 65 39 3d 3b ec a4 3d b6 9d ca bc 5d b8 e0 bc
       0.04526278 0.0805287 -0.024733406 -0.027431661
000310 9a 5a 80 3d 14 38 24 3e c4 0a 8e bd b1 cb cf bc
       0.06267281 0.16037017 -0.06935647 -0.025365682
000320 a5 b1 8c bd c2 61 ee 3b c3 d5 91 3d 3d c3 09 3d
       -0.068698205 0.0072748372 0.0712085 0.03363346
000330 e9 28 02 3d ef 5a 0b 3d ac c5 52 3c bc 0b 96 3d
       0.031777296 0.034022268 0.012864511 0.07326457
000340 87 5a ae 3c 76 a9 17 bd 25 db 91 bd b5 1c 22 3d
       0.021283401 -0.037026845 -0.071218766 0.03957816
000350 d4 ad 49 bd 42 67 5e 3c 6d 9e db bd 5b ac 00 be
       -0.04923804 0.013574423 -0.10723577 -0.12565748
000360 3e 9a 33 3d d6 dc 26 3d a6 8b ba 3d 09 d5 e4 3d
       0.04384827 0.04073795 0.09108667 0.11173446
000370 9d 69 c8 bc 46 20 b6 3c 85 4e 1a 3d d0 e4 fe bc
       -0.024464423 0.022232186 0.03767254 -0.031114966
000380 4c 5f 84 3c 48 6c 27 3c 03 7b 08 3b 5b d4 42 bd
       0.016158722 0.010218687 0.0020825274 -0.0475658
000390 e2 10 4c 3c fd 69 90 3d 2b 64 ba bd bc 10 7b 3d
       0.012455197 0.07051466 -0.09101137 0.061295256
0003a0 b2 97 c3 bb 7e 09 a6 3c c4 30 1c be 56 6f d3 3d
       -0.005969011 0.020268198 -0.15252978 0.1032397
0003b0 d3 8b 20 3c ba 9e f5 bc e7 8d 8c 3c f1 42 d0 3b
       0.009798962 -0.029982913 0.017157508 0.0063556363
0003c0 5d 03 d6 bc 35 6d 45 3c e7 38 a2 3d f0 c6 1d be
       -0.02612465 0.012049963 0.079210095 -0.1540792
0003d0 75 0b 2a bd 4d b4 5c 3c 97 58 36 3c 09 dc be 3d
       -0.041514833 0.013470721 0.01112952 0.09319312
0003e0 81 d0 02 bd 61 09 e5 3b a4 90 36 bd c2 d4 f3 bc
       -0.031937126 0.0069896434 -0.044571534 -0.029764537
0003f0 8d e8 a9 3d 49 22 7a 3d 20 1f d9 3c 71 e5 e8 bd
       0.08296309 0.061067853 0.0265041 -0.113718875

network_body._body_endoder.seq_layers.2.bias f4 [256]
000000 d0 f7 ea 3b 3a 20 1b 3b 9c b6 ad bb 70 82 11 ba
       0.007170655 0.0023670332 -0.0053013097 -0.0005550748
000010 25 1d bc 3a 2a 54 34 bb 0f 47 05 bb 79 76 16 bb
       0.0014351947 -0.0027515986 -0.0020336544 -0.0022958799
000020 3f b6 5b bc 10 e5 22 3b 84 78 d5 bb fc 23 1d 3b
       -0.01341015 0.002485577 -0.0065146107 0.0023977747
000030 16 5c 06 3c 9a 4f f2 ba b6 dc 84 3b be 00 2d 3b
       0.008200666 -0.0018486858 0.004054631 0.0026398147
000040 56 a0 b2 3b be 4f 3d 3b 84 a4 8b 3a 1b 13 ab 3b
       0.0054512424 0.0028886641 0.0010653888 0.0052207834
000050 4d c9 b0 bb d6 60 83 3a d0 4d ca 3b 96 f5 c5 bb
       -0.0053950907 0.0010023366 0.0061738268 -0.006041239
000060 5d d8 5b ba 38 01 59 39 36 4c f5 3b 8c 62 79 ba
       -0.00083864277 0.00020695187 0.0074858917 -0.0009513281
000070 88 c9 30 39 15 5c f4 bb 8c b0 12 3c 88 56 54 39
       0.00016859744 -0.007457266 0.008953225 0.00020250131
000080 0f ee a9 ba eb e8 b5 3b 2d 2d 8b 3a dc c4 21 ba
       -0.0012964624 0.0055514476 0.0010618322 -0.0006170997
000090 88 da fb 3b 2b bc 68 bb 86 dc 26 bb 6c f8 09 bb
       0.007685963 -0.0035512547 -0.0025461032 -0.0021052612
0000a0 0a d1 bb 3b 3c cc 03 bc 2d 2e a0 ba 76 b3 4f bb
       0.0057317065 -0.008044299 -0.0012220793 -0.003169266
0000b0 cf f7 79 3b c5 e2 d3 3b a8 5e 09 bc f0 be 04 3b
       0.003814209 0.006466242 -0.008384384 0.002025541
0000c0 35 df b6 b9 66 d2 20 3c 48 4a f3 bb 05 c3 82 3b
       -0.00034880047 0.009815788 -0.0074246265 0.0039905333
0000d0 34 73 e8 b9 15 6a 16 bb f6 ac 22 3a a0 a3 4f ba
       -0.0004433632 -0.0022951413 0.0006205583 -0.00079208054
0000e0 d6 56 58 3b 74 73 c1 bb af 81 85 3b f7 59 ca ba
       0.0033010743 -0.0059036557 0.0040742974 -0.0015438189
0000f0 1b da 32 3b b9 fe d2 3b a3 07 47 3b 10 b0 51 3b
       0.0027290646 0.0064390567 0.0030369542 0.003199581
000100 ad 3c 00 3c 52 c1 12 bb 1c 63 4a 3b 20 c1 0e bb
       0.007826966 -0.002239306 0.0030881828 -0.0021782592
000110 b1 c1 ab 3b a3 b6 b7 3b e8 ee ca ba 1e db c8 3a
       0.0052415957 0.005606489 -0.0015482577 0.0015324091
000120 c9 74 2e bb b5 7c 09 3b 91 cd af bb a8 fe 27 bb
       -0.0026619902 0.0020978872 -0.0053650816 -0.0025633965
000130 b0 0b ac 3b 34 d1 e0 b8 e5 6e 0d ba de e5 4c ba
       0.0052504167 -0.000107201195 -0.0005395248 -0.00078162353
000140 2f a9 ec ba 10 ff a6 3b cc 08 fc 3a 1e f8 04 bb
       -0.0018055792 0.005096324 0.0019228696 -0.002028949
000150 58 7a 8d 3b 45 56 b1 bb 97 3e 22 ba 0d cd a6 3b
       0.004317563 -0.0054118955 -0.0006189136 0.005090362
000160 1e a2 5c 3a 4f 68 01 3c fc 59 35 3b 91 65 7b 3b
       0.00084164913 0.007898404 0.0027672043 0.00383601
000170 e2 14 9d 3a d0 47 a5 3b cd 3e de 3b ca 19 22 ba
       0.0011984373 0.005043961 0.006782389 -0.00061836524
000180 89 24 12 3c 9e f8 8b 3b a4 1a 45 3a 1f fa a2 3a
       0.0089198435 0.004271581 0.00075189234 0.0012434161
000190 4d 85 0c 3c 4b 67 74 bb b8 f0 2f 3b 48 8d be 3b
       0.008576703 -0.0037293013 0.002684636 0.005815182
0001a0 1b ba 9e 3a 54 7c d7 bb df 7d ce bb 76 c3 73 bb
       0.0012109907 -0.0065761004 -0.006301626 -0.0037195361
0001b0 db de e2 39 51 22 a2 bb b0 ef d6 3b 1c 4c ed ba
       0.0004327212 -0.0049479385 0.0065593347 -0.0018104347
0001c0 25 7e 4e 3a f7 7f 3d 3b dc e4 19 3b 1a 91 ea bb
       0.00078770734 0.0028915384 0.0023482358 -0.0071584107
0001d0 61 2e 0a 3c b9 73 d8 3b 3d 6a f8 b9 9a 9a ae 39
       0.008433909 0.006605592 -0.000473814 0.00033303053
0001e0 c9 93 fe 3a e6 ca ee b9 83 91 cd 3a 7b 29 22 39
       0.0019422706 -0.0004554607 0.0015683625 0.00015464977
0001f0 3d 5f 08 bb a9 6b da bb d5 c4 98 ba 91 95 5f 3b
       -0.002080872 -0.006665666 -0.001165534 0.0034116248
000200 9d 45 2b bc 0d 5b e5 ba e1 da ab bb 5a 82 4f bb
       -0.010453609 -0.0017498449 -0.0052445983 -0.003166339
000210 85 31 0f bb 37 25 c5 3b 82 83 88 3b 6d 7a c6 b9
       -0.0021849584 0.0060163992 0.0041660676 -0.00037856717
000220 fc dd 75 ba 91 45 a9 3a ff a7 0b 3b 6d d9 e6 3b
       -0.00093790866 0.0012914409 0.002130985 0.007044962
000230 f1 90 ae 3b a3 91 a4 bb d4 77 0a 3b 9b fa d7 3a
       0.005327337 -0.005022244 0.0021128552 0.0016477884
000240 a9 bb a9 3a f3 87 27 bc be bc ed 3a 33 71 5d 3b
       0.0012949604 -0.010225284 0.0018137915 0.0033789396
000250 f7 c7 02 bc 35 11 a4 3a 8c b2 e8 3b d2 e2 c6 b9
       -0.007982246 0.0012517335 0.0071013626 -0.00037934497
000260 df 94 c6 3b 48 db 92 3b ac ce 9b 3b d3 8c 10 bb
       0.0060602273 0.004481707 0.004754862 -0.0022056594
000270 bc 81 f7 3a 16 e6 b6 b9 45 fe d2 3a 82 ca a3 3a
       0.0018883268 -0.00034885172 0.0016097507 0.0012496265
000280 d1 2f aa 3b de e6 44 bb ca 1d 7c 3a 6d 0c fd ba
       0.0051936884 -0.0030044834 0.0009617476 -0.0019306071
000290 57 5a 08 3a 4c 89 de ba dc e5 53 ba 2e e2 08 3c
       0.000520145 -0.0016978174 -0.0008083263 0.008354707
0002a0 81 8e 8f 3b ba 32 e9 3b 0f 77 1c 3b b7 d4 23 3c
       0.0043810015 0.007116643 0.0023874675 0.009999446
0002b0 55 9a 3e bb b2 3b 07 3b 69 41 63 b9 71 12 eb 3a
       -0.0029083688 0.0020634946 -0.00021672774 0.0017934573
0002c0 88 f6 fe 3a 0f 53 0d 3a 4c 4b 93 b7 d4 c1 ef 3a
       0.0019452134 0.00053911 -1.7558828e-05 0.0018292018
0002d0 73 d0 7f 3b 0a 74 4c 3a e5 28 11 3c f4 d6 12 bb
       0.0039034158 0.00077992736 0.008859848 -0.0022405954
0002e0 c5 e4 87 3b f4 cb 05 3c b1 eb 9c ba 9a 79 12 3c
       0.0041471445 0.008166302 -0.0011972097 0.008940125
0002f0 9c 06 67 bb 9a fd 07 bb cc fc 52 3b ca 58 98 39
       -0.0035251742 -0.0020750524 0.0032194136 0.00029057852
000300 35 b6 3e 3b 98 f1 08 3b a8 be 2c 3b 5f 48 71 ba
       0.0029100303 0.0020895954 0.0026358757 -0.00092042045
000310 ac 59 27 3b d7 40 ea 3a e2 bc b6 3a 34 97 29 3c
       0.0025535626 0.0017872107 0.001394179 0.010350991
000320 1a 8a 6e bb c9 3d d7 3b e7 31 23 3b e3 f3 6b 3c
       -0.0036398233 0.0065686447 0.002490157 0.014401409
000330 52 b9 30 bb af ff 01 3b 3e 77 af bb 9f 52 35 3c
       -0.0026965928 0.0019836237 -0.005354791 0.011067062
000340 85 95 22 3b 77 bd ed 3a 57 c9 73 3a b6 8f e6 3b
       0.002480836 0.001813813 0.00092997163 0.0070361746
000350 77 45 69 3b d5 e4 f2 bb 1c e2 bd 3b 1f bb 07 3c
       0.0035594383 -0.007412533 0.0057947766 0.008284359
000360 85 93 86 3b 35 28 82 bb d2 2c 0a bb 60 f2 e6 bb
       0.004106941 -0.003972078 -0.0021083844 -0.0070479363
000370 48 96 66 3b e4 67 7d 3b e4 8f c7 3b 82 06 30 bb
       0.003518479 0.003866666 0.006090151 -0.0026859348
000380 4b ea ef bb 76 8a 1d 3a d3 8f 3e ba 26 44 b0 bb
       -0.007321631 0.0006009707 -0.0007269356 -0.0053792177
000390 14 48 f4 3b 1a 0f f5 ba c0 d2 38 3a 3d 9b bd 3b
       0.0074548814 -0.0018696517 0.0007050447 0.005786328
0003a0 a5 41 27 3b 2f cb e8 3b 1c 85 79 3b 8d 8e 06 3c
       0.0025521305 0.0071042995 0.0038073724 0.008212698
0003b0 66 c3 8d b8 d0 12 f9 b9 44 53 13 bb a2 fa d2 ba
       -6.7598e-05 -0.00047506997 -0.002248005 -0.0016096423
0003c0 f1 29 ac 3a 98 2f f8 b9 7f 54 52 3b b3 11 fd 3a
       0.0013135058 -0.00047337706 0.003209382 0.0019307643
0003d0 5a 57 8b 3a f1 b5 ff 3b ca 18 f9 3b 70 ce 61 b9
       0.0010630891 0.0078036715 0.007601832 -0.00021534576
0003e0 4f 44 cb 3b 9f 41 d2 3a 4a 42 b3 3b ba 11 91 ba
       0.0062032114 0.0016041285 0.0054705488 -0.0011067905
0003f0 7a e2 a6 3b 34 be b8 3b 96 28 75 39 ff 99 32 3b
       0.005092916 0.0056379084 0.0002338014 0.0027252433

network_body._body_endoder.seq_layers.4.weight f4 [256, 256]
000000 0a ec 8b 3d f7 de 37 bd 52 be 05 b9 ca 78 26 3b
       0.0683213 -0.04489037 -0.00012754768 0.0025401586
000010 95 eb ce bd 31 47 9b bd 77 4a 90 bd 46 83 84 bd
       -0.101035275 -0.07581938 -0.07045453 -0.06470351
000020 3e 2a 38 3e 43 65 37 3d bd db ff 3c 1b 7c 1f 3d
       0.17984864 0.044774305 0.031232709 0.038936716
000030 4b 9d 01 3e 66 02 2f bd 91 65 4f bd a8 3c de bd
       0.12657659 -0.042726897 -0.05063397 -0.10851413
000040 fb 69 9f 3b 51 e3 99 bc 31 24 1a bd c6 6d 80 bd
       0.004864929 -0.01878515 -0.03763217 -0.062709376
000050 56 99 a8 3d 00 05 9d 3d 73 b8 13 bc 4f 95 05 3d
       0.082323715 0.07666969 -0.009016144 0.032613095
000060 9e 65 32 bd 4f 53 b4 bd 95 d1 75 bb 94 7e 68 bd
       -0.04355394 -0.08804952 -0.0037508954 -0.05676134
000070 6e 3a 3d bd 8d dd 86 bd 35 8c d0 3c 63 f2 10 bd
       -0.0461983 -0.06585226 0.02545748 -0.035387408
000080 88 ec 43 bd 65 f5 15 3d 83 1e a2 bc 40 7a 61 bd
       -0.047832996 0.03661098 -0.01978994 -0.055048227
000090 91 0d 4d bb f2 b8 22 bc a8 61 2b bd 70 41 e3 3d
       -0.0031288604 -0.00993179 -0.04184118 0.110964656
0000a0 3c 00 52 3d f3 4a 13 3e 75 fc d1 bd 5b c7 b1 3c
       0.051269755 0.1438406 -0.102532305 0.021701505
0000b0 e1 ad b9 bc b3 99 27 3d 73 a2 fb bc d1 ae 05 3d
       -0.02266592 0.040918063 -0.03071711 0.03263742
0000c0 15 78 8c bd c7 33 8c 3d 02 91 f5 3c 8d bd 91 bd
       -0.06858841 0.06845813 0.029976372 -0.07116232
0000d0 e4 5c b7 bd 67 b4 62 bc 78 f8 2a bd ad 6e 9a bd
       -0.08953264 -0.013836957 -0.041740865 -0.07540641
0000e0 e5 92 2e bd 14 df e1 bc 37 32 f8 bc cd c2 9e 3d
       -0.04262056 -0.027572192 -0.030297382 0.07751999
0000f0 8f 1d 0e 3d 35 f2 5c bd c6 91 71 3c 9c 98 b8 3c
       0.034696158 -0.053941924 0.014744228 0.022533707
000100 df e8 38 bd 5b 24 18 3c 75 ee 2e be 43 14 fb bc
       -0.04514396 0.009286012 -0.17083152 -0.03064931
000110 cb ab 50 bd 8c e2 ff bb d6 63 90 bd 18 7c 0c bc
       -0.050945085 -0.007808989 -0.07050292 -0.008574508
000120 db 3e 59 bd b1 75 a1 bb 1e 54 01 bc b3 6b 82 3d
       -0.05303846 -0.00492736 -0.00789359 0.06368198
000130 9f 1f 8f bd e2 f5 60 3d 88 f2 53 3c a0 79 0e bc
       -0.06988453 0.054921992 0.012936242 -0.00869599
000140 04 a7 e4 3c cf 46 8c 3d 91 3f 02 3d 83 39 d3 3d
       0.02791167 0.06849443 0.031798903 0.10313704
000150 5d 8b 66 bd 1a ea c2 bc cf 1d 82 bd d1 fc a1 3d
       -0.05628525 -0.023793269 -0.06353342 0.07909549
000160 7a 8e 51 bb 2e a4 c9 3d 6d 4a 0d 3e b5 98 7b bd
       -0.0031975792 0.09845768 0.13797922 -0.06142493
000170 c9 e2 d5 3b d2 51 b6 bc bc 79 98 3d 05 63 0c be
       0.006527279 -0.022255812 0.07445094 -0.13709648
000180 b4 fe a7 bd 6f fa b2 bc 51 82 b4 bd f0 69 74 bb
       -0.08202878 -0.021847932 -0.088139184 -0.003729459
000190 44 80 4a bd da 8f cd bc 67 6d 96 3c 8e eb 16 3d
       -0.04943873 -0.025093008 0.018362714 0.036845736
0001a0 d1 6e 9e bd fa 3c 22 be 39 b6 83 bb 16 b7 0b be
       -0.0773598 -0.15843573 -0.0040195254 -0.1364406
0001b0 0c 95 cf bd 36 f6 5c bd a8 b7 ef 3d 83 38 52 3c
       -0.1013585 -0.053945743 0.117049515 0.012830856
0001c0 ec ed df 3c 8a f5 f4 bc 2a 21 72 3b 88 ab e0 ba
       0.02733513 -0.029902238 0.0036946037 -0.0017140964
0001d0 10 d9 6c 3d 8c 2d dc bd 63 ba ac bc 24 69 a3 bc
       0.057824194 -0.10750875 -0.02108497 -0.019947596
0001e0 82 f5 16 3d 8e 34 0a bd 0f c0 b2 bd 72 bd b5 bd
       0.03685523 -0.033741526 -0.087280385 -0.088740245
0001f0 df da 07 bc 27 5d 02 bd 0f 62 29 bd ba a8 f7 bc
       -0.008291929 -0.03182712 -0.04135328 -0.030231822
000200 c4 14 3c 3c a8 b9 53 bd 85 f0 a3 bd 66 99 bb 3d
       0.01147956 -0.051690727 -0.0800486 0.09160118
000210 82 3c 50 39 d3 8a 70 3d 69 eb b1 bd 56 a2 f3 ba
       0.00019858967 0.058726143 -0.08687479 -0.0018587809
000220 ba 69 97 bd a6 05 1f 3e a4 c4 03 bd 3f 7e 89 bc
       -0.073932126 0.15529498 -0.032169953 -0.016783832
000230 2a 04 37 bd 90 38 9f bb c1 a2 5a bc 23 ef 2d 3d
       -0.044681706 -0.0048590377 -0.013344468 0.042464387
000240 16 33 6a 3c ed 14 37 3a c6 67 03 bb d9 ca 5f 3d
       0.014294406 0.0006984014 -0.0020050867 0.05463681
000250 0b 52 e0 3d d9 7f ca bb 98 76 c3 bd b6 84 fa 3c
       0.109531485 -0.0061797914 -0.09544104 0.03058086
000260 72 19 45 3d 98 87 b5 3d 17 17 0f be 9e 19 60 bd
       0.04811997 0.08863753 -0.13973652 -0.05471193
000270 7f 5f 98 3c 53 57 ce bc 83 77 d7 3d 45 99 b1 bd
       0.018600224 -0.025188124 0.10520842 -0.08671812
000280 4f d2 76 bd f8 4e 51 3d 0b cb b6 bd b5 00 b2 bd
       -0.06025916 0.0511007 -0.08925446 -0.08691541
000290 77 58 e4 3c bc 28 0f bd 32 e6 92 3d 69 85 0c bd
       0.027874215 -0.034950957 0.071728125 -0.034306917
0002a0 b0 c3 af bd 9b c7 3e 3c 64 8a 99 ba 5e 83 94 bd
       -0.08582246 0.011644269 -0.0011714217 -0.07251619
0002b0 e0 68 74 3d a6 1b 17 bd 23 71 d2 bd ce fe d1 3a
       0.05967033 -0.036891602 -0.10275485 0.0016021372
0002c0 bb ea ba 3d 60 06 bf bd 5b d5 52 3d 91 27 26 bd
       0.091268025 -0.09327388 0.051473003 -0.040565077
0002d0 38 30 d2 3c 0f 12 88 bd 49 46 d0 bd c3 65 a3 3c
       0.025657758 -0.066440694 -0.10169656 0.019945985
0002e0 94 63 a2 3d 61 08 46 bc 55 09 51 bd 37 33 d7 bb
       0.07929149 -0.012086959 -0.05103429 -0.0065673846
0002f0 60 3e 91 bd 6b dc 29 bd c3 54 de bd 99 50 c9 3c
       -0.07091975 -0.041469973 -0.10856011 0.024574565
000300 93 8e 8f 3d f4 94 d9 bc d8 35 b9 3d 8a f7 9c 3d
       0.07009616 -0.026560284 0.09043473 0.07664402
000310 f6 b1 a9 bd 94 20 25 3d b8 c8 f0 3d d8 9b e3 3c
       -0.082858965 0.040314272 0.11757034 0.027784273
000320 79 b1 fe bc 22 45 be bc c6 f8 e7 bc e6 69 88 3d
       -0.031090485 -0.023226324 -0.028316867 0.066608235
000330 9d ab a1 bb 8d 6e 3f 3d b7 68 53 3d 05 74 d8 bc
       -0.004933788 0.04673629 0.051613536 -0.02642251
000340 59 41 98 3d d2 7b 8d bd f0 37 16 bd 5a e2 b9 3d
       0.07434339 -0.069083825 -0.03667444 0.09076376
000350 a0 d4 79 3d 4c d4 a1 3c 9c 25 85 3d 82 5d 0a bd
       0.06099379 0.019754551 0.06501314 -0.033780582
000360 3e 98 c2 bc d4 83 80 bd 77 a5 a7 bc c2 bf a6 bd
       -0.023754235 -0.06275144 -0.020464642 -0.08142044
000370 71 e3 79 bd 19 d6 8b 3c ce 10 00 be e5 aa 14 bd
       -0.06100792 0.017069863 -0.1250641 -0.03629579
000380 60 31 17 bd 22 44 6f 3d d2 80 3b bd a1 0b cf bd
       -0.036912322 0.058414586 -0.04577715 -0.1010964
000390 84 73 7a 3c dc b2 56 3c 91 e6 05 bd 83 5b 51 3d
       0.01528633 0.013104167 -0.03269059 0.051112663
0003a0 8e 94 0c be 76 f5 d5 bc 75 67 42 bd bb 84 84 3d
       -0.13728544 -0.026118021 -0.047461946 0.06470629
0003b0 7c 80 e7 bd 44 26 68 bd c6 77 4c bc 21 7b 72 3d
       -0.11303803 -0.056677118 -0.012479728 0.059199456
0003c0 07 fe 60 3c e3 a6 09 bd dd c4 2e 3c b9 c3 53 bd
       0.01373244 -0.03360642 0.010667053 -0.051700328
0003d0 4e 1c d0 bb 70 b7 f7 ba 5e 4f 2e bd 92 c8 a8 bd
       -0.0063510304 -0.0018899273 -0.04255616 -0.08241381
0003e0 15 dc 28 bd fc 09 81 bc ab ee 0b 3e 95 6f 85 3c
       -0.04122551 -0.015751831 0.13665263 0.016288558
0003f0 41 f9 11 3d 7a 03 61 3d 6a fb 01 3d af fc 2b bd
       0.035638098 0.054934956 0.031733908 -0.041989025

network_body._body_endoder.seq_layers.4.bias f4 [256]
000000 d9 72 a4 bb 69 c7 b3 3b 05 4f aa bb ed 25 98 3b
       -0.0050185737 0.005486418 -0.005197408 0.004643193
000010 2d 1a bd 3b b5 30 87 ba e1 53 09 bb 9e 07 e3 3b
       0.0057709427 -0.0010314198 -0.0020954537 0.0069283983
000020 7d b7 74 3b b0 e9 08 bb c4 45 16 bb 61 c7 f0 ba
       0.0037340813 -0.0020891242 -0.0022929767 -0.0018369966
000030 a6 bd 38 bb ae ee 90 3a cd 41 59 bb fc a2 ce 3a
       -0.002818921 0.001105746 -0.0033150793 0.0015765126
000040 c1 ad 6a 3a 8c f3 74 bb e4 a6 53 3b 65 46 ed 39
       0.0008952283 -0.003737661 0.003229552 0.0004525661
000050 25 70 05 bb c0 65 67 3a 97 58 a4 3a de a9 2b 38
       -0.0020361033 0.00088271126 0.0012538609 4.0927778e-05
000060 46 c3 6c 3a ba e0 88 3a 31 97 d3 3b b2 f0 c1 3a
       0.00090317836 0.001044295 0.0064572324 0.0014796464
000070 44 04 46 37 d2 13 2a 3a c2 b2 00 3b f1 41 61 bb
       1.1802713e-05 0.0006487939 0.0019637798 -0.003437158
000080 3b 71 cf 3a 3d 06 32 3b 39 44 6f bb 43 25 0c 3b
       0.0015826592 0.0027164363 -0.003650917 0.0021384514
000090 07 b3 b6 3b 2b 13 25 ba 58 c0 87 3b ce 70 8f 3a
       0.005575541 -0.0006297107 0.004142802 0.0010943653
0000a0 2e d1 69 3b d2 76 b7 bb 58 63 ba b9 ac 3b 0b 3b
       0.003567766 -0.0055988813 -0.000355507 0.0021245284
0000b0 5f f8 54 ba 78 2b ba 3b bd 53 92 bb ae a3 a7 b9
       -0.00081241684 0.0056814514 -0.004465549 -0.00031974673
0000c0 ad ea 49 bb af 86 89 3b 80 ce 83 3b 5a 77 dd 3a
       -0.0030810044 0.0041969637 0.0040224195 0.0016896531
0000d0 07 f8 cf ba 2a 5e 07 3b b1 f2 67 ba cc 6b 55 3b
       -0.0015866765 0.0020655491 -0.00088481145 0.0032565473
0000e0 1c 5b 9b 3b c6 f1 88 ba fe a6 ce 3b ed 49 94 3b
       0.0047410857 -0.0010448031 0.006306528 0.004525414
0000f0 40 da dd bb 6d 5a c7 3a c7 bc 13 3b 1a 2b d8 bb
       -0.006770402 0.0015209444 0.002254294 -0.006596935
000100 2f 10 94 3b de 01 41 3b 61 ec d3 3a 75 b2 bd ba
       0.004518531 0.0029450576 0.0016168469 -0.001447274
000110 61 3a 9a ba cb f3 eb b9 6c 46 81 ba 80 ae ce 38
       -0.0011766666 -0.00045004333 -0.0009862906 9.8553486e-05
000120 95 fa b6 bb 6c 1a 52 ba e1 cd 89 3a 6e a8 cf 3a
       -0.005584071 -0.00080148014 0.0010513627 0.0015843043
000130 0a 31 93 3a c5 cd 17 bb d4 a6 53 3b 54 24 d2 bb
       0.0011229825 -0.002316342 0.0032295482 -0.006413022
000140 ba 34 85 3b 5f a9 b8 bb ad 6e 7d 3b b8 39 c4 ba
       0.0040651234 -0.005635425 0.0038670704 -0.0014970815
000150 b7 86 20 3b 38 60 25 bb 9f 1b ea 39 de a9 9d 3b
       0.0024494359 -0.0025234353 0.00044652537 0.0048115095
000160 95 a6 ab 3b df ce b1 3b 3a 80 b6 3b ee 7c 0a 3c
       0.005238364 0.0054262723 0.005569485 0.008452637
000170 68 c6 86 bb ae d4 ad 3a c5 ea 8a 3b af f4 ca ba
       -0.0041130073 0.0013262236 0.0042394125 -0.0015484298
000180 5c 43 89 ba 9d e9 8d bb 21 57 d9 3b 17 79 5f 3b
       -0.0010472345 -0.0043308274 0.006632701 0.0034099275
000190 48 f6 56 bb af 9d 23 3b a9 8b cc 3b f8 08 de 3b
       -0.0032800604 0.0024965813 0.0062422347 0.0067759715
0001a0 25 44 52 ba ca 25 07 3b 7b f4 c8 3b 67 4a 25 b8
       -0.00080210186 0.002062189 0.00613266 -3.9408358e-05
0001b0 b4 74 db 3a 5c 7f 21 ba 41 8a e5 ba 81 dd 0b 3c
       0.0016743154 -0.00061606406 -0.0017512516 0.008536697
0001c0 bf 85 ef ba 89 78 85 ba d3 e1 0b 3c b8 6f a2 bb
       -0.0018274112 -0.0010183017 0.008537727 -0.0049571656
0001d0 67 3c 96 3a 11 87 63 3a 97 0d 7c 3b 76 2b 4b 3b
       0.0011462093 0.0008679489 0.0038460249 0.0031001247
0001e0 47 c0 e3 3a d2 cf 32 bb 3c 54 4c 3b f3 e4 e3 bb
       0.0017376029 -0.0027284515 0.0031178137 -0.006954783
0001f0 0e 17 31 bb e8 34 9e bb 77 6f 28 3b 5b 07 bd ba
       -0.0027021798 -0.0048280843 0.0025701204 -0.0014421748
000200 a7 89 0a bb 2b 5c 30 ba 54 6b 6e bb b2 35 21 ba
       -0.0021139176 -0.0006727601 -0.003637989 -0.0006149664
000210 29 d6 0c 3b ad 85 77 3b fc c5 e3 3a c8 b5 fa ba
       0.0021489954 0.0037768886 0.001737773 -0.0019127661
000220 41 a8 93 bb 86 dd ef 3b d0 41 df bb ee eb f9 3b
       -0.0045061414 0.007320109 -0.0068132654 0.007627002
000230 3e e3 5e 3b 5b dd ec 39 3a 0a 6f bb 4c c4 95 39
       0.0034009959 0.0004517835 -0.0036474601 0.00028565747
000240 da 53 d0 3a 71 3b 50 bb 5c ca 52 ba 0d 8f 27 3a
       0.001589413 -0.003177371 -0.0008041018 0.00063918607
000250 ef 97 7d bb f8 a6 fc b8 ec e3 51 3b 51 c5 25 3b
       -0.0038695296 -0.00012047397 0.0032026721 0.0025294612
000260 55 c4 8b bb 50 ce f7 3a 8c ad 66 3a 98 0a e8 ba
       -0.004265348 0.001890609 0.0008799664 -0.0017703352
000270 6c 45 09 3c aa 78 54 bb 0c af dd 3a d8 57 3c 3b
       0.008378368 -0.0032420554 0.001691313 0.0028738882
000280 5b ae 36 3b ea 9f 2a b9 82 3c a9 39 6b fa 07 3b
       0.002787492 -0.00016272036 0.00032279274 0.0020748626
000290 9c 90 81 3b 8b 0d a9 3b 31 9b 29 3b 69 2e ae bb
       0.0039540064 0.005159085 0.0025879855 -0.005315591
0002a0 db bc 2d ba 2d e3 a2 3b a7 5c 09 3b 43 97 cb 3b
       -0.0006627568 0.004970929 0.0020959766 0.0062131
0002b0 e6 5b ec 3a 58 f9 6a 3b be f5 d6 ba 66 30 5f bb
       0.0018032759 0.0035854187 -0.0016400141 -0.0034055947
0002c0 3d 54 e2 ba 56 b5 bb 3a 04 46 23 ba 40 51 31 3b
       -0.0017267537 0.001432101 -0.00062283897 0.0027056485
0002d0 fa 26 4d 3b 2d cd 5a 3a f0 06 67 b9 0a 4f 64 ba
       0.003130375 0.00083466136 -0.00022032461 -0.00087092875
0002e0 5e 53 a1 3b bf f8 58 3b 5c 95 97 ba 32 b9 e2 b9
       0.004923268 0.0033107249 -0.0011564898 -0.0004324406
0002f0 45 9c 24 3b 4e 46 85 b9 a9 a7 0a 3b d3 1b 9c 3b
       0.0025117558 -0.00025420118 0.0021157062 0.004764059
000300 df 36 41 3b 6d 52 d6 bb 3d eb fe ba 7c 8f 41 bb
       0.0029482169 -0.0065405876 -0.0019448769 -0.0029534986
000310 2e bf 39 bb 50 0e 8d bb 39 71 4c bb ff 48 d6 3a
       -0.0028342712 -0.0043046847 -0.0031195416 0.0016348659
000320 25 d9 a2 bb 98 6a 3f 3b aa 53 68 3b 38 bc b0 3a
       -0.0049697333 0.0029207822 0.0035450258 0.0013483828
000330 b3 98 79 ba 55 87 b9 3b 21 cc 7d 3a 34 a6 fc 3b
       -0.000952135 0.005661885 0.00096816017 0.0077102426
000340 92 c0 36 3b 21 ad 5e 3a b0 0b 3c bb b1 10 a2 3b
       0.0027885777 0.0008494426 -0.002869349 0.0049458374
000350 d9 73 28 3b ef b7 a4 ba 56 34 25 bb 3e 52 77 bb
       0.0025703816 -0.0012567024 -0.0025208197 -0.003773823
000360 b0 3d 38 bb c2 b5 04 3c e8 75 9d bb 68 e0 37 3b
       -0.002811294 0.008099975 -0.0048053153 0.002805734
000370 ad a9 99 3b 56 d9 a3 ba 69 82 37 ba ae 1d f6 ba
       0.0046894164 -0.0012500684 -0.00070003286 -0.0018777156
000380 0f c9 be 3b a4 ad 22 3b a9 d1 2b 3a d0 87 91 3b
       0.005822308 0.0024822736 0.0006554374 0.004441239
000390 2d be 71 bb f4 d0 61 39 5c c2 60 3a e3 9e a7 bb
       -0.0036887035 0.00021535513 0.00085738837 -0.0051153763
0003a0 83 05 6c bb 6b fb 4b bb 40 b7 2c 3b 88 69 56 ba
       -0.0036014027 -0.0031125199 0.0026354343 -0.00081791775
0003b0 2b 5a 66 3b 0a 7f 4f ba 90 7b ea ba 74 1d c5 bb
       0.003514896 -0.00079153536 -0.0017889608 -0.006015474
0003c0 ab c1 ec 3b 67 79 cf 3b 0f 54 63 39 05 a8 be 3a
       0.0072252355 0.006331611 0.00021679721 0.0014545923
0003d0 49 b8 b4 3b 08 ba c2 ba 46 9f 9a bb 14 f6 2d bb
       0.0055151326 -0.0014856467 -0.004718694 -0.002654438
0003e0 1a 2e 9f 3b b7 3a 05 3b 40 47 a5 bb 76 4b 43 bb
       0.0048577907 0.0020329186 -0.005043894 -0.0029799617
0003f0 a1 d7 b2 3b 4c 75 ee bb 6c f0 26 bb c2 e0 7f 3b
       0.005457834 -0.0072771665 -0.0025472892 0.0039043878

action_model._continuous_distribution.log_sigma f4 [1, 6]
000000 5a 55 78 bb 1e 0f 97 bc 50 d5 ba bb 45 d1 57 bb
       -0.003789267 -0.018439826 -0.0057016984 -0.003293113
000010 a9 a9 85 bc 0c 8d 1e ba
       -0.016316252 -0.00060482393
