Assets/RobotArm.onnx (onnx, 79394 bytes, 12 tensors)

discrete_act_size_vector f4 [1, 2]
2.0 2.0
00000000: 0000 0040 0000 0040

network_body._body_endoder.seq_layers.0.weight f4 [128, 8]
-0.44394112 -0.72269154 0.21412723 -0.11544392 0.1913531 0.2532392 -0.24701038 -0.30248237
0.34428853 -0.07429136 -0.569746 0.24694405 -0.70582515 0.009161635 0.2567249 -0.25340238
-0.22738516 0.0928539 -0.045229845 0.022511221 0.050193876 -0.10182297 0.06524944 0.37795973
-0.23569968 0.35345554 -0.5352217 -0.35863772 -0.41709444 0.13572308 0.6361577 -0.7999029
-0.8441591 -0.1727087 -0.35394108 0.38971156 -0.039496124 -0.6710322 -0.012585369 0.028799344
-0.6301714 0.54883945 -0.9151227 -0.29824328 -0.23429106 0.43616858 -0.30166668 -0.016575912
-0.5464123 -0.2022781 -0.49259004 0.1239672 -0.08152641 -0.46336004 -0.2679296 -0.3936072
-0.27995646 -0.08380338 0.03982989 -0.13243945 -0.011069679 -0.00037531956 0.92489785 0.21250321
0.01951877 -0.07436564 -0.22006524 -0.8437047 0.39634046 0.19901437 -0.4693077 0.062569596
0.2619366 -0.49120602 -0.90804034 -0.57943547 -0.38810623 -0.25913885 0.345903 0.119810954
0.42425874 0.20081349 0.15885372 -0.86517364 0.26054254 0.7553048 0.18211578 0.6995689
-0.59396154 0.6896509 0.7721061 0.40511745 0.18660016 0.14652456 0.15155114 -0.05291334
0.4205153 -0.6181554 0.48118585 -0.20802538 0.24098699 0.2554342 -0.418239 -0.06233406
-0.06577763 -0.23812768 -0.2802161 0.19193085 -0.9060934 -0.07083757 0.07162202 0.21023017
-0.30355144 -0.6110258 -0.52408844 -0.46050206 -0.087035224 -0.04342764 -0.29227784 -0.6060369
0.47880194 -0.19488119 -0.1406059 0.14135353 0.07388371 0.1902106 0.281607 -0.31832516
0.5361245 1.0134947 0.8421944 0.07281905 -0.20070215 -0.5565326 -0.58486366 -0.053622935
0.23165858 -0.38015842 -0.13699713 -0.6033657 -0.16010912 0.17835207 0.1530319 -0.080601245
-0.62946314 0.39288875 -0.20834413 -0.16302216 -0.18348406 -0.25706378 0.31338614 -0.067774445
0.044901107 0.32528263 -0.56844854 0.25315583 -0.0055802283 -0.0114467 -0.29675066 -0.5548423
0.31467757 -0.58497494 -0.27098334 -0.05666747 -0.85635775 0.5498721 0.1876721 0.12744048
-0.19373976 -0.20479201 -0.40683222 0.13213848 0.1585128 -0.15903576 0.11778504 0.12959507
-0.082767 0.5217219 0.7504174 -0.29061157 0.114159994 -0.5415432 0.022462081 0.16541153
0.014900457 0.38018793 -0.045991953 -0.38414153 -0.06610922 0.5292998 0.33763507 0.6440258
0.053886876 0.022489427 0.32987437 0.35155255 0.041017767 -0.6229386 0.16800703 -0.11917117
-0.09313688 -0.12668702 0.62152106 0.4318093 0.90052015 0.1679941 -0.10274475 0.2221756
-0.18221572 -0.2465218 -0.19583678 0.17314601 -0.055351708 0.20239934 0.10485269 -0.44211102
0.20374152 0.0588486 -0.16757819 0.31987914 -0.058533598 0.1550018 0.7609085 -0.16219907
-0.24728398 0.032744635 0.07897442 -0.49395278 -0.017596066 0.006802087 -0.005302378 0.71546555
-0.21366146 0.75355184 -0.01741468 -0.24287553 -0.05147351 -0.13720302 -0.595209 0.3746936
0.2286726 -0.16932131 -0.0029576174 -0.6600268 -0.13304694 0.16084717 1.0108626 0.116228975
-0.103578344 0.08070785 -0.5954536 0.3802637 0.22181396 -0.09452839 0.59479773 0.43481684
00000000: 404c e3be 5002 39bf 2b44 5b3e dd6d ecbd
00000010: 11f2 433e 92a8 813e 4af0 7cbe f8de 9abe
00000020: 9646 b03e 1226 98bd e0da 11bf e7de 7c3e
00000030: f5b0 34bf af1a 163c 7271 833e f5bd 81be
00000040: a8d7 68be 2f2a be3d ee42 39bd 7469 b83c
00000050: 1898 4d3d 9088 d0bd 80a1 853d f083 c13e
00000060: 425b 71be 20f8 b43e 4a04 09bf 5d9f b7be
00000070: 678d d5be fefa 0a3e 3bdb 223f 70c6 4cbf
00000080: d01a 58bf 8dda 30be c437 b5be 4688 c73e
00000090: b0c6 21bd c4c8 2bbf dd32 4ebc 9aec eb3c
000000a0: ea52 21bf be80 0c3f 7b45 6abf 58b3 98be
000000b0: ffe9 6fbe 7d51 df3e 0e74 9abe 35ca 87bc
000000c0: ade1 0bbf fe21 4fbe c334 fcbe 84e2 fd3d
000000d0: 52f7 a6bd 873d edbe 122e 89be e286 c9be
000000e0: 7456 8fbe 1ba1 abbd ab24 233d 359e 07be
000000f0: 995d 35bc 8ac6 c4b9 1bc6 6c3f 719a 593e
00000100: d4e5 9f3c 034d 98bd c858 61be 08fd 57bf
00000110: 23ed ca3e 6cca 4b3e 1949 f0be 7d24 803d
00000120: 8e1c 863e 5b7f fbbe 5575 68bf e255 14bf
00000130: dcb5 c6be d9ad 84be 331a b13e 725f f53d
00000140: 7138 d93e 0da2 4d3e 8daa 223e 057c 5dbf
00000150: d565 853e a85b 413f 8f7c 3a3e f316 333f
00000160: dd0d 18bf f68c 303f bfa8 453f 8e6b cf3e
00000170: 1d14 3f3e 890a 163e 3930 1b3e a9bb 58bd
00000180: c84d d73e 6f3f 1ebf fe5d f63e 9b04 55be
00000190: 4bc5 763e 45c8 823e 6c23 d6be 0052 7fbd
000001a0: 6cb6 86bd bed7 73be 7c78 8fbe 8589 443e
000001b0: bdf5 67bf 4a13 91bd 91ae 923d 9446 573e
000001c0: 186b 9bbe 306c 1cbf a92a 06bf edc6 ebbe
000001d0: 863f b2bd 2ee1 31bd 71a5 95be 3c25 1bbf
000001e0: 8725 f53e ef8e 47be fefa 0fbe fbbe 103e
000001f0: 5850 973d 91c6 423e cb2e 903e 84fb a2be
00000200: 753f 093f 32ba 813f 0d9a 573f 2722 953d
00000210: dd84 4dbe ec78 0ebf a0b9 15bf b9a3 5bbd
00000220: e837 6d3e 20a4 c2be fa48 0cbe 2d76 1abf
00000230: a5f3 23be eda1 363e 65b4 1c3e 4412 a5bd
00000240: 7f24 21bf b728 c93e 2a58 55be 48ef 26be
00000250: 3fe3 3bbe dd9d 83be 2674 a03e 54cd 8abd
00000260: 39ea 373d 728b a63e d885 11bf a49d 813e
00000270: 59da b6bb f18a 3bbc b4ef 97be 250a 0ebf
00000280: 6b1d a13e ebc0 15bf 54be 8abe 261c 68bd
00000290: 433a 5bbf 6bc4 0c3f 1d2d 403e c27f 023e
000002a0: b763 46be ffb4 51be 504c d0be 4f4f 073e
000002b0: 2e51 223e 45da 22be 4839 f13d 92b4 043e
000002c0: bf81 a9bd 918f 053f 5b1b 403f 0acb 94be
000002d0: b7cc e93d 93a2 0abf 6602 b83c a461 293e
000002e0: 0c21 743c fea7 c23e 0f62 3cbd 33ae c4be
000002f0: 4564 87bd 3180 073f 81de ac3e e0de 243f
00000300: 7cb8 5c3d bf3b b83c 4be5 a83e b2fe b33e
00000310: 3f02 283d e778 1fbf 090a 2c3e 0410 f4bd
00000320: 8cbe bebd 3eba 01be 011c 1f3f 1c16 dd3e
00000330: 7d88 663f a506 2c3e d76b d2bd 0082 633e
00000340: c296 3abe 3670 7cbe 7089 48be 304d 313e
00000350: 79b8 62bd c641 4f3e 02bd d63d 605c e2be
00000360: 9ea1 503e 3b0b 713d 9e99 2bbe 33c7 a33e
00000370: edc0 6fbd cbb8 1e3e e6ca 423f 8317 26be
00000380: 0338 7dbe 3d1f 063d 57bd a13d 61e7 fcbe
00000390: a025 90bc 0be4 de3b 92bf adbb c028 373f
000003a0: 12ca 5abe c6e8 403f 3ba9 8ebc 5db4 78be
000003b0: e3d5 52bd f37e 0cbe 9e5f 18bf d7d7 bf3e
000003c0: 2629 6a3e 9162 2dbe 96d4 41bb 84f7 28bf
000003d0: 753d 08be 1fb5 243e f263 813f 7509 ee3d
000003e0: e220 d4bd 284a a53d a66f 18bf ecb1 c23e
000003f0: 3323 633e 1a98 c1bd aa44 183f 50a0 de3e

network_body._body_endoder.seq_layers.0.bias f4 [128]
-0.039447 -0.021584593 -0.081596464 -0.1095921 -0.06885322 -0.04863287 -0.04318329 -0.025543517
0.04259095 -0.11592168 -0.039802305 -0.068731695 0.026462026 -0.055759806 -0.060327105 -0.07070529
0.04469857 -0.100652196 -0.06421379 -0.010654478 -0.09019645 -0.09658742 -0.030476104 -0.03248609
-0.010382348 -0.0040608896 -0.024048027 -0.092668034 -0.09043562 0.0256216 -0.16207458 -0.08293551
-0.037794903 0.080747895 0.026529541 -0.011282049 -0.078442805 0.0035786084 0.07126096 -0.06333494
-0.1484146 0.053932842 -0.1248541 -0.0021011028 -0.023337016 -0.042316098 -0.08475394 -0.038417377
-0.092626244 0.022609524 -0.009815592 -0.02643255 -0.09287737 -0.07623056 -0.09940126 -0.117821544
-0.036730036 -0.033662893 0.05433966 -0.012620467 -0.13992429 -0.032230895 0.027248811 -0.13567017
0.04424629 -0.07709234 -0.11183819 -0.13185523 -0.033649758 0.024965156 -0.015545861 -0.034563906
-0.04255186 -0.06947313 -0.113576844 -0.06334345 -0.08383362 -0.15452352 -0.08536453 -0.10049542
-0.098260574 -0.046918612 -0.14116438 -0.07003796 0.048915382 -0.014412997 -0.1110473 0.0018558236
0.020293498 -0.09874351 -0.044541053 -0.076814815 -0.020282505 -0.040672068 -0.029236544 -0.047142502
-0.014738159 -0.12887566 -0.11542549 -0.094627835 -0.15425833 -0.031676546 -0.09793207 -0.110294916
0.050076913 -0.1618761 -0.16588673 -0.06722452 -0.14486149 -0.032407954 -0.09693892 -0.027781293
-0.03250479 -0.024463853 -0.024333542 -0.05365297 -0.024103943 0.021715915 0.013175564 -0.090810575
0.020205531 -0.018941034 -0.12522013 0.01936256 0.010885777 0.003744431 -0.06584393 -0.13380228
00000000: 2d93 21bd 2cd2 b0bc 0c1c a7bd d371 e0bd
00000010: eb02 8dbd 4333 47bd f6e0 30bd a340 d1bc
00000020: d973 2e3d 5968 edbd be07 23bd 34c3 8cbd
00000030: e4c6 d83c 6564 64bd 8e19 77bd efcd 90bd
00000040: d915 373d bd22 cebd 8582 83bd 1f90 2ebc
00000050: ebb8 b8bd a0cf c5bd 06a9 f9bc 2210 05bd
00000060: b91a 2abc 3611 85bb 5e00 c5bc bdc8 bdbd
00000070: 4f36 b9bd 64e4 d13c e1f6 25be 18da a9bd
00000080: d4ce 1abd 275f a53d 7b54 d93c 58d8 38bc
00000090: 9fa6 a0bd 1687 6a3b 44f1 913d c0b5 81bd
000000a0: fff9 17be afe8 5c3d 82b3 ffbd a8b2 09bb
000000b0: 452d bfbc a553 2dbd 7993 adbd 8a5b 1dbd
000000c0: d4b2 bdbd 9c37 b93c 94d1 20bc 1389 d8bc
000000d0: 7e36 bebd c51e 9cbd e392 cbbd 6c4c f1bd
000000e0: 3c72 16bd 1ae2 09bd 4393 5e3d 13c6 4ebc
000000f0: 5048 0fbe 8b04 04bd e638 df3c 1fed 0abe
00000100: 993b 353d 97e2 9dbd 6c0b e5bd 0f05 07be
00000110: 54d4 09bd ba83 cc3c 11b4 7ebc e292 0dbd
00000120: dc4a 2ebd ee47 8ebd fa9a e8bd 36ba 81bd
00000130: f6b0 abbd 6a3b 1ebe 99d3 aebd 8bd0 cdbd
00000140: d73c c9bd bb2d 40bd 658d 10be 1070 8fbd
00000150: 7f5b 483d 7e24 6cbc c46c e3bd 1b3f f33a
00000160: 8d3e a63c 0a3a cabd ae70 36bd 1651 9dbd
00000170: 7f27 a6bc c197 26bd 7a81 efbc 7f18 41bd
00000180: 5278 71bc fbf7 03be 3364 ecbd 3dcc c1bd
00000190: e5f5 1dbe 44bf 01bd 9c90 c8bd 4de2 e1bd
000001a0: 731d 4d3d d9c2 25be 36de 29be 02ad 89bd
000001b0: 9256 14be 34be 04bd ea87 c6bd 9895 e3bc
000001c0: be23 05bd 6b68 c8bc 2357 c7bc 37c3 5bbd
000001d0: a275 c5bc 93e5 b13c 52de 573c e5fa b9bd
000001e0: 1286 a53c 3a2a 9bbc b539 00be 3b9e 9e3c
000001f0: 425a 323c 2165 753b 2fd9 86bd 7703 09be

network_body._body_endoder.seq_layers.2.weight f4 [128, 128]
-0.06008816 0.04455251 0.13340333 0.057194654 -0.08145455 -0.06452841 -0.021353194 -0.03697932
0.03498152 0.13553263 0.035518367 0.11251586 0.009368196 0.032607414 -0.11044602 0.014425058
0.12068814 0.00775465 -0.046932742 0.20157643 0.045863133 0.03965974 0.093864076 0.121954985
-0.017226534 0.08622712 -0.068786666 -0.008661512 0.070995465 0.10125291 0.099306345 0.059915498
0.006748427 0.05628042 -0.04957462 -0.004154556 0.10951665 -0.22662921 0.004325522 0.07925114
-0.08113796 -0.0074498197 -0.12598583 -0.014440802 0.038977288 -0.074456975 0.010356998 -0.15620163
0.023212897 -0.11311184 0.24509512 0.2017416 -0.09074994 0.050800387 0.011345059 0.058544867
-0.0056351437 -0.0019189095 0.1292001 0.019403946 0.13425893 0.11703601 0.12746336 0.17121094
0.14598967 0.04252148 0.105848245 -0.018314088 -0.061294977 0.091793515 0.061576262 -0.15554635
-0.02839232 -0.075920165 -0.0022625767 0.20982122 0.06252355 0.10787819 -0.18280055 0.16193494
0.12640512 0.06346278 0.053564057 0.05191419 0.13066371 -0.09709201 0.08031024 -0.07051438
-0.074304335 -0.13961989 0.041806176 -0.05040765 0.10429254 -0.021095578 -0.018190011 -0.07342272
0.036900204 0.22330147 0.076144986 0.16785337 0.04530889 -0.013844348 0.08318063 0.09013475
0.027274722 0.11036619 0.03811493 -0.084086336 0.03292466 0.07571095 0.21415304 -0.29005736
0.051212426 0.13592502 0.15604728 0.06004295 0.11016056 -0.1834676 0.00046106827 0.08829656
0.010753245 0.2850351 0.0066645183 0.15568067 -0.037820533 0.12779045 -0.01242907 0.015716359
-0.07257608 -0.14774333 -0.078368455 -0.1958263 -0.023438783 -0.011333647 -0.050407954 -0.02211526
0.1022858 -0.12269236 0.047396846 0.058280718 0.10934428 -0.07836794 0.058679443 0.025741862
0.17459153 -0.25239015 0.0033619513 0.056731015 -0.0066818967 -0.19783098 -0.09456689 -0.043334756
0.13822639 -0.15781514 -0.045299843 -0.051327307 -0.07949098 -0.0015700556 -0.0018223522 0.09641909
-0.114953816 -0.061471973 -0.021802435 0.053288613 -0.028574962 0.12285516 0.1520428 0.049425654
-0.052034285 0.1380012 -0.06560626 -0.068592995 -0.094438344 0.12072528 -0.052096006 -0.12799357
0.012109117 0.009283615 -0.13532127 -0.13382915 -0.08842007 0.05981725 -0.011238094 -0.26204237
-0.0030446434 0.002656258 0.22062704 0.08688576 -0.003103469 0.008691207 -0.079554245 -0.04561596
-0.035682455 0.026841372 0.017235562 0.13323896 0.11505374 0.0781841 0.12963022 -0.21413697
0.053128574 0.03196 0.016068665 -0.08881807 -0.032188274 -0.1384788 0.07503494 -0.0022121607
0.016578073 0.0475104 -0.18600588 -0.061548185 0.12335831 -0.09256244 -0.03753426 0.1671456
0.01087266 0.06558888 -0.10340828 -0.006922289 0.12374984 -0.051057525 -0.07596382 0.047973264
-0.18553492 -0.08943161 0.06367149 -0.034585852 -0.15109825 -0.03103527 -0.083602 -0.17907515
0.031849574 0.09476526 0.01324186 -0.068767585 -0.07157843 0.21086872 0.110160545 0.08147431
-0.20768036 0.058596242 -0.07065055 -0.11613095 -0.14224136 0.20586157 0.08241683 0.0010730021
0.0057127397 0.021299431 -0.044852093 -0.11435951 0.021168116 -0.15228622 -0.05940404 -0.041999586
00000000: 011f 76bd b17c 363d e29a 083e f144 6a3d
00000010: a5d1 a6bd 7927 84bd e5ec aebc a177 17bd
00000020: c848 0f3d 11c9 0a3e b57b 113d b76e e63d
00000030: 107d 193c 5a8f 053d 8631 e2bd 1457 6c3c
00000040: 582b f73d b81a fe3b 8c3c 40bd 0d6a 4e3e
00000050: fbda 3b3d 4072 223d cf3b c03d 89c3 f93d
00000060: a91e 8dbc d897 b03d 06e0 8cbd 04e9 0dbc
00000070: 1266 913d b05d cf3d 2061 cb3d f469 753d
00000080: e921 dd3b 4c86 663d c20e 4bbd f122 88bb
00000090: 444a e03d 7d11 68be 1cbd 8d3b 6c4e a23d
000000a0: a92b a6bd 9e1d f4bb 6e02 01be 1d99 6cbc
000000b0: a6a6 1f3d e67c 98bd 66b0 293c 52f3 1fbe
000000c0: f928 be3c 2ea7 e7bd 37fa 7a3e 5a95 4e3e
000000d0: 1bdb b9bd 1114 503d a0e0 393c becc 6f3d
000000e0: 03a7 b8bb eb83 fbba 084d 043e 06f5 9e3c
000000f0: 2c7b 093e 93b0 ef3d c185 023e ec51 2f3e
00000100: 517e 153e 012b 2e3d f7c6 d83d 6d07 96bc
00000110: 7110 7bbd 3dfe bb3d 6437 7c3d 8b47 1fbe
00000120: 0397 e8bc 087c 9bbd bd47 14bb 60db 563e
00000130: 590c 803d 3eef dc3d 1130 3bbe 46d2 253e
00000140: 5870 013e c6f8 813d fc65 5b3d f9a3 543d
00000150: b5cc 053e 2dd8 c6bd b279 a43d d869 90bd
00000160: df2c 98bd 84f8 0ebe f43c 2b3d 4178 4ebd
00000170: 5497 d53d a2d0 acbc 3803 95bc a75e 96bd
00000180: ab24 173d 24a9 643e e7f1 9b3d c1e1 2b3e
00000190: d195 393d 67d3 62bc 9b5a aa3d 9198 b83d
000001a0: 3d6f df3c ab07 e23d 671e 1c3d 7535 acbd
000001b0: 02dc 063d 580e 9b3d ef4a 5b3e 6682 94be
000001c0: 1fc4 513d ee2f 0b3e dcca 1f3e 99ef 753d
000001d0: dc9b e13d eede 3bbe 89bb f139 d4d4 b43d
000001e0: 612e 303c 1ff0 913e 0862 da3b c16a 1f3e
000001f0: b4e9 1abd 80db 023e 4ca3 4bbc 98bf 803c
00000200: c5a2 94bd 074a 17be a47f a0bd b186 48be
00000210: b102 c0bc c3b0 39bc 9278 4ebd 102b b5bc
00000220: 387b d13d 2246 fbbd 3223 423d c3b7 6e3d
00000230: e5ef df3d 5f7f a0bd db59 703d 99e0 d23c
00000240: 1fc8 323e 4839 81be 2f54 5c3b c85e 683d
00000250: d0f3 dabb 3494 4abe 49ac c1bd c97f 31bd
00000260: 388b 0d3e 4b9a 21be 548c 39bd 953c 52bd
00000270: 2bcc a2bd 53ca cdba fedb eeba 5f77 c53d
00000280: e86c ebbd 09ca 7bbd 059b b2bc 2945 5a3d
00000290: 0a16 eabc 7c9b fb3d 1cb1 1b3e 8e72 4a3d
000002a0: e721 55bd 3050 0d3e 935c 86bd 7c7a 8cbd
000002b0: e468 c1bd d13e f73d 9f62 55bd bf10 03be
000002c0: 5165 463c 4e1a 183c a991 0abe 820a 09be
000002d0: 9515 b5bd ef02 753d fc1f 38bc 6b2a 86be
000002e0: a488 47bb 9d14 2e3b 0eec 613e 29f1 b13d
000002f0: 9263 4bbb 9065 0e3c 56ed a2bd cdd7 3abd
00000300: c427 12bd 70e2 db3c 9831 8d3c cb6f 083e
00000310: 4ca1 eb3d fc1e a03d c9bd 043e b946 5bbe
00000320: 599d 593d 7de8 023d 6fa2 833c 40e6 b5bd
00000330: dad7 03bd 63cd 0dbe ebab 993d e6f9 10bb
00000340: bdce 873c 449a 423d 5378 3ebe f319 7cbd
00000350: 48a3 fc3d 6091 bdbd 86bd 19bd 3728 2b3e
00000360: 3e23 323c 7653 863d b8c7 d3bd 5ed4 e2bb
00000370: 8e70 fd3d b221 51bd eb92 9bbd 9d7f 443d
00000380: defc 3dbe ec27 b7bd 3366 823d e5a9 0dbd
00000390: 80b9 1abe ae3d febc 8637 abbd 7a5f 37be
000003a0: b374 023d 4a14 c23d 63f4 583c 05d6 8cbd
000003b0: b697 92bd f8ed 573e da9b e13d 01dc a63d
000003c0: 29aa 54be 9d02 703d 3cb1 90bd 10d6 edbd
000003d0: b8a7 11be 60cd 523e 28ca a83d faa3 8c3a
000003e0: ef31 bb3b 257c ae3c d4b6 37bd 5235 eabd
000003f0: c268 ad3c ebf0 1bbe a751 73bd c207 2cbd

network_body._body_endoder.seq_layers.2.bias f4 [128]
0.0741334 0.052297045 0.0054322174 -0.025196144 -0.02185703 -0.09458383 -0.045531604 0.04756153
-0.019502424 -0.055625603 0.05309013 -0.0012225731 0.02974702 0.009974098 0.020490779 -0.0023236542
0.012726062 -0.026399236 0.007488629 -0.019350033 -0.009390336 -0.018695774 0.021829046 0.03761423
0.055125587 -0.06312465 -0.006453292 -0.035451468 0.0937387 0.06184685 -0.022351844 0.102516554
0.0044591418 0.020436829 -0.019769285 -0.055836372 -0.039737172 0.058105767 -0.040917717 0.033116944
0.055759378 -0.029368488 -0.008498965 -0.02239269 -0.083380215 0.04744541 0.012402889 -0.08454756
0.085602425 0.018488191 -0.084800184 -0.03734107 -0.04480626 0.04353601 -0.021229308 -0.02017344
-0.01400389 -0.029045796 0.08212267 0.11168513 0.080765955 -0.014635451 0.030735165 -0.0845268
-0.013259711 0.0013175355 0.01321035 -0.041371454 -0.009626904 -0.00825239 -0.0053640944 0.009638495
-0.041878935 -0.08443047 -0.041000254 0.045162514 0.031470813 -0.012071499 -0.0064794016 0.024034407
0.021144433 0.006901631 -0.09096778 0.024146657 0.016805137 0.017245207 0.058308423 0.024960991
-0.07801271 0.063193716 -0.035086174 -0.08422159 0.011131871 0.029372424 -0.08918914 0.025354516
-0.06435257 -0.023221944 -0.04190459 -0.10990363 0.032657683 0.05326739 -0.062645674 0.0072546904
0.010553513 0.081469506 -0.04837992 0.007437517 0.01689811 0.032576744 -0.03032743 -0.058738858
0.044350244 -0.033289224 0.007474739 -0.070581175 -0.06796449 0.10308235 0.030648738 0.04177802
0.057499353 -0.09936456 -0.03435688 0.026230056 -0.013756248 0.011833847 -0.057718214 0.006184876
00000000: 41d3 973d 6d35 563d be00 b23b 2568 cebc
00000010: 840d b3bc 2bb5 c1bd 597f 3abd e1cf 423d
00000020: 8cc3 9fbc acd7 63bd 0975 593d bf3e a0ba
00000030: 06b0 f33c 666a 233c 47dc a73c 7348 18bb
00000040: f980 503c 3643 d8bc 2c63 f53b f683 9ebc
00000050: edd9 19bc e127 99bc d4d2 b23c 6111 1a3d
00000060: 5ecb 613d 7f47 81bd 2376 d3bb 8f35 11bd
00000070: 13fa bf3d 1f53 7d3d 371b b7bc 33f4 d13d
00000080: fe1d 923b 236b a73c 32f3 a1bc aeb4 64bd
00000090: 72c3 22bd 5000 6e3d 5699 27bd a2a5 073d
000000a0: f263 643d 2f96 f0bc 3e3f 0bbc e070 b7bc
000000b0: 3fc3 aabd 1e56 423d 7d35 4b3c 4527 adbd
000000c0: 5350 af3d 8c74 973c b8ab adbd f3f2 18bd
000000d0: c586 37bd d152 323d 16e9 adbc c542 a5bc
000000e0: 9270 65bc 73f1 edbc ee2f a83d 2cbb e43d
000000f0: 9f68 a53d 88c9 6fbc 50c8 fb3c 631c adbd
00000100: 423f 59bc 28b1 ac3a 3970 583c 1d75 29bd
00000110: 29ba 1dbc 0835 07bc 49c5 afbb c7ea 1d3c
00000120: 3f89 2bbd e2e9 acbd e2ef 27bd 54fc 383d
00000130: 8ae7 003d 89c7 45bc 2951 d4bb cee3 c43c
00000140: 1737 ad3c 1427 e23b 514d babd 36cf c53c
00000150: edaa 893c d245 8d3c d0d4 6e3d fe7a cc3c
00000160: 21c5 9fbd b56b 813d 85b6 0fbd 5e7c acbd
00000170: 7362 363c 709e f03c cca8 b6bd 46b4 cf3c
00000180: 48cb 83bd f23b bebc 26a4 2bbd 2815 e1bd
00000190: 10c4 053d e82e 5a3d 604c 80bd c1b8 ed3b
000001a0: a4e8 2c3c 7cd9 a63d 062a 46bd 6ab6 f33b
000001b0: e86d 8a3c 316f 053d 3b71 f8bc 2898 70bd
000001c0: 9aa8 353d 485a 08bd a8ee f43b dd8c 90bd
000001d0: f730 8bbd d71c d33d 1013 fb3c 6e1f 2b3d
000001e0: 7184 6b3d a57f cbbd cdb9 0cbd 6ae0 d63c
000001f0: e361 61bc c0e2 413c ef69 6cbd 80aa ca3b

action_model._continuous_distribution.log_sigma f4 [1, 2]
0.08739644 0.44752008
00000000: e8fc b23d 5a21 e53e

action_model._continuous_distribution.mu.weight f4 [2, 128]
-0.027963102 0.015589456 0.028143575 0.0043590795 -0.028335894 0.008173153 0.03318369 0.05049626
0.008864151 0.025413167 0.003775489 -0.04805077 -0.026787402 -0.025074616 0.005387738 -0.07285564
0.054524496 0.009140124 0.044414096 -0.029491317 -0.008716909 0.014004485 -0.024453923 0.04847436
0.03512443 -0.018152058 0.008744423 -0.009978625 0.03848491 -0.06301578 -0.0012210333 -0.007735411
0.04099124 -0.043880045 0.0053015533 -0.032697205 0.006704071 -0.010618302 -0.0018710345 0.0038729305
0.021382382 -0.050029334 -0.013433734 0.0108643165 -0.0059086373 0.0030546945 0.02002991 -0.008302473
0.0100626955 -0.021578992 -0.0009825571 -0.025203079 -0.026204916 -0.12200675 -0.044302303 0.020714752
-0.038558315 0.011735508 -0.0066813757 0.049920946 -0.0054739784 0.022987342 -0.030980805 -0.017747005
-0.048622046 0.0062493794 -0.0516842 -0.0043361858 0.037652712 0.023085581 0.0064410917 0.002768562
-0.026904862 0.0010608889 -0.03392083 0.011161923 -0.00686379 -0.019138442 0.025398605 -0.109926075
0.06725772 0.05471708 -0.0201798 0.009936891 -0.05046784 -0.0024081334 0.027123662 -0.00014238164
-0.020793108 0.001449472 0.005365694 -0.020960698 -0.035939693 0.027046086 0.023202876 0.035865042
-0.007543167 0.0049282857 0.0060382187 -0.019607237 0.020564709 -0.036439892 -0.04960872 -0.006092366
0.011927171 0.009189921 -0.007003044 0.03164465 -0.015196824 0.0059686652 0.013910376 -0.026667671
-0.0027485334 0.006165824 -0.031071305 0.017951626 -0.002809953 0.009935641 0.03588416 0.03002367
0.0037412778 -0.05388128 -0.010968119 0.010869334 0.00012697416 0.020870304 -0.0017291807 -0.024817927
-0.11976331 0.009624542 -0.07511704 0.028872233 -0.072253115 0.000878843 0.06531998 0.10355579
-0.031111611 0.021102814 -0.08053362 -0.014627433 -0.09067769 -0.014084738 0.046451617 0.0068759196
0.04015837 -0.009501098 0.09087706 0.05078143 0.009534469 -0.0116404565 -0.02352966 0.06532442
0.026450133 0.010299106 0.036219098 -0.051394906 0.06140195 -0.1257187 0.014792917 -0.112201795
-0.041106846 -0.032142732 0.000515867 -0.046024736 -0.014832144 0.00028323592 0.00039760425 -0.026958356
-0.003177252 0.03558723 -0.065167144 0.012734612 0.036113553 0.12277493 -0.08962634 0.0019684965
-0.077907085 0.06944535 0.0049846214 0.10963183 -0.078591 -0.052912917 -0.051974874 0.0062037427
0.01704811 -0.05725564 -0.13401844 -0.106164224 -0.010522929 -0.0021655902 -0.028732417 -0.058727898
0.075608924 0.043170575 0.03670559 -0.005081997 0.019858597 0.111240834 0.050588954 -0.052439626
0.043736715 0.00070737035 -0.06969443 0.10188152 -0.008293157 -0.020648401 0.017157769 -0.057912424
0.06948915 -0.07188204 -0.0024806194 0.04761223 -0.017429495 -0.082505494 0.050007597 0.035087053
0.06812611 0.0041761114 -0.022050712 0.004607499 -0.022661636 -0.0044943946 0.03563006 -0.080721185
0.1014905 0.012653846 -0.040301047 0.021432947 -0.07682909 -0.10157882 0.0343512 -0.0041823382
-0.002323878 -0.09648527 -0.011966668 -0.023649897 -0.0678802 0.022991022 0.019135613 0.03408076
-0.078508034 -0.02907219 -0.04359306 0.037048295 -0.0142326085 -0.08242263 0.038310893 0.021425176
-0.10210732 -0.0192969 -0.005042119 -0.009376138 -0.019001316 0.030404298 -0.04123209 0.011527834
00000000: e012 e5bc eb6a 7f3c 5b8d e63c 9cd6 8e3b
00000010: ad20 e8bc b0e8 053c 9feb 073d 2bd5 4e3d
00000020: f23a 113c 462f d03c 326e 773b e2d0 44bd
00000030: 4171 dbbc 4869 cdbc 9f8b b03b 5635 95bd
00000040: 1455 5f3d 75c0 153c 8eeb 353d c697 f1bc
00000050: 5ed1 0ebc 1173 653c 9853 c8bc 0d8d 463d
00000060: a2de 0f3d a0b3 94bc c544 0f3c 637d 23bc
00000070: 5aa2 1d3d 6b0e 81bd 140b a0ba 5579 fdbb
00000080: 6ee6 273d 90bb 33bd a7b8 ad3b 81ed 05bd
00000090: d3ad db3b 63f8 2dbc 803d f5ba fed0 7d3b
000000a0: 1b2a af3c 8feb 4cbd 2a19 5cbc 3f00 323c
000000b0: 3e9d c1bb 4531 483b c415 a43c 1907 08bc
000000c0: 01de 243c 6dc6 b0bc 25c9 80ba b076 cebc
000000d0: b1ab d6bc adde f9bd 5576 35bd fcb1 a93c
000000e0: 53ef 1dbd 4a46 403c 71ef dabb e879 4c3d
000000f0: 0f5f b3bb f34f bc3c 75cb fdbc 2b62 91bc
00000100: e927 47bd 98c7 cc3b d0b2 53bd 9016 8ebb
00000110: bb39 1a3d f91d bd3c cb0f d33b c370 353b
00000120: 9667 dcbc 860d 8b3a 91f0 0abd 80e0 363c
00000130: a5e9 e0bb 39c8 9cbc bc10 d03c ec20 e1bd
00000140: 6abe 893d 041f 603d 1c50 a5bc 57ce 223c
00000150: 5eb7 4ebd c6d1 1dbb 7132 de3c 484c 15b9
00000160: 4f56 aabc 36fc bd3a b4d2 af3b c5b5 abbc
00000170: 8035 13bd c18f dd3c f513 be3c 39e7 123d
00000180: ac2c f7bb 757d a13b 40dc c53b 5b9f a0bc
00000190: 5277 a83c ff41 15bd 8332 4bbd 78a2 c7bb
000001a0: 2e6a 433c 5391 163c ca79 e5bb d29d 013d
000001b0: 1afc 78bc cb94 c33b 58e8 633c 2976 dabc
000001c0: bd20 34bb ae0a ca3b 4089 febc 4a0f 933c
000001d0: 3027 38bb 19c9 223c 45fb 123d 33f4 f53c
000001e0: 3a30 753b 9eb2 5cbd a0b3 33bc 4b15 323c
000001f0: 5e24 0539 33f8 aa3c ada5 e2ba f74e cbbc
00000200: 7746 f5bd 41b0 1d3c f6d6 99bd 7685 ec3c
00000210: 71f9 93bd 2862 663a 7bc6 853d 0f15 d43d
00000220: c7dd febc cfdf ac3c d0ee a4bd e7a7 6fbc
00000230: 3ab5 b9bd acc3 66bc 0d44 3e3d 654f e13b
00000240: 1a7d 243d 7eaa 1bbc c11d ba3d 3000 503d
00000250: 7636 1c3c 9db7 3ebc 46c1 c0bc cfc8 853d
00000260: f3ad d83c 95bd 283c 7a5a 143d 7783 52bd
00000270: 9c80 7b3d 67bc 00be fe5d 723c 0eca e5bd
00000280: a75f 28bd 19a8 03bd 403b 073a 6f84 3cbd
00000290: 8502 73bc 487f 9439 8a75 d039 c5d7 dcbc
000002a0: 7139 50bb eac3 113d 5a76 85bd d6a4 503c
000002b0: ceeb 133d 6c71 fb3d 048e b7bd e401 013b
000002c0: c08d 9fbd 5d39 8e3d 0956 a33b a786 e03d
000002d0: 51f4 a0bd 37bb 58bd 9be3 54bd c448 cb3b
000002e0: 7aa8 8b3c e484 6abd 213c 09be a16c d9bd
000002f0: 5d68 2cbc 93ec 0dbb 3f60 ebbc aa8c 70bd
00000300: dad8 9a3d a1d3 303d 9a58 163d e186 a6bb
00000310: 7fae a23c 3cd2 e33d 5d36 4f3d efca 56bd
00000320: 4525 333d d26e 393a f4bb 8ebd 42a7 d03d
00000330: 06e0 07bc d626 a9bc 738e 8c3c 9435 6dbd
00000340: 5450 8e3d e436 93bd e391 22bb 0b05 433d
00000350: 4dc8 8ebc a4f8 a8bd c4d4 4c3d 71b7 0f3d
00000360: b485 8b3d c3d7 883b b2a3 b4bc 81fa 963b
00000370: e5a4 b9bc b745 93bb d3f0 113d 2651 a5bd
00000380: 40da cf3d 1452 4f3c b612 25bd 2694 af3c
00000390: 9258 9dbd 8e08 d0bd d8b3 0c3d ff0b 89bb
000003a0: 344c 18bb 129a c5bd d80f 44bc 6ebd c1bc
000003b0: c604 8bbd ab57 bc3c 4ac2 9c3c 4498 0b3d
000003c0: d2c8 a0bd cd28 eebc a38e 32bd f4bf 173d
000003d0: e32f 69bc 32cd a8bd e2eb 1c3d da83 af3c
000003e0: a51d d1bd 8814 9ebc 5c38 a5bb 609e 19bc
000003f0: a6a8 9bbc 6f12 f93c fbe2 28bd 3edf 3c3c

action_model._continuous_distribution.mu.bias f4 [2]
0.018571239 -0.056782838
00000000: b622 983c 1f95 68bd

action_model._discrete_distribution.branches.0.weight f4 [2, 128]
-0.03354192 -0.12455165 -0.0815471 -0.047205135 -0.04619339 -0.010096477 0.006291307 -0.03050577
-0.10230967 -0.0004134623 -0.065862246 0.05691212 -0.1003843 -0.045130055 0.011338467 0.048083346
0.009469967 -0.023948297 0.02855504 -0.0135948025 -0.13327836 -0.11301172 -0.11888474 -0.13126788
0.031960186 0.0134492265 -0.047419652 -0.053103782 -0.055873733 -0.08434432 -0.062512696 -0.07053989
-0.017605053 -0.073201895 0.029990783 -0.03348802 -0.08564811 -0.12736899 -0.021351138 -0.018640675
-0.09885834 0.026448522 -0.042646777 -0.12127261 -0.02551148 0.031014094 -0.029579747 0.011899175
-0.031588737 -0.0005501482 -0.039140757 0.007193889 -0.027023286 -0.14791082 -0.0052128695 -0.057954352
0.02374103 0.019406177 -0.07107161 -0.08254322 -0.1668019 -0.016865527 -0.118902564 -0.085680366
-0.0034815995 0.042019397 0.025529448 0.02225302 -0.07016438 -0.046891294 0.11728817 -0.04266823
-0.017250178 -0.023858065 0.037542555 0.01624027 -0.1373547 -0.094136134 0.03404861 -0.14238796
-0.018785402 0.0023486377 -0.046644345 -0.14553282 -0.073901124 -0.008930336 -0.124814905 0.033635583
-0.017648526 -0.07050302 -0.06731722 -0.022139313 0.039815966 -0.112997994 -0.013535917 0.007692095
0.05247439 -0.017574856 0.014599014 0.01298327 0.0008165396 -0.06943321 0.016618388 -0.1283873
-0.0892537 -0.0026132544 -0.005564479 0.059028383 -0.10820493 0.11689143 -0.08980455 0.022778487
-0.061490096 -0.024993738 -0.09769679 -0.0046871835 -0.0367947 -0.06349067 -0.12551749 -0.069922335
-0.057155363 0.016873857 -0.06146221 -0.10019223 -0.05651869 0.06226548 0.051597115 0.028008835
0.025601333 0.12637845 0.07566701 0.043464597 0.05844979 -0.001043105 -0.014719815 0.010791785
0.07717105 0.0037917811 0.063344814 -0.047946546 0.09489917 0.041720614 -0.021676635 -0.050488073
-0.0070959046 0.029248085 -0.033579435 0.018883295 0.121891834 0.114346154 0.12193517 0.14157516
-0.034659483 0.014335769 0.063675374 0.044489514 0.059306808 0.08020543 0.06388056 0.061865915
0.017014802 0.04685841 -0.028016979 0.03971935 0.081713274 0.13665691 0.011639713 0.027213426
0.11638952 -0.018639887 0.05344342 0.11584431 0.014180517 -0.047748793 0.02731619 -0.014875827
0.04347702 0.0053121336 0.025551029 -0.008044061 0.017571513 0.15428935 -0.0036553247 0.064500146
-0.02215441 -0.015357338 0.06727651 0.07928343 0.14229499 0.008294237 0.12255764 0.08743142
0.0063166074 -0.024065278 -0.031219648 -0.015124749 0.05248254 0.04950358 -0.11975103 0.03559831
0.012493626 0.011750759 -0.02856554 -0.021516347 0.123840764 0.09679168 -0.03052323 0.1266514
0.0112797925 -0.016527843 0.027772086 0.1403603 0.06527318 0.007614269 0.14479774 -0.04692989
0.025076015 0.06592187 0.07222092 0.021292461 -0.027779853 0.11666366 0.025716355 -0.0057828254
-0.047612537 0.003001091 -0.009558518 0.014076722 -0.003797833 0.06822114 -0.008099378 0.13547532
0.100962855 -0.0046775644 0.0054770308 -0.06591238 0.11470123 -0.11455744 0.07440752 -0.009802491
0.056897987 0.021111563 0.111777075 -0.027317507 0.038484395 0.060188383 0.13017981 0.07030346
0.05523691 0.011887159 0.07472024 0.11758472 0.057730358 -0.08199177 -0.038052 -0.016824244
00000000: 4163 09bd ef14 ffbd 2a02 a7bd 2c5a 41bd
00000010: 4835 3dbd b26b 25bc 4f27 ce3b 3de7 f9bc
00000020: bb87 d1bd f8c5 d8b9 c9e2 86bd af1c 693d
00000030: 4996 cdbd 4bda 38bd fac4 393c 0bf3 443d
00000040: ec27 1b3c 382f c4bc 42ec e93c bcbc 5ebc
00000050: 1f7a 08be b072 e7bd d879 f3bd 166b 06be
00000060: afe8 023d 255a 5c3c 1c3b 42bd 5a83 59bd
00000070: dbdb 64bd b7bc acbd a806 80bd 3877 90bd
00000080: 7938 90bc e0ea 95bd 3baf f53c bc2a 09bd
00000090: 4768 afbd 046d 02be 95e8 aebc 54b4 98bc
000000a0: 3e76 cabd 92aa d83c 63ae 2ebd c65d f8bd
000000b0: 74fd d0bc 4511 fe3c 3a51 f2bc c2f4 423c
000000c0: 3163 01bd d237 10ba 0f52 20bd b7ba eb3b
000000d0: f05f ddbc ef75 17be b8d0 aabb 8b61 6dbd
000000e0: 8c7c c23c b4f9 9e3c fe8d 91bd 6b0c a9bd
000000f0: 1ece 2abe 9329 8abc 3083 f3bd 3079 afbd
00000100: 8c2b 64bb 881c 2c3d 2223 d13c f74b b63c
00000110: 58b2 8fbd 1611 40bd c834 f03d e2c4 2ebd
00000120: 3f50 8dbc fd71 c3bc 39c6 193d 510a 853c
00000130: b6a6 0cbe 72ca c0bd 8e76 0b3d 26ce 11be
00000140: d8e3 99bc 9aeb 193b 240e 3fbd 8e06 15be
00000150: 7959 97bd 8b50 12bc f59e ffbd 77c5 093d
00000160: a493 90bc e363 90bd 9cdd 89bd 815d b5bc
00000170: 1116 233d 7e6b e7bd c0c5 5dbc f80d fc3b
00000180: 63ef 563d 25f9 8fbc b430 6f3c c8b7 543c
00000190: 0c0d 563a 0033 8ebd 4923 883c f677 03be
000001a0: a5ca b6bd 2243 2bbb 3c56 b6bb bfc7 713d
000001b0: 8c9a ddbd c664 ef3d 73eb b7bd f399 ba3c
000001c0: 0add 7bbd abbf ccbc 4115 c8bd f296 99bb
000001d0: 0ab6 16bd 6507 82bd a887 00be 7133 8fbd
000001e0: be1b 6abd 0b3b 8a3c ccbf 7bbd 9531 cdbd
000001f0: 2480 67bd 170a 7f3d 7f57 533d c972 e53c
00000200: e3b9 d13c 5a69 013e 4ef7 9a3d ef07 323d
00000210: 0c69 6f3d ccb8 88ba 612b 71bc 07d0 303c
00000220: db0b 9e3d 887f 783b edba 813d 9963 44bd
00000230: 7f5a c23d 3ce3 2a3d 3393 b1bc 95cc 4ebd
00000240: c384 e8bb ae99 ef3c 978a 09bd 24b1 9a3c
00000250: 6da2 f93d 512e ea3d 25b9 f93d 14f9 103e
00000260: 1af7 0dbd 93e0 6a3c 3c68 823d a33a 363d
00000270: b2eb 723d bf42 a43d d0d3 823d 1d67 7d3d
00000280: a062 8b3c 9bee 3f3d dd83 e5bc c2b0 223d
00000290: 4a59 a73d caef 0b3e 7fb4 3e3c b1ee de3c
000002a0: a15d ee3d adb2 98bc 7de7 5a3d c83f ed3d
000002b0: 6655 683c 3d94 43bd 34c6 df3c beb9 73bc
000002c0: f614 323d 6811 ae3b 6450 d13c 3dcb 03bc
000002d0: 22f2 8f3c 07fe 1d3e 2c8e 6fbb a718 843d
000002e0: 2a7d b5bc 589d 7bbc 44c8 893d 5a5f a23d
000002f0: c7b5 113e 8de4 073c 80ff fa3d 3f0f b33d
00000300: 8bfb ce3b 8c24 c5bc 59c0 ffbc cccd 77bc
00000310: eff7 563d 44c4 4a3d 0740 f5bd 89cf 113d
00000320: 11b2 4c3c 4186 403c 4802 eabc 0d43 b0bc
00000330: 3aa0 fd3d b73a c63d da0b fabc e8b0 013e
00000340: e1ce 383c 6665 87bc 4982 e33c 9cba 0f3e
00000350: f2ad 853d 1e81 f93b dc45 143e 8e39 40bd
00000360: 376c cd3c 0c02 873d 90e8 933d 876d ae3c
00000370: 9392 e3bc 5bed ee3d 1bab d23c db7d bdbb
00000380: 5d05 43bd f4ad 443b 559b 1cbc 0da2 663c
00000390: 11e5 78bb 86b7 8b3d 41b3 04bc 0bba 0a3e
000003a0: 9dc5 ce3d 4146 99bb aa78 b33b 12fd 86bd
000003b0: 7ae8 ea3d 179d eabd f862 983d a19a 20bc
000003c0: dd0d 693d 28f2 ac3c 61eb e43d f7c8 dfbc
000003d0: d0a1 1d3d 1888 763d db4d 053e 43fb 8f3d
000003e0: 1940 623d 5cc2 423c ed06 993d 42d0 f03d
000003f0: ab76 6c3d 4deb a7bd 6adc 1bbd ffd2 89bc

action_model._discrete_distribution.branches.0.bias f4 [2]
-0.023220984 0.02322104
00000000: ef39 bebc 0d3a be3c

action_model._discrete_distribution.branches.1.weight f4 [2, 128]
0.0045884796 -0.001922119 0.0048779035 -0.028475322 -0.011628716 -0.0058128014 -0.020789701 0.001881145
-0.006478006 -0.012629539 0.0050963555 -0.05776098 0.059959963 -0.0059795454 -0.0032964968 0.03329992
0.03163459 0.010570214 -0.076914296 -0.016835315 -0.0504525 -0.004366476 -0.021391686 -0.063107856
0.017081859 -0.026220161 0.029545609 0.006888868 0.06741153 0.053580157 -0.025230305 0.039852455
0.0006062514 0.043797225 0.029474456 0.007186639 -0.035821907 0.0015577463 -0.013571875 0.020377882
-0.034572203 0.01265022 0.031714402 -0.026963182 -0.01063278 -0.041301645 0.00475247 0.017517297
0.021399975 0.044116493 -0.009700679 0.02184496 -0.04555395 0.017948452 -0.007519859 -0.053475816
-0.06965805 -0.008256433 0.017104128 -0.0037664017 0.014254775 0.017509505 0.031315163 -0.0056084963
-0.048929505 -0.05255515 -0.07394987 0.030693568 0.013551917 -0.06285144 -0.061152592 -0.004078577
0.015950058 -0.007204256 -0.014032219 -0.1022856 0.035832986 -0.015022853 -0.02683683 -0.011367829
-0.030767107 0.026724907 -0.004952605 -0.05685617 -6.679949e-05 0.022304779 -0.037954126 0.015605464
-0.028810512 0.096243694 0.0243059 0.008876405 0.022937844 -0.042418946 -0.044858273 0.003827504
0.033239324 -0.03332384 -0.023589287 -0.008495036 0.0113217365 0.042692844 -0.01814109 -0.015896687
-0.053822182 -0.023985358 -0.03717258 -0.05767038 0.01052379 -0.037486352 0.016569827 -0.008234376
0.035101995 -0.013824075 -0.0068421825 -0.019545516 0.00889471 0.005981779 -0.016040921 0.009349305
0.02332389 0.014557274 -0.059048366 -0.00040151324 -0.0058636856 -0.016900156 -0.027204882 0.044104867
-0.004610143 0.0070704347 -0.028201137 0.012556982 0.0030874542 0.0033811973 0.018906662 0.029694572
0.00695639 0.014714843 0.00042862416 0.07421428 -0.055283323 0.011716568 0.02173711 -0.039869748
-0.041970547 0.0046580397 0.0733419 0.013760012 0.024031298 0.011312889 0.007446248 0.061240565
-0.017340373 0.013605952 -0.041083187 0.00429256 -0.093920045 -0.053199217 -0.0028279168 -0.038915053
0.0019577458 -0.023344804 -0.015138976 -0.026376095 0.029058041 -0.00021603194 0.020731283 -0.010928587
0.043333374 -0.008239526 -0.004554026 0.02247534 0.0066514197 0.04378345 -0.0038848615 -0.0053258114
-0.010290984 -0.037040472 0.016819203 -0.017032472 0.04290448 -0.01991051 0.024841601 0.056244176
0.054564625 0.015908903 -0.031981893 -0.01317341 -0.028427215 -0.0084417565 -0.017889498 0.008398296
0.03138625 0.03891369 0.061501913 -0.0017477751 0.009998542 0.059030384 0.04640687 0.0083896695
-0.03231568 0.03411227 0.019337969 0.10588836 -0.025438868 0.0090472065 0.008460931 0.0072679617
0.04062139 -0.027471393 -0.025926702 0.07362499 0.0058870614 -0.03858664 0.025783185 -0.011527007
0.045753583 -0.09270647 -0.00054640346 -0.009409579 -0.02814675 0.037822593 0.041356828 0.016580444
-0.032439884 0.037616614 0.01718318 0.020236246 -0.023963029 -0.035442147 0.021934077 0.016637595
0.039330635 0.02793482 0.028816896 0.03960019 -0.0062381728 0.040674973 0.0066092242 -0.006618232
-0.024651345 0.024459893 0.010412425 0.01575529 -0.006468289 -0.016448434 -0.008757417 -0.0038543458
-0.02224842 0.00052921043 0.035030857 0.00066959584 0.03594817 0.010333189 0.03442613 -0.06854723
00000000: f55a 963b 9cef fbba d2d6 9f3b 1445 e9bc
00000010: 5f86 3ebc 5079 bebb 2a4f aabc c190 f63a
00000020: 7445 d4bb 20ec 4ebc 54ff a63b c796 6cbd
00000030: 9498 753d 10f0 c3bb 0a0a 58bb 7f65 083d
00000040: 4693 013d b12e 2d3c 3e85 9dbd 37ea 89bc
00000050: 48a7 4ebd a814 8fbb 9e3d afbc b13e 81bd
00000060: 41ef 8b3c aacb d6bc a209 f23c 03bc e13b
00000070: 0e0f 8a3d de76 5b3d c9af cebc 543c 233d
00000080: d8ec 1e3a b864 333d 6a74 f13c e67d eb3b
00000090: feb9 12bd 4b2d cc3a 925c 5ebc 84ef a63c
000000a0: 959b 0dbd de42 4f3c f6e6 013d e4e1 dcbc
000000b0: 1d35 2ebc ea2b 29bd 9cba 9b3b 6f80 8f3c
000000c0: 004f af3c 7fb3 343d 99ef 1ebc 34f4 b23c
000000d0: c796 3abd a208 933c 2669 f6bb 7509 5bbd
000000e0: e1a8 8ebd fd45 07bc f51d 8c3c bcd5 76bb
000000f0: dc8c 693c 1870 8f3c 5444 003d 7ac7 b7bb
00000100: 4e6a 48bd 1244 57bd 0873 97bd 1471 fb3c
00000110: dc08 5e3c 41b8 80bd 247b 7abd 95a5 85bb
00000120: b2a9 823c ae11 ecbb 64e7 65bc 1d7b d1bd
00000130: 9cc5 123d 6a22 76bc e9d8 dbbc 2140 3abc
00000140: 4d0b fcbc 31ee da3c 7649 a2bb 04e2 68bd
00000150: b416 8cb8 83b8 b63c c975 1bbd 0fae 7f3c
00000160: 0604 ecbc 6a1b c53d 2b1d c73c 576e 113c
00000170: 25e8 bb3c 7dbf 2dbd 4fbd 37bd ddd6 7a3b
00000180: f525 083d 947e 08bd 523e c1bc c32e 0bbc
00000190: ce7e 393c b1de 2e3d a09c 94bc c539 82bc
000001a0: a674 5cbd f17c c4bc 4642 18bd c737 6cbd
000001b0: f96b 2c3c 4a8b 19bd 72bd 873c 7ae9 06bc
000001c0: 1cc7 0f3d 607e 62bc 6334 e0bb eb1d a0bc
000001d0: 1ebb 113c cd02 c43b 4068 83bc d42d 193c
000001e0: be11 bf3c a281 6e3c b3dc 71bd 3282 d2b9
000001f0: 2924 c0bb 3272 8abc c6dc debc 4ea7 343d
00000200: af10 97bb 1baf e73b 1206 e7bc cdbb 4d3c
00000210: e356 4a3b 1497 5d3b 25e2 9a3c 0842 f33c
00000220: 6ef2 e33b 8616 713c f6b8 e039 a8fd 973d
00000230: c470 62bd d9f6 3f3c 0612 b23c 764e 23bd
00000240: 4fe9 2bbd 78a2 983b 4734 963d ac71 613c
00000250: 49dd c43c b259 393c a8ff f33b 63d7 7a3d
00000260: 660d 8ebc 80eb 5e3c d846 28bd 9aa8 8c3b
00000270: 2759 c0bd 6ce7 59bd 9254 39bb 6465 1fbd
00000280: 864d 003b 9a3d bfbc 7809 78bc ae12 d8bc
00000290: 210b ee3c a286 62b9 a7d4 a93c d10d 33bc
000002a0: 567e 313d 14ff 06bc f039 95bb 341e b83c
000002b0: 27f4 d93b 4656 333d 2999 7ebb 2584 aebb
000002c0: 849b 28bc c0b7 17bd 6dc8 893c af87 8bbc
000002d0: 9cbc 2f3d 5e1b a3bc 9d80 cb3c 4b60 663d
000002e0: 287f 5f3d 6353 823c 72ff 02bd 49d5 57bc
000002f0: 31e0 e8bc 4b4f 0abc ff8c 92bc 0299 093c
00000300: de8e 003d f663 1f3d 6ee9 7b3d 9a15 e5ba
00000310: edd0 233c d8c9 713d 2115 3e3d d374 093c
00000320: 725d 04bd 4fb9 0b3d a96a 9e3c ffdb d83d
00000330: 2c65 d0bc bc3a 143c b79f 0a3c 1528 ee3b
00000340: 9d62 263d b00b e1bc 3c64 d4bc b3c8 963d
00000350: 40e8 c03b 060d 1ebd 4237 d33c c6db 3cbc
00000360: 1c68 3b3d e4dc bdbd 843c 0fba a32a 1abc
00000370: 0394 e6bc ddeb 1a3d c765 293d b6d3 873c
00000380: afdf 04bd e113 1a3d bec3 8c3c 7cc6 a53c
00000390: 1d4e c4bc c92b 11bd 18af b33c 914b 883c
000003a0: 2919 213d 90d7 e43c 6911 ec3c cf33 223d
000003b0: 9669 ccbb cd9a 263d 3192 d83b c1dd d8bb
000003c0: 9ef1 c9bc 1d60 c83c e098 2a3c 3d11 813c
000003d0: f1f3 d3bb debe 86bc 457b 0fbc 3199 7cbb
000003e0: 5242 b6bc b6ba 0a3a 847c 0f3d d187 2f3a
000003f0: 633e 133d 894c 293c 6a02 0d3d 7d62 8cbd

action_model._discrete_distribution.branches.1.bias f4 [2]
0.027414192 -0.027414134
00000000: ba93 e03c 9b93 e0bc
