results/NearSingularity02/NearSingularity.onnx (onnx, 536722 bytes, 9 tensors)

network_body._body_endoder.seq_layers.0.weight f4 [256, 1]
0	0x3f12ad3c	0.57295585
1	0xbe9e305b	-0.30896267
2	0x3f3e83d7	0.7441992
3	0xbfe21f31	-1.7665769
4	0x3f8feba1	1.1243783
5	0x3f826138	1.0185919
6	0x3d926550	0.0714823
7	0xbe429628	-0.19002593
8	0xbeda5b6d	-0.42647877
9	0x400cf8ef	2.2026937
10	0x3fb8a305	1.442475
11	0x3fac2f08	1.3451853
12	0x3e7a6c7f	0.2445545
13	0xbf037fad	-0.5136669
14	0xbf67e78d	-0.90587693
15	0x3f0c53e2	0.54815495
16	0x3e65f940	0.22458363
17	0xbfcd9163	-1.6059994
18	0x3e596ed2	0.21233681
19	0xbf6e14d0	-0.9300051
20	0xbf64e33c	-0.8940923
21	0x3e6b169a	0.2295784
22	0x3fe0d77e	1.7565763
23	0xbf1e522f	-0.6184415
24	0x3ed54f8a	0.41662246
25	0xbe9cbbd5	-0.30612054
26	0x3f6a8ecd	0.91624147
27	0x3ebd01ea	0.36915523
28	0xbe92b2fc	-0.2865218
29	0xbf58b07b	-0.8464429
30	0xbfe2675d	-1.7687794
31	0x3ea083e8	0.31350636
32	0xbedefd32	-0.43552548
33	0x3ed423a6	0.41433448
34	0xbf7d067d	-0.98838025
35	0xbdf72ee9	-0.12069494
36	0xbf98c4a2	-1.1935008
37	0xbec9256e	-0.3928637
38	0xbf821e3d	-1.0165478
39	0x3f83d09f	1.0298041
40	0x3fc9d49d	1.576801
41	0x3f2aadb5	0.66671306
42	0x3f2fc762	0.6866361
43	0xbf934265	-1.1504637
44	0xc01e7fae	-2.476543
45	0x3efd82f5	0.49513975
46	0x3d67aaac	0.05655925
47	0xbf84d7ce	-1.0378358
48	0xbc556468	-0.013024427
49	0x3f29c6f1	0.66319185
50	0x3effa9da	0.49934274
51	0xbf85f3d0	-1.0465031
52	0xbfa4fa70	-1.2888927
53	0x3fd97339	1.6988288
54	0xbf9dd6f1	-1.233122
55	0x3f0cd381	0.5501023
56	0x3f202b83	0.62566394
57	0x3cd32770	0.025775641
58	0xbf3edc18	-0.74554586
59	0xc00bbf6f	-2.1835592
60	0x3f3bf929	0.73427063
61	0xba0c85b8	-0.0005360502
62	0xbffd7cf9	-1.9803764
63	0xbf027fb3	-0.50976104
64	0x3f90953c	1.1295543
65	0x3e777f28	0.241696
66	0xbe1887f3	-0.1489561
67	0x3ee3084b	0.44342265
68	0xbfe424c3	-1.7823719
69	0xbe3fd195	-0.18732293
70	0x3fc55f8d	1.5419785
71	0x3f9e88d6	1.2385509
72	0xbf8fde01	-1.1239625
73	0xbef64bda	-0.48104745
74	0xbf27639a	-0.65386355
75	0xbf1a6dc4	-0.6032374
76	0x3f3f52cd	0.7473572
77	0xbf156e00	-0.5837097
78	0xbf4dbfcf	-0.803708
79	0x3e1b3447	0.15156661
80	0x4018ea53	2.389302
81	0xbe787c0a	-0.24266067
82	0xbecd53f7	-0.40103123
83	0x3fa02f32	1.2514403
84	0xbe4422ec	-0.19153947
85	0xbf17599c	-0.5912111
86	0x3d131b7a	0.035914876
87	0x3f94b48f	1.1617602
88	0x3e5d4b9a	0.21610871
89	0xbef4889d	-0.47760478
90	0xbf90a874	-1.1301408
91	0x3ff6ae47	1.9271935
92	0xbf588fbb	-0.84594315
93	0xbe58b762	-0.21163705
94	0xbfb9e441	-1.4522783
95	0xbed1a2bc	-0.4094447
96	0x3f5b7025	0.85717994
97	0xbf90ad1c	-1.1302829
98	0x3f99231f	1.1963843
99	0xbf5449c7	-0.82925075
100	0xbe90f07f	-0.28308484
101	0xba0a6743	-0.00052796694
102	0xbfdf7a27	-1.7459153
103	0xbe8f7a10	-0.28022814
104	0x3e645665	0.22298582
105	0x3f2a68c0	0.66566086
106	0xbdf8c0bd	-0.12146137
107	0x3f1c7c80	0.6112747
108	0x3e31cf16	0.17364153
109	0x3f9b307b	1.212417
110	0xbdd2c209	-0.102909155
111	0x3f74ba5f	0.9559688
112	0xbf3f2987	-0.7467274
113	0xbce81172	-0.028328631
114	0x3ffef77a	1.9919274
115	0x3d93d494	0.072182804
116	0xbe3e72ab	-0.1859843
117	0xbfebac91	-1.8412038
118	0xbd1ba24f	-0.037996586
119	0x3f804b6c	1.0023017
120	0xbe9f804a	-0.31152564
121	0xbfb73ee9	-1.4316074
122	0xbf0b15f1	-0.54330355
123	0x3ff988f8	1.9494925
124	0xbe5a45ac	-0.2131564
125	0x3e677083	0.22601514
126	0x3fad9aa6	1.356282
127	0xbfa4d4bb	-1.287742
128	0x3fbcf02b	1.4760793
129	0xbdabb267	-0.08383637
130	0x3f1ffe94	0.6249783
131	0xbf848ff1	-1.0356427
132	0x3eb52215	0.35377565
133	0xc028bdcb	-2.636584
134	0xbefa3e09	-0.48875454
135	0x3fb6a936	1.4270389
136	0x3ee62d7b	0.44956574
137	0x3fee5e47	1.8622521
138	0xbfaad844	-1.3347249
139	0xbf483e30	-0.7821989
140	0xbfb24880	-1.3928375
141	0xbe4cc3f0	-0.19996619
142	0xbf3a7910	-0.72840977
143	0x3e1e5b5d	0.1546454
144	0x3fbd501d	1.4790074
145	0x3e1b5096	0.1516746
146	0x3e4b09a6	0.198279
147	0xbfb99cd4	-1.4500985
148	0xbef0de47	-0.47044584
149	0xbf204e99	-0.6261993
150	0xbf3894aa	-0.72101843
151	0xbee98357	-0.45608017
152	0xbf584ee3	-0.8449537
153	0xbf97e3b6	-1.1866367
154	0xbf8769e5	-1.0579191
155	0x3e548214	0.20752746
156	0x3eac1dc0	0.33616447
157	0xbf2dcd18	-0.67891073
158	0x3f9dd10a	1.2329419
159	0x3f5af17b	0.8552472
160	0xbe092e49	-0.13396563
161	0x3e825bda	0.25460702
162	0xbe9d8f5f	-0.30773446
163	0xbedf685c	-0.43634307
164	0xbd708c56	-0.058727585
165	0xbe99ed62	-0.3006392
166	0x3ecd1704	0.40056622
167	0xbf17b853	-0.5926563
168	0x3edf7300	0.43642426
169	0xbf04bbe6	-0.5184921
170	0x3ec08b13	0.37606105
171	0xbf9b6928	-1.2141466
172	0x3f3d0657	0.738378
173	0xbf8a1316	-1.0787075
174	0x3ef80842	0.484438
175	0xbef7b9d6	-0.4838397
176	0xbf4082fa	-0.75199854
177	0xbfdbedbb	-1.7181925
178	0xc02c2393	-2.6896713
179	0xbfb1326e	-1.3843515
180	0xbeff0285	-0.4980661
181	0xbde58208	-0.11206442
182	0x3fddabcb	1.7318052
183	0xbe2784f9	-0.16359319
184	0x401b89ad	2.430278
185	0xbfadab1e	-1.3567846
186	0xbe225268	-0.15851748
187	0x3ee8b91f	0.45453736
188	0x3e2744fb	0.16334908
189	0xbf309b60	-0.68987083
190	0x3e3600df	0.1777377
191	0x3c201a70	0.009771928
192	0x3f624222	0.8838216
193	0x3e5f3e2a	0.21801057
194	0xbfc202c2	-1.5157092
195	0xbf1027c6	-0.5631069
196	0xbee4962b	-0.4464582
197	0x3e8996ed	0.2687296
198	0xbfc12d9f	-1.5092047
199	0x3c9c404d	0.01907363
200	0x40223cfd	2.5349724
201	0xbf9b49b5	-1.2131869
202	0x3fd9747a	1.6988671
203	0xbf4269e7	-0.75942844
204	0x3ff7006c	1.9297004
205	0xbf5efc5f	-0.8710384
206	0x3e9916af	0.2990012
207	0xbe0493a0	-0.1294694
208	0xbf382cb3	-0.71943206
209	0x3f18cfe8	0.5969224
210	0xbffe326b	-1.9859136
211	0xbf62f6a4	-0.88657594
212	0x3f4d2800	0.8013916
213	0x3c953f31	0.018218609
214	0x3f2c176f	0.67223257
215	0x3f05b901	0.5223542
216	0xbe81292c	-0.25226724
217	0x3f8bc608	1.0919809
218	0xbf69b683	-0.91294116
219	0xbed6c5e0	-0.41947842
220	0xbfc980e2	-1.5742457
221	0xbfb2be27	-1.396428
222	0x3f285da0	0.6576786
223	0xbf078464	-0.5293639
224	0x3f8b1301	1.0865175
225	0x3f70223a	0.93802226
226	0x4011af8f	2.2763402
227	0xbf0f5899	-0.55994564
228	0x3f89f64a	1.0778286
229	0x3eb8c769	0.36089638
230	0x3e4fdeee	0.20299885
231	0x3faf96e2	1.3717921
232	0x3f7d8acb	0.99039906
233	0x3f05da4d	0.52286226
234	0x3ec1c70c	0.37847173
235	0xbef8ae5d	-0.4857053
236	0x3fa65273	1.2993912
237	0xbe9e3cd8	-0.30905795
238	0xbf8c2ad2	-1.0950568
239	0x3db602d4	0.08887258
240	0x3fa9726a	1.3238041
241	0xbf22dbb1	-0.6361647
242	0xbf3d1c6b	-0.7387149
243	0xbe3a7a36	-0.18210682
244	0x3eb43fa5	0.35204807
245	0xbe7d695d	-0.24747224
246	0x3f06e62b	0.5269496
247	0x3dac8464	0.08423689
248	0x3f2653d5	0.6497167
249	0xbf22c586	-0.63582647
250	0x3fd67be8	1.6756563
251	0xbf11d280	-0.5696182
252	0x3eeb8aff	0.46004483
253	0xbec6bee8	-0.38817525
254	0x3f6f814e	0.9355668
255	0x3e1f46cd	0.15554352

network_body._body_endoder.seq_layers.0.bias f4 [256]
0	0x3bc5f5d1	0.0060412665
1	0xbbf0e720	-0.007351771
2	0xbb426185	-0.0029660177
3	0x3bde3917	0.006781708
4	0xbbf202ed	-0.0073856027
5	0x39da4220	0.00041629467
6	0xbbe29240	-0.006914407
7	0xbac2a47b	-0.0014850044
8	0x3bae3e8a	0.005317514
9	0x39fa1e84	0.00047706452
10	0x3b6361b5	0.003469569
11	0x3b2c983d	0.0026335858
12	0x3b327084	0.002722771
13	0xbb834353	-0.0040058284
14	0x3ba20e51	0.0049455543
15	0x3ac26b21	0.0014832952
16	0xbbafd5f0	-0.0053660795
17	0xbb828840	-0.0039835274
18	0x3bc4047f	0.0059819813
19	0x3bf6032d	0.007507703
20	0x3973e33c	0.00023258937
21	0x3bc600e7	0.006042588
22	0x3bbd2bcb	0.005773043
23	0xbbe52b88	-0.0069937147
24	0x3bdf8173	0.0068208515
25	0xbbc9a15a	-0.006153268
26	0x3b1abdf8	0.0023611765
27	0x3bcafbeb	0.0061945817
28	0xbb49b7e2	-0.0030779769
29	0xbbf47a78	-0.0074608885
30	0xbb90e594	-0.004421899
31	0xbb83f2bf	-0.0040267403
32	0xbbf71aed	-0.0075410516
33	0x3b2fa534	0.002680135
34	0x3a02f884	0.0004996138
35	0x3bcea2d6	0.0063060327
36	0xbb02a7bf	-0.001993641
37	0x3b9249c4	0.00446436
38	0x3bdcfad4	0.006743768
39	0x3a36928a	0.0006964585
40	0x3bc1ff7f	0.00592035
41	0xbb91e1c4	-0.004451962
42	0x3bb621af	0.0055582146
43	0x3ad752a5	0.0016427828
44	0xbb959e9e	-0.004566028
45	0xbbe56f07	-0.007001761
46	0x3bbd9e52	0.0057866955
47	0xbbf02546	-0.007328662
48	0xbbc6a4a5	-0.0060621076
49	0xbae61afc	-0.0017555649
50	0xbbf5501c	-0.0074863564
51	0x3bc1c797	0.0059136855
52	0xbb95b0fb	-0.004568217
53	0x3bd27735	0.006422902
54	0xbb8d8dca	-0.004319881
55	0xbb5f3dc5	-0.0034063917
56	0xbb20fafa	-0.0024563656
57	0x3be78e25	0.0070665055
58	0x3bdbf5e9	0.0067126644
59	0xbbd150fa	-0.006387827
60	0xbbf28c9d	-0.0074020163
61	0x3a147143	0.0005662629
62	0xbbd7e6f0	-0.006588809
63	0xbb5ce534	-0.0033705952
64	0x3be86374	0.007091934
65	0x3a2ec2f9	0.00066666264
66	0xbbd6c7b5	-0.0065545687
67	0xbac8702c	-0.0015292219
68	0xbba52af2	-0.00504052
69	0xbbf1393d	-0.0073615597
70	0xbb97bcfc	-0.004630683
71	0x3bbb5dc0	0.005717963
72	0x3beedf4e	0.0072898036
73	0x3b0905c7	0.0020907985
74	0x3b4f7a37	0.003165854
75	0xbbf699db	-0.007525665
76	0xbb9c3f89	-0.004768316
77	0xbbced9e8	-0.0063125975
78	0xbbc48f6a	-0.0059985416
79	0xbb124c6f	-0.002232339
80	0x3bd0a85b	0.006367726
81	0x3797dea1	1.8104272e-05
82	0xbbe4b16b	-0.0069791577
83	0x3b91a2b4	0.0044444446
84	0x39592e67	0.00020712019
85	0xbbc419e9	-0.005984534
86	0x3bd18fe0	0.006395325
87	0xbb12c495	-0.0022395004
88	0x3be5d6cd	0.0070141316
89	0x3be122d8	0.006870609
90	0xbbdcc8b3	-0.0067377924
91	0x3b2994ed	0.002587612
92	0xba91aca1	-0.001111407
93	0x3a98740d	0.0011631266
94	0xbb826c95	-0.003980229
95	0x3bc5ce51	0.0060365577
96	0x37aec0f8	2.0832274e-05
97	0xbba7706e	-0.005109838
98	0xbb49ae09	-0.00307739
99	0x3b8dd2f7	0.0043281275
100	0xbb3fbdb6	-0.0029257364
101	0xbb64235f	-0.0034811122
102	0x3be32a77	0.0069325524
103	0x3bf63f85	0.0075148963
104	0xbbebfeff	-0.0072020288
105	0x3bb871fb	0.005628822
106	0xbbfb2f8a	-0.007665579
107	0xbb928b71	-0.004472189
108	0xbbb92288	-0.0056498684
109	0xbb43e232	-0.0029889462
110	0x3b3943e2	0.002826922
111	0x3bc4a67e	0.0060012927
112	0x3bb649bb	0.0055629886
113	0x3b6ec997	0.0036436075
114	0x3bd9df16	0.0066489084
115	0x3bc42182	0.0059854398
116	0x3b8ad153	0.004236379
117	0x3b93f179	0.00451487
118	0x3bbe72fc	0.005812047
119	0x3b3ff112	0.0029287976
120	0x3b819270	0.0039542243
121	0xb99812c3	-0.00029005678
122	0x39bad22d	0.00035633278
123	0xbbee55df	-0.00727342
124	0xbb8999e9	-0.0041992557
125	0xbbf3d861	-0.007441566
126	0xbbb6216e	-0.0055581843
127	0xbb57eeda	-0.0032948763
128	0x3bc6ee41	0.0060708825
129	0xbb7c0a94	-0.0038458453
130	0x3b585434	0.0033009173
131	0x3be28edd	0.0069140033
132	0xbbc83826	-0.006110209
133	0x3bcb0e6a	0.0061967866
134	0x3b8c6052	0.004283943
135	0x3ad8297d	0.0016491857
136	0xbac8baac	-0.0015314422
137	0xbba558dc	-0.0050459933
138	0xbb9583b7	-0.004562821
139	0x3bbeac7a	0.0058189007
140	0xbbc908cd	-0.0061350823
141	0x3bf403f0	0.0074467584
142	0xbbeb4a6d	-0.007180503
143	0xbbd1400d	-0.0063858093
144	0x3ad963c7	0.0016585522
145	0xbbe92fbc	-0.007116286
146	0xbb6b42d6	-0.0035897992
147	0x3bbb66d4	0.005719045
148	0xb8ca6f6b	-9.652864e-05
149	0x3b6eaf5f	0.0036420447
150	0xbbce184b	-0.006289517
151	0x3bee5a58	0.0072739534
152	0x3b4dcb97	0.0031401867
153	0xbb6721d9	-0.0035267978
154	0x3b865a31	0.004100107
155	0xbba8325d	-0.005132957
156	0x3bb1498f	0.00541038
157	0xbbbc5ee2	-0.0057486156
158	0x3a0b04a2	0.00053031195
159	0xbbd85d5f	-0.0066029276
160	0xbb928b4d	-0.0044721724
161	0xbb493a91	-0.0030705074
162	0xbbc9e238	-0.0061610006
163	0xbb8318b3	-0.004000747
164	0x3ba7bb21	0.005118743
165	0x3bbc2bcf	0.005742527
166	0xbbb79683	-0.005602659
167	0x3bbd68c3	0.005780311
168	0xbb9a69e9	-0.0047123325
169	0x3bbccc4a	0.005761658
170	0x3bdba844	0.0067034084
171	0xbb63d89d	-0.0034766563
172	0x3b84150c	0.0040308293
173	0x3be416df	0.0069607343
174	0x3b9609e1	0.0045788144
175	0x3b3c4653	0.002872844
176	0xbb4bbe0c	-0.0031088619
177	0xbbd534a8	-0.0065065213
178	0x3bd74e5b	0.00657062
179	0xbaaba263	-0.001309466
180	0x3bb7f89f	0.0056143547
181	0x3b34e01b	0.0027599398
182	0x3a2142dd	0.0006151626
183	0xba6de274	-0.00090745767
184	0xbbaec526	-0.0053335605
185	0x3b8eaf39	0.0043543843
186	0x3ba02667	0.0048873904
187	0xbb50ef0f	-0.0031880771
188	0x3baff30e	0.0053695505
189	0x3ba872c2	0.0051406333
190	0xbb20e05f	-0.0024547798
191	0xbbf476c0	-0.007460445
192	0xba37d5ae	-0.0007012737
193	0xbb5eadf1	-0.003397819
194	0x3b0eba08	0.0021778364
195	0x3bb75e85	0.0055959844
196	0x3bae2634	0.0053146128
197	0xbbd6f07f	-0.006559431
198	0x3ba8fe29	0.0051572514
199	0x3b606100	0.0034237504
200	0x3a660c40	0.0008775629
201	0xbb285a67	-0.002568865
202	0x3b8aaea2	0.0042322436
203	0xbba5151d	-0.0050379173
204	0x3b0f7c0b	0.0021894004
205	0xbbe63a3e	-0.007025986
206	0xbbb06c33	-0.005383992
207	0xbbea9b54	-0.00715963
208	0x3bee3e55	0.007270614
209	0xbb30cadd	-0.0026976385
210	0xbbbea397	-0.0058178413
211	0x3bcf7296	0.0063307984
212	0xbbfb17e7	-0.0076627615
213	0x3b31537c	0.0027057817
214	0x3bddc4e2	0.006767855
215	0x3b2fa83c	0.0026803156
216	0x3be297f8	0.0069150887
217	0xbbf89702	-0.007586361
218	0xbb877b1b	-0.0041345484
219	0x3bf43a9a	0.007453275
220	0x3b577495	0.0032875885
221	0xbbf247fa	-0.007393834
222	0x3b447337	0.00299759
223	0xbad11a07	-0.0015953191
224	0x3b1cb217	0.002390986
225	0xbbef0b26	-0.00729503
226	0xbb9486a1	-0.0045326506
227	0xba937916	-0.0011251296
228	0x3be24d1f	0.006906166
229	0xbbae4159	-0.0053178486
230	0xbb878579	-0.004135784
231	0xbbbb9302	-0.005724312
232	0x3beb5b13	0.0071824878
233	0xbb6d3c56	-0.0036199293
234	0x3b17055b	0.0023043964
235	0x3bc0ccdd	0.0058837966
236	0x3bb441ac	0.0055009928
237	0x3bef36ca	0.0073002325
238	0xbbf66f60	-0.007520601
239	0xbbf29386	-0.00740284
240	0x3ba59ada	0.00505386
241	0xbbd0e67f	-0.0063751335
242	0x3be7bb91	0.00707192
243	0xbb79f08b	-0.003813776
244	0x3b9c3cfa	0.004768011
245	0x3b3a6ccd	0.0028446198
246	0xbb414303	-0.0029489405
247	0x3baed4cd	0.0053354264
248	0x3bd8016a	0.0065919654
249	0x38c5a3f4	9.424231e-05
250	0xbb40beff	-0.0029410718
251	0x3bdc6ca5	0.0067268186
252	0xbbce7eb0	-0.0063017234
253	0xbb48555b	-0.0030568454
254	0xbbe02cb7	-0.006841268
255	0x3bd1de85	0.0064047

network_body._body_endoder.seq_layers.2.weight f4 [256, 256]
0	0x3d211862	0.039329894
1	0xbdd6b685	-0.104840316
2	0x3d201cdd	0.039090026
3	0x3e02ccd7	0.12773453
4	0x3e07c067	0.1325699
5	0x3d65e0c6	0.056122564
6	0xbda3b133	-0.079927824
7	0xbd485ab9	-0.048914645
8	0x3d95a5f5	0.073070444
9	0x3bada095	0.005298684
10	0xbd87599e	-0.0660889
11	0x3d9cd91e	0.07658599
12	0xbbe8c42f	-0.007103465
13	0x3bcadd27	0.006190914
14	0x3ce226a6	0.02760632
15	0x3c9e750c	0.019342922
16	0xbcaa33b2	-0.020776603
17	0x3c3caef2	0.01151632
18	0xbdcfcb96	-0.10146253
19	0x3ba3cf21	0.004999057
20	0xbce88535	-0.02838383
21	0xbdc939fc	-0.09825513
22	0x3c99b02b	0.018760761
23	0x3da71dc9	0.08159978
24	0x3c2a7acc	0.010405254
25	0xbc568a53	-0.0130945025
26	0xbcf87475	-0.030328969
27	0x3d8109d6	0.06300704
28	0xbd8c0e19	-0.068386264
29	0xbdf65ef3	-0.12029829
30	0xbc03ffef	-0.008056625
31	0x3cda79fb	0.026669493
32	0xbd8c2725	-0.06843404
33	0x3cabef3f	0.020988105
34	0xbd1ba8c3	-0.03800274
35	0xbbbab659	-0.005698007
36	0xbd52fd7f	-0.051511284
37	0x3dbf0466	0.09327011
38	0xbdc956ae	-0.09830986
39	0x3d558537	0.052128997
40	0xbcc9a938	-0.024616823
41	0xbc2c8935	-0.01053076
42	0x3cb10fcb	0.021613976
43	0xbd2873ee	-0.041126184
44	0x3ca180f8	0.019714817
45	0x3d11ce46	0.03559711
46	0x3d40d53c	0.047078356
47	0xbdb9af71	-0.09066666
48	0x3c44dbbf	0.012015282
49	0xbc848042	-0.01617444
50	0x3d1f09ea	0.038827814
51	0xbcf016c6	-0.029307734
52	0xbd55c715	-0.052191813
53	0xbb01569e	-0.0019735466
54	0xbc0fd05a	-0.008777702
55	0x3ca9b304	0.020715244
56	0xbd5ba21d	-0.0536214
57	0x3c2b62af	0.01046054
58	0x3d9659fe	0.073413834
59	0xbd88c06f	-0.06677329
60	0x3db1ee94	0.08688083
61	0xbd6275a5	-0.055287976
62	0xbdd40672	-0.10352792
63	0x3d8069bf	0.062701695
64	0x3c7270ad	0.014797372
65	0x3d316489	0.04330877
66	0xbc5631a4	-0.013073359
67	0xbd89aee1	-0.06722809
68	0xbcf66530	-0.030077547
69	0x3d1bace0	0.038006663
70	0xbbc408e1	-0.0059825038
71	0x3dda965e	0.106732115
72	0x3df53a57	0.11974018
73	0xbd23c67b	-0.039984208
74	0xbd825636	-0.063641
75	0xbc9a9916	-0.018871825
76	0xbcf01ae2	-0.029309694
77	0x3d5d28b2	0.05399389
78	0x3d44a89b	0.048012357
79	0xbd8680b7	-0.06567519
80	0x3d5aaa2c	0.053384945
81	0xbcaf23b5	-0.021379331
82	0xbdaaf4cf	-0.08347475
83	0xbd292aa1	-0.04130042
84	0x3e0b475f	0.13601445
85	0xbe1ad4f8	-0.15120304
86	0x3dd5432f	0.10413205
87	0xbd55ded6	-0.052214466
88	0x3aed5f28	0.0018110024
89	0xbd58ed96	-0.052960955
90	0xbd58ae55	-0.05290063
91	0xbcff9153	-0.031197226
92	0x3dc8e075	0.09808437
93	0xbdf11a1e	-0.117725596
94	0x3c4df042	0.012569489
95	0x3c451f42	0.012031378
96	0x3d074308	0.03302291
97	0x3d362ad4	0.044474438
98	0x3d2e3056	0.042526565
99	0xbc6fd9d0	-0.014639333
100	0xbd396cd7	-0.045269813
101	0x3de8709b	0.11349603
102	0x3d8717ed	0.0659636
103	0x3cbb148f	0.022836952
104	0x3e01e2b0	0.1268413
105	0x3c79e610	0.015252605
106	0xbdd8ef07	-0.10592466
107	0x3d564b13	0.05231769
108	0x3b7ee195	0.0038891782
109	0xbc7ab8a6	-0.015302813
110	0xbda3520c	-0.079746336
111	0xbcefb2c1	-0.029260041
112	0x3c1f3e52	0.009719448
113	0xbdedab85	-0.116049804
114	0x3d6ca8c1	0.057778124
115	0xbd1bbe1f	-0.03802311
116	0xbd0f6cfe	-0.035016052
117	0x3dc501d0	0.09619486
118	0x3b4b153c	0.0030987998
119	0xbb77e8bc	-0.003782793
120	0xbce41419	-0.027841615
121	0xbd893224	-0.06699017
122	0x3dd8e9fe	0.105915055
123	0xbd5efea6	-0.05444207
124	0xbd9228f5	-0.07136718
125	0x3cf4b6a5	0.029872248
126	0xbcce4f42	-0.025184277
127	0x3d83fcdb	0.06444713
128	0x3ba95842	0.005167992
129	0xbdaebbe9	-0.08531935
130	0x3d0ade35	0.03390332
131	0x3d37f65b	0.044912677
132	0xbc10d097	-0.008838794
133	0x3d8772a7	0.06613665
134	0x3de4d613	0.11173644
135	0xbd091b0d	-0.033473063
136	0xbdaba5c0	-0.08381224
137	0xbc85d0f2	-0.016334984
138	0xbc9decc3	-0.019277936
139	0xbd6df44e	-0.058094315
140	0xbca2b395	-0.019861022
141	0x3da30429	0.07959778
142	0x3cb1f373	0.021722531
143	0xbdde4201	-0.10852433
144	0x3cd395bf	0.02582824
145	0xbd094e17	-0.033521738
146	0x3a53ea68	0.00080839405
147	0x3c6f899a	0.014620209
148	0x3c8232f8	0.015893444
149	0x3dacab36	0.084310934
150	0xbe48e020	-0.19616747
151	0xbde7ae45	-0.11312536
152	0xbd98e3ab	-0.07465299
153	0xbd7c3755	-0.061576206
154	0x3d81a602	0.063304916
155	0xbd7b10f8	-0.06129548
156	0xbd3498a6	-0.04409089
157	0x3cc7a8cc	0.02437248
158	0x3e22d791	0.15902545
159	0xbc90ea96	-0.017689984
160	0x3cac7ec7	0.021056546
161	0xbddedfde	-0.10882543
162	0xbdf7ed53	-0.12105813
163	0x3c815c30	0.015791029
164	0x3d2ad669	0.041708384
165	0x3db3a68b	0.08772
166	0x3d80ecad	0.06295142
167	0x3db5b340	0.0887208
168	0x3d966b25	0.07344655
169	0xbd7b9827	-0.0614244
170	0x3dffcb0e	0.124899015
171	0x3d62cd77	0.055371728
172	0x3d76797f	0.06017446
173	0xbd970804	-0.07374576
174	0xbda73d30	-0.081659675
175	0xbddd371e	-0.108015284
176	0x3cc5a12b	0.024124702
177	0x3c14ff85	0.009094124
178	0xbe04629c	-0.12928241
179	0xbcc1c6a5	-0.023654291
180	0x3c15df5e	0.009147493
181	0xbd9be216	-0.07611482
182	0x3d417166	0.047227286
183	0xbd47658d	-0.04868083
184	0x3be6c0fa	0.0070420476
185	0x3d0d1015	0.034439165
186	0x3d8a044c	0.06739101
187	0x3b109607	0.002206208
188	0x3bb93a86	0.0056527285
189	0x3c0f2ee0	0.008739203
190	0xbd9fdec5	-0.07806162
191	0xbd95fb4b	-0.07323321
192	0x3d97a737	0.074049406
193	0x3d420db6	0.047376357
194	0xbe46eed9	-0.1942705
195	0xbdba4dbf	-0.0909686
196	0x3c8332d5	0.01601545
197	0x3def7c5c	0.116936415
198	0x3dca482c	0.09877047
199	0x3d3613d6	0.04445251
200	0xbc9f9c9f	-0.019483862
201	0xbdc8d542	-0.09806301
202	0xbb5bfe68	-0.0033568386
203	0x3e03994b	0.12851445
204	0x3cd3ac8a	0.025839109
205	0x3db0e56b	0.08637508
206	0x3bc9448b	0.006142204
207	0x3d3ab3e4	0.045581713
208	0x3d1ecd1b	0.038769823
209	0xbd913e0e	-0.07091914
210	0xbcdf4804	-0.02725602
211	0x3baf3218	0.005346548
212	0x3cd7a557	0.026323957
213	0x3a27349c	0.0006378384
214	0x3dcfbe73	0.10143747
215	0x3ce6d3a3	0.028177088
216	0xbd0a2e1b	-0.033735376
217	0xbe2b36e3	-0.16720156
218	0xbd2aa40e	-0.04166036
219	0xbd212529	-0.03934208
220	0x3d8d363e	0.068951115
221	0x3de7c3e0	0.11316657
222	0xbae2ffab	-0.0017318627
223	0xbd32d357	-0.04365858
224	0x3d4813ef	0.048847135
225	0x3c83fbf4	0.016111352
226	0xbc9924aa	-0.01869424
227	0xbd45ca8b	-0.048288863
228	0x3d2df6a5	0.042471547
229	0x3d651f50	0.055938065
230	0xbd116c3a	-0.035503604
231	0xbd5e073b	-0.054206114
232	0xbd435091	-0.047684256
233	0xbdb251c1	-0.087069996
234	0xbbe43b3f	-0.0069650705
235	0x3d94429d	0.07239268
236	0xbd5fa0a5	-0.054596562
237	0xbd2eb6ee	-0.042654924
238	0x3d1b119d	0.037858594
239	0x3d695257	0.05696329
240	0x3dac52e6	0.08414249
241	0x3deaf414	0.114723355
242	0xbd7b1492	-0.061298914
243	0xbc8095f0	-0.015696496
244	0xbca32cf3	-0.019918894
245	0x3d40856f	0.047002252
246	0x3a626224	0.000863584
247	0x3d3a2ee2	0.045454867
248	0x3caafcbf	0.020872472
249	0x3c2c21f1	0.010506139
250	0xbd5cf0a5	-0.053940434
251	0xbb0fb70e	-0.0021929177
252	0xbdb186d8	-0.086682975
253	0x3c9e69a4	0.019337483
254	0xbb3fbbd4	-0.0029256241
255	0x3e4dc511	0.20094706

network_body._body_endoder.seq_layers.2.bias f4 [256]
0	0x3bb9b0d0	0.0056668296
1	0x3b7cf0a7	0.0038595588
2	0xbbbc50c9	-0.005746935
3	0x37bd408a	2.2560609e-05
4	0x3bd78bff	0.006577968
5	0xbbe33f00	-0.0069350004
6	0x3bcd67f4	0.0062684957
7	0xbbf16cb3	-0.0073676943
8	0x3b149798	0.0022673365
9	0xbbcaf1dc	-0.0061933827
10	0x3b9f4be1	0.0048613404
11	0xbbb4cc9d	-0.005517556
12	0xbbe2a5e4	-0.0069167484
13	0xbbc2e39d	-0.005947544
14	0x3b1b0482	0.002365381
15	0x3b0e23bb	0.0021688777
16	0x3a3ecb3e	0.000727821
17	0xbbde7254	-0.0067885313
18	0x3b9b84fc	0.0047460776
19	0xbb47dd30	-0.0030496828
20	0xbbdf4f09	-0.0068148416
21	0x3b716eaa	0.0036839643
22	0x3bc28b5b	0.0059370226
23	0x3b597fbb	0.0033187706
24	0xb9d145ad	-0.000399155
25	0xbaa3e1a9	-0.0012503165
26	0xbbccc296	-0.0062487824
27	0xbbbcdc58	-0.0057635717
28	0x3b1682b9	0.00229661
29	0x3b1ab344	0.0023605386
30	0x3ab7fbdb	0.0014036851
31	0x3befae45	0.0073144757
32	0x3baaab0a	0.0052083777
33	0x3a0302c9	0.00049976684
34	0x3bd42fe0	0.0064754337
35	0x3be76537	0.0070616263
36	0x3bd89c61	0.0066104387
37	0x3bd1c87f	0.006402075
38	0x384a8810	4.828727e-05
39	0xbb90c2e9	-0.0044177664
40	0xbb35b578	-0.0027726572
41	0xbbdaa32c	-0.0066722836
42	0x3a3ab596	0.00071223953
43	0xbbbc477d	-0.0057458268
44	0x3ba63b2f	0.005072973
45	0x3a00fa01	0.0004920066
46	0x3b8311fb	0.003999946
47	0x3bb44c97	0.0055022943
48	0xbbd4ed01	-0.0064979796
49	0x3bdae8e0	0.006680593
50	0xbbe69eeb	-0.0070379875
51	0x3a3507db	0.00069057726
52	0x3ba24b41	0.0049528186
53	0xbba2218e	-0.0049478477
54	0x3bcf20f3	0.0063210665
55	0xbbc063c6	-0.005871269
56	0x3b93c31b	0.0045093424
57	0x3b896637	0.004193093
58	0x3b3491b2	0.0027552661
59	0xba8b99a1	-0.0010650643
60	0x3bc719ef	0.0060760896
61	0x3be23e8f	0.00690443
62	0x3a80787a	0.000980153
63	0x3a0af768	0.00053011486
64	0x3bb88685	0.0056312704
65	0xbb5ca2f2	-0.003366646
66	0xba6deec4	-0.00090764114
67	0x3bebf82a	0.0072012143
68	0xbbebbace	-0.0071938997
69	0xbba72add	-0.0051015452
70	0xba509c36	-0.00079578476
71	0xbb9491a6	-0.004533964
72	0xbaa8af58	-0.0012869639
73	0x3be023c1	0.0068401997
74	0x3bdc481d	0.0067224638
75	0x3b9942d9	0.0046771583
76	0x3bdf487c	0.0068140607
77	0xbb5fc86e	-0.0034146565
78	0xbbd529e1	-0.0065052365
79	0xbb81c8c1	-0.0039606993
80	0xbb85da55	-0.004084865
81	0xbbc2e3f4	-0.0059475843
82	0xbbc34e1a	-0.005960238
83	0xbbe7b51b	-0.00707115
84	0xbbbef7b1	-0.005827867
85	0x3bcc1744	0.0062283594
86	0xbbd6a23f	-0.006550103
87	0xbb94d51f	-0.0045420076
88	0xbb35842b	-0.0027697186
89	0x3b83f7cc	0.0040273424
90	0x3a8b6275	0.0010634201
91	0x3b500826	0.0031743138
92	0xbbace5bd	-0.0052764104
93	0x3b0209a3	0.001984217
94	0x3bc48213	0.0059969514
95	0x3bca32f7	0.0061706263
96	0x3bbbeaed	0.0057347924
97	0xb990f6b2	-0.00027649623
98	0xbb78ad43	-0.003794507
99	0x3bf509c7	0.007477972
100	0x3ba7b39f	0.005117848
101	0xbba6e8ab	-0.005093654
102	0xbacbe0f2	-0.001555471
103	0xbbe5f20b	-0.007017379
104	0xbb70bbd2	-0.0036733043
105	0x3b9dd119	0.004816186
106	0x3b128a9b	0.0022360447
107	0x3bd2803f	0.0064239795
108	0xbab065f5	-0.001345812
109	0xbb6f2c20	-0.0036494806
110	0xbb6fa79b	-0.0036568407
111	0xbb4ef5d1	-0.0031579623
112	0x3bbe7613	0.0058124154
113	0xbbc61080	-0.0060444474
114	0xbb2375bb	-0.0024942
115	0xba73b94e	-0.0009297327
116	0xbbb956a4	-0.0056560803
117	0x3ba94cf7	0.0051666456
118	0x3bd9e931	0.006650113
119	0x3b72133b	0.0036937732
120	0x3b704994	0.003666495
121	0xbba995c7	-0.0051753256
122	0xbbb6fbb2	-0.0055842036
123	0xbbf4308d	-0.0074520768
124	0xbba745d6	-0.0051047606
125	0x3a8826a1	0.0010387489
126	0x3ab8bd1e	0.0014094447
127	0xbb13b421	-0.0022537785
128	0xbba763df	-0.005108341
129	0x3b824783	0.00397581
130	0x3a9a75a6	0.001178433
131	0x3be1ddc9	0.006892894
132	0x38ab7484	8.175618e-05
133	0xbbbbddd7	-0.0057332325
134	0x3bdbaf75	0.0067042657
135	0x3bd682a3	0.006546335
136	0x3a89e390	0.0010520089
137	0xbbd80f8f	-0.0065936516
138	0xbb2fccd7	-0.0026824975
139	0xbb8affd9	-0.004241925
140	0x3be597c1	0.007006616
141	0x3bccef7f	0.006254136
142	0xbb65fcbf	-0.0035093275
143	0xbbdbc249	-0.00670651
144	0x3baa3b07	0.005195025
145	0xbbad133e	-0.005281835
146	0xbbe40a75	-0.0069592544
147	0xbbae6f81	-0.005323351
148	0x3b338f72	0.0027398732
149	0x3b38934f	0.0028163975
150	0xbbd28711	-0.0064247926
151	0x3bab073d	0.0052193687
152	0x3b587b94	0.0033032643
153	0x3bc4ed89	0.0060097617
154	0x3be126d4	0.0068710838
155	0xbbcb3240	-0.0062010586
156	0x3bd00786	0.006348553
157	0xba1c1465	-0.0005953967
158	0x3a5ec20b	0.00084975426
159	0xbb881b0d	-0.0041536153
160	0x3bcd8479	0.0062718955
161	0xbb4985b4	-0.003074986
162	0xbb3c35a6	-0.00287185
163	0x3ba70baf	0.0050978283
164	0x3bee4895	0.007271836
165	0x3b5d324b	0.00337519
166	0xbab3c852	-0.0013716316
167	0x3bb2d0d3	0.0054570227
168	0x3b861c6f	0.004092745
169	0x3ba3f67c	0.0050037485
170	0x3b14e957	0.002272209
171	0xbbf40df5	-0.007447953
172	0xbb2bb235	-0.002619875
173	0x3b37e3cd	0.0028059364
174	0x3b2f7ba5	0.0026776579
175	0x3bc06968	0.0058719404
176	0xbbe7e867	-0.007077265
177	0xbba07f9a	-0.004898024
178	0x3ba866ee	0.0051392233
179	0xbbca42ec	-0.0061725285
180	0xbbecebb1	-0.007230245
181	0x3bd0cb56	0.006371896
182	0x3a6f8c0d	0.00091379957
183	0x3b705c6f	0.0036676188
184	0x3bc139d2	0.0058967853
185	0xbbb9be0d	-0.005668408
186	0x3b10ae86	0.002207668
187	0xbbc53b7d	-0.0060190544
188	0xbbdb415f	-0.0066911425
189	0x3bb76f5f	0.0055979933
190	0x3bb535d8	0.0055301003
191	0xbbb1f519	-0.0054308292
192	0xbb9e2766	-0.004826474
193	0x3bc225c8	0.005924914
194	0xbb96b15e	-0.0045987805
195	0xbba527e3	-0.0050401553
196	0xbb08c48e	-0.002086911
197	0xbbaf2588	-0.0053450502
198	0x3b6c5899	0.003606355
199	0xbba2078e	-0.0049447482
200	0xbaad4e1e	-0.0013222133
201	0xbb40bf09	-0.002941074
202	0xbb92c7c9	-0.0044793827
203	0xbb4d39d2	-0.0031314981
204	0xbb9b147f	-0.004732668
205	0x3b91e186	0.0044519333
206	0x3bad53a4	0.0052895118
207	0xbb9bb766	-0.0047520874
208	0xbbcfb60e	-0.0063388413
209	0x3be4c7e5	0.006981837
210	0xbba8f4e7	-0.0051561478
211	0xbbb35f09	-0.0054739756
212	0xbbade020	-0.005306259
213	0x3bb429ac	0.0054981317
214	0xbb0e1cea	-0.0021684715
215	0xbbc5ab6c	-0.006032398
216	0x3bea7913	0.0071555465
217	0x3bd51413	0.006502637
218	0x3bdaadab	0.006673535
219	0x3be81e39	0.007083681
220	0xbb5f3de8	-0.0034063999
221	0x3bc22ddc	0.005925877
222	0xbbef2750	-0.0072983876
223	0x3bb1c86c	0.0054255035
224	0x3995e5d5	0.00028590733
225	0x3b7dd6ed	0.0038732842
226	0x3a739b85	0.00092928886
227	0xbbd3957d	-0.0064570294
228	0x3bc4b437	0.0060029286
229	0x3bd36097	0.0064507234
230	0xbb94cc94	-0.004540989
231	0x3b26fd5e	0.0025480608
232	0x3bdbb2e2	0.006704674
233	0x3b516cc6	0.0031955703
234	0xbb3c2b71	-0.0028712417
235	0x3b08f394	0.0020897137
236	0x3b0ab406	0.0021164431
237	0x3b634c3a	0.0034682886
238	0xbbbd3d60	-0.0057751387
239	0xbb662be2	-0.003512137
240	0x3bd23a96	0.0064156754
241	0x3b5ac660	0.00333824
242	0x3bb10a90	0.0054028705
243	0x3ada7d75	0.0016669469
244	0x3bae5e5b	0.0053213066
245	0xbb722ba4	-0.0036952281
246	0x3b6e54aa	0.0036366382
247	0x3bc2fefd	0.005950807
248	0xbb805bf4	-0.0039172117
249	0xbbcdc2b8	-0.006279316
250	0x3adb135d	0.0016714145
251	0x39f17652	0.00046055258
252	0x3b836f93	0.0040111034
253	0xbad72560	-0.0016414337
254	0xbb89ff39	-0.004211333
255	0x3a6eac15	0.0009104622

network_body._body_endoder.seq_layers.4.weight f4 [256, 256]
0	0xbc0c999f	-0.008581548
1	0x3d022432	0.0317728
2	0x3c8c1535	0.017099956
3	0x3c2d730b	0.01058651
4	0xbc9eb954	-0.01937548
5	0x3db2ceec	0.087308735
6	0x3ceaf2f7	0.028680308
7	0x3c994c05	0.018713007
8	0xbd4b1501	-0.049580578
9	0x3daa4c35	0.083153166
10	0xbceddefd	-0.029036993
11	0xbe0c963e	-0.13729188
12	0xbd8656c7	-0.0655952
13	0xbb8080d6	-0.0039216084
14	0x3c97c1b1	0.018524976
15	0x3db415c6	0.087932155
16	0xbdd8382a	-0.105575874
17	0x3dadf9a1	0.084948786
18	0xbaecbb50	-0.0018061195
19	0x3d746988	0.059670955
20	0xbd8e71f9	-0.06955332
21	0xbbb07164	-0.005384611
22	0xbc0d13a2	-0.008610638
23	0xbd4d2529	-0.050084267
24	0x3d6d9ab6	0.058008872
25	0xbcc68589	-0.024233596
26	0x3dc4bd6f	0.09606444
27	0x3c88a52b	0.01668032
28	0x3d5163d2	0.051120587
29	0xb9e69f32	-0.00043987628
30	0x3c8bb8fe	0.017055985
31	0xbcb115c8	-0.021616831
32	0xbd4f1312	-0.050555296
33	0xbc31f80d	-0.010862363
34	0x3d35f70d	0.04442506
35	0xbd6778ce	-0.056511693
36	0xbc8344ee	-0.01602408
37	0x3d415936	0.04720422
38	0x3d0e06cf	0.034674462
39	0xbdf5c1e4	-0.11999872
40	0x3d2f1e9b	0.042753797
41	0xbba1b051	-0.0049343486
42	0xbdc1c768	-0.09461862
43	0x3d8c1a22	0.06840922
44	0x3cd6a513	0.02620176
45	0x3d9f6215	0.077823795
46	0x3d3813f3	0.0449409
47	0xbdde4f47	-0.10854965
48	0xbe0245bb	-0.12721913
49	0x3ccc0649	0.02490534
50	0xbdc1991e	-0.09453033
51	0x3e34d5fd	0.17659755
52	0xbd94d918	-0.0726797
53	0x3d243175	0.04008623
54	0xbd564a8c	-0.052317187
55	0x3cd4561c	0.025919966
56	0x3cfd25fb	0.0309019
57	0xbcadd35d	-0.02121895
58	0xbdf091d5	-0.11746565
59	0xbd17ab97	-0.037028875
60	0x3d964ba1	0.07338644
61	0xbcf44334	-0.029817201
62	0x3b264df3	0.0025376051
63	0x3b267e3f	0.0025404838
64	0xbdc0881e	-0.09400962
65	0x3d69fcf5	0.057126004
66	0xbe36b3f7	-0.17842089
67	0xbc85f1e2	-0.01635069
68	0xbd7a757c	-0.061147198
69	0xbdb6e04e	-0.089295015
70	0xbd0ec34e	-0.034854226
71	0x3d644a48	0.055734903
72	0xbd4e4b93	-0.050365042
73	0xbe2c6807	-0.16836558
74	0xbdf351dd	-0.118808486
75	0x3d901244	0.07034734
76	0xbd379517	-0.044819918
77	0xbbb411b1	-0.005495273
78	0xbc3b5b1b	-0.011435295
79	0xbd1888f9	-0.037240002
80	0xbba1720f	-0.004926927
81	0xbdad5de1	-0.084651716
82	0x3db68ae0	0.08913207
83	0x3c0b0365	0.008484696
84	0x3de83146	0.11337523
85	0xbd86aba4	-0.065757066
86	0xbc01b94c	-0.007917713
87	0xbd19c587	-0.037541892
88	0xbc9c453e	-0.019075986
89	0xbcba1fc4	-0.022720225
90	0xbd537730	-0.051627338
91	0xbd75e817	-0.06003579
92	0x3cedfbd9	0.029050754
93	0x3d616ec6	0.055037282
94	0x3d5e3174	0.05424638
95	0xbd86fac4	-0.065907985
96	0xbdda3b4b	-0.106558405
97	0xbdaa3ddf	-0.08312582
98	0xbbeb23a6	-0.0071758805
99	0x3cde1a32	0.0271121
100	0x3d93c217	0.07214754
101	0x3d243c5a	0.04009662
102	0x3c978dac	0.018500172
103	0xbbe6b147	-0.007040176
104	0x3d045fe6	0.03231802
105	0xbd54f59e	-0.05199205
106	0xbd120edc	-0.035658702
107	0x3d1eb0b8	0.03874275
108	0xbc38cf30	-0.011279866
109	0x3dc04767	0.09388619
110	0x3dcba4ad	0.09943519
111	0x3d874722	0.066053644
112	0xbc8a036c	-0.016847335
113	0x3d80766f	0.062725894
114	0xbc0dea91	-0.008661882
115	0x3ce4358f	0.02785757
116	0x3d8572f3	0.065160654
117	0x3d61a7dd	0.055091728
118	0x3dbbe5a0	0.09174657
119	0x3d927373	0.071509264
120	0xbdd94ca2	-0.1061032
121	0x3e293a9b	0.16526262
122	0xbd04ee3f	-0.03245377
123	0xbdbee8b6	-0.0932173
124	0xbd41ad6e	-0.047284536
125	0xbcaf09c6	-0.021366965
126	0xbd4e1216	-0.050310217
127	0xbd533f02	-0.05157376
128	0x3ddace32	0.1068386
129	0xbdfd2846	-0.12361197
130	0xbd3e7597	-0.04649886
131	0x3933e312	0.0001715536
132	0xbc3d348e	-0.011548175
133	0x3bd67360	0.0065445155
134	0xbcde0f1b	-0.027106812
135	0xbdd3b8fe	-0.10338019
136	0x3cbec621	0.023287835
137	0xbd5e822f	-0.05432337
138	0xbdafc185	-0.08581833
139	0xbd85c339	-0.065313764
140	0x3d2bca44	0.041940942
141	0xbcf44a72	-0.029820655
142	0x3d9dbb30	0.07701719
143	0xbc85cad1	-0.016332062
144	0xbd27653f	-0.04086804
145	0x3d504b02	0.050852783
146	0xbcf8f79e	-0.03039151
147	0xbc97bf51	-0.018523844
148	0xbd96f6de	-0.07371305
149	0x3d5e4bec	0.054271623
150	0x3e52a1a4	0.20569474
151	0x3c16e212	0.009209173
152	0xbcc25a4c	-0.023724698
153	0xbdf0e619	-0.11762638
154	0xbcc40357	-0.023927374
155	0xbcc808b2	-0.024418209
156	0x3baa47a1	0.005196527
157	0x3caeae6f	0.02132341
158	0x3d10181f	0.035179254
159	0x3cdb2879	0.026752697
160	0xbd9158b1	-0.07096995
161	0x3c91a8c0	0.017780662
162	0x3d3d77b4	0.046256736
163	0x3816d398	3.595985e-05
164	0xbe139974	-0.14414006
165	0xbe1fbcd0	-0.1559937
166	0xbc767f5d	-0.015045014
167	0xbceccf7a	-0.028907526
168	0xbd4b1fc2	-0.049590833
169	0xbe102bfb	-0.14079277
170	0x3c83f5e2	0.016108457
171	0x3d56bf24	0.05242838
172	0x3caedec1	0.021346452
173	0xbd2dc773	-0.042426538
174	0xbcf3cfb3	-0.029762125
175	0xbca04751	-0.019565256
176	0xbc3e97bf	-0.011632859
177	0x3d1b63c3	0.037936937
178	0xbd280c5e	-0.04102742
179	0x3ceb9754	0.028758682
180	0xbc5da47a	-0.013527984
181	0x3d069129	0.03285328
182	0xbddbdd43	-0.10735562
183	0xbdbad774	-0.09123126
184	0x39d86750	0.00041275704
185	0x3d39a1ec	0.045320436
186	0xbb255363	-0.0025226704
187	0xbddffe60	-0.1093719
188	0x3dd4195e	0.10356401
189	0xbc71a09a	-0.014747763
190	0x3daedb4e	0.08537923
191	0x3d4ba322	0.049716122
192	0x3d1f7e15	0.0389386
193	0x3e0bda1a	0.13657418
194	0x3e2049c3	0.15653138
195	0xbd9e0a7c	-0.077168435
196	0xbc94c3a6	-0.018159699
197	0xbc92c3f9	-0.017915713
198	0xbddd36a9	-0.10801441
199	0x3d759712	0.059958525
200	0x3d5a6c3f	0.053325888
201	0x3d806814	0.06269851
202	0xbde3c56b	-0.11121639
203	0x3db5131a	0.08841534
204	0xbcc9c725	-0.024631092
205	0xbbc24418	-0.0059285276
206	0x3becc7b8	0.007225957
207	0x3dbe5bc4	0.09294847
208	0xb97755f4	-0.00023587776
209	0x3c970cc4	0.018438704
210	0x3d6fce20	0.058546185
211	0xbd320d7b	-0.043469887
212	0x3dd4199d	0.10356448
213	0x3bb208fc	0.0054332
214	0x3d705b8d	0.05868106
215	0xbd11440f	-0.035465296
216	0x3d7e438e	0.062076144
217	0x3d15834c	0.036502168
218	0x3da97324	0.082739145
219	0x3db1671e	0.08662246
220	0xbccb0fa6	-0.024787735
221	0xbd79b0c9	-0.06095961
222	0x3e7067ee	0.23477146
223	0x3d8a6c74	0.06758967
224	0x3dcd12b8	0.10013336
225	0x3d94da6c	0.07268223
226	0xbc19c3c9	-0.009385058
227	0x3ce0acdb	0.027426174
228	0xbd97fa5f	-0.07420801
229	0x3d882028	0.06646758
230	0x3cdceed5	0.026969353
231	0xbc83650e	-0.016039398
232	0xbdc331c3	-0.09530976
233	0x3b0a3c96	0.002109324
234	0x3ccefd21	0.025267186
235	0xbcecf93b	-0.028927436
236	0x3d1f21db	0.038850646
237	0x3d1633cf	0.036670502
238	0xbc09a304	-0.008400682
239	0x3c54af4d	0.012981248
240	0xbc164726	-0.009172237
241	0xbd922e23	-0.07137706
242	0x3d03a7ac	0.032142326
243	0xbc821d2b	-0.015883049
244	0xbde705b1	-0.112803824
245	0x3c36d1d4	0.011158425
246	0xb83051c0	-4.2037806e-05
247	0xbcb7ca95	-0.022435466
248	0xbc352d57	-0.011058173
249	0xbc46877b	-0.012117262
250	0xbc13568d	-0.008992803
251	0x3cded3ce	0.027200606
252	0x3d110d98	0.035413355
253	0xbd020653	-0.031744312
254	0xbdaa2576	-0.08307926
255	0xbb8f5e3b	-0.004375247

network_body._body_endoder.seq_layers.4.bias f4 [256]
0	0xbbbb082f	-0.0057077627
1	0x3bc5a9bf	0.006032198
2	0xb686b960	-4.0150917e-06
3	0x3b2df402	0.0026543145
4	0x3b4ea1b5	0.003152949
5	0x3b7741be	0.0037728394
6	0x3be17d3a	0.0068813832
7	0x3bb43556	0.005499522
8	0x3b758ed2	0.003746916
9	0x3b662432	0.003511679
10	0xbba37467	-0.0049882415
11	0x3b8ab8e6	0.0042334674
12	0xbb7f80be	-0.0038986648
13	0x3ad025cd	0.0015880406
14	0xba887ecc	-0.0010413765
15	0xbbbe1194	-0.0058004353
16	0x3ba89001	0.0051441197
17	0xbb9803ac	-0.0046391096
18	0x3b6fbda1	0.0036581533
19	0xbac27bc3	-0.0014837909
20	0xbbd307dc	-0.006440146
21	0xbbb743fc	-0.005592821
22	0x3be88605	0.0070960545
23	0x3b834c4b	0.0040068976
24	0xbb0415b3	-0.0020154535
25	0x3be22694	0.0069015715
26	0x3b06d018	0.002057081
27	0xbbb4d423	-0.0055184527
28	0x3b827dfc	0.0039823037
29	0xbb863537	-0.004095699
30	0xbbc9c8d6	-0.0061579747
31	0x3b1a52e4	0.0023547942
32	0xbaf16705	-0.0018417543
33	0xbb8263df	-0.0039791907
34	0x3b24eb63	0.0025164715
35	0xbb9ee0eb	-0.0048485897
36	0x3bdcecac	0.0067420807
37	0x3b67f4c0	0.0035393685
38	0xbaa1ff2c	-0.0012359372
39	0xba26df7c	-0.0006365699
40	0x3bbb0c7f	0.0057082768
41	0x3b94529a	0.0045264484
42	0xbb4a83ab	-0.0030901234
43	0x3b4b9fb4	0.0031070532
44	0xb8f9d664	-0.000119131786
45	0xbb833322	-0.0040038982
46	0xbb9312bf	-0.0044883187
47	0xbb995bf6	-0.004680152
48	0x39f184b6	0.0004606598
49	0x3bc4a0bb	0.006000606
50	0xbbe37470	-0.0069413707
51	0x3a7dfd5b	0.0009688937
52	0x3b1445e5	0.0022624668
53	0x3a6a2e11	0.0008933256
54	0x3b2244d4	0.0024760263
55	0x3ab70286	0.0013962544
56	0xbbc38d94	-0.005967805
57	0xbbc56a5e	-0.006024643
58	0x3b22279a	0.0024742843
59	0x39d05892	0.00039738842
60	0xbb1289e7	-0.0022360028
61	0x3bb68275	0.005569751
62	0x3baca66b	0.005268862
63	0xbbe043a2	-0.006844
64	0x3b8cae1e	0.0042932173
65	0x3b939246	0.004503521
66	0x3bbc09da	0.005738479
67	0xbae4d07d	-0.0017457154
68	0x3b9063a4	0.0044064093
69	0xbbe08675	-0.006851966
70	0xbbaea4a1	-0.005329684
71	0x39c6fe65	0.00037955042
72	0xbb5c7152	-0.003363688
73	0x3bd9fa58	0.0066521578
74	0x397a0e42	0.0002384717
75	0x3a2a4fa6	0.0006496854
76	0x3af5ec35	0.0018762412
77	0xbb06dd04	-0.0020578513
78	0x3bd63d66	0.006538081
79	0x3a786fa8	0.00094770873
80	0x3bcdbbc5	0.0062784874
81	0x37d29d26	2.5107129e-05
82	0x3bcd4aec	0.006265035
83	0x3b713710	0.0036806501
84	0xbb8ca3ed	-0.0042920024
85	0x3b47cf34	0.0030488493
86	0xbac5a8b8	-0.0015080189
87	0xbae7a3e7	-0.0017672748
88	0xbb636990	-0.0034700371
89	0x3bd20e9a	0.006410432
90	0xbb59af3e	-0.0033216025
91	0xbb398750	-0.0028309412
92	0x3a2ea475	0.0006662079
93	0x3bcf2079	0.0063210097
94	0x3b2443f4	0.0025064917
95	0xbb161aa1	-0.0022904056
96	0x3b2563f2	0.0025236574
97	0x3bdcb04e	0.0067348843
98	0xbbca9785	-0.0061826133
99	0xba4ec4c8	-0.0007887599
100	0xbb778998	-0.0037771221
101	0x3b707cce	0.0036695483
102	0x3bab0aab	0.0052197776
103	0xbbb6689f	-0.005566671
104	0xbba868e0	-0.005139455
105	0x3bd14230	0.006386064
106	0x3b157d2e	0.0022810209
107	0xbb8c49d3	-0.0042812615
108	0x3a17576c	0.000577322
109	0x3be0dc02	0.0068621645
110	0x3b4aaa60	0.0030924305
111	0x3b399087	0.0028314905
112	0xbbe7370f	-0.007056124
113	0xbab6f604	-0.0013958816
114	0x3a85967b	0.0010191941
115	0x3a2b0590	0.0006523961
116	0x39e90e49	0.00044451866
117	0x3bafc2c7	0.0053637954
118	0x3be4d9f0	0.006983988
119	0x3bd71cd5	0.0065647163
120	0x3bd723a0	0.006565526
121	0xbacc4794	-0.0015585297
122	0x3b695d4e	0.0035608592
123	0x3ac5dd71	0.0015095902
124	0x3b89b3f8	0.004202362
125	0x3bbebe2a	0.005821009
126	0x3b7dbb72	0.0038716462
127	0x3b68d445	0.0035526913
128	0xbb6a217c	-0.0035725525
129	0xbb119557	-0.0022214258
130	0xbb98581d	-0.004649176
131	0xbbb40fff	-0.005495071
132	0x3bdc290a	0.0067187594
133	0xbbc378d4	-0.0059653316
134	0xbbc902c6	-0.006134364
135	0x3b8aad1a	0.004232061
136	0xbab18b82	-0.0013545605
137	0x3b722dd5	0.0036953588
138	0x3a90eebe	0.0011057479
139	0xbb0d5455	-0.0021565158
140	0x3b0aad94	0.002116059
141	0x3bf1722d	0.007368347
142	0xbad5654b	-0.0016280798
143	0x3b3ea24f	0.0029088443
144	0xbbe78631	-0.0070655574
145	0x3b22f7f2	0.0024867025
146	0x3bcade33	0.006191039
147	0xbb511c31	-0.0031907673
148	0xbb9bfcba	-0.004760352
149	0xba85fefe	-0.0010223088
150	0xbbaaa3af	-0.005207501
151	0xbbad761b	-0.0052936203
152	0x3bda0f0c	0.0066546258
153	0xbb1c11f6	-0.0023814416
154	0x3b1fb1fe	0.0024367566
155	0x3bc52b24	0.0060171057
156	0xba91a601	-0.0011112095
157	0x3acde791	0.0015709271
158	0xbbaa4d30	-0.0051971897
159	0x3b9c71af	0.0047742943
160	0xbbe44b82	-0.006967009
161	0x3babaaab	0.005238851
162	0xbb9c6912	-0.0047732675
163	0x3b595412	0.0033161682
164	0xbbcaa8e0	-0.0061846823
165	0xbaadf978	-0.00132732
166	0xbae92a77	-0.0017789145
167	0xb992f574	-0.00028030167
168	0xbbba6369	-0.00568812
169	0xbba02c90	-0.0048881248
170	0xbb4bcbe1	-0.0031096863
171	0xbb2c2b15	-0.0026270796
172	0x3b569fbd	0.003274902
173	0x3b18d4af	0.0023320129
174	0x3b7952be	0.0038043703
175	0xbae187a1	-0.0017206558
176	0xbb71f87d	-0.0036921792
177	0x3acaf882	0.0015485438
178	0x3b5b0b61	0.003342353
179	0x3a9ab7b3	0.0011804014
180	0xbb2d1752	-0.0026411605
181	0x3b4bbde3	0.0031088523
182	0x3ab6b330	0.00139389
183	0xbbafab6a	-0.0053610103
184	0xbbccb787	-0.006247464
185	0xbb8e8741	-0.0043496196
186	0x3bda9650	0.0066707507
187	0x3ba73230	0.0051024184
188	0x3baafe19	0.005218279
189	0x3b35cc52	0.0027740193
190	0xbb26f610	-0.0025476255
191	0xbb03a35e	-0.0020086388
192	0xba19869d	-0.0005856546
193	0x3b7d9c96	0.0038698069
194	0xbba0c71e	-0.004906549
195	0xbb49f54f	-0.0030816381
196	0x3bafc2f9	0.0053638187
197	0xbbe87e09	-0.0070951027
198	0xbbb9ea03	-0.0056736483
199	0x3ba9ac1f	0.005177989
200	0x3a35ab1d	0.00069301
201	0xbb65c37b	-0.0035059142
202	0xbb820bbf	-0.0039686854
203	0x3bb87d01	0.005630136
204	0xbb2341cc	-0.0024911044
205	0xbbaea1eb	-0.0053293607
206	0xbb8e4acb	-0.004342412
207	0xbba26bd1	-0.0049567004
208	0x3b96d377	0.0046028453
209	0x3b8e9f2c	0.004352471
210	0x3b510d19	0.0031898676
211	0xbbbe5faf	-0.005809746
212	0x3ba4e817	0.00503255
213	0xbb0828ab	-0.0020776193
214	0x3beb6a2e	0.0071842885
215	0xb8397840	-4.421943e-05
216	0x3b0ad9ee	0.0021187025
217	0x3bad66c4	0.0052917916
218	0xbbae97f1	-0.0053281714
219	0xba64651f	-0.0008712578
220	0x3b147f81	0.0022659006
221	0xbbab68a7	-0.0052309814
222	0x3ba0e706	0.0049103526
223	0x3b6cf833	0.003615868
224	0x3b12f7aa	0.0022425451
225	0x396d3508	0.00022621837
226	0xba147d40	-0.00056644157
227	0x3bd107c5	0.0063791
228	0x3babe70a	0.005246048
229	0xba45674a	-0.0007530345
230	0x3be6f070	0.0070477054
231	0xbae36385	-0.0017348385
232	0x3b8dde64	0.0043294895
233	0xbb926125	-0.004467147
234	0x3b4bf2a0	0.0031119958
235	0xbb7b6ffd	-0.003836631
236	0xbabf4841	-0.0014593677
237	0xbb8e985a	-0.004351658
238	0xbbccbd72	-0.0062481696
239	0x3b86fbc0	0.0041193664
240	0x3a8e4ec4	0.0010857214
241	0x3ba01830	0.004885696
242	0x3b6299bc	0.0034576496
243	0xbb470c07	-0.003037216
244	0xbba17ff0	-0.0049285814
245	0x3b7e4f8c	0.0038804738
246	0x3b7f819e	0.003898717
247	0x3a909155	0.001102964
248	0xbb97c9ab	-0.004632195
249	0xbb809cee	-0.0039249575
250	0x3b846674	0.0040405337
251	0x3ac06eb3	0.0014681428
252	0xbb7536d2	-0.0037416709
253	0xba6ae920	-0.000896113
254	0xbaf0d500	-0.0018374026
255	0xbbb54665	-0.0055320733

action_model._continuous_distribution.log_sigma f4 [1, 5]
0	0xbbbc608c	-0.005748814
1	0xbab5d647	-0.0013873064
2	0x3a9baacb	0.0011876462
3	0x3b49f9b4	0.0030819
4	0x3b3c83e2	0.0028765132

action_model._continuous_distribution.mu.weight f4 [5, 256]
0	0x3c88f67b	0.016719094
1	0xbcae2863	-0.021259492
2	0x3a99dcc4	0.0011738767
3	0xbbd56925	-0.0065127783
4	0xbc14a3f6	-0.009072294
5	0xbac27a94	-0.0014837557
6	0xbc94d5f9	-0.018168436
7	0xbc925701	-0.017863752
8	0xbba4ba28	-0.0050270744
9	0xbc7a6bb3	-0.015284467
10	0x3c9cf360	0.019159019
11	0xbc6b9934	-0.014379788
12	0x3c094118	0.008377336
13	0xbc0a25fc	-0.008431908
14	0x3b920e4b	0.0044572703
15	0x3cae6a6b	0.021290978
16	0xbc3bc916	-0.011461517
17	0x3cd0ac47	0.025472773
18	0xbbe620f7	-0.0070229727
19	0x3b469bc8	0.0030305255
20	0x3c7a3d9e	0.01527348
21	0x3ccdfc3a	0.025144685
22	0xbd0c7e69	-0.03430024
23	0xbca8b1c4	-0.020592578
24	0xba1e7102	-0.0006044061
25	0xbcd5a796	-0.026080888
26	0xbc1b5c05	-0.009482388
27	0x3bf01a1a	0.0073273303
28	0xbcdd98c7	-0.027050389
29	0x3cee245a	0.029070068
30	0x3cc524f1	0.024065467
31	0xbb252f8b	-0.002520534
32	0x3c9ace6d	0.01889726
33	0x3b9dd232	0.004816317
34	0x3c0f1cd7	0.008734903
35	0x3cc45b43	0.023969298
36	0xbcdd7e13	-0.027037656
37	0xbbf82a1c	-0.007573379
38	0x3b96a8d0	0.0045977607
39	0x3c85cd2a	0.016333181
40	0xbcd51fee	-0.026016202
41	0xbc879404	-0.016550072
42	0x3c01e1ab	0.007927339
43	0xbbdf6557	-0.0068175006
44	0x3b9a1082	0.004701675
45	0x3c174e8b	0.009235035
46	0x3bf1172d	0.007357499
47	0x3bcdb105	0.006277206
48	0xbb5822b8	-0.0032979678
49	0xbc9febea	-0.019521672
50	0x3c4aa9a0	0.012369543
51	0x3bb9d096	0.0056706173
52	0xbc5e55d2	-0.013570266
53	0xbbd35717	-0.006449591
54	0x3b5cb1f6	0.003367541
55	0x3c010516	0.007874748
56	0x3c8dd1df	0.017311988
57	0x3caf79bf	0.021420358
58	0xbc2b3a83	-0.010450962
59	0xbb9691da	-0.0045950236
60	0x3b7c7371	0.0038520957
61	0xbc8ae5d0	-0.016955286
62	0xbcc334d0	-0.023828894
63	0x3cdbe1ea	0.026841123
64	0xba41da80	-0.0007394925
65	0xbbd1b027	-0.006399173
66	0xbcebd2d9	-0.028787063
67	0x3b4d6484	0.003134043
68	0xbc124042	-0.008926453
69	0x3d179ed8	0.03701672
70	0x3be34b51	0.0069364686
71	0xbbd4ab61	-0.0064901565
72	0x3c6ab142	0.014324488
73	0xbd0ebb0a	-0.034846343
74	0xbb8b069f	-0.0042427327
75	0xbb868e60	-0.004106328
76	0xbb931dc2	-0.0044896314
77	0x3bb006f1	0.005371921
78	0xbcd47626	-0.025935244
79	0xba7fd86e	-0.00097597286
80	0xbcad7fc1	-0.021179082
81	0x3aed0fe5	0.0018086402
82	0xbd138551	-0.036015812
83	0xbc1dc341	-0.009629072
84	0x3bda4aa3	0.0066617294
85	0xbb982d0f	-0.0046440433
86	0xbc0cc4cc	-0.008591842
87	0x3b30599e	0.0026908885
88	0x3c565189	0.013080963
89	0xbd03bda3	-0.032163274
90	0x3b0cfbff	0.0021512506
91	0xba806bbb	-0.0009797731
92	0xbbaa3c40	-0.0051951706
93	0xbc968696	-0.018374722
94	0xbb8cef42	-0.0043009827
95	0x3bb9a5be	0.00566551
96	0xbc1f607e	-0.009727595
97	0xbd1f6262	-0.038912185
98	0x3c6ed1e6	0.014576411
99	0xbbf2ac7a	-0.0074058147
100	0x3cd9ebd5	0.026601711
101	0xbd0e0bc2	-0.034679182
102	0xbc3447c7	-0.011003441
103	0x3c65cc12	0.014025705
104	0x3c0cc726	0.008592403
105	0xbc9bcf8c	-0.019019864
106	0xbbc6f2cc	-0.006071424
107	0x3c336c4a	0.010951111
108	0x3bc4e15b	0.00600831
109	0xbc951571	-0.0181987
110	0xbc0c3834	-0.008558322
111	0xbb64d678	-0.0034917872
112	0x3cb065b6	0.021532875
113	0x3c052e04	0.008128647
114	0xbc3d15fd	-0.011540887
115	0xbc2c1aaa	-0.010504404
116	0xbbd7dbe3	-0.006587492
117	0xbcb04898	-0.02151899
118	0xbcce9a8e	-0.025220182
119	0xbd02b9f8	-0.031915635
120	0xbc862aef	-0.016377894
121	0x3cc207ef	0.023685424
122	0xbc73e68d	-0.014886511
123	0xbc83bfbe	-0.01608264
124	0x3ac0f50b	0.0014721466
125	0xbcd4e5e0	-0.02598852
126	0xbc49af54	-0.012309868
127	0xbb798313	-0.003807251
128	0x3a6d5864	0.0009054004
129	0xbb416046	-0.0029506846
130	0x3c475f2e	0.012168689
131	0x3d1ad1fa	0.037797906
132	0xbcee1026	-0.029060435
133	0x3c3f5200	0.011677265
134	0x3ce1c411	0.027559312
135	0xbc8e0cde	-0.01734012
136	0x3beaa817	0.007161151
137	0xbc735af2	-0.014853226
138	0xbb08800d	-0.0020828277
139	0x3c37a18a	0.0112079475
140	0x3b9828de	0.0046435436
141	0xbd0fe397	-0.035129156
142	0x3c12354f	0.008923843
143	0xbb62b326	-0.0034591644
144	0x3cba5c5d	0.02274912
145	0xbc1dcca5	-0.009631311
146	0xbc0b13d1	-0.008488611
147	0x3c6d2699	0.014474534
148	0x3becbd2f	0.007224701
149	0x3afe04b5	0.0019380065
150	0x3c96620f	0.018357305
151	0x3c8c5acb	0.017133137
152	0xbce0c81b	-0.027439168
153	0x3c811d42	0.015761022
154	0xbb8345ae	-0.004006109
155	0xbcc79e94	-0.024367608
156	0xbbd15043	-0.006387742
157	0xbb8e4257	-0.0043414044
158	0x3ccbb091	0.024864467
159	0xbcb62d26	-0.022238325
160	0x3d00ea2d	0.031473327
161	0xbbf9fbe5	-0.007628905
162	0x3c929a1b	0.017895749
163	0xbc028e2d	-0.007968468
164	0x3d5255b2	0.051351257
165	0x3bd8bdff	0.006614446
166	0x3a19f185	0.0005872476
167	0xbc432bda	-0.0119123105
168	0x3c7c05df	0.015382259
169	0x3c3ad62a	0.0114036
170	0x3c9431a4	0.018090077
171	0x3c0e1a20	0.008673221
172	0xbc0c39b3	-0.008558678
173	0x39a7d60e	0.00032012205
174	0xbc0e77de	-0.008695571
175	0x3b4ec022	0.0031547626
176	0x3c47642d	0.01216988
177	0xbc7c97fd	-0.015417096
178	0xbb049520	-0.0020230487
179	0xbade76c9	-0.0016972657
180	0x3c3e60f0	0.011619791
181	0xbd01f005	-0.03172304
182	0xbc91cda5	-0.017798254
183	0x3cc3072d	0.023807133
184	0x3ccce727	0.025012566
185	0x3c374ebd	0.011188206
186	0xbcd88ad4	-0.026433386
187	0xbcf32ca6	-0.029684376
188	0xbc885ddb	-0.016646316
189	0xbbed969e	-0.007250621
190	0x3c9333df	0.01796907
191	0x3bd01bd4	0.0063509736
192	0xba1e54cf	-0.0006039859
193	0xbc080faa	-0.008304516
194	0x3cc637ec	0.024196588
195	0x3b74ca3e	0.003735199
196	0xbc23a236	-0.009987405
197	0x3d07a287	0.033113983
198	0x3ce42f74	0.027854659
199	0xbcc9087b	-0.024540177
200	0xbbdddae1	-0.006770477
201	0x3c2101e8	0.009827115
202	0x3b59100e	0.0033121142
203	0xbc8e35d6	-0.017359655
204	0x3c188ea1	0.009311349
205	0x3c83804c	0.016052388
206	0x3b9bb43e	0.004751711
207	0x3c060d2d	0.008181852
208	0xbcc85f0c	-0.024459384
209	0xbc8cbdbf	-0.017180322
210	0xbb3e381f	-0.002902515
211	0x3c69eaf6	0.01427721
212	0xbc3522f9	-0.011055701
213	0x3c249662	0.01004562
214	0xbd0e81a9	-0.034791622
215	0xba0bda69	-0.0005334975
216	0xbb7b777d	-0.003837078
217	0xbc37842a	-0.011200944
218	0x3cf6f1c6	0.030144583
219	0x399b96da	0.00029676297
220	0x39e15164	0.00042975985
221	0x3bfe4602	0.0077598104
222	0xbccea3dc	-0.025224619
223	0xbc715566	-0.014729833
224	0xbb579fb6	-0.0032901592
225	0x3c456fa7	0.012050546
226	0x3b667daf	0.0035170128
227	0xbc179520	-0.009251863
228	0xbcb589ab	-0.022160372
229	0xbbe4878b	-0.006974166
230	0xbcc3042e	-0.023805704
231	0xbbdff690	-0.0068348125
232	0xbc27a5fc	-0.010232445
233	0x3c88c5ef	0.016695945
234	0xbc950b5b	-0.018193891
235	0x3cc48bcd	0.023992443
236	0xbbc6e943	-0.0060702874
237	0x3c82e0f3	0.015976405
238	0x3c8797dd	0.016551906
239	0xbb7b49d2	-0.003834356
240	0x3a64a4aa	0.00087220466
241	0xbd06637b	-0.032809716
242	0xbb877210	-0.0041334704
243	0x3c37dec9	0.01122255
244	0x3bebe909	0.007199411
245	0xbc8a7472	-0.016901229
246	0xbccc3a6a	-0.024930198
247	0xbc66f6dc	-0.014096942
248	0x3c8e96be	0.017405864
249	0x3c99631c	0.018724017
250	0xbc09079e	-0.0083636325
251	0xbcb525d5	-0.022112766
252	0x3c7beadc	0.015375819
253	0xbc2916ea	-0.010320405
254	0x3bfa33dd	0.007635577
255	0x3c930783	0.017947918

action_model._continuous_distribution.mu.bias f4 [5]
0	0xbbe371a6	-0.006941038
1	0x3a694d50	0.0008899765
2	0x3b030de0	0.0019997284
3	0xbb9591a6	-0.004564482
4	0xb78b3c92	-1.6598296e-05
