results/NearSingularity01/NearSingularity/NearSingularity-48021.onnx (onnx, 589972 bytes, 9 tensors)

network_body._body_endoder.seq_layers.0.weight f4 [256, 53]
0	0xbd0c1d39	-0.034207556
1	0xbe8b8965	-0.2725326
2	0xbaf18a56	-0.0018428068
3	0xbd901cc0	-0.070367336
4	0x3d4c983f	0.04994988
5	0xbe2af602	-0.16695407
6	0x3db950d1	0.09048618
7	0x3d55fdd8	0.052244037
8	0xbc767661	-0.015042872
9	0x3d9bea98	0.076131046
10	0xbdcc6ab5	-0.0998129
11	0x3e5967ef	0.21231054
12	0x3e493b78	0.19651592
13	0xbdfad440	-0.12247515
14	0xbe0fa2fa	-0.14027014
15	0xbe7d1233	-0.24713974
16	0xbb5b7749	-0.0033487848
17	0x3e473c5a	0.19456616
18	0x3e6eb01a	0.23309365
19	0xbcd2000e	-0.025634792
20	0xbea79f94	-0.32738936
21	0xbe440e0c	-0.19145983
22	0xbe8fe779	-0.28106287
23	0xbd758a86	-0.05994656
24	0xbe570a16	-0.20999941
25	0xbc5a5455	-0.01332577
26	0xbd140b6f	-0.036143716
27	0xb9ffb09c	-0.00048768974
28	0x3e455392	0.19270161
29	0x3d00a1cd	0.031404305
30	0x3e546608	0.20742047
31	0x3d5bf0af	0.05369633
32	0x3e923e24	0.28563035
33	0x3e6e9c91	0.23301913
34	0x3c4dc703	0.012559655
35	0x3e39fb29	0.18162216
36	0xbd88b7a0	-0.06675649
37	0x3d109a42	0.03530336
38	0x3e5db5f8	0.21651447
39	0xbca59fd5	-0.020217815
40	0xbe0e59be	-0.13901421
41	0xbe8b7a9a	-0.27241975
42	0x3e7874ef	0.24263357
43	0xbd925871	-0.07145775
44	0xbe31d717	-0.17367207
45	0x3e08e0c9	0.13366999
46	0xbe4e2a4b	-0.20133321
47	0x3dea42d0	0.11438525
48	0x3e291b59	0.16514339
49	0x3d87542b	0.06607851
50	0x3d762ad1	0.060099427
51	0x3cfdc5fb	0.030978194
52	0x3d29f1cd	0.041490365
53	0x3e049358	0.12946832
54	0xbdc0cb49	-0.094137736
55	0x3e10e856	0.14151129
56	0x3e220c1a	0.15824929
57	0x3e3152e4	0.17316777
58	0xbdd4774a	-0.10374315
59	0xbe098c45	-0.13432415
60	0xbe07fb69	-0.13279499
61	0x3aab74f2	0.0013081117
62	0x3cc97de0	0.024596155
63	0x3e5d6fc0	0.2162466
64	0x3dab38b1	0.083604224
65	0x3d190e1f	0.037366983
66	0x3d8722f2	0.06598462
67	0x3e756c86	0.2396718
68	0xbe076da4	-0.13225418
69	0x3c006a0a	0.007837782
70	0x3e6e42b2	0.2326763
71	0xbe4d9c7d	-0.20079227
72	0x3d71a068	0.058990866
73	0x3e9215d7	0.28532287
74	0x3e0789de	0.13236186
75	0xbde54b67	-0.111960225
76	0x3d9b3178	0.07577795
77	0x3e036ec0	0.12835217
78	0x3cb7453b	0.022371879
79	0xbe8b84e0	-0.27249813
80	0x3cff1dca	0.031142134
81	0x3dc406f6	0.0957164
82	0xbda363e4	-0.07978037
83	0xbdd5fe11	-0.1044885
84	0x3e8f1127	0.27942774
85	0x3d7fd6b5	0.06246062
86	0x3daffc66	0.08593063
87	0xbe3b26b1	-0.18276478
88	0xbe17e10d	-0.14831944
89	0xbe445d39	-0.19176187
90	0xbcbf600b	-0.023361227
91	0xbe9d4b54	-0.30721533
92	0x3d9d4e73	0.076809786
93	0xbe061ab0	-0.13096118
94	0xbe046ab6	-0.12931332
95	0xbceafb41	-0.02868426
96	0x3dda9317	0.106725864
97	0x3dbdba68	0.0926407
98	0xbecbf5a2	-0.3983584
99	0x3e18be16	0.14916262
100	0xbd618310	-0.05505663
101	0x3d0c2974	0.03421922
102	0x3d86d882	0.06584264
103	0x3c352b18	0.011057638
104	0xbe177f5d	-0.14794679
105	0xbd0152d2	-0.031573124
106	0xbdefb900	-0.11705208
107	0xbd71378e	-0.05889087
108	0x3e10f4af	0.1415584
109	0x3e08af60	0.1334815
110	0x3dae7c19	0.085197635
111	0xbeb414d5	-0.35172144
112	0x3e2a6e33	0.166436
113	0xbe26ba55	-0.16282018
114	0x3cfcd46e	0.030863013
115	0xbc5cd990	-0.013479605
116	0x3da591ab	0.080844246
117	0xbe054e18	-0.13018072
118	0xbe440ccd	-0.19145508
119	0xbc2851be	-0.010273395
120	0x3da64896	0.081193134
121	0xbbc6fbc0	-0.0060724914
122	0x3d7428d1	0.059609238
123	0x3d4c44e7	0.049870398
124	0xbe349bcc	-0.17637557
125	0xbd344ab2	-0.044016548
126	0x3c774814	0.015092868
127	0xbe8a5296	-0.27016133
128	0xbd9515af	-0.072795264
129	0xbccd7ad3	-0.025082981
130	0xbb2afeba	-0.002609177
131	0x3ce2e55f	0.027697263
132	0xbbc689e8	-0.00605892
133	0x3d18dbf5	0.037319142
134	0xbe683a83	-0.2267857
135	0xbd10fffb	-0.035400372
136	0xbd8eeeb9	-0.069791265
137	0xbdede65b	-0.116162024
138	0x3c51dd5f	0.012809127
139	0x3e540270	0.20704055
140	0x3d4d199e	0.05007326
141	0x3e78499f	0.24246834
142	0xbda199b1	-0.078906424
143	0x3de48501	0.11158181
144	0x3ddb14f6	0.10697357
145	0x3f076da9	0.52901703
146	0xbe3c7f7d	-0.18408008
147	0xbd985d5f	-0.07439684
148	0xbaa370b3	-0.00124695
149	0x3e1576a0	0.14596033
150	0xbe5638ee	-0.20920154
151	0x3cf416d7	0.029796047
152	0xbc648e25	-0.0139499055
153	0xbe4da778	-0.20083416
154	0x3df0ba69	0.11754305
155	0xbe40b2c4	-0.18818194
156	0x3d8c3a68	0.068470776
157	0xbe237d4a	-0.15965763
158	0x3c422752	0.011850195
159	0xbcd22e4a	-0.025656838
160	0x3e51d5b4	0.20491678
161	0x3df15806	0.11784367
162	0xbc63ec4c	-0.013911318
163	0xbe4cc284	-0.19996077
164	0xbe0076e5	-0.12545355
165	0x3e3392d1	0.17536475
166	0xbe3ebf11	-0.18627574
167	0xbd421e3b	-0.04739211
168	0x3d1d38b7	0.038384166
169	0xbd9585d2	-0.07300915
170	0xbcf8f761	-0.030391397
171	0x3ecc9d22	0.39963633
172	0x3da1bf16	0.07897775
173	0xbbcf6643	-0.006329329
174	0xbe419c72	-0.18907335
175	0x3dc6d29d	0.0970814
176	0xbd36db29	-0.0446426
177	0x3e927737	0.2860658
178	0xbdc32c8a	-0.095299795
179	0x3c9cfa85	0.019162426
180	0x3bf49250	0.007463731
181	0xbb67dcd6	-0.0035379431
182	0x3cb72318	0.022355601
183	0x3d012d7a	0.03153751
184	0x3c04ec71	0.008113013
185	0xbdecca4e	-0.11562024
186	0xbdbfb75d	-0.09361146
187	0xbe802b67	-0.25033113
188	0xbd8082d0	-0.062749505
189	0x3e6627e1	0.2247615
190	0xbe0c5d1d	-0.13707395
191	0x3e3091b7	0.17243086
192	0x3cb80ed6	0.022468012
193	0xbdb4dffd	-0.08831785
194	0x3d42dde4	0.047574893
195	0xbcd4c82a	-0.025974352
196	0xbe0923d0	-0.13392568
197	0x3c5e1634	0.013555098
198	0x3c128ce0	0.00894472
199	0xbe3247e9	-0.17410244
200	0xbd46a214	-0.048494413
201	0xbe9ae850	-0.30255365
202	0xbdbbd5cc	-0.09171638
203	0xbdf13c09	-0.11779029
204	0xbda085c7	-0.07838016
205	0x3d7b96bb	0.061423045
206	0x3e26e575	0.16298468
207	0xbdf7ac37	-0.12093394
208	0xbca8aebc	-0.020591132
209	0xbe1c143e	-0.15242097
210	0x3e2fbc6b	0.1716172
211	0xbd973cd0	-0.07384646
212	0xbd1491c0	-0.03627181
213	0x3e26894f	0.16263317
214	0x3e65369d	0.22384115
215	0xbd6b3326	-0.057421826
216	0xbde85079	-0.11343474
217	0xbe7c9063	-0.24664454
218	0xbdbac718	-0.09120005
219	0x3e540cf3	0.20708065
220	0x3cc2fbef	0.023801772
221	0x3e0e684b	0.13906972
222	0x3d9b511b	0.07583829
223	0xbe2c9eab	-0.16857402
224	0x3d6eb66d	0.058279444
225	0xbcaa78a9	-0.020809488
226	0x3cb56c9b	0.022146514
227	0xbe138713	-0.14406995
228	0x3de0924e	0.109654054
229	0x3deb8ac5	0.115010776
230	0x3e7780c8	0.2417022
231	0xbd09798c	-0.03356318
232	0xbd3b2d31	-0.045697395
233	0xbd6fc4a6	-0.058537148
234	0xbe56c1d0	-0.20972371
235	0x3d7e740f	0.0621224
236	0xbe6473b9	-0.2230977
237	0x3e5009f2	0.20316294
238	0xbd22d626	-0.03975501
239	0xbc1d4990	-0.009600058
240	0x3cc871f6	0.024468403
241	0x3e210757	0.15725456
242	0xbd583e1b	-0.052793603
243	0xbdffaa94	-0.12483707
244	0x3dc11cd8	0.0942933
245	0xbce1fc74	-0.0275862
246	0x3d9236f9	0.071393915
247	0xbda343e0	-0.079719305
248	0xbd71db04	-0.05904676
249	0x3be5dedb	0.007015092
250	0x3e483b36	0.19553837
251	0xbda4eb04	-0.08052638
252	0x3e73b51e	0.2379956
253	0x3d438a98	0.047739595
254	0x3e8154f7	0.25260136
255	0x3dc7fa11	0.09764493

network_body._body_endoder.seq_layers.0.bias f4 [256]
0	0xbb05699c	-0.0020357138
1	0x3b0b0765	0.0021214124
2	0x3c10f665	0.0088478075
3	0x3bca6e7c	0.0061777215
4	0x3c16bf7d	0.009200928
5	0x3ba3d241	0.0049994295
6	0x3b834ca4	0.004006939
7	0x3bea99bd	0.0071594403
8	0x3c9090c0	0.017647147
9	0x3a2e4aad	0.0006648701
10	0xbc8f6945	-0.017506251
11	0xbb94a014	-0.0045356844
12	0x3bdd1a83	0.006747545
13	0xb9a24f4d	-0.00030958132
14	0x3c03603e	0.008018551
15	0xbc4926e8	-0.012277342
16	0x3bc26ce5	0.0059333914
17	0x3bb03e50	0.005378522
18	0xb9d045c7	-0.0003972484
19	0x3c3bc55c	0.011460628
20	0x3b948bfb	0.0045332885
21	0xbb7cd80d	-0.0038580925
22	0x3c0e3e06	0.00868178
23	0x3b9e6837	0.0048342007
24	0x3b916d9b	0.004438115
25	0x3c08c11f	0.008346825
26	0xbc473418	-0.012158416
27	0x3aa33692	0.0012452176
28	0xb7fb265b	-2.9939392e-05
29	0x3b219737	0.0024656781
30	0xbb32bc2f	-0.002727281
31	0x3c29a48e	0.010354174
32	0xbb1e2b70	-0.0024134777
33	0x3b783aba	0.00378768
34	0x3bad1714	0.005282292
35	0x3b49de14	0.0030802535
36	0xbbe60623	-0.0070197745
37	0x3bf58e95	0.0074938037
38	0x3b883392	0.0041565383
39	0x3ae744db	0.0017644422
40	0x3aca6204	0.0015440588
41	0xbb6baea0	-0.003596224
42	0xbc04a46f	-0.008095845
43	0x3c2f29ff	0.010691165
44	0x3bee69d4	0.0072757993
45	0x3bbac12f	0.005699299
46	0x3a915702	0.0011088552
47	0xba049dbe	-0.0005058906
48	0x3c196a60	0.009363741
49	0x3aa340f2	0.0012455268
50	0xbb07acd0	-0.002070237
51	0xbbcb14f3	-0.0061975657
52	0x3be66c32	0.007031941
53	0x3c5f2abe	0.01362103
54	0xbb6b0b74	-0.003586498
55	0xbc9baa0f	-0.019001989
56	0xba9c5c1b	-0.0011929305
57	0x3b677c21	0.003532179
58	0x361149a8	2.1649557e-06
59	0x39534ef0	0.00020151935
60	0x3bbc5429	0.0057473374
61	0x3bc233a6	0.005926567
62	0xbbdec977	-0.006798919
63	0x3c4738b2	0.012159513
64	0xbb846b7e	-0.0040411344
65	0x3c00ca9e	0.007860808
66	0xbaa43832	-0.0012528955
67	0x3c527fc0	0.012847841
68	0x3cae97b8	0.02131258
69	0x3bfe2d1b	0.007756842
70	0x3c24e2b0	0.010063812
71	0xbc5064e0	-0.012719363
72	0x3bd333eb	0.006445398
73	0xbb4da0ff	-0.0031376479
74	0xbac33f5f	-0.0014896205
75	0x3b9e7793	0.0048360317
76	0x3bdaa952	0.0066730166
77	0x3bb12e32	0.0054071182
78	0x3ba2d3c0	0.00496909
79	0xbb00dd88	-0.0019663293
80	0xbc4954fb	-0.012288327
81	0x3be8f6f6	0.007109518
82	0x3b31f9b4	0.0027156891
83	0x3bbe0b8e	0.0057997173
84	0x3b9975a1	0.004683212
85	0xb9d0e2a0	-0.000398417
86	0xbb65eb50	-0.0035082884
87	0xba1821a0	-0.00058033504
88	0x3b46ff92	0.0030364734
89	0xbbefb2f6	-0.007315035
90	0xbb0bd031	-0.0021333809
91	0x3c53a726	0.012918269
92	0x3ba148da	0.0049220147
93	0x3c0f2eb1	0.008739159
94	0xbae2f9e6	-0.0017316907
95	0xbb2655a9	-0.0025380647
96	0xb8824843	-6.212343e-05
97	0xbba8d19d	-0.005151941
98	0xbb6d34bb	-0.003619476
99	0xbc07c7e8	-0.008287407
100	0x3ba4c050	0.0050278082
101	0xbbe984fd	-0.007126449
102	0xbc006e51	-0.0078388015
103	0x38a92023	8.064534e-05
104	0x3bc94762	0.0061425427
105	0x3b91a2dc	0.004444463
106	0xba88f637	-0.0010449354
107	0x3ab09748	0.001347282
108	0x3b4975eb	0.003074045
109	0xbb4d335d	-0.0031311132
110	0xbabbd24f	-0.0014329645
111	0xbbaeba53	-0.00533227
112	0x3bb99b55	0.005664269
113	0xbb7b01dd	-0.003830067
114	0xbc22fa93	-0.009947437
115	0x3be76327	0.0070613804
116	0xb90bdd47	-0.00013338505
117	0x3c00af2a	0.007854262
118	0x3b572537	0.0032828578
119	0x3b93783d	0.0045004175
120	0xba127847	-0.0005587381
121	0xbb5ea38b	-0.003397199
122	0x3be6c25c	0.0070422124
123	0x3c9c237d	0.01905989
124	0x3b0d81f3	0.0021592348
125	0x3b17e648	0.002317803
126	0x3b968397	0.0045933235
127	0xbad5b8c7	-0.0016305678
128	0x3af48515	0.0018655384
129	0x3c4c7a66	0.012480354
130	0x3ad351fd	0.0016122457
131	0x3c1948c4	0.009355728
132	0xbbde5806	-0.0067853956
133	0x3bb9fc61	0.005675838
134	0x3c757b14	0.014982957
135	0x3b65eaa3	0.0035082481
136	0x3b8e4657	0.0043418813
137	0x3c89a0fa	0.016800392
138	0x3ba1ef48	0.0049418546
139	0x3b87e8a3	0.0041476055
140	0xbb5824b0	-0.0032980852
141	0x3ba6d9fc	0.0050919037
142	0xbc1ae611	-0.009454266
143	0x3bb2d69a	0.0054577114
144	0x3c5f499b	0.013628389
145	0x3abf6816	0.0014603164
146	0xbaf10e8a	-0.0018391174
147	0x3b13ba16	0.0022541336
148	0xba4a9a17	-0.00077286497
149	0x3b815797	0.003947209
150	0xbb7ac6c6	-0.003826545
151	0x39a9c73c	0.00032382633
152	0xbb320a6a	-0.0027166852
153	0x3c1bbf94	0.009506125
154	0x3b37e9ba	0.0028062896
155	0x3c34633a	0.011009986
156	0x3be408c9	0.006959055
157	0x3c36daa2	0.011160525
158	0xbbc65a55	-0.006053249
159	0x3bea7090	0.007154532
160	0xbaa7efe5	-0.0012812583
161	0x3c63c1ca	0.013901183
162	0x3b383ae1	0.0028111266
163	0xbbc48061	-0.0059967493
164	0xb9b8e969	-0.0003526912
165	0xb9c947b4	-0.0003839113
166	0xbb1cfa83	-0.0023953028
167	0x3aebc2dd	0.0017987151
168	0xbc07d4cc	-0.008290481
169	0xbb0420bb	-0.002016111
170	0x3b5f743d	0.0034096383
171	0xbb9d101e	-0.004793181
172	0xbba2e36c	-0.0049709585
173	0x3c168090	0.009185925
174	0x3a29f667	0.0006483555
175	0x3c63ab2e	0.013895793
176	0x3b75ad85	0.003748746
177	0x3c245d5a	0.010032022
178	0x3c0eca1a	0.008715177
179	0xbba0bfd9	-0.0049056825
180	0x3b50277f	0.0031761823
181	0x3abb92b9	0.0014310695
182	0xb8d56b47	-0.000101766134
183	0xbbb70598	-0.0055853836
184	0xbb21764e	-0.0024637165
185	0x3bbffbbc	0.0058588665
186	0xbb4bac46	-0.0031078025
187	0x3b7c134b	0.0038463648
188	0x3b50ce1e	0.0031861137
189	0x3bfc8f80	0.007707536
190	0x3a61a80c	0.000860811
191	0xbbd8bec8	-0.00661454
192	0xb8b76475	-8.7448316e-05
193	0x3c38116e	0.011234624
194	0x3abd9b2b	0.0014465799
195	0xbb26ad69	-0.002543295
196	0x3b613f31	0.003436994
197	0xbb5f786f	-0.0034098884
198	0x3c083425	0.0083132135
199	0x3ae5871c	0.0017511579
200	0xbb682a55	-0.0035425622
201	0x3aae7027	0.001330857
202	0x3c40f8f4	0.011778105
203	0x3bc21e40	0.0059240162
204	0xbbafe5fe	-0.0053679934
205	0x3bcf11f2	0.006319278
206	0xbb807da3	-0.003921227
207	0xbb79a182	-0.003809065
208	0x3c4faac5	0.012674992
209	0x3b38cc8e	0.0028198096
210	0xb9875f99	-0.00025820432
211	0x3b586b1e	0.0033022831
212	0x3b8bc95a	0.0042659463
213	0x3a85321c	0.0010162028
214	0x3b31339b	0.0027038816
215	0xbb85a3a1	-0.004078344
216	0x3b4a3965	0.0030856964
217	0x3ba42c74	0.005010182
218	0xbb655ae7	-0.003499681
219	0xbad5facf	-0.0016325357
220	0x3c1a04e0	0.009400576
221	0xbaa2505d	-0.0012383569
222	0xbb163e92	-0.0022925478
223	0xba297cb6	-0.0006465422
224	0x3becb865	0.00722413
225	0x3c10be34	0.00883441
226	0x3ad64101	0.0016346277
227	0xbc3e7b2d	-0.011626047
228	0x3aee0990	0.0018160809
229	0x3c303a11	0.010756032
230	0xba232f39	-0.0006224993
231	0x3b53d3a9	0.0032322204
232	0x3be487d6	0.0069742007
233	0x3b373301	0.0027953985
234	0x3b679fd9	0.003534308
235	0x3a3d59af	0.0007223142
236	0x3a4740dd	0.0007600913
237	0xbb6ff877	-0.0036616602
238	0x3b9c0b97	0.004762124
239	0xbbba28f3	-0.005681151
240	0xbb0d27b7	-0.0021538564
241	0xbacc91a2	-0.0015607367
242	0xbae84290	-0.0017720032
243	0x3b8287b9	0.0039834646
244	0x3bfd4b14	0.0077298973
245	0xbc612b26	-0.013743198
246	0xbbb52da6	-0.0055291234
247	0x3ae92d8f	0.0017790067
248	0x3c39391d	0.011305121
249	0x3b6c6ebf	0.0036076752
250	0xbb49e4dd	-0.003080658
251	0xbab75aa7	-0.0013988808
252	0xbb85bc05	-0.0040812516
253	0x3c685b5a	0.014181936
254	0xbc5ae870	-0.0133610815
255	0xb9723ccf	-0.00023101571

network_body._body_endoder.seq_layers.2.weight f4 [256, 256]
0	0xba045c9a	-0.0005049199
1	0x3e00421b	0.12525217
2	0x3de1a9fb	0.11018749
3	0xbdeaee9f	-0.114712946
4	0x3d320d1a	0.043469526
5	0x3d6db510	0.058034003
6	0xbd480042	-0.04882837
7	0xbd38a1b0	-0.045076072
8	0xbd8bbe42	-0.06823398
9	0x3c4ae442	0.0123835225
10	0xbc98ae14	-0.018637694
11	0xbd185b79	-0.03719661
12	0xbd018f4c	-0.0316308
13	0xbdbe4ce7	-0.09292012
14	0x3c215d7f	0.009848951
15	0xbd695107	-0.05696204
16	0xbd1f2e00	-0.03886223
17	0xbaf18bb2	-0.0018428473
18	0x3d5e7ff4	0.054321244
19	0x3d8e8480	0.06958866
20	0xbd1e6904	-0.03867437
21	0x3d777b88	0.060420543
22	0x3d981286	0.07425408
23	0xbcd424b4	-0.025896408
24	0xbb8f155b	-0.0043665594
25	0x3d3239cc	0.04351215
26	0x3d9fd7db	0.07804843
27	0x3cfce78c	0.030872129
28	0xbd3a0490	-0.045414507
29	0xbd28b403	-0.041187298
30	0xbd8d5810	-0.06901562
31	0xbdc62cd3	-0.09676518
32	0xbdb7792d	-0.08958659
33	0xbd3c6b33	-0.04600067
34	0xbd2e221f	-0.04251301
35	0x3d3c3755	0.045951206
36	0x3c885239	0.01664077
37	0xbc3efb37	-0.011656574
38	0xbd8ea6ea	-0.0696543
39	0xbda1abbf	-0.07894086
40	0xbcab078b	-0.02087762
41	0xb93ff293	-0.00018305545
42	0x3d3a4ac8	0.045481473
43	0x3d1056d5	0.03523906
44	0xbc80a62e	-0.01570424
45	0x3e0c3212	0.13690975
46	0xbbd0ba91	-0.0063698967
47	0xbdad7e7a	-0.08471389
48	0xbdb84fc0	-0.08999586
49	0xbd9a9b22	-0.075491205
50	0xbd9b3d71	-0.075800784
51	0x3c81e3ff	0.015855787
52	0xbd5bb7d1	-0.053642098
53	0xbd2da210	-0.042390883
54	0x3d05dfc2	0.032684095
55	0x3be670ae	0.0070324754
56	0x3d4f71a9	0.050645504
57	0xbd3a1ee0	-0.0454396
58	0xbdd1a39f	-0.10236286
59	0xbd9abf41	-0.0755601
60	0x3c8ab439	0.01693164
61	0x3d29ecdc	0.041485652
62	0xbd87c729	-0.06629784
63	0xbd95e228	-0.073185265
64	0xbd565478	-0.05232665
65	0xbc1aa46e	-0.009438617
66	0x3d83c551	0.064341195
67	0x3d45e3a2	0.04831279
68	0xbd4837ab	-0.048881214
69	0xbd0e6fb3	-0.034774493
70	0xbd1c69ab	-0.03818671
71	0x3b5817b4	0.0032973113
72	0xbd1b57ae	-0.037925415
73	0x3b2f9f3e	0.0026797797
74	0x3d3b9f52	0.045806237
75	0x3c3efc51	0.011656837
76	0x3b40fffc	0.0029449454
77	0xbbac2e54	-0.005254546
78	0xbdfccd47	-0.12343841
79	0xbd33b0ae	-0.043869667
80	0xbe12f49a	-0.1435112
81	0xbc8d5305	-0.0172515
82	0xbb253169	-0.0025206453
83	0xbc081697	-0.008306167
84	0x3e2b586d	0.1673295
85	0x3d46c1e0	0.048524737
86	0x3df1e5e1	0.11811424
87	0x3e1dafe7	0.15399133
88	0xbda973ac	-0.08274016
89	0x3d0b04e8	0.033940226
90	0x3c386e57	0.011256776
91	0x3cd4347a	0.025903929
92	0xbc396924	-0.011316571
93	0x3d07be99	0.033140752
94	0x3c23b224	0.0099912025
95	0xbc0390fc	-0.008030172
96	0x3e05e418	0.13075292
97	0x3cc0a310	0.023515254
98	0xbd660288	-0.056154758
99	0x3d694296	0.056948267
100	0x3d74117a	0.05958698
101	0x3d1bd5af	0.03804558
102	0x3ca2f281	0.019891025
103	0x3d7dd11f	0.06196701
104	0xbdcb7f6f	-0.099364154
105	0x3d2b32a3	0.041796338
106	0xbdf870e0	-0.12130904
107	0xbdb4ede3	-0.08834436
108	0x3dc925f7	0.09821694
109	0xbda0a423	-0.078438066
110	0x3d85bfd6	0.065307304
111	0xbd504fff	-0.05085754
112	0x3e0bd7f3	0.13656597
113	0x3db33252	0.08749832
114	0x3c88a39b	0.016679576
115	0xbc141cd7	-0.009040079
116	0x3dbdc941	0.09266902
117	0x3cb649e8	0.022252038
118	0xbd41ec1f	-0.047344323
119	0xbd109245	-0.035295743
120	0xbc1b89f1	-0.009493337
121	0x3d05ed8f	0.032697257
122	0x3d62eb75	0.05540033
123	0x3b93cefb	0.004510758
124	0xbbf2d455	-0.007410566
125	0x3cb79ece	0.022414591
126	0xbc984786	-0.018588793
127	0xbc6d6078	-0.014488332
128	0xbc468092	-0.0121156145
129	0xbcad3cd6	-0.021147173
130	0xbda44d83	-0.08022597
131	0x3d44d9a7	0.048059132
132	0xbc6751be	-0.01411861
133	0x3d487591	0.048940245
134	0xbcc61e65	-0.024184415
135	0xbdd8b5a8	-0.10581523
136	0x3e19adff	0.1500778
137	0x3ca7b74b	0.020473143
138	0x3ddd0504	0.10791972
139	0xbd8c5a4c	-0.0685316
140	0x3c155646	0.0091148075
141	0xbd0e0772	-0.03467507
142	0xbd66329a	-0.0562006
143	0xbd80c9fe	-0.06288527
144	0x3d1f1fef	0.038848814
145	0xbd122f56	-0.035689674
146	0xbdcaef26	-0.09908895
147	0xbd729163	-0.059220683
148	0x3cfe4cee	0.031042542
149	0x3b1fe758	0.0024399366
150	0x3d2f5768	0.042807966
151	0xbcd21701	-0.025645735
152	0xbcead4df	-0.028665958
153	0xbdbecb9a	-0.09316178
154	0x3d9bcb19	0.07607097
155	0x3d7bdd65	0.061490435
156	0xbd560ef1	-0.052260343
157	0xbb3ef362	-0.0029136767
158	0x3d12045d	0.035648692
159	0x3b73aa2f	0.0037180295
160	0xbdaf33e6	-0.08554821
161	0xbd52b160	-0.05143869
162	0xbd888606	-0.06666188
163	0xbd1720d2	-0.036896534
164	0x3cb087be	0.021549102
165	0xbc0a3c1a	-0.008437181
166	0x3ddbc652	0.10731186
167	0xbda430e2	-0.08017136
168	0xbd91a49c	-0.07111475
169	0x3e50ceb1	0.20391347
170	0x3d7acf11	0.06123263
171	0xbd7b6692	-0.061377116
172	0x3d14862d	0.036260772
173	0x3dafeb68	0.08589822
174	0xbdde0040	-0.108398914
175	0xbd0abbd1	-0.033870522
176	0x3dd5d0db	0.10440227
177	0x3d0e9357	0.034808483
178	0xbda9b4ac	-0.082864136
179	0x3d6d262b	0.057897728
180	0xbdb4271b	-0.08796521
181	0x3dbce1f2	0.09222783
182	0xbda475e3	-0.080302976
183	0xbd21c6ab	-0.039496105
184	0xbc6bed73	-0.014399874
185	0x3d07076e	0.03296607
186	0x3db118ee	0.08647333
187	0xbd2cd3dd	-0.042194236
188	0xbc07821c	-0.008270767
189	0xbd425592	-0.047444887
190	0xbdb9fbb5	-0.090812124
191	0xbc2ec29d	-0.010666517
192	0x3de24ba2	0.11049582
193	0xbd31b684	-0.04338695
194	0xbd22daa8	-0.039759308
195	0xbc95ddd7	-0.018294258
196	0x3c9b22bc	0.018937461
197	0x3cab36f7	0.020900233
198	0x3d4bf13d	0.04979061
199	0x3c4be35a	0.012444342
200	0xbce7c874	-0.028293826
201	0x3b8980f1	0.004196279
202	0xbd6a707d	-0.057236183
203	0x3b8c5b08	0.0042833127
204	0x3d908393	0.07056346
205	0x3d856523	0.06513431
206	0x3e00ea61	0.12589408
207	0x3cd62222	0.026139323
208	0xbcb99776	-0.02265523
209	0x3d8e292b	0.06941446
210	0xbc240433	-0.010010767
211	0xbca61347	-0.020272864
212	0xbdc52b11	-0.09627355
213	0x3ccede05	0.025252352
214	0xbd2364d0	-0.039891064
215	0x3b9a844d	0.0047154785
216	0xbd6358dc	-0.055504665
217	0x3cce2d42	0.025168065
218	0xbc0938b7	-0.008375338
219	0x3d3b62e9	0.045748625
220	0x3d38f437	0.045154776
221	0x3d81ecb6	0.06343977
222	0x3cba2934	0.022724725
223	0x3c9d4be5	0.019201228
224	0xbdb79ad7	-0.0896508
225	0x3d9c8ec2	0.076444164
226	0x3d891421	0.066932924
227	0x3d576a40	0.052591562
228	0xbd80fc41	-0.062981136
229	0xbc87bd93	-0.016569888
230	0xbe22c2db	-0.15894644
231	0x3d61fe87	0.055174377
232	0xbca5ce5e	-0.020240005
233	0x3d50c5a4	0.050969735
234	0x3d10138a	0.035174884
235	0x3c41f1ce	0.011837436
236	0xbc204612	-0.009782331
237	0xbd385725	-0.045004983
238	0x3cee9ad7	0.029126568
239	0xbc7b7213	-0.015347022
240	0x3e10a89e	0.14126822
241	0xbb036058	-0.002004644
242	0xbd924cf9	-0.071435876
243	0xbdc15a4d	-0.09441052
244	0xbd86579a	-0.065596774
245	0x3d60b2b4	0.054857925
246	0x3cd3f95b	0.025875738
247	0xbcd99589	-0.026560562
248	0x3d34ee73	0.044172715
249	0x3c4dfb77	0.012572161
250	0xbd8087ff	-0.06275939
251	0xbd3967f4	-0.045265153
252	0x3cb7ce5d	0.022437269
253	0x3d7e8ee5	0.062147994
254	0xbbe7402a	-0.0070572095
255	0x3d401f90	0.0469051

network_body._body_endoder.seq_layers.2.bias f4 [256]
0	0xbb6c5ec1	-0.003606722
1	0x3ab49bc4	0.0013779332
2	0x3bab0801	0.00521946
3	0x3b432a3f	0.002977982
4	0x3bcd524d	0.0062659145
5	0xba9f88f1	-0.0012171549
6	0xbb9a9a9a	-0.004718137
7	0x3bd407a9	0.0064706397
8	0x3b79f20e	0.003813866
9	0xbb273dee	-0.002551909
10	0xbacaa7ff	-0.0015461444
11	0xbb27c5bb	-0.0025600034
12	0xbaa48815	-0.0012552763
13	0xbb7dd216	-0.0038729957
14	0x39517a9c	0.00019977469
15	0x3b93a01c	0.0045051705
16	0x3b29c9d0	0.0025907643
17	0x3a9df18e	0.0012050138
18	0x3beb6415	0.0071835616
19	0x3bedda0b	0.0072586588
20	0x3a936b88	0.0011247257
21	0xbb0c7941	-0.0021434578
22	0x3aa876c0	0.0012852773
23	0x3beab9a1	0.007163242
24	0xba6cf6d4	-0.0009039466
25	0x3900697a	0.00012246324
26	0x3b8a9e6c	0.004230311
27	0x3c0ed7c5	0.008718436
28	0xbaa822a2	-0.0012827704
29	0xbb5b4823	-0.0033459745
30	0x3b3ea45d	0.0029089667
31	0xbbae6371	-0.005321913
32	0xba4835fe	-0.000763744
33	0xbacf00c3	-0.0015793074
34	0x3b9357d6	0.004496555
35	0xbb4b1405	-0.0030987274
36	0x38302dfe	4.2004503e-05
37	0x3ac874a8	0.0015293555
38	0xbbc0a522	-0.0058790604
39	0x3b2efa4d	0.0026699484
40	0x39b6e745	0.00034886054
41	0xbb9f61d2	-0.004863956
42	0xb9fd2b60	-0.00048288237
43	0xbacd286a	-0.0015652303
44	0x3bc8623e	0.006115227
45	0x3ba4b702	0.005026699
46	0xbb3e9425	-0.002908
47	0x3a40993a	0.0007347051
48	0x39d1bdc7	0.00040004982
49	0x3bfe06b8	0.007752266
50	0x3b5bb9ac	0.0033527417
51	0xbb767bc5	-0.0037610393
52	0xbb129664	-0.0022367472
53	0xbb8caa21	-0.004292742
54	0xba513688	-0.0007980843
55	0x3b9bc858	0.0047541074
56	0x3b63ccfc	0.0034759631
57	0xba8ce728	-0.0010750042
58	0xbafd30f0	-0.0019316953
59	0xba261fd2	-0.0006337139
60	0x3b5c1e33	0.0033587336
61	0xb927f479	-0.00016017434
62	0x3b01016b	0.0019684683
63	0x3b8ca130	0.004291676
64	0x3c06ce88	0.008227952
65	0xbac836d0	-0.0015275124
66	0xbafa9b53	-0.0019119777
67	0xbab18556	-0.0013543766
68	0x3af14626	0.0018407747
69	0xbb8c2e1e	-0.0042779585
70	0x3b7fd905	0.0039039266
71	0xbbb8c847	-0.0056391093
72	0x3bc2f297	0.005949329
73	0xb9d28bb9	-0.00040158423
74	0x3c0ba900	0.008524179
75	0x3c084e05	0.008319383
76	0xbb865095	-0.0040989616
77	0x3b8cc76c	0.004296234
78	0x3a074d3d	0.0005161351
79	0x3b3ab00b	0.0028486277
80	0x3b95c0ef	0.0045701186
81	0xbba7f0bb	-0.005125133
82	0x3b3ee1de	0.0029126327
83	0xbbb5ec8d	-0.0055518807
84	0x3c13d0a5	0.009021913
85	0xbb1038d3	-0.0022006526
86	0x3bc104d8	0.00589047
87	0xbbbf729a	-0.005842519
88	0x3a981e9e	0.0011605804
89	0x3bd9933d	0.0066398666
90	0x3b6c8142	0.0036087786
91	0xb83264cc	-4.253238e-05
92	0xba98bcb9	-0.0011652923
93	0x3b0d9db0	0.0021608882
94	0x3bc33279	0.0059569445
95	0xbb88d7a6	-0.004176098
96	0x3ad04783	0.0015890453
97	0xbb1b8444	-0.002372996
98	0xbb1f385e	-0.0024295072
99	0x3bbb9deb	0.0057256124
100	0x3b05592e	0.0020347345
101	0xbafd135a	-0.0019308135
102	0x3aede9ab	0.0018151304
103	0xbb822b90	-0.003972478
104	0xbb8870c8	-0.004163835
105	0x3b201efd	0.0024432533
106	0xb7dceb34	-2.6335569e-05
107	0x3b05899a	0.0020376206
108	0x3bc4aa98	0.0060017817
109	0x3b261cbd	0.002534672
110	0xbb127faf	-0.0022353937
111	0x3b0e68cb	0.0021729942
112	0xbbabb3d4	-0.005239943
113	0xbab4b7e9	-0.001378772
114	0xbb19f673	-0.0023492842
115	0x3b64f7d9	0.0034937768
116	0xbb355b8d	-0.0027672977
117	0x3b46c459	0.0030329435
118	0x3bc6942a	0.006060143
119	0x391b2128	0.00014794304
120	0x3bba9f56	0.005695264
121	0xb934d319	-0.00017244778
122	0xbb74c036	-0.0037346012
123	0xbbb04c82	-0.005380214
124	0xbaf6ba75	-0.0018823879
125	0x3ad900c4	0.0016556014
126	0x3b90c90d	0.0044184984
127	0xbb8ba955	-0.0042621293
128	0xb8bb6c50	-8.9370296e-05
129	0x3ad8b363	0.0016532954
130	0xb7892b06	-1.6351707e-05
131	0x3a43abe3	0.0007464273
132	0x3b907cb5	0.0044093975
133	0x3a98813b	0.0011635193
134	0x3b0ac3a9	0.0021173751
135	0xbb2c936f	-0.0026332994
136	0x3a76f256	0.0009420266
137	0x3b9af1a5	0.0047285133
138	0x3b698d1c	0.0035637086
139	0x3b24d705	0.0025152576
140	0x3a4b5c15	0.0007757557
141	0x3c00dae3	0.007864687
142	0x3ad441eb	0.0016193961
143	0x3ae099a4	0.0017135632
144	0x3ba76341	0.0051082675
145	0xba42609f	-0.00074149104
146	0x3b53e10b	0.003233018
147	0xbabf782d	-0.0014607959
148	0xbb15327a	-0.0022765682
149	0x3b3f2e49	0.0029171875
150	0xb9da7cba	-0.0004167313
151	0xbba20f95	-0.004945705
152	0x3bcc1017	0.006227504
153	0x3b946420	0.0045285374
154	0xb9ec482a	-0.00045067194
155	0x3c11b647	0.008893556
156	0x3babe4f5	0.0052457997
157	0x3bc905a8	0.0061347075
158	0xb996cbbd	-0.00028762026
159	0xbad9eaa6	-0.0016625717
160	0x3a5ffe8a	0.0008544704
161	0x3b00a8a0	0.0019631758
162	0x3b53cc70	0.00323179
163	0x3bd49ab8	0.0064881705
164	0x3b12b41a	0.002238518
165	0xbb48d340	-0.0030643493
166	0xba6883fd	-0.00088697654
167	0x3bbbfbcf	0.005736805
168	0x3c10eae8	0.0088450685
169	0xbb9fcc1e	-0.0048766276
170	0x3c05fe3d	0.008178291
171	0x3b7aaf22	0.003825136
172	0x3a910e8c	0.0011066957
173	0x3aed9646	0.001812645
174	0xbbabecd4	-0.005246738
175	0xbbd392bb	-0.0064567006
176	0x3ad41954	0.0016181865
177	0xbbd5fc53	-0.0065303235
178	0x3bab0590	0.005219169
179	0xbac3545c	-0.001490246
180	0xba89f5f2	-0.0010525568
181	0x3bd275ae	0.00642272
182	0xbb4ca183	-0.0031224198
183	0x3bb21139	0.005434182
184	0x3b55a0ce	0.0032597068
185	0x3ad07010	0.0015902538
186	0x3c09fbd4	0.008421857
187	0xb9f149ed	-0.0004602218
188	0x3ad36066	0.0016126751
189	0x3b1bb532	0.0023759124
190	0x3b8ebb70	0.0043558404
191	0x3ae192a1	0.0017209837
192	0x3aceacb8	0.0015768027
193	0x399857f4	0.0002905723
194	0x3b814161	0.0039445614
195	0x3b9ea134	0.0048409943
196	0xba748174	-0.00093271513
197	0xba5f2f1e	-0.0008513796
198	0x3a47de18	0.0007624342
199	0x3b628929	0.0034566617
200	0xbb9e0f7c	-0.004823623
201	0xba9f1970	-0.0012138318
202	0xbba38ae0	-0.0049909204
203	0xbbac8d50	-0.005265869
204	0xbbae423d	-0.005317955
205	0xba46a15a	-0.0007577144
206	0xbb802e7b	-0.003911791
207	0xb99a05de	-0.0002937754
208	0xbb5c8d6c	-0.003365363
209	0x3b39668c	0.0028289882
210	0xbb0c14c7	-0.002137469
211	0xbb88a107	-0.0041695866
212	0x3ae5bb59	0.0017527147
213	0xbb2d2e4e	-0.0026425305
214	0xbb0fcae0	-0.0021940991
215	0x3ad49a14	0.0016220235
216	0x3bafd4a6	0.005365926
217	0x3b36713d	0.0027838491
218	0x3b569ec9	0.0032748452
219	0x3a8fe42e	0.0010978037
220	0x3aba9c37	0.001423723
221	0x3ba19374	0.004930908
222	0x3bee5db1	0.0072743525
223	0xbb7764b8	-0.0037749242
224	0xbb2f44d7	-0.0026743913
225	0x3ad3f02b	0.0016169598
226	0x39346a73	0.00017205793
227	0xbbcd865d	-0.006272121
228	0x3c11528a	0.0088697765
229	0xbc0063c3	-0.007836285
230	0xbbc3a0ef	-0.0059701125
231	0x3a839b60	0.0010040812
232	0xbb605afa	-0.0034233914
233	0xbad9e10a	-0.0016622853
234	0xbbc0ef90	-0.005887933
235	0xba78c70b	-0.0009490109
236	0xbbc4ff9d	-0.006011917
237	0xbba6ca09	-0.0050900024
238	0x3bfdf437	0.00775006
239	0x3b0461ef	0.0020199975
240	0xbabf9b89	-0.0014618497
241	0x3b0f89ba	0.002190216
242	0x3b5d0c42	0.003372923
243	0x3ba42637	0.0050094384
244	0x3b936d5f	0.004499122
245	0xba87e867	-0.0010368944
246	0xb9b2aff3	-0.00034081898
247	0x3b518aea	0.0031973668
248	0xbb9ca69f	-0.004780605
249	0x3beaf15e	0.0071698865
250	0x3c1a5810	0.00942041
251	0x3a893039	0.0010466642
252	0x3bf4d0a2	0.00747116
253	0xbc163680	-0.009168267
254	0xba5142a9	-0.00079826504
255	0x3af8b329	0.0018974292

network_body._body_endoder.seq_layers.4.weight f4 [256, 256]
0	0xbd57a776	-0.052649938
1	0xbdf3ad1e	-0.11898254
2	0xbd1bb0eb	-0.03801052
3	0x3d0dec31	0.034649078
4	0xbc9c5446	-0.019083153
5	0xbd958b4f	-0.07301962
6	0xbd9323d2	-0.071845666
7	0xbc9688ad	-0.018375719
8	0x3cd72ff8	0.02626799
9	0xbda84403	-0.08216097
10	0x3b3e27a2	0.0029015322
11	0xbace4a8b	-0.0015738768
12	0xbd4d5eae	-0.05013912
13	0x3dd0eb2e	0.10201107
14	0xbd20a20b	-0.039217036
15	0x3cb87328	0.022515848
16	0x3dd97fec	0.10620102
17	0x3d3d5156	0.046220146
18	0xba43a8b7	-0.00074638
19	0x3d923974	0.071398646
20	0x3c582a26	0.013193643
21	0xbe09ad6b	-0.1344506
22	0x3b93942c	0.0045037474
23	0xbd68feda	-0.05688367
24	0xbde02bce	-0.10945855
25	0xbcfab170	-0.030602187
26	0x3d89a593	0.06721034
27	0xbca5065b	-0.020144632
28	0x3d9f8bad	0.07790313
29	0x3dbeaa87	0.09309869
30	0x3da53452	0.0806662
31	0xbd3c9efb	-0.046050053
32	0x3d99bfaf	0.07507264
33	0xbceecd75	-0.029150704
34	0x3c04376b	0.008069853
35	0xbca0737e	-0.019586321
36	0xbbe40379	-0.006958422
37	0x3d40b298	0.04704532
38	0x3d0d9945	0.034569997
39	0x3df6a42c	0.12043032
40	0xbd9aabc4	-0.07552293
41	0x3dfc95b0	0.12333238
42	0xba5b6c59	-0.0008370332
43	0xbd1c2dee	-0.03812974
44	0xbdcbc2ba	-0.099492505
45	0xbdc6a928	-0.09700233
46	0x3e1fbe12	0.1559985
47	0xbd5eaaf2	-0.054362245
48	0xbd64436e	-0.05572837
49	0xbd99ccb8	-0.0750975
50	0x3bf08bb1	0.0073408713
51	0x3db5ca54	0.08876482
52	0x3c3214e1	0.010869236
53	0xbd82e30e	-0.063909635
54	0x3b2a5988	0.0025993306
55	0xbdc76319	-0.09735698
56	0xbe10d7a5	-0.14144762
57	0xbc99f8d0	-0.0187954
58	0xbd23750f	-0.039906558
59	0x3c9c5141	0.019081714
60	0x3daa51d8	0.08316392
61	0x3df582b6	0.11987822
62	0xbd57eee6	-0.052718066
63	0xbc2a5e6a	-0.010398487
64	0xbc440436	-0.011963895
65	0x3d56c9f3	0.052438688
66	0x3da8048d	0.08203993
67	0xbdd99ef0	-0.10626018
68	0x3e0feb0d	0.14054509
69	0xbb080f68	-0.0020761136
70	0xbd0a18f2	-0.033715196
71	0xbd7185cb	-0.058965486
72	0x3d826cda	0.06368418
73	0xbd8a9bcf	-0.067679994
74	0xbd9ae791	-0.07563699
75	0xbda1c89e	-0.07899593
76	0xbd78d307	-0.060748126
77	0x3cb5adc5	0.022177586
78	0x3d91b4be	0.07114552
79	0xbd08fd61	-0.033444766
80	0xbdb23cfd	-0.08703039
81	0x3ca40c26	0.020025324
82	0x3d84fca0	0.06493497
83	0x3c8f7347	0.017511023
84	0xbc86e42e	-0.016466226
85	0xbd457352	-0.04820568
86	0xbdb88aaf	-0.09010827
87	0xbdf263df	-0.11835455
88	0xb900eea4	-0.00012295932
89	0x3da6c4bf	0.08142995
90	0xbce3031b	-0.027711442
91	0x3dda1283	0.10648062
92	0xbd0669a6	-0.032815598
93	0xbcb149f5	-0.02164171
94	0x3d3d7433	0.046253394
95	0xbb5f4101	-0.0034065845
96	0xbd170e98	-0.036879152
97	0x3d6d0804	0.057868972
98	0x3b846207	0.004040006
99	0xbd105d18	-0.03524503
100	0xbb8b5a20	-0.004252687
101	0xbd1d61b2	-0.038423248
102	0x3c84070f	0.016116647
103	0x3d530edd	0.051527847
104	0xbd5b044e	-0.053470902
105	0xbc31b90d	-0.010847342
106	0xbdce9c9b	-0.10088464
107	0xbdaf6d9c	-0.08565828
108	0x3cbfa900	0.023396015
109	0xb8a0ed4b	-7.673594e-05
110	0xbd517d66	-0.05114498
111	0xbbcc1c9c	-0.0062289964
112	0x3bf2ca67	0.007409382
113	0x3cc2ffe2	0.023803655
114	0xbd8ade45	-0.06780676
115	0x3db2718d	0.08713064
116	0x3d4b00b5	0.04956122
117	0x3c3e95b1	0.011632369
118	0xbcd24f33	-0.02567253
119	0xbd9c30bc	-0.07626483
120	0x3d1d0ab9	0.038340304
121	0x3d196393	0.037448477
122	0x3ccab523	0.024744576
123	0xbdaff85f	-0.08592295
124	0x3d8ca6ff	0.068677895
125	0x3dbe5900	0.09294319
126	0xbd3b8380	-0.045779705
127	0x3de126b7	0.109937124
128	0xbcf6eb88	-0.030141607
129	0x3c97a02e	0.018508997
130	0xbc900ca9	-0.017584162
131	0x3d3109c5	0.043222208
132	0xbd067d63	-0.03283442
133	0x3cb932e3	0.022607272
134	0x3cb82f39	0.022483455
135	0x3db878d6	0.090074226
136	0xbd5d5d91	-0.05404431
137	0xbb81192a	-0.0039397674
138	0x3d9ce336	0.076605245
139	0xbd647789	-0.05577806
140	0x3dea76fc	0.11448476
141	0xbbe1640d	-0.006878382
142	0xbde8fbff	-0.113761894
143	0x3cd18e30	0.025580496
144	0xbd808de3	-0.06277063
145	0x3d240c39	0.04005072
146	0xbd80b1f5	-0.062839426
147	0xbc1a80d3	-0.009430128
148	0xbd213c14	-0.039363936
149	0xbd707c85	-0.0587125
150	0x3bf45e37	0.0074575203
151	0x3d8c8858	0.06861943
152	0x3d82d33e	0.063879475
153	0xbd6c813f	-0.057740446
154	0x3d27ab1d	0.04093467
155	0xbd7e7ab7	-0.06212875
156	0x3dcef42e	0.10105167
157	0xbc9de98b	-0.019276401
158	0xbc206f53	-0.009792167
159	0xbd21ffe7	-0.039550688
160	0x3dc78d6a	0.097437695
161	0x3d5a7883	0.053337585
162	0x3df38259	0.11890096
163	0x3dca3161	0.098726995
164	0x3c1fe59f	0.009759336
165	0xbd1575c2	-0.036489256
166	0xbc0e57aa	-0.008687893
167	0x3c6989ff	0.014254092
168	0xbdb4b18d	-0.088229276
169	0x3da23804	0.079208404
170	0x3dd2451f	0.1026709
171	0xbd759c09	-0.05996326
172	0xbe488bcb	-0.19584577
173	0x3da98ca9	0.08278782
174	0x3c24e810	0.010065094
175	0xbda25a37	-0.07927363
176	0x3c0b2e96	0.008494994
177	0x3af47c24	0.001865272
178	0x3c4842d9	0.012222969
179	0x3de05345	0.109533824
180	0x3cf2d877	0.029644234
181	0xbd1a84b7	-0.037724223
182	0x3cbd2c99	0.023092555
183	0x3d036bae	0.032085113
184	0x3dcab3c9	0.098975725
185	0xbcf8f4bf	-0.030390142
186	0x3d88788a	0.06663616
187	0x39c505f9	0.00037579218
188	0xbcf6fb5d	-0.030149156
189	0xbd96dcda	-0.07366343
190	0xbddab70f	-0.10679447
191	0x3c003512	0.007825153
192	0xbd0c2e9f	-0.03422415
193	0x3d752b4e	0.05985575
194	0x3d285212	0.041093893
195	0x3d23fad3	0.040034126
196	0xbd165755	-0.03670438
197	0xba55aecf	-0.00081513537
198	0xbd6967c6	-0.05698373
199	0x3dca8b97	0.09889906
200	0x3d9665a3	0.073436044
201	0xbc94fc40	-0.018186688
202	0x3bc2a157	0.0059396434
203	0x3b6fab1f	0.0036570502
204	0xbd259937	-0.04042932
205	0x3d057d2b	0.032590073
206	0xbd249541	-0.040181402
207	0xbd4ac1e0	-0.0495013
208	0xbd339084	-0.043838993
209	0xbdab7fe9	-0.08374006
210	0xbda28e7f	-0.07937335
211	0xbcfa1898	-0.030529305
212	0x3a2ecb85	0.00066679
213	0x3bda78df	0.006667241
214	0x3db6330c	0.08896455
215	0xbce082f0	-0.027406186
216	0x3dba88a8	0.09108096
217	0x3d4e482a	0.05036179
218	0xbde1d600	-0.110271454
219	0x3d471c5a	0.048611023
220	0xbde9eb5e	-0.11421846
221	0xbdc908b3	-0.09816112
222	0xbd7c5f20	-0.061614156
223	0x3d05627f	0.032564636
224	0x3db6f120	0.0893271
225	0xbd6811ed	-0.05665772
226	0x3ddeac0d	0.1087266
227	0x3d2362f5	0.039889295
228	0xbc92d53c	-0.017923944
229	0x3db1ee0a	0.086879805
230	0xbc4f5ed4	-0.012656886
231	0x3d011a51	0.031519238
232	0x3d956c98	0.07296103
233	0x3d438e7d	0.04774331
234	0xbd572713	-0.0525275
235	0xbd1810c9	-0.037125383
236	0x3d569e15	0.052396853
237	0x3e13ace9	0.14421429
238	0x3e12b0ee	0.14325306
239	0x3dea9034	0.11453286
240	0x3bfd6f13	0.0077341883
241	0xbc5c5f79	-0.013450497
242	0xbd8e166c	-0.069378704
243	0x3d94cef5	0.072660364
244	0xbd2b5dfe	-0.041837685
245	0xbd5d3c22	-0.054012425
246	0xbd4b9c60	-0.049709678
247	0x3d3faa83	0.046793472
248	0xbc496e3d	-0.012294349
249	0xbcf869f5	-0.030323962
250	0xbd21192f	-0.039330658
251	0x3d987684	0.0744448
252	0x3d7deb22	0.06199182
253	0xbdbb7f58	-0.09155148
254	0x3d08d46e	0.033405714
255	0x3d227f4e	0.03967219

network_body._body_endoder.seq_layers.4.bias f4 [256]
0	0xbad33eaa	-0.0016116698
1	0x3b40577e	0.0029349024
2	0x3ad87da4	0.0016516936
3	0x3b25dd57	0.002530893
4	0xba67e615	-0.00088462356
5	0x3bc36e5e	0.0059640845
6	0xbac6924c	-0.0015149801
7	0x3b8cc912	0.0042964304
8	0x39460cb8	0.0001888749
9	0x3be037c1	0.006842584
10	0x3b23900e	0.002495769
11	0x3b65bbc3	0.0035054542
12	0x3a6511d9	0.0008738316
13	0x39b36dce	0.0003422335
14	0xbb0f1ce9	-0.00218373
15	0x3b43fdf4	0.0029906007
16	0x39ec664d	0.00045089648
17	0x3bc8d0a3	0.006128387
18	0x3bd8a465	0.006611394
19	0xbbbfb886	-0.0058508543
20	0xb98f5047	-0.00027334897
21	0xbb2c769a	-0.002631581
22	0x3bbd9323	0.0057853623
23	0xba7616fc	-0.000938758
24	0xb7c23ce6	-2.315496e-05
25	0x398d04b4	0.0002689712
26	0xba07c97a	-0.00051798637
27	0x3afce3b7	0.0019293939
28	0x3b646d59	0.0034855215
29	0xbb8d069b	-0.004303766
30	0x3bdf6e60	0.0068185776
31	0x3b82173f	0.0039700563
32	0xba830264	-0.0009995219
33	0x3b848edb	0.00404535
34	0x3b1eb828	0.0024218652
35	0xbbf294bb	-0.007402984
36	0x3a82f075	0.0009989875
37	0xbba24d29	-0.004953046
38	0xba14bd8f	-0.00056739984
39	0x3ba1b8b4	0.0049353484
40	0x3a922e0a	0.0011152637
41	0xbb73a194	-0.0037175165
42	0x3b0dc0ec	0.0021629883
43	0x389aa154	7.373342e-05
44	0x3bd801d1	0.0065920134
45	0x3b7a4946	0.0038190647
46	0xbb54f0f2	-0.0032492247
47	0x3b99f1fe	0.004698037
48	0xbbaac9ea	-0.0052120583
49	0xb93f0bc5	-0.00018219564
50	0x3a8dd7ed	0.0010821797
51	0x3bdab695	0.0066745975
52	0xbb06b328	-0.0020553563
53	0x3bc4517a	0.005991158
54	0xba0b94b0	-0.00053245854
55	0xbb650211	-0.0034943859
56	0x3bd44e61	0.00647907
57	0x39803a70	0.00024457602
58	0x3b0e97f1	0.0021758045
59	0x3ac58c50	0.0015071724
60	0x3a811532	0.0009848236
61	0x3a064f32	0.00051234954
62	0xbb7380d1	-0.0037155638
63	0x3aacde47	0.0013188802
64	0x3b7df16c	0.0038748635
65	0x3c079cae	0.008277101
66	0x3b9cd848	0.004786525
67	0xbb88004d	-0.0041504265
68	0xbb1c3a0c	-0.002383831
69	0x3b638cd2	0.0034721387
70	0x3b9a8c89	0.00471646
71	0x3b5cdc33	0.0033700585
72	0x3b24873f	0.0025105027
73	0x3a5d7e85	0.0008449334
74	0xbb23144a	-0.002488392
75	0xba55eda2	-0.0008160715
76	0x39909bfd	0.0002758204
77	0x3be17aac	0.0068810787
78	0x3b166518	0.002294844
79	0xbb36afe7	-0.0027875842
80	0x3affe716	0.0019523825
81	0xbb8236dd	-0.0039738254
82	0xba8b25cb	-0.0010616122
83	0x3b43aefb	0.0029858935
84	0xbb819beb	-0.0039553544
85	0xba39ac03	-0.00070828217
86	0x3b63a1e2	0.003473394
87	0xba2d2e98	-0.0006606369
88	0xbb6233ea	-0.0034515806
89	0x3b9bce9f	0.0047548558
90	0x3bbd3ad6	0.005774836
91	0xbbc0ac31	-0.005879902
92	0xbb0b4b30	-0.0021254532
93	0xbb6ff3bd	-0.0036613785
94	0x3b16e2a0	0.0023023263
95	0x3981d9fb	0.00024767205
96	0xb9f5f7ae	-0.00046914577
97	0xbb8e128b	-0.0043357066
98	0xbad5a75e	-0.001630049
99	0xbb9859ec	-0.0046493914
100	0x3b42f53e	0.0029748227
101	0xba81e859	-0.0009911164
102	0x38e0aecf	0.00010713713
103	0xbb56474d	-0.0032696307
104	0x3b9ec910	0.004845746
105	0x3b8f3426	0.0043702303
106	0xbab470c5	-0.0013766518
107	0xbb1a3183	-0.0023528046
108	0xbb384af3	-0.0028120845
109	0x3b0566a8	0.0020355377
110	0xbb9ce0f9	-0.004787561
111	0x3b08b6cf	0.0020860916
112	0x3baa3482	0.0051942477
113	0xbb904e79	-0.004403886
114	0xba84bf48	-0.0010127807
115	0xba7273b7	-0.000924881
116	0x39068404	0.00012828415
117	0x3a5ab420	0.0008342881
118	0x3a910f95	0.0011067266
119	0x3ad2cc47	0.0016082608
120	0x3aaf052f	0.0013352985
121	0xbb00adf5	-0.0019634936
122	0x393eabf8	0.00018183875
123	0xbb314981	-0.0027051868
124	0xb7d0960c	-2.4865403e-05
125	0xbafba29b	-0.001919824
126	0x3b85a89a	0.0040789368
127	0x3b3367a6	0.0027375012
128	0xbb7d065b	-0.0038608524
129	0x3bab5f1d	0.0052298442
130	0xba18d52a	-0.0005830104
131	0x3b4c2a24	0.0031153047
132	0x3a78d024	0.00094914646
133	0x3bb68226	0.005569714
134	0xbb020ad4	-0.001984288
135	0xba401f81	-0.0007328913
136	0xbb153721	-0.0022768455
137	0xbad987ba	-0.0016596236
138	0xbb2ea095	-0.0026646007
139	0xbb8e09bc	-0.0043346565
140	0xbaa09c6a	-0.0012253646
141	0xba9510bd	-0.0011372786
142	0x3bbcb1af	0.005758486
143	0xba68a4ad	-0.0008874636
144	0xba23324a	-0.000622545
145	0xbae155c8	-0.0017191702
146	0x3ab4db82	0.0013798329
147	0x3b83bd5d	0.0040203766
148	0xba558baf	-0.00081461197
149	0x3bb895ef	0.005633108
150	0x3b518d8e	0.0031975242
151	0x3b22561f	0.002477057
152	0xbb57c52c	-0.003292392
153	0xbb9ffcb1	-0.004882418
154	0x3a8d2ed5	0.0010771403
155	0x3a1997a2	0.0005859082
156	0xba1b394d	-0.0005921319
157	0xbbb75da0	-0.0055958778
158	0xbb93af8f	-0.004507012
159	0x3baa4fd1	0.005197503
160	0x3b7c2738	0.0038475525
161	0xbbd86b54	-0.0066045914
162	0x3bb9262f	0.005650304
163	0x3b347fcf	0.0027542
164	0xba95840b	-0.001140715
165	0xbb3474ab	-0.002753536
166	0xba5ea56e	-0.0008493279
167	0x3aeda460	0.0018130653
168	0xbac41eb1	-0.001496276
169	0xba2046e1	-0.00061140774
170	0xbb10f2e4	-0.002211743
171	0xba6d1ee3	-0.0009045435
172	0x3bc60c5d	0.0060439543
173	0x39bfba80	0.00036569312
174	0xbb941970	-0.004519634
175	0x3b824dd8	0.003976565
176	0xba3f9f1d	-0.00073097815
177	0x3b9172fc	0.004438756
178	0x3b1f590e	0.0024314555
179	0xbb2178f2	-0.002463874
180	0xbb25e380	-0.0025312603
181	0x3beedbd7	0.0072893905
182	0x3b7a8ccb	0.0038230892
183	0xbb253eb0	-0.0025214367
184	0x3beb21c6	0.007175657
185	0xba8db3ba	-0.0010811009
186	0xbaf52f70	-0.0018706154
187	0xbb23480a	-0.0024914765
188	0xba8fc49a	-0.0010968626
189	0xbb94e8ae	-0.004544339
190	0x38e912be	0.00011113797
191	0xb743af68	-1.1663746e-05
192	0xbba19044	-0.004930528
193	0x3b15bcbe	0.0022848095
194	0x3b7b1cb7	0.0038316676
195	0x389730e6	7.209349e-05
196	0xba8f54c9	-0.0010935302
197	0xbb59ec44	-0.0033252398
198	0xba8564f5	-0.0010177182
199	0x3bd43981	0.0064765816
200	0xb9e50a89	-0.00043686133
201	0x3bcd0fef	0.006258003
202	0xbaab498d	-0.0013068184
203	0xba561fd1	-0.0008168193
204	0x3ada81bf	0.0016670747
205	0xba7e16e5	-0.00096927426
206	0x3b2989a3	0.0025869391
207	0xbb95d112	-0.0045720423
208	0xba5c437a	-0.0008402389
209	0xbac7a07b	-0.0015230322
210	0xbb1a49b6	-0.002354247
211	0x3b85242b	0.0040631494
212	0x3ba3c155	0.004997412
213	0x3bec7c5f	0.0072169746
214	0xbad8bfd1	-0.0016536658
215	0xbb0925a3	-0.0020926974
216	0x3bc7c0f6	0.006096001
217	0xbb53294a	-0.0032220655
218	0xb9d78aa1	-0.00041111282
219	0x3a1ef9d0	0.00060644466
220	0xba906982	-0.0011017772
221	0x3adde00a	0.0016927731
222	0x3bf135cd	0.00736115
223	0x3ae977ce	0.0017812194
224	0x3b36fc30	0.0027921312
225	0xba65606f	-0.00087500265
226	0xbb47c386	-0.0030481531
227	0x3ac4362e	0.001496976
228	0x3b6fe49d	0.003660477
229	0x3abbfdb7	0.0014342581
230	0x3b8752b7	0.0041297334
231	0x3be4e5a4	0.006985383
232	0xbbb80a7b	-0.0056164837
233	0x3a7761fa	0.0009436902
234	0x3acc1da2	0.0015572796
235	0xbaaec8cf	-0.0013334992
236	0x3b29a42d	0.002588521
237	0x3b106949	0.002203541
238	0x3ba4f349	0.0050338847
239	0x3b0f0d1a	0.0021827877
240	0x3b67f005	0.0035390866
241	0x3b14f2f5	0.0022727821
242	0x3a038bad	0.0005018067
243	0x38b564f8	8.6495595e-05
244	0x3b7e8385	0.0038835716
245	0x377a8906	1.4933064e-05
246	0x3a3f9ece	0.00073097355
247	0x3b269911	0.0025420825
248	0x3b638f01	0.0034722688
249	0xba77e8ae	-0.0009456974
250	0x3bcdd072	0.006280952
251	0xbba015ca	-0.00488541
252	0xb9e9d49c	-0.0004459963
253	0xbb3d678c	-0.002890083
254	0xba26cb52	-0.00063626945
255	0xbb117b68	-0.00221988

action_model._continuous_distribution.log_sigma f4 [1, 5]
0	0xbca1977c	-0.019725554
1	0xbba7bbd2	-0.0051188255
2	0x3bb6ec86	0.005582395
3	0xbbfd1100	-0.007722974
4	0x3bae0fde	0.00531195

action_model._continuous_distribution.mu.weight f4 [5, 256]
0	0xbbdde46b	-0.0067716143
1	0xbaf5746e	-0.0018726715
2	0xbc09d969	-0.008413651
3	0x3c823fc3	0.015899545
4	0xbb89d367	-0.0042061093
5	0xbc73e947	-0.014887161
6	0xbba417f3	-0.005007738
7	0xbc9e6fac	-0.019340359
8	0x3c8c61ca	0.017136473
9	0xbd030624	-0.031988278
10	0xbcc9c785	-0.024631271
11	0xbc5f4d8f	-0.013629331
12	0x38b9c8ae	8.858867e-05
13	0x3b19ac92	0.0023448807
14	0x3cc55585	0.02408863
15	0xbb4d1591	-0.0031293372
16	0xbb36773f	-0.0027842072
17	0xbcdb5722	-0.026774947
18	0xbc2aefed	-0.010433179
19	0x3d076c62	0.033062346
20	0xbb30308d	-0.0026884407
21	0x3c5879e1	0.013212652
22	0xbc73f78f	-0.014890566
23	0x3ce57591	0.028010162
24	0xbc1ec496	-0.009690424
25	0x3ac8d751	0.0015322958
26	0xbc25edfb	-0.01012754
27	0xbc778c7f	-0.0151091805
28	0xbbe706ee	-0.0070503866
29	0xba8b6470	-0.0010634791
30	0xbd00c15f	-0.031434413
31	0xbc905f79	-0.01762365
32	0xbc87c9be	-0.01657569
33	0xbc5b677c	-0.013391372
34	0x3cba0209	0.022706049
35	0x3c157dc1	0.00912422
36	0x3b0c4b05	0.002140702
37	0x3c4b7c84	0.012419824
38	0x3adb27da	0.0016720251
39	0xbc4221de	-0.011848895
40	0xbaf1a0dd	-0.0018434782
41	0x3c2186e7	0.009858823
42	0xbb234222	-0.0024911244
43	0x3c21d80c	0.00987817
44	0xbc62eac6	-0.01384992
45	0xbb8fb708	-0.0043858327
46	0x3be48199	0.006973457
47	0xbc87a1bf	-0.016556619
48	0x3d16b182	0.03679038
49	0x3abf077e	0.0014574376
50	0xbb643cee	-0.0034826356
51	0xbcca90a7	-0.024727179
52	0x3a6740e3	0.00088216196
53	0xbd17abe2	-0.037029155
54	0x3cae0d17	0.021246476
55	0x3c404915	0.011736174
56	0xbcf50f17	-0.029914422
57	0x3c6cc20b	0.01445056
58	0x3ba01d66	0.004886317
59	0x3c135022	0.008991273
60	0xbb643468	-0.0034821276
61	0x3b677e91	0.0035323242
62	0xbc3aa229	-0.011391201
63	0xbcaec24d	-0.021332884
64	0xbcaf05cd	-0.02136507
65	0xbc9e3eb7	-0.019317014
66	0xbc08fb4a	-0.008360693
67	0x3ca27eba	0.019835819
68	0x3c7ed20c	0.015553009
69	0xbccf2c16	-0.025289577
70	0xba0dc072	-0.00054074
71	0xbbe73486	-0.007055822
72	0xbce669a0	-0.028126538
73	0x3d28fcb1	0.04125661
74	0x3d12745c	0.0357555
75	0x3cb2133f	0.021737693
76	0x3a91b064	0.001111519
77	0xbcf870bb	-0.030327192
78	0x3ce5ed6a	0.02806731
79	0x3c9f4066	0.019439887
80	0x3c28cf44	0.010303322
81	0x3c956326	0.018235754
82	0x3c59ae6c	0.013286214
83	0xbbe802df	-0.0070804204
84	0x3cad5384	0.021157987
85	0x3ab22854	0.0013592341
86	0xbc8f6d76	-0.01750825
87	0xbb82cbd7	-0.0039915848
88	0x3d03cb89	0.032176528
89	0x3ae9489a	0.0017798126
90	0xbd234e22	-0.039869435
91	0x3cbd2819	0.02309041
92	0x3c02d4c1	0.007985295
93	0x3bbff619	0.0058581945
94	0x3b6d7f8d	0.0036239356
95	0xbc644ffa	-0.0139350835
96	0xbc92e251	-0.017930182
97	0x3c49eea0	0.012324959
98	0x3c8706e1	0.016482772
99	0xbbb489a2	-0.005509571
100	0xbc5c05f8	-0.013429157
101	0xbc2d678e	-0.010583771
102	0xbcae2612	-0.021258388
103	0x3c206b9f	0.009791284
104	0xbca9cd16	-0.020727675
105	0xbc529c19	-0.012854599
106	0x3c2137ee	0.009839995
107	0xbabe8b6b	-0.0014537399
108	0x3cfa5dbb	0.030562272
109	0xbbb59ccb	-0.005542373
110	0x3c5365e6	0.012902712
111	0xbc5fe7a4	-0.013666067
112	0xbb56cbd0	-0.003277529
113	0x3c82b239	0.015954124
114	0x3c2c6ada	0.010523522
115	0xbb8a4d1e	-0.004220619
116	0xbc2e4c03	-0.01063824
117	0xba944d90	-0.0011314619
118	0xbc2df3da	-0.010617221
119	0x3caa19eb	0.020764312
120	0x393ba518	0.00017895212
121	0x3c5b1664	0.013372038
122	0xbc83d462	-0.016092483
123	0xbac30906	-0.0014880009
124	0xbcf073c0	-0.029352069
125	0x3a57f2cf	0.00082377804
126	0xbca80c45	-0.020513663
127	0x3c9ce0fe	0.019150253
128	0xbc132fdb	-0.008983578
129	0xbbb7d2c0	-0.00560984
130	0x3b6fada9	0.0036572015
131	0xbcd980a8	-0.026550606
132	0xbce6fc23	-0.0281964
133	0xbc96e3a1	-0.018419089
134	0xbc0f7562	-0.008756014
135	0x3c19d253	0.009388524
136	0xbbaf9a77	-0.00535899
137	0xbc098998	-0.008394621
138	0x3b30e021	0.002698906
139	0x3cad3658	0.021144077
140	0x3cbaedcd	0.02281847
141	0xbc227727	-0.009916103
142	0xbcfd145d	-0.030893499
143	0x3b0b64cd	0.0021269799
144	0x3c8a20c9	0.016861336
145	0x3d074b53	0.03303082
146	0x3cc60d95	0.024176398
147	0xbcbeb6e7	-0.023280574
148	0xbae54eca	-0.0017494794
149	0x3c02cb1e	0.007982997
150	0xbd0d9cf9	-0.03457353
151	0xbac51ce5	-0.0015038518
152	0x3c9d4566	0.01919813
153	0x3d059c49	0.03261975
154	0xbbc64383	-0.0060505285
155	0xbca9db02	-0.020734314
156	0xbb047896	-0.0020213476
157	0x3bf89973	0.007586652
158	0x3c2d21f9	0.010567182
159	0xbc63df7d	-0.013908264
160	0xbc293ba8	-0.010329165
161	0x3b8c0686	0.0042732386
162	0xbd277ca2	-0.040890343
163	0xbc7e9ea7	-0.015540755
164	0xbb540362	-0.003235065
165	0x3cd92ce7	0.026510669
166	0x3cf3461d	0.029696519
167	0xbc0ec04a	-0.0087128375
168	0xbb5886aa	-0.003303925
169	0x3c31ba65	0.010847663
170	0x3c08a004	0.008338932
171	0xbcd1dff5	-0.025619486
172	0xbcc5813c	-0.024109475
173	0x3c95a5b1	0.018267484
174	0xbc3e031d	-0.011597422
175	0xbbda8268	-0.0066683777
176	0x3c67817a	0.014129991
177	0xbc9e9e55	-0.019362608
178	0xbafa4218	-0.0019093184
179	0x3d06da3e	0.032922976
180	0x3d05f342	0.03270269
181	0xbd0668cc	-0.032814786
182	0xbc07e933	-0.008295345
183	0x3cc717b5	0.024303297
184	0xbc8040e2	-0.015655939
185	0x3ab0797a	0.0013463937
186	0x3cc9a319	0.024613904
187	0x3c8bd090	0.017067224
188	0x3c1ef405	0.0097017335
189	0xbb4621b3	-0.0030232489
190	0x3cc10100	0.023560047
191	0x3b4ccb65	0.0031249162
192	0xbab50d5b	-0.0013813184
193	0x3951c269	0.00020004217
194	0xbcd17c54	-0.02557198
195	0x3d046f2a	0.032332577
196	0xbbcc04be	-0.0062261513
197	0x3d0a520b	0.03376965
198	0x3b8b0f24	0.0042437483
199	0xbcae0215	-0.021241227
200	0xbc14de2a	-0.009086171
201	0xbc7140a6	-0.014724886
202	0xbaf2fddd	-0.0018538792
203	0x3c0fa124	0.008766446
204	0x3acbba81	0.0015543253
205	0x3c0315cf	0.008000805
206	0xbbe27bd8	-0.006911736
207	0x3ce5acab	0.028036436
208	0xbacfdfa3	-0.0015859496
209	0x3c51cea2	0.012805613
210	0x3bf51114	0.0074788425
211	0xbbe4224f	-0.0069620977
212	0xbc97f2b9	-0.018548356
213	0xbc14554d	-0.00905354
214	0x3ca56a93	0.02019242
215	0x3cb023cc	0.021501444
216	0x3c0e1dbe	0.008674083
217	0x3a604080	0.0008554533
218	0xbacf91c7	-0.0015836292
219	0x3c65ab64	0.0140179135
220	0x3ca390a1	0.019966425
221	0x3c4c3290	0.012463227
222	0xbbeafbee	-0.0071711456
223	0x3be6c387	0.0070423516
224	0x3be6bcbb	0.0070415414
225	0x3ae713fb	0.0017629856
226	0x3bfec8bd	0.0077753947
227	0xbc6b6172	-0.0143664945
228	0xbca38aae	-0.019963589
229	0xbb560f97	-0.00326631
230	0xbc7e9a93	-0.015539783
231	0xbd184553	-0.037175488
232	0x3d180f75	0.037124116
233	0x3ba549de	0.005044206
234	0x3c9db675	0.019252041
235	0x3ca17d96	0.019713204
236	0x3bcece8e	0.0063112443
237	0xbc4a7e39	-0.012359195
238	0xbcdbdfef	-0.026840178
239	0xbcb52fb9	-0.022117482
240	0xbc305742	-0.010762991
241	0xbcc3755c	-0.023859672
242	0x3cb1a065	0.021682927
243	0x3bee7d3a	0.0072781118
244	0xbb31eb48	-0.0027148295
245	0x3bfbbcfa	0.00768244
246	0x3be1b667	0.006888199
247	0x3c1840fe	0.009292839
248	0xbc8f7bf2	-0.017515156
249	0xbb1efac0	-0.0024258345
250	0x3b316ab9	0.0027071668
251	0x3c46d719	0.012136244
252	0xbb4c9a7a	-0.0031220005
253	0xbb655633	-0.0034994006
254	0xbc482807	-0.0122165745
255	0xbb863dc3	-0.004096718

action_model._continuous_distribution.mu.bias f4 [5]
0	0xbbf0b938	-0.0073462985
1	0xb9a388dd	-0.00031191754
2	0x3a4dc3fa	0.0007849332
3	0xbb566eb1	-0.0032719786
4	0xbb510ca8	-0.0031898413
