results/NearSingularity01/NearSingularity/NearSingularity-28344.onnx (onnx, 589972 bytes, 9 tensors)

network_body._body_endoder.seq_layers.0.weight f4 [256, 53]
-0.030987073 0.13134906 -0.13737224 -0.15779465 0.033565532 0.057135325 0.15358251 0.16105871
-0.020277578 0.11138739 0.14132895 -0.35860267 -0.317728 0.18728018 -0.14319536 -0.065160654
-0.08231477 -0.11222216 0.02178213 0.22932047 0.20539789 0.1253268 -0.3517934 -0.02360053
0.2115194 -0.10188596 0.10756844 0.029094232 0.17510255 -0.03976682 0.023270916 0.08961633
0.00710444 -0.039861444 -0.23951966 0.12306024 -0.22124714 -0.047326893 0.19648556 -0.07000611
-0.15981077 0.11468295 0.087845586 -0.12765993 -0.08141469 0.033713322 0.15577881 0.053928055
0.20329292 -0.05181265 -0.114865735 0.015008288 0.020674445 0.18075058 -0.035856474 -0.16894585
-0.098558806 0.26861754 -0.012329321 0.11933123 0.020817496 -0.07679387 0.23014425 0.18940371
-0.40845805 -0.2500433 -0.089709535 0.07304158 0.25304693 -0.019700984 0.15315966 0.012547424
0.078437574 0.049064275 0.16606878 -0.19136897 0.016454283 -0.108472355 -0.12443324 0.14620443
0.16141327 -0.019610805 0.09638232 0.07107699 0.040858775 -0.118081816 -0.058106028 0.0887001
0.11083716 0.19631343 -0.09357195 -0.12506823 -0.2462717 0.0069657476 0.12091337 0.16757564
0.11631164 -0.2313933 0.17014036 -0.13013616 0.057199158 0.131166 -0.10509692 0.06069254
-0.024710061 0.13077569 -0.1377488 -0.16101886 -0.016055034 0.0065968814 0.07075081 -0.10811226
0.33155808 -0.14634645 0.12592864 -0.19140704 -0.17624827 -0.023431301 -0.16556811 0.042089634
0.08227906 -0.10921671 -0.18636858 0.1167709 0.24436213 0.039955005 -0.11232942 -0.09634363
0.1332073 -0.16472058 0.015187674 0.11436563 0.008663775 0.048128493 0.033232503 0.07191142
0.010994531 0.010372019 -0.027711077 -0.22046217 0.17409123 -0.103764415 0.066900685 0.08692252
-0.00845766 -0.0656656 0.1505987 0.012768073 -0.055688374 -0.0005621475 -0.16527991 -0.10921573
0.12310738 -0.07893589 0.11974424 0.001346297 -0.22745119 0.0034500253 -0.08370178 0.21154103
-0.13076226 -0.02631343 -0.093791 0.012178751 0.12888707 0.37876195 0.19089909 0.06668623
-0.26846108 -0.15383893 -0.122825116 0.14779602 -0.13541938 -0.06911377 0.12184032 -0.012790768
0.15551898 -0.05126063 0.2811442 -0.10291498 -0.06707308 0.21945785 -0.15608783 0.074439816
0.039356403 -0.16035616 -0.014215261 0.32459736 -0.120273694 0.066815525 0.15934789 0.02825105
0.019588737 -0.16916503 -0.17606087 0.17712161 -0.1542615 -0.012861122 -0.2108794 0.12522379
-0.22294024 0.0051788655 -0.11579794 -0.25891754 -0.023371696 0.11330511 0.032824405 0.080140814
0.044637613 -0.17402858 -0.0205209 0.034332726 -0.021166548 0.26654574 -0.054808527 0.076233275
0.17189392 -0.17858796 0.050966647 0.08208486 -0.20931672 -0.084221035 -0.09388505 0.15567367
0.3327668 -0.12520784 -0.024877982 -0.12190656 0.20254973 -0.13077828 0.1113422 -0.053264502
0.036792193 0.043613076 0.29279566 -0.04178303 0.15769613 -0.10163752 0.09152407 -0.14103284
0.097808376 -0.027261317 0.14200735 0.04645867 0.09372963 0.12084822 0.14919135 0.073886395
0.09906267 0.066987164 -0.13623245 0.18954358 0.019774431 -0.003717509 -0.03695703 -0.11640477
00000000: 9ad8 fdbc 5e80 063e 4fab 0cbe ec94 21be
00000010: 037c 093d bb06 6a3d bc44 1d3e 93ec 243e
00000020: 2a1d a6bc 121f e43d 89b8 103e c59a b7be
00000030: 3fad a2be 60c6 3f3e cea1 12be f372 85bd
00000040: a594 a8bd bbd4 e5bd 7070 b23c fcd2 6a3e
00000050: d353 523e ab55 003e 441e b4be e655 c1bc
00000060: 8b98 583e 96a9 d0bd d84c dc3d 0757 ee3c
00000070: 154e 333e 88e2 22bd a6a2 be3c c488 b73d
00000080: 5dcc e83b c145 23bd a444 75be 0207 fc3d
00000090: 9c8e 62be d8d9 41bd 8333 493e 5d5f 8fbd
000000a0: 6fa5 23be e5de ea3d 63e8 b33d 49b9 02be
000000b0: bfbc a6bd fb16 0a3d 7b84 1f3e aae3 5c3d
000000c0: 052c 503e 8039 54bd ba3e ebbd 53e5 753c
000000d0: 745d a93c ae16 393e 3dde 12bd 2400 2dbe
000000e0: 33d9 c9bd 3d88 893e ec00 4abc ef63 f43d
000000f0: 7489 aa3c 1b46 9dbd efaa 6b3e 0cf3 413e
00000100: 6a21 d1be ad05 80be a2b9 b7bd d396 953d
00000110: 5e8f 813e f563 a1bc e3d5 1c3e b693 4d3c
00000120: e1a3 a03d 9ff7 483d ef0d 2a3e 3af6 43be
00000130: 22cb 863c c126 debd dbd6 febd 9db6 153e
00000140: 8549 253e d7a6 a0bc 1864 c53d d090 913d
00000150: 885b 273d e1d4 f1bd 9600 6ebd 66a8 b53d
00000160: 98fe e23d 6306 493e a7a2 bfbd e311 00be
00000170: a62e 7cbe ed40 e43b 6ea1 f73d f398 2b3e
00000180: cc34 ee3d 5ef2 6cbe 4639 2e3e 6a42 05be
00000190: aa49 6a3d 6150 063e 0e3d d7bd be98 783d
000001a0: c16c cabc 10ea 053e 050e 0dbe 21e2 24be
000001b0: d985 83bc a72a d83b cde5 903d f669 ddbd
000001c0: fbc1 a93e d8db 15be 70f3 003e 3500 44be
000001d0: 6d7a 34be 00f3 bfbc b08a 29be 2e66 2c3d
000001e0: ec81 a83d 03ad dfbd 68d7 3ebe 9525 ef3d
000001f0: 113a 7a3e dca7 233d f80c e6bd cf4f c5bd
00000200: 7f67 083e 83ac 28be b9d5 783c 8738 ea3d
00000210: 82f2 0d3c 6222 453d ce1e 083d 4b46 933d
00000220: 6822 343c 67ef 293c 5702 e3bc d6c0 61be
00000230: f944 323e 7082 d4bd 3a03 893d 6f04 b23d
00000240: ff91 0abc b07b 86bd 8c36 1a3e 2e31 513c
00000250: 7e19 64bd 155d 13ba 233f 29be 7fac dfbd
00000260: b91f fc3d 24a9 a1bd 783c f53d 3b76 b03a
00000270: f7e8 68be d219 623b d76b abbd 369e 583e
00000280: 8be6 05be 438f d7bc 7f15 c0bd 6289 473c
00000290: f9fa 033e 16ed c13e 0d7b 433e ca92 883d
000002a0: bb73 89be f487 1dbe bc8b fbbd d757 173e
000002b0: 61ab 0abe 858b 8dbd 6b87 f93d 5f90 51bc
000002c0: 5e40 1f3e abf6 51bd 22f2 8f3e 17c5 d2bd
000002d0: 9c5d 89bd 8fb9 603e 7dd5 1fbe e773 983d
000002e0: 2e34 213d 6834 24be 20e7 68bc a031 a63e
000002f0: 0e52 f6bd 94d6 883d 182c 233e bf6e e73c
00000300: 8f78 a03c 9939 2dbe 4d49 34be 5e5f 353e
00000310: baf6 1dbe 75b7 52bc c5f0 57be aa3a 003e
00000320: 724a 64be 79b3 a93b 7827 edbd d790 84be
00000330: 0076 bfbc 820c e83d e272 063d de20 a43d
00000340: eed5 363d 8c34 32be 721b a8bc 79a0 0c3d
00000350: 7865 adbc af78 883e e87e 60bd 3120 9c3d
00000360: f604 303e c3df 36be 67c2 503d 1b1c a83d
00000370: 1f57 56be 147c acbd ce46 c0bd eb68 1f3e
00000380: 6960 aa3e 7c36 00be e9cc cbbc 26aa f9bd
00000390: 3269 4f3e beea 05be 6107 e43d e12b 5abd
000003a0: 69b3 163d a0a3 323d 50e9 953e af24 2bbd
000003b0: 187b 213e 5527 d0bd f970 bb3d ea6a 10be
000003c0: c24f c83d 2053 dfbc 606a 113e 724b 3e3d
000003d0: 52f5 bf3d 467f f73d 9ec5 183e c051 973d
000003e0: 5ee1 ca3d 9130 893d 8580 0bbe b617 423e
000003f0: fdfd a13c 74a1 73bb 4160 17bd a065 eebd

network_body._body_endoder.seq_layers.0.bias f4 [256]
-0.00042106464 0.0011173063 -0.0017441285 0.0120468745 0.003656619 0.012212389 0.0010538427 0.0004222731
-0.008198988 0.0039224653 -0.0055771954 0.011381231 0.00087348773 0.014593429 0.0068483637 0.004476689
-0.0060036015 -0.0019564333 -0.0025553757 0.0038768002 0.008650591 -0.0025643618 0.004987452 0.0028477018
0.005988211 0.0021166569 -0.012742761 0.0075140675 0.017862525 -0.014504526 0.005600953 0.004653075
0.0017729361 -0.010249396 0.0016165621 0.011632418 0.01244875 0.012306424 -0.010810585 0.008314668
0.0024750142 0.0013890284 -0.0016141139 0.003068559 6.427715e-05 0.0044790395 0.003126367 0.007262339
-0.0073128478 -0.0019549632 0.013061973 0.0044080373 0.0044100615 0.017195567 0.00078570825 0.013049025
0.00062430964 0.009339027 0.0047019674 -0.0021782266 0.010540804 0.005837858 0.007324863 -0.009657367
-0.0026009246 -0.0045564873 0.0010191851 0.014368776 -0.0045201466 0.0038895798 -0.0018392191 -0.0021243766
0.00029113624 0.003407655 0.0086678555 0.010283928 -0.005299489 0.0037388732 0.018492786 0.0025798187
-0.005744817 0.01755436 0.0022427586 -0.0016000675 -0.009352078 0.0134475585 0.003898949 -0.005857643
0.003888109 -0.0049942434 0.002301805 0.004289122 -0.0038413736 -0.0051024854 0.014656963 0.011559042
0.010203456 0.0008596554 0.0076239584 0.0010837105 0.024681984 -0.0054646023 0.0023630627 0.011787087
-0.010073995 -0.001471085 -0.0051859226 0.004449859 0.0039594364 0.008697151 -0.0017644606 0.0023737855
0.00056424475 -0.0011706502 -0.006730858 0.010350491 0.009215216 -0.0032591505 0.0036007978 -0.009993068
-0.00079231267 0.010724307 0.00014984707 0.015690308 0.005676741 -0.013718421 0.009305813 -0.0032423895
0.0057554306 0.010763131 0.012113794 0.0020513947 0.004044271 -0.00059195695 -0.0020067412 0.010227336
-0.0065303994 -8.298474e-05 0.0030839283 -0.009471781 0.0017635574 0.001528274 -0.0007328368 0.0071396404
0.00091131835 0.0039290814 0.0051546707 0.0027511863 0.0066427113 0.008817378 0.004847337 0.014564016
-0.00884331 0.0016446087 0.006622688 0.0016478648 0.016935533 0.0048426837 -0.0041910387 0.004156077
-0.006052917 0.015862444 0.0024385895 0.0064075873 0.00045943173 -0.0030485562 0.017505238 -0.00444543
0.0044775847 0.0033740175 0.0006007612 0.004085069 0.005973502 0.013343677 0.0002322463 -0.0048802765
-0.00011351778 0.008328416 0.011173179 0.0029283455 -0.0072779288 -0.0046483786 -0.008054197 0.0048505194
0.013234163 -0.0014758626 0.0063934387 0.008055673 0.008232722 -0.0039237924 0.015233949 0.0034357707
-0.0023576487 -0.014480651 0.0038660057 -0.008425803 -0.002890696 0.015725452 0.007991622 0.0051418175
0.010047646 0.021162432 -0.00783306 -0.0025902018 -0.013675512 0.010773074 0.0028544955 -0.00050254044
-0.0024611966 0.012824727 0.0022699581 -0.002875413 -0.0058601913 0.012737088 0.0008698209 0.016573457
0.00017512076 0.003997539 0.010314666 -0.007542948 -0.0051104105 -0.007490699 0.008161953 0.0010707494
-0.009475751 0.0018152666 -0.0035476468 0.006076056 0.008165937 -0.005801926 -0.007398877 0.012286681
-0.013949937 0.0019287128 0.0035898841 -0.0042783576 0.0035148356 -0.0005043937 0.0055788606 0.0073534246
-0.0066684484 0.009048387 0.014777758 0.0038366255 0.016420169 0.00070045126 0.013802109 0.0014229971
0.007119857 0.0020319317 -0.0019054245 -0.00097134983 0.012093242 0.004473301 -0.004106969 0.0063114655
00000000: 57c2 dcb9 9472 923a 3e9b e4ba 4160 453c
00000010: e3a3 6f3b 7916 483c 1821 8a3a 8964 dd39
00000020: 0c55 06bc 0688 803b e8c0 b6bb 5878 3a3c
00000030: c5fa 643a 4719 6f3c 3d68 e03b 30b1 923b
00000040: dcb9 c4bb 8137 00bb 1778 27bb ea11 7e3b
00000050: 35bb 0d3c da0e 28bb c86d a33b 82a0 3a3b
00000060: c138 c43b 9cb7 0a3b 03c7 50bc 9138 f63b
00000070: 6e54 923c 64a4 6dbc 3388 b73b d278 983b
00000080: dd61 e83a 15ed 27bc d3e2 d33a e695 3e3c
00000090: d8f5 4b3c e2a0 493c e11e 31bc 3f3a 083c
000000a0: d933 223b 0f10 b63a ad90 d3ba e119 493b
000000b0: 88cc 8638 e8c4 923b bce3 4c3b eaf8 ed3b
000000c0: 9da0 efbb d71e 00bb e301 563c 4c71 903b
000000d0: 4782 903b b8dd 8c3c fdf7 4d3a 94cb 553c
000000e0: b6a8 233a b802 193c f612 9a3b 94c0 0ebb
000000f0: 56b3 2c3c 814b bf3b 6805 f03b ef39 1ebc
00000100: 4674 2abb 964e 95bb 2d96 853a 046b 6b3c
00000110: bd1d 94bb 52e8 7e3b f411 f1ba 2039 0bbb
00000120: a5a3 9839 f752 5f3b 9f03 0e3c ec7d 283c
00000130: 56a7 adbb e207 753b 2f7e 973c 2d12 293b
00000140: 053f bcbb 29ce 8f3c 3ffb 123b 5bb9 d1ba
00000150: 7539 19bc 2653 5c3c 8285 7f3b 79f1 bfbb
00000160: a5cf 7e3b c0a6 a3bb e1d9 163b c38b 8c3b
00000170: 8ebf 7bbb c032 a7bb c223 703c 2362 3d3c
00000180: 652c 273c 7f5a 613a 66d2 f93b 4a0b 8e3a
00000190: df31 ca3c 6810 b3bb 9ddd 1a3b a01e 413c
000001a0: 660d 25bc 6cd1 c0ba acee a9bb 1fd0 913b
000001b0: 29be 813b 7f7e 0e3c 7945 e7ba 8391 1b3b
000001c0: d3e9 133a 8170 99ba 878e dcbb 1b95 293c
000001d0: 6bfb 163c 7997 55bb 5dfb 6b3b f7b9 23bc
000001e0: 34b3 4fba 01b5 2f3c 4420 1d39 f688 803c
000001f0: f403 ba3b 3ac3 60bc 6977 183c 457e 54bb
00000200: 0d98 bc3b d857 303c ef78 463c b170 063b
00000210: ce85 843b 8f2d 1bba 8883 03bb 8e90 273c
00000220: f6fc d5bb 1808 aeb8 bb1b 4a3b 872f 1bbc
00000230: 2b27 e73a 5e50 c83a d81b 40ba a5f3 e93b
00000240: 8ae5 6e3a 86bf 803b 83e8 a83b 3f4d 343b
00000250: 1aab d93b c476 103c 69d6 9e3b e99d 6e3c
00000260: 88e3 10bc e98f d73a 2203 d93b 2bfd d73a
00000270: 63bc 8a3c 60af 9e3b fb54 89bb b32f 883b
00000280: 8c57 c6bb f5f1 813c bed0 1f3b bdf6 d13b
00000290: e2df f039 49ca 47bb 2567 8f3c f8aa 91bb
000002a0: b4b8 923b 9f1e 5d3b 677c 1d3a 0bdc 853b
000002b0: 5ebd c33b 709f 5a3c 2487 7339 baea 9fbb
000002c0: 6510 eeb8 e973 083c b60f 373c 7ce9 3f3b
000002d0: b17b eebb 6d51 98bb c0f5 03bc 1bf1 9e3b
000002e0: 1ad4 583c bb71 c1ba 0d80 d13b f1fb 033c
000002f0: 8ae2 063c 2893 80bb d097 793c ab2a 613b
00000300: c882 1abb 4140 6dbc d05c 7d3b 610c 0abc
00000310: d571 3dbb aad2 803c 4bef 023c b17c a83b
00000320: e29e 243c d65c ad3c 3c56 00bc 60c0 29bb
00000330: 410f 60bc 8c81 303c 7d12 3b3b ebbc 03ba
00000340: 074c 21bb ce1e 523c 94c3 143b 6d71 3cbb
00000350: d906 c0bb 38af 503c b104 643a 0fc5 873c
00000360: 9fa0 3739 cafd 823b d8fe 283c d52a f7bb
00000370: 3b75 a7bb 8a74 f5bb b6b9 053c 6358 8c3a
00000380: 2e40 1bbc 3dee ed3a a37f 68bb a719 c73b
00000390: 6cca 053c 151e bebb 4772 f2bb 134e 493c
000003a0: 478e 64bc ddcc fc3a 4344 6b3b 7731 8cbb
000003b0: 2859 663b 4a39 04ba e0ce b63b fff4 f03b
000003c0: 0083 dabb b03f 143c 691e 723c e56f 7b3b
000003d0: 9783 863c 7d9e 373a 3e22 623c dc83 ba3a
000003e0: b04d e93b 282a 053b 70bf f9ba 2fa2 7eba
000003f0: bc22 463c c594 923b c193 86bb 69d0 ce3b

network_body._body_endoder.seq_layers.2.weight f4 [256, 256]
-0.08403269 -0.09150621 0.11299518 0.07420707 0.16425505 0.014957751 -0.12428476 0.02123664
-0.11411869 0.0597134 0.025362711 0.044324245 -0.03756943 0.03515108 -0.0431066 0.0012566802
-0.060618065 -0.021022614 0.19089134 0.0792277 -0.023506388 -0.001332298 -0.003652081 0.0036459235
0.0046782624 0.039828077 -0.0018607129 0.010969102 0.046888985 0.012199338 0.07313895 -0.075833246
-0.0117909135 0.06555835 -0.041509118 0.10800455 -0.054588303 -0.06223687 0.033506427 0.06359643
0.027490942 -0.016901558 -0.032513198 -0.040245466 0.003710638 0.025255164 0.08032654 0.004519046
-0.024980461 -0.06022196 0.06125576 -0.041675527 0.05693254 0.015993487 0.13358866 0.05558309
-0.056994367 0.12219623 -0.09013653 -0.031102551 0.14159892 0.03460713 0.017027665 -0.07028577
-0.039763674 0.0724726 -0.0586374 -0.041641694 -0.09329505 0.008499419 -0.013070906 0.047225885
-0.01629979 0.006633528 0.07984877 0.01061897 -0.014119029 0.09097299 0.050635472 0.049673337
0.02662802 0.043027245 0.048679102 -0.052083075 -0.039675366 0.00048140608 0.003304679 0.09832104
0.07071049 0.07383388 0.06538706 0.09233184 -0.05434995 0.06368109 -0.05239569 0.066839814
-0.092311114 0.07143751 -0.01759962 0.03212743 0.031265423 0.11314941 -0.072611414 -0.05999998
-0.03842494 -0.016922848 0.05069152 0.06573271 -0.010031409 -0.017697616 0.026226211 -0.07569712
-0.08965542 0.029057043 -0.12589762 0.0019852652 0.08581761 0.13115507 -0.0041723973 -0.028916782
-0.0008542995 0.097335055 0.12970729 0.054432288 -0.07799415 -0.0561122 -0.04898322 0.008525234
-0.07672653 -0.0590608 0.105678074 0.047754254 0.069338806 -0.058773007 -0.14606313 0.041767996
-0.039122596 -0.0077643883 0.037789553 0.021354409 -0.07711526 0.045616496 0.110841565 -0.094146356
-0.0405809 0.07544887 -0.02396554 0.018507501 0.021141015 -0.003001636 0.022559928 -0.018929716
0.037250377 0.12527344 -0.060638256 0.058533464 0.006263554 0.020513613 0.04362774 0.030525643
-0.044865243 -0.039932564 0.086045146 -0.088499494 -0.062981494 0.0734118 -0.124081075 0.100645006
0.044039972 0.09883284 0.18460147 -0.016989583 -0.17465399 -0.09184867 -0.12464326 -0.01930457
0.04557151 0.07225201 -0.015304683 0.06165603 -0.10648896 -0.0014396627 0.05019298 -0.033023845
-0.04367351 -0.09821715 0.04714831 -0.08441019 0.023237422 0.104086846 0.09030168 0.07284699
-0.05772311 -0.043992054 0.020370694 -0.015024258 -0.10422921 0.061006825 0.067020275 0.037096497
0.050762117 0.14271463 -0.03900396 0.09010957 0.025877656 -0.0044021765 -0.0017753771 0.029923182
-0.10841988 0.01486048 -0.06633963 0.0060651894 -0.067096256 0.05517533 -0.12929538 0.028207248
0.08424184 -0.048711874 -0.042586617 -0.0047087003 -0.12712035 0.05076862 0.077296875 0.0031424714
0.03393464 -0.05054265 -0.010963181 0.0015537473 0.1130464 -0.07989523 0.047241565 -0.07138805
-0.015402561 0.0040319613 0.106063746 0.11604063 -0.049050283 0.023868347 0.045205858 0.015316895
0.11036712 -0.020905804 0.058315814 0.011874701 0.037589513 -0.019153161 0.021925254 -0.008478533
-0.022979608 -0.053979315 0.01640135 0.032342996 -0.0464014 0.10112401 -0.007819956 -0.1363883
00000000: 5519 acbd 9c67 bbbd 046a e73d e0f9 973d
00000010: 7a32 283e 5b11 753c 0289 febd 76f8 ad3c
00000020: 0fb7 e9bd 0a96 743d 76c5 cf3c 578d 353d
00000030: 67e2 19bd 94fa 0f3d 8c90 30bd 31b7 a43a
00000040: a64a 78bd 9e37 acbc 0579 433e 2242 a23d
00000050: 7890 c0bc 81a0 aeba c057 6fbb 72f0 6e3b
00000060: 1c4c 993b c422 233d 2ae3 f3ba c0b7 333c
00000070: aa0e 403d bbdf 473c e0c9 953d 764e 9bbd
00000080: ad2e 41bc 7543 863d 7705 2abd 7d31 dd3d
00000090: fc97 5fbd 17ec 7ebd 093e 093d d83e 823d
000000a0: af34 e13c 2375 8abc 8f2c 05bd 6ed8 24bd
000000b0: 2d2e 733b ebe3 ce3c 3e82 a43d 8114 943b
000000c0: d3a3 ccbc 4dab 76bd 52e7 7a3d f5b3 2abd
000000d0: 1832 693d c604 833c 77cb 083e 18ab 633d
000000e0: ed72 69bd 0442 fa3d 8099 b8bd c7ca febc
000000f0: 4fff 103e 35c0 0d3d 9a7d 8b3c fcf1 8fbd
00000100: 3cdf 22bd 846c 943d c52d 70bd 7b90 2abd
00000110: 7a11 bfbd 2641 0b3c 5a27 56bc ee6f 413d
00000120: 2387 85bc 115e d93b c087 a33d 30fb 2d3c
00000130: 8053 67bc 0c50 ba3d 2467 4f3d 4576 4b3d
00000140: 0123 da3c 563d 303d bd63 473d 1055 55bd
00000150: a382 22bd 3b65 fc39 5093 583b 8b5c c93d
00000160: a9d0 903d 3836 973d a7e9 853d 7a18 bd3d
00000170: 0e9e 5ebd 3b6b 823d dd9c 56bd 50e3 883d
00000180: 9c0d bdbd d44d 923d 142d 90bc 0d98 033d
00000190: 2c10 003d e1ba e73d 4bb5 94bd 8ac2 75bd
000001a0: 7863 1dbd c9a1 8abc e9a1 4f3d df9e 863d
000001b0: c75a 24bc 97fa 90bc 5ad8 d63c 1707 9bbd
000001c0: 439d b7bd 0909 ee3c 4eeb 00be 391b 023b
000001d0: 25c1 af3d 844d 063e 9bb8 88bb e3e2 ecbc
000001e0: 12f3 5fba 9a57 c73d fdd1 043e 64f4 5e3d
000001f0: 66bb 9fbd e8d5 65bd a1a2 48bd 6cad 0b3c
00000200: cd22 9dbd bde9 71bd bf6d d83d f799 433d
00000210: 8101 8e3d f7bb 70bd 9391 15be eb14 2b3d
00000220: 043f 20bd 696c febb 38c9 1a3d 71ef ae3c
00000230: 9bee 9dbd 5dd8 3a3d e700 e33d cecf c0bd
00000240: 2838 26bd f084 9a3d 6153 c4bc 0b9d 973c
00000250: ec2f ad3c 18b7 44bb 99cf b83c 7e12 9bbc
00000260: da93 183d ae47 003e d25f 78bd c9c0 6f3d
00000270: 803e cd3b 2a0c a83c 00b3 323d ea10 fa3c
00000280: 9ec4 37bd 5490 23bd 7038 b03d 393f b5bd
00000290: 71fc 80bd ed58 963d 381e febd f81e ce3d
000002a0: 4263 343d df68 ca3d 2b08 3d3e bd2d 8bbc
000002b0: 7fd8 32be 281b bcbd f744 ffbd 9e24 9ebc
000002c0: 31a9 3a3d ddf8 933d 7ec0 7abc 098b 7c3d
000002d0: e216 dabd 10b3 bcba 2797 4d3d 0344 07bd
000002e0: ffe2 32bd 1326 c9bd 961e 413d 40df acbd
000002f0: 685c be3c 7c2b d53d 16f0 b83d cd30 953d
00000300: 116f 6cbd 0331 34bd 71e0 a63c 4e28 76bc
00000310: 2076 d5bd 4be2 793d ed41 893d 7ff2 173d
00000320: f0eb 4f3d c923 123e 9ec2 1fbd 5e8b b83d
00000330: 61fd d33c 2240 90bb c5b3 e8ba 7621 f53c
00000340: 3e0b debd 5f79 733c 12dd 87bd 7fbe c63b
00000350: c369 89bd 87ff 613d 0266 04be e312 e73c
00000360: fc86 ac3d 1a86 47bd 4e6f 2ebd 714b 9abb
00000370: d62b 02be c2f2 4f3d d34d 9e3d ecf1 4d3b
00000380: 0dff 0a3d cf05 4fbd ea9e 33bc 1ca7 cb3a
00000390: df84 e73d 1ca0 a3bd 5f80 413d e633 92bd
000003a0: 065b 7cbc 8b1e 843b f337 d93d b6a6 ed3d
000003b0: f3e8 48bd 8d87 c33c c729 393d b7f3 7a3c
000003c0: 2808 e23d a642 abbc 90dc 6e3d 1b8e 423c
000003d0: 76f7 193d 17e7 9cbc 979c b33c 8be9 0abc
000003e0: bb3f bcbc 6a19 5dbd 205c 863c 177a 043d
000003f0: 650f 3ebd 1b1a cf3d 461f 00bc 60a9 0bbe

network_body._body_endoder.seq_layers.2.bias f4 [256]
0.010354141 0.00652737 -0.0029470457 0.0012738472 9.166332e-05 -0.004848249 0.0006458404 -0.0054170555
-0.007286461 -0.0005049004 0.009387687 0.005523961 0.0066083153 0.0033244432 0.0032498357 -0.0035250268
0.0020079585 0.0016747117 0.00536788 -0.0023777683 -0.0015123071 -0.01536707 -0.005845083 0.0012927963
0.010685342 -0.001196627 -0.00031076072 0.00849582 -0.0051266984 -0.0020121278 -0.0090193935 -0.0035015317
0.0027340525 -0.0085257925 0.0073346845 0.0026954634 0.0026564742 0.0048851185 0.0064804866 0.0056965942
-0.00019917 -0.0041696415 -0.0039017093 -0.0049791588 -0.0020689026 0.0030937 0.002222575 0.002881134
0.0070337364 -0.004732026 0.0085973 -0.00038685364 0.005297646 0.009764192 0.011198704 0.0018890501
0.0073815784 0.008408029 0.00028151038 -4.8298185e-05 0.007669532 0.0016110422 -0.0031830266 0.008603249
-0.008781071 -0.0015632247 0.0060813376 -0.0064732246 -0.0071237767 0.0015149714 -2.99387e-05 -0.0014508392
0.01376568 0.0032819905 0.0011093919 0.0061066574 -0.0035592364 0.01633758 0.0122288 0.0030733002
0.004645026 0.010364851 0.0057974015 -0.001140587 -0.0053695356 -0.0017843547 0.009036545 0.010892485
0.009871739 -0.0005267523 0.009433147 0.0060382118 -0.0004700784 -0.0006537808 0.0064124395 0.0021486399
-0.0020463157 0.012600673 -0.0025019036 -0.00031693833 -0.0091491835 -0.0056900573 0.0060273437 0.0074992306
0.008378786 -0.0016903186 -0.0020705524 0.002511083 0.007790189 -0.0036923448 0.00055084325 0.0024783364
0.0063641774 -0.0030001292 0.0064002266 0.010248378 0.0052146604 -0.0050334856 0.005284741 -0.0028601142
0.010660775 -2.079799e-05 0.0031127683 0.0030743813 -0.0061703008 -0.0016045289 0.011042443 0.0084821135
0.00762831 -0.011104547 0.0009938665 -0.0024763579 0.0087207155 -0.0036370344 0.010576667 0.00294836
0.011212366 0.0019057886 -0.0022828053 0.00081690354 0.0017398926 0.004164637 0.009442182 0.005333433
0.0018272883 0.004730393 -0.004619259 0.0029186343 0.005078851 -0.0116716605 0.0013493344 -0.0006074211
0.010754474 0.0035920674 -0.0011818445 -0.0018575 -0.0013901249 0.005821109 0.006753272 -0.0024483139
0.006443422 0.0003546753 0.0029829806 0.011196369 0.0026171666 0.0028174664 0.008894703 0.0074684243
0.005788021 0.0014840609 -0.004943838 0.008217879 -0.0056985826 -0.007902307 0.00888947 -0.0044789133
0.002414811 0.00045802622 0.0023155182 0.0018901986 0.004109074 -0.0060875444 -0.0020023976 -0.0062377634
0.0063423864 0.0028150924 -0.0074885627 -0.0052731982 0.0032227829 -0.00207362 0.0068100938 -0.0047967015
0.008603879 -0.0060833083 -0.016074896 -0.009502928 -0.0019945705 0.007747742 -0.000563734 0.0067710443
0.0001523618 -0.0041750413 0.0061478 -0.00051857275 -0.0064342814 0.0055008912 -7.2299124e-05 -0.00048222914
-0.0029560768 0.0027829895 -0.0014707552 0.008188093 0.010536587 3.3774297e-05 -0.011009691 -0.005452551
0.008797164 -0.0019532095 0.0057412256 0.011035055 -0.0018243126 0.0014839689 0.0030587267 0.0043286257
0.0060672797 0.0053763157 -0.008279193 -0.0043624905 0.010589184 -0.00083733356 -0.008472832 0.011553376
0.007110971 -0.00062159885 0.008176265 0.008228398 0.0028407753 0.0036885305 0.010303686 0.006461215
0.008558762 -0.0005700556 0.007924975 0.007819681 0.013914319 -0.0059416224 -0.00771447 0.009390074
0.00455055 -0.007214606 0.0031778782 0.0010795715 -0.007336726 0.012740056 -0.0010298123 -0.00032130536
00000000: 6aa4 293c 8ce3 d53b 3923 41bb 38f7 a63a
00000010: 5f3b c038 0fde 9ebb 9e4d 293a 8e81 b1bb
00000020: 44c3 eebb 4b5b 04ba d0ce 193c 5802 b53b
00000030: 918a d83b e7de 593b 32fb 543b 2304 67bb
00000040: f497 033b 0082 db3a 0be5 af3b 55d4 1bbb
00000050: 9b38 c6ba 2ac6 7bbc 1c88 bfbb 0c73 a93a
00000060: 9311 2f3c 24d8 9cba 99ed a2b9 0d32 0b3c
00000070: ddfd a7bb e7dd 03bb 14c6 13bc f479 65bb
00000080: ca2d 333b c4af 0bbc cb57 f03b 5fa6 303b
00000090: 3e18 2e3b 5813 a03b 435a d43b 7faa ba3b
000000a0: 4ad8 50b9 7da1 88bb d2b3 7fbb 3628 a3bb
000000b0: 6d96 07bb acbf 4a3b 9fa8 113b 68d1 3c3b
000000c0: 427b e63b 1c0f 9bbb b1db 0c3c 9ed2 cab9
000000d0: e097 ad3b fdf9 1f3c c57a 373c 019a f73a
000000e0: 2be1 f13b d4c1 093c af97 9339 c893 4ab8
000000f0: b350 fb3b 9b29 d33a 539a 50bb a4f4 0c3c
00000100: 7bde 0fbc 1ee5 ccba f545 c73b 581d d4bb
00000110: 926e e9bb 0192 c63a de24 fbb7 162a beba
00000120: 7289 613c aa16 573b 0469 913a 5b1a c83b
00000130: 1442 69bb 63d6 853c 4e5b 483c 6c69 493b
00000140: 4d35 983b 56d1 293c 21f8 bd3b c07f 95ba
00000150: eef2 afbb 02e1 e9ba 040e 143c 6576 323c
00000160: 13bd 213c c015 0aba 7c8d 1a3c 31dc c53b
00000170: db74 f6b9 7d62 2bba 711f d23b 32d0 0c3b
00000180: 7b1b 06bb 0e73 4e3c faf6 23bb be2a a6b9
00000190: 75e6 15bc a973 babb 0681 c53b 1bbc f53b
000001a0: 2d47 093c ae8d ddba 1bb2 07bb fb90 243b
000001b0: d744 ff3b 44fb 71bb 7766 103a 966b 223b
000001c0: 978a d03b d19d 44bb feb8 d13b d0e8 273c
000001d0: bedf aa3b f0ef a4bb 9f2b ad3b c170 3bbb
000001e0: 88aa 2e3c 5877 aeb7 96ff 4b3b 8f7b 493b
000001f0: 3c30 cabb 0e4f d2ba 5deb 343c 90f8 0a3c
00000200: e7f6 f93b d9ef 35bc a044 823a 644a 22bb
00000210: 55e1 0e3c 505b 6ebb c249 2d3c 4639 413b
00000220: 12b4 373c a7cb f93a 1e9b 15bb 7825 563a
00000230: 1c0d e43a 8277 883b 62b3 1a3c 14c4 ae3b
00000240: 9f81 ef3a 6a01 9b3b 275d 97bb 8f46 3f3b
00000250: 7d6c a63b 7e3a 3fbc 26dc b03a 573b 1fba
00000260: 8933 303c e468 6b3b 1fe8 9aba 5c77 f3ba
00000270: da34 b6ba 00bf be3b 8d4a dd3b e473 20bb
00000280: 5723 d33b b7f3 b939 1c7e 433b fa70 373c
00000290: c584 2b3b 3ea5 383b 17bb 113c afb9 f43b
000002a0: 70a9 bd3b d284 c23a ebff a1bb 48a4 063c
000002b0: 2dbb babb ae78 01bc 24a5 113c d9c3 92bb
000002c0: ce41 1e3b 3d23 f039 f3bf 173b 8ac0 f73a
000002d0: 69a5 863b 067a c7bb a83a 03bb 2766 ccbb
000002e0: cbd3 cf3b 6a7d 383b 9e62 f5bb cbca acbb
000002f0: 5335 533b 92e5 07bb 3527 df3b a62d 9dbb
00000300: 49f7 0c3c 7d56 c7bb 80af 83bc 2bb2 1bbc
00000310: 57b7 02bb c5e0 fd3b 8cc7 13ba a3df dd3b
00000320: 4fc3 1f39 c9ce 88bb 7c73 c93b d4f0 07ba
00000330: aad6 d2bb d240 b43b 4c9f 97b8 b3d3 fcb9
00000340: bdba 41bb d162 363b 5bc6 c0ba 5a27 063c
00000350: a6a1 2c3c e0a8 0d38 fe61 34bc 50ab b2bb
00000360: fb21 103c 6b01 00bb e420 bc3b 60cc 343c
00000370: c61d efba bc81 c23a eb74 483b 25d7 8d3b
00000380: 08d0 c63b ce2b b03b 74a5 07bc 39f3 8ebb
00000390: 427e 2d3c 8180 5bba a2d1 0abc 5f4a 3d3c
000003a0: 2603 e93b cbf2 22ba bef5 053c 67d0 063c
000003b0: 4d2c 3a3b 46bb 713b cbd0 283c 9ab8 d33b
000003c0: 0d3a 0c3c c96f 15ba c1d7 013c 1f1e 003c
000003d0: e2f8 633c f1b1 c2bb aac9 fcbb d3d8 193c
000003e0: c81c 953b 8068 ecbb f343 503b 6980 8d3a
000003f0: eb68 f0bb abbb 503c c4fa 86ba e074 a8b9

network_body._body_endoder.seq_layers.4.weight f4 [256, 256]
0.02142652 0.020541906 -0.07301692 -0.030794272 -0.088873774 -0.008183974 -0.066467 -0.04795649
-0.01095424 -0.050690085 0.029324511 -0.02742985 0.002714562 -0.059642028 -0.18254168 0.0762335
0.0006998495 -0.085817926 -0.08063292 0.0759261 0.012026782 0.03852456 -0.06442986 0.043307606
-0.004509603 -0.023746297 0.05747241 -0.069358386 0.074655965 0.008435898 0.020214846 -0.08139777
-0.012106051 0.018002514 0.08553003 -0.08309896 0.12098684 -0.05940043 0.015955575 -0.049612712
0.02231323 -0.06167959 -0.034564428 0.08386349 0.01842403 0.14690186 -0.046952676 -0.09421698
-0.04423442 0.0057032546 -0.00054759183 -0.09868226 0.008455588 -0.069840536 0.0039861226 -0.18383977
0.07836585 -0.056227278 -0.016714968 0.068908274 -0.12776111 -0.06163889 0.15873335 0.1016038
-0.039054938 0.020886054 -0.09858313 -0.035154834 -0.17007563 -0.01456843 0.043323588 -0.00651421
0.014518254 0.095078714 0.07364036 0.06976437 -0.111952074 0.005562803 0.014278499 0.07429628
-0.108490005 -0.06470468 -0.031311546 -0.08907813 -0.11171008 -0.036314335 -0.05685589 0.028707711
0.015948696 0.14630194 -0.059096962 0.090642236 0.028472446 -0.015780788 0.0076062195 -0.055766404
0.025577582 -0.041087493 -0.02535088 -0.026765725 -0.03262995 -0.05054927 -0.07650104 0.07857864
0.01641874 -0.099578634 0.06781967 -0.022297828 0.052511387 0.0037430483 0.017014122 0.054489296
-0.09714048 -0.10350474 0.035341386 0.083688736 0.1101862 0.033509426 -0.011479868 0.025767844
0.06411017 0.0014422887 0.030384688 -0.004017456 0.04398583 0.048762023 -0.009044882 -0.10602732
-0.027496787 -0.028928442 -0.0878417 -0.0032849319 0.030277483 -0.088449165 0.020257268 -0.046517916
-0.048277196 -0.01640153 0.051902924 -0.007751621 -0.034444552 -0.074776836 -0.10019957 0.061116636
-0.05299434 0.06192842 -0.030888591 -0.08840694 -0.08937335 -0.07214634 0.026954016 -0.0073729903
-0.06641872 0.03364866 -0.06299345 -0.12945884 0.011008548 -0.07616873 -0.01979061 0.020240378
0.014799852 0.083618514 0.0031458081 0.11198189 0.03142172 0.09660445 -0.0063462253 0.036193836
0.073458984 -0.02961057 -0.0039257626 0.009555398 -0.08977135 0.041955523 0.101222895 -0.05801745
0.032772813 0.018633576 0.02634333 0.1064212 -0.15881161 -0.1260839 -0.0057459124 0.017153898
-0.14188263 -0.06382575 -0.025013452 0.0014972857 -0.03177795 0.013842735 -0.08555611 0.052842196
0.11990427 -0.017125405 0.0003759745 0.04781481 -0.010090606 0.10565753 0.019077137 0.011811143
0.06649285 0.021194393 0.0010803815 0.06044888 -0.04723003 -0.11928225 -0.0011776203 -0.017391367
-0.07373375 -0.023774397 -0.027775181 -0.079160996 -0.051066 0.018749349 -0.014635658 0.05715152
0.06102155 0.024873912 0.011602658 0.033604573 0.013226739 -0.016489016 0.14641634 0.0068310886
0.14318123 -0.011685301 -0.026937596 -0.056030992 0.07072929 0.027783928 0.012039475 0.07535461
0.019099437 0.091494635 0.038777605 0.044197585 -0.013730885 -0.0027238477 -0.032820407 0.02413508
0.10535657 0.12661763 0.06288897 0.052581113 0.023268979 0.027094403 0.023941275 -0.023765875
-0.04184514 0.12165993 -0.030164005 0.033370905 0.05639737 0.09781456 -0.13564557 0.10999245
00000000: ab86 af3c 8047 a83c e589 95bd 4544 fcbc
00000010: 7403 b6bd 1316 06bc da1f 88bd 066e 44bd
00000020: 6a79 33bc 68a0 4fbd f539 f03c 91b4 e0bc
00000030: cbe6 313b 334b 74bd 35ec 3abe 4f20 9c3d
00000040: 1b76 373a 4fc1 afbd df22 a5bd 257f 9b3d
00000050: fb0b 453c eecb 1d3d cdf3 83bd 5163 313d
00000060: 4bc5 93bb 9887 c2bc 3168 6b3d c50b 8ebd
00000070: 3ae5 983d b936 0a3c 9b99 a53c e0b3 a6bd
00000080: 7558 46bc 027a 933c 5e2a af3d ca2f aabd
00000090: f3c7 f73d de4d 73bd 44b5 823c b336 4bbd
000000a0: 3cca b63c bda3 7cbd 6e93 0dbd 9fc0 ab3d
000000b0: feed 963c 716d 163e 7351 40bd d5f4 c0bd
000000c0: 272f 35bd 5ee2 ba3b 448c 0fba ed19 cabd
000000d0: 4e89 0a3c 8e08 8fbd 059e 823b 7e40 3cbe
000000e0: 467e a03d 934e 66bd d4ed 88bc c81f 8d3d
000000f0: cfd3 02be 1079 7cbd ff8a 223e a715 d03d
00000100: 12f8 1fbd 3b19 ab3c f4e5 c9bd 84fe 0fbd
00000110: 4e28 2ebe 6db0 6ebc 1374 313d 2775 d5bb
00000120: f9dd 6d3c a1b8 c23d c2d0 963d 9fe0 8e3d
00000130: 2147 e5bd 2c48 b63b 5ef0 693c a628 983d
00000140: 0230 debd e383 84bd 8940 00bd 986e b6bd
00000150: 41c8 e4bd 57be 14bd b9e1 68bd 6f2c eb3c
00000160: d7a6 823c 2dd0 153e a80f 72bd a3a2 b93d
00000170: 0c3f e93c b646 81bc 983d f93b 506b 64bd
00000180: 1488 d13c 5c4b 28bd a6ac cfbc cb43 dbbc
00000190: fca6 05bd c00c 4fbd 94ac 9cbd d7ed a03d
000001a0: 9880 863c e2ef cbbd 0ae5 8a3d efa9 b6bc
000001b0: 2e16 573d ee4d 753b 3361 8b3c 2b30 5f3d
000001c0: 97f1 c6bd 4bfa d3bd 21c2 103d 0065 ab3d
000001d0: 4da9 e13d 2e41 093d 0e16 3cbc 1617 d33c
000001e0: 314c 833d 2e0b bd3a 4fe9 f83c dda4 83bb
000001f0: 7c2a 343d b0ba 473d fc30 14bc da24 d9bd
00000200: f140 e1bc 57fb ecbc 59e6 b3bd 0348 57bb
00000210: 7c08 f83c d624 b5bd 92f2 a53c 9289 3ebd
00000220: 4fbe 45bd 805c 86bc 2998 543d 4f01 febb
00000230: bb15 0dbd 9924 99bd 6f35 cdbd 7055 7a3d
00000240: 9810 59bd a8a8 7d3d 120a fdbc b30e b5bd
00000250: 6009 b7bd 76c1 93bd abce dc3c 2099 f1bb
00000260: 8a06 88bd 2dd3 093d b602 81bd dc90 04be
00000270: 325d 343c 5afe 9bbd eb1f a2bc 26cf a53c
00000280: 147b 723c 2f40 ab3d e729 4e3b c356 e53d
00000290: 10b4 003d 8ed8 c53d fff3 cfbb fd3f 143d
000002a0: aa71 963d de91 f2bc afa3 80bb 3e8e 1c3c
000002b0: 0bda b7bd 8ed9 2b3d f34d cf3d b5a3 6dbd
000002c0: c93c 063d 71a5 983c f8cd d73c 5cf3 d93d
000002d0: 839f 22be 231c 01be 3548 bcbb 5586 8c3c
000002e0: ae49 11be 13b7 82bd 03e9 ccbc 9240 c43a
000002f0: 9829 02bd a4cc 623c 0b38 afbd 0f71 583d
00000300: 5f90 f53d 944a 8cbc 711e c539 76d9 433d
00000310: 1253 25bc fa62 d83d a847 9c3c 8683 413c
00000320: 672d 883d dd9f ad3c 969b 8d3a 3f99 773d
00000330: 4774 41bd 414a f4bd 615a 9aba 5778 8ebc
00000340: b801 97bd 86c2 c2bc c788 e3bc 291f a2bd
00000350: 952a 51bd 3c98 993c 66ca 6fbc b617 6a3d
00000360: bcf1 793d 60c4 cb3c 1319 3e3c f3a4 093d
00000370: f7b4 583c f913 87bc 2aee 153e 53d7 df3b
00000380: 1a9e 123e b473 3fbc 3cac dcbc c180 65bd
00000390: 85da 903d 1f9b e33c 3841 453c 8553 9a3d
000003a0: 6c76 9c3c 8a61 bb3d 44d5 1e3d 8708 353d
000003b0: 82f7 60bc 9582 32bb b16e 06bd eeb6 c53c
000003c0: 2fc5 d73d 0da8 013e efcb 803d 4b5f 573d
000003d0: 969e be3c 15f5 dd3c 7e20 c43c a7b0 c2bc
000003e0: cf65 2bbd d728 f93d 811a f7bc eeaf 083d
000003f0: ee00 673d 0053 c83d ace6 0abe b943 e13d

network_body._body_endoder.seq_layers.4.bias f4 [256]
0.0014542836 0.009345187 -0.0026353651 0.007988465 -0.0010715913 -0.0023411685 0.0004545234 0.002358658
-0.0036773356 -0.0005897825 0.00061414106 0.0063397954 0.0021299773 -0.0022089195 -0.0075314636 -0.00016617509
0.00015344677 0.0053688055 0.012998912 0.00061675854 -0.0042456063 -0.00058512186 -0.006623044 0.0021622495
0.008472809 -0.00089765445 0.0008091908 0.00088318833 -0.0013100171 -0.005850703 0.0016243522 -0.005674684
0.011098887 -0.0045690234 0.01093791 0.002438578 0.0052006594 -0.011463066 0.0059220325 -0.004121222
-0.006716844 0.01402404 0.008176731 0.005572118 0.004947403 -0.0027220699 0.0014811057 0.0095951995
0.0017419758 -0.0051211794 0.009024586 -0.0053214133 -3.1291966e-05 0.0035214275 0.007105235 0.0036716263
0.010813201 0.0003375335 0.007210134 0.0043702517 0.0025920235 -0.0018186081 0.0028943531 0.010504871
0.009323279 -0.0067497715 -0.0055682664 -0.00276134 0.006345202 0.010893561 -0.00218089 -0.010440282
0.0020765918 0.001177739 0.002017784 0.009031315 -0.00053076365 -0.0035368553 0.0077040396 -0.0019560417
-0.0013274474 0.00029527975 0.0005644598 0.0057932455 -0.0036645846 -0.0016223085 0.0042620464 0.0017545072
0.0048250575 0.00024884343 0.0054478366 0.009810683 0.009548711 0.0055732084 0.0038300895 -0.004711171
-0.01007857 -0.0009626029 0.0020494314 0.013190464 0.005859197 0.00697786 0.00021441809 0.0012478657
-0.005968683 0.0041328804 0.006210131 -0.0059284875 -0.010769138 0.009961066 0.00061119057 -0.0020479835
-0.004141212 0.006741633 0.0035023422 0.0054896115 0.011736203 0.008187159 -0.00078657747 0.0053241635
-0.001611149 0.006545025 0.010334517 0.0042325063 0.0033171645 0.003751432 -0.010420061 0.008344336
-0.0027058255 0.0039801537 0.001150069 -0.0049947635 0.009300732 -0.008642213 0.004665585 0.0011521014
0.010366063 -0.009650118 -0.00803708 -0.00064405194 0.00522628 -0.0042513716 0.007189706 0.006135511
0.009330927 -0.0041256514 0.003217549 0.0059205946 0.0024799292 -0.006294234 0.0019534559 0.010382335
0.005637911 0.00038268347 -0.0052234125 0.0021649348 -0.013653366 0.0023939346 -0.008705895 0.00058414915
0.0029077828 0.0061808825 0.00053839694 -0.0022683586 -0.0052464977 0.008942953 0.005951145 0.0056645484
-0.00220193 -0.006675637 0.0005982159 0.008863109 0.0046320623 -0.0117295 0.011586012 -0.0020187919
0.0051644295 -0.0072262697 0.0051685697 0.0001565075 0.009890346 0.010869025 -0.0020246531 -0.0023461645
0.009177539 0.008343801 -0.0010716442 0.001380728 0.007361664 0.0064631873 -0.0027111098 0.0033547198
0.003812035 -0.0070161917 0.00039504675 -0.0049974546 0.007644215 0.009950335 0.007999085 -0.0038634038
-0.006897011 0.0062110503 -0.008691949 0.0062538036 0.00092748646 0.008378775 -0.0014282111 0.00359712
-0.010408193 0.0016935205 0.0017423216 -0.005833422 0.0022253885 -0.0031984379 0.0031730686 0.0035646227
-0.003287079 0.0009017909 0.0010465735 -0.0044372054 0.0007630836 0.0052897097 -0.00033900718 0.0016539695
-0.008170732 -0.0047932933 -0.0018290298 -0.0012448437 -0.006847693 0.012546381 -0.0071157506 0.006519011
0.0046526915 -0.006651245 -0.00282527 0.010130701 -0.006578178 0.0013093769 0.0018893289 0.006636412
-0.0008565669 0.0024773367 -0.004945036 -0.0083639 0.0050051915 0.0101564955 0.00020039354 -0.004706589
0.009641852 -0.0039442056 -0.009645265 0.008999079 -0.0029641367 -0.007831804 0.004097387 -0.0022763372
00000000: a99d be3a 8e1c 193c 17b6 2cbb 0de2 023c
00000010: a374 8cba 4a6e 19bb 194d ee39 b793 1a3b
00000020: 74ff 70bb a29b 1aba 4ffe 203a 0fbe cf3b
00000030: 1797 0b3b 85c3 10bb 7fca f6bb 493f 2eb9
00000040: 8ee6 2039 ceec af3b 63f9 543c f7ad 213a
00000050: ba1e 8bbb dd62 19ba 1f06 d9bb 87b4 0d3b
00000060: 89d1 0a3c 9250 6bba e01f 543a c485 673a
00000070: e1b4 abba 41b7 bfbb 37e8 d43a b3f2 b9bb
00000080: 1bd8 353c bfb7 95bb eb34 333c 8dd0 1f3b
00000090: 4b6a aa3b 95cf 3bbc 9c0d c23b 510b 87bb
000000a0: f918 dcbb 16c5 653c b2f7 053c 5096 b63b
000000b0: d31d a23b c164 32bb a921 c23a 2f35 1d3c
000000c0: 0253 e43a 91cf a7bb dbdb 133c 405f aebb
000000d0: 7e3f 03b8 c0c7 663b 08d3 e83b ab9f 703b
000000e0: da29 313c fbf6 b039 fd42 ec3b 5434 8f3b
000000f0: f0de 293b 5d5e eeba 30af 3d3b 9f1c 2c3c
00000100: abc0 183c 302d ddbb 0176 b6bb 99f7 34bb
00000110: 6aeb cf3b e87a 323c 43ed 0ebb b70d 2bbc
00000120: 6e17 083b 5d5e 9a3a cc3c 043b 15f8 133c
00000130: f222 0bba 96ca 67bb 2b72 fc3b ef30 00bb
00000140: befd adba c7cf 9a39 42f8 133a 44d5 bd3b
00000150: 8729 70bb a4a3 d4ba a3a8 8b3b 7ef7 e53a
00000160: 841b 9e3b 3377 8239 c483 b23b fdbc 203c
00000170: 3272 1c3c 769f b63b 3d02 7b3b 2b60 9abb
00000180: 9620 25bc 3057 7cba c14f 063b d11c 583c
00000190: 82fe bf3b 88a6 e43b 6bd5 6039 6d8f a33a
000001a0: f194 c3bb 1d6d 873b 5b7e cb3b c243 c2bb
000001b0: 0a71 30bc bd33 233c 4e38 203a 7637 06bb
000001c0: 01b3 87bb ebe8 dc3b 8d87 653b 33e2 b33b
000001d0: 3449 403c 6f23 063c 5232 4eba 5276 ae3b
000001e0: 312d d3ba a677 d63b 1b52 293c d6b0 8a3b
000001f0: c964 593b 96da 753b e7b8 2abc afb6 083c
00000200: 3854 31bb f36b 823b e9bd 963a 1dab a3bb
00000210: 1962 183c 1298 0dbc c3e1 983b 1c02 973a
00000220: 6bd6 293c 871b 1ebc f5ad 03bc 98d5 28ba
00000230: 3741 ab3b 174f 8bbb a097 eb3b 660c c93b
00000240: bfe0 183c 7930 87bb 84dd 523b 8c01 c23b
00000250: 4f86 223b dd3f cebb 8d05 003b ab1a 2a3c
00000260: 3abe b83b e8a2 c839 2929 abbb 94e1 0d3b
00000270: 5eb2 5fbc 8fe3 1c3b 2ca3 0ebc 9621 193a
00000280: 8090 3e3b 0089 ca3b 3523 0d3a bea8 14bb
00000290: d0ea abbb 7785 123c d301 c33b ad9d b93b
000002a0: 414e 10bb 4dbf dabb 97d1 1c3a 9336 113c
000002b0: 8ec8 973b 172d 40bc 42d3 3d3c b54d 04bb
000002c0: 603a a93b 58ca ecbb 1b5d a93b 2a1c 2439
000002d0: 1e0b 223c ff13 323c 0bb0 04bb 1cc2 19bb
000002e0: 635d 163c 70b4 083c 6a76 8cba 8bf9 b43a
000002f0: 1d3a f13b 25c9 d33b e0ac 31bb dcda 5b3b
00000300: 56d3 793b 15e8 e5bb 471e cf39 b0c1 a3bb
00000310: 537c fa3b bb06 233c 980e 033c 2931 7dbb
00000320: 5200 e2bb 1186 cb3b ad68 0ebc b5ec cc3b
00000330: 9022 733a 2147 093c d032 bbba a9bd 6b3b
00000340: 2087 2abc 1ef9 dd3a 9d5e e43a 4a26 bfbb
00000350: d3d7 113b e29c 51bb 42f3 4f3b 729c 693b
00000360: 096c 57bb 2a66 6c3a 2e2d 893a fa65 91bb
00000370: ac09 483a 4d55 ad3b c6bc b1b9 02ca d83a
00000380: 89de 05bc 0f11 9dbb 0ebc efba 062a a3ba
00000390: 9d62 e0bb 568f 4d3c 3e2b e9bb 6e9d d53b
000003a0: 9b75 983b b0f2 d9bb 2a28 39bb 3dfb 253c
000003b0: c28d d7bb 669f ab3a 5ca3 f73a 4276 d93b
000003c0: 3b8b 60ba d05a 223b f809 a2bb bd08 09bc
000003d0: 9702 a43b 6e67 263c bb20 5239 bb39 9abb
000003e0: dcf8 1d3c 653e 81bb 2c07 1ebc df70 133c
000003f0: f641 42bb f850 00bc 6043 863b 9a2e 15bb

action_model._continuous_distribution.log_sigma f4 [1, 5]
-0.052444916 -0.025667254 -0.0099047385 -0.056017704 -0.0007911661
00000000: 7bd0 56bd 2244 d2bc 7c47 22bc d272 65bd
00000010: 4266 4fba

action_model._continuous_distribution.mu.weight f4 [5, 256]
-0.0064716986 -0.009095187 0.027294274 -0.01988944 0.0061790785 0.0010367933 0.0011593415 -0.012907218
0.0001237167 -0.0057936804 -0.01955538 -0.010377663 0.004817813 0.019501472 0.034642898 -0.0066638086
0.010345013 -0.0047256285 -0.021917105 -0.012652427 0.011375655 -0.002946849 0.011355505 -0.005603752
-0.009295985 0.029393913 0.0039828396 0.024468293 0.018430306 -0.010398054 0.040665977 0.02195951
-0.034431893 0.0057251668 -0.016246015 -0.0019056906 -0.021781445 0.0021594074 -0.023754116 0.008889176
0.0015833272 -0.0046090675 -0.014038223 -0.00988104 -0.020975582 -0.014376589 0.008933864 -0.037894968
0.009156114 0.013119708 -0.0039091534 0.00825905 0.017196065 0.016298126 -0.0063061267 -0.0029790222
-0.021503987 -0.0063293325 -0.014909945 -0.03958982 -0.016235007 -0.0053899386 -0.004561606 -0.01818625
-0.011792831 -0.0046971696 0.011193117 0.03583009 -0.005302641 -0.02256696 0.024920493 0.0042587253
-0.0012997963 0.011919912 0.013855415 -0.02300671 0.033371292 0.018959852 -0.016546823 0.004906296
-0.015112482 0.016287716 -0.006209776 -0.0055723004 0.0032761954 -0.0026805364 -0.013301802 0.005241749
-0.00092362455 0.009323354 -0.025438884 -0.007439063 -0.008580137 0.00928561 -0.0077647306 -0.0042161997
0.019951308 0.020386908 0.013505603 -0.029815871 0.0021668295 -0.017229792 -0.004830474 -0.030545037
0.014932007 0.0062003667 -0.014600879 0.011449453 0.02993505 -0.0062984903 -0.012942305 0.032098763
0.016072337 -0.030274602 -0.0031325906 -0.020655548 -0.029317776 -0.019657856 0.032472298 0.0029886565
0.0072291456 0.0018317789 -0.026116285 0.027141074 0.01764553 -0.0103188995 0.012154067 -0.011950664
-0.0027400914 -0.0039922907 0.01038332 0.01055802 -0.011249297 0.015016836 0.023099756 -0.0008652959
-0.01019296 0.007778112 0.022862602 -0.005250028 -0.023485124 0.024089549 -0.03107723 0.020212904
-0.029355604 0.029124353 -0.016264502 -0.010787988 0.014881551 0.010477124 0.03536865 -0.0018623522
0.010749162 0.02189292 -0.008226699 -0.008095217 0.019211639 -0.0062615313 0.015418017 0.0012839953
-0.011522276 -0.016153572 0.017597018 0.032265108 0.0209652 -0.006174408 0.0068451534 -0.010989477
0.0024742547 -0.009470686 0.036060512 -0.019179149 -0.02464208 0.0059290384 -0.029344132 0.009639989
-0.0045217257 0.0019404442 0.004228675 0.021663606 -0.029840734 -0.0043865344 0.014381279 0.0034905553
-0.019554852 -0.029285291 0.0096278945 0.036192156 -0.011131697 -0.012026194 0.0020347794 0.015536263
-0.012790431 0.0022325886 0.0073644705 0.00028139327 -0.01601612 -0.01090542 -0.002509095 0.021841519
0.006977149 -0.0028769383 0.0102834385 -0.024453307 0.012184464 -0.024075372 0.030149955 0.027910352
0.021409024 -0.023787847 -0.010881489 0.0126628885 -0.01319311 0.016538238 -0.013906984 0.0146014625
0.02011647 0.0030715128 -0.013312443 -0.0023345856 -0.008410742 -0.005070992 0.038006797 0.007914813
0.033310138 -0.005235851 -0.004859214 0.026533103 0.013350497 -0.019677998 0.0029024663 0.010207717
0.012341613 0.0010445687 0.018669767 -0.015381456 0.030510733 -0.0073014772 0.005096982 -0.014723946
-0.0008127821 0.013251632 0.01195436 0.019229932 -0.007511972 -0.014485343 0.0049774386 0.041674603
-0.012754445 -0.00750254 -0.0021659317 -0.026859635 -0.020049805 0.009370718 -0.0016661541 0.028559249
00000000: 8b10 d4bb fb03 15bc 3e98 df3c 2eef a2bc
00000010: de79 ca3b 03e5 873a 0cf5 973a cc78 53bc
00000020: f3b9 0139 ead8 bdbb 9b32 a0bc 1307 2abc
00000030: bfde 9d3b 8dc1 9f3c b6e5 0d3d 145c dabb
00000040: 217e 293c 72d9 9abb 808b b3bc 204c 4fbc
00000050: f560 3a3c ec1f 41bb 710c 3a3c ae9f b7bb
00000060: 304e 18bc 81cb f03c 7b82 823b bb71 c83c
00000070: 27fb 963c 995c 2abc 5e91 263d 6ee4 b33c
00000080: 7508 0dbd 2e9a bb3b 5d16 85bc 5ec8 f9ba
00000090: 006f b2bc d884 0d3b fe97 c2bc e8a3 113c
000000a0: a587 cf3a a907 97bb 9300 66bc 16e4 21bc
000000b0: fcd4 abbc c98b 6bbc 575f 123c c137 1bbd
000000c0: 8703 163c 0bf4 563c 5b18 80bb f750 073c
000000d0: c3de 8c3c a683 853c a0a3 cebb b33b 43bb
000000e0: 2129 b0bc 4a66 cfbb d848 74bc ef28 22bd
000000f0: 47ff 84bc 159e b0bb 8679 95bb 55fb 94bc
00000100: b836 41bc b7ea 99bb 5663 373c 93c2 123d
00000110: c7c1 adbb 58de b8bc 1026 cc3c c78c 8b3b
00000120: ed5d aaba bc4b 433c d301 633c 9178 bcbc
00000130: 56b0 083d b151 9b3c 348d 87bc fec4 a03b
00000140: 589a 77bc d16d 853c 607b cbbb d897 b6bb
00000150: 70b5 563b f0ab 2fbb cdef 59bc fac2 ab3b
00000160: 651f 72ba fbc0 183c 3565 d0bc 62c3 f3bb
00000170: b493 0cbc ac22 183c 486f febb 0c28 8abb
00000180: ed70 a33c 7202 a73c 9b46 5d3c 6a40 f4bc
00000190: 5e01 0e3b 7e25 8dbc f448 9ebb 9639 fabc
000001a0: 60a5 743c 722c cb3b 8638 6fbc 7d96 3b3c
000001b0: 5a3a f53c 9163 cebb f60b 54bc fe79 033d
000001c0: 22aa 833c 7102 f8bc 264c 4dbb d335 a9bc
000001d0: d52b f0bc 8309 a1bc ac01 053d 56dd 433b
000001e0: 78e2 ec3b 4d18 f03a d2f1 d5bc f556 de3c
000001f0: 5c8d 903c 9a10 29bc da21 473c b8cc 43bc
00000200: 1b93 33bb c3d1 82bb cd1e 2a3c 8cfb 2c3c
00000210: f94e 38bc 2d09 763c b33b bd3c 06d5 62ba
00000220: 5f00 27bc 88df fe3b 5a4a bb3c 6d08 acbb
00000230: e063 c0bc 7257 c53c ad95 febc 8895 a53c
00000240: 2a7b f0bc 3296 ee3c 223d 85bc 1ac0 30bc
00000250: c0d1 733c 3ea8 2b3c b8de 103d 2c1a f4ba
00000260: 411d 303c c858 b33c 47c9 06bc cda1 04bc
00000270: ba61 9d3c 882d cdbb da9b 7c3c bc4b a83a
00000280: eec7 3cbc 7f54 84bc 9f27 903c 6b28 043d
00000290: 36bf ab3c b052 cabb 4f4d e03b 350d 34bc
000002a0: 1b27 223b f02a 1bbc 30b4 133d 971d 9dbc
000002b0: 30de c9bc 6148 c23b 1b63 f0bc 0bf1 1d3c
000002c0: fc2a 94bb 8156 fe3a b290 8a3b e077 b13c
000002d0: 8e74 f4bc ebbc 8fbb 759f 6b3c cdc1 643b
000002e0: 7f31 a0bc b5e7 efbc 51be 1d3c 3a3e 143d
000002f0: b961 36bc 8309 45bc ef59 053b cf8b 7e3c
00000300: f58e 51bc 9f50 123b a851 f13b f787 9339
00000310: 3d34 83bc a6ac 32bc a16f 24bb fcec b23c
00000320: 91a0 e43b 048b 3cbb de7b 283c 4d52 c8bc
00000330: 59a1 473c b739 c5bc 0afd f63c 40a4 e43c
00000340: fa61 af3c bbde c2bc 4648 32bc 0178 4f3c
00000350: ea27 58bc 337b 873c 1eda 63bc f93a 6f3c
00000360: 4ccb a43c 6f4b 493b 6f1c 5abc d9ff 18bb
00000370: 35cd 09bc 902a a6bb 04ad 1b3d 22ad 013c
00000380: 3670 083d 8091 abbb 0b3a 9fbb f35b d93c
00000390: 0bbc 5a3c c133 a1bc 4e37 3e3b 453e 273c
000003a0: 7a34 4a3c e9e9 883a 57f1 983c 8102 7cbc
000003b0: a5f1 f93c 3b41 efbb 9504 a73b b53c 71bc
000003c0: e210 55ba 601d 593c 38dc 433c 1788 9d3c
000003d0: fd26 f6bb ef53 6dbc c819 a33b fdb2 2a3d
000003e0: 05f8 50bc ded7 f5bb 4ef2 0dbb bd08 dcbc
000003f0: 7d3f a4bc a487 193c db62 daba 16f5 e93c

action_model._continuous_distribution.mu.bias f4 [5]
-0.008484152 -0.0006516404 0.004590827 -0.010177846 -0.0028862013
00000000: 1d01 0bbc d9d2 2aba a66e 963b fbc0 26bc
00000010: 6c26 3dbb
