results/NearSingularity01/NearSingularity/NearSingularity-2504.onnx (onnx, 588044 bytes, 7 tensors)

network_body._body_endoder.seq_layers.0.weight f4 [256, 53]
00000000: 8436 bebd 1eba 22bd 8ac7 1fbe dea3 4c3d
00000010: 8003 dc3d e35f 0fbb 3fcb 6a3d 9d9c 87be
00000020: 5468 c53d cf56 84be 5098 adbd 00d6 30bd
00000030: dfd3 01be c005 3dbc d6fd 5bbe 5f85 4c3e
00000040: 8455 263e 5980 ebbb e55f f9bd b152 8e3e
00000050: 11c6 2dbe ae69 373e 794e 2ebd 7981 a83c
00000060: 4878 b83d 4ff7 03bd 02e3 053d b883 debc
00000070: f0e4 e5bd fa23 44be 6b2d c03e 75cb 34be
00000080: 4842 dfbc f188 cf3d 0139 893d 33a1 87bd
00000090: 6080 a4bd 8fda 77bd d2a3 16bd 178f aebe
000000a0: fc0f 8dbd 8cb4 95be f03c 5abe 612b 2a3e
000000b0: 7741 e03d 9811 a33d 5f68 a93d a536 523c
000000c0: 6a92 adbe 2d4e e7bd ac89 50be 493f ccbd
000000d0: df4f cebd 2127 1ebd 092c cb3c 8666 023e
000000e0: ab24 f4bd 89dc a53c 220a 97bd 2dd2 7e3c
000000f0: 7c69 243d f166 3a3d d933 96bd cc25 47be
00000100: 63d2 7dbd e067 cebd 6b69 133d 8017 8cbe
00000110: e811 3f3d adc1 cbbb 5aa3 e8bd 8a0e 3c3e
00000120: 53a8 ce3d a4d0 77bd 9bca e0bd 757f e2bd
00000130: bf19 023d 5968 a3be 96af 403e 025e c13d
00000140: 7f1d 42bc bf9a 33be 1175 8abe 823a 053e
00000150: f32a ecbd f2bb ca3b 51b5 bcbd 7627 ffbd
00000160: 321e c1bc 933e 033e 8085 e03d 4792 88bd
00000170: 4fb9 453e cdb1 aa3d c206 53be a0ad 31bd
00000180: 4137 433d e72c 6e3e af2c b1be 134f 023e
00000190: 2e1a 36bc 063c f8bd c556 e23b 14e2 3abd
000001a0: 9892 533d 6ce5 4a3e 6054 1bbd bd2d 6bbe
000001b0: 2771 dc3d c127 153d 2223 49be c9a4 41be
000001c0: c7fa 49bd 5328 a1bd cc31 87be 607f 8a3d
000001d0: 6a43 873c 9e88 84be 0d5c 7a3d 3b2d e73c
000001e0: 4944 cc3d 055f cebd 80d7 a33d 4336 73bd
000001f0: b205 9c3d 7df3 debc d6c0 3e3e 5756 f73c
00000200: c1a3 1abe 1369 683d 6257 0b3e fa1e 58bd
00000210: b0f8 dcbd 5177 ad3d 19e4 3a3e 149c 133c
00000220: 165a 51be ee59 563e 79d8 a43e 1e65 f13e
00000230: ec66 d03d 4f93 a33c 81fb 1bbe 0997 9dbe
00000240: 7bab 21be 918d 45bd 381b 1b3e 94ba b2bd
00000250: deb4 073d 1ebc 61bc cab1 17bd fe6a e0bc
00000260: c667 1f3e f171 993d faf3 943d ad67 43be
00000270: 9137 a43d a272 95bd 676e a53d 3a65 e5bd
00000280: 4927 25be 64fd 31be e6f9 32bd 3ce8 193e
00000290: 8615 213d 5785 06be 76f2 433e 601e 893e
000002a0: 60f8 2a3e fd34 f9bd 2836 4cbd 30a0 00be
000002b0: 1490 b2bd a47d 19be 03e5 aabd ad25 fe3d
000002c0: c43c a3bb 5172 1d3e ce78 b5bd 05fa 64bd
000002d0: e786 afbd 5b43 083d cbad 66bd 8dfb 24bd
000002e0: bcf3 1fbd 34cf 583c 70c6 ab3d 864d 463d
000002f0: c43c f53d 1af1 29be 731a 3dbe ce3c babd
00000300: e28a e53b d705 0abe 1c13 da3d 4434 a23d
00000310: af7e ebbd 5365 83bc 388a eb3d 06a7 1a3e
00000320: 9d55 17bd 2531 443e eebf a83e 555f 20be
00000330: 47ca 3e3e 80cd a63b 6213 f23d 025d 21be
00000340: e03d 4f3e 41f3 a3bd 092a b23b 8069 6ebd
00000350: 1f0c 91bd 82f2 c53d 90b0 21be 7b50 b93c
00000360: 2e3e 5ebe 62af 983d c145 7d3c defa 5b3d
00000370: 9a71 4b3e cf75 08ba 5389 7b3d 9ec5 2fbd
00000380: 281d 843d e0a5 483e 9763 acb9 1866 61be
00000390: f74a e5bd e35c bc3d 998a 17be 7654 813d
000003a0: 6ad7 a83c 45b5 cf3b b4d7 cdbc 8cd5 223e
000003b0: 70f0 c2bc 3ef6 893c 6920 0d3e 7315 9a3e
000003c0: 4265 b0be dd71 aa3e 7c50 b33c 3841 683d
000003d0: 19b4 ad3d 0aa1 a6be f21e 81bd 850a 7cbd
000003e0: cff3 4b3e 4824 dc3c c993 02be 0f9a a6bd
000003f0: 25a1 c3bc 2c5a a5bd 90ea e0bd 3440 4dbe
-0.09287742 -0.039728276 -0.15603462 0.049960963 0.10742855 -0.0021877221 0.057322737 -0.26486674
0.0963904 -0.2584748 -0.08476317 -0.043172836 -0.12678479 -0.011537015 -0.2148355 0.19972752
0.16243559 -0.007186931 -0.121764936 0.27797464 -0.16970088 0.17911407 -0.042555306 0.02056955
0.09007317 -0.032218274 0.032687195 -0.027162418 -0.11225307 -0.19154349 0.3753465 -0.17655738
-0.027253285 0.101335414 0.06700326 -0.06622543 -0.08032298 -0.060511168 -0.036777325 -0.34093544
-0.068878144 -0.2923931 -0.21312308 0.1661811 0.109499864 0.0796234 0.0827186 0.012830411
-0.33900768 -0.11294208 -0.20365018 -0.09973008 -0.10073828 -0.038611535 0.024801271 0.12734422
-0.11921056 0.02024676 -0.073749796 0.0155530395 0.04013966 0.04550833 -0.07334108 -0.19448012
-0.06196822 -0.10078406 0.035989206 -0.2736168 0.046647936 -0.0062181563 -0.11359282 0.18364921
0.10090699 -0.06050171 -0.10976144 -0.11059467 0.031762835 -0.31915548 0.1881698 0.09441759
-0.011847853 -0.175395 -0.2704244 0.130106 -0.115316294 0.0061869556 -0.09214271 -0.124586985
-0.023573969 0.12816839 0.10962963 -0.06668525 0.19308971 0.08334694 -0.20608047 -0.043378472
0.047660116 0.23259316 -0.34604403 0.12725477 -0.01111464 -0.121208236 0.0069073164 -0.04562576
0.051653475 0.1981408 -0.037922263 -0.22966667 0.107637696 0.036414865 -0.19642308 -0.18910517
-0.049311426 -0.07869019 -0.2640518 0.06762576 0.016511638 -0.2588548 0.061122943 0.02821981
0.09973962 -0.10076717 0.08000088 -0.05937792 0.07618274 -0.027215714 0.18628249 0.030192537
-0.1510153 0.05674083 0.13607553 -0.052763917 -0.10789621 0.084700234 0.18251075 0.00900938
-0.20444521 0.20932743 0.32196406 0.4714746 0.10175881 0.019967703 -0.1523266 -0.30779293
-0.15788071 -0.04823071 0.15147102 -0.08726993 0.033131473 -0.013777761 -0.037034787 -0.027394768
0.1556693 0.07492436 0.07273097 -0.19082518 0.08018411 -0.07297255 0.08077698 -0.11200948
-0.16128267 -0.17381817 -0.043695353 0.15029997 0.039327167 -0.13136803 0.1913546 0.26780987
0.1669631 -0.1216831 -0.049856335 -0.12561107 -0.08718887 -0.14989334 -0.08344462 0.1240953
-0.004981609 0.1537564 -0.08860932 -0.0559025 -0.085706525 0.03326736 -0.056318086 -0.04027896
-0.039050803 0.013232995 0.08387458 0.048413776 0.11974481 -0.16595879 -0.18467121 -0.09093629
0.0070050815 -0.1347879 0.10648176 0.07920125 -0.11498772 -0.016039526 0.115009725 0.15102777
-0.03694688 0.19159372 0.3295893 -0.15661366 0.1863185 0.0050904155 0.11820103 -0.15758136
0.20238447 -0.080053814 0.00543714 -0.05820608 -0.0708239 0.09665395 -0.1579001 0.022621384
-0.21703407 0.074553266 0.015458525 0.053706042 0.19867554 -0.0005205543 0.06141026 -0.04291307
0.064508736 0.19594526 -0.00032880597 -0.22011602 -0.11195939 0.09197404 -0.14798965 0.06314938
0.02061053 0.0063387477 -0.02512727 0.15901774 -0.02379629 0.01684105 0.13781895 0.3009449
-0.34452254 0.33289996 0.021888964 0.056702822 0.084816165 -0.32544738 -0.063047305 -0.06153347
0.19917224 0.026872769 -0.12751688 -0.08134853 -0.02388055 -0.080738395 -0.10982239 -0.20044023

network_body._body_endoder.seq_layers.0.bias f4 [256]
00000000: 0000 0000 0000 0000 0000 0000 0000 0000
00000010: 0000 0000 0000 0000 0000 0000 0000 0000
00000020: 0000 0000 0000 0000 0000 0000 0000 0000
00000030: 0000 0000 0000 0000 0000 0000 0000 0000
00000040: 0000 0000 0000 0000 0000 0000 0000 0000
00000050: 0000 0000 0000 0000 0000 0000 0000 0000
00000060: 0000 0000 0000 0000 0000 0000 0000 0000
00000070: 0000 0000 0000 0000 0000 0000 0000 0000
00000080: 0000 0000 0000 0000 0000 0000 0000 0000
00000090: 0000 0000 0000 0000 0000 0000 0000 0000
000000a0: 0000 0000 0000 0000 0000 0000 0000 0000
000000b0: 0000 0000 0000 0000 0000 0000 0000 0000
000000c0: 0000 0000 0000 0000 0000 0000 0000 0000
000000d0: 0000 0000 0000 0000 0000 0000 0000 0000
000000e0: 0000 0000 0000 0000 0000 0000 0000 0000
000000f0: 0000 0000 0000 0000 0000 0000 0000 0000
00000100: 0000 0000 0000 0000 0000 0000 0000 0000
00000110: 0000 0000 0000 0000 0000 0000 0000 0000
00000120: 0000 0000 0000 0000 0000 0000 0000 0000
00000130: 0000 0000 0000 0000 0000 0000 0000 0000
00000140: 0000 0000 0000 0000 0000 0000 0000 0000
00000150: 0000 0000 0000 0000 0000 0000 0000 0000
00000160: 0000 0000 0000 0000 0000 0000 0000 0000
00000170: 0000 0000 0000 0000 0000 0000 0000 0000
00000180: 0000 0000 0000 0000 0000 0000 0000 0000
00000190: 0000 0000 0000 0000 0000 0000 0000 0000
000001a0: 0000 0000 0000 0000 0000 0000 0000 0000
000001b0: 0000 0000 0000 0000 0000 0000 0000 0000
000001c0: 0000 0000 0000 0000 0000 0000 0000 0000
000001d0: 0000 0000 0000 0000 0000 0000 0000 0000
000001e0: 0000 0000 0000 0000 0000 0000 0000 0000
000001f0: 0000 0000 0000 0000 0000 0000 0000 0000
00000200: 0000 0000 0000 0000 0000 0000 0000 0000
00000210: 0000 0000 0000 0000 0000 0000 0000 0000
00000220: 0000 0000 0000 0000 0000 0000 0000 0000
00000230: 0000 0000 0000 0000 0000 0000 0000 0000
00000240: 0000 0000 0000 0000 0000 0000 0000 0000
00000250: 0000 0000 0000 0000 0000 0000 0000 0000
00000260: 0000 0000 0000 0000 0000 0000 0000 0000
00000270: 0000 0000 0000 0000 0000 0000 0000 0000
00000280: 0000 0000 0000 0000 0000 0000 0000 0000
00000290: 0000 0000 0000 0000 0000 0000 0000 0000
000002a0: 0000 0000 0000 0000 0000 0000 0000 0000
000002b0: 0000 0000 0000 0000 0000 0000 0000 0000
000002c0: 0000 0000 0000 0000 0000 0000 0000 0000
000002d0: 0000 0000 0000 0000 0000 0000 0000 0000
000002e0: 0000 0000 0000 0000 0000 0000 0000 0000
000002f0: 0000 0000 0000 0000 0000 0000 0000 0000
00000300: 0000 0000 0000 0000 0000 0000 0000 0000
00000310: 0000 0000 0000 0000 0000 0000 0000 0000
00000320: 0000 0000 0000 0000 0000 0000 0000 0000
00000330: 0000 0000 0000 0000 0000 0000 0000 0000
00000340: 0000 0000 0000 0000 0000 0000 0000 0000
00000350: 0000 0000 0000 0000 0000 0000 0000 0000
00000360: 0000 0000 0000 0000 0000 0000 0000 0000
00000370: 0000 0000 0000 0000 0000 0000 0000 0000
00000380: 0000 0000 0000 0000 0000 0000 0000 0000
00000390: 0000 0000 0000 0000 0000 0000 0000 0000
000003a0: 0000 0000 0000 0000 0000 0000 0000 0000
000003b0: 0000 0000 0000 0000 0000 0000 0000 0000
000003c0: 0000 0000 0000 0000 0000 0000 0000 0000
000003d0: 0000 0000 0000 0000 0000 0000 0000 0000
000003e0: 0000 0000 0000 0000 0000 0000 0000 0000
000003f0: 0000 0000 0000 0000 0000 0000 0000 0000
0.0 0.0 0.0 0.0 0.0 0.0 0.0 0.0
0.0 0.0 0.0 0.0 0.0 0.0 0.0 0.0
0.0 0.0 0.0 0.0 0.0 0.0 0.0 0.0
0.0 0.0 0.0 0.0 0.0 0.0 0.0 0.0
0.0 0.0 0.0 0.0 0.0 0.0 0.0 0.0
0.0 0.0 0.0 0.0 0.0 0.0 0.0 0.0
0.0 0.0 0.0 0.0 0.0 0.0 0.0 0.0
0.0 0.0 0.0 0.0 0.0 0.0 0.0 0.0
0.0 0.0 0.0 0.0 0.0 0.0 0.0 0.0
0.0 0.0 0.0 0.0 0.0 0.0 0.0 0.0
0.0 0.0 0.0 0.0 0.0 0.0 0.0 0.0
0.0 0.0 0.0 0.0 0.0 0.0 0.0 0.0
0.0 0.0 0.0 0.0 0.0 0.0 0.0 0.0
0.0 0.0 0.0 0.0 0.0 0.0 0.0 0.0
0.0 0.0 0.0 0.0 0.0 0.0 0.0 0.0
0.0 0.0 0.0 0.0 0.0 0.0 0.0 0.0
0.0 0.0 0.0 0.0 0.0 0.0 0.0 0.0
0.0 0.0 0.0 0.0 0.0 0.0 0.0 0.0
0.0 0.0 0.0 0.0 0.0 0.0 0.0 0.0
0.0 0.0 0.0 0.0 0.0 0.0 0.0 0.0
0.0 0.0 0.0 0.0 0.0 0.0 0.0 0.0
0.0 0.0 0.0 0.0 0.0 0.0 0.0 0.0
0.0 0.0 0.0 0.0 0.0 0.0 0.0 0.0
0.0 0.0 0.0 0.0 0.0 0.0 0.0 0.0
0.0 0.0 0.0 0.0 0.0 0.0 0.0 0.0
0.0 0.0 0.0 0.0 0.0 0.0 0.0 0.0
0.0 0.0 0.0 0.0 0.0 0.0 0.0 0.0
0.0 0.0 0.0 0.0 0.0 0.0 0.0 0.0
0.0 0.0 0.0 0.0 0.0 0.0 0.0 0.0
0.0 0.0 0.0 0.0 0.0 0.0 0.0 0.0
0.0 0.0 0.0 0.0 0.0 0.0 0.0 0.0
0.0 0.0 0.0 0.0 0.0 0.0 0.0 0.0

network_body._body_endoder.seq_layers.2.weight f4 [256, 256]
00000000: eff0 49bd aba9 73bc 03c0 953c 9617 31bd
00000010: cf38 453d 1bde 9d3b 2719 bebd 9765 9b3d
00000020: 6ff3 9a3d b4c6 b2bc c2e4 cabc cf95 f5bd
00000030: edca 2c3d 36c7 7ebd df5d 30bc 2e03 bdbd
00000040: 0986 3dbd 34ae 70bd dfd0 b7bb e552 30bd
00000050: 0adb b23d 6f05 9ebd ad6a b4bd 405a 723d
00000060: 03ab 703d 13a4 87bd 81c5 bb3d 38fe af3c
00000070: 9fff 1c3d 6d0e f7bc aef9 9ebd 8808 96bd
00000080: e3f4 8cbc dcec b1bd c397 49bd 9742 883c
00000090: ece6 d63d ad78 5dbc 24b0 3ebc cbd1 243e
000000a0: cba0 183e ed06 d7bc e043 5ebd 1170 5c3d
000000b0: 8fdf d7bd bffb 7cbc 2502 55bd 4c96 c9bb
000000c0: 45a3 ffbc 4209 9d3c 4ba9 1cbd bccc 423d
000000d0: 5d30 34bd 2925 0b3e e2ed 5dbd 7ea0 6e3d
000000e0: c54c b9bd 606c 103e 196e 3bbc 9e86 13bd
000000f0: 427e c93d 3a64 0c3d f012 963d 4a37 bfbd
00000100: 633e 52bb 667c c53d dcc3 12bd 94b0 9ebb
00000110: 338b 523d 44b1 c2bc a067 bfbc 35b1 10ba
00000120: 3dd5 67bd 2e2f bc3d bcba 74bc 7784 fdbd
00000130: ca43 9dbc d4ef b5bd 702f 1a3d 236a ebbd
00000140: 0e09 763d 9c1b f4ba 3ea6 603d 8c91 19bd
00000150: 22a5 dfbd ab5d adbb 16af 20bd 1c58 5fbd
00000160: 79bf 4abc 423a 43bd 020f f9bd 2fdc edbc
00000170: 190e 2cbd 8a36 a53c 6e11 0a3e 0d07 493d
00000180: 9e8e e7bd c188 cb3d 4e0b 5f3d 6449 36bd
00000190: 1c09 2a3d bfa8 3dbd 86c7 b63c 3c01 843d
000001a0: ed9f 013c aa23 a8bd 2c90 1b3e 1ec6 c8bc
000001b0: 5fac ce3d 1822 83bd a78a 7ebd 4e0a a83b
000001c0: 11dd 2d3d 109f 95bd 522c 1b3e a9be e63c
000001d0: e91a 0e3d 1588 5fbd 26ae 80bd 16c4 33bc
000001e0: bf12 b4bd c2f4 213d 7458 033d 706c 21bd
000001f0: fdca a63d 214c e5bd 9af5 bebd 7276 3cbd
00000200: b8e6 6e3d 915f 503c dfa2 823c 7b86 abbb
00000210: 0f05 f5bd 2989 c9bc dce3 ab3d dccd 5b3d
00000220: 486d 933d f3ba 3ebb dac5 fd3c f531 c5bb
00000230: d28d 873d 264a 323d 3902 2e3d 490d 20bd
00000240: b7d5 ecbc 65ed 5d3d c95a 7bbd 9970 e13d
00000250: 102c b3bd 1edc f9bb 9298 b33d 9f1d 0f3d
00000260: 3ef2 0b3d a5d8 98bd 18ef a5bd 905b cebc
00000270: c2c6 c9bc 8fc5 c0bd a3e5 13bd 38a9 77bc
00000280: 8836 493d 324c aebd e900 803d a219 463d
00000290: 1a76 62bd cf17 c2bd 1e71 95bc 5e0f f4bc
000002a0: f4a6 9f3d 6658 ad3d b9e7 95bc 37db 8dbd
000002b0: ed43 bd3b dc5b 283d 804c a4bd 7ea2 efbd
000002c0: 0a37 febd 79c4 18bd 35dc 68bd fccb 32bd
000002d0: c80f 46bc ded3 6bbd adef b8bc 872f d03d
000002e0: ca80 cd3d 0b07 b4bd ffd6 993d 8e42 d9bd
000002f0: 202a 633d 7939 d0bd daee 903d 00fe 28bd
00000300: 15e6 56bb 93a3 09bd a461 87bd 09df d83d
00000310: 1213 d23c c9e0 043d f936 e3bc 0cca f6bc
00000320: fab5 7a3d f635 683d dd24 a63d 6e2a 923d
00000330: 4ff2 203e 5327 c0bc 50d3 89bc d5aa 23bd
00000340: 2232 263d aadb 89bd f4b9 8abd b9a2 9d3d
00000350: 3a49 9cbc 24cc bebc 9fd3 2ebd 3a1d b2bd
00000360: 5784 dfbd 3dc3 133e e20c 723d 7fe1 5d3b
00000370: 418e 63bc aa6a c7bd 67c3 20bd d953 1dbd
00000380: 128e d53c fd2e 783c cb20 2c3c 1a3b 80bd
00000390: 5942 fd3d 9d88 99bc bf65 123d a871 e1bd
000003a0: 5d84 a8bc 66cb 9cbd 7a94 9f3c 0fa6 603d
000003b0: 7ed1 e2bd 1ce2 fb3c cc77 acbd d8dc bebc
000003c0: 0bcd 4cbd e543 cebc a5b0 513d b571 65bc
000003d0: c372 c13d b8cf 0e3d f98b e3bd 9175 67ba
000003e0: b928 34be b284 1c3c 39d0 2c3d 79d0 a83c
000003f0: ea9b 6e3d ad36 8cbd 2d67 093c 68da 2b3d
-0.049302038 -0.014871995 0.018280035 -0.043235384 0.04814988 0.004817737 -0.09282141 0.07587736
0.075659625 -0.021823265 -0.024767283 -0.11991464 0.042185713 -0.0622017 -0.010764568 -0.09229122
-0.046270404 -0.058759883 -0.005609616 -0.043047804 0.08733185 -0.0771588 -0.08809409 0.0591681
0.05875684 -0.066230915 0.0916853 0.021483526 0.038329717 -0.030158246 -0.07762466 -0.07325846
-0.017206615 -0.086877555 -0.049216997 0.016633315 0.104932636 -0.013517541 -0.011638675 0.16095655
0.14905088 -0.02624842 -0.05426395 0.053817812 -0.10540687 -0.01544088 -0.052004 -0.00615195
-0.031205783 0.019169454 -0.038247388 0.04755853 -0.043991435 0.13588394 -0.05418194 0.058258526
-0.09047846 0.14103842 -0.011439824 -0.036017053 0.09838535 0.03427527 0.07327831 -0.093367174
-0.0032080642 0.09642868 -0.035831317 -0.004842827 0.051402282 -0.023766167 -0.023364842 -0.000551957
-0.056599844 0.09188686 -0.014937099 -0.12378781 -0.019197363 -0.08883634 0.037642896 -0.11494853
0.06006723 -0.0018623951 0.05484604 -0.03749232 -0.109201685 -0.005290707 -0.039229475 -0.054527387
-0.012374752 -0.04766298 -0.12161066 -0.029035656 -0.042005632 0.020167608 0.13483211 0.04907899
-0.11306499 0.09938193 0.05445414 -0.044503585 0.041512594 -0.046303507 0.022311937 0.06445548
0.007911664 -0.082099274 0.15191716 -0.024508532 0.10091471 -0.06402987 -0.062143948 0.0051281815
0.042447153 -0.073057294 0.15153626 0.028167086 0.034693632 -0.054573137 -0.06283216 -0.0109720435
-0.08792638 0.03954006 0.032066777 -0.039410055 0.08144186 -0.11196161 -0.093241885 -0.046011396
0.0583255 0.012718097 0.015946804 -0.005234537 -0.119638555 -0.024601536 0.0839307 0.05366312
0.07198578 -0.002910313 0.030978132 -0.006017918 0.06618847 0.043527745 0.04248259 -0.03907517
-0.0289105 0.054181475 -0.061365876 0.110078044 -0.08748639 -0.007625117 0.08769335 0.03494036
0.034166567 -0.07463197 -0.08102244 -0.025190145 -0.024630908 -0.09412681 -0.03610767 -0.0151160285
0.04912427 -0.08510627 0.062501736 0.04836429 -0.05528841 -0.094771974 -0.018242415 -0.029792484
0.07795516 0.08464126 -0.01829897 -0.069265775 0.0057759196 0.04110323 -0.08022404 -0.11700915
-0.124128416 -0.037296746 -0.05685063 -0.043651566 -0.0120887235 -0.0575751 -0.022575224 0.10165315
0.1003433 -0.08790406 0.075117104 -0.106083974 0.055460095 -0.10167212 0.07076807 -0.04125786
-0.0032790948 -0.033603262 -0.0661042 0.105894156 0.025643859 0.032440934 -0.027736174 -0.03012564
0.061208703 0.056692086 0.081125 0.07136999 0.15717433 -0.023456251 -0.016824394 -0.03995784
0.040575154 -0.06731351 -0.06773749 0.076970525 -0.019077886 -0.023290701 -0.042682286 -0.08696981
-0.10913914 0.14429946 0.059094317 0.003385633 -0.013888896 -0.097371414 -0.03924885 -0.03841004
0.026068721 0.015147922 0.010505865 -0.06261273 0.123661704 -0.0187419 0.035741564 -0.11008006
-0.020570928 -0.07655983 0.019479979 0.054845866 -0.11075114 0.030747466 -0.08421287 -0.023298666
-0.05000023 -0.025178859 0.051193852 -0.014004161 0.09445717 0.034866065 -0.11110682 -0.00088294694
-0.1759366 0.009553121 0.042190764 0.02060722 0.05825416 -0.06846366 0.008386415 0.041956335

network_body._body_endoder.seq_layers.4.weight f4 [256, 256]
00000000: 19cd aa3d 530b 02bd 7993 a5bd 9ba9 cb3d
00000010: 1021 b93c 860e 1d3e c8bf 0bbd 8010 503c
00000020: 811b 833d f095 40bd e286 013e 225a 4d3d
00000030: 09b0 babc b409 b5bc 3654 293d 65c8 0cbb
00000040: 8bdd 3bbd b09e e43d c436 05bd 0537 013e
00000050: a6f7 e2bd a3ea 1d3c d67e 20bd f5ba 32bd
00000060: 592b e73d 8058 253d 1fff 7fbd 313e b23c
00000070: 3bec a3bd 0256 27bc a289 313d 5ac8 d13b
00000080: 13ba e33d 6259 b53d 86a9 94bd e443 753d
00000090: 7b4d aebc 0522 043e 006a 113d 5ef1 a1ba
000000a0: 9064 a4bc bc89 023d d1b9 c8bc 6864 123d
000000b0: 4039 5a3c 10be be3d 399c 243d 344e b73d
000000c0: 0a5c a6bd 1d22 2ebc b6dc bebd 25f8 733c
000000d0: 6d74 e5bb c16c b43d 73a4 0abc d555 7ebc
000000e0: 342d ebb8 7b65 0abd bd30 c23c c5ff 9f3d
000000f0: db8a 813c 7df8 97bc 5513 893c 2e65 563d
00000100: faa0 813d ecc8 f2bc b47e 5cbd b5f1 cbbd
00000110: 775c c4bc e5f4 93bd f093 6abc 1051 b23c
00000120: bf00 a3bd 0c34 e93d 17f1 69bd 4c29 dcbd
00000130: 53a5 b2bc ee46 43bd c249 84bd c5e8 993c
00000140: 9b28 a23c 471b ee3c af82 963c e5a0 d73c
00000150: 33a4 88bd b12b 123d cc67 283c 65bf 0fbc
00000160: 7cd8 67bd 405f c73d ddb6 6f3c f1bc 1f3d
00000170: e506 07bd a396 09bd 958e ffbd de05 6c3d
00000180: b601 e03d 2b82 50bd 2171 2dbc 407e aa3d
00000190: ebe2 44bb 165a 0fbe 245f de3d 3d44 03bd
000001a0: eaf2 77bd b3f3 dfbd 3e72 a53d 254d c83c
000001b0: 9d5a f0bc 50d5 5ebb ef8b 9ebd 1d25 873d
000001c0: 39eb 473c 6375 163d 35a3 84bd 2f6a 143e
000001d0: 80f2 433c 9c54 043c e052 693c 1b32 bf3d
000001e0: 9d39 b0bd 18cc e9bc 154a a3bd cafd 9fbd
000001f0: e7dd 7b3d e926 d6bc b646 64bd 42d2 9cbc
00000200: 4b7d 6abd 7b15 a23d 6665 993d d89e 883d
00000210: a9e5 3abd d2c1 76bd 9778 e73c 6a6e 44bd
00000220: faca b63d cf8f 043e ee14 c0bc 13c9 9ebc
00000230: 5c08 023e c6b8 333d 3b38 f6bb 8067 30bd
00000240: 5c5f 5b3a 7d7d 12bd 6fcf 483d e8e6 89bc
00000250: 6aaa 813d c374 76bd 8229 04be f316 833d
00000260: 3578 0c3d 0bf2 a9bd 5b1f 53ba ab22 39bb
00000270: 781c 36bd bc6b 213c 704b 1d3b 298a 9fbb
00000280: f2ac b63d 6b56 9bbc bdc9 773b e6f3 2f3c
00000290: 487b bcbc a5cc 47bd f9e2 edbc b368 1dbd
000002a0: a2b9 59bc 34fd aa3c c1db f1bc 1016 553d
000002b0: cf37 a5bd 720b b939 0f18 b53d 2842 a83d
000002c0: 3da3 94bd 973a 82bd 9abe fd3d 2cf0 ab3d
000002d0: 242c d23d 9f76 643d f104 4a3c af24 e0bd
000002e0: 5c4b c53c 1ef0 863c 726f 3abd c1ef 33bc
000002f0: daa6 a23b 4adf 18bd 4b77 75bd 6ed6 32bd
00000300: 1cbd 1d3c e348 873c 232c 3c3c 0be0 893d
00000310: ecc9 1e3d 0462 fd3b 9581 233c 63cb ea3a
00000320: 8df9 19bb 9f47 e73d 320d ae3d d9a5 ffbd
00000330: f42f 8ebc 5ba5 b93d 0d35 f33c 0f85 a33b
00000340: 4543 95bd 72c0 443a 5132 43bd 0529 34bd
00000350: f18f 30bd bc89 803c 1101 65bd d542 d3bd
00000360: 2bdf 55bc 0b67 833c 4e00 d53c 3399 d7bd
00000370: 32e4 78bd fe43 50bd 8aa9 88bd fbc0 b3bd
00000380: fe2e 9cbd 3e5c 103d e364 c3bc 9111 d83c
00000390: b3f9 63bd 29b6 623d 5751 dabc 6660 4dbd
000003a0: 60d9 dcbd ed5a 8c3d 247e 51bd 11b0 443c
000003b0: d76b ccbc 6941 2b3d 04b0 a93d 3c7d 6dbd
000003c0: 66c0 8c3d f1f2 133c 8073 9ebc 619e 83bd
000003d0: e979 093d a414 4cbc 3768 dfbc 372a 76ba
000003e0: 145c ba3d 5ef2 d23c 8a17 43bd c8a3 8cbd
000003f0: df38 afbd a444 663d 5711 5e3d 09f2 e03d
0.083399005 -0.03174908 -0.08084769 0.09944459 0.022598773 0.15337572 -0.034118444 0.012699246
0.0640173 -0.04701799 0.1264911 0.050134785 -0.022789018 -0.022099353 0.041340075 -0.002148175
-0.045865577 0.1116308 -0.03252293 0.12618645 -0.110823914 0.009638461 -0.03918346 -0.043635327
0.11287565 0.040367603 -0.06249916 0.02175817 -0.08004042 -0.010213377 0.043344148 0.0064020576
0.11119475 0.08854939 -0.072588965 0.0598792 -0.02127718 0.12903602 0.03550148 -0.0012355258
-0.020067483 0.031869635 -0.024502667 0.035740286 0.0133193135 0.09313595 0.040188048 0.08950463
-0.08123024 -0.01062825 -0.09319441 0.014890705 -0.0070024044 0.08809806 -0.008462059 -0.015523394
-0.00011214093 -0.033788186 0.02370488 0.07812456 0.015813282 -0.018551106 0.016732851 0.052342586
0.06329532 -0.029636823 -0.05383177 -0.09958211 -0.023969872 -0.07224444 -0.014317498 0.02176717
-0.07959127 0.1138688 -0.057114687 -0.10750064 -0.021807348 -0.047675066 -0.06459381 0.018787751
0.019794753 0.029065741 0.018372862 0.026321838 -0.066719435 0.0356862 0.010278653 -0.008773659
-0.05660294 0.09734964 0.014631 0.038998548 -0.03296556 -0.033590924 -0.12478367 0.057622783
0.10937826 -0.050905388 -0.010586054 0.083248615 -0.003004248 -0.13999209 0.108579904 -0.0320475
-0.060534395 -0.10935154 0.080784306 0.024450848 -0.029340083 -0.0034001656 -0.07741534 0.06598876
0.012202078 0.036733042 -0.06476442 0.14493631 0.011959672 0.008076813 0.01424095 0.09335729
-0.08604739 -0.028539702 -0.079731144 -0.07812078 0.06149092 -0.0261416 -0.055731498 -0.019143227
-0.057248395 0.07914253 0.07490043 0.06670922 -0.045629177 -0.060243435 0.028255744 -0.04795686
0.089254335 0.12945484 -0.02344748 -0.019382989 0.12698501 0.043877386 -0.0075140274 -0.043067455
0.00083683967 -0.035764206 0.04902595 -0.016833737 0.06331332 -0.060169946 -0.12906459 0.064008616
0.034294326 -0.08298119 -0.00080536836 -0.0028249423 -0.044460744 0.009852346 0.0024001263 -0.004868765
0.089197055 -0.018962106 0.0037809454 0.010739302 -0.023008004 -0.04877915 -0.029038893 -0.038429927
-0.013288887 0.02087269 -0.029523732 0.052022994 -0.08067285 0.00035294477 0.088424794 0.08215743
-0.07257698 -0.063588314 0.1238987 0.083954185 0.102623254 0.05577719 0.01233028 -0.10944497
0.024083786 0.016471919 -0.04551644 -0.010982455 0.004963738 -0.03732232 -0.05992822 -0.043661527
0.009627607 0.016514247 0.011485132 0.06732186 0.038766786 0.0077326316 0.009979625 0.0017913397
-0.002349469 0.112929575 0.084986106 -0.12482805 -0.01735685 0.09064742 0.029688383 0.004990227
-0.07288221 0.0007505483 -0.047655407 -0.04398443 -0.043106023 0.015690677 -0.05590922 -0.103154816
-0.013053696 0.016040346 0.026001122 -0.10527267 -0.0607645 -0.050846092 -0.06672962 -0.087770425
-0.076261505 0.03524422 -0.023851817 0.026375564 -0.055658054 0.055349503 -0.026650114 -0.05014076
-0.107836485 0.0685328 -0.051145688 0.012004868 -0.024953766 0.041810427 0.082855254 -0.05798076
0.068726346 0.00903009 -0.019342184 -0.06426693 0.03356353 -0.012456093 -0.027271373 -0.0009390446
0.09099594 0.025750335 -0.04762987 -0.06867176 -0.08555769 0.056217805 0.054215755 0.109836645

action_model._continuous_distribution.log_sigma f4 [1, 5]
00000000: 0000 0000 0000 0000 0000 0000 0000 0000
00000010: 0000 0000
0.0 0.0 0.0 0.0 0.0

action_model._continuous_distribution.mu.weight f4 [5, 256]
00000000: 0596 303c 1f29 2bbb 1343 aa3c 60cd 393c
00000010: 85c4 e7bb a825 86bc b406 21bb 4987 c1bb
00000020: ab32 d6ba 3335 2f3c a394 cb3b b2cf f5bb
00000030: 87a4 a03a f87e ae3b db34 be3c 5766 b33c
00000040: 2bff b3ba 13a0 763c ebcd 583b c1ba 16bc
00000050: b091 50bb ecc3 21bb 80be b53c eec6 353c
00000060: 7772 483c 081a abbb 02a3 8a38 bb78 04bb
00000070: 6135 90bc abcd a43c 1594 093b a0c7 5abb
00000080: 1f9c 08bc 0be1 beba 4f32 383b 5bfb 2ebc
00000090: 6ee5 94bb b752 bebc 23c5 513b 85a8 94bc
000000a0: a3b1 89bc 1f37 063c 83bd 52bc d376 003c
000000b0: 0d62 4dbc 8a10 d2bc 037e 1bbc b8fd 74bb
000000c0: db72 513c 3f4a f43b 28c7 8a3c b612 24bc
000000d0: c80e acbc caa9 d9bc 7023 7a3c 42b7 17bc
000000e0: 17bb cd3b 3553 bc3b 7b86 18bb 6f3b 1cbc
000000f0: b84c 59bc 6686 99bb 9b45 003b 7521 ccbb
00000100: 5fe4 4bbb 9bac de3b 3f37 7c3b 88c9 62bb
00000110: cbf8 0cbc cab5 7eb9 d066 b03c 6d91 633c
00000120: fb91 57bb 60f5 cdbc 5a47 81bb 3571 d53c
00000130: e5cb 7f3b 1f8b 323c 61ad 2abc 1719 43bc
00000140: f395 dabb cf1d 183c b108 87bc c8fa 82bb
00000150: 9162 b03c 04a1 823c 47d1 fc3b 7967 b3bc
00000160: 5f7e 3b3c cf38 59bc 64bb 3e3c 3997 163c
00000170: f72e c2bb a5a7 f43b bf0a 453b d38a 3d3c
00000180: e6e8 bd3c fb18 b03c 4f87 613a 7794 80bc
00000190: 20fe b93b 2666 903b 136e 303a 831f 713c
000001a0: de04 90bc d560 753c 1f63 2d3c 8965 adbc
000001b0: 607f 9abc f5a8 f63b 52b1 8abc 66a7 0f3c
000001c0: e7f2 75bb bcb1 02bb ab32 5a3c 75ed 65bb
000001d0: 2a1b 273c ba9c 64bb 2da0 30bb 4486 41bb
000001e0: b741 af3b cff7 45ba d799 053b 5a22 6c3b
000001f0: 80ca 7a3c 3823 c0ba b5a7 cd3b 879a 4dbc
00000200: 6f2f 9bbc 8795 983c 9fdc 6d3c 8e66 0f3c
00000210: 8316 ec39 c8d7 d83b 4fec f33a ff6b dc3a
00000220: 1890 6dbb a8a8 65bb 5d99 d1ba 135a 8a3b
00000230: e3dc 853b 88e7 553c 4062 2ebc 078d 4d3b
00000240: d3f1 84bc df69 be3b 0c81 a7bc 51c7 c83c
00000250: a989 183c b54d 07bc 98d2 c9bc 5885 1bba
00000260: c8e4 5c3b 9328 803c 7860 693c 44f1 02bc
00000270: 8877 113d 50cf d4bb e579 fc3b bb74 5ebb
00000280: 5754 783b b34a 64bc f8e0 153d 9eda 033a
00000290: d4c7 35bb 3bfb 4f3c 5d3f c0bb 6c9a 9dbc
000002a0: 2a1a 9bba 1046 a4bc 72b9 d2bb 7546 54bc
000002b0: f8dd 943b b98a ba3b d034 603b c7e0 afbc
000002c0: 3bcf 1bbb 66c3 973c 8417 91bb f926 2abc
000002d0: d0e2 bc3a b348 01bb c09d fbbb 2a5b ecbb
000002e0: affe b1bc e76e 623b ff43 fc3b 4d3a 5c3c
000002f0: fdb2 db3c 13e6 02bc 4c19 ac3b 02e4 50bc
00000300: 567e 43bc c386 853a 1d12 7fbc 8b5e 3fbc
00000310: e685 473c 0e64 35bc 6f0d b73a dfe6 2a3c
00000320: 65c2 a6ba f3b5 4cbb 0803 91bb 4172 19bb
00000330: 3987 2ebc 2be0 e33b 4c5e 843c 95c5 623c
00000340: 3961 b83c 776e c1ba 7bc2 51bc 9c1f 9dbc
00000350: 326c 63bb 2790 3839 c01e 693c c2de 563c
00000360: 13b4 113c f720 b4bb f14c 893c 38b5 42bc
00000370: 3722 77bc cd3e 943b b018 61bb c9ad a33b
00000380: 4f58 903b 6ff8 49ba 5b77 bcbc f3ee 81bc
00000390: e7f4 7e3b b40c 423c 04f7 aebc f0c7 443c
000003a0: 70b7 e93a 339c 3fbb 4519 783b bfc9 84bb
000003b0: 632e 60bc 4829 3f3c ff32 983a 33c3 e4b9
000003c0: a73e 973c ea9f 333c b3c1 cd3c e7be 3cbc
000003d0: 3bae 333a 03b6 6b3c 206a 213c 0f8f 3abb
000003e0: 0835 9ebc d936 1dbb 57c9 1b3c f7b9 4cbb
000003f0: 9968 193c bb51 583c 8473 40bb 70a0 333c
0.010777955 -0.002611704 0.020783937 0.011340469 -0.0070729875 -0.016375378 -0.0024570646 -0.00590602
-0.0016342005 0.010693836 0.0062127872 -0.007501566 0.0012256064 0.0053251944 0.023218563 0.021899385
-0.0013732662 0.015052813 0.003308172 -0.009199799 -0.0031825118 -0.002468343 0.022185564 0.011094792
0.012234322 -0.005221609 6.610715e-05 -0.0020213563 -0.017603578 0.020117601 0.0020992805 -0.0033383146
-0.008338003 -0.0014562918 0.0028106158 -0.010680045 -0.0045439517 -0.0232328 0.0032008372 -0.018146763
-0.016808337 0.008191853 -0.012862566 0.00784083 -0.012535584 -0.025642652 -0.009490493 -0.0037382673
0.012783731 0.00745514 0.016940668 -0.010014227 -0.021003142 -0.02657022 0.015267238 -0.009260001
0.0062784064 0.0057472237 -0.0023273516 -0.009535654 -0.01326292 -0.004685211 0.0019572738 -0.0062295743
-0.0031111462 0.0067954785 0.0038485078 -0.0034604985 -0.008604239 -0.0002429105 0.0215334 0.013889653
-0.0032893408 -0.025141418 -0.0039452733 0.026054958 0.0039031443 0.010897427 -0.010417313 -0.011907837
-0.0066707074 0.009284451 -0.016483637 -0.0039971806 0.021531375 0.015945919 0.0077153775 -0.021899926
0.011443703 -0.013258173 0.011641357 0.009191328 -0.005926009 0.007466274 0.003006622 0.011568743
0.023182344 0.021496287 0.00086032314 -0.015695794 0.005676046 0.0044067083 0.00067302695 0.014716986
-0.017580446 0.0149767 0.010582714 -0.02116658 -0.018859565 0.0075274655 -0.016930256 0.008767938
-0.0037528814 -0.0019942364 0.013317744 -0.0035084162 0.0101993475 -0.0034883455 -0.002695094 -0.0029529491
0.00534841 -0.000755188 0.0020385885 0.0036031217 0.015307069 -0.0014658934 0.0062760958 -0.012549049
-0.018943517 0.018625988 0.014517932 0.008752478 0.000450302 0.00661752 0.0018609854 0.0016816853
-0.0036249217 -0.0035043154 -0.001599114 0.0042221635 0.0040851696 0.01305569 -0.010643542 0.0031364576
-0.016228592 0.0058109607 -0.020447277 0.024509104 0.0093101645 -0.008258273 -0.024636552 -0.00059326505
0.00337057 0.015644347 0.014244191 -0.0079920925 0.035514385 -0.00649444 0.0077049606 -0.0033944088
0.0037892067 -0.013933825 0.0365915 0.000502983 -0.0027737515 0.012694175 -0.0058669285 -0.019238673
-0.0011833359 -0.02005294 -0.006430798 -0.012956251 0.0045430623 0.0056928066 0.0034211166 -0.021469487
-0.0023774642 0.01852579 -0.004427852 -0.010385268 0.0014410857 -0.001972717 -0.0076787174 -0.007213016
-0.021727888 0.0034550966 0.0076985355 0.013441634 0.026818747 -0.007989424 0.005252039 -0.012749674
-0.011931976 0.0010187257 -0.015568283 -0.011680256 0.01217792 -0.011071218 0.0013965796 0.0104310205
-0.0012722729 -0.003123638 -0.00442541 -0.0023414048 -0.010652357 0.006954213 0.016158246 0.013841053
0.022507297 -0.0014757653 -0.012802715 -0.019180112 -0.003470194 0.00017601308 0.014228523 0.013114633
0.008893031 -0.005497094 0.016760321 -0.011884026 -0.015083841 0.004524088 -0.003434699 0.004995082
0.0044050585 -0.0007704561 -0.023006132 -0.01586101 0.0038903297 0.011843849 -0.02135802 0.012010559
0.0017831158 -0.002923739 0.0037856859 -0.0040523703 -0.013682934 0.011667557 0.0011611878 -0.00043632984
0.018462492 0.010963419 0.025116777 -0.011520124 0.00068542705 0.014386657 0.009851962 -0.0028466617
-0.019312397 -0.002398899 0.009508452 -0.0031238773 0.009363317 0.01320308 -0.0029365728 0.010963544

action_model._continuous_distribution.mu.bias f4 [5]
00000000: 0000 0000 0000 0000 0000 0000 0000 0000
00000010: 0000 0000
0.0 0.0 0.0 0.0 0.0
