results/NearSingularity01/NearSingularity/NearSingularity-2897.onnx (onnx, 582804 bytes, 9 tensors)

network_body._body_endoder.seq_layers.0.weight f4 [256, 46]
00000000: 123f 2d3e 6c64 a93d 945d b5bc bb68 f73d
00000010: 0f90 893e 85bb b0bd e340 47bd 91ca e8bd
00000020: a432 e13d 3268 b2bd eac0 28be 4a60 6c3e
00000030: d8e2 333c b55d 073e 6be2 213d 6775 193c
00000040: bc67 a63c eb75 41bd 2402 383e 0841 92bb
00000050: ab07 b43d 6244 e33d fa12 323e e07b a2bd
00000060: 0e7c 51be 65c1 4cbd 23ed a73d d3d1 2d3d
00000070: 9416 bcbd 6618 03be 3c9e b3bd 9652 c53d
00000080: b9df 5b3d 7856 193d ee48 a4be d31e 9b3d
00000090: e340 19bc 1bb2 d8bc 0d6f 8a3e 6b60 07bd
000000a0: cd65 953c da1a da3c e18e 273e bf0f dd3e
000000b0: b3ef 263d 2763 0cbe 3236 f8bd b319 b23c
000000c0: fedb 7bbd 6d60 eb3d 9a24 393e 43de a43b
000000d0: e281 c43d cc73 5c3d 4d72 733d 5bd0 893d
000000e0: eb0c 293e eab0 bdbd 64ae 5d3e 14bb 2dbe
000000f0: 67d7 38be 2b8c 623e ff77 103e bf90 903d
00000100: 0a5b afbd 9b65 883e c12e 74bd 2a1d 28be
00000110: 8122 e9bd 29e6 fbbd df51 423d 3e91 ad3d
00000120: 191a 06be f373 9bbe 0a74 a1bd 9335 5fbd
00000130: 1053 2bbd 2725 003c 7c0f 1b3e 2b5c 85bd
00000140: e0ea ca3d 32a7 1e3e 85e1 693d 4c0c 873e
00000150: b11c 15bd 79a9 0dbe d618 88be 7e04 52bd
00000160: 4c36 5cbe 4d60 3c3e 4a26 90bd d281 e63e
00000170: eef2 63be f674 143c 90ac 823e 0150 d93d
00000180: d752 fcbd 1748 08be 28f3 91be bbd1 0cbe
00000190: bc59 a93c 9984 54bd d198 a63d 57c1 17be
000001a0: b6f8 403e 56df 563e 96f0 b0bd cd17 ab3d
000001b0: 4808 25be aab3 afbc 2882 43bd fe77 c5bd
000001c0: fc4f 233d 576c f1bd 848c 35be ddfe 993c
000001d0: ddb6 08bc 2e3d 1c3e 19ee 833d bba0 4e3d
000001e0: 84c9 873d 1140 993e 5855 2ebc 6151 223d
000001f0: 4f17 923d 83be ca3d 0711 80be d068 1abe
00000200: f8fd 02bd 7214 c0bd 4016 103c fcb1 00be
00000210: ae04 8f3d e42c 8b3d 165c 9d3d 614c 65be
00000220: 8f89 90be cec2 34be 3d13 6b3d 16c4 0fbe
00000230: 9a40 053c dec9 ad3d 4f0d 7f3e d6f4 28bd
00000240: 484e 4c3d 8efd 1e3d 2c3a 983d ed89 94bd
00000250: 7977 433e 9ea9 13be 34ad abbe 11ab 733e
00000260: d263 0abc 5480 75be 97b4 fcbc f3c7 c43d
00000270: e1c5 b73d 3a42 86be 76f6 40bb 4117 be3d
00000280: e5d6 7dbd 5cba afbb e543 683e c836 87be
00000290: 122b 20be f511 8d3d 544f 113e 5aa0 033e
000002a0: bb5e 2cbd f5e4 563d 25f0 61be 927a c73c
000002b0: 672c b73d fdda 053e 7499 c9bb 1f2f 833c
000002c0: 9d20 723d 7eb0 eabb 7e29 0e3d 861e 4cbe
000002d0: d6c6 4e3d 6cb3 84be adfa ce3d 62f4 0a3a
000002e0: 3db3 003d 9a6e f83b c8ca 79be 7935 9f3c
000002f0: d61d fcbd a13c dbbd 8f47 a23d e306 3dbe
00000300: 67c6 2abe 70bd 143e 0f64 9e3d a47e c1bd
00000310: cf43 16be edde 81be 1d7c 143e fbdc 8c3e
00000320: 5621 c73d 0838 afbd 333d e03d ae6f 0a3d
00000330: e2b7 b4bd 77f4 8c3c 7c4f 6a3d 0e76 44be
00000340: 935e 4ebd b2d9 9d3e 1416 02be b76f 033e
00000350: b7fe 1a3e 6295 873e 66e9 28be e69b 593e
00000360: 7cf0 a5bd 06d4 59be eb7b 99bd a324 243e
00000370: 44e2 91be 0101 253e a37d 20be 1d7e 16be
00000380: 3494 1bbe 1d5d 613d 55e1 a33d 60ec 563e
00000390: 4aea 10be 1906 a63e 448c 6e3c 81bf 7f3e
000003a0: 628f 323c 4e32 38be 876b 203e c30c 8cbd
000003b0: 1d9e 7f3d 9c1f acbc 2716 043d 4979 e1bd
000003c0: 0ea8 57be e95a 32bd f0e7 c43d ff35 673d
000003d0: 7b4b 443e 7456 59bc 2c57 103e ab40 d1bd
000003e0: 4c8f 253e 76b9 d13d 1ce2 a3be 8689 8ebe
000003f0: a024 253c 01cd 523e 59dc 56bd 6d4a 46be
0.1691859 0.08271107 -0.022139348 0.120805226 0.2686772 -0.086295165 -0.048645865 -0.113667615
0.10995987 -0.0871128 -0.16479841 0.23083606 0.010979377 0.1321934 0.03952257 0.00936637
0.020313136 -0.047231596 0.17969567 -0.0044633187 0.08790525 0.11097027 0.17390051 -0.079337835
-0.2045748 -0.049989123 0.08199527 0.042436432 -0.09183994 -0.12802276 -0.08770415 0.09634893
0.053680155 0.03743598 -0.3208689 0.07574239 -0.009353849 -0.026452115 0.2703785 -0.033050936
0.018237019 0.026624132 0.16363098 0.43176076 0.04075594 -0.13709699 -0.12119712 0.02174077
-0.061489098 0.11493001 0.18080369 0.0050313785 0.09595086 0.05382137 0.059435178 0.06729194
0.16508834 -0.09262259 0.21648556 -0.16965896 -0.1805092 0.22123782 0.14108275 0.07058858
-0.08562286 0.2664002 -0.0596149 -0.16417375 -0.11383534 -0.12299759 0.04744136 0.084749684
-0.13095893 -0.303619 -0.07883461 -0.05449445 -0.04182726 0.007821358 0.15142626 -0.0651172
0.0990808 0.15493467 0.057099838 0.2637657 -0.036404315 -0.1383418 -0.26581448 -0.051273815
-0.21505088 0.18396111 -0.07038553 0.4502092 -0.22260639 0.009061089 0.2552228 0.10610963
-0.12320488 -0.1330875 -0.28505826 -0.13751881 0.020672671 -0.051884267 0.08134616 -0.14819847
0.18844876 0.20983633 -0.08639638 0.08354149 -0.1611644 -0.021447975 -0.04773155 -0.09642027
0.0398712 -0.11788242 -0.17729384 0.018798286 -0.008344379 0.15257713 0.06441898 0.050446253
0.06630233 0.2993169 -0.010640465 0.03962839 0.07133352 0.098996185 -0.2501299 -0.15079045
-0.031980485 -0.093789 0.008794367 -0.12567896 0.069833145 0.067956716 0.076835796 -0.22392417
-0.2822995 -0.17652437 0.057391394 -0.14039645 0.008133078 0.08485769 0.2490742 -0.04124912
0.049879342 0.038816027 0.074329704 -0.0725287 0.19088544 -0.14420173 -0.3353058 0.23795725
-0.008446651 -0.23974735 -0.03084783 0.0960845 0.08973289 -0.26222402 -0.0029443777 0.09281779
-0.061972518 -0.005362792 0.2268215 -0.26408982 -0.1564143 0.06888191 0.14190418 0.12854138
-0.04208253 0.052464444 -0.22064264 0.024350438 0.08944016 0.13071819 -0.0061523262 0.01601368
0.059113134 -0.007162153 0.03470754 -0.19933519 0.050482593 -0.25918138 0.10106406 0.0005300698
0.031420935 0.007581544 -0.24393761 0.019434677 -0.12310378 -0.107049234 0.07923805 -0.18459658
-0.16677247 0.1452539 0.077339284 -0.09447983 -0.14674304 -0.2536539 0.1450047 0.27512345
0.09723155 -0.08555609 0.10949173 0.033797912 -0.08824135 0.017206414 0.05720471 -0.1918566
-0.05038316 0.3083015 -0.12703735 0.12835585 0.15136229 0.26481158 -0.16495284 0.21250877
-0.081025094 -0.21272287 -0.074943386 0.16029601 -0.2849294 0.16113664 -0.15672927 -0.14696546
-0.15193254 0.05502044 0.08001963 0.20988607 -0.14151874 0.32426527 0.014559809 0.24975397
0.010898443 -0.1798794 0.15666018 -0.068383716 0.062406648 -0.021011166 0.03224769 -0.110094614
-0.21060202 -0.04354373 0.09614551 0.05644798 0.19169419 -0.013265241 0.14095753 -0.102174126
0.16167945 0.10240452 -0.32008445 -0.27839297 0.010079533 0.20586015 -0.052456234 -0.19364329

network_body._body_endoder.seq_layers.0.bias f4 [256]
00000000: 4d21 ef3a bcb7 8f3b 4e2b ac3b ae29 8d3b
00000010: e3fb 96bb 021a 58bb 6691 64ba d740 a43b
00000020: 2bdf 81bb eff5 61bb d2ad 5abb ae73 b23b
00000030: b571 c7ba 2811 693b 6f8b 78bb 2139 46bb
00000040: 6519 a1ba bfea 923b d1b2 9f3b 7a64 b7ba
00000050: af9a c439 8dbb 10bb 16d7 d1bb 39e1 dbba
00000060: 6b55 6f3b 0689 c038 8a62 80bb 707b b73a
00000070: c459 103a 0678 c83b d77b 013b 2ec6 27ba
00000080: 15f7 953a 9637 b83b bf69 bdbb b55e 0f3b
00000090: e381 a33a d362 25bb cb8c d3ba 2494 25bb
000000a0: 0679 a9bb 7d59 d13a 19bd 17bb 2350 003b
000000b0: d5ca 793a f7ec a8ba 77b5 9dbb 2ec8 19ba
000000c0: 8137 463b 183d cdb9 e984 a938 40f9 ce3a
000000d0: 7466 7cbb 752c 9c3b 9612 90bb 2a31 7c3b
000000e0: ec63 a93b cd7f 9bbb 0c82 733b 32be bbbb
000000f0: 1cb7 20bb f4ab 703b 7f64 6e3b e03b e2ba
00000100: d275 1d3b f292 7d3b 8958 863b 7129 c63b
00000110: 7f09 503b 010f 82bb a5ac 883a fbae 80bb
00000120: b495 513a 4ca7 b7bb deb8 0b3b f3de cd3a
00000130: ca8d c03a d0ae e03a 9c94 8b3b 11c1 17bb
00000140: 00f9 853b 89ad 8ebb 85cc 613b 9998 913b
00000150: 2607 803b 965f 93bb ddee bcbb 4326 31ba
00000160: 6e0b a9bb 20ea 2aba 7043 3ebb 9748 b63b
00000170: 71c5 02ba 3677 4a39 5c9f 1a3b 30c9 6a3b
00000180: 2b62 5b3b 3013 7dbb 1ef3 abba 9715 ae3b
00000190: 2184 433b 97b0 42bb 7ba5 2fba 97d7 a53a
000001a0: a458 77bb 2917 83bb aa50 413a 01e1 85ba
000001b0: c073 c838 67de 1fbb b218 aebb 5d82 99ba
000001c0: 75f5 053b 1189 ae3b 4cc3 a2ba f474 31b8
000001d0: 59ff 8f3b d409 c0b9 fcb2 9f3a aa5e bbbb
000001e0: 5a8b 47bb 345e 5bbb 8cd8 75bb 90cb a1bb
000001f0: ca02 a03b f0ed ac3a 1b24 463b d3f0 93bb
00000200: 4c16 9b3b a0bd 49bb e572 2f3b b243 ad3b
00000210: 0928 20bb 2cfb 2d3b 2002 2a3b 97f2 c83a
00000220: 6264 07b9 28cd 41bb 5854 00ba c149 a03b
00000230: 86de d03b 2d5c 06bb c2cc 663b 6a69 bc3b
00000240: 4ba4 823b 16cf 6239 a078 a83a 4564 91bb
00000250: 83b5 813b afdd 38bb 51ef b63b 845e 0f3a
00000260: 5992 a8bb b9a0 cb3a 17da b9bb bedd bcba
00000270: 722f 04bb f013 983b 840f 8d3b f7ca 6b3b
00000280: a12b 553b 15dc 41bb 4afe b33b 9fca c73b
00000290: 647e 12bb b5c2 103b ede0 a23b a623 0cbb
000002a0: d0eb a03b c8f9 bf3b 2f88 733b a75f 313a
000002b0: 3351 913b 6e36 2c39 334d a13b 78f9 2abb
000002c0: da05 813b 2064 c03b 1c0e 653b a917 6cbb
000002d0: b360 8e3b b950 98bb 57f2 653b 90be 65ba
000002e0: d02b a23b 9613 6d3a 9c1e ea3a 9d70 973b
000002f0: 1e84 893b e77c c6bb 60b9 4cbb c3b7 e03a
00000300: ecbf e63a 29a5 c6ba a07a 613a cd2d a6bb
00000310: 1903 78bb 8e0f 7a3b 5090 4e3b 3430 92bb
00000320: 4ead 7cba fab8 c33b 2e48 a23b db1d 673b
00000330: 4e10 9f3b 6c8b d3b9 0932 7ebb 8738 b6bb
00000340: ad2d a4bb 35c6 12bb 4afd 6c3b 0ea9 8cb8
00000350: d6f6 ab3b 02fd bb3b 4f7a 913b 4658 8cbb
00000360: 971e 5abb 885a 703b 6595 bd3b 2bc3 20bb
00000370: 89b3 7dbb 5145 62ba 7236 8b3b 5d52 b23b
00000380: 6b4e d1bb 8db3 bbbb 708b 103b ca2f 9abb
00000390: 56cd 0abb a93c 9e3b fd1e f63b 3f55 6dbb
000003a0: 8263 4e3a f48b b93a 808c a7bb d3e3 b83b
000003b0: c802 da3b f834 d6b9 b4f9 7f3b 475e 0dbb
000003c0: 4c2f 893b e65d 9638 646a 9dbb 2f74 b4b9
000003d0: 49b3 693a 10fb 3fbb 88d4 dcba 2de1 d73b
000003e0: ca7f e1ba c06a 0c3a 1211 c73a 052a ad3b
000003f0: 9dfc 3b3b ce72 2a3b bc02 613b f8c8 b6bb
0.0018244177 0.0043859165 0.0052541858 0.004307947 -0.004607664 -0.0032974486 -0.0008719176 0.0050126123
-0.0039633713 -0.0034478863 -0.0033367765 0.005445919 -0.0015216382 0.0035563204 -0.0037924906 -0.0030246454
-0.0012290893 0.0044835503 0.0048736115 -0.0013991736 0.00037499281 -0.0022084445 -0.006403814 -0.0016775496
0.003651942 9.180796e-05 -0.003917997 0.0013998579 0.000550654 0.0061178235 0.0019757652 -0.00064000755
0.0011441434 0.0056218607 -0.005780428 0.0021876518 0.0012474622 -0.0025235906 -0.0016139982 -0.00252653
-0.005171898 0.0015972104 -0.0023153482 0.0019579015 0.00095288205 -0.0012888004 -0.004812892 -0.0005866316
0.0030245485 -0.00039146165 8.0833044e-05 0.0015790835 -0.0038513215 0.004766042 -0.004396747 0.0038481453
0.0051693823 -0.0047454596 0.0037156371 -0.00572946 -0.0024523204 0.0036723586 0.0036375818 -0.0017260276
0.0024026525 0.0038692323 0.0040999097 0.0060474207 0.0031743941 -0.0039690738 0.0010427429 -0.0039271093
0.0007995025 -0.00560466 0.0021319906 0.0015706703 0.0014690694 0.0017141942 0.004259659 -0.0023155848
0.004088521 -0.004354183 0.0034454179 0.00444324 0.003907102 -0.0044974787 -0.0057657794 -0.00067577156
-0.005158833 -0.00065198727 -0.0029031895 0.0055628526 -0.00049885275 0.0001930863 0.002359352 0.0035825484
0.003347526 -0.0038616173 -0.0013118719 0.0053126323 0.0029833394 -0.0029707307 -0.0006700379 0.0012652752
-0.0037742043 -0.0040005636 0.00073743856 -0.0010214151 9.558303e-05 -0.0024394037 -0.0053130025 -0.0011711825
0.0020440493 0.005326398 -0.0012417822 -4.230901e-05 0.0043944535 -0.00036628416 0.0012184079 -0.005718072
-0.003044805 -0.0033472897 -0.0037513105 -0.0049375966 0.004883145 0.001319347 0.0030233923 -0.0045147925
0.0047328826 -0.0030783191 0.0026771363 0.005287611 -0.0024437925 0.0026547415 0.0025941208 0.0015331086
-0.00012911999 -0.0029571746 -0.00048953807 0.0048916047 0.006374183 -0.0020501718 0.003521726 0.005749871
0.0039868704 0.00021630185 0.0012853332 -0.004437002 0.0039584055 -0.0028208306 0.005582728 0.0005469101
-0.005144399 0.001553557 -0.0056717503 -0.0014409346 -0.0020169881 0.0046410486 0.004304828 0.003597913
0.0032527226 -0.0029580642 0.00549296 0.0060971524 -0.0022353167 0.002208871 0.004970661 -0.0021383553
0.0049109235 0.0058586337 0.003716003 0.00067662675 0.0044347285 0.00016423475 0.004922533 -0.0026088636
0.003937465 0.005871311 0.0034951037 -0.0036024845 0.0043450235 -0.0046482948 0.0035087073 -0.0008764053
0.0049490705 0.0009043751 0.0017861906 0.004621579 0.004196658 -0.00605737 -0.0031238422 0.0017144609
0.0017604805 -0.0015155423 0.00086013414 -0.005071378 -0.0037843643 0.0038156244 0.0031519122 -0.0044613127
-0.00096388615 0.0059729787 0.004952452 0.0035265598 0.0048542386 -0.00040348934 -0.0038787147 -0.005560938
-0.005010328 -0.0022395973 0.0036161714 -6.707209e-05 0.005247931 0.005736948 0.004439629 -0.004282984
-0.0033282393 0.0036675055 0.0057856315 -0.0024530392 -0.0038711748 -0.0008631545 0.0042484337 0.0054419474
-0.006387522 -0.005728191 0.0022055767 -0.004705404 -0.0021179519 0.0048290086 0.0075110183 -0.003621414
0.0007873104 0.0014156089 -0.0051131845 0.005642393 0.0066531636 -0.00040856726 0.0039058747 -0.0021571086
0.0041865464 7.170047e-05 -0.0048039425 -0.0003441884 0.000891496 -0.0029293932 -0.0016848007 0.0065881223
-0.0017204222 0.0005356483 0.0015187582 0.00528455 0.0028684505 0.002600837 0.0034333905 -0.0055781566

network_body._body_endoder.seq_layers.2.weight f4 [256, 256]
00000000: f2e3 e9bc 8121 f43d 93bf 173d ccab c23c
00000010: ab2c 39bb 7a4b 453d d67a b53c 5d4c 653d
00000020: 4dc9 43ba bff0 c3bd ded6 b8bc 6a96 223d
00000030: 0d69 3cbe 5e1a 183d e2ea 8ebd 5cfa 693d
00000040: 7abe 0e3d af62 863c 7b3b 333d 414a 893c
00000050: bde9 393d 261d 1c3d 52b3 03ba 90f9 a6bd
00000060: bf05 1dbd 5cf1 8ebc 03c2 2fbd d082 7ebc
00000070: 36c7 95bc 010d f7ba 364b dc3c ce20 16be
00000080: 1ef8 ed3c 3922 91bd 0d96 aabd b3bb e5bc
00000090: 186f a53b bf83 843c 8d7d 0abc 581d 6b3c
000000a0: 8150 973a 0946 c23c 4fbc 65bd 0da8 9cbd
000000b0: 3895 8cbd db5c 9e3c 46c2 8c3d 4a7d f1bd
000000c0: a27c e63b e80f f93d f19c 373e 4a77 81bb
000000d0: 395e 9cbd 2dbc ba3d c570 b73c 7bdd f43c
000000e0: 9777 443c a32f 783d 408a 3a3d abd0 c7bc
000000f0: e054 8fbd 8d04 523d d6b3 813d 1072 71bc
00000100: c188 07bd adf6 70bd b49c e5bc 79a8 d93c
00000110: efa0 55bd 3504 6a3c a669 a7bb 5eba 033e
00000120: 1225 9bbd 2277 393c acb7 c4bd 28c6 ac3d
00000130: 0dab 52bd d77e 2fbc 6b22 12bd f229 6f3d
00000140: a55d 08be d0c9 02bc 30d9 633c e498 b5bd
00000150: 0768 02be 3265 99bd fb3b c6bb 4b77 193d
00000160: cbc7 77bc fecf a1bd 3245 ea3b 13c3 8abd
00000170: f1db 87bd 52bc 933d 2de1 403d 6904 0c3c
00000180: c952 4ebc c7f5 503d 171e afbd 866b 8aba
00000190: 0aff b3bd 5a05 b0bc 7184 b4bd 1bc8 68bd
000001a0: 120f 7dbd 2a71 afbd b2a2 863c 67e1 8fbc
000001b0: 6375 5c3c 14cb 83bc c0bc 93bd c679 24be
000001c0: 340b 67bd 923b da3d 74ec d43d bdf1 d63b
000001d0: ed01 4c3e 9eed 5bbd 2d00 c2bc 27b3 a73d
000001e0: e1e0 0ebd 1c7e b83d cbcf 27bd 190f 053d
000001f0: aaa8 ae3d 853f aa3c 9735 123d d185 bb3c
00000200: 783b 5e3d 6bb3 483d e9a9 c33d c73f 61bd
00000210: 49de a2bc 3763 013e 2c00 d03d ae79 ac3c
00000220: 019b fc3c 2e88 1a3d cee4 19bd 0ea3 05bd
00000230: ad08 14be bace f43c 40b8 e6b9 8ec7 09bd
00000240: b332 2938 21f8 be3b 1f8f 8e3c 1c81 0a3e
00000250: ef56 d83d b815 2bbd cae4 a83d 3d66 29bc
00000260: ec1b 0f3c 91e7 d83d d0d2 6c3d 740e 093d
00000270: 2a39 2e3d 0d07 413c ee51 253d 793a 123e
00000280: 5b59 ccbd 7ee2 38bd c98b 0ebc 5c4a 11bd
00000290: e40d b7bc 9901 04bd 088e 793d 13f5 113c
000002a0: a7f9 1d3c 51bd a1bb d65c ed3c 7e55 1b3d
000002b0: 7284 763d f700 1dbd 9e06 04bd f588 9cbd
000002c0: b396 b53c 552b 9fbc bd27 f83d 9bfe e83c
000002d0: cc67 8ebd 184e d8bb adf8 2cbc 1a6e 28bd
000002e0: 79bc 2fbb 322f 803d e613 1a3d 9551 00bb
000002f0: 84f0 743d 29b8 973d e11b b03d 09f6 bd3d
00000300: a9d0 4d3c ba00 2c3d 7a15 ad3d 1254 82bd
00000310: 337c b0bd 709b 553d 4262 eb3c bbff 7f3d
00000320: f8d1 10bc 106a e2bc 9e45 e83a d7db b73c
00000330: 7c2e 9cbc b355 5fbc 063f 15bc 986c b8bd
00000340: a74b b23c 654f edbd c75e 39bd ba0b d6bc
00000350: 6f23 e53c dec0 9bbd 2ead e0bc 8a43 543d
00000360: 22bf e4bc 1b2b 583d 25cd 92bc 593b 80bd
00000370: b66f 6ebc afd2 7f3d c550 193d f2f4 ac3d
00000380: ca54 5bbd dd06 18bd 639f 843c eced 9dbc
00000390: b24e 3fbc 35a6 37bd 59bb 403d ef8e b53c
000003a0: 54b0 debc 38ce 1e3d 86b0 723c aeda 88bc
000003b0: f28e f53d 1291 08bd 3a99 74bc 374a 88bd
000003c0: 0b67 673d 885a 293e fef5 29bd f382 b8bc
000003d0: 8c43 91bd 7988 b63d 92ac bc3c 4bf6 6a3d
000003e0: 286f cfbc 4a15 20be ad1c 99bc 7263 58bd
000003f0: 8dfd 0fbd 1d98 7d3c b0f2 783c b047 d23d
-0.028551076 0.11920453 0.037047934 0.02376356 -0.0028255384 0.048167683 0.0221533 0.05598103
-0.0007468656 -0.09567403 -0.022563394 0.039694227 -0.18399449 0.03713452 -0.06978394 0.057123527
0.03484962 0.016404478 0.043757897 0.01675904 0.045388926 0.038113736 -0.0005023974 -0.08153069
-0.038335558 -0.017449073 -0.042909633 -0.015534118 -0.018283468 -0.001884848 0.026891332 -0.14660951
0.029048976 -0.070866056 -0.08329401 -0.028043604 0.005048644 0.016176103 -0.008452785 0.014350258
0.0011544378 0.023715036 -0.05608779 -0.07649241 -0.06864399 0.019331386 0.06872992 -0.11791475
0.0070339004 0.12161237 0.17930962 -0.003950988 -0.07635159 0.09117923 0.02239264 0.029890766
0.011991403 0.060592305 0.045542 -0.024391493 -0.069986105 0.05127387 0.06333129 -0.014736667
-0.033089403 -0.058829 -0.028028823 0.026569592 -0.05215543 0.01428323 -0.00510903 0.12864062
-0.0757543 0.011319907 -0.09605345 0.08436233 -0.051432658 -0.010711393 -0.035677355 0.05838961
-0.13316973 -0.007982686 0.013906762 -0.08867052 -0.12734996 -0.074900046 -0.0060496307 0.037467282
-0.015123318 -0.079009995 0.007149362 -0.06775489 -0.06633747 0.072136536 0.047089744 0.008545973
-0.01259298 0.05101564 -0.08550661 -0.0010560609 -0.08788879 -0.021486927 -0.08814324 -0.05683146
-0.06178195 -0.08566506 0.016435001 -0.017563535 0.013455722 -0.016088046 -0.072137356 -0.16062078
-0.05640717 0.106558934 0.10396662 0.006559579 0.1992261 -0.053693406 -0.023681724 0.081884675
-0.03488243 0.090084285 -0.04096965 0.0324851 0.08528264 0.020782242 0.03569564 0.022890957
0.054255933 0.04899923 0.09553892 -0.054992463 -0.019881384 0.12635504 0.10156283 0.021054115
0.03083563 0.037727527 -0.03757172 -0.032626204 -0.14456435 0.029883731 -0.00044006296 -0.033637576
4.0339957e-05 0.005827919 0.01740223 0.13525814 0.10563456 -0.04176876 0.08246763 -0.010339317
0.008734684 0.10591043 0.057818234 0.03346105 0.042534985 0.011781466 0.040361337 0.14280118
-0.09977981 -0.045137875 -0.00870032 -0.035471305 -0.02234549 -0.032228086 0.060926467 0.008908528
0.009642041 -0.0049358984 0.028974932 0.03792333 0.060184903 -0.038331 -0.032232873 -0.0764331
0.022166586 -0.019429842 0.121169545 0.028441718 -0.069533914 -0.0066011064 -0.010557336 -0.041120626
-0.002681522 0.06259002 0.037616633 -0.0019579877 0.059799686 0.07408173 0.085990675 0.09275443
0.0125619555 0.04199288 0.08451362 -0.063636914 -0.08617439 0.05215019 0.028733376 0.062499743
-0.008839123 -0.027638465 0.0017720943 0.022443695 -0.019065134 -0.013631272 -0.009109264 -0.090050876
0.02176459 -0.11587409 -0.045256402 -0.026128639 0.027970998 -0.07605146 -0.027426329 0.051822223
-0.02792317 0.052775484 -0.017920086 -0.0626132 -0.014553001 0.062456783 0.037430543 0.08445157
-0.053547658 -0.03711592 0.016189283 -0.019278489 -0.011676477 -0.04483624 0.04705367 0.022162883
-0.02718369 0.038770884 0.014812594 -0.016705837 0.11990155 -0.033341475 -0.01492911 -0.0665478
0.056494754 0.16538441 -0.041494362 -0.022523379 -0.07092962 0.08912749 0.023031507 0.05736379
-0.025321558 -0.15633121 -0.018690431 -0.052829213 -0.035153914 0.015478161 0.01519458 0.102675796

network_body._body_endoder.seq_layers.2.bias f4 [256]
00000000: ab15 943b 86b5 1eb9 b4e7 85bb c9e9 973b
00000010: bc51 39ba 188b 153b 7c97 49bb 8518 983b
00000020: 37d9 3eba 280f 8a3b 7688 9b3b 85b9 8339
00000030: f7e4 62bb 6e0f 4239 2428 92bb dd8e 8d3b
00000040: 8639 26bb 115b 29bb e7cb ae3b 2fc7 df39
00000050: d44c 4e3b 9d7c 8b3b 1111 0aba 8f05 20bb
00000060: ecb7 afbb 4fde b7ba 579d f73a 7a1f 363b
00000070: cdc4 fe3a 0981 633b 6858 03bb 5a84 d438
00000080: bc6f d73a cebf 5ebb 1fda cb39 2fcd 003a
00000090: 3088 8ebb c149 b13b 4009 a4bb ed72 83bb
000000a0: b4b7 3b3a 2978 9abb e4cc 7c3b 968f 9f3b
000000b0: 2fc5 233b b8fd c8bb 4a7d b7bb dfd0 8e3b
000000c0: ba54 82bb 08e9 ab3b 8988 bbba e0cb 8f3b
000000d0: 8cf4 9b3b 4eb8 bcbb cc18 b73b 5c11 433b
000000e0: 7bfa 9fbb 484a 4abb 4edf 39bb 820c 903b
000000f0: 1afd 76bb b63c 97bb 3f35 8c3b dbdb baba
00000100: 1493 9cbb e8c0 a13b 4d78 223b 4696 b539
00000110: 70a2 bd3b 5d64 cdba 1540 a6bb 14bf a13b
00000120: 7f89 d23b 41c6 c23b 8dcb 64b9 d42a 63b9
00000130: 7773 923b 90b6 203b 5aa8 563a 4993 733b
00000140: 6b8c 883b 6f16 b1ba 37e5 ceba 9a7d 80ba
00000150: 4afb b53b 0d71 79bb 9bfd 91ba 6ccd 083b
00000160: eeda d73a 9412 c23b 8d57 983a 564f 5aba
00000170: ffb6 a8bb 5f73 a1bb 626c c9bb 84c0 b1bb
00000180: d0c6 453b d83b ea3a f473 71bb 562e a8bb
00000190: 71af a23b b17e 063b 956b 853b 0806 b33b
000001a0: 1223 3a3b 9796 563b 9e00 89bb 7367 71ba
000001b0: 48b8 933b aa2c 823b 6aa9 aa3b c34d d7bb
000001c0: a70a afba 9f32 56bb 54cc 9f3b 43b2 7b3b
000001d0: c042 c83a 7a1b e539 579f f239 718b 83bb
000001e0: 7998 943b ee41 2fba e788 773b 21e9 54ba
000001f0: 45e2 4d3b 0412 b73b 6b7f 003b 04a4 c23b
00000200: 6ca5 18bb 37c8 79bb 0a3b a7bb 361a 89bb
00000210: 390d 413b 087e 7b3b da21 b23b 4650 393b
00000220: 2f58 cdb9 989a 2eb7 cc5a 623b 24b1 c93b
00000230: f923 d93b 5815 c53b 74d5 a23b 1c09 4239
00000240: 396c 583b 0f92 9e3b 7659 bb3a e3df 97bb
00000250: d998 ebba 22fa 46bb 253a 30bb 75ab acbb
00000260: 6b40 adba 9566 533b 8242 39bb b9b7 ce3b
00000270: 5b07 b6bb edd2 943b 7412 9c3b b667 323b
00000280: f6f7 573b fe01 80bb 7144 96bb b1b2 b3bb
00000290: f241 2dbb dc34 c239 21c0 56b9 b4db 5d3b
000002a0: 70f9 443b e6d1 59bb 3a68 af3a 95ef b43a
000002b0: ec38 113a 4f43 68bb 5247 a23a a983 8e3b
000002c0: 883a ac3b c6ac 923b bbbf 8ebb c93c 8ebb
000002d0: 46b0 79bb ac93 baba 7101 2aba 74f0 c9bb
000002e0: 33c5 aabb 4199 31bb 2c23 7cb8 aa62 c6bb
000002f0: a314 abbb 4c52 faba 8dcb 93bb 664f 433b
00000300: 5335 a5bb f295 ac3a db02 b53b f548 513a
00000310: e34e 96bb b711 953b 8a67 9fbb 37c5 f93a
00000320: 5dd1 9a3b 0f18 8e3a 087b ac3b 043c a4bb
00000330: c35d 07bb 4268 c4bb 01f3 043b 5fec efba
00000340: e203 5c3b 82c4 133b 5cf2 423b 4ac1 d5ba
00000350: 2860 913b 59bc 01bb 5d9f bb3b 9dc4 98bb
00000360: b42e 14bb 743e a1bb 447d 4d3b b215 43bb
00000370: 43ef baba 8b37 bf3a 0168 73bb 7a25 93bb
00000380: bb3f 8e3b 85ac 15bb 5ef6 0639 bc2a a73a
00000390: ce0b a2bb 52dc 153a 56e0 0bbb a9e1 ef3a
000003a0: 2c0b 20ba 04cd 943a 6291 fdba 0f08 9d3b
000003b0: b165 7bbb 54f8 9939 fca7 bcbb d686 173b
000003c0: 07fe 31bb 8073 01ba ef11 bdba 0f13 b93b
000003d0: 72b3 aebb 1c28 73bb 5736 e9ba 132b 103a
000003e0: 63bb b43b 88ab 853b 1e0b 193b 0aba 6dba
000003f0: 7d32 98bb a38f b33b d933 bb3b 4d49 93bb
0.0045191846 -0.00015135677 -0.004086459 0.0046360237 -0.00070693693 0.0022818502 -0.0030760458 0.004641595
-0.00072802923 0.0042132325 0.004746492 0.0002512449 -0.0034621337 0.0001850703 -0.0044603515 0.004320009
-0.0025363876 -0.0025841633 0.0053343656 0.00042682278 0.0031478899 0.0042567984 -0.00052668253 -0.0024417376
-0.0053625014 -0.0014028045 0.0018891495 0.0027789758 0.0019437313 0.0034714362 -0.0020041708 0.000101336
0.0016436498 -0.0033988836 0.0003888169 0.0004913387 -0.004349731 0.0054104035 -0.0050059855 -0.004011503
0.0007160858 -0.0047140312 0.0038574273 0.0048694117 0.0024989357 -0.0061337613 -0.0055996524 0.0043583955
-0.0039773853 0.0052462853 -0.0014307658 0.0043883175 0.004759377 -0.0057592755 0.005587673 0.0029764986
-0.0048821545 -0.003086703 -0.002836186 0.0043960223 -0.0037687481 -0.0046153916 0.0042788084 -0.0014256196
-0.0047782753 0.0049363263 0.0024790943 0.00034634973 0.0057871863 -0.0015670169 -0.005073557 0.0049361084
0.006425082 0.005944044 -0.00021819603 -0.00021664362 0.004469331 0.0024522878 0.00081885385 0.0037166646
0.0041671298 -0.0013510714 -0.0015784864 -0.0009803057 0.0055536376 -0.0038061768 -0.0011138202 0.0020874394
0.0016468444 0.005922625 0.0011622772 -0.0008327862 -0.005148768 -0.0049270834 -0.0061469534 -0.005424561
0.0030178316 0.0017870618 -0.0036842795 -0.005132477 0.004964762 0.0020522291 0.0040716627 0.0054633655
0.0028402251 0.0032743567 -0.004180982 -0.00092088355 0.004508052 0.0039726095 0.005208184 -0.006570549
-0.0013354615 -0.003268398 0.0048766527 0.0038405813 0.0015278682 0.00043698755 0.00046276554 -0.0040144254
0.0045347777 -0.00066855445 0.003777081 -0.0008121897 0.0031415385 0.0055868644 0.0019607197 0.0059399623
-0.0023291958 -0.0038113722 -0.0051034736 -0.004184033 0.0029457344 0.003837468 0.0054361643 0.0028276606
-0.0003916635 -1.0407202e-05 0.0034538982 0.00615515 0.0066266027 0.0060145073 0.0049692933 0.00018504675
0.003302349 0.004839189 0.0014293629 -0.0046348437 -0.0017974629 -0.0030361493 -0.0026890126 -0.0052694627
-0.0013218051 0.0032257189 -0.0028268402 0.0063085225 -0.005555076 0.004541746 0.004762942 0.002722246
0.0032954193 -0.0039064875 -0.0045857956 -0.005483948 -0.0026437012 0.00037041947 -0.00020480204 0.0033852877
0.0030055903 -0.0033236681 0.0013382502 0.0013804311 0.0005539793 -0.003544051 0.0012380874 0.004349191
0.005256001 0.0044761626 -0.004356352 -0.0043407422 -0.0038099452 -0.0014234683 -0.00064852 -0.0061626974
-0.0052114963 -0.0027099403 -6.011424e-05 -0.006054242 -0.005220966 -0.0019098013 -0.004510349 0.0029801964
-0.005041757 0.0013167246 0.005524022 0.0007983589 -0.0045870407 0.004549231 -0.0048646377 0.0019055967
0.004724665 0.001084091 0.00526369 -0.005012037 -0.0020655252 -0.005993874 0.0020286443 -0.0018304697
0.003357165 0.0022547548 0.0029746508 -0.0016308215 0.0044365115 -0.0019796102 0.0057257847 -0.00466211
-0.0022610845 -0.004920775 0.0031355182 -0.002976757 -0.0014261979 0.0014588697 -0.0037140849 -0.0044905515
0.0043410934 -0.0022838425 0.00012871015 0.0012753825 -0.004945255 0.0005716729 -0.0021343431 0.0018301505
-0.00061051804 0.0011352603 -0.0019345696 0.0047922204 -0.0038360173 0.00029367453 -0.00575733 0.002312114
-0.0027159469 -0.00049381703 -0.00144249 0.005648024 -0.00533145 -0.0037102764 -0.0017792684 0.00054995826
0.0055155023 0.004079286 0.0023352574 -0.00090685545 -0.0046446905 0.0054797693 0.005712968 -0.004494822

network_body._body_endoder.seq_layers.4.weight f4 [256, 256]
00000000: 5426 0b3d 25ed 7cbd 6ec7 a93d 6c39 d1bd
00000010: 3851 a53d 5693 20bc 1bda b33d 395b a9bc
00000020: 5e4f 713d af36 b63c 0ebc aebd 1f20 723d
00000030: 8046 ab3c 4a4f 733d dd4a 1c3d c052 ee3d
00000040: fa72 af3d c2eb 90bd f8a7 cfbc b53f f2bc
00000050: f85c 713d 8777 c83d e069 7a3d 238b a23d
00000060: 4f83 c4bb a76a b03d a82f 87bc 3849 e0bd
00000070: a026 87bc 8312 12bd 61ec b43d 4fd3 183d
00000080: 77cc 02be 58a3 c83c c639 cc3d d0c9 47bd
00000090: fa10 a13c 68df 7cbd 496f 6abd 19a8 4e3d
000000a0: a451 983d 6ba1 71ba 7657 55bb ee14 4d3d
000000b0: 5b16 963d bab2 8dbc 57e9 a93b 133f 9bbb
000000c0: 463d 80bd 01e0 5ebd eb4c 9bbd dc74 f63d
000000d0: b938 013d bacf cc3c 5b36 28bb 3769 593c
000000e0: f172 c03b 2fd0 2d3b 24c2 d139 cae1 8abb
000000f0: b05b b93d 9c90 163d 97cd 2bbd 9ceb 9ebc
00000100: 1176 a03d 0ee1 85bd 7706 123d 8cd1 abbd
00000110: 5dae 163d 309b 22bd f5c7 503d b254 9b3d
00000120: 2c99 19be 4892 a6bd ade8 9d3d f1ad 953d
00000130: f871 d83c 680d d3bc 2991 0d3d db10 7a3c
00000140: 065e 273d 8dbd 03be bac2 0a3b b365 9abd
00000150: 4646 8ebc e239 ad3d 34a2 d5bc 56f6 8abd
00000160: f406 dabc 99a7 b43d a9d0 a0bd f359 f0bd
00000170: 701f e5bc 1e1e 563d 199c 6b3d 35d4 5dbd
00000180: 131e 63bd 3bd0 603d 8ef9 083d 52f6 3b3c
00000190: f3c3 663d 670e 97bd aec2 c43d 2583 7cbd
000001a0: ae2f 92ba 5ba1 32bd 4b17 28bb da8f 6cbb
000001b0: a42a cfbd a1ac cebc 4d2e 68bd 1b36 25bd
000001c0: 9640 5e3d 1d19 c23d 613c 42bb aade 813d
000001d0: 0e5f 373d 5f4b d23c b021 a2bd c687 d13c
000001e0: 6b3f 20be e3bd ba3d d09e 4c3c 4482 aa3c
000001f0: 7810 653d 3bb9 95bd b71f 8cbd 386b 073c
00000200: 2a6f 2bbd 60aa 343d f71e f23d 71ab 57bc
00000210: 94f5 e9b7 e499 183c 624f 9ebb 40da 9e3d
00000220: d5fc 23bd 1a71 5dbc c785 84bc 2eaf fd3d
00000230: 75a4 8fbd 9940 0fbd e0a6 f5bc 916c b2bd
00000240: 9e86 b23c 9d1b b1bc ce77 ed3a 8761 513d
00000250: b1e5 3a3d ffd0 c23d 559c 533d ef42 a63d
00000260: 1280 44bd c43d c23d d4a4 64bc 1fcc f33c
00000270: abda 6f3d 024b 813c 6189 843d 8c81 0fbd
00000280: c223 df3d cce8 893d 4885 3abd 03d6 adbd
00000290: dbaa 433e 35d9 10bd 7d1c 52bb 7f77 5cbd
000002a0: 8137 f73c b859 b2bd b549 d53d c69a c43b
000002b0: cf55 d3bb ea0e 0ebd 7f44 203d 141d a1bd
000002c0: bbfd 06bd c8c7 233d 3222 8d3c 5b28 e63d
000002d0: a23d c93b 3898 af3d 1c2f 473c bb82 bebc
000002e0: d07f 003d c077 a83d ceb6 17be 4043 113e
000002f0: abf7 aebc c194 55bd a0cc ba3d 6f61 d8bd
00000300: 4cda a83c d3e7 0bbd 0de2 0a3d c9e2 b23d
00000310: ae14 71bd dcb9 a2bd ee33 b4bc e293 9abd
00000320: 9aa7 c1bb c425 b2bc dfec 21bc f627 de3d
00000330: a1cc 603c b1f0 3dbc 6cb0 163d 8d7c 0b3d
00000340: eb51 123d a567 363c 4b41 bfbb dd51 bbbc
00000350: 4f0e a43b b0a3 e13c 0e92 7e3d 6468 96bc
00000360: 055b 553c a886 183d 40ac 283d a117 dd3c
00000370: 42a7 0f3d a8f8 1039 32d1 d53b f436 f33a
00000380: 3b32 483d b6ff fbbd 9d58 063d dcff 33be
00000390: 82f2 ecbc 8f7d 843c 6c8d 193d 008d 8fbd
000003a0: 5a6a 543c cc08 d3bd de3d 643d 61e5 fbbc
000003b0: 7ff1 8d3d 6724 cfbc 6b14 003d 46d6 22bd
000003c0: 4539 aabd 85b7 983d 91c5 373b 938b 0b3c
000003d0: b053 ef3c aa0c 2dbd c796 e7bd ef6a 2b3c
000003e0: ec40 883b a295 713d 1eaf 4dbd ebb9 8b3d
000003f0: af44 10be 548d 4b3d 796d f1bc e2a0 be3c
0.0339721 -0.061749596 0.08289991 -0.102160305 0.08072132 -0.009800753 0.08781835 -0.020673381
0.05891358 0.022242872 -0.08531962 0.059112664 0.02090764 0.059401788 0.038157333 0.11636877
0.08566852 -0.07076217 -0.025348648 -0.029571394 0.058926553 0.09788423 0.061136127 0.079366945
-0.0059970985 0.08614092 -0.016502216 -0.10951465 -0.01649791 -0.035662185 0.08834148 0.037310895
-0.1277331 0.02449195 0.09971957 -0.048776448 0.019661415 -0.061736494 -0.057235036 0.05045328
0.07437447 -0.00092174736 -0.0032553351 0.05006879 0.07328483 -0.017297138 0.005185287 -0.0047377436
-0.06261687 -0.054412846 -0.0758303 0.12034008 0.031548236 0.025001395 -0.0025667164 0.013269714
0.005873077 0.0026521792 0.00040008232 -0.004238342 0.09050691 0.036759004 -0.041944113 -0.019399457
0.078350194 -0.065370664 0.035650697 -0.08389577 0.03678738 -0.03969878 0.050971944 0.07584514
-0.14999837 -0.0813337 0.07710395 0.07308567 0.026421532 -0.025763229 0.034562264 0.015262808
0.040861152 -0.12865277 0.0021173195 -0.07538929 -0.017367493 0.08458306 -0.026078321 -0.06785266
-0.026614644 0.08821029 -0.07852299 -0.117359065 -0.027969092 0.052274816 0.057521913 -0.054157455
-0.055448603 0.054886084 0.03344112 0.011472302 0.056339215 -0.07375794 0.09607445 -0.061648507
-0.0011153126 -0.04361091 -0.002564865 -0.0036096484 -0.10115555 -0.0252288 -0.05668478 -0.040334802
0.054260813 0.09477446 -0.002963804 0.06341298 0.044768386 0.025670705 -0.07916582 0.025577437
-0.15649192 0.09118249 0.012489036 0.020814069 0.05592391 -0.073107205 -0.068419866 0.008265309
-0.04185406 0.044107795 0.11822312 -0.013163433 -2.789012e-05 0.009314034 -0.0048312405 0.07756472
-0.04003604 -0.013515735 -0.016177071 0.123869285 -0.070137896 -0.034973715 -0.029986799 -0.08712114
0.021792706 -0.021619612 0.001811737 0.0511184 0.045629207 0.09512519 0.05166276 0.08118235
-0.0479737 0.09484437 -0.013955314 0.029760418 0.058558147 0.015782837 0.064715154 -0.035035655
0.10895492 0.067338556 -0.045537263 -0.08488085 0.19108145 -0.035363395 -0.0032060437 -0.053824898
0.030177834 -0.08708519 0.10414449 0.0059998957 -0.006449438 -0.034682192 0.039127823 -0.07866874
-0.03295682 0.039985448 0.01722822 0.11238166 0.0061413804 0.08573955 0.012157228 -0.023255697
0.03137189 0.082259655 -0.14815828 0.1418581 -0.021358332 -0.052143816 0.0912106 -0.10565459
0.020611905 -0.03415663 0.033906985 0.08734662 -0.058857612 -0.07945606 -0.021997418 -0.07547738
-0.0059098722 -0.021746524 -0.009883135 0.10847466 0.013720662 -0.01159303 0.036789343 0.034054328
0.035722654 0.011133109 -0.005836641 -0.022866184 0.0050065885 0.027543873 0.062151007 -0.018360324
0.013022189 0.037237793 0.041179895 0.026988806 0.03507162 0.00013825542 0.006525182 0.0018555806
0.04887603 -0.12304632 0.032799352 -0.17578071 -0.02892423 0.016173152 0.037488386 -0.070093155
0.012964809 -0.10304412 0.055723064 -0.030749025 0.06930827 -0.025285913 0.031269472 -0.03975513
-0.083117045 0.074568786 0.0028041343 0.008517164 0.02921471 -0.042248406 -0.11308055 0.010462507
0.00415813 0.05898059 -0.050215833 0.068225704 -0.140887 0.049695328 -0.029471146 0.023270074

network_body._body_endoder.seq_layers.4.bias f4 [256]
00000000: 18fb 98bb 45c1 663b f25f 96bb 720f 903b
00000010: 6bc0 87b9 f153 18bb f6e6 70bb b4e3 e4ba
00000020: 9053 9abb 2baf 5b3a a62e b53b 8661 613a
00000030: d3ff d8ba fe9d 03ba e80e d63a 6087 1b36
00000040: 7768 73bb 1bcc 253b a25a 8b3b cd64 643a
00000050: 31f1 32bb acb7 2e3b d6de 46ba 88c2 ae3b
00000060: fed5 a2bb 774a 49ba 7a3e e1b9 2e4b 053b
00000070: 09d0 973b d7d5 6e3b 1fef 5bbb a61e 9cbb
00000080: a3f0 083b 53a7 a23b 5dd6 773b 2a6a 2c3b
00000090: c5c5 b33b 72ee 85bb 71a0 e73a ec3c 0cbb
000000a0: b540 09bb c2a7 aebb 4362 a8bb 491e 9f3b
000000b0: 6211 2f3b e490 24bb d072 753a 7514 843b
000000c0: ac8a 82bb 464d 9bb7 e4c2 ae3b ad5f e63a
000000d0: 25f1 64bb 632f b2bb 1292 4cbb 377d 253b
000000e0: 2028 eab5 3c28 203b d3df cd39 6ffa b03b
000000f0: fe11 fd3a def9 9d3b fa54 82bb 3629 bfbb
00000100: 87c0 163b 36ff 293b 76eb a2bb 9f31 b5bb
00000110: 8f67 0b3b 81b9 813b 7294 2f3b 7ebe a4bb
00000120: 27c4 603b c5fc 22bb 167e c03b 99a4 c73b
00000130: 26c9 69bb 366b f83a 4486 123b 4216 a13b
00000140: f256 bdba 36f7 963b 299c 80ba d50c 9a3b
00000150: 6735 10ba 6412 60bb 7dbb 6439 5afe 67bb
00000160: 7f79 2e3b 7ca7 79bb 8edb 07bb 29b8 82bb
00000170: 58e8 1a3b 76d5 293b 74dc 3bbb 23f1 6c3b
00000180: c29d 7c3b fe70 c43b 8002 6bbb ba0c 7ebb
00000190: ceb8 adbb e462 8fbb c5e5 af3b d9f9 c83b
000001a0: e82c e939 6343 973a b62d cc3a 6e3b dd3a
000001b0: a70e afb9 1d46 c33b d52f ccbb 0997 993a
000001c0: 1d9d c9bb 8e2d daba 384f 9dbb f162 8bba
000001d0: 612a 763b b216 acbb 2511 65bb 6f2f b6bb
000001e0: ec32 a8bb e14a 98bb d209 523b 9d53 9fbb
000001f0: eee0 65bb cdfa 273b 4955 943a af60 3d3b
00000200: 125b abbb d92f 963b 5ead f13a 634b 9f3b
00000210: 50e4 b0bb 32b5 a23b c60d d03b 2a7d ab3b
00000220: bd7f 703b 6d05 86bb a31f a73b 1c69 3d3b
00000230: 5fdd 003b 9377 20bb 630e a0bb 3008 acbb
00000240: 5346 bfba 1d08 6abb c0e8 95bb 9303 3a3a
00000250: 8016 4c3b e106 f038 7a2c 6e3a 4a3b 91ba
00000260: 07db a63a e76b 5e3b 86b8 6dbb fc21 71bb
00000270: 3b4b 843b e05e 6e3a 0a19 323b b4f3 c2ba
00000280: c4e5 d73a 16cd abbb 8351 b03b d7cb 803b
00000290: e530 96bb ea8d abba 1560 af3b 5b1c a5bb
000002a0: de89 b63a 5ace 023a 5a34 8cbb 2b5e 623b
000002b0: 253d afbb 5650 b1bb 15d4 a6ba fa44 943b
000002c0: 3e4d b33b 8d3a b13a f67c a93a fcf3 b93b
000002d0: b81c 65b6 10f3 5dbb 9b4e 99b9 7fa4 a7bb
000002e0: 0ec9 c9b9 3f53 ed3a e69a a43b c0f9 9339
000002f0: a002 0b3a 6cee 0ebb 76db 903b 7ed8 ac3b
00000300: 815e b1bb 9a7b aa3b a831 863b 8da5 adbb
00000310: 5d75 52bb 1c09 48bb d965 3cbb dca4 4c3b
00000320: 9ea2 9bbb d2e5 1e3b b3cc 88bb 7d28 b23b
00000330: 0b0a 363b 2959 9c3b 44e1 5d3b ed71 813a
00000340: 1c24 0b3b bfd9 043a 627a c33b f3a2 a2bb
00000350: 376b bbba 2483 13bb 0301 4dbb 903a d73b
00000360: 800c fa39 5e3e 993b 1dff 5fbb 20f6 3cba
00000370: 0d34 893a 6b3a 013a 7fc0 f63a 129f afbb
00000380: 9455 5cb9 23c8 a4bb 92f0 78ba d944 94bb
00000390: 9fb2 593b b892 493b f903 8a3b 5a6d 2ebb
000003a0: 9e85 82ba 51ae babb d08a a239 78da 8e3b
000003b0: 0969 88bb 985c c53b 95a4 ecba d6ac 95bb
000003c0: e1be 313b 120a 9fbb 848c db3a 56ae a03b
000003d0: 616b 99bb 305e 8c3b 40a6 0c3b 3aa3 98bb
000003e0: dc7c c6bb c701 7c3b 6cc1 e4ba d608 803b
000003f0: 1466 a7bb e32e b43b 5e7b 193a e756 b1bb
-0.0046686046 0.0035210412 -0.0045890743 0.0043963725 -0.0002589257 -0.0023243392 -0.0036758757 -0.001746288
-0.0047096685 0.0008380289 0.0055292426 0.0008597601 -0.0016555734 -0.0005020796 0.0016331347 2.3175598e-06
-0.0037141123 0.0025298658 0.0042527476 0.000871253 -0.0027304406 0.002665977 -0.0007586306 0.0053332485
-0.0049693575 -0.00076786376 -0.00042961893 0.0020339 0.004632954 0.0036443376 -0.0033559275 -0.0047643958
0.0020895384 0.0049637943 0.003781698 0.0026308396 0.0054862224 -0.004087263 0.0017671717 -0.0021398617
-0.002094311 -0.005330057 -0.005138667 0.004855905 0.0026713242 -0.0025110776 0.00093631167 0.004030759
-0.003983816 -1.8513423e-05 0.0053332914 0.0017576121 -0.0034933772 -0.005437778 -0.0031214994 0.0025251636
-1.7446037e-06 0.0024438044 0.0003926741 0.0054009478 0.001930773 0.0048210463 -0.003977415 -0.00583377
0.0023002939 0.002593947 -0.004971917 -0.005529597 0.0021271443 0.0039588814 0.002679136 -0.0050275913
0.0034296603 -0.00248699 0.0058744056 0.0060926196 -0.0035672872 0.001895285 0.002235786 0.0049159834
-0.0014445467 0.0046071066 -0.0009812164 0.0047012367 -0.00055011216 -0.003419065 0.00021813619 -0.0035399408
0.002662271 -0.0038094213 -0.002073023 -0.0039892388 0.0023637023 0.0025914586 -0.0028665336 0.003615447
0.003854618 0.005994915 -0.0035859644 -0.003876491 -0.0053015715 -0.0043758024 0.005367967 0.0061333
0.0004447468 0.0011540469 0.0015577588 0.0016878673 -0.00033389518 0.005959286 -0.006231288 0.0011717986
-0.0061527626 -0.0016645656 -0.0048007034 -0.0010634345 0.003756188 -0.005251729 -0.0034952846 -0.0055598537
-0.0051330235 -0.004647598 0.003204931 -0.0048622624 -0.0035076695 0.0025631667 0.0011316921 0.002889674
-0.0052293623 0.0045833406 0.0018438508 0.0048612817 -0.0053983107 0.004965448 0.006349298 0.0052334266
0.0036697232 -0.0040900023 0.005100207 0.0028901761 0.0019663197 -0.0024485334 -0.0048845275 -0.0052499995
-0.0014593102 -0.0035710402 -0.004574865 0.00070958695 0.003114134 0.00011445373 0.0009085607 -0.0011080292
0.001273007 0.0033938827 -0.0036273315 -0.0036793938 0.0040372885 0.0009093117 0.002717557 -0.0014873655
0.0016471674 -0.005242954 0.0053808107 0.0039305496 -0.0045834654 -0.0013088558 0.00535203 -0.0050387806
0.0013926586 0.0004989855 -0.0042787017 0.0034540992 -0.005347865 -0.005411188 -0.0012728 0.004524824
0.0054718545 0.0013521478 0.0012930918 0.005674837 -3.4140376e-06 -0.00338668 -0.00029241 -0.005116045
-0.00038487505 0.0018106474 0.005023348 0.00028224103 0.00053028204 -0.002180959 0.004420693 0.0052748313
-0.005412877 0.0052027227 0.004095275 -0.005299276 -0.003211341 -0.0030523008 -0.002874723 0.0031226194
-0.00474961 0.002424587 -0.0041747927 0.0054369555 0.0027776982 0.004771371 0.0033856193 0.0009875871
0.002123124 0.0005067847 0.005965517 -0.0049632727 -0.001429892 -0.0022508586 -0.003128112 0.0065682605
0.0004769303 0.004676624 -0.003417916 -0.00072083063 0.0010467783 0.00049296644 0.0018825679 -0.005359539
-0.00021012715 -0.005028741 -0.0009496297 -0.004524809 0.0033218039 0.0030757617 0.0042118994 -0.0026615472
-0.0009958034 -0.0056970497 0.0003100247 0.0043595396 -0.004162912 0.006023001 -0.001805442 -0.004567723
0.002712183 -0.0048534954 0.0016750251 0.004903595 -0.00468199 0.004283689 0.0021461397 -0.00465813
-0.006057365 0.0038453208 -0.0017452664 0.0039073033 -0.005108604 0.0054987534 0.000585487 -0.005411971

action_model._continuous_distribution.log_sigma f4 [1, 5]
00000000: 30cd 1dbb 1022 9e3a 92f9 8a3a 5041 a7ba
00000010: 2932 9e3a
-0.00240786 0.0012064595 0.0010602942 -0.0012760554 0.0012069392

action_model._continuous_distribution.mu.weight f4 [5, 256]
00000000: 46f4 c439 a274 b3bb 3aa5 11bc 660d 303c
00000010: 8421 913c b774 d93c a368 313b 69b0 a13c
00000020: 3283 e1bb a574 58bb b12d d839 9d78 01bb
00000030: 3b61 56bc 4fad 4939 85f2 c13b 2d5c 083d
00000040: 4361 003c 4407 503c 0978 b7bb 78d3 cf3b
00000050: ec93 b3bb fb65 25bd e0db ebbc 446e 413b
00000060: dcb3 46bb 4850 cb3b 35cb e1bb fdbb a7bc
00000070: 5ced 893c a79a 483c 3a3b dbbc 760d 5e3a
00000080: 5e91 4cbc 5da8 c4b8 d4be 58bc f875 843c
00000090: 9185 c6bc 70ce 973c 8c4f 32bc 386a b0ba
000000a0: e1b0 1b3b 8fe5 aa3c a701 52b9 f0da 853a
000000b0: 6ec1 df3b 99f8 05bc d28d f93b 9527 aa3b
000000c0: 1d6d 2ebc 6ec9 87bb c561 e53b c3c8 5f3b
000000d0: 900b d3bb 549a 4cbc c1b1 18bc fe0f 613c
000000e0: 97bf c63b 71a6 8abc bf9a 20bc f34b 67bc
000000f0: 512d 223c dea3 27bb 50da a33b b661 2c3b
00000100: a19d 09bb 9770 ad3c e672 653c 223e 0bbb
00000110: 0009 c8bc 3174 5039 e35f 463c cd01 a1bc
00000120: 3337 033b 018e 0139 50e9 c2bb 2bd2 92bb
00000130: 9582 663c d863 aa39 61e1 e8bb bcb3 dd3b
00000140: e37f 153c 503b 8bbb f7f6 a7bc 191b 03bc
00000150: 2641 15b9 0dbd 313c ec70 623b 394b 2b3b
00000160: 1029 2f3a d952 ed3b 564b a23c 019e 96bb
00000170: ca88 93bc 1e60 333c d366 493c b939 83ba
00000180: 05e9 a83b 229f 89bb 5d12 e139 db88 923c
00000190: e0a9 ef3a ccfe 11bc b14b 943b 2ba3 d43c
000001a0: f862 c13a 5803 613c 92be 6e3c 5ac6 813c
000001b0: 6992 4abc ac41 a13a 8d7c 90bb e619 843b
000001c0: 50d4 e13b 7841 45bc 5a2c dcbc 30b7 2f3c
000001d0: cb97 15bb 0aa9 ecba 6e0f 74bc 9970 0fbc
000001e0: cab7 12b9 f8be ba3c 2029 3f3b df53 7c3b
000001f0: b361 733c 5d36 843c a123 81bb 4457 923c
00000200: 0497 7a3c b016 2d3b bc95 873b dd77 4cbb
00000210: 8274 e8b9 7318 073b 0aa5 86ba 4bc2 dcb7
00000220: d92a 223b 8e0b 56ba d90f f2ba a96d 593c
00000230: 4b20 85bb d0fb 3d3c f1da 943b 078c 30bc
00000240: 9827 363d da94 aebc 1bf5 683c 119c c8bc
00000250: f4f3 16bc 9e4b d23b 580f 853c 3058 933c
00000260: 1256 d23b 8e46 88bc 34cf 0d3c 3b4b 223c
00000270: 3b40 c83a 9494 19bd 9f88 b0bc 97d0 003d
00000280: 9c61 68ba b732 6139 6a97 543b 5267 6e3b
00000290: 3c85 8cbc dafb 91bc 0e82 303b dce6 c73b
000002a0: cece 8e3c 512f e23b 898c 07bb 59b8 bdbc
000002b0: f862 913b 7000 943b c97b 70bc 4892 82bc
000002c0: b97e 663b b171 4d3c c9a3 a63b 0119 d0bb
000002d0: d402 233c d275 ce3a 2f3b c83b 305a 38bc
000002e0: 5c59 67bb 49e7 e83b 249b 17bc 90f8 413c
000002f0: 6cf2 5ebc 4cce 613c 5405 76bb c743 8b3c
00000300: d8be 8e3b 01ad 10bc 1a26 00bc a3f4 413b
00000310: 4942 b13b b75c 153c 0ba0 fabb a5b3 66bc
00000320: e2cc 263c f6b7 dcba 2130 0dbc 0860 80bb
00000330: 80c3 57bc 376a 1bbb 3efd 1bbd 8b2f 01bd
00000340: ffca eebc 1e43 06bb 2253 a3bb 8f62 723b
00000350: 255e a83c 59fc 5639 5d6c 57bb 5c44 54bc
00000360: ea5b dbbc 29d4 673c 43ce 3cbc aa76 473c
00000370: 09ea 9f3c 1574 87bc c716 883c 790b 39bc
00000380: 8121 8f3c 311c 4f3c 3381 c5bc 6440 b8bb
00000390: e9ee 8ebc 6b18 9c3b 322b 213c aab9 243c
000003a0: 774b 4cba 0dd3 ef3b 414d aabc 8b1c 7fbc
000003b0: 2798 973c 6968 1fbc 19ab 343b 071d c4ba
000003c0: 835a 3ebc 776f cdbb fd96 9ebc a741 c03b
000003d0: 3d35 d6bb 7171 91bb 1bee e9bc 9ade bb3b
000003e0: 1d5f 93bb 87f7 723c f3b6 ecb9 0ce1 96bb
000003f0: 130d 98ba 162a 58bc d7ed 37bb cf34 e13b
0.0003756603 -0.00547655 -0.008889491 0.010745382 0.017716177 0.026544912 0.0027070425 0.01973744
-0.006882095 -0.003302851 0.00041232773 -0.001975573 -0.013084705 0.00019233416 0.005918803 0.03329103
0.007835689 0.012697045 -0.005599026 0.0063423477 -0.00548028 -0.04038046 -0.028791368 0.0029515186
-0.0030319607 0.0062046386 -0.0068906792 -0.020475382 0.016836815 0.012243903 -0.02676164 0.0008470634
-0.01248583 -9.3773684e-05 -0.013229091 0.016169533 -0.024233611 0.018531054 -0.010883223 -0.001345939
0.002375655 0.020861415 -0.00020027776 0.0010212343 0.0068284785 -0.008176946 0.0076157833 0.005192707
-0.010646132 -0.0041438853 0.0070001804 0.0034146763 -0.0064405873 -0.012487967 -0.009319724 0.013736723
0.0060653198 -0.016925069 -0.009802519 -0.014117229 0.0098985 -0.002557985 0.00500039 0.0026303357
-0.0020998495 0.021171851 0.014004445 -0.002124675 -0.024418354 0.0001987971 0.012107822 -0.019654179
0.0020021915 0.00012355299 -0.005948223 -0.0044806204 0.014069219 0.00032499316 -0.0071069454 0.006765811
0.009124729 -0.004249014 -0.020503504 -0.008002066 -0.00014234017 0.010848296 0.003455217 0.0026137365
0.0006681839 0.007242542 0.019811314 -0.0045964723 -0.018009562 0.010948209 0.012292582 -0.001001171
0.005154731 -0.0041998783 0.00042929026 0.017887523 0.001828488 -0.008910846 0.0045256247 0.02595671
0.0014754226 0.013733707 0.014571803 0.015841652 -0.012364008 0.0012302897 -0.004409379 0.0040314076
0.0068917647 -0.012039535 -0.026876617 0.010724828 -0.0022826071 -0.0018055749 -0.014896257 -0.008754873
-0.00013992112 0.02279614 0.00291688 0.003850214 0.014854836 0.016139204 -0.003941015 0.017863877
0.015294794 0.0026411228 0.004137723 -0.0031199374 -0.00044337293 0.0020613938 -0.0010272574 -2.6316518e-05
0.0024744777 -0.0008165174 -0.0018467858 0.013270774 -0.0040626875 0.011595681 0.0045427014 -0.010775573
0.044471353 -0.021311212 0.014218594 -0.02448848 -0.009213436 0.0064177057 0.016242668 0.017986387
0.006418952 -0.016635206 0.008655358 0.009905632 0.0015277931 -0.03749521 -0.021549521 0.031448927
-0.00088646426 0.00021476565 0.0032438883 0.0036377502 -0.017153375 -0.017820287 0.0026932987 0.0061005186
0.017432597 0.006902613 -0.002068313 -0.023159193 0.004436847 0.0045166537 -0.01467795 -0.015938893
0.0035170747 0.012539313 0.0050854427 -0.006350637 0.009949405 0.0015751666 0.006110571 -0.011251971
-0.0035301065 0.0071076495 -0.009253297 0.011839047 -0.013607603 0.013782095 -0.0037539797 0.017000092
0.0043562464 -0.00883031 -0.007821584 0.0029595278 0.005409513 0.009116343 -0.007648473 -0.0140809165
0.010180684 -0.0016839493 -0.008617432 -0.003917698 -0.013169169 -0.0023714432 -0.038083307 -0.03153948
-0.02914953 -0.0020486782 -0.0049842754 0.0036985015 0.020552704 0.00020502637 -0.0032870986 -0.012955751
-0.026777226 0.014149704 -0.011523786 0.012174288 0.019520776 -0.016534844 0.016612424 -0.011294239
0.01747203 0.012640999 -0.024109459 -0.0056229103 -0.017447906 0.004763653 0.009836959 0.010054031
-0.00077932276 0.0073188604 -0.02078879 -0.01557077 0.01850517 -0.009729483 0.0027567802 -0.0014962264
-0.011618259 -0.006269391 -0.019359106 0.0058672014 -0.006537108 -0.004438572 -0.02855592 0.0057333233
-0.0044974224 0.014829523 -0.00045149736 -0.0046044644 -0.0011600576 -0.013193628 -0.0028065348 0.0068727504

action_model._continuous_distribution.mu.bias f4 [5]
00000000: 4881 2eba 42e6 5c3b 88fd 9cbb f79a b7bb
00000010: 0e24 90bb
-0.00066568376 0.003370658 -0.0047909655 -0.00560319 -0.0043988293
