results/NearSingularity01/NearSingularity/NearSingularity-3474.onnx (onnx, 589972 bytes, 9 tensors)

network_body._body_endoder.seq_layers.0.weight f4 [256, 53]
0.002895487 0.15728006 0.13455097 -0.10092735 0.01520392 -0.16906245 -0.0611184 -0.111145906
-0.006490887 0.06769966 0.042654194 -0.0064641368 -0.029826693 -0.18044141 -0.14046207 0.09138119
-0.06738957 -0.0738994 0.15626238 -0.07212802 0.16752239 -0.000900775 0.0115025835 -0.14415729
-0.005902433 0.2240121 0.09405019 0.0050370977 0.022265712 0.0672202 -0.09595986 0.16925037
-0.05061571 -0.2621091 -0.105525516 -0.17033234 -0.03589448 -0.07658368 0.1282913 -0.22309853
-0.12299547 -0.09218118 -0.020780345 0.23127101 -0.038674045 0.020039156 -0.04914171 -0.07942625
-0.090936266 0.15964916 0.13644502 -0.046639252 -0.10206836 -0.13012262 0.061781187 0.055672966
-0.13448827 0.20959854 -0.12349908 -0.32881305 0.1951035 0.26347855 0.21323623 0.06594162
0.050756194 0.1113474 -0.11453162 0.047558356 -0.0673366 -0.13883126 -0.13752529 0.15209822
-0.1036478 -0.111669615 0.04257433 -0.16279322 -0.03361701 -0.17350419 0.031445112 -0.084078796
-0.1183687 0.050858103 -0.13619053 -0.10947268 -0.19304305 -0.20877539 -0.056062263 -0.008848854
0.17951854 -0.0603743 -0.21976584 0.100210354 0.026892439 0.18269034 -0.3106107 -0.18100317
0.021917619 -0.07555048 0.15410925 -0.11058996 0.09684146 0.053108882 -0.053972963 0.05212837
0.060010254 -0.11307379 -0.076834776 0.030757025 -0.041287314 0.0769423 -0.07441766 0.1782434
0.14268194 0.1736327 -0.22138785 0.05112551 -0.17575873 -0.24215212 0.1673764 -0.1146283
0.057855595 0.0014015506 -0.0055067865 0.009296021 -0.06398152 -0.14336018 -0.113041915 0.084911056
0.15910447 -0.15489894 0.056985587 -0.046877734 0.049663197 0.05469755 0.27734888 -0.052002322
0.074732184 -0.16617002 0.09101043 -0.04160348 0.19608986 -0.067408785 -0.024201382 -0.17845243
-0.0141781485 -0.034648698 -0.12906227 0.014668296 0.09381838 0.14809719 0.005002302 0.09488433
0.082929105 0.17069988 0.18277517 0.095293924 0.094319075 -0.026906645 -0.13265388 0.094199404
-0.18589179 0.17223197 0.013143404 0.034891043 0.096352845 -0.14730796 0.072428554 -0.10149978
0.04759048 0.17492601 -0.13875577 -0.0030219466 0.039725643 0.16009282 -0.01659371 -0.13425805
-0.07394268 -0.13141094 0.13240871 -0.1212983 0.17632636 0.12169837 -0.2820083 0.22924826
-0.00016210339 -0.055510905 -0.1709565 -0.09243684 -0.16283219 0.07258487 0.017851444 0.31897756
0.05029252 0.016221486 0.18662211 -0.069018185 0.029290155 0.0019126759 -0.106486194 0.059330672
-0.18515496 -0.035031263 0.035222676 0.10278463 -0.077629775 0.053196497 -0.14925973 0.042354
0.1846658 -0.09845824 -0.18781616 -0.07199052 -0.28562373 -0.048904333 0.3112141 -0.3040246
-0.07536326 -0.021877186 -0.03204363 0.13297832 -0.06759487 0.035067625 0.04137034 -0.08435042
-0.18280084 -0.013726214 -0.016378876 0.028134739 -0.29591516 0.11341687 -0.1430772 -0.190688
-0.08496736 -0.029912625 -0.010135558 -0.0977418 -0.14127563 0.05109651 -0.030522449 -0.04261292
-0.035909794 0.06725794 0.07465065 -0.07030949 0.3867364 0.02134155 -0.01577979 0.39354756
-0.041217953 -0.10550425 -0.09265397 -0.02788558 0.12347075 0.28747046 -0.20567712 0.22886276
00000000: 36c2 3d3b 060e 213e bbc7 093e 00b3 cebd
00000010: dd19 793c b51e 2dbe 4a57 7abd 77a0 e3bd
00000020: 82b1 d4bb 1fa6 8a3d 2ab6 2e3d 1cd1 d3bb
00000030: 1c57 f4bc a2c5 38be 4ad5 0fbe 1026 bb3d
00000040: 8b03 8abd 9258 97bd 3f03 203e dbb7 93bd
00000050: fd8a 2b3e fd21 6cba 5575 3c3c f89d 13be
00000060: 3269 c1bb 6e63 653e 639d c03d 3d0e a53b
00000070: 9566 b63c bfaa 893d 9a86 c4bd f84f 2d3e
00000080: 6b52 4fbd 2a33 86be c31d d8bd 9a6b 2ebe
00000090: 1706 13bd e8d7 9cbd cb5e 033e f173 64be
000000a0: 0de5 fbbd 7dc9 bcbd 8b3b aabc 4fd2 6c3e
000000b0: ad68 1ebd 2829 a43c d148 49bd 3baa a2bd
000000c0: cb3c babd 127b 233e 3eb8 0b3e cd08 3fbd
000000d0: 3709 d1bd dd3e 05be 450e 7d3d 5609 643d
000000e0: 4bb7 09be 00a1 563e 16ed fcbd 2f5a a8be
000000f0: 36c9 473e a9e6 863e 995a 5a3e 660c 873d
00000100: bae5 4f3d 1b0a e43d 8e8f eabd 8dcc 423d
00000110: c5e7 89bd c829 0ebe 6ed3 0cbe a3bf 1b3e
00000120: 4c45 d4bd 0ab3 e4bd 6c62 2e3d 44b3 26be
00000130: fdb1 09bd 15ab 31be 97cc 003d 8131 acbd
00000140: 4a6b f2bd 9650 503d 8875 0bbe 3633 e0bd
00000150: 14ad 45be 37c9 55be 8ba1 65bd c9fa 10bc
00000160: b5d3 373e 0b4b 77bd 4c0a 61be 163b cd3d
00000170: 884d dc3c 2d13 3b3e 5e08 9fbe e558 39be
00000180: 948c b33c 36ba 9abd d1ce 1d3e fd7c e2bd
00000190: d154 c63d b388 593d c112 5dbd 8f84 553d
000001a0: 50cd 753d 3b93 e7bd 8d5b 9dbd 28f6 fb3c
000001b0: e31c 29bd ed93 9d3d 4968 98bd 7085 363e
000001c0: 371b 123e c5cc 313e 7fb3 62be fc68 513d
000001d0: 19fa 33be baf6 77be b864 2b3e 3ec2 eabd
000001e0: fdf9 6c3d 3cb4 b73a 4672 b4bb 574e 183c
000001f0: be08 83bd 03cd 12be 8582 e7bd d9e5 ad3d
00000200: 48ec 223e d49d 1ebe b869 693d de02 40bd
00000210: a36b 4b3d 8a0a 603d ac00 8e3e 6300 55bd
00000220: 300d 993d 7928 2abe ad63 ba3d 6968 2abd
00000230: c8cb 483e 9e0d 8abd fa41 c6bc 3cbc 36be
00000240: 774b 68bc cbeb 0dbd e628 04be 4b53 703c
00000250: da23 c03d caa6 173e 5aea a33b b752 c23d
00000260: bcd6 a93d f3cb 2e3e 6a29 3b3e 7629 c33d
00000270: 5c2a c13d 536b dcbc 6bd6 07be 9eeb c03d
00000280: 6b5a 3ebe 945d 303e 6f57 573c e9e9 0e3d
00000290: a454 c53d e6d7 16be 6c55 943d 1edf cfbd
000002a0: 3cee 423d ce1f 333e fe15 0ebe da0b 46bb
000002b0: 5bb7 223d 5fef 233e 88ef 87bc f17a 09be
000002c0: 436f 97bd 9790 06be 2696 073e 3e6b f8bd
000002d0: e68e 343e ff3c f93d 6463 90be 0ec0 6a3e
000002e0: 4cfa 29b9 675f 63bd 390f 2fbe 874f bdbd
000002f0: 7bbd 26be 60a7 943d 313d 923c 0751 a33e
00000300: 88ff 4d3d ece2 843c de19 3f3e 6859 8dbd
00000310: e8f1 ef3c c1b2 fa3a 6f15 dabd b804 733d
00000320: 4399 3dbe f17c 0fbd a745 103d c080 d23d
00000330: 5cfc 9ebd 92e4 593d 8bd7 18be 637b 2d3d
00000340: 0819 3d3e 79a4 c9bd e152 40be c46f 93bd
00000350: 463d 92be e94f 48bd 7457 9f3e 1da9 9bbe
00000360: 0e58 9abd c937 b3bc 2e40 03bd 782b 083e
00000370: 2e6f 8abd 12a3 0f3d f273 293d eabf acbd
00000380: 2530 3bbe eae3 60bc fe2c 86bc d37a e63c
00000390: 3182 97be 1b47 e83d d482 12be b743 43be
000003a0: 5e03 aebd 520b f5bc 9d0f 26bc da2c c8bd
000003b0: 8faa 10be 934a 513d 370a fabc e38a 2ebd
000003c0: 2616 13bd 88be 893d 71e2 983d 6cfe 8fbd
000003d0: 5002 c63e 79d4 ae3c 9e44 81bc 117f c93e
000003e0: 28d4 28bd 9d12 d8bd 5dc1 bdbd 4d70 e4bc
000003f0: 3cde fc3d 542f 933e 069d 52be 005b 6a3e

network_body._body_endoder.seq_layers.0.bias f4 [256]
0.00047993282 -0.00103181 -0.0008287629 0.0043661785 0.0007509402 0.0025772536 -2.6419963e-05 0.0025224125
0.0015248279 0.0015053786 -0.002005727 0.0013329384 0.0005055094 -0.0037178458 0.0005659528 0.00015500314
-0.0023436835 -1.4169651e-05 -4.0397557e-05 0.00022420952 -0.00048226357 0.00096659275 0.004140326 -0.0011125745
0.0025195894 -0.00097553316 0.00029841514 -0.0014292591 -0.0010570465 -0.0021029308 0.00038085307 0.0016306863
0.00055511977 -0.00011690472 0.0025667958 -0.00029907294 -0.0019727193 0.001031872 -0.0018743601 -0.0010544675
0.0019198325 -0.00063817285 0.0018957298 9.852564e-05 -0.0010371638 -0.0012717403 -0.0008113112 -0.0035784035
0.00018330888 0.00015440265 -0.0013065283 0.0010524299 -0.00017643462 -0.0006547939 0.0006917333 0.00047571296
0.00034488182 -0.0011858294 0.0008549939 -0.0006258271 0.0012213624 -0.0009224185 -0.001691484 -0.0010860399
0.00049369165 -0.00065803836 -0.0041221855 -0.001669023 0.00036036532 -0.0007183089 -0.00035705746 -0.0017454292
0.00033035208 0.00059529464 -0.00060763385 -0.0012546331 -0.0023146586 -0.0016963021 -0.0010854029 0.001222858
0.0007770002 -0.0011794054 -0.0014187077 0.0011604783 0.00024634713 -0.0014097311 0.0039443923 -0.0028127735
0.00090771244 0.00040400095 -0.0006559965 0.00044799977 -0.0012348421 -0.0019217348 0.00024545568 -0.0014931741
-0.0026159452 -0.0012337898 -0.0025629727 0.0003729256 0.0022577639 -0.00036946335 -0.0021044149 0.00170136
7.651207e-05 0.0011127916 -0.00053675915 0.0002586631 0.000718024 -0.0005898321 -0.00045128414 -0.0013216612
-0.00040965047 -5.080583e-05 -0.0019819778 0.004053572 0.0002397628 0.00028068278 0.00091872993 0.0011442035
-0.00076734135 0.0018802522 -0.0006432204 0.0014824135 -0.0027779604 -0.0011657361 0.0008549069 -0.0012254482
0.0027302632 0.00045620336 0.0011800528 -0.00026046022 -0.0007029335 0.0010732842 -0.00068402686 -0.00079297286
0.00033928573 0.0011870029 0.00027141778 -0.0029667486 -0.0022762716 0.0005200397 -0.0021257238 -0.0028557258
0.0009518288 -0.0011402224 -0.0025136434 -0.0005715907 0.00019557566 -0.0010410864 0.0028945894 -0.0028629361
-0.00019739392 0.0006914839 8.472069e-05 -0.0019922361 -0.0029528104 0.0017912458 0.0007840626 0.0008849742
0.0006517288 0.00060594856 0.0010081739 0.0017553723 -0.0026681034 -0.00083383487 -0.002786536 -0.0026335705
0.00026963555 -0.0029469293 0.0019023839 0.0017586779 0.0016198844 -0.0003132197 -0.00025633292 -0.00048803719
0.0009952683 -0.0025223861 0.0015612826 5.9289276e-05 -0.0013101862 -0.00035099167 0.0010380667 0.0028714277
-0.0012104533 0.00025749876 0.001746176 -3.2419488e-05 0.00017032653 -0.0007033731 -0.0006635743 -0.0025960726
-0.0014438055 -0.001343858 0.0018561775 0.00013022513 -0.00016603657 -0.00077434286 -0.0014628809 -0.0004700528
0.001798572 -0.0013387576 -0.0022099712 -0.0030508747 -0.0030987768 0.0015308916 -4.2657215e-05 0.0012868368
-0.0023815688 -0.0006648396 -0.00050502946 0.0015462468 0.001091731 -0.0013941181 0.0017554342 0.00069093535
-0.00031218553 -0.0010879177 0.00033602578 -0.000101706144 0.0023412884 -1.9217568e-05 -0.00022834634 -0.0022429277
0.0014320244 -0.0012374902 -0.0010746199 -0.0006468815 0.002506205 -0.00027368314 0.00068455684 -0.0021944088
-0.0012258082 -0.00070823263 0.0039354237 -0.0010536909 -0.00046371497 0.0015549088 -0.00241414 -0.00028650707
0.00012522846 0.0022082797 -0.00020739221 0.0016320792 -0.001770949 0.00089864276 0.0005997044 0.00022161001
-1.318971e-06 -0.00026838973 0.0018520557 -0.0021782792 -0.0023432178 0.0007006115 -0.0014297724 0.0004676443
00000000: 7e9f fb39 cc3d 87ba 5641 59ba 2912 8f3b
00000010: beda 443a 24e7 283b 70a0 ddb7 0f4f 253b
00000020: bcdc c73a 2050 c53a 8472 03bb feb5 ae3a
00000030: 2984 043a 1aa7 73bb 735c 143a 5788 2239
00000040: 7c98 19bb 30ba 6db7 8c70 29b8 c919 6b39
00000050: 52d8 fcb9 f162 7d3a 92ab 873b ced3 91ba
00000060: b21f 253b ecba 7fba 9a74 9c39 fa55 bbba
00000070: 988c 8aba 53d1 09bb 3cad c739 c1bc d53a
00000080: 7585 113a be2a f5b8 b037 283b e4cc 9cb9
00000090: bd48 01bb e13f 873a 17ad f5ba 0f36 8aba
000000a0: e4a2 fb3a 0e4b 27ba 237a f83a 8d9f ce38
000000b0: 71f1 87ba 86b0 a6ba 2cae 54ba a683 6abb
000000c0: 9a36 4039 25e7 2139 d13f abba b0f1 893a
000000d0: 4f01 39b9 7aa6 2bba 7055 353a 1d69 f939
000000e0: 41d1 b439 d56d 9bba ab21 603a 8c0e 24ba
000000f0: 1f16 a03a 75ce 71ba c9b4 ddba 7459 8eba
00000100: 166b 013a 3580 2cba 6613 87bb 1ec3 daba
00000110: 6aef bc39 e54c 3cba 7133 bbb9 e3c6 e4ba
00000120: 1b33 ad39 8c0d 1c3a 9e49 1fba 8072 a4ba
00000130: 87b1 17bb 7456 deba 1444 8eba 4e48 a03a
00000140: 9aaf 4b3a 4796 9aba eef3 b9ba 311b 983a
00000150: 2728 8139 bac6 b8ba f63f 813b 8256 38bb
00000160: 8df3 6d3a 17d0 d339 2ef7 2bba 83e1 ea39
00000170: 6dda a1ba b8e2 fbba 81b0 8039 9cb6 c3ba
00000180: 4770 2bbb 1eb7 a1ba 8cf7 27bb 3a85 c339
00000190: fef6 133b 88b4 c1b9 39ea 09bb 2b00 df3a
000001a0: 1b75 a038 17db 913a 4cb5 0cba 2c9d 8739
000001b0: c639 3c3a f69e 1aba 559a ecb9 973b adba
000001c0: 5bc6 d6b9 5818 55b8 12e4 01bb d4d3 843b
000001d0: d668 7b39 9b28 9339 ecd6 703a 19f9 953a
000001e0: 6827 49ba cb72 f63a ca9d 28ba 8b4d c23a
000001f0: 710e 36bb 9dcb 98ba d51b 603a 389f a0ba
00000200: 37ee 323b 942e ef39 00ac 9a3a 618e 88b9
00000210: 1245 38ba 71ad 8c3a 4450 33ba 82df 4fba
00000220: 29e2 b139 3595 9b3a 144d 8e39 c86d 42bb
00000230: 802d 15bb 4653 083a ba4f 0bbb 2127 3bbb
00000240: 2684 793a 8473 95ba f0bb 24bb cdd6 15ba
00000250: 7113 4d39 1075 88ba 27b3 3d3b 19a0 3bbb
00000260: 87fb 4eb9 b344 353a 13ac b138 2d90 02bb
00000270: f083 41bb 3cc8 ea3a 8d89 4d3a 9dfd 673a
00000280: c8d8 2a3a 85d8 1e3a b424 843a 8514 e63a
00000290: 59db 2ebb b695 5aba 519e 36bb fb97 2cbb
000002a0: df5d 8d39 4521 41bb 6959 f93a 7083 e63a
000002b0: 4d52 d43a a337 a4b9 6c64 86b9 3edf ffb9
000002c0: aa73 823a 9e4e 25bb f3a3 cc3a 60ad 7838
000002d0: 8eba abba 4e05 b8b9 bd0f 883a 902e 3c3b
000002e0: 13a8 9eba e600 8739 f2df e43a 29fa 07b8
000002f0: ae99 3239 9262 38ba b8f3 2dba df22 2abb
00000300: 133e bdba 6424 b0ba fb4a f33a 0b8d 0839
00000310: 1a1a 2eb9 45fd 4aba 23be bfba 6b71 f6b9
00000320: 10be eb3a 4079 afba 2ad5 10bb 2ff1 47bb
00000330: d914 4bbb 33a8 c83a d6ea 32b8 14ab a83a
00000340: 1814 1cbb a148 2eba f463 04ba 6fab ca3a
00000350: 6a18 8f3a d7ba b6ba 9916 e63a e31f 353a
00000360: d5ac a3b9 7698 8eba 9e2c b039 124b d5b8
00000370: 4d70 193b 6a35 a1b7 4170 6fb9 15fe 12bb
00000380: c4b2 bb3a 4833 a2ba 43da 8cba 7c93 29ba
00000390: 253f 243b 217d 8fb9 d573 333a 12d0 0fbb
000003a0: 4cab a0ba b0a8 39ba baf4 803b 001c 8aba
000003b0: c51e f3b9 15ce cb3a 8c36 1ebb 5436 96b9
000003c0: c24f 0339 c9b8 103b 6c77 59b9 7eeb d53a
000003d0: 301f e8ba e592 6b3a 7b35 1d3a fc5f 6839
000003e0: 8007 b1b5 a9b6 8cb9 adc0 f23a 76c1 0ebb
000003f0: ac90 19bb 3ea9 373a 3367 bbba 282e f539

network_body._body_endoder.seq_layers.2.weight f4 [256, 256]
-0.05289134 -0.08802904 0.04709743 -0.011564724 -0.009823349 -0.07626063 -0.04196699 -0.071707435
-0.09970638 -0.07251441 -0.026461037 -0.003993709 -0.1122904 0.014238032 0.018985743 0.0020421506
-0.0029615797 0.03937649 -0.051775966 0.03411483 -0.17378508 -0.07718054 -0.04434343 -0.014059654
0.0026756348 -0.05302366 0.0025656135 -0.007872114 0.09136951 0.054377675 0.008423479 -0.020618415
0.046416536 0.06125494 0.06572552 -0.020081485 -0.04889331 -0.1263314 -0.039265223 -0.06848847
0.07191151 0.06009434 0.13651963 -0.022708844 -0.028217401 0.044273403 -0.010721313 -0.023611184
-0.0021077567 0.016625058 -0.08782082 -0.04901696 0.009120827 0.055502743 -0.003710456 0.1053342
-0.032707676 0.02695292 -0.03828342 -0.09195756 0.024466524 -0.05741246 0.19454974 -0.11315218
0.013821552 -0.0005752201 -0.07780817 -0.0067369 0.11768556 -0.056253113 0.058027323 -0.0423593
0.07280453 0.10089783 -0.012652915 0.025852755 -0.112358585 0.06058038 -0.15199533 -0.056111563
-0.09355923 0.077210344 0.059492987 0.03833364 -0.044583876 -0.07225748 -0.078641914 0.044583675
-0.099557735 -0.03972599 -0.034043185 0.00260071 0.025029311 -0.091136515 0.11003145 0.02800453
0.0016988938 0.0041289977 0.06306815 0.05087953 -0.09781086 0.12670653 -0.010208922 -0.040367972
-0.021363335 0.0032580378 0.02720846 0.027121577 0.047531903 0.02968905 -0.09232967 -0.016803315
-0.060383942 -0.01868927 0.038049906 0.009181137 0.12271483 0.09350976 0.043718692 -0.0012956522
-0.07706847 -0.09051853 -0.045746706 0.040587805 0.09483644 -0.0035317156 -0.066678934 -0.0920303
-0.0006946012 0.06302215 0.07545868 -0.028888414 -0.084134586 -0.11153324 0.059422668 0.08432732
0.029618116 0.034530886 -0.08821809 0.05297833 0.07818646 0.011038181 -0.04079546 0.018308436
-0.032090254 0.011002448 -0.083853945 -0.051530693 0.13897605 -0.028512027 -0.030183215 -0.061623547
0.103316896 0.06687136 0.003321892 -0.08576353 0.059157625 -0.13433887 -0.07149306 -0.0484716
0.033563904 0.029272266 -0.024044372 -0.06833953 0.04100239 0.025803989 0.04052524 -0.030963903
0.08445269 0.014686162 -0.04846914 0.036035296 -0.09373011 -0.015749022 -0.012470374 0.027073737
-0.032015882 -0.004520256 0.091838494 0.016637513 -0.06706846 0.023513746 0.07929575 -0.041338705
-0.060359977 -0.050811756 0.036058158 -0.04145769 -0.006924565 0.0062365183 -0.028982423 -0.05737663
-0.1011055 -0.0059126704 -0.035714727 -0.005466232 -0.13623774 0.053628597 0.013140248 -0.033052254
-0.009122733 0.026097374 -0.18758127 -0.047406577 0.024553534 -0.004059865 -0.014609545 -0.11923951
0.0409634 -0.013494321 0.009013203 0.01220137 0.031561133 -0.0655296 -0.0028212355 0.07722189
-0.011035458 0.09018669 0.007394291 -0.021707097 0.001562873 0.03672445 -0.04388665 -0.11081572
0.03040165 0.037000258 0.031019831 0.060120914 -0.042169448 -0.093096144 -0.0236772 -0.0008720485
-0.0352036 0.055452865 -0.05210986 0.14917718 -0.042127978 -0.01539948 0.008463711 -0.0605759
0.032037545 -0.050652523 -0.08407399 -0.014428707 -0.0528867 0.14399442 0.10636798 0.04973522
-0.04666638 -0.13803577 -0.03558273 -0.09887735 -0.069804326 -0.0059141843 -0.12854841 -0.062289927
00000000: 97a4 58bd 9248 b4bd 3ce9 403d f879 3dbc
00000010: 1df2 20bc 882e 9cbd 94e5 2bbd 59db 92bd
00000020: dc32 ccbd 6f82 94bd d1c4 d8bc a9dd 82bb
00000030: 82f8 e5bd a246 693c fd87 9b3c 9ad5 053b
00000040: 1017 42bb 3e49 213d 0913 54bd febb 0b3d
00000050: b7f4 31be d510 9ebd 75a1 35bd 775a 66bc
00000060: b459 2f3b 562f 59bd da23 283b 0afa 00bc
00000070: f01f bb3d 20bb 5e3d a202 0a3c f3e7 a8bc
00000080: 441f 3e3d 76e6 7a3d 1a9b 863d ed81 a4bc
00000090: 5a44 48bd 055d 01be 92d4 20bd af43 8cbd
000000a0: 5746 933d 7c25 763d cdcb 0b3e e607 babc
000000b0: 2e28 e7bc 0758 353d 72a8 2fbc 3e6c c1bc
000000c0: 4a22 0abb 4631 883c 67db b3bd 02c6 48bd
000000d0: 856f 153c d856 633d 1f2b 73bb 75b9 d73d
000000e0: 7cf8 05bd 5fcc dc3c 13cf 1cbd 3f54 bcbd
000000f0: 056e c83c 5429 6bbd 0c38 473e 55bc e7bd
00000100: ca73 623c 5eca 16ba e459 9fbd 37c1 dcbb
00000110: 2005 f13d aa69 66bd 0fae 6d3d f280 2dbd
00000120: 8b1a 953d 86a3 ce3d 2c4e 4fbc 28c9 d33c
00000130: 421c e6bd 2223 783d aaa4 1bbe 3dd5 65bd
00000140: fb9b bfbd 7520 9e3d ebae 733d bc03 1d3d
00000150: 959d 36bd bbfb 93bd 030f a1bd 5f9d 363d
00000160: ede4 cbbd b8b7 22bd de70 0bbd ac70 2a3b
00000170: 450a cd3c c8a5 babd 2b58 e13d c269 e53c
00000180: 6bad de3a 8b4c 873b e029 813d 0e67 503d
00000190: 0f51 c8bd 5bbf 013e 5343 27bc e358 25bd
000001a0: 2902 afbc ce84 553b 47e4 de3c 122e de3c
000001b0: d0b0 423d 7336 f33c 5717 bdbd 1ba7 89bc
000001c0: 2755 77bd 3d1a 99bc 38da 1b3d 7b6c 163c
000001d0: ea51 fb3d 0c82 bf3d 5f12 333d e0d2 a9ba
000001e0: 13d6 9dbd c761 b9bd e660 3bbd 663f 263d
000001f0: 9c39 c23d 5b74 67bb f78e 88bd 627a bcbd
00000200: e615 36ba c211 813d 158a 9a3d 65a7 ecbc
00000210: c14e acbd 8a6b e4bd 2f65 733d cdb3 ac3d
00000220: b1a1 f23c 4270 0d3d b0ab b4bd ceff 583d
00000230: 3920 a03d 7dd9 343c 2419 27bd 93fb 953c
00000240: 1271 03bd 9d43 343c 9ebb abbd d911 53bd
00000250: bd4f 0e3e 0e92 e9bc ca42 f7bc f968 7cbd
00000260: cf97 d33d daf3 883d 1ab4 593b caa4 afbd
00000270: 444f 723d 2190 09be f46a 92bd 288a 46bd
00000280: 4e7a 093d 64cc ef3c b4f8 c4bc 98f5 8bbd
00000290: 1ff2 273d e362 d33c cbfd 253d 03a8 fdbc
000002a0: 88f5 ac3d 3a9e 703c 9487 46bd bf99 133d
000002b0: 92f5 bfbd 1804 81bc 8a50 4cbc bec9 dd3c
000002c0: 1623 03bd a81e 94bb d215 bc3d 654b 883c
000002d0: 305b 89bd e69f c03c cf65 a23d c652 29bd
000002e0: 063c 77bd fd1f 50bd b8b1 133d 8acf 29bd
000002f0: 76e7 e2bb b55b cc3b 8c6c edbc c203 6bbd
00000300: 6610 cfbd 13bf c1bb 9b49 12bd 141e b3bb
00000310: e881 0bbe a9a9 5b3d 324a 573c cd61 07bd
00000320: 8477 15bc 29ca d53c 4e15 40be 662d 42bd
00000330: 7e24 c93c 9e08 85bb df5c 6fbc d833 f4bd
00000340: 3dc9 273d 4917 5dbc 1dac 133c 41e8 473c
00000350: 3f46 013d 6234 86bd 7ae4 38bb 8326 9e3d
00000360: 11ce 34bc cdb3 b83d cf4b f23b 15d3 b1bc
00000370: 51d9 cc3a 606c 163d 7dc2 33bd 5af3 e2bd
00000380: e20c f93c 958d 173d 4d1d fe3c 5941 763d
00000390: dfb9 2cbd 31a9 bebd b0f6 c1bc 2f9a 64ba
000003a0: a631 10bd 8b22 633d 2671 55bd e7c1 183e
000003b0: 638e 2cbd 1a4e 7cbc 60ab 0a3c 6f1e 78bd
000003c0: cd39 033d 0579 4fbd fc2e acbd 6266 6cbc
000003d0: b99f 58bd 4673 133e 75d7 d93d 28b7 4b3d
000003e0: 3f25 3fbd 4059 0dbe 32bf 11bd 3580 cabd
000003f0: 92f5 8ebd c6cb c1bb 32a2 03be b923 7fbd

network_body._body_endoder.seq_layers.2.bias f4 [256]
-0.0018305732 -0.0005194963 0.0019422058 -0.003498796 -0.0010744614 -0.0010578507 0.0015142773 -0.0010842992
0.0022689162 -0.00019556335 -0.0004655337 0.0007822512 -0.0020918373 0.0048568905 -0.0023373421 0.0017980181
-0.0006563632 -0.0004921778 0.0002443351 -0.0009357996 -0.00013499451 -0.0018758819 0.00041067088 -0.00069027656
-0.00051489985 -0.0016844609 -0.0013248068 0.0032322374 -0.0005157856 -0.0006358331 -0.0023527318 0.00068063586
-0.0014696904 0.00091494573 2.2625336e-05 -0.0002683241 0.0007971428 0.0016020342 -0.0008160031 -0.0019041585
0.0026054878 0.001070847 -0.0005030641 0.0010887767 -0.0015492853 0.0031731625 0.00079001894 -0.00037576392
-0.0006037306 0.00055994524 0.0017094795 0.0014882076 -0.0003073453 0.00062700897 -0.0012584004 -0.00037962905
-3.9168306e-05 -0.00051073695 -0.0022115912 -0.0017061138 0.0006842379 -0.0024348712 -0.002101763 -0.00055378757
0.0021871084 0.0007144325 0.0006553343 0.00160742 0.00010524294 0.002062947 0.0012883072 -0.00019439268
-0.00035585646 -0.0007638506 -0.0018529544 0.0018488998 -0.000440183 -0.0016571464 0.0006763079 0.0007647695
-0.00086175854 0.00023017816 -0.0019464663 0.002760408 0.0023489709 -0.0027716106 -0.0017821712 0.0022354606
-0.001829757 0.002639089 0.0003517915 0.0022525005 7.311372e-05 0.0020794985 -0.0013769289 -0.0014184806
-0.0041615497 -0.003369143 -0.0020611421 -0.0007609963 0.0009983031 0.0010377041 0.001029518 0.00043959147
-0.0017950964 0.0022926303 0.00034171878 0.0008331749 -0.0018943294 0.0013982811 -0.004628221 0.0004623013
-0.00242759 0.0034503012 -0.00043972523 0.0014677856 0.0011308338 -0.002703965 -0.0004825035 -0.0012441357
-0.0012225244 -0.0016566548 -0.0014442638 -0.0019655672 0.0002717343 -0.0009735815 4.6464316e-05 -0.0005382461
0.00021382543 -0.0020208808 0.00032086717 -0.0021844935 -0.0028241554 0.0009193221 0.00086746004 0.000524136
0.0025783589 -0.00010465228 -0.00014058665 -0.00015788405 -0.0013557519 -0.0019377209 -0.00010460128 0.00094166974
0.0016751899 -0.0009867954 -0.00086021126 -0.00017712178 -0.0005263662 0.0002465335 0.00062995055 -0.0015658638
5.4813252e-05 -0.0008830541 -0.00044447862 0.0017730559 0.0024056977 0.0004911254 -0.00039620005 0.00025514676
-0.0032919422 0.00060271024 0.0004040427 -0.00013554632 -0.0009790346 0.0015970779 -0.0016058926 -0.0012883507
-0.0014586016 0.0010465356 -6.4741005e-05 0.000174786 -0.00287322 0.0019013487 0.001222664 0.000580128
4.80085e-05 -0.0016188077 -0.0028164024 0.0027282694 -0.0018374064 -4.6915316e-05 -0.0028163884 0.0010083324
-0.0024105092 -0.0014662207 0.0025282549 -0.0030756919 -0.0015912732 -0.0019817573 -0.00029881217 -0.00012182981
-0.00221705 0.00030042997 0.00074491836 0.000449091 0.0019248484 0.00094984856 -0.00064342923 0.00011787979
-0.0020678442 -0.0020959799 -0.00047923165 -0.00031313626 -0.0013727888 -0.00017042036 -0.0017611152 -0.0010487334
-0.00092989765 -0.00030335135 -0.001562717 0.0036460278 -0.0005639367 -0.0021238094 -0.0016027538 0.00037998753
3.832971e-05 0.00010079799 -1.000931e-05 0.00021033417 0.0025685383 0.00013252132 -0.004821615 -0.0030291034
-0.0016048935 0.0004766472 -0.00060086977 -0.001140475 0.0034964974 -0.001159294 0.0011940404 0.0031127806
-0.0029554125 -0.004655205 -0.0027251227 -0.00080752204 -0.004106877 0.001608567 -5.413688e-05 0.0015569129
-0.002507208 -0.0010153682 -0.0020296667 0.0016832912 0.0017735929 -0.0010288792 0.0022897047 -0.0017642633
0.00085733755 0.002374272 0.0012609323 5.0843308e-05 -0.000633221 -0.00024809025 0.00027136205 0.0035483232
00000000: d8ef efba ce2e 08ba 9d91 fe3a 0e4c 65bb
00000010: f1d4 8cba 94a7 8aba b77a c63a 0b1f 8eba
00000020: 19b2 143b 2310 4db9 e012 f4b9 fd0f 4d3a
00000030: 3517 09bb 8d26 9f3b 182e 19bb 7aab eb3a
00000040: ca0f 2cba 7e05 01ba 1a1a 8039 7350 75ba
00000050: 508d 0db9 27e0 f5ba 504f d739 adf3 34ba
00000060: 58fa 06ba 21c9 dcba 24a5 adba f2d3 533b
00000070: c935 07ba 09ae 26ba 4a30 1abb b36c 323a
00000080: a0a2 c0ba f8d8 6f3a 8acb bd37 daad 8cb9
00000090: 59f7 503a 59fb d13a 0be9 55ba f594 f9ba
000000a0: d5c0 2a3b aa5b 8c3a 0fe0 03ba 49b5 8e3a
000000b0: 6311 cbba d5f4 4f3b 4619 4f3a 2e02 c5b9
000000c0: ad43 1eba 4ac9 123a 9d10 e03a f60f c33a
000000d0: 3023 a1b9 dc5d 243a e9f0 a4ba f308 c7b9
000000e0: a648 24b8 fae2 05ba 58f0 10bb ae9f dfba
000000f0: 6e5e 333a 5c92 1fbb bbbd 09bb 0e2c 11ba
00000100: 9755 0f3b c148 3b3a beca 2b3a 11b0 d23a
00000110: e0b5 dc38 8232 073b 6bdc a83a e3d5 4bb9
00000120: 3f92 bab9 253d 48ba d5de f2ba c856 f23a
00000130: 5dc8 e6b9 9b34 d9ba 414a 313a d07a 483a
00000140: a3e7 61ba fb5b 7139 9220 ffba f6e7 343b
00000150: 31f1 193b e9a3 35bb be97 e9ba ce80 123b
00000160: 75d4 efba 91f4 2c3b a870 b839 b09e 133b
00000170: a154 9938 3248 083b 117a b4ba 50ec b9ba
00000180: 9c5d 88bb d7cc 5cbb 3a14 07bb 997d 47ba
00000190: 7ed9 823a 9203 883a e4f0 863a f878 e639
000001a0: 7149 ebba f43f 163b b828 b339 6c69 5a3a
000001b0: 264b f8ba 8746 b73a 55a8 97bb 0861 f239
000001c0: 3418 1fbb 731e 623b ec8a e6b9 b662 c03a
000001d0: 7c38 943a 0135 31bb 86f8 fcb9 4412 a3ba
000001e0: 1d3d a0ba 1c24 d9ba 744d bdba bfd0 00bb
000001f0: 8f77 8e39 f337 7fba aee2 4238 1619 0dba
00000200: 5436 6039 c170 04bb 103a a839 b829 0fbb
00000210: 7715 39bb a9fe 703a 4266 633a 2c66 093a
00000220: aff9 283b c478 dbb8 716a 13b9 ad8d 25b9
00000230: 7cb3 b1ba 20fb fdba 625d dbb8 63da 763a
00000240: 0c92 db3a 5c57 81ba cd7f 61ba c4b9 39b9
00000250: d6fb 09ba 2b41 8139 4423 253a ac3d cdba
00000260: 48e7 6538 c27c 67ba e908 e9b9 e265 e83a
00000270: e9a8 1d3b debe 003a 12b9 cfb9 38c5 8539
00000280: a0bd 57bb 33ff 1d3a b1d5 d339 7021 0eb9
00000290: f352 80ba 0b55 d13a d07c d2ba e0dd a8ba
000002a0: 8c2e bfba e82b 893a 90c5 87b8 c246 3739
000002b0: a24c 3cbb ad36 f93a cc41 a03a bb13 183a
000002c0: bc5c 4938 2c2e d4ba 6493 38bb c4cc 323b
000002d0: 21d5 f0ba f0c6 44b8 2893 38bb 052a 843a
000002e0: a2f9 1dbb 342e c0ba 14b1 253b 8c91 49bb
000002f0: 4592 d0ba 5fe0 01bb e4a9 9cb9 e27e ffb8
00000300: ed4b 11bb 0783 9d39 a046 433a f973 eb39
00000310: 324b fc3a 42ff 783a ceab 28ba 3b36 f738
00000320: ab84 07bb b55c 09bb 6241 fbb9 702c a4b9
00000330: 26ef b3ba deb2 32b9 38d5 e6ba a775 89ba
00000340: 60c4 73ba 210b 9fb9 15d4 ccba 32f2 6e3b
00000350: 27d5 13ba 9c2f 0bbb 7e13 d2ba 1039 c739
00000360: 36c4 2038 8263 d338 a9ed 27b7 268d 5c39
00000370: ec54 283b 6cf5 0a39 a3fe 9dbb ec83 46bb
00000380: 4a5b d2ba 81e6 f939 b083 1dba fe7b 95ba
00000390: 7e25 653b 74f3 97ba 5981 9c3a cbff 4b3b
000003a0: 98af 41bb b18a 98bb f997 32bb e3af 53ba
000003b0: fb92 86bb 8dd6 d23a 0811 63b8 5411 cc3a
000003c0: f84f 24bb 1a16 85ba 2804 05bb e1a1 dc3a
000003d0: e777 e83a 75db 86ba df0e 163b da3e e7ba
000003e0: f3be 603a ad99 1b3b de45 a53a 9640 5538
000003f0: befe 25ba 1c12 82b9 9945 8e39 fc8a 683b

network_body._body_endoder.seq_layers.4.weight f4 [256, 256]
0.038838554 -0.014183664 0.0145253865 -0.06745006 0.050015412 -0.030863553 -0.01902193 -0.07606663
0.016832197 0.007305353 -0.1543922 -0.065693885 0.07105545 0.045286052 -0.033016074 -0.03555336
0.024827354 -0.11030075 -0.00420152 0.049689792 -0.019797558 -0.15162532 -0.037640873 -0.032005124
0.02003411 -0.038844045 0.12708358 -0.07111475 -0.04403393 -0.065359905 -0.020173794 0.107505806
0.007933539 0.0025035397 -0.102104954 0.018912492 -0.040832456 0.16753075 -0.026996033 0.053299505
-0.058156583 0.10958417 0.068642065 -0.024672909 -0.035291422 0.049515158 0.050281696 -0.043141708
-0.038914543 0.0005841907 0.08279064 0.059706688 0.024349295 0.019343324 0.016257603 0.11725308
-0.0708311 -0.050029185 0.0687185 -0.011810912 0.06377437 0.016610486 0.022868363 0.013621479
-0.07385425 0.05253296 -0.06390109 -0.009957711 -0.023842562 0.06890996 0.024895553 0.018999364
0.105479196 0.06196934 -0.02319673 0.10751979 0.09230541 -0.103664406 0.01666214 0.01346653
-0.03422328 0.034215264 -0.04401231 0.032638837 -0.00570572 0.005806639 -0.08032766 -0.08171298
-0.043554235 -0.05995761 -0.113654874 -0.059815563 -0.08879058 -0.09809745 -0.03674126 0.021387555
-0.049332496 -0.096640475 -0.0032538348 0.036256213 0.020175384 -0.013584354 0.0054008896 -0.042216912
0.075271696 0.064924166 0.010388967 -0.006241547 -0.013376006 -0.10363606 -0.042120002 -0.058651898
-0.16140924 -0.03272747 -0.07632704 -0.03768158 -0.01165375 -0.072051466 0.118922666 0.15458529
0.028103167 0.010116351 0.05126863 0.11272247 -0.038832024 -0.005361469 0.06292134 -0.06899745
0.12150641 0.03894377 0.05320181 0.048993994 0.07305105 -0.11684746 0.054420926 -0.01575861
0.026693381 0.020956585 0.05526871 0.018087521 0.07061745 -0.040425103 -0.0046665543 0.00287728
-0.019062256 -0.0073795053 -0.11613528 0.12798221 -0.020128394 -0.018202644 0.033283047 0.07220935
0.0022130026 -0.061075564 -0.043810204 -0.10982728 -0.03115834 0.06785336 -0.024724197 0.006741198
0.012125256 -0.013661863 0.052998375 0.10053873 -0.16377668 -0.055636253 0.121508695 -0.0049177357
-0.023494396 -0.0053293942 -0.022408454 -0.014746842 -0.025595145 -0.0030419405 -0.047101796 -0.059200633
0.0066031963 0.103872485 0.010414129 0.12429586 -0.05348846 0.045133546 -0.041157696 -0.018158434
-0.089160874 0.004120297 -0.038141724 -0.031296846 -0.046635732 0.005296938 -0.022533556 0.03283814
-0.03987276 0.05024655 -0.11773037 -0.110055014 0.11820184 -0.09387704 0.012474542 0.018497514
0.21106681 0.00017150624 0.0069060586 -0.07366908 0.002551134 -0.021371445 0.017013267 -0.065245
0.012419534 0.09105033 -0.0067382418 -0.05927585 -0.050539117 0.08237458 0.01584419 -0.0031816326
-0.019298736 -0.042514544 -0.06228364 -0.012669527 0.08427799 0.08636456 -0.02961631 0.02238496
-0.07174124 -0.059941553 0.008540764 -0.0034491844 0.076588675 -0.05716764 0.071329854 0.013641518
-0.05162626 0.053016864 0.08847969 0.056593228 0.03835919 -0.05912922 0.060318507 -0.0097259255
0.024550462 -0.04598064 0.009583133 -0.07653265 -0.044847075 -0.074315935 0.052116398 -0.04680577
-0.0664982 -0.008840559 -0.057665296 -0.15945147 -0.007595425 0.12165683 0.087077975 0.04899332
00000000: 2d15 1f3d 9962 68bc e3fb 6d3c 4223 8abd
00000010: f6dc 4c3d 90d5 fcbc e1d3 9bbc d2c8 9bbd
00000020: ade3 893c be61 ef3b fd18 1ebe 848a 86bd
00000030: 8585 913d de7d 393d dd3b 07bd 66a0 11bd
00000040: bc62 cb3c 5ce5 e1bd e7ac 89bb 8687 4b3d
00000050: 7d2e a2bc ab43 1bbe 512d 1abd ce17 03bd
00000060: 931e a43c ef1a 1fbd 3322 023e 9ca4 91bd
00000070: ec5c 34bd 6adb 85bd 8343 a5bc 012c dc3d
00000080: adfb 013c 6d12 243b 671c d1bd 5fee 9a3c
00000090: ef3f 27bd 2e8d 2b3e c926 ddbc 9550 5a3d
000000a0: 9935 6ebd aa6d e03d 3694 8c3d d71e cabc
000000b0: bd8d 10bd 68d0 4a3d 2ef4 4d3d 5cb5 30bd
000000c0: db64 1fbd 6024 193a 248e a93d 008f 743d
000000d0: 2c78 c73c e475 9e3c aa2e 853c 6222 f03d
000000e0: e50f 91bd 67eb 4cbd 49bc 8c3d 8e82 41bc
000000f0: 239c 823d b712 883c 6f56 bb3c a02c 5f3c
00000100: e640 97bd cd2c 573d 93de 82bd ab25 23bc
00000110: 7a51 c3bc aa20 8d3d c2f1 cb3c 8ea4 9b3c
00000120: 7a05 d83d 90d3 7d3d 1207 bebc 5633 dc3d
00000130: 9e0a bd3d 014e d4bd 0a7f 883c b8a2 5c3c
00000140: b62d 0cbd 4e25 0c3d 4146 34bd 4db0 053d
00000150: 0cf7 babb 9e45 be3b d482 a4bd 2359 a7bd
00000160: ed65 32bd 1c96 75bd e3c3 e8bd 2a01 75bd
00000170: d6d7 b5bd 51e7 c8bd 017e 16bd f434 af3c
00000180: df10 4abd 71eb c5bd 4a3e 55bb 6581 143d
00000190: d946 a53c e990 5ebc f2f9 b03b a4eb 2cbd
000001a0: 0c28 9a3d f6f6 843d 7c36 2a3c e485 ccbb
000001b0: 0927 5bbc 253f d4bd 0686 2cbd f93c 70bd
000001c0: 7748 25be 3d0d 06bd 5a51 9cbd 0058 1abd
000001d0: 5fef 3ebc b88f 93bd ba8d f33d 9b4b 1e3e
000001e0: 9d38 e63c 0dbf 253c 0eff 513d 0adb e63d
000001f0: 540e 1fbd 43af afbb e7dc 803d 894e 8dbd
00000200: 5ad8 f83d 8183 1f3d 24ea 593d edad 483d
00000210: ca9b 953d b94d efbd 7ae8 5e3d 3318 81bc
00000220: 14ac da3c 25ad ab3c 7161 623d 482c 943c
00000230: e29f 903d cb94 25bd e5e9 98bb c090 3c3b
00000240: 7328 9cbc c7cf f1bb 55d8 edbd c50d 033e
00000250: 4de4 a4bc b61d 95bc ce53 083d 7fe2 933d
00000260: 0608 113b 5f2a 7abd 5472 33bd 20ed e0bd
00000270: c63f ffbc b4f6 8a3d 668a cabc 44e5 dc3b
00000280: 02a9 463c 02d6 5fbc d314 593d 40e7 cd3d
00000290: 13b5 27be d7e2 63bd 8dd9 f83d f524 a1bb
000002a0: 5277 c0bc 33a2 aebb ef91 b7bc bd9c 71bc
000002b0: e9ac d1bc 4b5b 47bb d0ed 40bd 5d7c 72bd
000002c0: a05f d83b 19bb d43d 06a0 2a3c d48e fe3d
000002d0: b716 5bbd f4dd 383d f994 28bd ffc0 94bc
000002e0: fa99 b6bd 8e03 873b 7f3a 1cbd 1f31 00bd
000002f0: 1c05 3fbd f091 ad3b 4b98 b8bc 4981 063d
00000300: 9f51 23bd 54cf 4d3d 9f1c f1bd 8664 e1bd
00000310: ce13 f23d 9b42 c0bd 0562 4c3c 1988 973c
00000320: e621 583e 5bd6 3339 384c e23b d1df 96bd
00000330: ed30 273b 2b13 afbc 685f 8b3c 2c9f 85bd
00000340: 4d7b 4b3c 9878 ba3d 78cc dcbb 3ccb 72bd
00000350: 1b02 4fbd 01b4 a83d adcb 813c f082 50bb
00000360: 6218 9ebc bb23 2ebd 211d 7fbd d993 4fbc
00000370: f099 ac3d e7df b03d e79d f2bc aa60 b73c
00000380: 12ed 92bd 4685 75bd 90ee 0b3c b60b 62bb
00000390: 86da 9c3d 9e28 6abd 6315 923d ac80 5f3c
000003a0: 0f76 53bd 3628 593d d734 b53d 4dce 673d
000003b0: 871e 1d3d 7b31 72bd 8a10 773d 7d59 1fbc
000003c0: 0d1e c93c 3256 3cbd 9302 1d3c 26bd 9cbd
000003d0: 91b1 37bd f432 98bd 0178 553d 68b7 3fbd
000003e0: 3530 88bd fed7 10bc 7232 6cbd 3f47 23be
000003f0: 0be3 f8bb 3727 f93d f055 b23d 38ad 483d

network_body._body_endoder.seq_layers.4.bias f4 [256]
0.0005970404 0.00012164867 -0.0007788756 0.0012356282 0.0015293912 0.00054281094 0.0017237539 0.0019705635
-0.00060174963 -0.0019774437 -0.001018451 0.0026076948 0.0007673887 0.00055064674 0.00077049516 -0.0016891812
-0.002336287 -0.0009236151 0.0017765942 0.002402381 -0.0010378638 -0.0018261777 -0.0022722774 -0.0009892801
-0.002586665 0.00030873163 0.00052846625 0.00044625206 0.0014001767 -0.0020344998 0.0015377586 0.0014773267
-0.0010193253 0.0017465308 0.0011271316 -0.0018886497 -0.0009586756 -0.0015608476 -0.00036580284 0.00021082678
0.0012569736 0.0005772658 0.00022149053 -0.0012758145 -0.0018549381 -0.0029625844 -0.0009939087 -0.0008345679
-0.0021405679 3.674603e-05 0.00090971054 -0.00076294824 0.0006004611 0.0014669731 -0.0001742395 -0.0018590129
-0.0011502877 -0.0019862978 -0.0005125392 -0.0008041149 0.0020740994 0.003180338 -0.00017391882 -0.0022205377
0.0026643833 -0.0023608534 -8.293819e-05 -0.0027749585 -0.0012686998 -0.00044525054 -0.00014316775 0.0021937923
-0.0010836633 0.0007486474 0.0018172223 -0.00029089223 0.0027116188 -0.0026275225 -0.002219418 0.0014071831
-0.00022610619 0.0018701459 -0.00016546217 -0.0009706912 0.0007853896 0.0034150137 -0.0016926683 -0.000869124
-0.00026712642 0.001346627 -0.0013978847 0.0015749644 0.0016305641 0.0003852319 0.0013655587 0.0010655049
0.0024016656 -0.0024320057 1.5589423e-05 -0.0011390075 -0.0029220206 0.002490163 -0.00059811113 0.00025180628
-0.0020126542 -3.795891e-05 0.0016377803 0.0011853668 -0.0014850183 0.0019896736 0.0010846714 0.00037285738
0.001901778 -0.0025869638 -0.0019288834 -0.0035349187 -0.0005574767 0.0026236365 -0.00030013747 0.0009784932
-0.0008428382 -0.0014711237 -0.0007646612 0.001123304 0.0019070648 2.5720783e-06 0.00070614845 0.0013113542
-0.0014260854 0.0008489888 0.00058975007 0.00013356145 0.00042666157 -0.0009832527 0.00032866723 0.00048074982
0.0001104441 0.0024490827 -0.0014129839 0.002407346 -0.00091523764 0.000114931056 0.00036787018 -0.0004959137
-0.0012138413 0.00061155006 -0.00051044254 -0.0009670482 -0.0024967957 -0.0019860512 -0.0003997747 0.0022603516
0.0022020817 -0.002452875 0.0031038064 -0.0025415337 0.0028106947 -0.0020119539 -0.0021595738 -0.00037812238
-0.0019756209 0.0032010288 -0.003756435 -0.0009597448 -0.0008788631 -0.0026484136 -0.0010221094 0.00048115326
-0.0008902518 -0.0009800805 -0.0011720883 0.0014125283 0.0013242393 -0.0027769052 -0.0022953672 -0.0012718941
0.00043750042 -0.00033884708 8.607365e-05 -0.0031333405 0.00030014204 -7.287339e-05 0.00071827095 -0.002079945
-0.0023296461 -0.0026956203 -0.002158661 0.0014924387 -0.0011450079 -0.0010947655 -0.0004581247 0.0021591396
0.00021909228 -0.00028010452 0.001421974 -0.0003130663 -0.00084161264 -0.0017391682 -4.7106318e-05 0.0014467796
0.0018571016 0.00097512937 -0.0023250708 -0.0009278916 -0.00014484572 0.0017227693 -0.00041868232 -0.0009816388
-0.0017904271 -0.0001276791 -0.0025380591 0.0029701577 -0.00050112844 0.00079512596 -6.2935906e-05 0.001089924
0.00025409518 -0.0036543861 -0.00012400378 0.0023213373 -0.0011372908 -0.0023446067 -0.00031205628 0.002438197
0.0031573798 -0.00073788123 -0.0011803284 0.00055864267 0.0015998568 0.0012882401 -0.001395422 -0.0007119362
0.0005887895 0.00012720167 -0.0011774088 0.00071338075 -0.0014920016 0.00089550234 -0.001690553 0.001112363
-0.0011168532 -0.00036637386 0.0024802831 0.000992293 0.0011753422 -0.00055071054 -2.8994953e-05 0.0012735814
-0.00045602996 -0.0013223679 -0.0013581502 -0.0019548114 0.0014070786 0.0010931711 0.00017309141 -4.2986176e-07
00000000: b482 1c3a a21d ff38 752d 4cba cdf4 a13a
00000010: da75 c83a 6d4b 0e3a 95ef e13a 9224 013b
00000020: bcbe 1dba 0098 01bb 8b7d 85ba dce5 2a3b
00000030: 952a 493a 4759 103a 0efb 493a 8467 ddba
00000040: 641c 19bb c31e 72ba 9cdc e83a 4471 1d3b
00000050: ee08 88ba 5b5c efba 7dea 14bb bbaa 81ba
00000060: 0a85 29bb 42dd a139 c588 0a3a f0f6 e939
00000070: 2286 b73a 3e55 05bb 9e8e c93a dca2 c13a
00000080: e29a 85ba d9eb e43a 43bc 933a 918c f7ba
00000090: a14f 7bba 5b95 ccba 3ac9 bfb9 6211 5d39
000000a0: 09c1 a43a a753 173a e93f 6839 3b39 a7ba
000000b0: 6521 f3ba eb27 42bb 0b46 82ba e7c6 5aba
000000c0: c548 0cbb c01f 1a38 a479 6e3a 9700 48ba
000000d0: 4368 1d3a 7347 c03a 0fb4 36b9 1faa f3ba
000000e0: 40c5 96ba 8c2c 02bb ec5b 06ba 3dcb 52ba
000000f0: 9ded 073b 386d 503b fa5d 36b9 7186 11bb
00000100: ef9c 2e3b 8cb8 1abb 1aef adb8 14dc 35bb
00000110: 804a a6ba 8470 e9b9 4d1f 16b9 bac5 0f3b
00000120: b509 8eba e040 443a dd2f ee3a e582 98b9
00000130: 6ab5 313b 8332 2cbb a873 11bb 3b71 b83a
00000140: eb16 6db9 af1f f53a ea7f 2db9 fc75 7eba
00000150: 9be2 4d3a 6cce 5f3b 86dc ddba edd5 63ba
00000160: 1a0d 8cb9 4e81 b03a 3a39 b7ba 096f ce3a
00000170: a7b8 d53a f3f8 c939 8cfc b23a 69a8 8b3a
00000180: 4365 1d3b 4962 1fbb 08c6 8237 c04a 95ba
00000190: 5f7f 3fbb 0132 233b 8fca 1cba de04 8439
000001a0: bce6 03bb 1236 1fb8 caaa d63a 4f5e 9b3a
000001b0: f2a4 c2ba 2f65 023b 882b 8e3a 127c c339
000001c0: 1545 f93a 0d8a 29bb 96d2 fcba 18aa 67bb
000001d0: a123 12ba 51f1 2b3b c55b 9db9 c940 803a
000001e0: eaf1 5cba b8d2 c0ba 8b73 48ba d43b 933a
000001f0: 7af6 f93a f89b 2c36 d21c 393a bfe1 ab3a
00000200: 7ceb baba ad8e 5e3a 7599 1a3a a10c 0c39
00000210: 8cb1 df39 7ce0 80ba f850 ac39 260d fc39
00000220: 3a9e e738 ca80 203b df33 b9ba 90c4 1d3b
00000230: 8fec 6fba 2407 f138 b3de c039 3400 02ba
00000240: c119 9fba 6e50 203a 38cf 05ba 8281 7dba
00000250: 48a1 23bb 6928 02bb da98 d1b9 6822 143b
00000260: cd50 103b 6ac0 20bb 3b69 4b3b dc8f 26bb
00000270: a233 383b fcda 03bb a387 0dbb ba3e c6b9
00000280: 6b79 01bb 5ac8 513b 852e 76bb 6297 7bba
00000290: 8163 66ba 0291 2dbb 4df8 85ba 4c43 fc39
000002a0: c95f 69ba 0b76 80ba c2a0 99ba 9624 b93a
000002b0: 1992 ad3a bdfc 35bb df6d 16bb afb5 a6ba
000002c0: 5060 e539 49a7 b1b9 7082 b438 bb58 4dbb
000002d0: 625c 9d39 9ad3 98b8 594a 3c3a b04f 08bb
000002e0: faac 18bb 01a9 30bb 5278 0dbb ef9d c33a
000002f0: 1714 96ba 3c7e 8fba 7530 f0b9 5a80 0d3b
00000300: 23bc 6539 feda 92b9 8861 ba3a 0c23 a4b9
00000310: ab9f 5cba cdf4 e3ba 0694 45b8 dea1 bd3a
00000320: fd69 f33a d39f 7f3a 3760 18bb c03d 73ba
00000330: bae1 17b9 8cce e13a 9782 dbb9 55aa 80ba
00000340: c4ac eaba 99e1 05b9 9155 26bb faa6 423b
00000350: 295e 03ba 0070 503a 75fc 83b8 c8db 8e3a
00000360: 1438 8539 6d7e 6fbb 0307 02b9 9421 183b
00000370: 2611 95ba f9a7 19bb 7c9b a3b9 28ca 1f3b
00000380: 0bec 4e3b 5f6e 41ba 40b5 9aba e071 123a
00000390: 49b2 d13a 2ada a83a 98e6 b6ba 3ba1 3aba
000003a0: ff58 1a3a 7061 0539 4953 9aba 2c02 3b3a
000003b0: 448f c3ba 25c0 6a3a 8c95 ddba b5cc 913a
000003c0: 6063 92ba de15 c0b9 3f8c 223b d40f 823a
000003d0: f10d 9a3a 8f5d 10ba 303a f3b7 4dee a63a
000003e0: 4e17 efb9 4e53 adba f503 b2ba 4b1c 00bb
000003f0: b96d b83a bc48 8f3a df7f 3539 c0c7 e6b4

action_model._continuous_distribution.log_sigma f4 [1, 5]
0.0013347476 0.0024408642 0.00042939113 -0.003918251 -0.0036061083
00000000: b3f2 ae3a e8f6 1f3b e71f e139 ac64 80bb
00000010: 7554 6cbb

action_model._continuous_distribution.mu.weight f4 [5, 256]
0.012999159 -0.0037425251 -0.0027375726 0.001626751 -0.0012930394 -0.0031244848 -0.007961875 -0.007323328
0.02537679 0.013894984 0.0051878933 -0.0056077396 -0.014227352 -0.0072052185 -0.0037246933 0.013194281
0.023747029 0.016888913 -0.010814727 -0.005956573 0.01235114 0.002429004 -0.004111538 0.0068608853
0.022599217 0.0065328106 -0.0082014 0.0039929557 -0.028198073 0.02703948 -0.020497564 -0.00080541224
-0.0010089094 -0.009830848 -0.0030350483 0.028434046 0.012881455 0.012429829 0.008572468 -0.011762936
-0.018628681 -0.009302065 -0.009553069 0.0018296872 0.014978889 0.012071423 -0.00022155549 0.0050050425
0.0130614815 0.001920167 -0.0084410105 -0.004186053 -0.0013001328 -0.026844881 0.0048038987 0.011115082
0.0056240796 0.028280744 0.005021312 0.008600371 -0.0020140267 -0.0033941357 -0.00615769 0.020659517
-0.004354305 0.016336868 -0.0117800245 0.005976155 0.005296444 -0.008108623 0.0054113185 -0.014196045
-0.000692397 -0.0006959165 0.0036616935 0.018561061 -0.015454007 0.0051217834 -0.0014832178 -0.007292916
-0.01353591 -0.017298179 -0.0050723334 0.012247696 0.00901089 -0.004635404 0.018667003 0.0026659844
0.0010857178 -0.011816875 0.005264968 -0.0003019184 -0.019824015 0.0012606853 -0.008378793 -0.014610755
-0.008672821 0.021439811 -0.016864238 -0.0020532182 0.008196709 -0.011157977 0.008128466 0.0029058123
0.0057969275 -0.0001542489 -0.009018304 -0.00025181362 -0.0016098741 -0.019945797 -0.00850893 -0.01761585
-0.0017766888 0.007847862 0.025220105 0.0076002637 -0.00245277 -0.01740736 -0.0018583825 -0.007862405
-0.0024837865 0.024432022 -0.00841878 -0.010496886 0.0025166357 -0.0081997495 -0.016231194 -0.008772777
0.007419227 -0.025964225 0.0025155086 0.0090694465 -0.00610996 0.015957844 -0.008390964 -0.0029533086
-0.013432951 0.00012365801 0.01348545 -0.0083926115 0.014869242 -0.0014786813 0.0015822176 0.003959694
0.0054712393 -0.0067592496 -0.007729985 -0.0034834126 0.0060696276 -0.0009443427 0.004382607 -0.010370712
-0.017535586 0.0025386498 -0.005782381 0.002910811 -0.006373549 0.005763081 0.0036655639 0.0061508995
0.009159888 -0.007313076 -0.0014550361 -0.004486114 0.003228981 0.022005448 0.00056813954 -0.011089312
0.012643839 0.008111541 -0.00022069279 0.0018781669 -0.012866389 0.022269603 0.025572948 -0.00791099
-0.015457595 0.0025726496 0.012772299 0.007691069 -0.008697493 -0.01568374 -0.0018048026 0.020934435
0.003094713 0.012745206 0.004433523 -0.018825335 0.014407739 0.0107129365 0.025141327 -0.0032428778
0.0011798523 -0.0063937856 -0.0037116904 0.0042823013 -0.0050688004 0.0048229652 0.015204892 -0.0046241335
-0.011971808 -0.0024812843 0.017643094 0.00080199784 -0.0012438494 -0.013423764 -0.013616335 -0.011257034
0.0031284324 0.007509312 0.004939804 -0.0043065427 0.0011080634 0.0024634614 0.0115803145 -0.02508811
0.014830626 0.00096992846 -0.0042357137 -0.015353478 0.012735549 0.02063061 -0.015851801 -0.009077976
-0.008100669 0.0067820763 0.022574473 0.0049419724 -0.008532566 -0.019401798 0.022155244 -0.007981235
-0.0003687349 0.017658567 -0.0005868863 -0.0149847055 0.010626447 0.001629653 0.00096454856 0.0012336001
0.021065425 -0.0027650653 -0.0077026016 -0.009458175 -0.024028447 -0.0022910489 -0.007855991 -0.0094597805
-0.00040633345 0.0021375765 -0.004619689 0.0044940705 -0.013457063 0.0017852448 -0.0014158105 -7.838133e-05
00000000: 6dfa 543c 2745 75bb d968 33bb b538 d53a
00000010: 347b a9ba 28c4 4cbb 8672 02bc 87f8 efbb
00000020: fce2 cf3c c9a7 633c 34ff a93b 21c1 b7bb
00000030: d719 69bc c119 ecbb fc19 74bb d32c 583c
00000040: 2189 c23c 9e5a 8a3c 4130 31bc 5b2f c3bb
00000050: 705c 4a3c ed2f 1f3b 15ba 86bb 47d1 e03b
00000060: fe21 b93c 3011 d63b 2a5f 06bc 57d7 823b
00000070: a5ff e6bc e681 dd3c 82ea a7bc 4d22 53ba
00000080: 623d 84ba 9111 21bc a9e7 46bb 84ee e83c
00000090: bd0c 533c 7ba6 4b3c 8973 0c3c 54b9 40bc
000000a0: 2d9b 98bc b067 18bc 7a84 1cbc 1dd2 ef3a
000000b0: 046a 753c 38c7 453c 5951 68b9 5701 a43b
000000c0: d3ff 553c 1dae fb3a 2a4c 0abc 282b 89bb
000000d0: 3869 aaba cce9 dbbc 066a 9d3b 081c 363c
000000e0: 334a b83b 05ad e73c d189 a43b 92e8 0c3c
000000f0: c3fd 03bb 2670 5ebb 73c6 c9bb 263e a93c
00000100: 8fae 8ebb e5d4 853c 0101 41bc 9fd3 c33b
00000110: cb8d ad3b 08da 04bc 6e51 b13b 8796 68bc
00000120: fa81 35ba 2a6e 36ba 06f9 6f3b 5e0d 983c
00000130: ce32 7dbc a2d4 a73b 8868 c2ba 6af9 eebb
00000140: b9c5 5dbc e9b4 8dbc d135 a6bb 8faa 483c
00000150: 69a2 133c 96e4 97bb 8beb 983c ccb7 2e3b
00000160: a54e 8e3a 919b 41bc c185 ac3b cd4a 9eb9
00000170: f965 a2bc 943d a53a 3447 09bc f361 6fbc
00000180: 7318 0ebc 8ba2 af3c df26 8abc 498f 06bb
00000190: 7d4b 063c f3cf 36bc 422d 053c 716f 3e3b
000001a0: 27f4 bd3b e0bd 21b9 82c1 13bc da05 84b9
000001b0: 6902 d3ba 5e65 a3bc 0a69 0bbc 1d4f 90bc
000001c0: c9df e8ba 5294 003c 659a ce3c a20b f93b
000001d0: a7be 20bb e199 8ebc f894 f3ba 51d1 00bc
000001e0: 06c7 22bb aa25 c83c ecee 09bc 22fb 2bbc
000001f0: 24ee 243b 3e58 06bc 48f7 84bc b2bb 0fbc
00000200: fd1c f33b edb2 d4bc 3bdb 243b 0498 143c
00000210: 0f36 c8bb 06ba 823c 417a 09bc 4c8c 41bb
00000220: e115 5cbc 32aa 0139 14f2 5c3c 2a81 09bc
00000230: 1f9e 733c 50d0 c1ba 6a62 cf3a 52c0 813b
00000240: 1548 b33b b27c ddbb d04b fdbb f749 64bb
00000250: bae3 c63b c48d 77ba f99b 8f3b ebe9 29bc
00000260: caa6 8fbc 7a5f 263b 217a bdbb 4ec3 3e3b
00000270: 34d9 d0bb 3ad8 bc3b f539 703b 7c8d c93b
00000280: 5b13 163c 87a2 efbb e9b6 beba 4000 93bb
00000290: 509d 533b c544 b43c 33ef 143a f2af 35bc
000002a0: 1b28 4f3c 45e6 043c c569 67b9 d32c f63a
000002b0: 8ccd 52bc be6e b63c 5c7e d13c 199d 01bc
000002c0: da41 7dbc e699 283b e842 513c 5d05 fc3b
000002d0: ee7f 0ebc 307b 80bc 208f ecba b17e ab3c
000002e0: abd0 4a3b 45d1 503c 1647 913b 9737 9abc
000002f0: 700e 6c3c 5085 2f3c 2ff5 cd3c 7686 54bb
00000300: 46a5 9a3a f682 d1bb d53f 73bb 8c52 8c3b
00000310: 2e18 a6bb f709 9e3b f01d 793c 0b86 97bb
00000320: 6725 44bc 0b9d 22bb 4088 903c 2a3d 523a
00000330: a908 a3ba 59ef 5bbc 0c17 5fbc 6c6f 38bc
00000340: 6306 4d3b ad10 f63b 14de a13b e61d 8dbb
00000350: 703c 913a 0672 213b 5cbb 3d3c 9485 cdbc
00000360: 27fc 723c cc42 7e3a becb 8abb 278d 7bbc
00000370: c4a8 503c 8601 a93c a3db 81bc cbbb 14bc
00000380: abb8 04bc 2e3c de3b 1aee b83c 45f0 a13b
00000390: 2dcc 0bbc 85f0 9ebc ea7e b53c bac3 02bc
000003a0: c352 c1b9 b3a8 903c 46d9 19ba 6982 75bc
000003b0: 8d1a 2e3c 159a d53a c2d9 7c3a c0b0 a13a
000003c0: 6691 ac3c 1936 35bb 1b66 fcbb 76f6 1abc
000003d0: 4ed7 c4bc 6c25 16bb 6ab6 00bc 32fd 1abc
000003e0: 2709 d5b9 9516 0c3b c360 97bb ff42 933b
000003f0: 037b 5cbc e0fe e93a b892 b9ba a860 a4b8

action_model._continuous_distribution.mu.bias f4 [5]
-0.001555152 0.000113071656 -0.0014390122 0.0005780873 -0.002354005
00000000: 3ed6 cbba e220 ed38 3d9d bcba c88a 173a
00000010: a645 1abb
