results/NearSingularity01/NearSingularity/NearSingularity-17064.onnx (onnx, 582804 bytes, 9 tensors)

network_body._body_endoder.seq_layers.0.weight f4 [256, 46]
0	0xbdd0d309	-0.10196502
1	0x3e1b1596	0.15144953
2	0xbe82e17f	-0.25562665
3	0xbe0ddf8f	-0.13854812
4	0xbe39944e	-0.1812298
5	0xbc233e91	-0.009963647
6	0x3d93e64d	0.07221661
7	0x3a039987	0.0005020131
8	0xbda9c02e	-0.082886085
9	0x3e806e6d	0.25084248
10	0xbdc4017a	-0.09570594
11	0xbe601f07	-0.21886836
12	0xbaba73af	-0.001422515
13	0x3d262a86	0.040567897
14	0x3e2eac05	0.17057808
15	0xbd5b98ba	-0.05361245
16	0x3d0ac6fb	0.03388117
17	0xbe1c1670	-0.15242934
18	0x3dbe3722	0.092878595
19	0xbe5870c7	-0.21136771
20	0x3dd70cdc	0.105004996
21	0xbdad48ef	-0.084611766
22	0xbe9b65a6	-0.3035099
23	0x3d25a4fa	0.040440537
24	0x3e643206	0.22284707
25	0x3e8f8958	0.28034472
26	0x3ea0060c	0.31254613
27	0xbc329e49	-0.010901996
28	0xbb652860	-0.0034966692
29	0x3dbf09c1	0.09328032
30	0xbe86f937	-0.2636201
31	0x3e483961	0.19553138
32	0xbd96fd39	-0.07372517
33	0xbd04950a	-0.032368697
34	0xbd980f80	-0.074248314
35	0x3e055700	0.13021469
36	0xbd90ecb4	-0.070763975
37	0xbeb6b02b	-0.3568128
38	0x3d8a3a62	0.06749417
39	0xbd19c8f8	-0.037545174
40	0xbce18df8	-0.027533516
41	0x3e3875ce	0.18013689
42	0xbd30d834	-0.043174937
43	0x3e9bc1c9	0.30421284
44	0xbbcbd527	-0.006220478
45	0xbe496a81	-0.19669534
46	0xbd88f084	-0.066865
47	0x3d858135	0.06518785
48	0xbe5c34ca	-0.21504512
49	0xbd882744	-0.06648114
50	0xbd7ae880	-0.061256886
51	0x3e18245b	0.14857619
52	0x3df7814d	0.12085209
53	0x3dec6a65	0.11543731
54	0x3d093846	0.033500932
55	0xbcb102f9	-0.021607863
56	0x3d87126f	0.06595313
57	0xbe0e0039	-0.13867272
58	0xbd93ef81	-0.07223416
59	0x3d555c5e	0.05209004
60	0xbe2e196d	-0.17001887
61	0xbcc53ed8	-0.024077818
62	0x3db9362b	0.09043535
63	0x3d48c3a6	0.04901471
64	0xbe664e51	-0.22490813
65	0x3c4684ee	0.012116654
66	0x3e17aabc	0.14811224
67	0x3e3dc070	0.1853044
68	0xbdf52156	-0.11969249
69	0x3d92815d	0.0715358
70	0x3e2c1bf2	0.16807535
71	0x3df09cf8	0.117486894
72	0x3d15e39f	0.03659403
73	0x3d852e4b	0.0650297
74	0xbd45c7aa	-0.048286118
75	0xbe9210d4	-0.28528464
76	0xbda81fb6	-0.082091734
77	0x3dc41b59	0.09575529
78	0x3e14808f	0.14502166
79	0xbdcd7967	-0.10032921
80	0x3d8f28fd	0.0699024
81	0xbdd7cf1c	-0.1053755
82	0xbddc17d0	-0.107467294
83	0xbd3d8af0	-0.04627508
84	0xbdb021c0	-0.08600187
85	0xba53bde7	-0.0008077309
86	0xbe5c327d	-0.21503635
87	0xbda5e613	-0.08100524
88	0xbe5768ba	-0.21036044
89	0xbc2b4e78	-0.01045572
90	0x3eb46e1a	0.3524025
91	0x3daac12e	0.08337627
92	0xbcf48bf2	-0.029851887
93	0xbd4f5a44	-0.050623193
94	0xbdfa74e9	-0.1222933
95	0x3dbb30e0	0.091401815
96	0xbe3bf497	-0.18355022
97	0x3e63ac75	0.22233756
98	0x3d815d59	0.06316633
99	0xbe55e615	-0.2088855
100	0xbe2ee97a	-0.17081252
101	0x3e55e32e	0.20887443
102	0x3d576c0e	0.052593283
103	0x3e246880	0.16055489
104	0x3d8f4459	0.06995458
105	0xbd34cdfd	-0.04414176
106	0x3e1bbfff	0.1520996
107	0xbd617977	-0.05504748
108	0x3e92cb1a	0.2867058
109	0x3d4895d5	0.048971016
110	0x3e146650	0.14492154
111	0x3e6f2601	0.23354341
112	0xbe036f3d	-0.12835403
113	0x3d0f9d2b	0.035061996
114	0x3e338910	0.17532754
115	0x3e44ffed	0.19238253
116	0xbe9daf81	-0.3079796
117	0x3ca958ba	0.020672191
118	0x3e13f7f4	0.14450055
119	0xbd6c4d6d	-0.057691026
120	0x3db5f6cb	0.08884963
121	0xbd91c09b	-0.07116815
122	0x3e87fae7	0.2655861
123	0xbdb782d3	-0.089604996
124	0x3d99cb07	0.075094275
125	0xbe832fb1	-0.25622323
126	0xbd801e03	-0.06255724
127	0xbd3e5d19	-0.046475504
128	0xbcf50ce6	-0.029913377
129	0xbdec41cc	-0.11535987
130	0xbeaf8926	-0.34284323
131	0x3b8d9840	0.004321128
132	0xbe98a9f4	-0.29817164
133	0x3cb9b8ce	0.02267113
134	0xbba0f2aa	-0.0049117403
135	0x3c2685c4	0.010163728
136	0xbdb0477c	-0.086073846
137	0xbd343bd9	-0.044002388
138	0x3d28c23b	0.041200858
139	0x3e38a7a7	0.18032704
140	0xbe9e9f01	-0.30980685
141	0x3d078389	0.033084426
142	0x3d81f97b	0.06346413
143	0x3e3d939b	0.18513338
144	0xb8529c06	-5.021321e-05
145	0x3da4634e	0.08026753
146	0xbc98d840	-0.018657804
147	0x3ce77651	0.02825466
148	0xbd8c8409	-0.06861121
149	0x3e1e0807	0.1543275
150	0xbe0c93a8	-0.13728201
151	0x3dd2419d	0.10266421
152	0xbdc542fd	-0.096319176
153	0x3e28f53e	0.16499802
154	0xbdeec377	-0.11658376
155	0xbbc3c337	-0.005974199
156	0xbdf5f0ad	-0.12008796
157	0x3dfe36e1	0.12412811
158	0xbdf9a2c5	-0.12189249
159	0xbc2239b9	-0.0099014575
160	0xba81678b	-0.0009872777
161	0x3d63c96c	0.055612013
162	0xbe132384	-0.14369017
163	0x3e10d484	0.14143568
164	0xbdabd023	-0.08389308
165	0x3d2875c1	0.041127924
166	0xbe5b6c13	-0.21427946
167	0x3dba56a4	0.09098557
168	0xbea57e71	-0.3232303
169	0xbe618ddb	-0.2202677
170	0xbcec6886	-0.028858434
171	0xbd4137ad	-0.047172237
172	0x3e812826	0.25225943
173	0xbc8e24cc	-0.01735153
174	0xbdea88f3	-0.11451902
175	0xbdd96625	-0.10615186
176	0x3e34dab4	0.17661554
177	0x3dcc1bdb	0.099662505
178	0xbe47b8cb	-0.19504087
179	0x3e3e9d06	0.18614587
180	0xbe73c5a3	-0.23805861
181	0x3de76286	0.11298089
182	0x3e0bacea	0.1364018
183	0x3e877c89	0.264622
184	0xbe2f6c59	-0.17131175
185	0x3e1c39b6	0.1525639
186	0x3e594ee9	0.21221508
187	0xbd0b1556	-0.033955894
188	0xbdf4202a	-0.11920197
189	0x3dbaafd8	0.09115571
190	0xbc5d08b9	-0.013490849
191	0x3e508b3c	0.20365614
192	0xbe0c4686	-0.13698778
193	0x3e6748f5	0.22586425
194	0x3c6a36dd	0.014295307
195	0xbe47c8bb	-0.19510166
196	0xbbc91185	-0.0061361217
197	0xbe037d31	-0.12840725
198	0x3c6044d2	0.013688283
199	0xbe2a1fed	-0.16613741
200	0xbda79b01	-0.081838615
201	0x3d472632	0.04862041
202	0xbe17df46	-0.14831266
203	0xbde1bd7f	-0.11022472
204	0xbebd1f56	-0.3693797
205	0x3dfe29ab	0.12410291
206	0xbe3e9e1c	-0.18615001
207	0x3dc9a0fe	0.0984516
208	0x3e217061	0.15765525
209	0xbe5b6d4c	-0.21428412
210	0x3d5ccbb0	0.05390519
211	0x3da9d08e	0.08291732
212	0x3c91c1d0	0.017792612
213	0x3e7f617e	0.24939534
214	0xbd10e9f5	-0.03537937
215	0xbe9a1e43	-0.30101213
216	0x3d8c8c28	0.0686267
217	0xba4e4c26	-0.00078696234
218	0x3ce1d176	0.0275657
219	0xbdc707fa	-0.09718318
220	0xbdce49c0	-0.100726604
221	0xbe1a542b	-0.1507117
222	0x3e367fc3	0.17822175
223	0x3e1aacad	0.15104933
224	0x3bbde8a7	0.0057955566
225	0xbe207535	-0.15669711
226	0xbeafa88a	-0.34308273
227	0xbd539aef	-0.051661428
228	0xbe3d4d78	-0.18486583
229	0xbe6b2941	-0.22964956
230	0xbd27578a	-0.040854968
231	0x3dc1b7eb	0.09458908
232	0x3d39b009	0.045333896
233	0x3da5bca6	0.080926225
234	0xbe8b3a6a	-0.27193004
235	0x3e54969e	0.20760581
236	0x3d487d56	0.048947655
237	0x3d8004fc	0.06250951
238	0x3da11a6f	0.0786637
239	0xbd0cb0f7	-0.034348454
240	0xbcf4da7d	-0.02988934
241	0xbc2e6a69	-0.010645487
242	0x3d8babb4	0.06819859
243	0x3e236c49	0.15959276
244	0xbca30a44	-0.019902356
245	0x3dd06cf1	0.10177029
246	0xbd97047d	-0.07373903
247	0xbe96e458	-0.29471087
248	0xbe4bc248	-0.19898331
249	0xbe646130	-0.22302699
250	0xbda8068d	-0.082043745
251	0xbe528363	-0.20557933
252	0x3dd675c9	0.104716845
253	0x3c55781d	0.0130291255
254	0xbdd60284	-0.104496986
255	0x3e261790	0.16219926

network_body._body_endoder.seq_layers.0.bias f4 [256]
0	0x3bb56d24	0.005536692
1	0x3ba51e8c	0.005039042
2	0x3b7e8d4a	0.003884154
3	0x3a77cb90	0.00094526354
4	0x3984a650	0.00025300914
5	0xbbe8e898	-0.0071078055
6	0xbb76bd16	-0.0037649325
7	0xbbba427c	-0.005684195
8	0x3bc9a1df	0.0061533297
9	0x3c6bf7c1	0.014402331
10	0x3aed366a	0.0018097882
11	0x3b8521df	0.0040628756
12	0x3c0f4b91	0.008746044
13	0x3b6f5e55	0.0036524732
14	0x3b518cd2	0.0031974805
15	0x3a363348	0.00069503905
16	0x3bc52c61	0.0060172533
17	0xbc06edf6	-0.008235445
18	0xbbcccd2f	-0.0062500457
19	0xba7e183f	-0.0009692944
20	0xbc277f70	-0.010223255
21	0x3c720a64	0.014772985
22	0xb9cb1ee0	-0.0003874218
23	0xbbc1e71c	-0.005917443
24	0xbb9bfcc4	-0.0047603566
25	0xbaa170a8	-0.0012316899
26	0xbb692670	-0.003557589
27	0x3aecbc44	0.0018061479
28	0x3bc9128c	0.006136244
29	0x3b0ec1ca	0.0021782988
30	0x3c050a30	0.008120105
31	0xbb0e5f93	-0.0021724447
32	0x3bb122df	0.0054057683
33	0xbac80ba8	-0.0015262263
34	0xbabcff5b	-0.0014419364
35	0xbb9c38a3	-0.004767494
36	0xbbc1084b	-0.005890881
37	0x3b4a54db	0.0030873332
38	0x3bd2581f	0.0064191963
39	0x3ba5b038	0.0050564073
40	0xba25dc70	-0.0006327098
41	0x3c268159	0.010162675
42	0x3bc24cf5	0.005929584
43	0xbc24027d	-0.010010359
44	0x3bad9446	0.0052972166
45	0x3ab2211b	0.0013590188
46	0x3c2f4efc	0.010699984
47	0xba181d39	-0.00058026944
48	0xbb6b3f70	-0.0035895966
49	0xbba0a77c	-0.004902778
50	0x3bec05a8	0.0072028227
51	0x3afe756b	0.0019413655
52	0x38ea5f51	0.000111757436
53	0x3bfb07be	0.007660835
54	0x3ba564b1	0.0050474037
55	0x39fcde84	0.00048230973
56	0x3c1239ea	0.008924941
57	0x3c7153a6	0.014729416
58	0xbb6dbd63	-0.0036276213
59	0x3b9d83a3	0.004806952
60	0x3c5e1fda	0.013557399
61	0x3b800f8c	0.0039081033
62	0xbb3a3389	-0.0028412065
63	0x3b5ae423	0.003340014
64	0x3b99d687	0.004694763
65	0x3b4f8830	0.0031666867
66	0xbc0b5186	-0.008503323
67	0xbb260222	-0.002533086
68	0xbb6be8fb	-0.0035997021
69	0xbbda6065	-0.006664323
70	0x3ba6385c	0.0050726365
71	0x3c75d4ac	0.015004318
72	0x3c36a180	0.011146903
73	0xbc1e0896	-0.009645602
74	0x3adb059a	0.0016710043
75	0x3bd31186	0.006441298
76	0x3b26c616	0.0025447658
77	0x3c5466a5	0.0129639255
78	0xbb3a0761	-0.0028385746
79	0xbb48289d	-0.0030541786
80	0xbac5fc32	-0.0015105067
81	0xb9cc8d8b	-0.0003901537
82	0xbbcb0abb	-0.0061963475
83	0x3aeb7717	0.0017964569
84	0x3c180ccc	0.009280395
85	0xbb27d114	-0.0025606798
86	0x39865e16	0.0002562857
87	0xbb8482b9	-0.0040439037
88	0xbb6ec996	-0.0036436073
89	0xbc40e64a	-0.011773655
90	0xbb084bc2	-0.0020797108
91	0x3b587a76	0.0033031977
92	0x3abd944e	0.0014463754
93	0x3bcdb05c	0.006277127
94	0x3b381016	0.002808576
95	0x3a95e083	0.0011434708
96	0xbbdf41f1	-0.0068132808
97	0x3a96fdd3	0.0011519737
98	0x3962bedb	0.00021624139
99	0x3bd59928	0.006518502
100	0xb8a9f629	-8.104399e-05
101	0x3aaf5eb4	0.0013379664
102	0xb8d05e2a	-9.935752e-05
103	0xbc0930c7	-0.008373446
104	0xbbad3907	-0.005286339
105	0x3b194f8d	0.0023393363
106	0x3c02a679	0.0079742605
107	0xbb30f74c	-0.002700287
108	0x3bc7c212	0.006096133
109	0xbb38717b	-0.0028143812
110	0x3bfcc67f	0.0077140923
111	0x3b104b69	0.0022017604
112	0xbc165ad9	-0.009176933
113	0x390d9736	0.00013503138
114	0x3b05c5d2	0.00204121
115	0xbbc5209b	-0.0060158498
116	0xb9a10f28	-0.00030719605
117	0x3c6f0205	0.014587884
118	0x3c293b27	0.010329044
119	0xbb623ca0	-0.0034520999
120	0xbc1c7271	-0.009548769
121	0xbb756f05	-0.0037450206
122	0xbbc795cf	-0.0060908566
123	0x3b40db45	0.002942757
124	0xb9900b06	-0.00027474033
125	0xbabea9c3	-0.0014546443
126	0xba83a85d	-0.0010044683
127	0x3aae80c9	0.0013313527
128	0xbb6d8e94	-0.0036248313
129	0xbb8b758f	-0.0042559574
130	0x3ba45180	0.0050145984
131	0xbb1fa022	-0.0024356921
132	0xbbbd94d0	-0.005785562
133	0xbc03ba93	-0.008040088
134	0xbbebc1ee	-0.007194749
135	0x3c0aebdc	0.008479085
136	0x3c569db2	0.013099121
137	0x3be48d41	0.0069748466
138	0xba35d497	-0.00069362804
139	0xba8ae710	-0.0010597426
140	0x3ba06af5	0.004895563
141	0x3b9d7fdb	0.0048065013
142	0xbbe94638	-0.0071189664
143	0x3b8e3094	0.004339287
144	0xbab89a91	-0.001408415
145	0x3b1055c1	0.002202377
146	0x3aa20e35	0.0012363853
147	0xbc09d415	-0.008412381
148	0x3b49812f	0.0030747165
149	0x3944dcd7	0.00018774286
150	0xbaee56cc	-0.0018183826
151	0x3bffbdd1	0.0078046103
152	0x3b24679a	0.0025086165
153	0xbbe27946	-0.0069114296
154	0x3b6da561	0.0036261904
155	0x3c1ca9b3	0.009561944
156	0xbbd00c1d	-0.0063491003
157	0x3c883804	0.016628273
158	0x3bac4c93	0.005258152
159	0xbbddf900	-0.006774068
160	0x3bfd0200	0.0077211857
161	0xba36c2b4	-0.0006971762
162	0x3ad59905	0.0016296214
163	0x3aac688b	0.0013153715
164	0xbab6a506	-0.0013934679
165	0x3c3d1e23	0.01154283
166	0xbb9a1435	-0.004702116
167	0x3bfe4993	0.0077602356
168	0x3a44000e	0.0007476815
169	0xbb772bd5	-0.0037715335
170	0x3c1d0274	0.009583104
171	0x3b9157f6	0.0044355346
172	0x3c595e83	0.013267162
173	0x3c3cd2dd	0.011524883
174	0x3c1dee3e	0.009639321
175	0xbbaabd53	-0.0052105575
176	0x3b3059b8	0.0026908945
177	0x3b0095e3	0.001962059
178	0x3bfc6655	0.0077026286
179	0xbbc8b0fa	-0.006124613
180	0x3bc5047e	0.0060124984
181	0x3bafe30d	0.0053676427
182	0xbb697d93	-0.0035627827
183	0xbc13390f	-0.008985772
184	0x3b11eef5	0.0022267674
185	0x3b94a370	0.004536085
186	0x3c369dc5	0.011146014
187	0x3c29cdde	0.010364024
188	0xbbcf1829	-0.006320019
189	0x3b1e6e47	0.0024174617
190	0x38cd78f7	9.797693e-05
191	0x3bc4ff36	0.006011869
192	0xba969219	-0.0011487632
193	0x3ab85e93	0.0014066271
194	0xbc1a47ab	-0.009416501
195	0xbc549c28	-0.012976684
196	0x3a2b38eb	0.0006531614
197	0xbb53d695	-0.0032323946
198	0x3c5d4aa1	0.013506562
199	0x3ab2414e	0.0013599785
200	0x3b8277c8	0.003981564
201	0xbae11f2a	-0.0017175425
202	0x3c8d9f91	0.017288001
203	0x3b4af6f9	0.003096996
204	0xbc6cc736	-0.014451792
205	0x3bc87bc3	0.006118269
206	0x3c3d02bd	0.011536297
207	0x3b646d8e	0.0034855339
208	0x3c469122	0.012119563
209	0x3b8f5e16	0.0043752296
210	0x3bb10c4e	0.005403078
211	0xbb2f13e1	-0.002671473
212	0xbb6b6aa3	-0.0035921715
213	0x3ba1760d	0.004927403
214	0x3ac3a4dc	0.0014926451
215	0x3c0f6ffe	0.008754728
216	0xbb93ae8c	-0.0045068916
217	0x3bc85e45	0.0061147534
218	0x3a1faadc	0.00060908287
219	0xbb48ff2d	-0.0030669675
220	0xbb602758	-0.0034203138
221	0xbc85716a	-0.016289432
222	0xbbba724f	-0.005689896
223	0x3c1859a3	0.009298715
224	0xb913178b	-0.00014027783
225	0xbb473a0d	-0.0030399591
226	0x3c9307b2	0.017948005
227	0xbbead206	-0.00716615
228	0x3bf3130a	0.007418041
229	0x3b5ca6d7	0.003366878
230	0xb99b3b10	-0.0002960791
231	0x3be94406	0.0071187047
232	0xbafa3240	-0.0019088462
233	0x3b81c9d4	0.0039608274
234	0x3ab4d231	0.0013795552
235	0x3b660252	0.0035096598
236	0xb99a47c1	-0.0002942663
237	0x3bf8e2bb	0.0075953878
238	0x3beebfd6	0.007286052
239	0x3c13f6ac	0.009030979
240	0x3c4227af	0.011850282
241	0xb9cad856	-0.00038689625
242	0xb952cfd6	-0.00020104586
243	0x3b7941c5	0.0038033586
244	0xb8b2db3c	-8.528537e-05
245	0x3aa6d817	0.0012729195
246	0x3ae7a0f9	0.0017671875
247	0xb8936546	-7.02837e-05
248	0xbb3a40de	-0.0028420012
249	0x39f4e254	0.00046707934
250	0xba8f0cf3	-0.0010913893
251	0xbc2cb7ad	-0.010541839
252	0xba6cd14c	-0.0009033873
253	0xb9c74c60	-0.00038013142
254	0xbad48366	-0.0016213476
255	0x3b910e76	0.0044267727

network_body._body_endoder.seq_layers.2.weight f4 [256, 256]
0	0x3c0cbdac	0.008590143
1	0xbce47580	-0.02788806
2	0xbdcc700b	-0.09982308
3	0x3c2f97b7	0.010717324
4	0x3ad91e71	0.0016564858
5	0x3d3f1bbf	0.04665732
6	0xbe09298e	-0.13394758
7	0xbc1b4024	-0.009475742
8	0xbcac2ec3	-0.021018391
9	0xbdacf2ed	-0.08444772
10	0x3cbed817	0.023296399
11	0x3b6bab31	0.0035960192
12	0x3d144bcd	0.0362051
13	0x3db1a7e9	0.086746044
14	0x3de9d8fa	0.11418338
15	0x3c678f72	0.014133321
16	0x3d86b8a2	0.06578185
17	0x3b4a1228	0.0030833576
18	0xbdb6724b	-0.089085184
19	0x3cb3d9e1	0.021954479
20	0x3db7bb43	0.08971264
21	0xbc88d85d	-0.016704733
22	0x3d183dab	0.037168186
23	0x3b42dfa1	0.0029735344
24	0xbc2cf289	-0.010555872
25	0x3c9b6383	0.01896835
26	0x3d1ba389	0.037997756
27	0x3d08a520	0.0333606
28	0x3d9f71d0	0.0778538
29	0xbd03ae0a	-0.0321484
30	0xbbd7b989	-0.006583397
31	0xbd49f1c7	-0.049302842
32	0xbb424bc6	-0.0029647215
33	0x3ce9f570	0.028559417
34	0xbd46669b	-0.048437696
35	0xbc86669d	-0.016406352
36	0xbd89d026	-0.06729154
37	0xbd9ff1d1	-0.07809795
38	0xbd7fae28	-0.062421948
39	0x3bdedaae	0.006800971
40	0xbd84ddc4	-0.06487611
41	0xbbd93ae0	-0.006629333
42	0x3ca2e779	0.019885765
43	0xbce75d0c	-0.02824261
44	0x3b18b235	0.002329958
45	0xbc9b4bea	-0.018957097
46	0xbdd35a2a	-0.10319932
47	0xbd6fad40	-0.058514833
48	0xbbd2af32	-0.0064295763
49	0x3d508c37	0.05091497
50	0x3dd42358	0.10358304
51	0x3d0cbfc1	0.03436256
52	0x3d9f1a1b	0.07768651
53	0xbc022479	-0.007943266
54	0x3dbc5ff8	0.09197992
55	0x3c008a93	0.007845539
56	0x3d73b109	0.059495006
57	0xbc0a2963	-0.008432719
58	0xbda31fea	-0.079650715
59	0x3e0b1cb6	0.13585171
60	0x3ddf91ed	0.10916505
61	0x3ce80a30	0.02832517
62	0x3dbfcb1d	0.09364913
63	0x3b30ca4b	0.0026976045
64	0x3c8591a3	0.016304797
65	0x3d0c81cb	0.034303468
66	0xbd54c258	-0.051943153
67	0xbde8108d	-0.11331282
68	0x3df688b4	0.12037793
69	0xbdab78ce	-0.08372651
70	0xbd4350f3	-0.04768462
71	0x3c34f1bf	0.011043965
72	0xbdda479a	-0.10658188
73	0xbd6efd07	-0.058346774
74	0xbdc9de02	-0.09856798
75	0xbd4c6448	-0.049900323
76	0x3cd61ea3	0.026137656
77	0xbd09062e	-0.03345316
78	0x3d211c01	0.039333347
79	0xbd985481	-0.07437993
80	0xbce907c3	-0.028446084
81	0xbd27d9d8	-0.040979236
82	0xbc12cae0	-0.008959502
83	0x3d5ea1c5	0.054353494
84	0x3dbd3811	0.092392094
85	0xbc15d4b3	-0.00914495
86	0x3ccb97bf	0.024852632
87	0x3d48dcec	0.049038813
88	0x3da43d2b	0.08019479
89	0xbb4dfd7b	-0.0031431604
90	0x3c6f603e	0.014610348
91	0x3d405db6	0.04696437
92	0xbdcd12a4	-0.10013321
93	0x3c146b24	0.009058747
94	0x3cf0edcd	0.029410267
95	0xbc779387	-0.015110857
96	0x3ce053ee	0.02738377
97	0x3dc588f4	0.09645262
98	0x3d92a928	0.0716117
99	0xbdc7b062	-0.09750439
100	0xbc7b3cfb	-0.015334363
101	0xbd1ed6ed	-0.038779188
102	0xbd33de35	-0.043913085
103	0x3ca55480	0.020181894
104	0xbdcf3b0a	-0.10118683
105	0x3c154967	0.009111739
106	0x3cc3c3f1	0.023897143
107	0x3b9318f3	0.004489058
108	0x3d12206c	0.03567545
109	0xbcbe24c5	-0.023210892
110	0xbd4c5c3f	-0.04989266
111	0x3dcfdf26	0.10149984
112	0xbbe54e3f	-0.006997853
113	0x3c0c368a	0.008557925
114	0xbc927d0b	-0.01788189
115	0x3cf7536c	0.030191146
116	0xbbe1990e	-0.0068847006
117	0x3d871d5d	0.065973975
118	0xbd8c4c10	-0.06850445
119	0x3ca68cb2	0.02033076
120	0x3bd39400	0.006456852
121	0x3d9a0b4e	0.075216874
122	0xbd26f001	-0.04075623
123	0xbbf58714	-0.007492909
124	0x3bd7d3e8	0.0065865405
125	0x3d293896	0.04131373
126	0xbcaa87ed	-0.020816768
127	0xbd8fbf41	-0.07018901
128	0xbd82402a	-0.063598946
129	0x3bbce5fb	0.0057647205
130	0x3d3ccda1	0.04609454
131	0xbc7a76a4	-0.015287075
132	0x3dac57a7	0.08415156
133	0xbdbaf193	-0.09128108
134	0xbc78749c	-0.015164521
135	0x3db31e67	0.08746033
136	0xba455cea	-0.0007528799
137	0x3dc2d7e0	0.09513831
138	0xbd143b54	-0.036189392
139	0xbde3fb72	-0.11131944
140	0x3dce3078	0.100678384
141	0x3b9d446b	0.004799416
142	0x3c986912	0.018604789
143	0x3d9bbc0e	0.07604228
144	0xbe14508f	-0.14483856
145	0xbc8d8994	-0.017277516
146	0x3d02dd7b	0.0319495
147	0x3d6ae1d9	0.05734429
148	0x3c788f1a	0.015170837
149	0x3d16d9e3	0.036828887
150	0x3c894916	0.016758483
151	0xbc8dd22c	-0.017312132
152	0x3c3e801e	0.011627225
153	0x3d25a4e2	0.040440448
154	0xbd5883bf	-0.052860018
155	0x3d27623b	0.040865164
156	0x3c31b784	0.010846976
157	0xbb3e2515	-0.0029013802
158	0xbe01bbba	-0.12669268
159	0xbd8c070d	-0.06837282
160	0xbca1e63e	-0.019763108
161	0xbdf3105b	-0.11868354
162	0x3dc76387	0.0973578
163	0x3d884d02	0.06655313
164	0xbe07d15c	-0.13263458
165	0xbccfaf8f	-0.025352268
166	0xbd7343d2	-0.05939085
167	0xbb3db392	-0.0028946144
168	0x3d54aeab	0.05192439
169	0xbcf75fd6	-0.030197065
170	0x3da9c725	0.08289937
171	0x3dcf11ac	0.101107925
172	0xbcd3dfb1	-0.0258635
173	0xbd9c249c	-0.0762417
174	0x3dc270cb	0.0949417
175	0x3b0e8786	0.0021748259
176	0xbcfcd00f	-0.030860929
177	0xbdb911ba	-0.09036584
178	0x3c33f318	0.010983251
179	0xbd3f9605	-0.04677393
180	0x3c821389	0.015878456
181	0x3ce41167	0.02784033
182	0xbd05d37d	-0.032672394
183	0xbdcb43c2	-0.09925033
184	0xbc89d679	-0.016825901
185	0x3c61791e	0.013761787
186	0xbc0c5587	-0.008565313
187	0xbdb4bb96	-0.08824842
188	0x3daf855c	0.08570358
189	0x3dc6a838	0.09700054
190	0x3cc641c4	0.024201281
191	0xbd28a468	-0.041172415
192	0xbd13ffe7	-0.03613272
193	0x3d441059	0.047867153
194	0x3d56d17a	0.052445866
195	0x3d4a83db	0.049442153
196	0xbd89f8eb	-0.067369305
197	0xbc14096a	-0.009035448
198	0xbdaf9bba	-0.08574624
199	0xbdb1ab1c	-0.08675215
200	0x3cef5e6e	0.029219832
201	0x3bf584d6	0.007492642
202	0xbd19163c	-0.03737472
203	0x3d72b2a3	0.059252393
204	0xbc525a95	-0.012838979
205	0x3da42e9d	0.08016703
206	0xbd9e97a3	-0.07743766
207	0xbd962e0d	-0.07333002
208	0xbae1a323	-0.0017214756
209	0x3d4fa814	0.0506974
210	0xbdca1431	-0.098671325
211	0xbd361864	-0.044456854
212	0x3dc9c302	0.09851648
213	0x3c0fd56c	0.008778911
214	0x3ca8576c	0.020549498
215	0xbdcbf861	-0.09959484
216	0x3d2f75a2	0.042836793
217	0x3d23594b	0.03988008
218	0xbd34809c	-0.044067964
219	0xbd67cbfc	-0.05659102
220	0x3d844ace	0.0645958
221	0x3d8b5fcf	0.068053834
222	0xbb8b23df	-0.0042462195
223	0xbc833b2c	-0.016019426
224	0x3d343d12	0.044003554
225	0xbcdf3dd8	-0.02725117
226	0xbb395e61	-0.0028285014
227	0xbd0fdac3	-0.035120737
228	0x3d5ed412	0.054401465
229	0xbc3c1dff	-0.011481761
230	0x3c97d5ce	0.018534567
231	0xbd99510b	-0.07486161
232	0xbbb68592	-0.005570122
233	0xbc2f9fed	-0.010719282
234	0x3d93c1da	0.072147086
235	0xbd96e704	-0.073682815
236	0x3d9e947b	0.07743164
237	0x3dfb8804	0.12281802
238	0xbddb8a74	-0.10719767
239	0x3cb33d0c	0.021879695
240	0xbafeaf4d	-0.0019430906
241	0xbde35eef	-0.111020915
242	0x3d9babae	0.07601105
243	0x3d3c652a	0.045994915
244	0x3d7f098f	0.062264975
245	0xbd2ffdb4	-0.04296656
246	0x3d3ed3c3	0.04658867
247	0x3d5e9f9c	0.054351434
248	0x3e3266cb	0.17422025
249	0xbdaba7d6	-0.083816215
250	0x3d25562e	0.04036539
251	0xbc6561cc	-0.014000367
252	0xbd902509	-0.07038314
253	0x3ca466f4	0.020068623
254	0xbbafbd9e	-0.0053631803
255	0x3c7e0cc2	0.015505971

network_body._body_endoder.seq_layers.2.bias f4 [256]
0	0x399042f1	0.00027515696
1	0x3b08561f	0.0020803285
2	0x3ac70123	0.0015182834
3	0xbbb3f301	-0.005491615
4	0xbbfbc009	-0.0076828045
5	0xbb96d73f	-0.004603296
6	0x3b80b71f	0.0039280797
7	0x3aee7c1a	0.0018194944
8	0x3be78367	0.007065225
9	0x3c0750db	0.008259024
10	0x3ab2965d	0.0013625134
11	0x3b2852c3	0.0025684095
12	0x3a67394d	0.0008820489
13	0x3b11ee0e	0.0022267136
14	0xbc0d54ba	-0.008626157
15	0x3a93a63b	0.001126475
16	0xbb00cb09	-0.0019652268
17	0x3bef1f94	0.0072974656
18	0xbad1b15b	-0.0015998291
19	0x3c2828f0	0.0102636665
20	0x3c1d4253	0.009598332
21	0xb88a9058	-6.607239e-05
22	0xba85aa61	-0.0010197872
23	0x39753101	0.00023383276
24	0xbba5b0e3	-0.005056487
25	0x3b5b6220	0.0033475235
26	0xbaaae90c	-0.0013039424
27	0x3c49dcf8	0.012320749
28	0x3bb5e5b2	0.0055510635
29	0x3b83659a	0.0040099146
30	0x3bcddd2f	0.0062824707
31	0xbbe09f02	-0.0068548927
32	0xbbc9c773	-0.0061578094
33	0x3c78b22d	0.015179199
34	0x3c1c8d1e	0.009555129
35	0xbb285b85	-0.0025689316
36	0xbad7ecee	-0.0016473809
37	0x3baf59b2	0.0053512687
38	0xbbe9e0af	-0.00713738
39	0xbb07f544	-0.0020745555
40	0xbab39e43	-0.0013703782
41	0x3c07509c	0.008258965
42	0x3c1786bf	0.009248435
43	0x3bf502db	0.007477147
44	0x3a1e0009	0.0006027227
45	0x3b50bd54	0.003185113
46	0x3c1b4d8a	0.009478936
47	0xba9e5a86	-0.0012081421
48	0xbb902145	-0.0043984973
49	0xbbe6e69c	-0.0070465337
50	0xbbd8b638	-0.006613519
51	0xbc28d94e	-0.010305716
52	0x3bbe9e38	0.005817201
53	0xbb3308ba	-0.0027318434
54	0x3c243418	0.010022186
55	0x3b337ed2	0.0027388823
56	0x3ac7c749	0.0015241887
57	0xbb9b1b3c	-0.004733471
58	0xbc06a3e4	-0.0082177855
59	0xbb62e21b	-0.0034619633
60	0x3b539b84	0.003228874
61	0xbb417784	-0.00295207
62	0xba168113	-0.00057412795
63	0xbc169a11	-0.009192006
64	0x3c0a35f5	0.008435716
65	0x3acee9e9	0.0015786263
66	0xbb7caea7	-0.003855625
67	0x3a8dcd8a	0.0010818702
68	0xbb108227	-0.0022050233
69	0x3c022681	0.00794375
70	0x3b359325	0.0027706113
71	0x3a62fea0	0.0008659158
72	0xb96de02e	-0.00022685595
73	0xb95d50a1	-0.00021106239
74	0x3bc75b28	0.0060838647
75	0xbb045dd1	-0.002019752
76	0xbb7b046a	-0.0038302192
77	0x3987256e	0.00025777094
78	0xbb16e357	-0.0023023689
79	0x3c0c5dc9	0.008567282
80	0x3b818f8f	0.003953881
81	0xbb83bf17	-0.0040205824
82	0x3b3c650b	0.002874675
83	0xbc0bd167	-0.008533812
84	0x3ab61268	0.0013890984
85	0xbbec1300	-0.0072044134
86	0x38b4a0e2	8.6130356e-05
87	0x3b07f445	0.0020744961
88	0xbbccd717	-0.0062512266
89	0xb9e11afd	-0.00042935452
90	0x3bb8a77f	0.0056352015
91	0xbae0d5cc	-0.001715356
92	0xbad6f260	-0.0016399138
93	0x3a2eea9d	0.00066725333
94	0x3adae37b	0.0016699875
95	0x3bdd0a70	0.006745629
96	0x3b8f78f6	0.0043784333
97	0x3afefbb7	0.0019453679
98	0x3b1f7ed6	0.0024337075
99	0x3a6e6b41	0.00090949616
100	0xbb65941d	-0.003503091
101	0x3af5c8d6	0.001875187
102	0xba391197	-0.0007059811
103	0xbbe2f0b8	-0.0069256686
104	0xbaed238a	-0.0018092257
105	0x3b87352f	0.004126213
106	0xbac43dd0	-0.0014972035
107	0xbc27ac74	-0.010233987
108	0x3bab245a	0.0052228393
109	0xbbd8e542	-0.0066191265
110	0xbac8fd9c	-0.001533437
111	0x3ab2e2cf	0.0013647916
112	0xba4ca2bc	-0.0007806232
113	0xbba65d8b	-0.005077069
114	0x3ba45290	0.005014725
115	0x3bc33d5f	0.0059582437
116	0xbbcb0cce	-0.006196595
117	0xbbc9ec2d	-0.0061621876
118	0x3b4e1114	0.0031443285
119	0x3c421c95	0.011847635
120	0xbc0364cd	-0.008019638
121	0xbaf45fcf	-0.0018644276
122	0x3880275a	6.1108454e-05
123	0xbaf7db2c	-0.0018909923
124	0x3b742d41	0.0037258419
125	0xbc2a8436	-0.010407498
126	0xbba3b578	-0.004995998
127	0xbc132d89	-0.008983024
128	0xbb759185	-0.003747077
129	0x3be087ea	0.0068521397
130	0xbae183cd	-0.0017205417
131	0x3c201f13	0.009773034
132	0xb8f04ff0	-0.00011458981
133	0x3c1297e7	0.008947349
134	0xbb42cf8c	-0.0029725758
135	0xbc19f8f5	-0.009397735
136	0x3ba6d63f	0.005091458
137	0x3b1d4b01	0.0024001005
138	0xba2c742d	-0.0006578591
139	0x39043ed8	0.00012611912
140	0x3c0bdeb3	0.008536982
141	0x3c222991	0.0098976055
142	0x3b90cd92	0.004419037
143	0xbbd405c5	-0.0064704143
144	0xba247541	-0.0006273576
145	0xbc039daa	-0.0080331955
146	0xbc20f4c8	-0.009823985
147	0xba957086	-0.0011401332
148	0x3b07d60f	0.0020726954
149	0x3b880210	0.0041506365
150	0x3b546ea8	0.003241459
151	0x3af94978	0.0019019088
152	0x3ba75b92	0.0051073516
153	0xbc027a8a	-0.007963786
154	0xb9a095bc	-0.0003062914
155	0x3aa6c516	0.0012723531
156	0x3b877cf9	0.004134771
157	0x3b412d5d	0.0029476502
158	0x3c045a54	0.0080781765
159	0x3b978b80	0.004624784
160	0xbb2ca39f	-0.0026342643
161	0x3b94ac5e	0.0045371493
162	0x3c332a39	0.01093536
163	0xbbaf71c3	-0.0053541376
164	0xbbc2b5e7	-0.0059420946
165	0xbad7ae56	-0.0016455154
166	0x3b6203d2	0.003448714
167	0xbb9194da	-0.0044427933
168	0xbb3aca9f	-0.002850212
169	0x3ae2a104	0.0017290418
170	0xbc33dba6	-0.010977661
171	0x3a6615ff	0.00087770814
172	0x3c46446e	0.012101276
173	0xbbd9f5cc	-0.0066516157
174	0x3c152426	0.009102857
175	0x3b99d6e4	0.0046948064
176	0xb9cc9c54	-0.00039026386
177	0x3b8fd30b	0.004389172
178	0x3c1ff4c0	0.009762943
179	0x3b74855f	0.003731094
180	0x3c1becba	0.009516889
181	0xbb08c8f8	-0.002087174
182	0x3c3c0971	0.01147686
183	0x3aacbd82	0.0013179036
184	0xbb3da0f9	-0.0028935059
185	0x3c1ccdb9	0.0095705325
186	0xbb3446fc	-0.002750813
187	0x3c817134	0.01580105
188	0x3c3b3eb5	0.011428525
189	0x3b1d24bf	0.0023978201
190	0x3b7a74b0	0.0038216524
191	0x3c27044c	0.010193896
192	0x3c14e9f9	0.009088987
193	0x3bbfb3dd	0.005850299
194	0xba4a7838	-0.00077236025
195	0xbab71734	-0.0013968707
196	0x3b19f7aa	0.0023493567
197	0x3be1f69b	0.0068958527
198	0x3aea6036	0.0017881456
199	0x3bb7e143	0.00561157
200	0xbac9f2dd	-0.0015407462
201	0xbb4445c7	-0.0029948817
202	0x3af38409	0.0018578778
203	0x3b6b8193	0.0035935387
204	0xbbecbeb3	-0.0072248816
205	0x3c1832ed	0.009289485
206	0x3ada95be	0.0016676707
207	0x3a107396	0.0005510388
208	0x3c09698c	0.008386981
209	0x3bb39251	0.0054800888
210	0x3b59f92f	0.0033260097
211	0x3bf949f4	0.007607693
212	0xbb25f5a2	-0.002532341
213	0xba8d8a58	-0.0010798676
214	0x3b50839c	0.0031816727
215	0xb9907bd6	-0.00027558085
216	0x3b929efd	0.0044745193
217	0xbbc10826	-0.005890864
218	0x3bdce87c	0.0067415815
219	0x3bf8ae75	0.0075891563
220	0x3bc3734f	0.0059646736
221	0xbbf7700b	-0.0075511984
222	0x3b0b0161	0.0021210539
223	0xba7e1e70	-0.00096938666
224	0xbb2d52e8	-0.002644712
225	0xbbb0e9df	-0.0053989734
226	0xb98c654f	-0.00026778362
227	0x3b5c2ee7	0.0033597292
228	0x3b824767	0.003975797
229	0xbb42d7fc	-0.0029730788
230	0x3a420525	0.0007401279
231	0xbb79cd11	-0.0038116614
232	0xbb1e947d	-0.0024197393
233	0x3be27cb2	0.0069118375
234	0xba94ead6	-0.001136149
235	0x3be0c4e8	0.0068594106
236	0xbb77d0e2	-0.0037813713
237	0xbb451640	-0.0030073076
238	0x3b24962e	0.0025113928
239	0x3c36458e	0.011124982
240	0x3abc62df	0.0014372728
241	0x3bf26da3	0.0073983236
242	0x3a870947	0.0010302447
243	0xbbce4330	-0.0062946305
244	0xbb3827ba	-0.002809985
245	0x3bef7c1f	0.0073084976
246	0x3b807be7	0.0039210203
247	0x3bc8e974	0.0061313454
248	0x3b0b8c2a	0.002129326
249	0xbc55a5cf	-0.01304002
250	0xbb164ef8	-0.0022935253
251	0xbc20b040	-0.009807646
252	0xbb8fd778	-0.0043896995
253	0xb9e8a412	-0.0004437273
254	0x3c0d52db	0.008625711
255	0x3ac1d352	0.001478771

network_body._body_endoder.seq_layers.4.weight f4 [256, 256]
0	0x3c961105	0.018318662
1	0xbdcdc9be	-0.10048245
2	0x3d44d59f	0.048055287
3	0xbdef6977	-0.11690038
4	0x3dc3a755	0.095534004
5	0xbc98e237	-0.018662555
6	0xbca3c1f1	-0.01998994
7	0xbce709b0	-0.028202862
8	0xbd53e040	-0.051727533
9	0x3ccf4f08	0.02530624
10	0x3d7ddc13	0.061977457
11	0x3c2d3d68	0.010573722
12	0x3d2c6200	0.042085648
13	0xbcd482fa	-0.02594136
14	0x3def6511	0.11689199
15	0x3d4378b9	0.047722552
16	0x3d46a471	0.048496667
17	0xbd006a6c	-0.03135149
18	0xbdf045f1	-0.1173209
19	0x3dc9aca1	0.098473795
20	0xbdcf9068	-0.10134965
21	0xbccabcdd	-0.02474826
22	0xbd308f48	-0.043105394
23	0x3d9b4f54	0.0758349
24	0xbe06bb2e	-0.13157341
25	0xbd386326	-0.04501643
26	0xbc557ce3	-0.013030264
27	0x3df34961	0.1187923
28	0x3bb0acce	0.0053916937
29	0x3cf3c18f	0.029755382
30	0xbdb0cbcf	-0.086326234
31	0x3c8f00f3	0.017456507
32	0x3d7b3eaf	0.061339077
33	0xbbcd0047	-0.0062561366
34	0xbd06cfb1	-0.032912914
35	0xbd9e8889	-0.07740886
36	0xbcc0abdf	-0.023519455
37	0x3dce1fff	0.100646965
38	0x3d817e72	0.06322946
39	0x3d808cdf	0.06276869
40	0x3d6973da	0.05699525
41	0x3e1172a7	0.14203893
42	0x3c7e80f7	0.015533677
43	0x3be3b347	0.0069488618
44	0x3d6453dd	0.05574404
45	0xbd3f8272	-0.04675526
46	0x3d23d619	0.0399991
47	0x3db866e7	0.09004002
48	0x3d63b5cd	0.0555933
49	0x3adcfb59	0.0016859575
50	0x3d1ad71b	0.037802797
51	0xbd68877c	-0.056769833
52	0x3da3c438	0.0799641
53	0x3d00ef60	0.031478286
54	0x3c8266d4	0.015918173
55	0xbca72632	-0.020403955
56	0xbd85716f	-0.06515776
57	0xbdbc62a6	-0.09198503
58	0x3bbfa389	0.0058483523
59	0xbcc59469	-0.024118619
60	0xbc82c393	-0.015962398
61	0x3d151d50	0.036404908
62	0xbcb3ca25	-0.021946976
63	0x3ccb1500	0.024790287
64	0xbc2e3585	-0.010632877
65	0x3cefac90	0.029257089
66	0x3d1a06d6	0.037604176
67	0xbcd2c2a2	-0.025727574
68	0x3ce4c869	0.027927594
69	0x3cda73e6	0.026666593
70	0x3d2b436f	0.041812357
71	0xbba09ffc	-0.004901884
72	0x3d047046	0.032333635
73	0xbdb97f19	-0.09057445
74	0xbd9bd896	-0.0760967
75	0x3d7d9fd7	0.061920013
76	0xbd065424	-0.032795087
77	0x3bad1bc2	0.00528285
78	0xbbf1b820	-0.0073766857
79	0xbc6a3ded	-0.014296991
80	0x3e3146f4	0.17312223
81	0x3c26f35a	0.0101898555
82	0x3d89098b	0.06691273
83	0xbc61264c	-0.013742041
84	0xbda66e19	-0.08126468
85	0x3d31a960	0.04337442
86	0xbe343df8	-0.17601764
87	0xbe10285e	-0.14077899
88	0x3d8a02e0	0.067388296
89	0x3e243b82	0.16038325
90	0xbde7b2e4	-0.113134176
91	0xbd91fcb5	-0.07128278
92	0xbe5915bc	-0.21199697
93	0x3d8a90f1	0.06765927
94	0xbc37541e	-0.011189489
95	0xbd2f237d	-0.042758454
96	0x3d87607d	0.066102006
97	0x3dbf1a1c	0.09331152
98	0xbd53d066	-0.051712416
99	0x3d76f264	0.060289755
100	0x3db219f3	0.08696356
101	0x3d61b122	0.055100568
102	0x3c4aa37a	0.012368077
103	0x3d921e57	0.07134693
104	0xbc69f2c3	-0.01427907
105	0xbca15a5f	-0.019696413
106	0xbda4d128	-0.08047706
107	0xbe117bda	-0.14207402
108	0x3d7ac631	0.061224166
109	0x3d64e5d6	0.05588325
110	0xbdbcc999	-0.09218139
111	0x3d1f474c	0.038886353
112	0xbd726674	-0.05917974
113	0x3dc04dfe	0.09389876
114	0xbd2454fd	-0.040120114
115	0x3dcb46c7	0.09925609
116	0x3e037717	0.12838398
117	0xbd1c451a	-0.038151838
118	0xbd85ddc2	-0.065364376
119	0x3df2a438	0.118477285
120	0x3d0211a4	0.031755105
121	0xbcd6bae1	-0.026212158
122	0xbd382fc1	-0.044967417
123	0x3ca02db3	0.019553041
124	0xbd9b47db	-0.07582065
125	0x3d8e0aaf	0.069356315
126	0x3b8ddf5d	0.0043296055
127	0xbd618b1f	-0.055064317
128	0x3c6574f8	0.014004938
129	0xbdcf1b38	-0.101126134
130	0x3d14cdc0	0.03632903
131	0xbd61f6eb	-0.05516712
132	0x3c29f238	0.010372691
133	0x3e525934	0.20541841
134	0xbd3ead16	-0.046551786
135	0x3c0936ea	0.008374909
136	0xbd81ef91	-0.06344522
137	0xbc3541d4	-0.011063058
138	0xbd923526	-0.071390435
139	0x3d2eacf6	0.042645417
140	0x3d6b5dc7	0.05746248
141	0xbe05205c	-0.13000625
142	0x3bc15e74	0.0059011523
143	0x3d1e1f13	0.038603853
144	0x3dce5c12	0.10076155
145	0x3d286f46	0.041121744
146	0x3c9f1765	0.019420335
147	0xbe2a27ac	-0.16616696
148	0x3c8ff837	0.017574413
149	0x3dc97993	0.098376416
150	0x3d6d98d4	0.058007076
151	0xbd9c89d2	-0.07643475
152	0x3d59b7d7	0.05315384
153	0x3c6c17ca	0.014409969
154	0x3cbfd9bb	0.023419252
155	0x3d11d914	0.035607412
156	0x3cae989f	0.02131301
157	0x3d184289	0.037172828
158	0x3dfdbb80	0.123892784
159	0x3cdb148a	0.026743192
160	0x3d037386	0.032092594
161	0xbd3abe61	-0.045591716
162	0xbcba2027	-0.02272041
163	0xbe003e2d	-0.12523718
164	0xbcc2426f	-0.023713319
165	0x3d22bb61	0.03972948
166	0x3cc51b08	0.024060741
167	0xbd86a88e	-0.06575118
168	0x3ca847a3	0.020541972
169	0xbdbe0d93	-0.09279933
170	0x3daa0cb3	0.083032034
171	0x3da74d05	0.08168987
172	0x3d18ad68	0.037274748
173	0xbd23510e	-0.03987222
174	0xbcae43e7	-0.021272613
175	0xbd0afd1f	-0.0339328
176	0xbdf97251	-0.12180007
177	0xbc69bbc8	-0.014265962
178	0xbbf90cb5	-0.0076003917
179	0xbd3e3046	-0.046432756
180	0xbd54d74f	-0.051963147
181	0x3e172f64	0.14764172
182	0x3c83251d	0.016008908
183	0xbc8ed754	-0.01743666
184	0x3df4f98e	0.11961661
185	0xbcf8d35a	-0.030374218
186	0xbdcbf07f	-0.0995798
187	0x3d523589	0.051320586
188	0xbd68a929	-0.05680195
189	0xbd2e8418	-0.042606443
190	0xbe279f57	-0.16369377
191	0xbd9da91a	-0.07698269
192	0xbd892b56	-0.06697719
193	0xbbba94de	-0.005694016
194	0x3d243494	0.040089205
195	0x3e0f7382	0.14008906
196	0x3c246f78	0.010036342
197	0x3cb8c524	0.022554941
198	0x3db11c39	0.08647961
199	0xbdbe0d99	-0.09279937
200	0xbd120bd8	-0.035655826
201	0x3d9a668d	0.07539091
202	0x3d9d45ac	0.076793045
203	0xbc8e6d1f	-0.017386017
204	0x398dbd3f	0.00027034615
205	0x3d8c3a0f	0.06847011
206	0xbd6fdfff	-0.05856323
207	0x3d900881	0.07032872
208	0xbc283909	-0.0102675045
209	0x3cb14ee7	0.021644069
210	0xbd8f3a8d	-0.069935896
211	0xbd8816f5	-0.06645004
212	0x3d155f0f	0.036467608
213	0xbd053aed	-0.0325269
214	0x3d53ec67	0.051739123
215	0x3d92fec8	0.07177502
216	0x3cf9b1af	0.030480234
217	0x3b5a6213	0.0033322617
218	0x3bfa23e4	0.007633673
219	0x3dbf26b5	0.09333555
220	0xbcf1b8d4	-0.029507078
221	0xbc752e8d	-0.014964712
222	0xbd4ebd5a	-0.05047355
223	0xbd558f77	-0.05213877
224	0xbdab7bf9	-0.08373255
225	0x3d398c29	0.045299683
226	0xbb5dfb32	-0.0033871648
227	0xbb4cbd00	-0.0031240582
228	0xbdb39e4d	-0.08770428
229	0xbd5fa551	-0.054601017
230	0xbd6c1255	-0.05763467
231	0x3d3e647b	0.046482544
232	0x3d9e6796	0.07734601
233	0xbe1100a9	-0.14160408
234	0xbd1bf29a	-0.03807316
235	0xbd872f0c	-0.0660077
236	0xbd011f08	-0.031523734
237	0x3d0f4453	0.03497727
238	0xbd50828e	-0.050905757
239	0xbd8429ba	-0.06453271
240	0xbd08c611	-0.033392016
241	0x3dbe269f	0.0928471
242	0xbd9c0197	-0.07617491
243	0x3d333db8	0.04376003
244	0xbd9b92f0	-0.075963855
245	0xbb2d977d	-0.0026488
246	0xbd7139d5	-0.058893044
247	0xbcf08268	-0.029359058
248	0xbc532526	-0.012887275
249	0x3c4bea46	0.012445992
250	0x3cd63019	0.026145982
251	0xbcee6b05	-0.029103765
252	0x3d798aae	0.06092327
253	0xbcacaf54	-0.021079697
254	0xbd20fe9a	-0.039305307
255	0x3c880e00	0.016608238

network_body._body_endoder.seq_layers.4.bias f4 [256]
0	0xbbcf0c4d	-0.006318605
1	0x3b7055a2	0.0036672135
2	0xbb041a73	-0.0020157367
3	0xbbc3050e	-0.0059515303
4	0xbbc996b6	-0.0061519993
5	0xbadfb2fc	-0.0017066891
6	0xba31c31c	-0.0006781088
7	0x3c3957f3	0.011312473
8	0xbb774c3f	-0.0037734655
9	0xbbb769de	-0.005597337
10	0x3a44e806	0.0007511381
11	0x3bf61a63	0.0075104698
12	0x3aee5777	0.0018184026
13	0xbb3949b9	-0.0028272702
14	0x3a1f7276	0.00060824247
15	0x3bbb30ed	0.0057126195
16	0x3bb094b5	0.005388821
17	0xbb75b196	-0.0037489883
18	0xbba12eb1	-0.004918896
19	0xbbf73d63	-0.0075451597
20	0x3a94fec8	0.0011367435
21	0xbbf16d4c	-0.0073677655
22	0xbc2915b7	-0.010320119
23	0xb91f0ee0	-0.00015168963
24	0xbbe00324	-0.006836312
25	0xb8837ad9	-6.269449e-05
26	0x3afb164e	0.0019156428
27	0x3ab07b4c	0.001346448
28	0xbb44016d	-0.0029908076
29	0x3a8a161b	0.0010535152
30	0xbc0a4675	-0.00843965
31	0x3b7a983d	0.0038237714
32	0x3c059eb0	0.00815551
33	0x3b1281e2	0.0022355248
34	0xbc0d2cb7	-0.008616618
35	0xbc21ee16	-0.009883424
36	0xbbb01661	-0.0053737615
37	0x3af7cdd3	0.0018905945
38	0xb923b77b	-0.00015613243
39	0x3b0c283c	0.0021386286
40	0x3b370293	0.0027925118
41	0xbc25b168	-0.010113098
42	0xbaeb12ab	-0.0017934641
43	0xbbfe9909	-0.007769708
44	0x3becd4b1	0.007227503
45	0xbada2e0d	-0.0016645804
46	0x3b2e1c95	0.002656733
47	0x3a983c29	0.0011614609
48	0xba99cfdf	-0.0011734924
49	0xbb2a1ee7	-0.002595836
50	0x3b99bffc	0.004692076
51	0xbb0db91d	-0.0021625229
52	0xb9c1daf1	-0.00036974953
53	0xbaa76482	-0.0012771043
54	0xbb878df5	-0.0041367956
55	0x3a71cf46	0.00092243066
56	0xbbfb2aa8	-0.007664997
57	0xbbc1c973	-0.005913907
58	0x3bad2bdf	0.005284771
59	0x3b64cf47	0.0034913586
60	0xbae48da7	-0.0017437235
61	0x39586704	0.00020637742
62	0xbc04233b	-0.00806504
63	0x3ad54ef7	0.0016274144
64	0xbb381368	-0.002808774
65	0xbc3451ad	-0.011005801
66	0x3b18886b	0.002327467
67	0xbbf340af	-0.0074234824
68	0x3bd038c5	0.0063544237
69	0x3bd6b277	0.0065520364
70	0x3bf7899c	0.007554246
71	0x3bbb14e1	0.005709276
72	0xbc012d7d	-0.00788438
73	0x3afd650d	0.0019332484
74	0x3ab5d4db	0.001387264
75	0xbc00cce3	-0.007861349
76	0x3c558f8c	0.0130347125
77	0x3a060cfb	0.00051136286
78	0xba1fe9ce	-0.0006100208
79	0xbb14711d	-0.0022650429
80	0xbc12dd30	-0.008963868
81	0xbb947f70	-0.0045317933
82	0x3b6ad142	0.0035830294
83	0x3b819333	0.003954315
84	0xbb9c463b	-0.0047691143
85	0x3b4447f6	0.0029950119
86	0x3b3ad759	0.0028509705
87	0x3b9575c2	0.004561157
88	0xb908678c	-0.00013008545
89	0x3bc258ce	0.0059309965
90	0x3a9306a7	0.0011217193
91	0x3c227865	0.0099164
92	0xba9e851f	-0.0012094117
93	0xbab9ddb4	-0.0014180453
94	0x3af72c29	0.0018857765
95	0x3ba1a341	0.0049327915
96	0x3b38403c	0.0028114459
97	0x3a39e85e	0.00070918154
98	0x3b2ab17c	0.002604573
99	0x3944ff1d	0.00018787054
100	0x3b38b032	0.0028181192
101	0xb7328c26	-1.0642258e-05
102	0x3b8845d5	0.0041587153
103	0x3b98f50b	0.0046678833
104	0xb9b10213	-0.00033761616
105	0x3c145854	0.009054262
106	0xbb82e5b4	-0.003994668
107	0xbc2572c8	-0.010098167
108	0x39f71607	0.00047127923
109	0x3bf9af56	0.0076197786
110	0xbb87258d	-0.0041243494
111	0xbc1a2287	-0.009407646
112	0x3baad743	0.0052136495
113	0xba39ce3d	-0.0007087922
114	0x3bc52a6f	0.0060170214
115	0x3bd2218b	0.00641269
116	0xbbbf667b	-0.005841074
117	0x3bcd840a	0.006271844
118	0xbadcb11b	-0.001683745
119	0xbb973d90	-0.004615493
120	0xbbc7eb6c	-0.0061010625
121	0x3be2b7e9	0.0069188965
122	0xbadd6fa7	-0.0016894237
123	0xbb9a9bd8	-0.004718285
124	0x3b2527cf	0.002520073
125	0x3c57b8b2	0.013166593
126	0x3c256108	0.010093935
127	0xbbe7acec	-0.0070701744
128	0xbb8daa41	-0.0043232744
129	0x3bd7f537	0.006590511
130	0x3b508141	0.0031815323
131	0xbc10b387	-0.008831865
132	0x3bf818df	0.0075713242
133	0x3aeea2d2	0.0018206483
134	0x3b360de7	0.0027779283
135	0xbb90cac9	-0.004418705
136	0xbb8e5d33	-0.0043446063
137	0xbbaded2c	-0.005307814
138	0x3b494c3f	0.0030715612
139	0x3a9e9bd0	0.0012100879
140	0x3bebb8f3	0.0071936785
141	0x3ba0d149	0.0049077612
142	0x3ba7c7e9	0.0051202667
143	0xbbc85bc6	-0.006114456
144	0x3ad2d075	0.0016083854
145	0xbc208371	-0.009796963
146	0x3b80e707	0.0039337906
147	0x3bf3ba52	0.0074379826
148	0x3b019b32	0.0019776342
149	0xbbe0ac36	-0.0068564666
150	0xbbd058c2	-0.006358237
151	0x3b67cb1a	0.003536886
152	0xbc088560	-0.00833258
153	0x3c019ea3	0.007911357
154	0xbbae91e6	-0.005327451
155	0xbbac6c48	-0.0052619316
156	0x3b7a2509	0.0038169047
157	0x3bb501aa	0.00552388
158	0x3c301059	0.010746085
159	0x3c03222d	0.008003754
160	0x3bbc3ba7	0.005744416
161	0xbc2c8e6c	-0.010532003
162	0xbb9c0ed1	-0.0047625084
163	0x3a6f44a7	0.00091273565
164	0xbb899f87	-0.0041999253
165	0x39942bc1	0.0002826136
166	0x3b18b938	0.0023303758
167	0xbbf2ec60	-0.007413432
168	0x3b2b7791	0.0026163796
169	0x3a91e518	0.0011130897
170	0xbad444b0	-0.0016194787
171	0xbb17943a	-0.0023129121
172	0x39179a00	0.00014457852
173	0x39e04861	0.00042778536
174	0xb9d75e84	-0.00041078415
175	0x3c011167	0.007877684
176	0xbb15a456	-0.0022833548
177	0x3ba32410	0.004978664
178	0xba6e25ea	-0.0009084629
179	0xbb526320	-0.003210254
180	0x3ba73925	0.0051032477
181	0x3b542e7e	0.0032376344
182	0x3bb75726	0.0055951057
183	0xbacdc125	-0.001569782
184	0xbbb735fc	-0.0055911522
185	0xbc236b09	-0.00997425
186	0x3bd35d34	0.0064503197
187	0x3b64983d	0.003488078
188	0x39de57df	0.0004240861
189	0xbb958e5c	-0.0045640897
190	0x3b93e6b5	0.0045135864
191	0x3b29dab0	0.0025917701
192	0x39b1635a	0.00033834093
193	0x38aa1bb9	8.1113954e-05
194	0xbbb14394	-0.0054096673
195	0xbbe93c75	-0.0071178027
196	0xbb49372d	-0.0030703053
197	0x3b824ef9	0.0039766994
198	0x3a06f69d	0.00051484426
199	0xbad2cd2e	-0.0016082877
200	0x3baff3e8	0.005369652
201	0xbaa11256	-0.001228879
202	0x3b23efca	0.0025014752
203	0x3bac05c6	0.0052497117
204	0x39ccfda9	0.00039098904
205	0xbb508554	-0.003181775
206	0xbb5171ec	-0.0031958772
207	0x3b697610	0.003562335
208	0x3bf01681	0.0073269014
209	0x3b9fc751	0.0048760553
210	0xbb28ac58	-0.002573749
211	0x3aa99504	0.0012938087
212	0x3c040fb6	0.008060386
213	0x3bd5d115	0.0065251687
214	0xbb0fc1d1	-0.0021935592
215	0xbabb1c89	-0.0014275472
216	0x39e0a230	0.00042845448
217	0xbab9e03c	-0.0014181207
218	0x3b1cfcf2	0.0023954478
219	0xbb968de8	-0.0045945533
220	0x3c3e99e8	0.011633374
221	0x3bb588bc	0.0055399816
222	0x3b8fef53	0.0043925433
223	0xbc171770	-0.0092218965
224	0x3bd2b1cc	0.0064298864
225	0x3abd1052	0.001442442
226	0x3b5e94a5	0.003396311
227	0xbaa3c742	-0.0012495297
228	0x3ba2c126	0.0049668727
229	0x3b389c2a	0.0028169253
230	0xbb4ce517	-0.0031264478
231	0xbc0a68c7	-0.008447832
232	0xbbf89803	-0.0075864806
233	0x3c427fe0	0.011871308
234	0xba7973f2	-0.00095158734
235	0x3bf6209d	0.007511212
236	0xbb66b281	-0.0035201611
237	0xbc041a5b	-0.008062924
238	0xba86c183	-0.001028106
239	0x3c263114	0.010143537
240	0x3b96cc1a	0.0046019675
241	0xbafd584d	-0.0019328684
242	0x3b374b14	0.0027968334
243	0xbbcbfc73	-0.0062251627
244	0x3c33f628	0.010983981
245	0x3c35f782	0.011106374
246	0x3b9c1111	0.0047627767
247	0x3b90d420	0.0044198185
248	0xbb616949	-0.003439503
249	0x3792ddef	1.7507902e-05
250	0x3a8efdb6	0.0010909352
251	0x3bd3e7d6	0.006466846
252	0x39ad2fb8	0.00033032685
253	0x3bb3788e	0.0054770177
254	0xb9970de9	-0.00028811328
255	0x3a1960a9	0.00058508903

action_model._continuous_distribution.log_sigma f4 [1, 5]
0	0xbb80cc87	-0.0039306316
1	0xbbf927dc	-0.0076036286
2	0x3b6fde7e	0.0036601122
3	0xbb8bea6e	-0.0042698896
4	0x3b539356	0.0032283864

action_model._continuous_distribution.mu.weight f4 [5, 256]
0	0x39acf3b8	0.0003298798
1	0xbbf4228a	-0.0074504064
2	0xbb860075	-0.00408941
3	0x3b02a09b	0.0019932154
4	0x3c82988b	0.015941879
5	0xbc409f3a	-0.011756713
6	0xbc85340e	-0.016260173
7	0xbcc16277	-0.023606522
8	0x3b272c19	0.0025508462
9	0x3b2f6836	0.0026764995
10	0xbcc9a61c	-0.02461534
11	0xbc653dff	-0.013991832
12	0x3b0f4452	0.002186079
13	0xbae526c0	-0.0017482862
14	0x3b21a5f6	0.002466557
15	0xbb646b33	-0.0034853935
16	0xbbdd247d	-0.0067487345
17	0xb9d1dcae	-0.00040028006
18	0xbbc080fc	-0.005874751
19	0x3c97139f	0.018441973
20	0xbc396e33	-0.011317777
21	0x3c578f8d	0.013156784
22	0x3c8b36b5	0.01699386
23	0x3c8f571e	0.017497595
24	0x3c522cad	0.012828034
25	0x3b5c467f	0.0033611355
26	0x37cf012c	2.4676869e-05
27	0x3c24fae9	0.010069587
28	0xbc226bad	-0.009913367
29	0x3bae9232	0.0053274864
30	0x3cd86c17	0.026418729
31	0xba4f9686	-0.0007918853
32	0xbc893d8a	-0.016752977
33	0xbc56b299	-0.013104104
34	0x3cb9f9fe	0.022702213
35	0x3c1a3bd6	0.00941368
36	0x3c7c7f56	0.015411219
37	0xbbefe33e	-0.0073207906
38	0x3c52e18b	0.012871156
39	0x3bfb2980	0.0076648593
40	0x3b6bc126	0.003597328
41	0x3c130c07	0.0089750355
42	0x3c142651	0.0090423385
43	0x3c793a3c	0.015211638
44	0xbcc466fa	-0.023974884
45	0xba95e20c	-0.0011435165
46	0xbbe6159d	-0.0070216195
47	0xbac3762f	-0.0014912541
48	0x3d010995	0.03150328
49	0x3ba7c35c	0.005119724
50	0xb94b5785	-0.00019392192
51	0x3cc83be0	0.024442613
52	0x3a51d704	0.0008004757
53	0x3caecc77	0.02133773
54	0xbbcd4e9f	-0.006265476
55	0xbbd4afbd	-0.006490676
56	0x3cafd1f5	0.02146242
57	0xbbd97d61	-0.006637261
58	0xbc43337f	-0.011914133
59	0x3c0e5830	0.008688018
60	0x3c94c0d6	0.018158358
61	0x3bd5ce9e	0.006524875
62	0x3cb5f0a5	0.022209475
63	0xbcf9fcbe	-0.030516025
64	0x3c5c991b	0.013464238
65	0x3c6c18b2	0.014410185
66	0xbc947a87	-0.018124832
67	0x3cc851a0	0.024452984
68	0xbc4957e0	-0.012289017
69	0xbc25e8ce	-0.010126306
70	0xbc553b68	-0.013014652
71	0xbc7f5314	-0.015583772
72	0x3b8bb3ba	0.0042633684
73	0xbc5e7c0c	-0.01357938
74	0xbb32067c	-0.002716451
75	0x3bafbc7b	0.005363045
76	0xbc04c7f3	-0.008104312
77	0xbc478e8e	-0.012179984
78	0x3bc5be93	0.006034681
79	0x3c947fac	0.018127285
80	0x3c10fdf4	0.00884961
81	0x3c901047	0.017585887
82	0xbba13bf8	-0.004920479
83	0xbcb8751c	-0.02251678
84	0xbaa2c3f3	-0.0012418017
85	0xbbeccc8b	-0.007226532
86	0xbbb667c2	-0.005566568
87	0xbcbd2d0b	-0.023092767
88	0x3c086e29	0.0083270455
89	0xbcb5fc5d	-0.022215063
90	0xbcbc7775	-0.02300618
91	0xbcb6b4a4	-0.022302933
92	0xbabc37d1	-0.0014359896
93	0xbb85ee21	-0.004087225
94	0x3ad3d4cc	0.0016161441
95	0xbc557bf3	-0.01303004
96	0x3bf492bf	0.0074637826
97	0x3c74ab11	0.014933364
98	0xbc3b0e95	-0.011417051
99	0xbb89f222	-0.0042097727
100	0x3c018bbe	0.007906852
101	0xbbf77296	-0.0075515015
102	0xbc148632	-0.009065198
103	0xbc83d7a0	-0.016094029
104	0xbaab2a78	-0.0013058921
105	0xbc240134	-0.0100100525
106	0x3c980d74	0.018561102
107	0x3bef98ae	0.007311902
108	0xbcb15fda	-0.02165215
109	0xbc996de8	-0.018729165
110	0x3c5bf2ca	0.013424585
111	0x3c0468d4	0.008081634
112	0x3adbfcca	0.0016783711
113	0xbc5477f4	-0.012968052
114	0xbc4e8c05	-0.012606625
115	0xbcd5f54f	-0.026117949
116	0x3c5cbeb6	0.013473203
117	0xbc596fc1	-0.013271273
118	0xbcba0ebb	-0.022712102
119	0x3bc54216	0.006019841
120	0x3c3ec7b4	0.011644293
121	0xbc1af1a8	-0.009457029
122	0x3cabfd44	0.02099479
123	0xbaa9bd22	-0.0012950043
124	0x3a97ff2c	0.0011596433
125	0xbc10813b	-0.008819873
126	0xbc5a8ad2	-0.013338761
127	0xba00b406	-0.0004909638
128	0x3d01a2d6	0.031649433
129	0x3b45425f	0.0030099375
130	0xbc1d23c4	-0.009591047
131	0x3c8de43a	0.017320741
132	0xba65ba88	-0.0008763452
133	0x3c83e7b0	0.016101688
134	0xbc263f15	-0.010146876
135	0xbc09f324	-0.008419786
136	0xbbaf1ce0	-0.0053440183
137	0xb9a4caf6	-0.00031431735
138	0x3b2222b9	0.0024739935
139	0x3b088169	0.0020829088
140	0xbccc8461	-0.024965467
141	0xbc7dc30d	-0.015488398
142	0xbcc3e186	-0.023911249
143	0x3c0f2f0d	0.008739245
144	0xbca48fe5	-0.020088146
145	0x3c365df9	0.011130803
146	0x3c38cde1	0.011279554
147	0xbba50259	-0.0050356803
148	0x3a88a9e5	0.0010426609
149	0xbb9300fe	-0.0044862023
150	0x3b5b319b	0.0033446315
151	0xbc322ca3	-0.0108749
152	0xbb940844	-0.004517587
153	0xbc8ff2e5	-0.017571876
154	0x3d1eeffc	0.038803086
155	0x3b7dfa1b	0.003875381
156	0x3c12734c	0.008938622
157	0xb9abfde1	-0.00032804816
158	0xbc9b31ac	-0.018944584
159	0xbcc86d23	-0.024466103
160	0xbc05cbbe	-0.008166252
161	0x3be21ed9	0.00690065
162	0x3c998a06	0.018742573
163	0x3c739236	0.014866402
164	0xbc0bbc8d	-0.008528841
165	0x3c7be5ff	0.01537466
166	0xba011825	-0.0004924557
167	0xb83f52e6	-4.5615154e-05
168	0x3c8e4049	0.017364638
169	0xbb506f6b	-0.0031804692
170	0x3b8e6fa7	0.004346806
171	0x394d45fc	0.00019576395
172	0xbccc7ed4	-0.02496282
173	0xbbef7a30	-0.007308267
174	0xbcdd65a1	-0.027026
175	0xbc52d3f0	-0.012867913
176	0x3c4815c3	0.01221222
177	0xbcede96d	-0.02904197
178	0xbc9dc915	-0.019260922
179	0xbb54c020	-0.0032463148
180	0x3b6c56eb	0.003606255
181	0xbb3fd25f	-0.0029269678
182	0x3ca1a8cf	0.019733815
183	0xbc2a5235	-0.010395576
184	0x3c2b6e25	0.010463272
185	0x3bb305b1	0.005463325
186	0xbac0d494	-0.0014711791
187	0x3c6d7e3d	0.01449543
188	0x3ae6430a	0.0017567587
189	0x3c5f3c5e	0.0136252325
190	0x3bf7f9a8	0.007567603
191	0xbc6d4d7d	-0.014483807
192	0x3beb1a19	0.007174742
193	0xbbee7fc2	-0.0072784135
194	0x3af36b93	0.0018571488
195	0xba2699fa	-0.0006355342
196	0x3c58eeb1	0.013240502
197	0xbc3d8354	-0.011566956
198	0x3b4082e0	0.0029374883
199	0xbc36cfb0	-0.011157915
200	0xbbe837a4	-0.007086711
201	0x3b261d01	0.0025346878
202	0x3cef96e2	0.029246751
203	0x39d399b3	0.0004035957
204	0x3b6fb337	0.0036575326
205	0x3c1981c9	0.009369322
206	0x3bc88fee	0.0061206734
207	0x3bc76072	0.006084495
208	0xbb3bea0b	-0.0028673436
209	0xbc9e3971	-0.0193145
210	0xbc01be23	-0.007918867
211	0xbb7349ad	-0.0037122772
212	0xbbaf7adc	-0.005355222
213	0xbc70d563	-0.014699313
214	0x3cffa3d2	0.031206045
215	0x3ba1ff58	0.0049437694
216	0xbcf1e257	-0.029526873
217	0x3c6f4e7f	0.014606117
218	0x3c08fb1a	0.0083606485
219	0x3cb15d3c	0.021650903
220	0xbd16b807	-0.036796596
221	0xbcc43856	-0.023952644
222	0x3c56ebe9	0.013117769
223	0x3c857d2f	0.016295044
224	0xbc9ead6c	-0.019369803
225	0xbb10e88a	-0.002211126
226	0xbcbdefd3	-0.023185646
227	0xbac2cef5	-0.0014862703
228	0xbc892183	-0.016739612
229	0xbc0a3a1a	-0.008436704
230	0xbb87d485	-0.0041452073
231	0x3c2dd82a	0.01061062
232	0xbb762aa9	-0.0037562049
233	0xbc83ec67	-0.016103936
234	0x3ca9f24a	0.020745415
235	0xbc49e636	-0.012322953
236	0x3c50490d	0.012712729
237	0x3c5bedbf	0.013423382
238	0x3b8ffdb6	0.0043942584
239	0xbce2ae10	-0.02767089
240	0xbc9d1129	-0.019173222
241	0x3b83b709	0.004019622
242	0x3b89d254	0.0042059813
243	0xb91e5222	-0.00015098651
244	0xbc764729	-0.015031614
245	0xbce327be	-0.027728911
246	0x3b110d6c	0.0022133244
247	0xbc2585f9	-0.010102742
248	0xbc363a25	-0.011122261
249	0x3c8be360	0.017076194
250	0xbb00e545	-0.0019667905
251	0xbc00e2be	-0.00786656
252	0x3bbde035	0.00579455
253	0x3c4d480c	0.012529384
254	0xbc33eabb	-0.010981257
255	0xbc0a5149	-0.008442231

action_model._continuous_distribution.mu.bias f4 [5]
0	0xbbdcbfc2	-0.0067367265
1	0x3c0d54b3	0.008626151
2	0x3b135e49	0.0022486618
3	0x3b55c422	0.0032618125
4	0xbb25e662	-0.002531432
